…
I0711 15:34:04.972108 21182 solver.cpp:81] Creating training net from train_net file: examples/DPN2_Coco_val/DPN2_VOC.prototxt
I0711 15:34:04.987267 21182 net.cpp:49] Initializing net from parameters: 
name: "DPN"
state {
  phase: TRAIN
}
layer {
  name: "data"
  type: "ImageSegData"
  top: "data"
  top: "label"
  transform_param {
    mirror: true
    crop_size: 480
    mean_value: 104.00699
    mean_value: 116.66877
    mean_value: 122.67892
    crop_resize: 0.8
    crop_resize: 1
  }
  image_data_param {
    source: "data/VOC_arg/train.txt"
    batch_size: 1
    shuffle: true
    root_folder: "data/VOC_arg"
    label_type: PIXEL
  }
}
layer {
  name: "conv1"
  type: "Convolution"
  bottom: "data"
  top: "conv1"
  param {
    name: "conv1_0"
    lr_mult: 1
    decay_mult: 1
  }
  convolution_param {
    num_output: 64
    bias_term: false
    pad: 3
    kernel_size: 7
    stride: 2
  }
}
layer {
  name: "bn_conv1"
  type: "BatchNorm"
  bottom: "conv1"
  top: "conv1"
  param {
    name: "bn_conv1_0"
    lr_mult: 0
  }
  param {
    name: "bn_conv1_1"
    lr_mult: 0
  }
  param {
    name: "bn_conv1_2"
    lr_mult: 0
  }
  batch_norm_param {
    use_global_stats: true
  }
}
layer {
  name: "scale_conv1"
  type: "Scale"
  bottom: "conv1"
  top: "conv1"
  param {
    name: "scale_conv1_0"
    lr_mult: 0
  }
  param {
    name: "scale_conv1_1"
    lr_mult: 0
  }
  scale_param {
    bias_term: true
  }
}
layer {
  name: "conv1_relu"
  type: "ReLU"
  bottom: "conv1"
  top: "conv1"
}
layer {
  name: "pool1"
  type: "Pooling"
  bottom: "conv1"
  top: "pool1"
  pooling_param {
    pool: MAX
    kernel_size: 3
    stride: 2
  }
}
layer {
  name: "res2a_branch1"
  type: "Convolution"
  bottom: "pool1"
  top: "res2a_branch1"
  param {
    name: "res2a_branch1_0"
    lr_mult: 1
    decay_mult: 1
  }
  convolution_param {
    num_output: 256
    bias_term: false
    pad: 0
    kernel_size: 1
    stride: 1
  }
}
layer {
  name: "bn2a_branch1"
  type: "BatchNorm"
  bottom: "res2a_branch1"
  top: "res2a_branch1"
  param {
    name: "bn2a_branch1_0"
    lr_mult: 0
  }
  param {
    name: "bn2a_branch1_1"
    lr_mult: 0
  }
  param {
    name: "bn2a_branch1_2"
    lr_mult: 0
  }
  batch_norm_param {
    use_global_stats: true
  }
}
layer {
  name: "scale2a_branch1"
  type: "Scale"
  bottom: "res2a_branch1"
  top: "res2a_branch1"
  param {
    name: "scale2a_branch1_0"
    lr_mult: 0
  }
  param {
    name: "scale2a_branch1_1"
    lr_mult: 0
  }
  scale_param {
    bias_term: true
  }
}
layer {
  name: "res2a_branch2a"
  type: "Convolution"
  bottom: "pool1"
  top: "res2a_branch2a"
  param {
    name: "res2a_branch2a_0"
    lr_mult: 1
    decay_mult: 1
  }
  convolution_param {
    num_output: 64
    bias_term: false
    pad: 0
    kernel_size: 1
    stride: 1
  }
}
layer {
  name: "bn2a_branch2a"
  type: "BatchNorm"
  bottom: "res2a_branch2a"
  top: "res2a_branch2a"
  param {
    name: "bn2a_branch2a_0"
    lr_mult: 0
  }
  param {
    name: "bn2a_branch2a_1"
    lr_mult: 0
  }
  param {
    name: "bn2a_branch2a_2"
    lr_mult: 0
  }
  batch_norm_param {
    use_global_stats: true
  }
}
layer {
  name: "scale2a_branch2a"
  type: "Scale"
  bottom: "res2a_branch2a"
  top: "res2a_branch2a"
  param {
    name: "scale2a_branch2a_0"
    lr_mult: 0
  }
  param {
    name: "scale2a_branch2a_1"
    lr_mult: 0
  }
  scale_param {
    bias_term: true
  }
}
layer {
  name: "res2a_branch2a_relu"
  type: "ReLU"
  bottom: "res2a_branch2a"
  top: "res2a_branch2a"
}
layer {
  name: "res2a_branch2b"
  type: "Convolution"
  bottom: "res2a_branch2a"
  top: "res2a_branch2b"
  param {
    name: "res2a_branch2b_0"
    lr_mult: 1
    decay_mult: 1
  }
  convolution_param {
    num_output: 64
    bias_term: false
    pad: 1
    kernel_size: 3
    stride: 1
  }
}
layer {
  name: "bn2a_branch2b"
  type: "BatchNorm"
  bottom: "res2a_branch2b"
  top: "res2a_branch2b"
  param {
    name: "bn2a_branch2b_0"
    lr_mult: 0
  }
  param {
    name: "bn2a_branch2b_1"
    lr_mult: 0
  }
  param {
    name: "bn2a_branch2b_2"
    lr_mult: 0
  }
  batch_norm_param {
    use_global_stats: true
  }
}
layer {
  name: "scale2a_branch2b"
  type: "Scale"
  bottom: "res2a_branch2b"
  top: "res2a_branch2b"
  param {
    name: "scale2a_branch2b_0"
    lr_mult: 0
  }
  param {
    name: "scale2a_branch2b_1"
    lr_mult: 0
  }
  scale_param {
    bias_term: true
  }
}
layer {
  name: "res2a_branch2b_relu"
  type: "ReLU"
  bottom: "res2a_branch2b"
  top: "res2a_branch2b"
}
layer {
  name: "res2a_branch2c"
  type: "Convolution"
  bottom: "res2a_branch2b"
  top: "res2a_branch2c"
  param {
    name: "res2a_branch2c_0"
    lr_mult: 1
    decay_mult: 1
  }
  convolution_param {
    num_output: 256
    bias_term: false
    pad: 0
    kernel_size: 1
    stride: 1
  }
}
layer {
  name: "bn2a_branch2c"
  type: "BatchNorm"
  bottom: "res2a_branch2c"
  top: "res2a_branch2c"
  param {
    name: "bn2a_branch2c_0"
    lr_mult: 0
  }
  param {
    name: "bn2a_branch2c_1"
    lr_mult: 0
  }
  param {
    name: "bn2a_branch2c_2"
    lr_mult: 0
  }
  batch_norm_param {
    use_global_stats: true
  }
}
layer {
  name: "scale2a_branch2c"
  type: "Scale"
  bottom: "res2a_branch2c"
  top: "res2a_branch2c"
  param {
    name: "scale2a_branch2c_0"
    lr_mult: 0
  }
  param {
    name: "scale2a_branch2c_1"
    lr_mult: 0
  }
  scale_param {
    bias_term: true
  }
}
layer {
  name: "res2a"
  type: "Eltwise"
  bottom: "res2a_branch1"
  bottom: "res2a_branch2c"
  top: "res2a"
}
layer {
  name: "res2a_relu"
  type: "ReLU"
  bottom: "res2a"
  top: "res2a"
}
layer {
  name: "res2b_branch2a"
  type: "Convolution"
  bottom: "res2a"
  top: "res2b_branch2a"
  param {
    name: "res2b_branch2a_0"
    lr_mult: 1
    decay_mult: 1
  }
  convolution_param {
    num_output: 64
    bias_term: false
    pad: 0
    kernel_size: 1
    stride: 1
  }
}
layer {
  name: "bn2b_branch2a"
  type: "BatchNorm"
  bottom: "res2b_branch2a"
  top: "res2b_branch2a"
  param {
    name: "bn2b_branch2a_0"
    lr_mult: 0
  }
  param {
    name: "bn2b_branch2a_1"
    lr_mult: 0
  }
  param {
    name: "bn2b_branch2a_2"
    lr_mult: 0
  }
  batch_norm_param {
    use_global_stats: true
  }
}
layer {
  name: "scale2b_branch2a"
  type: "Scale"
  bottom: "res2b_branch2a"
  top: "res2b_branch2a"
  param {
    name: "scale2b_branch2a_0"
    lr_mult: 0
  }
  param {
    name: "scale2b_branch2a_1"
    lr_mult: 0
  }
  scale_param {
    bias_term: true
  }
}
layer {
  name: "res2b_branch2a_relu"
  type: "ReLU"
  bottom: "res2b_branch2a"
  top: "res2b_branch2a"
}
layer {
  name: "res2b_branch2b"
  type: "Convolution"
  bottom: "res2b_branch2a"
  top: "res2b_branch2b"
  param {
    name: "res2b_branch2b_0"
    lr_mult: 1
    decay_mult: 1
  }
  convolution_param {
    num_output: 64
    bias_term: false
    pad: 1
    kernel_size: 3
    stride: 1
  }
}
layer {
  name: "bn2b_branch2b"
  type: "BatchNorm"
  bottom: "res2b_branch2b"
  top: "res2b_branch2b"
  param {
    name: "bn2b_branch2b_0"
    lr_mult: 0
  }
  param {
    name: "bn2b_branch2b_1"
    lr_mult: 0
  }
  param {
    name: "bn2b_branch2b_2"
    lr_mult: 0
  }
  batch_norm_param {
    use_global_stats: true
  }
}
layer {
  name: "scale2b_branch2b"
  type: "Scale"
  bottom: "res2b_branch2b"
  top: "res2b_branch2b"
  param {
    name: "scale2b_branch2b_0"
    lr_mult: 0
  }
  param {
    name: "scale2b_branch2b_1"
    lr_mult: 0
  }
  scale_param {
    bias_term: true
  }
}
layer {
  name: "res2b_branch2b_relu"
  type: "ReLU"
  bottom: "res2b_branch2b"
  top: "res2b_branch2b"
}
layer {
  name: "res2b_branch2c"
  type: "Convolution"
  bottom: "res2b_branch2b"
  top: "res2b_branch2c"
  param {
    name: "res2b_branch2c_0"
    lr_mult: 1
    decay_mult: 1
  }
  convolution_param {
    num_output: 256
    bias_term: false
    pad: 0
    kernel_size: 1
    stride: 1
  }
}
layer {
  name: "bn2b_branch2c"
  type: "BatchNorm"
  bottom: "res2b_branch2c"
  top: "res2b_branch2c"
  param {
    name: "bn2b_branch2c_0"
    lr_mult: 0
  }
  param {
    name: "bn2b_branch2c_1"
    lr_mult: 0
  }
  param {
    name: "bn2b_branch2c_2"
    lr_mult: 0
  }
  batch_norm_param {
    use_global_stats: true
  }
}
layer {
  name: "scale2b_branch2c"
  type: "Scale"
  bottom: "res2b_branch2c"
  top: "res2b_branch2c"
  param {
    name: "scale2b_branch2c_0"
    lr_mult: 0
  }
  param {
    name: "scale2b_branch2c_1"
    lr_mult: 0
  }
  scale_param {
    bias_term: true
  }
}
layer {
  name: "res2b"
  type: "Eltwise"
  bottom: "res2a"
  bottom: "res2b_branch2c"
  top: "res2b"
}
layer {
  name: "res2b_relu"
  type: "ReLU"
  bottom: "res2b"
  top: "res2b"
}
layer {
  name: "res2c_branch2a"
  type: "Convolution"
  bottom: "res2b"
  top: "res2c_branch2a"
  param {
    name: "res2c_branch2a_0"
    lr_mult: 1
    decay_mult: 1
  }
  convolution_param {
    num_output: 64
    bias_term: false
    pad: 0
    kernel_size: 1
    stride: 1
  }
}
layer {
  name: "bn2c_branch2a"
  type: "BatchNorm"
  bottom: "res2c_branch2a"
  top: "res2c_branch2a"
  param {
    name: "bn2c_branch2a_0"
    lr_mult: 0
  }
  param {
    name: "bn2c_branch2a_1"
    lr_mult: 0
  }
  param {
    name: "bn2c_branch2a_2"
    lr_mult: 0
  }
  batch_norm_param {
    use_global_stats: true
  }
}
layer {
  name: "scale2c_branch2a"
  type: "Scale"
  bottom: "res2c_branch2a"
  top: "res2c_branch2a"
  param {
    name: "scale2c_branch2a_0"
    lr_mult: 0
  }
  param {
    name: "scale2c_branch2a_1"
    lr_mult: 0
  }
  scale_param {
    bias_term: true
  }
}
layer {
  name: "res2c_branch2a_relu"
  type: "ReLU"
  bottom: "res2c_branch2a"
  top: "res2c_branch2a"
}
layer {
  name: "res2c_branch2b"
  type: "Convolution"
  bottom: "res2c_branch2a"
  top: "res2c_branch2b"
  param {
    name: "res2c_branch2b_0"
    lr_mult: 1
    decay_mult: 1
  }
  convolution_param {
    num_output: 64
    bias_term: false
    pad: 1
    kernel_size: 3
    stride: 1
  }
}
layer {
  name: "bn2c_branch2b"
  type: "BatchNorm"
  bottom: "res2c_branch2b"
  top: "res2c_branch2b"
  param {
    name: "bn2c_branch2b_0"
    lr_mult: 0
  }
  param {
    name: "bn2c_branch2b_1"
    lr_mult: 0
  }
  param {
    name: "bn2c_branch2b_2"
    lr_mult: 0
  }
  batch_norm_param {
    use_global_stats: true
  }
}
layer {
  name: "scale2c_branch2b"
  type: "Scale"
  bottom: "res2c_branch2b"
  top: "res2c_branch2b"
  param {
    name: "scale2c_branch2b_0"
    lr_mult: 0
  }
  param {
    name: "scale2c_branch2b_1"
    lr_mult: 0
  }
  scale_param {
    bias_term: true
  }
}
layer {
  name: "res2c_branch2b_relu"
  type: "ReLU"
  bottom: "res2c_branch2b"
  top: "res2c_branch2b"
}
layer {
  name: "res2c_branch2c"
  type: "Convolution"
  bottom: "res2c_branch2b"
  top: "res2c_branch2c"
  param {
    name: "res2c_branch2c_0"
    lr_mult: 1
    decay_mult: 1
  }
  convolution_param {
    num_output: 256
    bias_term: false
    pad: 0
    kernel_size: 1
    stride: 1
  }
}
layer {
  name: "bn2c_branch2c"
  type: "BatchNorm"
  bottom: "res2c_branch2c"
  top: "res2c_branch2c"
  param {
    name: "bn2c_branch2c_0"
    lr_mult: 0
  }
  param {
    name: "bn2c_branch2c_1"
    lr_mult: 0
  }
  param {
    name: "bn2c_branch2c_2"
    lr_mult: 0
  }
  batch_norm_param {
    use_global_stats: true
  }
}
layer {
  name: "scale2c_branch2c"
  type: "Scale"
  bottom: "res2c_branch2c"
  top: "res2c_branch2c"
  param {
    name: "scale2c_branch2c_0"
    lr_mult: 0
  }
  param {
    name: "scale2c_branch2c_1"
    lr_mult: 0
  }
  scale_param {
    bias_term: true
  }
}
layer {
  name: "res2c"
  type: "Eltwise"
  bottom: "res2b"
  bottom: "res2c_branch2c"
  top: "res2c"
}
layer {
  name: "res2c_relu"
  type: "ReLU"
  bottom: "res2c"
  top: "res2c"
}
layer {
  name: "res3a_branch1"
  type: "Convolution"
  bottom: "res2c"
  top: "res3a_branch1"
  param {
    name: "res3a_branch1_0"
    lr_mult: 1
    decay_mult: 1
  }
  convolution_param {
    num_output: 512
    bias_term: false
    pad: 0
    kernel_size: 1
    stride: 2
  }
}
layer {
  name: "bn3a_branch1"
  type: "BatchNorm"
  bottom: "res3a_branch1"
  top: "res3a_branch1"
  param {
    name: "bn3a_branch1_0"
    lr_mult: 0
  }
  param {
    name: "bn3a_branch1_1"
    lr_mult: 0
  }
  param {
    name: "bn3a_branch1_2"
    lr_mult: 0
  }
  batch_norm_param {
    use_global_stats: true
  }
}
layer {
  name: "scale3a_branch1"
  type: "Scale"
  bottom: "res3a_branch1"
  top: "res3a_branch1"
  param {
    name: "scale3a_branch1_0"
    lr_mult: 0
  }
  param {
    name: "scale3a_branch1_1"
    lr_mult: 0
  }
  scale_param {
    bias_term: true
  }
}
layer {
  name: "res3a_branch2a"
  type: "Convolution"
  bottom: "res2c"
  top: "res3a_branch2a"
  param {
    name: "res3a_branch2a_0"
    lr_mult: 1
    decay_mult: 1
  }
  convolution_param {
    num_output: 128
    bias_term: false
    pad: 0
    kernel_size: 1
    stride: 2
  }
}
layer {
  name: "bn3a_branch2a"
  type: "BatchNorm"
  bottom: "res3a_branch2a"
  top: "res3a_branch2a"
  param {
    name: "bn3a_branch2a_0"
    lr_mult: 0
  }
  param {
    name: "bn3a_branch2a_1"
    lr_mult: 0
  }
  param {
    name: "bn3a_branch2a_2"
    lr_mult: 0
  }
  batch_norm_param {
    use_global_stats: true
  }
}
layer {
  name: "scale3a_branch2a"
  type: "Scale"
  bottom: "res3a_branch2a"
  top: "res3a_branch2a"
  param {
    name: "scale3a_branch2a_0"
    lr_mult: 0
  }
  param {
    name: "scale3a_branch2a_1"
    lr_mult: 0
  }
  scale_param {
    bias_term: true
  }
}
layer {
  name: "res3a_branch2a_relu"
  type: "ReLU"
  bottom: "res3a_branch2a"
  top: "res3a_branch2a"
}
layer {
  name: "res3a_branch2b"
  type: "Convolution"
  bottom: "res3a_branch2a"
  top: "res3a_branch2b"
  param {
    name: "res3a_branch2b_0"
    lr_mult: 1
    decay_mult: 1
  }
  convolution_param {
    num_output: 128
    bias_term: false
    pad: 1
    kernel_size: 3
    stride: 1
  }
}
layer {
  name: "bn3a_branch2b"
  type: "BatchNorm"
  bottom: "res3a_branch2b"
  top: "res3a_branch2b"
  param {
    name: "bn3a_branch2b_0"
    lr_mult: 0
  }
  param {
    name: "bn3a_branch2b_1"
    lr_mult: 0
  }
  param {
    name: "bn3a_branch2b_2"
    lr_mult: 0
  }
  batch_norm_param {
    use_global_stats: true
  }
}
layer {
  name: "scale3a_branch2b"
  type: "Scale"
  bottom: "res3a_branch2b"
  top: "res3a_branch2b"
  param {
    name: "scale3a_branch2b_0"
    lr_mult: 0
  }
  param {
    name: "scale3a_branch2b_1"
    lr_mult: 0
  }
  scale_param {
    bias_term: true
  }
}
layer {
  name: "res3a_branch2b_relu"
  type: "ReLU"
  bottom: "res3a_branch2b"
  top: "res3a_branch2b"
}
layer {
  name: "res3a_branch2c"
  type: "Convolution"
  bottom: "res3a_branch2b"
  top: "res3a_branch2c"
  param {
    name: "res3a_branch2c_0"
    lr_mult: 1
    decay_mult: 1
  }
  convolution_param {
    num_output: 512
    bias_term: false
    pad: 0
    kernel_size: 1
    stride: 1
  }
}
layer {
  name: "bn3a_branch2c"
  type: "BatchNorm"
  bottom: "res3a_branch2c"
  top: "res3a_branch2c"
  param {
    name: "bn3a_branch2c_0"
    lr_mult: 0
  }
  param {
    name: "bn3a_branch2c_1"
    lr_mult: 0
  }
  param {
    name: "bn3a_branch2c_2"
    lr_mult: 0
  }
  batch_norm_param {
    use_global_stats: true
  }
}
layer {
  name: "scale3a_branch2c"
  type: "Scale"
  bottom: "res3a_branch2c"
  top: "res3a_branch2c"
  param {
    name: "scale3a_branch2c_0"
    lr_mult: 0
  }
  param {
    name: "scale3a_branch2c_1"
    lr_mult: 0
  }
  scale_param {
    bias_term: true
  }
}
layer {
  name: "res3a"
  type: "Eltwise"
  bottom: "res3a_branch1"
  bottom: "res3a_branch2c"
  top: "res3a"
}
layer {
  name: "res3a_relu"
  type: "ReLU"
  bottom: "res3a"
  top: "res3a"
}
layer {
  name: "res3b1_branch2a"
  type: "Convolution"
  bottom: "res3a"
  top: "res3b1_branch2a"
  param {
    name: "res3b1_branch2a_0"
    lr_mult: 1
    decay_mult: 1
  }
  convolution_param {
    num_output: 128
    bias_term: false
    pad: 0
    kernel_size: 1
    stride: 1
  }
}
layer {
  name: "bn3b1_branch2a"
  type: "BatchNorm"
  bottom: "res3b1_branch2a"
  top: "res3b1_branch2a"
  param {
    name: "bn3b1_branch2a_0"
    lr_mult: 0
  }
  param {
    name: "bn3b1_branch2a_1"
    lr_mult: 0
  }
  param {
    name: "bn3b1_branch2a_2"
    lr_mult: 0
  }
  batch_norm_param {
    use_global_stats: true
  }
}
layer {
  name: "scale3b1_branch2a"
  type: "Scale"
  bottom: "res3b1_branch2a"
  top: "res3b1_branch2a"
  param {
    name: "scale3b1_branch2a_0"
    lr_mult: 0
  }
  param {
    name: "scale3b1_branch2a_1"
    lr_mult: 0
  }
  scale_param {
    bias_term: true
  }
}
layer {
  name: "res3b1_branch2a_relu"
  type: "ReLU"
  bottom: "res3b1_branch2a"
  top: "res3b1_branch2a"
}
layer {
  name: "res3b1_branch2b"
  type: "Convolution"
  bottom: "res3b1_branch2a"
  top: "res3b1_branch2b"
  param {
    name: "res3b1_branch2b_0"
    lr_mult: 1
    decay_mult: 1
  }
  convolution_param {
    num_output: 128
    bias_term: false
    pad: 1
    kernel_size: 3
    stride: 1
  }
}
layer {
  name: "bn3b1_branch2b"
  type: "BatchNorm"
  bottom: "res3b1_branch2b"
  top: "res3b1_branch2b"
  param {
    name: "bn3b1_branch2b_0"
    lr_mult: 0
  }
  param {
    name: "bn3b1_branch2b_1"
    lr_mult: 0
  }
  param {
    name: "bn3b1_branch2b_2"
    lr_mult: 0
  }
  batch_norm_param {
    use_global_stats: true
  }
}
layer {
  name: "scale3b1_branch2b"
  type: "Scale"
  bottom: "res3b1_branch2b"
  top: "res3b1_branch2b"
  param {
    name: "scale3b1_branch2b_0"
    lr_mult: 0
  }
  param {
    name: "scale3b1_branch2b_1"
    lr_mult: 0
  }
  scale_param {
    bias_term: true
  }
}
layer {
  name: "res3b1_branch2b_relu"
  type: "ReLU"
  bottom: "res3b1_branch2b"
  top: "res3b1_branch2b"
}
layer {
  name: "res3b1_branch2c"
  type: "Convolution"
  bottom: "res3b1_branch2b"
  top: "res3b1_branch2c"
  param {
    name: "res3b1_branch2c_0"
    lr_mult: 1
    decay_mult: 1
  }
  convolution_param {
    num_output: 512
    bias_term: false
    pad: 0
    kernel_size: 1
    stride: 1
  }
}
layer {
  name: "bn3b1_branch2c"
  type: "BatchNorm"
  bottom: "res3b1_branch2c"
  top: "res3b1_branch2c"
  param {
    name: "bn3b1_branch2c_0"
    lr_mult: 0
  }
  param {
    name: "bn3b1_branch2c_1"
    lr_mult: 0
  }
  param {
    name: "bn3b1_branch2c_2"
    lr_mult: 0
  }
  batch_norm_param {
    use_global_stats: true
  }
}
layer {
  name: "scale3b1_branch2c"
  type: "Scale"
  bottom: "res3b1_branch2c"
  top: "res3b1_branch2c"
  param {
    name: "scale3b1_branch2c_0"
    lr_mult: 0
  }
  param {
    name: "scale3b1_branch2c_1"
    lr_mult: 0
  }
  scale_param {
    bias_term: true
  }
}
layer {
  name: "res3b1"
  type: "Eltwise"
  bottom: "res3a"
  bottom: "res3b1_branch2c"
  top: "res3b1"
}
layer {
  name: "res3b1_relu"
  type: "ReLU"
  bottom: "res3b1"
  top: "res3b1"
}
layer {
  name: "res3b2_branch2a"
  type: "Convolution"
  bottom: "res3b1"
  top: "res3b2_branch2a"
  param {
    name: "res3b2_branch2a_0"
    lr_mult: 1
    decay_mult: 1
  }
  convolution_param {
    num_output: 128
    bias_term: false
    pad: 0
    kernel_size: 1
    stride: 1
  }
}
layer {
  name: "bn3b2_branch2a"
  type: "BatchNorm"
  bottom: "res3b2_branch2a"
  top: "res3b2_branch2a"
  param {
    name: "bn3b2_branch2a_0"
    lr_mult: 0
  }
  param {
    name: "bn3b2_branch2a_1"
    lr_mult: 0
  }
  param {
    name: "bn3b2_branch2a_2"
    lr_mult: 0
  }
  batch_norm_param {
    use_global_stats: true
  }
}
layer {
  name: "scale3b2_branch2a"
  type: "Scale"
  bottom: "res3b2_branch2a"
  top: "res3b2_branch2a"
  param {
    name: "scale3b2_branch2a_0"
    lr_mult: 0
  }
  param {
    name: "scale3b2_branch2a_1"
    lr_mult: 0
  }
  scale_param {
    bias_term: true
  }
}
layer {
  name: "res3b2_branch2a_relu"
  type: "ReLU"
  bottom: "res3b2_branch2a"
  top: "res3b2_branch2a"
}
layer {
  name: "res3b2_branch2b"
  type: "Convolution"
  bottom: "res3b2_branch2a"
  top: "res3b2_branch2b"
  param {
    name: "res3b2_branch2b_0"
    lr_mult: 1
    decay_mult: 1
  }
  convolution_param {
    num_output: 128
    bias_term: false
    pad: 1
    kernel_size: 3
    stride: 1
  }
}
layer {
  name: "bn3b2_branch2b"
  type: "BatchNorm"
  bottom: "res3b2_branch2b"
  top: "res3b2_branch2b"
  param {
    name: "bn3b2_branch2b_0"
    lr_mult: 0
  }
  param {
    name: "bn3b2_branch2b_1"
    lr_mult: 0
  }
  param {
    name: "bn3b2_branch2b_2"
    lr_mult: 0
  }
  batch_norm_param {
    use_global_stats: true
  }
}
layer {
  name: "scale3b2_branch2b"
  type: "Scale"
  bottom: "res3b2_branch2b"
  top: "res3b2_branch2b"
  param {
    name: "scale3b2_branch2b_0"
    lr_mult: 0
  }
  param {
    name: "scale3b2_branch2b_1"
    lr_mult: 0
  }
  scale_param {
    bias_term: true
  }
}
layer {
  name: "res3b2_branch2b_relu"
  type: "ReLU"
  bottom: "res3b2_branch2b"
  top: "res3b2_branch2b"
}
layer {
  name: "res3b2_branch2c"
  type: "Convolution"
  bottom: "res3b2_branch2b"
  top: "res3b2_branch2c"
  param {
    name: "res3b2_branch2c_0"
    lr_mult: 1
    decay_mult: 1
  }
  convolution_param {
    num_output: 512
    bias_term: false
    pad: 0
    kernel_size: 1
    stride: 1
  }
}
layer {
  name: "bn3b2_branch2c"
  type: "BatchNorm"
  bottom: "res3b2_branch2c"
  top: "res3b2_branch2c"
  param {
    name: "bn3b2_branch2c_0"
    lr_mult: 0
  }
  param {
    name: "bn3b2_branch2c_1"
    lr_mult: 0
  }
  param {
    name: "bn3b2_branch2c_2"
    lr_mult: 0
  }
  batch_norm_param {
    use_global_stats: true
  }
}
layer {
  name: "scale3b2_branch2c"
  type: "Scale"
  bottom: "res3b2_branch2c"
  top: "res3b2_branch2c"
  param {
    name: "scale3b2_branch2c_0"
    lr_mult: 0
  }
  param {
    name: "scale3b2_branch2c_1"
    lr_mult: 0
  }
  scale_param {
    bias_term: true
  }
}
layer {
  name: "res3b2"
  type: "Eltwise"
  bottom: "res3b1"
  bottom: "res3b2_branch2c"
  top: "res3b2"
}
layer {
  name: "res3b2_relu"
  type: "ReLU"
  bottom: "res3b2"
  top: "res3b2"
}
layer {
  name: "res3b3_branch2a"
  type: "Convolution"
  bottom: "res3b2"
  top: "res3b3_branch2a"
  param {
    name: "res3b3_branch2a_0"
    lr_mult: 1
    decay_mult: 1
  }
  convolution_param {
    num_output: 128
    bias_term: false
    pad: 0
    kernel_size: 1
    stride: 1
  }
}
layer {
  name: "bn3b3_branch2a"
  type: "BatchNorm"
  bottom: "res3b3_branch2a"
  top: "res3b3_branch2a"
  param {
    name: "bn3b3_branch2a_0"
    lr_mult: 0
  }
  param {
    name: "bn3b3_branch2a_1"
    lr_mult: 0
  }
  param {
    name: "bn3b3_branch2a_2"
    lr_mult: 0
  }
  batch_norm_param {
    use_global_stats: true
  }
}
layer {
  name: "scale3b3_branch2a"
  type: "Scale"
  bottom: "res3b3_branch2a"
  top: "res3b3_branch2a"
  param {
    name: "scale3b3_branch2a_0"
    lr_mult: 0
  }
  param {
    name: "scale3b3_branch2a_1"
    lr_mult: 0
  }
  scale_param {
    bias_term: true
  }
}
layer {
  name: "res3b3_branch2a_relu"
  type: "ReLU"
  bottom: "res3b3_branch2a"
  top: "res3b3_branch2a"
}
layer {
  name: "res3b3_branch2b"
  type: "Convolution"
  bottom: "res3b3_branch2a"
  top: "res3b3_branch2b"
  param {
    name: "res3b3_branch2b_0"
    lr_mult: 1
    decay_mult: 1
  }
  convolution_param {
    num_output: 128
    bias_term: false
    pad: 1
    kernel_size: 3
    stride: 1
  }
}
layer {
  name: "bn3b3_branch2b"
  type: "BatchNorm"
  bottom: "res3b3_branch2b"
  top: "res3b3_branch2b"
  param {
    name: "bn3b3_branch2b_0"
    lr_mult: 0
  }
  param {
    name: "bn3b3_branch2b_1"
    lr_mult: 0
  }
  param {
    name: "bn3b3_branch2b_2"
    lr_mult: 0
  }
  batch_norm_param {
    use_global_stats: true
  }
}
layer {
  name: "scale3b3_branch2b"
  type: "Scale"
  bottom: "res3b3_branch2b"
  top: "res3b3_branch2b"
  param {
    name: "scale3b3_branch2b_0"
    lr_mult: 0
  }
  param {
    name: "scale3b3_branch2b_1"
    lr_mult: 0
  }
  scale_param {
    bias_term: true
  }
}
layer {
  name: "res3b3_branch2b_relu"
  type: "ReLU"
  bottom: "res3b3_branch2b"
  top: "res3b3_branch2b"
}
layer {
  name: "res3b3_branch2c"
  type: "Convolution"
  bottom: "res3b3_branch2b"
  top: "res3b3_branch2c"
  param {
    name: "res3b3_branch2c_0"
    lr_mult: 1
    decay_mult: 1
  }
  convolution_param {
    num_output: 512
    bias_term: false
    pad: 0
    kernel_size: 1
    stride: 1
  }
}
layer {
  name: "bn3b3_branch2c"
  type: "BatchNorm"
  bottom: "res3b3_branch2c"
  top: "res3b3_branch2c"
  param {
    name: "bn3b3_branch2c_0"
    lr_mult: 0
  }
  param {
    name: "bn3b3_branch2c_1"
    lr_mult: 0
  }
  param {
    name: "bn3b3_branch2c_2"
    lr_mult: 0
  }
  batch_norm_param {
    use_global_stats: true
  }
}
layer {
  name: "scale3b3_branch2c"
  type: "Scale"
  bottom: "res3b3_branch2c"
  top: "res3b3_branch2c"
  param {
    name: "scale3b3_branch2c_0"
    lr_mult: 0
  }
  param {
    name: "scale3b3_branch2c_1"
    lr_mult: 0
  }
  scale_param {
    bias_term: true
  }
}
layer {
  name: "res3b3"
  type: "Eltwise"
  bottom: "res3b2"
  bottom: "res3b3_branch2c"
  top: "res3b3"
}
layer {
  name: "res3b3_relu"
  type: "ReLU"
  bottom: "res3b3"
  top: "res3b3"
}
layer {
  name: "res4a_branch1"
  type: "Convolution"
  bottom: "res3b3"
  top: "res4a_branch1"
  param {
    name: "res4a_branch1_0"
    lr_mult: 1
    decay_mult: 1
  }
  convolution_param {
    num_output: 1024
    bias_term: false
    pad: 0
    kernel_size: 1
    stride: 1
  }
}
layer {
  name: "bn4a_branch1"
  type: "BatchNorm"
  bottom: "res4a_branch1"
  top: "res4a_branch1"
  param {
    name: "bn4a_branch1_0"
    lr_mult: 0
  }
  param {
    name: "bn4a_branch1_1"
    lr_mult: 0
  }
  param {
    name: "bn4a_branch1_2"
    lr_mult: 0
  }
  batch_norm_param {
    use_global_stats: true
  }
}
layer {
  name: "scale4a_branch1"
  type: "Scale"
  bottom: "res4a_branch1"
  top: "res4a_branch1"
  param {
    name: "scale4a_branch1_0"
    lr_mult: 0
  }
  param {
    name: "scale4a_branch1_1"
    lr_mult: 0
  }
  scale_param {
    bias_term: true
  }
}
layer {
  name: "res4a_branch2a"
  type: "Convolution"
  bottom: "res3b3"
  top: "res4a_branch2a"
  param {
    name: "res4a_branch2a_0"
    lr_mult: 1
    decay_mult: 1
  }
  convolution_param {
    num_output: 256
    bias_term: false
    pad: 0
    kernel_size: 1
    stride: 1
  }
}
layer {
  name: "bn4a_branch2a"
  type: "BatchNorm"
  bottom: "res4a_branch2a"
  top: "res4a_branch2a"
  param {
    name: "bn4a_branch2a_0"
    lr_mult: 0
  }
  param {
    name: "bn4a_branch2a_1"
    lr_mult: 0
  }
  param {
    name: "bn4a_branch2a_2"
    lr_mult: 0
  }
  batch_norm_param {
    use_global_stats: true
  }
}
layer {
  name: "scale4a_branch2a"
  type: "Scale"
  bottom: "res4a_branch2a"
  top: "res4a_branch2a"
  param {
    name: "scale4a_branch2a_0"
    lr_mult: 0
  }
  param {
    name: "scale4a_branch2a_1"
    lr_mult: 0
  }
  scale_param {
    bias_term: true
  }
}
layer {
  name: "res4a_branch2a_relu"
  type: "ReLU"
  bottom: "res4a_branch2a"
  top: "res4a_branch2a"
}
layer {
  name: "res4a_branch2b"
  type: "Convolution"
  bottom: "res4a_branch2a"
  top: "res4a_branch2b"
  param {
    name: "res4a_branch2b_0"
    lr_mult: 1
    decay_mult: 1
  }
  convolution_param {
    num_output: 256
    bias_term: false
    pad: 2
    kernel_size: 3
    stride: 1
    dilation: 2
  }
}
layer {
  name: "bn4a_branch2b"
  type: "BatchNorm"
  bottom: "res4a_branch2b"
  top: "res4a_branch2b"
  param {
    name: "bn4a_branch2b_0"
    lr_mult: 0
  }
  param {
    name: "bn4a_branch2b_1"
    lr_mult: 0
  }
  param {
    name: "bn4a_branch2b_2"
    lr_mult: 0
  }
  batch_norm_param {
    use_global_stats: true
  }
}
layer {
  name: "scale4a_branch2b"
  type: "Scale"
  bottom: "res4a_branch2b"
  top: "res4a_branch2b"
  param {
    name: "scale4a_branch2b_0"
    lr_mult: 0
  }
  param {
    name: "scale4a_branch2b_1"
    lr_mult: 0
  }
  scale_param {
    bias_term: true
  }
}
layer {
  name: "res4a_branch2b_relu"
  type: "ReLU"
  bottom: "res4a_branch2b"
  top: "res4a_branch2b"
}
layer {
  name: "res4a_branch2c"
  type: "Convolution"
  bottom: "res4a_branch2b"
  top: "res4a_branch2c"
  param {
    name: "res4a_branch2c_0"
    lr_mult: 1
    decay_mult: 1
  }
  convolution_param {
    num_output: 1024
    bias_term: false
    pad: 0
    kernel_size: 1
    stride: 1
  }
}
layer {
  name: "bn4a_branch2c"
  type: "BatchNorm"
  bottom: "res4a_branch2c"
  top: "res4a_branch2c"
  param {
    name: "bn4a_branch2c_0"
    lr_mult: 0
  }
  param {
    name: "bn4a_branch2c_1"
    lr_mult: 0
  }
  param {
    name: "bn4a_branch2c_2"
    lr_mult: 0
  }
  batch_norm_param {
    use_global_stats: true
  }
}
layer {
  name: "scale4a_branch2c"
  type: "Scale"
  bottom: "res4a_branch2c"
  top: "res4a_branch2c"
  param {
    name: "scale4a_branch2c_0"
    lr_mult: 0
  }
  param {
    name: "scale4a_branch2c_1"
    lr_mult: 0
  }
  scale_param {
    bias_term: true
  }
}
layer {
  name: "res4a"
  type: "Eltwise"
  bottom: "res4a_branch1"
  bottom: "res4a_branch2c"
  top: "res4a"
}
layer {
  name: "res4a_relu"
  type: "ReLU"
  bottom: "res4a"
  top: "res4a"
}
layer {
  name: "res4b1_branch2a"
  type: "Convolution"
  bottom: "res4a"
  top: "res4b1_branch2a"
  param {
    name: "res4b1_branch2a_0"
    lr_mult: 1
    decay_mult: 1
  }
  convolution_param {
    num_output: 256
    bias_term: false
    pad: 0
    kernel_size: 1
    stride: 1
  }
}
layer {
  name: "bn4b1_branch2a"
  type: "BatchNorm"
  bottom: "res4b1_branch2a"
  top: "res4b1_branch2a"
  param {
    name: "bn4b1_branch2a_0"
    lr_mult: 0
  }
  param {
    name: "bn4b1_branch2a_1"
    lr_mult: 0
  }
  param {
    name: "bn4b1_branch2a_2"
    lr_mult: 0
  }
  batch_norm_param {
    use_global_stats: true
  }
}
layer {
  name: "scale4b1_branch2a"
  type: "Scale"
  bottom: "res4b1_branch2a"
  top: "res4b1_branch2a"
  param {
    name: "scale4b1_branch2a_0"
    lr_mult: 0
  }
  param {
    name: "scale4b1_branch2a_1"
    lr_mult: 0
  }
  scale_param {
    bias_term: true
  }
}
layer {
  name: "res4b1_branch2a_relu"
  type: "ReLU"
  bottom: "res4b1_branch2a"
  top: "res4b1_branch2a"
}
layer {
  name: "res4b1_branch2b"
  type: "Convolution"
  bottom: "res4b1_branch2a"
  top: "res4b1_branch2b"
  param {
    name: "res4b1_branch2b_0"
    lr_mult: 1
    decay_mult: 1
  }
  convolution_param {
    num_output: 256
    bias_term: false
    pad: 2
    kernel_size: 3
    stride: 1
    
I0711 15:34:04.989575 21182 layer_factory.hpp:77] Creating layer data
I0711 15:34:04.989629 21182 net.cpp:91] Creating Layer data
I0711 15:34:04.989639 21182 net.cpp:399] data -> data
I0711 15:34:04.989670 21182 net.cpp:399] data -> label
I0711 15:34:04.990063 21182 image_seg_data_layer.cpp:45] Opening file data/VOC_arg/train.txt
I0711 15:34:05.006292 21182 image_seg_data_layer.cpp:101] Shuffling data
I0711 15:34:05.006490 21182 image_seg_data_layer.cpp:106] A total of 10582 images.
I0711 15:34:05.021230 21182 image_seg_data_layer.cpp:179] output data size: 1,3,480,480
I0711 15:34:05.021250 21182 image_seg_data_layer.cpp:183] output label size: 1,1,480,480
I0711 15:34:05.029681 21182 net.cpp:141] Setting up data
I0711 15:34:05.029719 21182 net.cpp:148] Top shape: 1 3 480 480 (691200)
I0711 15:34:05.029726 21182 net.cpp:148] Top shape: 1 1 480 480 (230400)
I0711 15:34:05.029731 21182 net.cpp:156] Memory required for data: 3686400
I0711 15:34:05.029741 21182 layer_factory.hpp:77] Creating layer conv1
I0711 15:34:05.029765 21182 net.cpp:91] Creating Layer conv1
I0711 15:34:05.029774 21182 net.cpp:425] conv1 <- data
I0711 15:34:05.029794 21182 net.cpp:399] conv1 -> conv1
I0711 15:34:05.031008 21182 net.cpp:141] Setting up conv1
I0711 15:34:05.031025 21182 net.cpp:148] Top shape: 1 64 240 240 (3686400)
I0711 15:34:05.031030 21182 net.cpp:156] Memory required for data: 18432000
I0711 15:34:05.031043 21182 layer_factory.hpp:77] Creating layer bn_conv1
I0711 15:34:05.031061 21182 net.cpp:91] Creating Layer bn_conv1
I0711 15:34:05.031066 21182 net.cpp:425] bn_conv1 <- conv1
I0711 15:34:05.031075 21182 net.cpp:386] bn_conv1 -> conv1 (in-place)
I0711 15:34:05.031935 21182 net.cpp:141] Setting up bn_conv1
I0711 15:34:05.031951 21182 net.cpp:148] Top shape: 1 64 240 240 (3686400)
I0711 15:34:05.031955 21182 net.cpp:156] Memory required for data: 33177600
I0711 15:34:05.031968 21182 layer_factory.hpp:77] Creating layer scale_conv1
I0711 15:34:05.031985 21182 net.cpp:91] Creating Layer scale_conv1
I0711 15:34:05.031994 21182 net.cpp:425] scale_conv1 <- conv1
I0711 15:34:05.032009 21182 net.cpp:386] scale_conv1 -> conv1 (in-place)
I0711 15:34:05.032132 21182 layer_factory.hpp:77] Creating layer scale_conv1
I0711 15:34:05.032676 21182 net.cpp:141] Setting up scale_conv1
I0711 15:34:05.032692 21182 net.cpp:148] Top shape: 1 64 240 240 (3686400)
I0711 15:34:05.032698 21182 net.cpp:156] Memory required for data: 47923200
I0711 15:34:05.032708 21182 layer_factory.hpp:77] Creating layer conv1_relu
I0711 15:34:05.032718 21182 net.cpp:91] Creating Layer conv1_relu
I0711 15:34:05.032723 21182 net.cpp:425] conv1_relu <- conv1
I0711 15:34:05.032729 21182 net.cpp:386] conv1_relu -> conv1 (in-place)
I0711 15:34:05.032743 21182 net.cpp:141] Setting up conv1_relu
I0711 15:34:05.032752 21182 net.cpp:148] Top shape: 1 64 240 240 (3686400)
I0711 15:34:05.032763 21182 net.cpp:156] Memory required for data: 62668800
I0711 15:34:05.032768 21182 layer_factory.hpp:77] Creating layer pool1
I0711 15:34:05.032774 21182 net.cpp:91] Creating Layer pool1
I0711 15:34:05.032778 21182 net.cpp:425] pool1 <- conv1
I0711 15:34:05.032784 21182 net.cpp:399] pool1 -> pool1
I0711 15:34:05.032840 21182 net.cpp:141] Setting up pool1
I0711 15:34:05.032848 21182 net.cpp:148] Top shape: 1 64 120 120 (921600)
I0711 15:34:05.032852 21182 net.cpp:156] Memory required for data: 66355200
I0711 15:34:05.032855 21182 layer_factory.hpp:77] Creating layer pool1_pool1_0_split
I0711 15:34:05.032863 21182 net.cpp:91] Creating Layer pool1_pool1_0_split
I0711 15:34:05.032867 21182 net.cpp:425] pool1_pool1_0_split <- pool1
I0711 15:34:05.032874 21182 net.cpp:399] pool1_pool1_0_split -> pool1_pool1_0_split_0
I0711 15:34:05.032883 21182 net.cpp:399] pool1_pool1_0_split -> pool1_pool1_0_split_1
I0711 15:34:05.032923 21182 net.cpp:141] Setting up pool1_pool1_0_split
I0711 15:34:05.032932 21182 net.cpp:148] Top shape: 1 64 120 120 (921600)
I0711 15:34:05.032937 21182 net.cpp:148] Top shape: 1 64 120 120 (921600)
I0711 15:34:05.032940 21182 net.cpp:156] Memory required for data: 73728000
I0711 15:34:05.032944 21182 layer_factory.hpp:77] Creating layer res2a_branch1
I0711 15:34:05.032954 21182 net.cpp:91] Creating Layer res2a_branch1
I0711 15:34:05.032959 21182 net.cpp:425] res2a_branch1 <- pool1_pool1_0_split_0
I0711 15:34:05.032968 21182 net.cpp:399] res2a_branch1 -> res2a_branch1
I0711 15:34:05.033159 21182 net.cpp:141] Setting up res2a_branch1
I0711 15:34:05.033169 21182 net.cpp:148] Top shape: 1 256 120 120 (3686400)
I0711 15:34:05.033172 21182 net.cpp:156] Memory required for data: 88473600
I0711 15:34:05.033179 21182 layer_factory.hpp:77] Creating layer bn2a_branch1
I0711 15:34:05.033191 21182 net.cpp:91] Creating Layer bn2a_branch1
I0711 15:34:05.033197 21182 net.cpp:425] bn2a_branch1 <- res2a_branch1
I0711 15:34:05.033205 21182 net.cpp:386] bn2a_branch1 -> res2a_branch1 (in-place)
I0711 15:34:05.033372 21182 net.cpp:141] Setting up bn2a_branch1
I0711 15:34:05.033382 21182 net.cpp:148] Top shape: 1 256 120 120 (3686400)
I0711 15:34:05.033386 21182 net.cpp:156] Memory required for data: 103219200
I0711 15:34:05.033398 21182 layer_factory.hpp:77] Creating layer scale2a_branch1
I0711 15:34:05.033407 21182 net.cpp:91] Creating Layer scale2a_branch1
I0711 15:34:05.033413 21182 net.cpp:425] scale2a_branch1 <- res2a_branch1
I0711 15:34:05.033421 21182 net.cpp:386] scale2a_branch1 -> res2a_branch1 (in-place)
I0711 15:34:05.033462 21182 layer_factory.hpp:77] Creating layer scale2a_branch1
I0711 15:34:05.033583 21182 net.cpp:141] Setting up scale2a_branch1
I0711 15:34:05.033593 21182 net.cpp:148] Top shape: 1 256 120 120 (3686400)
I0711 15:34:05.033607 21182 net.cpp:156] Memory required for data: 117964800
I0711 15:34:05.033615 21182 layer_factory.hpp:77] Creating layer res2a_branch2a
I0711 15:34:05.033627 21182 net.cpp:91] Creating Layer res2a_branch2a
I0711 15:34:05.033633 21182 net.cpp:425] res2a_branch2a <- pool1_pool1_0_split_1
I0711 15:34:05.033643 21182 net.cpp:399] res2a_branch2a -> res2a_branch2a
I0711 15:34:05.034459 21182 net.cpp:141] Setting up res2a_branch2a
I0711 15:34:05.034476 21182 net.cpp:148] Top shape: 1 64 120 120 (921600)
I0711 15:34:05.034482 21182 net.cpp:156] Memory required for data: 121651200
I0711 15:34:05.034488 21182 layer_factory.hpp:77] Creating layer bn2a_branch2a
I0711 15:34:05.034512 21182 net.cpp:91] Creating Layer bn2a_branch2a
I0711 15:34:05.034518 21182 net.cpp:425] bn2a_branch2a <- res2a_branch2a
I0711 15:34:05.034526 21182 net.cpp:386] bn2a_branch2a -> res2a_branch2a (in-place)
I0711 15:34:05.034728 21182 net.cpp:141] Setting up bn2a_branch2a
I0711 15:34:05.034739 21182 net.cpp:148] Top shape: 1 64 120 120 (921600)
I0711 15:34:05.034744 21182 net.cpp:156] Memory required for data: 125337600
I0711 15:34:05.034754 21182 layer_factory.hpp:77] Creating layer scale2a_branch2a
I0711 15:34:05.034764 21182 net.cpp:91] Creating Layer scale2a_branch2a
I0711 15:34:05.034770 21182 net.cpp:425] scale2a_branch2a <- res2a_branch2a
I0711 15:34:05.034775 21182 net.cpp:386] scale2a_branch2a -> res2a_branch2a (in-place)
I0711 15:34:05.034814 21182 layer_factory.hpp:77] Creating layer scale2a_branch2a
I0711 15:34:05.034942 21182 net.cpp:141] Setting up scale2a_branch2a
I0711 15:34:05.034952 21182 net.cpp:148] Top shape: 1 64 120 120 (921600)
I0711 15:34:05.034956 21182 net.cpp:156] Memory required for data: 129024000
I0711 15:34:05.034968 21182 layer_factory.hpp:77] Creating layer res2a_branch2a_relu
I0711 15:34:05.034976 21182 net.cpp:91] Creating Layer res2a_branch2a_relu
I0711 15:34:05.034982 21182 net.cpp:425] res2a_branch2a_relu <- res2a_branch2a
I0711 15:34:05.034989 21182 net.cpp:386] res2a_branch2a_relu -> res2a_branch2a (in-place)
I0711 15:34:05.034996 21182 net.cpp:141] Setting up res2a_branch2a_relu
I0711 15:34:05.035002 21182 net.cpp:148] Top shape: 1 64 120 120 (921600)
I0711 15:34:05.035006 21182 net.cpp:156] Memory required for data: 132710400
I0711 15:34:05.035010 21182 layer_factory.hpp:77] Creating layer res2a_branch2b
I0711 15:34:05.035018 21182 net.cpp:91] Creating Layer res2a_branch2b
I0711 15:34:05.035024 21182 net.cpp:425] res2a_branch2b <- res2a_branch2a
I0711 15:34:05.035032 21182 net.cpp:399] res2a_branch2b -> res2a_branch2b
I0711 15:34:05.035207 21182 net.cpp:141] Setting up res2a_branch2b
I0711 15:34:05.035218 21182 net.cpp:148] Top shape: 1 64 120 120 (921600)
I0711 15:34:05.035224 21182 net.cpp:156] Memory required for data: 136396800
I0711 15:34:05.035230 21182 layer_factory.hpp:77] Creating layer bn2a_branch2b
I0711 15:34:05.035238 21182 net.cpp:91] Creating Layer bn2a_branch2b
I0711 15:34:05.035244 21182 net.cpp:425] bn2a_branch2b <- res2a_branch2b
I0711 15:34:05.035251 21182 net.cpp:386] bn2a_branch2b -> res2a_branch2b (in-place)
I0711 15:34:05.035432 21182 net.cpp:141] Setting up bn2a_branch2b
I0711 15:34:05.035442 21182 net.cpp:148] Top shape: 1 64 120 120 (921600)
I0711 15:34:05.035446 21182 net.cpp:156] Memory required for data: 140083200
I0711 15:34:05.035454 21182 layer_factory.hpp:77] Creating layer scale2a_branch2b
I0711 15:34:05.035465 21182 net.cpp:91] Creating Layer scale2a_branch2b
I0711 15:34:05.035470 21182 net.cpp:425] scale2a_branch2b <- res2a_branch2b
I0711 15:34:05.035477 21182 net.cpp:386] scale2a_branch2b -> res2a_branch2b (in-place)
I0711 15:34:05.035514 21182 layer_factory.hpp:77] Creating layer scale2a_branch2b
I0711 15:34:05.035645 21182 net.cpp:141] Setting up scale2a_branch2b
I0711 15:34:05.035655 21182 net.cpp:148] Top shape: 1 64 120 120 (921600)
I0711 15:34:05.035658 21182 net.cpp:156] Memory required for data: 143769600
I0711 15:34:05.035665 21182 layer_factory.hpp:77] Creating layer res2a_branch2b_relu
I0711 15:34:05.035673 21182 net.cpp:91] Creating Layer res2a_branch2b_relu
I0711 15:34:05.035677 21182 net.cpp:425] res2a_branch2b_relu <- res2a_branch2b
I0711 15:34:05.035683 21182 net.cpp:386] res2a_branch2b_relu -> res2a_branch2b (in-place)
I0711 15:34:05.035691 21182 net.cpp:141] Setting up res2a_branch2b_relu
I0711 15:34:05.035698 21182 net.cpp:148] Top shape: 1 64 120 120 (921600)
I0711 15:34:05.035701 21182 net.cpp:156] Memory required for data: 147456000
I0711 15:34:05.035706 21182 layer_factory.hpp:77] Creating layer res2a_branch2c
I0711 15:34:05.035714 21182 net.cpp:91] Creating Layer res2a_branch2c
I0711 15:34:05.035719 21182 net.cpp:425] res2a_branch2c <- res2a_branch2b
I0711 15:34:05.035727 21182 net.cpp:399] res2a_branch2c -> res2a_branch2c
I0711 15:34:05.035917 21182 net.cpp:141] Setting up res2a_branch2c
I0711 15:34:05.035929 21182 net.cpp:148] Top shape: 1 256 120 120 (3686400)
I0711 15:34:05.035933 21182 net.cpp:156] Memory required for data: 162201600
I0711 15:34:05.035940 21182 layer_factory.hpp:77] Creating layer bn2a_branch2c
I0711 15:34:05.035949 21182 net.cpp:91] Creating Layer bn2a_branch2c
I0711 15:34:05.035961 21182 net.cpp:425] bn2a_branch2c <- res2a_branch2c
I0711 15:34:05.035970 21182 net.cpp:386] bn2a_branch2c -> res2a_branch2c (in-place)
I0711 15:34:05.036141 21182 net.cpp:141] Setting up bn2a_branch2c
I0711 15:34:05.036150 21182 net.cpp:148] Top shape: 1 256 120 120 (3686400)
I0711 15:34:05.036154 21182 net.cpp:156] Memory required for data: 176947200
I0711 15:34:05.036162 21182 layer_factory.hpp:77] Creating layer scale2a_branch2c
I0711 15:34:05.036172 21182 net.cpp:91] Creating Layer scale2a_branch2c
I0711 15:34:05.036177 21182 net.cpp:425] scale2a_branch2c <- res2a_branch2c
I0711 15:34:05.036185 21182 net.cpp:386] scale2a_branch2c -> res2a_branch2c (in-place)
I0711 15:34:05.036221 21182 layer_factory.hpp:77] Creating layer scale2a_branch2c
I0711 15:34:05.036344 21182 net.cpp:141] Setting up scale2a_branch2c
I0711 15:34:05.036352 21182 net.cpp:148] Top shape: 1 256 120 120 (3686400)
I0711 15:34:05.036356 21182 net.cpp:156] Memory required for data: 191692800
I0711 15:34:05.036363 21182 layer_factory.hpp:77] Creating layer res2a
I0711 15:34:05.036380 21182 net.cpp:91] Creating Layer res2a
I0711 15:34:05.036386 21182 net.cpp:425] res2a <- res2a_branch1
I0711 15:34:05.036391 21182 net.cpp:425] res2a <- res2a_branch2c
I0711 15:34:05.036397 21182 net.cpp:399] res2a -> res2a
I0711 15:34:05.036425 21182 net.cpp:141] Setting up res2a
I0711 15:34:05.036434 21182 net.cpp:148] Top shape: 1 256 120 120 (3686400)
I0711 15:34:05.036438 21182 net.cpp:156] Memory required for data: 206438400
I0711 15:34:05.036442 21182 layer_factory.hpp:77] Creating layer res2a_relu
I0711 15:34:05.036448 21182 net.cpp:91] Creating Layer res2a_relu
I0711 15:34:05.036453 21182 net.cpp:425] res2a_relu <- res2a
I0711 15:34:05.036469 21182 net.cpp:386] res2a_relu -> res2a (in-place)
I0711 15:34:05.036478 21182 net.cpp:141] Setting up res2a_relu
I0711 15:34:05.036485 21182 net.cpp:148] Top shape: 1 256 120 120 (3686400)
I0711 15:34:05.036489 21182 net.cpp:156] Memory required for data: 221184000
I0711 15:34:05.036494 21182 layer_factory.hpp:77] Creating layer res2a_res2a_relu_0_split
I0711 15:34:05.036499 21182 net.cpp:91] Creating Layer res2a_res2a_relu_0_split
I0711 15:34:05.036504 21182 net.cpp:425] res2a_res2a_relu_0_split <- res2a
I0711 15:34:05.036509 21182 net.cpp:399] res2a_res2a_relu_0_split -> res2a_res2a_relu_0_split_0
I0711 15:34:05.036516 21182 net.cpp:399] res2a_res2a_relu_0_split -> res2a_res2a_relu_0_split_1
I0711 15:34:05.036551 21182 net.cpp:141] Setting up res2a_res2a_relu_0_split
I0711 15:34:05.036559 21182 net.cpp:148] Top shape: 1 256 120 120 (3686400)
I0711 15:34:05.036564 21182 net.cpp:148] Top shape: 1 256 120 120 (3686400)
I0711 15:34:05.036568 21182 net.cpp:156] Memory required for data: 250675200
I0711 15:34:05.036572 21182 layer_factory.hpp:77] Creating layer res2b_branch2a
I0711 15:34:05.036581 21182 net.cpp:91] Creating Layer res2b_branch2a
I0711 15:34:05.036586 21182 net.cpp:425] res2b_branch2a <- res2a_res2a_relu_0_split_0
I0711 15:34:05.036593 21182 net.cpp:399] res2b_branch2a -> res2b_branch2a
I0711 15:34:05.036772 21182 net.cpp:141] Setting up res2b_branch2a
I0711 15:34:05.036782 21182 net.cpp:148] Top shape: 1 64 120 120 (921600)
I0711 15:34:05.036787 21182 net.cpp:156] Memory required for data: 254361600
I0711 15:34:05.036793 21182 layer_factory.hpp:77] Creating layer bn2b_branch2a
I0711 15:34:05.036803 21182 net.cpp:91] Creating Layer bn2b_branch2a
I0711 15:34:05.036808 21182 net.cpp:425] bn2b_branch2a <- res2b_branch2a
I0711 15:34:05.036815 21182 net.cpp:386] bn2b_branch2a -> res2b_branch2a (in-place)
I0711 15:34:05.037006 21182 net.cpp:141] Setting up bn2b_branch2a
I0711 15:34:05.037017 21182 net.cpp:148] Top shape: 1 64 120 120 (921600)
I0711 15:34:05.037032 21182 net.cpp:156] Memory required for data: 258048000
I0711 15:34:05.037048 21182 layer_factory.hpp:77] Creating layer scale2b_branch2a
I0711 15:34:05.037057 21182 net.cpp:91] Creating Layer scale2b_branch2a
I0711 15:34:05.037061 21182 net.cpp:425] scale2b_branch2a <- res2b_branch2a
I0711 15:34:05.037068 21182 net.cpp:386] scale2b_branch2a -> res2b_branch2a (in-place)
I0711 15:34:05.037112 21182 layer_factory.hpp:77] Creating layer scale2b_branch2a
I0711 15:34:05.037878 21182 net.cpp:141] Setting up scale2b_branch2a
I0711 15:34:05.037894 21182 net.cpp:148] Top shape: 1 64 120 120 (921600)
I0711 15:34:05.037899 21182 net.cpp:156] Memory required for data: 261734400
I0711 15:34:05.037907 21182 layer_factory.hpp:77] Creating layer res2b_branch2a_relu
I0711 15:34:05.037914 21182 net.cpp:91] Creating Layer res2b_branch2a_relu
I0711 15:34:05.037919 21182 net.cpp:425] res2b_branch2a_relu <- res2b_branch2a
I0711 15:34:05.037925 21182 net.cpp:386] res2b_branch2a_relu -> res2b_branch2a (in-place)
I0711 15:34:05.037933 21182 net.cpp:141] Setting up res2b_branch2a_relu
I0711 15:34:05.037938 21182 net.cpp:148] Top shape: 1 64 120 120 (921600)
I0711 15:34:05.037942 21182 net.cpp:156] Memory required for data: 265420800
I0711 15:34:05.037946 21182 layer_factory.hpp:77] Creating layer res2b_branch2b
I0711 15:34:05.037955 21182 net.cpp:91] Creating Layer res2b_branch2b
I0711 15:34:05.037960 21182 net.cpp:425] res2b_branch2b <- res2b_branch2a
I0711 15:34:05.037966 21182 net.cpp:399] res2b_branch2b -> res2b_branch2b
I0711 15:34:05.038156 21182 net.cpp:141] Setting up res2b_branch2b
I0711 15:34:05.038166 21182 net.cpp:148] Top shape: 1 64 120 120 (921600)
I0711 15:34:05.038170 21182 net.cpp:156] Memory required for data: 269107200
I0711 15:34:05.038177 21182 layer_factory.hpp:77] Creating layer bn2b_branch2b
I0711 15:34:05.038184 21182 net.cpp:91] Creating Layer bn2b_branch2b
I0711 15:34:05.038189 21182 net.cpp:425] bn2b_branch2b <- res2b_branch2b
I0711 15:34:05.038197 21182 net.cpp:386] bn2b_branch2b -> res2b_branch2b (in-place)
I0711 15:34:05.038375 21182 net.cpp:141] Setting up bn2b_branch2b
I0711 15:34:05.038384 21182 net.cpp:148] Top shape: 1 64 120 120 (921600)
I0711 15:34:05.038388 21182 net.cpp:156] Memory required for data: 272793600
I0711 15:34:05.038396 21182 layer_factory.hpp:77] Creating layer scale2b_branch2b
I0711 15:34:05.038403 21182 net.cpp:91] Creating Layer scale2b_branch2b
I0711 15:34:05.038408 21182 net.cpp:425] scale2b_branch2b <- res2b_branch2b
I0711 15:34:05.038414 21182 net.cpp:386] scale2b_branch2b -> res2b_branch2b (in-place)
I0711 15:34:05.038452 21182 layer_factory.hpp:77] Creating layer scale2b_branch2b
I0711 15:34:05.038586 21182 net.cpp:141] Setting up scale2b_branch2b
I0711 15:34:05.038597 21182 net.cpp:148] Top shape: 1 64 120 120 (921600)
I0711 15:34:05.038601 21182 net.cpp:156] Memory required for data: 276480000
I0711 15:34:05.038609 21182 layer_factory.hpp:77] Creating layer res2b_branch2b_relu
I0711 15:34:05.038616 21182 net.cpp:91] Creating Layer res2b_branch2b_relu
I0711 15:34:05.038620 21182 net.cpp:425] res2b_branch2b_relu <- res2b_branch2b
I0711 15:34:05.038625 21182 net.cpp:386] res2b_branch2b_relu -> res2b_branch2b (in-place)
I0711 15:34:05.038641 21182 net.cpp:141] Setting up res2b_branch2b_relu
I0711 15:34:05.038648 21182 net.cpp:148] Top shape: 1 64 120 120 (921600)
I0711 15:34:05.038652 21182 net.cpp:156] Memory required for data: 280166400
I0711 15:34:05.038656 21182 layer_factory.hpp:77] Creating layer res2b_branch2c
I0711 15:34:05.038669 21182 net.cpp:91] Creating Layer res2b_branch2c
I0711 15:34:05.038673 21182 net.cpp:425] res2b_branch2c <- res2b_branch2b
I0711 15:34:05.038682 21182 net.cpp:399] res2b_branch2c -> res2b_branch2c
I0711 15:34:05.038868 21182 net.cpp:141] Setting up res2b_branch2c
I0711 15:34:05.038880 21182 net.cpp:148] Top shape: 1 256 120 120 (3686400)
I0711 15:34:05.038885 21182 net.cpp:156] Memory required for data: 294912000
I0711 15:34:05.038892 21182 layer_factory.hpp:77] Creating layer bn2b_branch2c
I0711 15:34:05.038913 21182 net.cpp:91] Creating Layer bn2b_branch2c
I0711 15:34:05.038918 21182 net.cpp:425] bn2b_branch2c <- res2b_branch2c
I0711 15:34:05.038924 21182 net.cpp:386] bn2b_branch2c -> res2b_branch2c (in-place)
I0711 15:34:05.039093 21182 net.cpp:141] Setting up bn2b_branch2c
I0711 15:34:05.039103 21182 net.cpp:148] Top shape: 1 256 120 120 (3686400)
I0711 15:34:05.039108 21182 net.cpp:156] Memory required for data: 309657600
I0711 15:34:05.039115 21182 layer_factory.hpp:77] Creating layer scale2b_branch2c
I0711 15:34:05.039122 21182 net.cpp:91] Creating Layer scale2b_branch2c
I0711 15:34:05.039126 21182 net.cpp:425] scale2b_branch2c <- res2b_branch2c
I0711 15:34:05.039134 21182 net.cpp:386] scale2b_branch2c -> res2b_branch2c (in-place)
I0711 15:34:05.039170 21182 layer_factory.hpp:77] Creating layer scale2b_branch2c
I0711 15:34:05.039299 21182 net.cpp:141] Setting up scale2b_branch2c
I0711 15:34:05.039309 21182 net.cpp:148] Top shape: 1 256 120 120 (3686400)
I0711 15:34:05.039312 21182 net.cpp:156] Memory required for data: 324403200
I0711 15:34:05.039319 21182 layer_factory.hpp:77] Creating layer res2b
I0711 15:34:05.039325 21182 net.cpp:91] Creating Layer res2b
I0711 15:34:05.039330 21182 net.cpp:425] res2b <- res2a_res2a_relu_0_split_1
I0711 15:34:05.039335 21182 net.cpp:425] res2b <- res2b_branch2c
I0711 15:34:05.039340 21182 net.cpp:399] res2b -> res2b
I0711 15:34:05.039368 21182 net.cpp:141] Setting up res2b
I0711 15:34:05.039386 21182 net.cpp:148] Top shape: 1 256 120 120 (3686400)
I0711 15:34:05.039392 21182 net.cpp:156] Memory required for data: 339148800
I0711 15:34:05.039397 21182 layer_factory.hpp:77] Creating layer res2b_relu
I0711 15:34:05.039403 21182 net.cpp:91] Creating Layer res2b_relu
I0711 15:34:05.039407 21182 net.cpp:425] res2b_relu <- res2b
I0711 15:34:05.039412 21182 net.cpp:386] res2b_relu -> res2b (in-place)
I0711 15:34:05.039419 21182 net.cpp:141] Setting up res2b_relu
I0711 15:34:05.039424 21182 net.cpp:148] Top shape: 1 256 120 120 (3686400)
I0711 15:34:05.039427 21182 net.cpp:156] Memory required for data: 353894400
I0711 15:34:05.039432 21182 layer_factory.hpp:77] Creating layer res2b_res2b_relu_0_split
I0711 15:34:05.039438 21182 net.cpp:91] Creating Layer res2b_res2b_relu_0_split
I0711 15:34:05.039441 21182 net.cpp:425] res2b_res2b_relu_0_split <- res2b
I0711 15:34:05.039449 21182 net.cpp:399] res2b_res2b_relu_0_split -> res2b_res2b_relu_0_split_0
I0711 15:34:05.039456 21182 net.cpp:399] res2b_res2b_relu_0_split -> res2b_res2b_relu_0_split_1
I0711 15:34:05.039487 21182 net.cpp:141] Setting up res2b_res2b_relu_0_split
I0711 15:34:05.039495 21182 net.cpp:148] Top shape: 1 256 120 120 (3686400)
I0711 15:34:05.039500 21182 net.cpp:148] Top shape: 1 256 120 120 (3686400)
I0711 15:34:05.039505 21182 net.cpp:156] Memory required for data: 383385600
I0711 15:34:05.039510 21182 layer_factory.hpp:77] Creating layer res2c_branch2a
I0711 15:34:05.039520 21182 net.cpp:91] Creating Layer res2c_branch2a
I0711 15:34:05.039525 21182 net.cpp:425] res2c_branch2a <- res2b_res2b_relu_0_split_0
I0711 15:34:05.039530 21182 net.cpp:399] res2c_branch2a -> res2c_branch2a
I0711 15:34:05.039698 21182 net.cpp:141] Setting up res2c_branch2a
I0711 15:34:05.039708 21182 net.cpp:148] Top shape: 1 64 120 120 (921600)
I0711 15:34:05.039712 21182 net.cpp:156] Memory required for data: 387072000
I0711 15:34:05.039718 21182 layer_factory.hpp:77] Creating layer bn2c_branch2a
I0711 15:34:05.039726 21182 net.cpp:91] Creating Layer bn2c_branch2a
I0711 15:34:05.039729 21182 net.cpp:425] bn2c_branch2a <- res2c_branch2a
I0711 15:34:05.039736 21182 net.cpp:386] bn2c_branch2a -> res2c_branch2a (in-place)
I0711 15:34:05.039918 21182 net.cpp:141] Setting up bn2c_branch2a
I0711 15:34:05.039928 21182 net.cpp:148] Top shape: 1 64 120 120 (921600)
I0711 15:34:05.039932 21182 net.cpp:156] Memory required for data: 390758400
I0711 15:34:05.039939 21182 layer_factory.hpp:77] Creating layer scale2c_branch2a
I0711 15:34:05.039947 21182 net.cpp:91] Creating Layer scale2c_branch2a
I0711 15:34:05.039950 21182 net.cpp:425] scale2c_branch2a <- res2c_branch2a
I0711 15:34:05.039966 21182 net.cpp:386] scale2c_branch2a -> res2c_branch2a (in-place)
I0711 15:34:05.040010 21182 layer_factory.hpp:77] Creating layer scale2c_branch2a
I0711 15:34:05.040143 21182 net.cpp:141] Setting up scale2c_branch2a
I0711 15:34:05.040155 21182 net.cpp:148] Top shape: 1 64 120 120 (921600)
I0711 15:34:05.040159 21182 net.cpp:156] Memory required for data: 394444800
I0711 15:34:05.040166 21182 layer_factory.hpp:77] Creating layer res2c_branch2a_relu
I0711 15:34:05.040172 21182 net.cpp:91] Creating Layer res2c_branch2a_relu
I0711 15:34:05.040176 21182 net.cpp:425] res2c_branch2a_relu <- res2c_branch2a
I0711 15:34:05.040182 21182 net.cpp:386] res2c_branch2a_relu -> res2c_branch2a (in-place)
I0711 15:34:05.040189 21182 net.cpp:141] Setting up res2c_branch2a_relu
I0711 15:34:05.040194 21182 net.cpp:148] Top shape: 1 64 120 120 (921600)
I0711 15:34:05.040197 21182 net.cpp:156] Memory required for data: 398131200
I0711 15:34:05.040201 21182 layer_factory.hpp:77] Creating layer res2c_branch2b
I0711 15:34:05.040210 21182 net.cpp:91] Creating Layer res2c_branch2b
I0711 15:34:05.040215 21182 net.cpp:425] res2c_branch2b <- res2c_branch2a
I0711 15:34:05.040220 21182 net.cpp:399] res2c_branch2b -> res2c_branch2b
I0711 15:34:05.041080 21182 net.cpp:141] Setting up res2c_branch2b
I0711 15:34:05.041100 21182 net.cpp:148] Top shape: 1 64 120 120 (921600)
I0711 15:34:05.041103 21182 net.cpp:156] Memory required for data: 401817600
I0711 15:34:05.041110 21182 layer_factory.hpp:77] Creating layer bn2c_branch2b
I0711 15:34:05.041118 21182 net.cpp:91] Creating Layer bn2c_branch2b
I0711 15:34:05.041122 21182 net.cpp:425] bn2c_branch2b <- res2c_branch2b
I0711 15:34:05.041128 21182 net.cpp:386] bn2c_branch2b -> res2c_branch2b (in-place)
I0711 15:34:05.041333 21182 net.cpp:141] Setting up bn2c_branch2b
I0711 15:34:05.041345 21182 net.cpp:148] Top shape: 1 64 120 120 (921600)
I0711 15:34:05.041349 21182 net.cpp:156] Memory required for data: 405504000
I0711 15:34:05.041358 21182 layer_factory.hpp:77] Creating layer scale2c_branch2b
I0711 15:34:05.041366 21182 net.cpp:91] Creating Layer scale2c_branch2b
I0711 15:34:05.041373 21182 net.cpp:425] scale2c_branch2b <- res2c_branch2b
I0711 15:34:05.041378 21182 net.cpp:386] scale2c_branch2b -> res2c_branch2b (in-place)
I0711 15:34:05.041435 21182 layer_factory.hpp:77] Creating layer scale2c_branch2b
I0711 15:34:05.041576 21182 net.cpp:141] Setting up scale2c_branch2b
I0711 15:34:05.041587 21182 net.cpp:148] Top shape: 1 64 120 120 (921600)
I0711 15:34:05.041591 21182 net.cpp:156] Memory required for data: 409190400
I0711 15:34:05.041599 21182 layer_factory.hpp:77] Creating layer res2c_branch2b_relu
I0711 15:34:05.041604 21182 net.cpp:91] Creating Layer res2c_branch2b_relu
I0711 15:34:05.041609 21182 net.cpp:425] res2c_branch2b_relu <- res2c_branch2b
I0711 15:34:05.041613 21182 net.cpp:386] res2c_branch2b_relu -> res2c_branch2b (in-place)
I0711 15:34:05.041620 21182 net.cpp:141] Setting up res2c_branch2b_relu
I0711 15:34:05.041625 21182 net.cpp:148] Top shape: 1 64 120 120 (921600)
I0711 15:34:05.041628 21182 net.cpp:156] Memory required for data: 412876800
I0711 15:34:05.041631 21182 layer_factory.hpp:77] Creating layer res2c_branch2c
I0711 15:34:05.041642 21182 net.cpp:91] Creating Layer res2c_branch2c
I0711 15:34:05.041646 21182 net.cpp:425] res2c_branch2c <- res2c_branch2b
I0711 15:34:05.041653 21182 net.cpp:399] res2c_branch2c -> res2c_branch2c
I0711 15:34:05.041833 21182 net.cpp:141] Setting up res2c_branch2c
I0711 15:34:05.041844 21182 net.cpp:148] Top shape: 1 256 120 120 (3686400)
I0711 15:34:05.041848 21182 net.cpp:156] Memory required for data: 427622400
I0711 15:34:05.041853 21182 layer_factory.hpp:77] Creating layer bn2c_branch2c
I0711 15:34:05.041863 21182 net.cpp:91] Creating Layer bn2c_branch2c
I0711 15:34:05.041867 21182 net.cpp:425] bn2c_branch2c <- res2c_branch2c
I0711 15:34:05.041873 21182 net.cpp:386] bn2c_branch2c -> res2c_branch2c (in-place)
I0711 15:34:05.042049 21182 net.cpp:141] Setting up bn2c_branch2c
I0711 15:34:05.042058 21182 net.cpp:148] Top shape: 1 256 120 120 (3686400)
I0711 15:34:05.042074 21182 net.cpp:156] Memory required for data: 442368000
I0711 15:34:05.042084 21182 layer_factory.hpp:77] Creating layer scale2c_branch2c
I0711 15:34:05.042091 21182 net.cpp:91] Creating Layer scale2c_branch2c
I0711 15:34:05.042095 21182 net.cpp:425] scale2c_branch2c <- res2c_branch2c
I0711 15:34:05.042174 21182 net.cpp:386] scale2c_branch2c -> res2c_branch2c (in-place)
I0711 15:34:05.042219 21182 layer_factory.hpp:77] Creating layer scale2c_branch2c
I0711 15:34:05.043081 21182 net.cpp:141] Setting up scale2c_branch2c
I0711 15:34:05.043098 21182 net.cpp:148] Top shape: 1 256 120 120 (3686400)
I0711 15:34:05.043102 21182 net.cpp:156] Memory required for data: 457113600
I0711 15:34:05.043128 21182 layer_factory.hpp:77] Creating layer res2c
I0711 15:34:05.043139 21182 net.cpp:91] Creating Layer res2c
I0711 15:34:05.043145 21182 net.cpp:425] res2c <- res2b_res2b_relu_0_split_1
I0711 15:34:05.043151 21182 net.cpp:425] res2c <- res2c_branch2c
I0711 15:34:05.043159 21182 net.cpp:399] res2c -> res2c
I0711 15:34:05.043189 21182 net.cpp:141] Setting up res2c
I0711 15:34:05.043197 21182 net.cpp:148] Top shape: 1 256 120 120 (3686400)
I0711 15:34:05.043201 21182 net.cpp:156] Memory required for data: 471859200
I0711 15:34:05.043205 21182 layer_factory.hpp:77] Creating layer res2c_relu
I0711 15:34:05.043211 21182 net.cpp:91] Creating Layer res2c_relu
I0711 15:34:05.043215 21182 net.cpp:425] res2c_relu <- res2c
I0711 15:34:05.043220 21182 net.cpp:386] res2c_relu -> res2c (in-place)
I0711 15:34:05.043226 21182 net.cpp:141] Setting up res2c_relu
I0711 15:34:05.043232 21182 net.cpp:148] Top shape: 1 256 120 120 (3686400)
I0711 15:34:05.043236 21182 net.cpp:156] Memory required for data: 486604800
I0711 15:34:05.043241 21182 layer_factory.hpp:77] Creating layer res2c_res2c_relu_0_split
I0711 15:34:05.043248 21182 net.cpp:91] Creating Layer res2c_res2c_relu_0_split
I0711 15:34:05.043253 21182 net.cpp:425] res2c_res2c_relu_0_split <- res2c
I0711 15:34:05.043258 21182 net.cpp:399] res2c_res2c_relu_0_split -> res2c_res2c_relu_0_split_0
I0711 15:34:05.043269 21182 net.cpp:399] res2c_res2c_relu_0_split -> res2c_res2c_relu_0_split_1
I0711 15:34:05.043306 21182 net.cpp:141] Setting up res2c_res2c_relu_0_split
I0711 15:34:05.043315 21182 net.cpp:148] Top shape: 1 256 120 120 (3686400)
I0711 15:34:05.043320 21182 net.cpp:148] Top shape: 1 256 120 120 (3686400)
I0711 15:34:05.043323 21182 net.cpp:156] Memory required for data: 516096000
I0711 15:34:05.043328 21182 layer_factory.hpp:77] Creating layer res3a_branch1
I0711 15:34:05.043337 21182 net.cpp:91] Creating Layer res3a_branch1
I0711 15:34:05.043342 21182 net.cpp:425] res3a_branch1 <- res2c_res2c_relu_0_split_0
I0711 15:34:05.043349 21182 net.cpp:399] res3a_branch1 -> res3a_branch1
I0711 15:34:05.044250 21182 net.cpp:141] Setting up res3a_branch1
I0711 15:34:05.044266 21182 net.cpp:148] Top shape: 1 512 60 60 (1843200)
I0711 15:34:05.044272 21182 net.cpp:156] Memory required for data: 523468800
I0711 15:34:05.044281 21182 layer_factory.hpp:77] Creating layer bn3a_branch1
I0711 15:34:05.044287 21182 net.cpp:91] Creating Layer bn3a_branch1
I0711 15:34:05.044292 21182 net.cpp:425] bn3a_branch1 <- res3a_branch1
I0711 15:34:05.044301 21182 net.cpp:386] bn3a_branch1 -> res3a_branch1 (in-place)
I0711 15:34:05.045157 21182 net.cpp:141] Setting up bn3a_branch1
I0711 15:34:05.045173 21182 net.cpp:148] Top shape: 1 512 60 60 (1843200)
I0711 15:34:05.045178 21182 net.cpp:156] Memory required for data: 530841600
I0711 15:34:05.045187 21182 layer_factory.hpp:77] Creating layer scale3a_branch1
I0711 15:34:05.045198 21182 net.cpp:91] Creating Layer scale3a_branch1
I0711 15:34:05.045202 21182 net.cpp:425] scale3a_branch1 <- res3a_branch1
I0711 15:34:05.045209 21182 net.cpp:386] scale3a_branch1 -> res3a_branch1 (in-place)
I0711 15:34:05.045250 21182 layer_factory.hpp:77] Creating layer scale3a_branch1
I0711 15:34:05.045378 21182 net.cpp:141] Setting up scale3a_branch1
I0711 15:34:05.045388 21182 net.cpp:148] Top shape: 1 512 60 60 (1843200)
I0711 15:34:05.045403 21182 net.cpp:156] Memory required for data: 538214400
I0711 15:34:05.045411 21182 layer_factory.hpp:77] Creating layer res3a_branch2a
I0711 15:34:05.045423 21182 net.cpp:91] Creating Layer res3a_branch2a
I0711 15:34:05.045428 21182 net.cpp:425] res3a_branch2a <- res2c_res2c_relu_0_split_1
I0711 15:34:05.045435 21182 net.cpp:399] res3a_branch2a -> res3a_branch2a
I0711 15:34:05.045631 21182 net.cpp:141] Setting up res3a_branch2a
I0711 15:34:05.045642 21182 net.cpp:148] Top shape: 1 128 60 60 (460800)
I0711 15:34:05.045647 21182 net.cpp:156] Memory required for data: 540057600
I0711 15:34:05.045653 21182 layer_factory.hpp:77] Creating layer bn3a_branch2a
I0711 15:34:05.045670 21182 net.cpp:91] Creating Layer bn3a_branch2a
I0711 15:34:05.045675 21182 net.cpp:425] bn3a_branch2a <- res3a_branch2a
I0711 15:34:05.045681 21182 net.cpp:386] bn3a_branch2a -> res3a_branch2a (in-place)
I0711 15:34:05.045879 21182 net.cpp:141] Setting up bn3a_branch2a
I0711 15:34:05.045897 21182 net.cpp:148] Top shape: 1 128 60 60 (460800)
I0711 15:34:05.045902 21182 net.cpp:156] Memory required for data: 541900800
I0711 15:34:05.045910 21182 layer_factory.hpp:77] Creating layer scale3a_branch2a
I0711 15:34:05.045917 21182 net.cpp:91] Creating Layer scale3a_branch2a
I0711 15:34:05.045922 21182 net.cpp:425] scale3a_branch2a <- res3a_branch2a
I0711 15:34:05.045931 21182 net.cpp:386] scale3a_branch2a -> res3a_branch2a (in-place)
I0711 15:34:05.045974 21182 layer_factory.hpp:77] Creating layer scale3a_branch2a
I0711 15:34:05.046094 21182 net.cpp:141] Setting up scale3a_branch2a
I0711 15:34:05.046104 21182 net.cpp:148] Top shape: 1 128 60 60 (460800)
I0711 15:34:05.046108 21182 net.cpp:156] Memory required for data: 543744000
I0711 15:34:05.046115 21182 layer_factory.hpp:77] Creating layer res3a_branch2a_relu
I0711 15:34:05.046121 21182 net.cpp:91] Creating Layer res3a_branch2a_relu
I0711 15:34:05.046125 21182 net.cpp:425] res3a_branch2a_relu <- res3a_branch2a
I0711 15:34:05.046130 21182 net.cpp:386] res3a_branch2a_relu -> res3a_branch2a (in-place)
I0711 15:34:05.046138 21182 net.cpp:141] Setting up res3a_branch2a_relu
I0711 15:34:05.046142 21182 net.cpp:148] Top shape: 1 128 60 60 (460800)
I0711 15:34:05.046145 21182 net.cpp:156] Memory required for data: 545587200
I0711 15:34:05.046149 21182 layer_factory.hpp:77] Creating layer res3a_branch2b
I0711 15:34:05.046159 21182 net.cpp:91] Creating Layer res3a_branch2b
I0711 15:34:05.046164 21182 net.cpp:425] res3a_branch2b <- res3a_branch2a
I0711 15:34:05.046171 21182 net.cpp:399] res3a_branch2b -> res3a_branch2b
I0711 15:34:05.047086 21182 net.cpp:141] Setting up res3a_branch2b
I0711 15:34:05.047101 21182 net.cpp:148] Top shape: 1 128 60 60 (460800)
I0711 15:34:05.047106 21182 net.cpp:156] Memory required for data: 547430400
I0711 15:34:05.047112 21182 layer_factory.hpp:77] Creating layer bn3a_branch2b
I0711 15:34:05.047121 21182 net.cpp:91] Creating Layer bn3a_branch2b
I0711 15:34:05.047124 21182 net.cpp:425] bn3a_branch2b <- res3a_branch2b
I0711 15:34:05.047130 21182 net.cpp:386] bn3a_branch2b -> res3a_branch2b (in-place)
I0711 15:34:05.047319 21182 net.cpp:141] Setting up bn3a_branch2b
I0711 15:34:05.047328 21182 net.cpp:148] Top shape: 1 128 60 60 (460800)
I0711 15:34:05.047333 21182 net.cpp:156] Memory required for data: 549273600
I0711 15:34:05.047341 21182 layer_factory.hpp:77] Creating layer scale3a_branch2b
I0711 15:34:05.047353 21182 net.cpp:91] Creating Layer scale3a_branch2b
I0711 15:34:05.047358 21182 net.cpp:425] scale3a_branch2b <- res3a_branch2b
I0711 15:34:05.047364 21182 net.cpp:386] scale3a_branch2b -> res3a_branch2b (in-place)
I0711 15:34:05.047422 21182 layer_factory.hpp:77] Creating layer scale3a_branch2b
I0711 15:34:05.047543 21182 net.cpp:141] Setting up scale3a_branch2b
I0711 15:34:05.047552 21182 net.cpp:148] Top shape: 1 128 60 60 (460800)
I0711 15:34:05.047556 21182 net.cpp:156] Memory required for data: 551116800
I0711 15:34:05.047564 21182 layer_factory.hpp:77] Creating layer res3a_branch2b_relu
I0711 15:34:05.047572 21182 net.cpp:91] Creating Layer res3a_branch2b_relu
I0711 15:34:05.047586 21182 net.cpp:425] res3a_branch2b_relu <- res3a_branch2b
I0711 15:34:05.047593 21182 net.cpp:386] res3a_branch2b_relu -> res3a_branch2b (in-place)
I0711 15:34:05.047600 21182 net.cpp:141] Setting up res3a_branch2b_relu
I0711 15:34:05.047606 21182 net.cpp:148] Top shape: 1 128 60 60 (460800)
I0711 15:34:05.047610 21182 net.cpp:156] Memory required for data: 552960000
I0711 15:34:05.047613 21182 layer_factory.hpp:77] Creating layer res3a_branch2c
I0711 15:34:05.047623 21182 net.cpp:91] Creating Layer res3a_branch2c
I0711 15:34:05.047627 21182 net.cpp:425] res3a_branch2c <- res3a_branch2b
I0711 15:34:05.047636 21182 net.cpp:399] res3a_branch2c -> res3a_branch2c
I0711 15:34:05.047843 21182 net.cpp:141] Setting up res3a_branch2c
I0711 15:34:05.047854 21182 net.cpp:148] Top shape: 1 512 60 60 (1843200)
I0711 15:34:05.047858 21182 net.cpp:156] Memory required for data: 560332800
I0711 15:34:05.047864 21182 layer_factory.hpp:77] Creating layer bn3a_branch2c
I0711 15:34:05.047878 21182 net.cpp:91] Creating Layer bn3a_branch2c
I0711 15:34:05.047883 21182 net.cpp:425] bn3a_branch2c <- res3a_branch2c
I0711 15:34:05.047889 21182 net.cpp:386] bn3a_branch2c -> res3a_branch2c (in-place)
I0711 15:34:05.048082 21182 net.cpp:141] Setting up bn3a_branch2c
I0711 15:34:05.048094 21182 net.cpp:148] Top shape: 1 512 60 60 (1843200)
I0711 15:34:05.048097 21182 net.cpp:156] Memory required for data: 567705600
I0711 15:34:05.048108 21182 layer_factory.hpp:77] Creating layer scale3a_branch2c
I0711 15:34:05.048116 21182 net.cpp:91] Creating Layer scale3a_branch2c
I0711 15:34:05.048120 21182 net.cpp:425] scale3a_branch2c <- res3a_branch2c
I0711 15:34:05.048128 21182 net.cpp:386] scale3a_branch2c -> res3a_branch2c (in-place)
I0711 15:34:05.048163 21182 layer_factory.hpp:77] Creating layer scale3a_branch2c
I0711 15:34:05.048281 21182 net.cpp:141] Setting up scale3a_branch2c
I0711 15:34:05.048293 21182 net.cpp:148] Top shape: 1 512 60 60 (1843200)
I0711 15:34:05.048297 21182 net.cpp:156] Memory required for data: 575078400
I0711 15:34:05.048305 21182 layer_factory.hpp:77] Creating layer res3a
I0711 15:34:05.048311 21182 net.cpp:91] Creating Layer res3a
I0711 15:34:05.048316 21182 net.cpp:425] res3a <- res3a_branch1
I0711 15:34:05.048319 21182 net.cpp:425] res3a <- res3a_branch2c
I0711 15:34:05.048326 21182 net.cpp:399] res3a -> res3a
I0711 15:34:05.048352 21182 net.cpp:141] Setting up res3a
I0711 15:34:05.048359 21182 net.cpp:148] Top shape: 1 512 60 60 (1843200)
I0711 15:34:05.048363 21182 net.cpp:156] Memory required for data: 582451200
I0711 15:34:05.048367 21182 layer_factory.hpp:77] Creating layer res3a_relu
I0711 15:34:05.048373 21182 net.cpp:91] Creating Layer res3a_relu
I0711 15:34:05.048382 21182 net.cpp:425] res3a_relu <- res3a
I0711 15:34:05.048388 21182 net.cpp:386] res3a_relu -> res3a (in-place)
I0711 15:34:05.048393 21182 net.cpp:141] Setting up res3a_relu
I0711 15:34:05.048398 21182 net.cpp:148] Top shape: 1 512 60 60 (1843200)
I0711 15:34:05.048403 21182 net.cpp:156] Memory required for data: 589824000
I0711 15:34:05.048405 21182 layer_factory.hpp:77] Creating layer res3a_res3a_relu_0_split
I0711 15:34:05.048411 21182 net.cpp:91] Creating Layer res3a_res3a_relu_0_split
I0711 15:34:05.048414 21182 net.cpp:425] res3a_res3a_relu_0_split <- res3a
I0711 15:34:05.048419 21182 net.cpp:399] res3a_res3a_relu_0_split -> res3a_res3a_relu_0_split_0
I0711 15:34:05.048429 21182 net.cpp:399] res3a_res3a_relu_0_split -> res3a_res3a_relu_0_split_1
I0711 15:34:05.048468 21182 net.cpp:141] Setting up res3a_res3a_relu_0_split
I0711 15:34:05.048476 21182 net.cpp:148] Top shape: 1 512 60 60 (1843200)
I0711 15:34:05.048481 21182 net.cpp:148] Top shape: 1 512 60 60 (1843200)
I0711 15:34:05.048485 21182 net.cpp:156] Memory required for data: 604569600
I0711 15:34:05.048488 21182 layer_factory.hpp:77] Creating layer res3b1_branch2a
I0711 15:34:05.048503 21182 net.cpp:91] Creating Layer res3b1_branch2a
I0711 15:34:05.048507 21182 net.cpp:425] res3b1_branch2a <- res3a_res3a_relu_0_split_0
I0711 15:34:05.048513 21182 net.cpp:399] res3b1_branch2a -> res3b1_branch2a
I0711 15:34:05.048737 21182 net.cpp:141] Setting up res3b1_branch2a
I0711 15:34:05.048750 21182 net.cpp:148] Top shape: 1 128 60 60 (460800)
I0711 15:34:05.048754 21182 net.cpp:156] Memory required for data: 606412800
I0711 15:34:05.048761 21182 layer_factory.hpp:77] Creating layer bn3b1_branch2a
I0711 15:34:05.048769 21182 net.cpp:91] Creating Layer bn3b1_branch2a
I0711 15:34:05.048774 21182 net.cpp:425] bn3b1_branch2a <- res3b1_branch2a
I0711 15:34:05.048779 21182 net.cpp:386] bn3b1_branch2a -> res3b1_branch2a (in-place)
I0711 15:34:05.048965 21182 net.cpp:141] Setting up bn3b1_branch2a
I0711 15:34:05.048976 21182 net.cpp:148] Top shape: 1 128 60 60 (460800)
I0711 15:34:05.048980 21182 net.cpp:156] Memory required for data: 608256000
I0711 15:34:05.048988 21182 layer_factory.hpp:77] Creating layer scale3b1_branch2a
I0711 15:34:05.048998 21182 net.cpp:91] Creating Layer scale3b1_branch2a
I0711 15:34:05.049003 21182 net.cpp:425] scale3b1_branch2a <- res3b1_branch2a
I0711 15:34:05.049008 21182 net.cpp:386] scale3b1_branch2a -> res3b1_branch2a (in-place)
I0711 15:34:05.049051 21182 layer_factory.hpp:77] Creating layer scale3b1_branch2a
I0711 15:34:05.049168 21182 net.cpp:141] Setting up scale3b1_branch2a
I0711 15:34:05.049178 21182 net.cpp:148] Top shape: 1 128 60 60 (460800)
I0711 15:34:05.049182 21182 net.cpp:156] Memory required for data: 610099200
I0711 15:34:05.049190 21182 layer_factory.hpp:77] Creating layer res3b1_branch2a_relu
I0711 15:34:05.049198 21182 net.cpp:91] Creating Layer res3b1_branch2a_relu
I0711 15:34:05.049202 21182 net.cpp:425] res3b1_branch2a_relu <- res3b1_branch2a
I0711 15:34:05.049211 21182 net.cpp:386] res3b1_branch2a_relu -> res3b1_branch2a (in-place)
I0711 15:34:05.049217 21182 net.cpp:141] Setting up res3b1_branch2a_relu
I0711 15:34:05.049222 21182 net.cpp:148] Top shape: 1 128 60 60 (460800)
I0711 15:34:05.049226 21182 net.cpp:156] Memory required for data: 611942400
I0711 15:34:05.049229 21182 layer_factory.hpp:77] Creating layer res3b1_branch2b
I0711 15:34:05.049239 21182 net.cpp:91] Creating Layer res3b1_branch2b
I0711 15:34:05.049243 21182 net.cpp:425] res3b1_branch2b <- res3b1_branch2a
I0711 15:34:05.049249 21182 net.cpp:399] res3b1_branch2b -> res3b1_branch2b
I0711 15:34:05.050348 21182 net.cpp:141] Setting up res3b1_branch2b
I0711 15:34:05.050366 21182 net.cpp:148] Top shape: 1 128 60 60 (460800)
I0711 15:34:05.050372 21182 net.cpp:156] Memory required for data: 613785600
I0711 15:34:05.050384 21182 layer_factory.hpp:77] Creating layer bn3b1_branch2b
I0711 15:34:05.050396 21182 net.cpp:91] Creating Layer bn3b1_branch2b
I0711 15:34:05.050403 21182 net.cpp:425] bn3b1_branch2b <- res3b1_branch2b
I0711 15:34:05.050426 21182 net.cpp:386] bn3b1_branch2b -> res3b1_branch2b (in-place)
I0711 15:34:05.050846 21182 net.cpp:141] Setting up bn3b1_branch2b
I0711 15:34:05.050859 21182 net.cpp:148] Top shape: 1 128 60 60 (460800)
I0711 15:34:05.050865 21182 net.cpp:156] Memory required for data: 615628800
I0711 15:34:05.050876 21182 layer_factory.hpp:77] Creating layer scale3b1_branch2b
I0711 15:34:05.050884 21182 net.cpp:91] Creating Layer scale3b1_branch2b
I0711 15:34:05.050891 21182 net.cpp:425] scale3b1_branch2b <- res3b1_branch2b
I0711 15:34:05.050925 21182 net.cpp:386] scale3b1_branch2b -> res3b1_branch2b (in-place)
I0711 15:34:05.050981 21182 layer_factory.hpp:77] Creating layer scale3b1_branch2b
I0711 15:34:05.051193 21182 net.cpp:141] Setting up scale3b1_branch2b
I0711 15:34:05.051223 21182 net.cpp:148] Top shape: 1 128 60 60 (460800)
I0711 15:34:05.051229 21182 net.cpp:156] Memory required for data: 617472000
I0711 15:34:05.051239 21182 layer_factory.hpp:77] Creating layer res3b1_branch2b_relu
I0711 15:34:05.051249 21182 net.cpp:91] Creating Layer res3b1_branch2b_relu
I0711 15:34:05.051254 21182 net.cpp:425] res3b1_branch2b_relu <- res3b1_branch2b
I0711 15:34:05.051260 21182 net.cpp:386] res3b1_branch2b_relu -> res3b1_branch2b (in-place)
I0711 15:34:05.051270 21182 net.cpp:141] Setting up res3b1_branch2b_relu
I0711 15:34:05.051277 21182 net.cpp:148] Top shape: 1 128 60 60 (460800)
I0711 15:34:05.051302 21182 net.cpp:156] Memory required for data: 619315200
I0711 15:34:05.051308 21182 layer_factory.hpp:77] Creating layer res3b1_branch2c
I0711 15:34:05.051333 21182 net.cpp:91] Creating Layer res3b1_branch2c
I0711 15:34:05.051342 21182 net.cpp:425] res3b1_branch2c <- res3b1_branch2b
I0711 15:34:05.051348 21182 net.cpp:399] res3b1_branch2c -> res3b1_branch2c
I0711 15:34:05.052419 21182 net.cpp:141] Setting up res3b1_branch2c
I0711 15:34:05.052436 21182 net.cpp:148] Top shape: 1 512 60 60 (1843200)
I0711 15:34:05.052445 21182 net.cpp:156] Memory required for data: 626688000
I0711 15:34:05.052464 21182 layer_factory.hpp:77] Creating layer bn3b1_branch2c
I0711 15:34:05.052482 21182 net.cpp:91] Creating Layer bn3b1_branch2c
I0711 15:34:05.052494 21182 net.cpp:425] bn3b1_branch2c <- res3b1_branch2c
I0711 15:34:05.052505 21182 net.cpp:386] bn3b1_branch2c -> res3b1_branch2c (in-place)
I0711 15:34:05.052824 21182 net.cpp:141] Setting up bn3b1_branch2c
I0711 15:34:05.052837 21182 net.cpp:148] Top shape: 1 512 60 60 (1843200)
I0711 15:34:05.052841 21182 net.cpp:156] Memory required for data: 634060800
I0711 15:34:05.052855 21182 layer_factory.hpp:77] Creating layer scale3b1_branch2c
I0711 15:34:05.052882 21182 net.cpp:91] Creating Layer scale3b1_branch2c
I0711 15:34:05.052891 21182 net.cpp:425] scale3b1_branch2c <- res3b1_branch2c
I0711 15:34:05.052896 21182 net.cpp:386] scale3b1_branch2c -> res3b1_branch2c (in-place)
I0711 15:34:05.052966 21182 layer_factory.hpp:77] Creating layer scale3b1_branch2c
I0711 15:34:05.053225 21182 net.cpp:141] Setting up scale3b1_branch2c
I0711 15:34:05.053238 21182 net.cpp:148] Top shape: 1 512 60 60 (1843200)
I0711 15:34:05.053243 21182 net.cpp:156] Memory required for data: 641433600
I0711 15:34:05.053254 21182 layer_factory.hpp:77] Creating layer res3b1
I0711 15:34:05.053283 21182 net.cpp:91] Creating Layer res3b1
I0711 15:34:05.053292 21182 net.cpp:425] res3b1 <- res3a_res3a_relu_0_split_1
I0711 15:34:05.053297 21182 net.cpp:425] res3b1 <- res3b1_branch2c
I0711 15:34:05.053305 21182 net.cpp:399] res3b1 -> res3b1
I0711 15:34:05.053352 21182 net.cpp:141] Setting up res3b1
I0711 15:34:05.053366 21182 net.cpp:148] Top shape: 1 512 60 60 (1843200)
I0711 15:34:05.053371 21182 net.cpp:156] Memory required for data: 648806400
I0711 15:34:05.053375 21182 layer_factory.hpp:77] Creating layer res3b1_relu
I0711 15:34:05.053381 21182 net.cpp:91] Creating Layer res3b1_relu
I0711 15:34:05.053388 21182 net.cpp:425] res3b1_relu <- res3b1
I0711 15:34:05.053427 21182 net.cpp:386] res3b1_relu -> res3b1 (in-place)
I0711 15:34:05.053439 21182 net.cpp:141] Setting up res3b1_relu
I0711 15:34:05.053445 21182 net.cpp:148] Top shape: 1 512 60 60 (1843200)
I0711 15:34:05.053450 21182 net.cpp:156] Memory required for data: 656179200
I0711 15:34:05.053457 21182 layer_factory.hpp:77] Creating layer res3b1_res3b1_relu_0_split
I0711 15:34:05.053462 21182 net.cpp:91] Creating Layer res3b1_res3b1_relu_0_split
I0711 15:34:05.053467 21182 net.cpp:425] res3b1_res3b1_relu_0_split <- res3b1
I0711 15:34:05.053472 21182 net.cpp:399] res3b1_res3b1_relu_0_split -> res3b1_res3b1_relu_0_split_0
I0711 15:34:05.053483 21182 net.cpp:399] res3b1_res3b1_relu_0_split -> res3b1_res3b1_relu_0_split_1
I0711 15:34:05.053541 21182 net.cpp:141] Setting up res3b1_res3b1_relu_0_split
I0711 15:34:05.053551 21182 net.cpp:148] Top shape: 1 512 60 60 (1843200)
I0711 15:34:05.053556 21182 net.cpp:148] Top shape: 1 512 60 60 (1843200)
I0711 15:34:05.053561 21182 net.cpp:156] Memory required for data: 670924800
I0711 15:34:05.053567 21182 layer_factory.hpp:77] Creating layer res3b2_branch2a
I0711 15:34:05.053575 21182 net.cpp:91] Creating Layer res3b2_branch2a
I0711 15:34:05.053580 21182 net.cpp:425] res3b2_branch2a <- res3b1_res3b1_relu_0_split_0
I0711 15:34:05.053601 21182 net.cpp:399] res3b2_branch2a -> res3b2_branch2a
I0711 15:34:05.053910 21182 net.cpp:141] Setting up res3b2_branch2a
I0711 15:34:05.053922 21182 net.cpp:148] Top shape: 1 128 60 60 (460800)
I0711 15:34:05.053926 21182 net.cpp:156] Memory required for data: 672768000
I0711 15:34:05.053951 21182 layer_factory.hpp:77] Creating layer bn3b2_branch2a
I0711 15:34:05.053964 21182 net.cpp:91] Creating Layer bn3b2_branch2a
I0711 15:34:05.053972 21182 net.cpp:425] bn3b2_branch2a <- res3b2_branch2a
I0711 15:34:05.053977 21182 net.cpp:386] bn3b2_branch2a -> res3b2_branch2a (in-place)
I0711 15:34:05.054319 21182 net.cpp:141] Setting up bn3b2_branch2a
I0711 15:34:05.054332 21182 net.cpp:148] Top shape: 1 128 60 60 (460800)
I0711 15:34:05.054335 21182 net.cpp:156] Memory required for data: 674611200
I0711 15:34:05.054347 21182 layer_factory.hpp:77] Creating layer scale3b2_branch2a
I0711 15:34:05.054358 21182 net.cpp:91] Creating Layer scale3b2_branch2a
I0711 15:34:05.054363 21182 net.cpp:425] scale3b2_branch2a <- res3b2_branch2a
I0711 15:34:05.054370 21182 net.cpp:386] scale3b2_branch2a -> res3b2_branch2a (in-place)
I0711 15:34:05.054468 21182 layer_factory.hpp:77] Creating layer scale3b2_branch2a
I0711 15:34:05.054687 21182 net.cpp:141] Setting up scale3b2_branch2a
I0711 15:34:05.054698 21182 net.cpp:148] Top shape: 1 128 60 60 (460800)
I0711 15:34:05.054702 21182 net.cpp:156] Memory required for data: 676454400
I0711 15:34:05.054718 21182 layer_factory.hpp:77] Creating layer res3b2_branch2a_relu
I0711 15:34:05.054724 21182 net.cpp:91] Creating Layer res3b2_branch2a_relu
I0711 15:34:05.054728 21182 net.cpp:425] res3b2_branch2a_relu <- res3b2_branch2a
I0711 15:34:05.054750 21182 net.cpp:386] res3b2_branch2a_relu -> res3b2_branch2a (in-place)
I0711 15:34:05.054761 21182 net.cpp:141] Setting up res3b2_branch2a_relu
I0711 15:34:05.054767 21182 net.cpp:148] Top shape: 1 128 60 60 (460800)
I0711 15:34:05.054774 21182 net.cpp:156] Memory required for data: 678297600
I0711 15:34:05.054788 21182 layer_factory.hpp:77] Creating layer res3b2_branch2b
I0711 15:34:05.054800 21182 net.cpp:91] Creating Layer res3b2_branch2b
I0711 15:34:05.054807 21182 net.cpp:425] res3b2_branch2b <- res3b2_branch2a
I0711 15:34:05.054837 21182 net.cpp:399] res3b2_branch2b -> res3b2_branch2b
I0711 15:34:05.055917 21182 net.cpp:141] Setting up res3b2_branch2b
I0711 15:34:05.055938 21182 net.cpp:148] Top shape: 1 128 60 60 (460800)
I0711 15:34:05.055943 21182 net.cpp:156] Memory required for data: 680140800
I0711 15:34:05.055951 21182 layer_factory.hpp:77] Creating layer bn3b2_branch2b
I0711 15:34:05.055980 21182 net.cpp:91] Creating Layer bn3b2_branch2b
I0711 15:34:05.055989 21182 net.cpp:425] bn3b2_branch2b <- res3b2_branch2b
I0711 15:34:05.055996 21182 net.cpp:386] bn3b2_branch2b -> res3b2_branch2b (in-place)
I0711 15:34:05.056334 21182 net.cpp:141] Setting up bn3b2_branch2b
I0711 15:34:05.056349 21182 net.cpp:148] Top shape: 1 128 60 60 (460800)
I0711 15:34:05.056354 21182 net.cpp:156] Memory required for data: 681984000
I0711 15:34:05.056365 21182 layer_factory.hpp:77] Creating layer scale3b2_branch2b
I0711 15:34:05.056375 21182 net.cpp:91] Creating Layer scale3b2_branch2b
I0711 15:34:05.056381 21182 net.cpp:425] scale3b2_branch2b <- res3b2_branch2b
I0711 15:34:05.056413 21182 net.cpp:386] scale3b2_branch2b -> res3b2_branch2b (in-place)
I0711 15:34:05.056483 21182 layer_factory.hpp:77] Creating layer scale3b2_branch2b
I0711 15:34:05.056749 21182 net.cpp:141] Setting up scale3b2_branch2b
I0711 15:34:05.056762 21182 net.cpp:148] Top shape: 1 128 60 60 (460800)
I0711 15:34:05.056767 21182 net.cpp:156] Memory required for data: 683827200
I0711 15:34:05.056779 21182 layer_factory.hpp:77] Creating layer res3b2_branch2b_relu
I0711 15:34:05.056792 21182 net.cpp:91] Creating Layer res3b2_branch2b_relu
I0711 15:34:05.056797 21182 net.cpp:425] res3b2_branch2b_relu <- res3b2_branch2b
I0711 15:34:05.056807 21182 net.cpp:386] res3b2_branch2b_relu -> res3b2_branch2b (in-place)
I0711 15:34:05.056815 21182 net.cpp:141] Setting up res3b2_branch2b_relu
I0711 15:34:05.056821 21182 net.cpp:148] Top shape: 1 128 60 60 (460800)
I0711 15:34:05.056834 21182 net.cpp:156] Memory required for data: 685670400
I0711 15:34:05.056839 21182 layer_factory.hpp:77] Creating layer res3b2_branch2c
I0711 15:34:05.056876 21182 net.cpp:91] Creating Layer res3b2_branch2c
I0711 15:34:05.056895 21182 net.cpp:425] res3b2_branch2c <- res3b2_branch2b
I0711 15:34:05.056912 21182 net.cpp:399] res3b2_branch2c -> res3b2_branch2c
I0711 15:34:05.057241 21182 net.cpp:141] Setting up res3b2_branch2c
I0711 15:34:05.057253 21182 net.cpp:148] Top shape: 1 512 60 60 (1843200)
I0711 15:34:05.057260 21182 net.cpp:156] Memory required for data: 693043200
I0711 15:34:05.057268 21182 layer_factory.hpp:77] Creating layer bn3b2_branch2c
I0711 15:34:05.057301 21182 net.cpp:91] Creating Layer bn3b2_branch2c
I0711 15:34:05.057309 21182 net.cpp:425] bn3b2_branch2c <- res3b2_branch2c
I0711 15:34:05.057317 21182 net.cpp:386] bn3b2_branch2c -> res3b2_branch2c (in-place)
I0711 15:34:05.057646 21182 net.cpp:141] Setting up bn3b2_branch2c
I0711 15:34:05.057660 21182 net.cpp:148] Top shape: 1 512 60 60 (1843200)
I0711 15:34:05.057664 21182 net.cpp:156] Memory required for data: 700416000
I0711 15:34:05.057677 21182 layer_factory.hpp:77] Creating layer scale3b2_branch2c
I0711 15:34:05.057710 21182 net.cpp:91] Creating Layer scale3b2_branch2c
I0711 15:34:05.057718 21182 net.cpp:425] scale3b2_branch2c <- res3b2_branch2c
I0711 15:34:05.057724 21182 net.cpp:386] scale3b2_branch2c -> res3b2_branch2c (in-place)
I0711 15:34:05.057773 21182 layer_factory.hpp:77] Creating layer scale3b2_branch2c
I0711 15:34:05.058037 21182 net.cpp:141] Setting up scale3b2_branch2c
I0711 15:34:05.058048 21182 net.cpp:148] Top shape: 1 512 60 60 (1843200)
I0711 15:34:05.058053 21182 net.cpp:156] Memory required for data: 707788800
I0711 15:34:05.058064 21182 layer_factory.hpp:77] Creating layer res3b2
I0711 15:34:05.058071 21182 net.cpp:91] Creating Layer res3b2
I0711 15:34:05.058075 21182 net.cpp:425] res3b2 <- res3b1_res3b1_relu_0_split_1
I0711 15:34:05.058080 21182 net.cpp:425] res3b2 <- res3b2_branch2c
I0711 15:34:05.058102 21182 net.cpp:399] res3b2 -> res3b2
I0711 15:34:05.058140 21182 net.cpp:141] Setting up res3b2
I0711 15:34:05.058174 21182 net.cpp:148] Top shape: 1 512 60 60 (1843200)
I0711 15:34:05.058182 21182 net.cpp:156] Memory required for data: 715161600
I0711 15:34:05.058187 21182 layer_factory.hpp:77] Creating layer res3b2_relu
I0711 15:34:05.058193 21182 net.cpp:91] Creating Layer res3b2_relu
I0711 15:34:05.058202 21182 net.cpp:425] res3b2_relu <- res3b2
I0711 15:34:05.058207 21182 net.cpp:386] res3b2_relu -> res3b2 (in-place)
I0711 15:34:05.058214 21182 net.cpp:141] Setting up res3b2_relu
I0711 15:34:05.058219 21182 net.cpp:148] Top shape: 1 512 60 60 (1843200)
I0711 15:34:05.058223 21182 net.cpp:156] Memory required for data: 722534400
I0711 15:34:05.058229 21182 layer_factory.hpp:77] Creating layer res3b2_res3b2_relu_0_split
I0711 15:34:05.058236 21182 net.cpp:91] Creating Layer res3b2_res3b2_relu_0_split
I0711 15:34:05.058239 21182 net.cpp:425] res3b2_res3b2_relu_0_split <- res3b2
I0711 15:34:05.058275 21182 net.cpp:399] res3b2_res3b2_relu_0_split -> res3b2_res3b2_relu_0_split_0
I0711 15:34:05.058289 21182 net.cpp:399] res3b2_res3b2_relu_0_split -> res3b2_res3b2_relu_0_split_1
I0711 15:34:05.058341 21182 net.cpp:141] Setting up res3b2_res3b2_relu_0_split
I0711 15:34:05.058370 21182 net.cpp:148] Top shape: 1 512 60 60 (1843200)
I0711 15:34:05.058379 21182 net.cpp:148] Top shape: 1 512 60 60 (1843200)
I0711 15:34:05.058383 21182 net.cpp:156] Memory required for data: 737280000
I0711 15:34:05.058387 21182 layer_factory.hpp:77] Creating layer res3b3_branch2a
I0711 15:34:05.058399 21182 net.cpp:91] Creating Layer res3b3_branch2a
I0711 15:34:05.058404 21182 net.cpp:425] res3b3_branch2a <- res3b2_res3b2_relu_0_split_0
I0711 15:34:05.058410 21182 net.cpp:399] res3b3_branch2a -> res3b3_branch2a
I0711 15:34:05.058753 21182 net.cpp:141] Setting up res3b3_branch2a
I0711 15:34:05.058764 21182 net.cpp:148] Top shape: 1 128 60 60 (460800)
I0711 15:34:05.058768 21182 net.cpp:156] Memory required for data: 739123200
I0711 15:34:05.058778 21182 layer_factory.hpp:77] Creating layer bn3b3_branch2a
I0711 15:34:05.058815 21182 net.cpp:91] Creating Layer bn3b3_branch2a
I0711 15:34:05.058823 21182 net.cpp:425] bn3b3_branch2a <- res3b3_branch2a
I0711 15:34:05.058845 21182 net.cpp:386] bn3b3_branch2a -> res3b3_branch2a (in-place)
I0711 15:34:05.059141 21182 net.cpp:141] Setting up bn3b3_branch2a
I0711 15:34:05.059154 21182 net.cpp:148] Top shape: 1 128 60 60 (460800)
I0711 15:34:05.059159 21182 net.cpp:156] Memory required for data: 740966400
I0711 15:34:05.059244 21182 layer_factory.hpp:77] Creating layer scale3b3_branch2a
I0711 15:34:05.059257 21182 net.cpp:91] Creating Layer scale3b3_branch2a
I0711 15:34:05.059262 21182 net.cpp:425] scale3b3_branch2a <- res3b3_branch2a
I0711 15:34:05.059283 21182 net.cpp:386] scale3b3_branch2a -> res3b3_branch2a (in-place)
I0711 15:34:05.059365 21182 layer_factory.hpp:77] Creating layer scale3b3_branch2a
I0711 15:34:05.059586 21182 net.cpp:141] Setting up scale3b3_branch2a
I0711 15:34:05.059597 21182 net.cpp:148] Top shape: 1 128 60 60 (460800)
I0711 15:34:05.059602 21182 net.cpp:156] Memory required for data: 742809600
I0711 15:34:05.059609 21182 layer_factory.hpp:77] Creating layer res3b3_branch2a_relu
I0711 15:34:05.059617 21182 net.cpp:91] Creating Layer res3b3_branch2a_relu
I0711 15:34:05.059620 21182 net.cpp:425] res3b3_branch2a_relu <- res3b3_branch2a
I0711 15:34:05.059625 21182 net.cpp:386] res3b3_branch2a_relu -> res3b3_branch2a (in-place)
I0711 15:34:05.059633 21182 net.cpp:141] Setting up res3b3_branch2a_relu
I0711 15:34:05.059638 21182 net.cpp:148] Top shape: 1 128 60 60 (460800)
I0711 15:34:05.059640 21182 net.cpp:156] Memory required for data: 744652800
I0711 15:34:05.059644 21182 layer_factory.hpp:77] Creating layer res3b3_branch2b
I0711 15:34:05.059655 21182 net.cpp:91] Creating Layer res3b3_branch2b
I0711 15:34:05.059659 21182 net.cpp:425] res3b3_branch2b <- res3b3_branch2a
I0711 15:34:05.059666 21182 net.cpp:399] res3b3_branch2b -> res3b3_branch2b
I0711 15:34:05.060914 21182 net.cpp:141] Setting up res3b3_branch2b
I0711 15:34:05.060931 21182 net.cpp:148] Top shape: 1 128 60 60 (460800)
I0711 15:34:05.060937 21182 net.cpp:156] Memory required for data: 746496000
I0711 15:34:05.060945 21182 layer_factory.hpp:77] Creating layer bn3b3_branch2b
I0711 15:34:05.060953 21182 net.cpp:91] Creating Layer bn3b3_branch2b
I0711 15:34:05.060957 21182 net.cpp:425] bn3b3_branch2b <- res3b3_branch2b
I0711 15:34:05.060964 21182 net.cpp:386] bn3b3_branch2b -> res3b3_branch2b (in-place)
I0711 15:34:05.061175 21182 net.cpp:141] Setting up bn3b3_branch2b
I0711 15:34:05.061187 21182 net.cpp:148] Top shape: 1 128 60 60 (460800)
I0711 15:34:05.061192 21182 net.cpp:156] Memory required for data: 748339200
I0711 15:34:05.061202 21182 layer_factory.hpp:77] Creating layer scale3b3_branch2b
I0711 15:34:05.061230 21182 net.cpp:91] Creating Layer scale3b3_branch2b
I0711 15:34:05.061239 21182 net.cpp:425] scale3b3_branch2b <- res3b3_branch2b
I0711 15:34:05.061245 21182 net.cpp:386] scale3b3_branch2b -> res3b3_branch2b (in-place)
I0711 15:34:05.061319 21182 layer_factory.hpp:77] Creating layer scale3b3_branch2b
I0711 15:34:05.063370 21182 net.cpp:141] Setting up scale3b3_branch2b
I0711 15:34:05.063385 21182 net.cpp:148] Top shape: 1 128 60 60 (460800)
I0711 15:34:05.063388 21182 net.cpp:156] Memory required for data: 750182400
I0711 15:34:05.063397 21182 layer_factory.hpp:77] Creating layer res3b3_branch2b_relu
I0711 15:34:05.063422 21182 net.cpp:91] Creating Layer res3b3_branch2b_relu
I0711 15:34:05.063431 21182 net.cpp:425] res3b3_branch2b_relu <- res3b3_branch2b
I0711 15:34:05.063436 21182 net.cpp:386] res3b3_branch2b_relu -> res3b3_branch2b (in-place)
I0711 15:34:05.063444 21182 net.cpp:141] Setting up res3b3_branch2b_relu
I0711 15:34:05.063452 21182 net.cpp:148] Top shape: 1 128 60 60 (460800)
I0711 15:34:05.063455 21182 net.cpp:156] Memory required for data: 752025600
I0711 15:34:05.063459 21182 layer_factory.hpp:77] Creating layer res3b3_branch2c
I0711 15:34:05.064066 21182 net.cpp:91] Creating Layer res3b3_branch2c
I0711 15:34:05.064074 21182 net.cpp:425] res3b3_branch2c <- res3b3_branch2b
I0711 15:34:05.064080 21182 net.cpp:399] res3b3_branch2c -> res3b3_branch2c
I0711 15:34:05.065032 21182 net.cpp:141] Setting up res3b3_branch2c
I0711 15:34:05.065060 21182 net.cpp:148] Top shape: 1 512 60 60 (1843200)
I0711 15:34:05.065066 21182 net.cpp:156] Memory required for data: 759398400
I0711 15:34:05.065073 21182 layer_factory.hpp:77] Creating layer bn3b3_branch2c
I0711 15:34:05.065088 21182 net.cpp:91] Creating Layer bn3b3_branch2c
I0711 15:34:05.065094 21182 net.cpp:425] bn3b3_branch2c <- res3b3_branch2c
I0711 15:34:05.065100 21182 net.cpp:386] bn3b3_branch2c -> res3b3_branch2c (in-place)
I0711 15:34:05.065299 21182 net.cpp:141] Setting up bn3b3_branch2c
I0711 15:34:05.065310 21182 net.cpp:148] Top shape: 1 512 60 60 (1843200)
I0711 15:34:05.065315 21182 net.cpp:156] Memory required for data: 766771200
I0711 15:34:05.065325 21182 layer_factory.hpp:77] Creating layer scale3b3_branch2c
I0711 15:34:05.065335 21182 net.cpp:91] Creating Layer scale3b3_branch2c
I0711 15:34:05.065340 21182 net.cpp:425] scale3b3_branch2c <- res3b3_branch2c
I0711 15:34:05.065347 21182 net.cpp:386] scale3b3_branch2c -> res3b3_branch2c (in-place)
I0711 15:34:05.065389 21182 layer_factory.hpp:77] Creating layer scale3b3_branch2c
I0711 15:34:05.069110 21182 net.cpp:141] Setting up scale3b3_branch2c
I0711 15:34:05.069128 21182 net.cpp:148] Top shape: 1 512 60 60 (1843200)
I0711 15:34:05.069133 21182 net.cpp:156] Memory required for data: 774144000
I0711 15:34:05.069142 21182 layer_factory.hpp:77] Creating layer res3b3
I0711 15:34:05.069150 21182 net.cpp:91] Creating Layer res3b3
I0711 15:34:05.069156 21182 net.cpp:425] res3b3 <- res3b2_res3b2_relu_0_split_1
I0711 15:34:05.069161 21182 net.cpp:425] res3b3 <- res3b3_branch2c
I0711 15:34:05.069169 21182 net.cpp:399] res3b3 -> res3b3
I0711 15:34:05.069217 21182 net.cpp:141] Setting up res3b3
I0711 15:34:05.069231 21182 net.cpp:148] Top shape: 1 512 60 60 (1843200)
I0711 15:34:05.069236 21182 net.cpp:156] Memory required for data: 781516800
I0711 15:34:05.069239 21182 layer_factory.hpp:77] Creating layer res3b3_relu
I0711 15:34:05.069248 21182 net.cpp:91] Creating Layer res3b3_relu
I0711 15:34:05.069253 21182 net.cpp:425] res3b3_relu <- res3b3
I0711 15:34:05.069258 21182 net.cpp:386] res3b3_relu -> res3b3 (in-place)
I0711 15:34:05.069265 21182 net.cpp:141] Setting up res3b3_relu
I0711 15:34:05.069270 21182 net.cpp:148] Top shape: 1 512 60 60 (1843200)
I0711 15:34:05.069274 21182 net.cpp:156] Memory required for data: 788889600
I0711 15:34:05.069278 21182 layer_factory.hpp:77] Creating layer res3b3_res3b3_relu_0_split
I0711 15:34:05.069285 21182 net.cpp:91] Creating Layer res3b3_res3b3_relu_0_split
I0711 15:34:05.069289 21182 net.cpp:425] res3b3_res3b3_relu_0_split <- res3b3
I0711 15:34:05.069295 21182 net.cpp:399] res3b3_res3b3_relu_0_split -> res3b3_res3b3_relu_0_split_0
I0711 15:34:05.069342 21182 net.cpp:399] res3b3_res3b3_relu_0_split -> res3b3_res3b3_relu_0_split_1
I0711 15:34:05.069391 21182 net.cpp:141] Setting up res3b3_res3b3_relu_0_split
I0711 15:34:05.069401 21182 net.cpp:148] Top shape: 1 512 60 60 (1843200)
I0711 15:34:05.069406 21182 net.cpp:148] Top shape: 1 512 60 60 (1843200)
I0711 15:34:05.069408 21182 net.cpp:156] Memory required for data: 803635200
I0711 15:34:05.069412 21182 layer_factory.hpp:77] Creating layer res4a_branch1
I0711 15:34:05.069424 21182 net.cpp:91] Creating Layer res4a_branch1
I0711 15:34:05.069429 21182 net.cpp:425] res4a_branch1 <- res3b3_res3b3_relu_0_split_0
I0711 15:34:05.069437 21182 net.cpp:399] res4a_branch1 -> res4a_branch1
I0711 15:34:05.071140 21182 net.cpp:141] Setting up res4a_branch1
I0711 15:34:05.071156 21182 net.cpp:148] Top shape: 1 1024 60 60 (3686400)
I0711 15:34:05.071161 21182 net.cpp:156] Memory required for data: 818380800
I0711 15:34:05.071168 21182 layer_factory.hpp:77] Creating layer bn4a_branch1
I0711 15:34:05.071177 21182 net.cpp:91] Creating Layer bn4a_branch1
I0711 15:34:05.071182 21182 net.cpp:425] bn4a_branch1 <- res4a_branch1
I0711 15:34:05.071189 21182 net.cpp:386] bn4a_branch1 -> res4a_branch1 (in-place)
I0711 15:34:05.071393 21182 net.cpp:141] Setting up bn4a_branch1
I0711 15:34:05.071403 21182 net.cpp:148] Top shape: 1 1024 60 60 (3686400)
I0711 15:34:05.071422 21182 net.cpp:156] Memory required for data: 833126400
I0711 15:34:05.071434 21182 layer_factory.hpp:77] Creating layer scale4a_branch1
I0711 15:34:05.071441 21182 net.cpp:91] Creating Layer scale4a_branch1
I0711 15:34:05.071445 21182 net.cpp:425] scale4a_branch1 <- res4a_branch1
I0711 15:34:05.071451 21182 net.cpp:386] scale4a_branch1 -> res4a_branch1 (in-place)
I0711 15:34:05.071496 21182 layer_factory.hpp:77] Creating layer scale4a_branch1
I0711 15:34:05.071626 21182 net.cpp:141] Setting up scale4a_branch1
I0711 15:34:05.071636 21182 net.cpp:148] Top shape: 1 1024 60 60 (3686400)
I0711 15:34:05.071641 21182 net.cpp:156] Memory required for data: 847872000
I0711 15:34:05.071648 21182 layer_factory.hpp:77] Creating layer res4a_branch2a
I0711 15:34:05.071660 21182 net.cpp:91] Creating Layer res4a_branch2a
I0711 15:34:05.071665 21182 net.cpp:425] res4a_branch2a <- res3b3_res3b3_relu_0_split_1
I0711 15:34:05.071671 21182 net.cpp:399] res4a_branch2a -> res4a_branch2a
I0711 15:34:05.071982 21182 net.cpp:141] Setting up res4a_branch2a
I0711 15:34:05.071993 21182 net.cpp:148] Top shape: 1 256 60 60 (921600)
I0711 15:34:05.071997 21182 net.cpp:156] Memory required for data: 851558400
I0711 15:34:05.072005 21182 layer_factory.hpp:77] Creating layer bn4a_branch2a
I0711 15:34:05.072016 21182 net.cpp:91] Creating Layer bn4a_branch2a
I0711 15:34:05.072021 21182 net.cpp:425] bn4a_branch2a <- res4a_branch2a
I0711 15:34:05.072026 21182 net.cpp:386] bn4a_branch2a -> res4a_branch2a (in-place)
I0711 15:34:05.072258 21182 net.cpp:141] Setting up bn4a_branch2a
I0711 15:34:05.072273 21182 net.cpp:148] Top shape: 1 256 60 60 (921600)
I0711 15:34:05.072276 21182 net.cpp:156] Memory required for data: 855244800
I0711 15:34:05.072286 21182 layer_factory.hpp:77] Creating layer scale4a_branch2a
I0711 15:34:05.072319 21182 net.cpp:91] Creating Layer scale4a_branch2a
I0711 15:34:05.072327 21182 net.cpp:425] scale4a_branch2a <- res4a_branch2a
I0711 15:34:05.072335 21182 net.cpp:386] scale4a_branch2a -> res4a_branch2a (in-place)
I0711 15:34:05.072398 21182 layer_factory.hpp:77] Creating layer scale4a_branch2a
I0711 15:34:05.072561 21182 net.cpp:141] Setting up scale4a_branch2a
I0711 15:34:05.072576 21182 net.cpp:148] Top shape: 1 256 60 60 (921600)
I0711 15:34:05.072579 21182 net.cpp:156] Memory required for data: 858931200
I0711 15:34:05.072588 21182 layer_factory.hpp:77] Creating layer res4a_branch2a_relu
I0711 15:34:05.072595 21182 net.cpp:91] Creating Layer res4a_branch2a_relu
I0711 15:34:05.072599 21182 net.cpp:425] res4a_branch2a_relu <- res4a_branch2a
I0711 15:34:05.072607 21182 net.cpp:386] res4a_branch2a_relu -> res4a_branch2a (in-place)
I0711 15:34:05.072621 21182 net.cpp:141] Setting up res4a_branch2a_relu
I0711 15:34:05.072630 21182 net.cpp:148] Top shape: 1 256 60 60 (921600)
I0711 15:34:05.072633 21182 net.cpp:156] Memory required for data: 862617600
I0711 15:34:05.072638 21182 layer_factory.hpp:77] Creating layer res4a_branch2b
I0711 15:34:05.072646 21182 net.cpp:91] Creating Layer res4a_branch2b
I0711 15:34:05.072651 21182 net.cpp:425] res4a_branch2b <- res4a_branch2a
I0711 15:34:05.072660 21182 net.cpp:399] res4a_branch2b -> res4a_branch2b
I0711 15:34:05.074491 21182 net.cpp:141] Setting up res4a_branch2b
I0711 15:34:05.074508 21182 net.cpp:148] Top shape: 1 256 60 60 (921600)
I0711 15:34:05.074513 21182 net.cpp:156] Memory required for data: 866304000
I0711 15:34:05.074520 21182 layer_factory.hpp:77] Creating layer bn4a_branch2b
I0711 15:34:05.074529 21182 net.cpp:91] Creating Layer bn4a_branch2b
I0711 15:34:05.074534 21182 net.cpp:425] bn4a_branch2b <- res4a_branch2b
I0711 15:34:05.074540 21182 net.cpp:386] bn4a_branch2b -> res4a_branch2b (in-place)
I0711 15:34:05.074740 21182 net.cpp:141] Setting up bn4a_branch2b
I0711 15:34:05.074751 21182 net.cpp:148] Top shape: 1 256 60 60 (921600)
I0711 15:34:05.074755 21182 net.cpp:156] Memory required for data: 869990400
I0711 15:34:05.074765 21182 layer_factory.hpp:77] Creating layer scale4a_branch2b
I0711 15:34:05.074775 21182 net.cpp:91] Creating Layer scale4a_branch2b
I0711 15:34:05.074793 21182 net.cpp:425] scale4a_branch2b <- res4a_branch2b
I0711 15:34:05.074800 21182 net.cpp:386] scale4a_branch2b -> res4a_branch2b (in-place)
I0711 15:34:05.074848 21182 layer_factory.hpp:77] Creating layer scale4a_branch2b
I0711 15:34:05.074982 21182 net.cpp:141] Setting up scale4a_branch2b
I0711 15:34:05.074995 21182 net.cpp:148] Top shape: 1 256 60 60 (921600)
I0711 15:34:05.075000 21182 net.cpp:156] Memory required for data: 873676800
I0711 15:34:05.075006 21182 layer_factory.hpp:77] Creating layer res4a_branch2b_relu
I0711 15:34:05.075016 21182 net.cpp:91] Creating Layer res4a_branch2b_relu
I0711 15:34:05.075021 21182 net.cpp:425] res4a_branch2b_relu <- res4a_branch2b
I0711 15:34:05.075026 21182 net.cpp:386] res4a_branch2b_relu -> res4a_branch2b (in-place)
I0711 15:34:05.075032 21182 net.cpp:141] Setting up res4a_branch2b_relu
I0711 15:34:05.075037 21182 net.cpp:148] Top shape: 1 256 60 60 (921600)
I0711 15:34:05.075042 21182 net.cpp:156] Memory required for data: 877363200
I0711 15:34:05.075045 21182 layer_factory.hpp:77] Creating layer res4a_branch2c
I0711 15:34:05.075055 21182 net.cpp:91] Creating Layer res4a_branch2c
I0711 15:34:05.075059 21182 net.cpp:425] res4a_branch2c <- res4a_branch2b
I0711 15:34:05.075068 21182 net.cpp:399] res4a_branch2c -> res4a_branch2c
I0711 15:34:05.076206 21182 net.cpp:141] Setting up res4a_branch2c
I0711 15:34:05.076226 21182 net.cpp:148] Top shape: 1 1024 60 60 (3686400)
I0711 15:34:05.076231 21182 net.cpp:156] Memory required for data: 892108800
I0711 15:34:05.076237 21182 layer_factory.hpp:77] Creating layer bn4a_branch2c
I0711 15:34:05.076246 21182 net.cpp:91] Creating Layer bn4a_branch2c
I0711 15:34:05.076251 21182 net.cpp:425] bn4a_branch2c <- res4a_branch2c
I0711 15:34:05.076259 21182 net.cpp:386] bn4a_branch2c -> res4a_branch2c (in-place)
I0711 15:34:05.076488 21182 net.cpp:141] Setting up bn4a_branch2c
I0711 15:34:05.076506 21182 net.cpp:148] Top shape: 1 1024 60 60 (3686400)
I0711 15:34:05.076513 21182 net.cpp:156] Memory required for data: 906854400
I0711 15:34:05.076522 21182 layer_factory.hpp:77] Creating layer scale4a_branch2c
I0711 15:34:05.076530 21182 net.cpp:91] Creating Layer scale4a_branch2c
I0711 15:34:05.076534 21182 net.cpp:425] scale4a_branch2c <- res4a_branch2c
I0711 15:34:05.076540 21182 net.cpp:386] scale4a_branch2c -> res4a_branch2c (in-place)
I0711 15:34:05.076587 21182 layer_factory.hpp:77] Creating layer scale4a_branch2c
I0711 15:34:05.076724 21182 net.cpp:141] Setting up scale4a_branch2c
I0711 15:34:05.076735 21182 net.cpp:148] Top shape: 1 1024 60 60 (3686400)
I0711 15:34:05.076738 21182 net.cpp:156] Memory required for data: 921600000
I0711 15:34:05.076753 21182 layer_factory.hpp:77] Creating layer res4a
I0711 15:34:05.076762 21182 net.cpp:91] Creating Layer res4a
I0711 15:34:05.076766 21182 net.cpp:425] res4a <- res4a_branch1
I0711 15:34:05.076771 21182 net.cpp:425] res4a <- res4a_branch2c
I0711 15:34:05.076777 21182 net.cpp:399] res4a -> res4a
I0711 15:34:05.076804 21182 net.cpp:141] Setting up res4a
I0711 15:34:05.076812 21182 net.cpp:148] Top shape: 1 1024 60 60 (3686400)
I0711 15:34:05.076817 21182 net.cpp:156] Memory required for data: 936345600
I0711 15:34:05.076822 21182 layer_factory.hpp:77] Creating layer res4a_relu
I0711 15:34:05.076828 21182 net.cpp:91] Creating Layer res4a_relu
I0711 15:34:05.076833 21182 net.cpp:425] res4a_relu <- res4a
I0711 15:34:05.076839 21182 net.cpp:386] res4a_relu -> res4a (in-place)
I0711 15:34:05.076846 21182 net.cpp:141] Setting up res4a_relu
I0711 15:34:05.076851 21182 net.cpp:148] Top shape: 1 1024 60 60 (3686400)
I0711 15:34:05.076854 21182 net.cpp:156] Memory required for data: 951091200
I0711 15:34:05.076858 21182 layer_factory.hpp:77] Creating layer res4a_res4a_relu_0_split
I0711 15:34:05.076864 21182 net.cpp:91] Creating Layer res4a_res4a_relu_0_split
I0711 15:34:05.076867 21182 net.cpp:425] res4a_res4a_relu_0_split <- res4a
I0711 15:34:05.076874 21182 net.cpp:399] res4a_res4a_relu_0_split -> res4a_res4a_relu_0_split_0
I0711 15:34:05.076879 21182 net.cpp:399] res4a_res4a_relu_0_split -> res4a_res4a_relu_0_split_1
I0711 15:34:05.076936 21182 net.cpp:141] Setting up res4a_res4a_relu_0_split
I0711 15:34:05.076946 21182 net.cpp:148] Top shape: 1 1024 60 60 (3686400)
I0711 15:34:05.076951 21182 net.cpp:148] Top shape: 1 1024 60 60 (3686400)
I0711 15:34:05.076954 21182 net.cpp:156] Memory required for data: 980582400
I0711 15:34:05.076958 21182 layer_factory.hpp:77] Creating layer res4b1_branch2a
I0711 15:34:05.076987 21182 net.cpp:91] Creating Layer res4b1_branch2a
I0711 15:34:05.076993 21182 net.cpp:425] res4b1_branch2a <- res4a_res4a_relu_0_split_0
I0711 15:34:05.077002 21182 net.cpp:399] res4b1_branch2a -> res4b1_branch2a
I0711 15:34:05.078045 21182 net.cpp:141] Setting up res4b1_branch2a
I0711 15:34:05.078061 21182 net.cpp:148] Top shape: 1 256 60 60 (921600)
I0711 15:34:05.078065 21182 net.cpp:156] Memory required for data: 984268800
I0711 15:34:05.078074 21182 layer_factory.hpp:77] Creating layer bn4b1_branch2a
I0711 15:34:05.078085 21182 net.cpp:91] Creating Layer bn4b1_branch2a
I0711 15:34:05.078089 21182 net.cpp:425] bn4b1_branch2a <- res4b1_branch2a
I0711 15:34:05.078097 21182 net.cpp:386] bn4b1_branch2a -> res4b1_branch2a (in-place)
I0711 15:34:05.078297 21182 net.cpp:141] Setting up bn4b1_branch2a
I0711 15:34:05.078307 21182 net.cpp:148] Top shape: 1 256 60 60 (921600)
I0711 15:34:05.078311 21182 net.cpp:156] Memory required for data: 987955200
I0711 15:34:05.078320 21182 layer_factory.hpp:77] Creating layer scale4b1_branch2a
I0711 15:34:05.078330 21182 net.cpp:91] Creating Layer scale4b1_branch2a
I0711 15:34:05.078336 21182 net.cpp:425] scale4b1_branch2a <- res4b1_branch2a
I0711 15:34:05.078343 21182 net.cpp:386] scale4b1_branch2a -> res4b1_branch2a (in-place)
I0711 15:34:05.078388 21182 layer_factory.hpp:77] Creating layer scale4b1_branch2a
I0711 15:34:05.078516 21182 net.cpp:141] Setting up scale4b1_branch2a
I0711 15:34:05.078527 21182 net.cpp:148] Top shape: 1 256 60 60 (921600)
I0711 15:34:05.078531 21182 net.cpp:156] Memory required for data: 991641600
I0711 15:34:05.078541 21182 layer_factory.hpp:77] Creating layer res4b1_branch2a_relu
I0711 15:34:05.078547 21182 net.cpp:91] Creating Layer res4b1_branch2a_relu
I0711 15:34:05.078552 21182 net.cpp:425] res4b1_branch2a_relu <- res4b1_branch2a
I0711 15:34:05.078557 21182 net.cpp:386] res4b1_branch2a_relu -> res4b1_branch2a (in-place)
I0711 15:34:05.078563 21182 net.cpp:141] Setting up res4b1_branch2a_relu
I0711 15:34:05.078568 21182 net.cpp:148] Top shape: 1 256 60 60 (921600)
I0711 15:34:05.078572 21182 net.cpp:156] Memory required for data: 995328000
I0711 15:34:05.078577 21182 layer_factory.hpp:77] Creating layer res4b1_branch2b
I0711 15:34:05.078588 21182 net.cpp:91] Creating Layer res4b1_branch2b
I0711 15:34:05.078591 21182 net.cpp:425] res4b1_branch2b <- res4b1_branch2a
I0711 15:34:05.078598 21182 net.cpp:399] res4b1_branch2b -> res4b1_branch2b
I0711 15:34:05.080355 21182 net.cpp:141] Setting up res4b1_branch2b
I0711 15:34:05.080371 21182 net.cpp:148] Top shape: 1 256 60 60 (921600)
I0711 15:34:05.080375 21182 net.cpp:156] Memory required for data: 999014400
I0711 15:34:05.080382 21182 layer_factory.hpp:77] Creating layer bn4b1_branch2b
I0711 15:34:05.080391 21182 net.cpp:91] Creating Layer bn4b1_branch2b
I0711 15:34:05.080396 21182 net.cpp:425] bn4b1_branch2b <- res4b1_branch2b
I0711 15:34:05.080402 21182 net.cpp:386] bn4b1_branch2b -> res4b1_branch2b (in-place)
I0711 15:34:05.080621 21182 net.cpp:141] Setting up bn4b1_branch2b
I0711 15:34:05.080632 21182 net.cpp:148] Top shape: 1 256 60 60 (921600)
I0711 15:34:05.080636 21182 net.cpp:156] Memory required for data: 1002700800
I0711 15:34:05.080646 21182 layer_factory.hpp:77] Creating layer scale4b1_branch2b
I0711 15:34:05.080657 21182 net.cpp:91] Creating Layer scale4b1_branch2b
I0711 15:34:05.080660 21182 net.cpp:425] scale4b1_branch2b <- res4b1_branch2b
I0711 15:34:05.080667 21182 net.cpp:386] scale4b1_branch2b -> res4b1_branch2b (in-place)
I0711 15:34:05.080708 21182 layer_factory.hpp:77] Creating layer scale4b1_branch2b
I0711 15:34:05.080847 21182 net.cpp:141] Setting up scale4b1_branch2b
I0711 15:34:05.080870 21182 net.cpp:148] Top shape: 1 256 60 60 (921600)
I0711 15:34:05.080875 21182 net.cpp:156] Memory required for data: 1006387200
I0711 15:34:05.080883 21182 layer_factory.hpp:77] Creating layer res4b1_branch2b_relu
I0711 15:34:05.080893 21182 net.cpp:91] Creating Layer res4b1_branch2b_relu
I0711 15:34:05.080898 21182 net.cpp:425] res4b1_branch2b_relu <- res4b1_branch2b
I0711 15:34:05.080902 21182 net.cpp:386] res4b1_branch2b_relu -> res4b1_branch2b (in-place)
I0711 15:34:05.080909 21182 net.cpp:141] Setting up res4b1_branch2b_relu
I0711 15:34:05.080914 21182 net.cpp:148] Top shape: 1 256 60 60 (921600)
I0711 15:34:05.080919 21182 net.cpp:156] Memory required for data: 1010073600
I0711 15:34:05.080922 21182 layer_factory.hpp:77] Creating layer res4b1_branch2c
I0711 15:34:05.080932 21182 net.cpp:91] Creating Layer res4b1_branch2c
I0711 15:34:05.080936 21182 net.cpp:425] res4b1_branch2c <- res4b1_branch2b
I0711 15:34:05.080942 21182 net.cpp:399] res4b1_branch2c -> res4b1_branch2c
I0711 15:34:05.081984 21182 net.cpp:141] Setting up res4b1_branch2c
I0711 15:34:05.082000 21182 net.cpp:148] Top shape: 1 1024 60 60 (3686400)
I0711 15:34:05.082005 21182 net.cpp:156] Memory required for data: 1024819200
I0711 15:34:05.082011 21182 layer_factory.hpp:77] Creating layer bn4b1_branch2c
I0711 15:34:05.082020 21182 net.cpp:91] Creating Layer bn4b1_branch2c
I0711 15:34:05.082026 21182 net.cpp:425] bn4b1_branch2c <- res4b1_branch2c
I0711 15:34:05.082033 21182 net.cpp:386] bn4b1_branch2c -> res4b1_branch2c (in-place)
I0711 15:34:05.082283 21182 net.cpp:141] Setting up bn4b1_branch2c
I0711 15:34:05.082294 21182 net.cpp:148] Top shape: 1 1024 60 60 (3686400)
I0711 15:34:05.082298 21182 net.cpp:156] Memory required for data: 1039564800
I0711 15:34:05.082307 21182 layer_factory.hpp:77] Creating layer scale4b1_branch2c
I0711 15:34:05.082316 21182 net.cpp:91] Creating Layer scale4b1_branch2c
I0711 15:34:05.082321 21182 net.cpp:425] scale4b1_branch2c <- res4b1_branch2c
I0711 15:34:05.082326 21182 net.cpp:386] scale4b1_branch2c -> res4b1_branch2c (in-place)
I0711 15:34:05.082669 21182 layer_factory.hpp:77] Creating layer scale4b1_branch2c
I0711 15:34:05.082829 21182 net.cpp:141] Setting up scale4b1_branch2c
I0711 15:34:05.082842 21182 net.cpp:148] Top shape: 1 1024 60 60 (3686400)
I0711 15:34:05.082846 21182 net.cpp:156] Memory required for data: 1054310400
I0711 15:34:05.082855 21182 layer_factory.hpp:77] Creating layer res4b1
I0711 15:34:05.082864 21182 net.cpp:91] Creating Layer res4b1
I0711 15:34:05.082868 21182 net.cpp:425] res4b1 <- res4a_res4a_relu_0_split_1
I0711 15:34:05.082873 21182 net.cpp:425] res4b1 <- res4b1_branch2c
I0711 15:34:05.082880 21182 net.cpp:399] res4b1 -> res4b1
I0711 15:34:05.082911 21182 net.cpp:141] Setting up res4b1
I0711 15:34:05.082921 21182 net.cpp:148] Top shape: 1 1024 60 60 (3686400)
I0711 15:34:05.082924 21182 net.cpp:156] Memory required for data: 1069056000
I0711 15:34:05.082928 21182 layer_factory.hpp:77] Creating layer res4b1_relu
I0711 15:34:05.082934 21182 net.cpp:91] Creating Layer res4b1_relu
I0711 15:34:05.082938 21182 net.cpp:425] res4b1_relu <- res4b1
I0711 15:34:05.082945 21182 net.cpp:386] res4b1_relu -> res4b1 (in-place)
I0711 15:34:05.082952 21182 net.cpp:141] Setting up res4b1_relu
I0711 15:34:05.082957 21182 net.cpp:148] Top shape: 1 1024 60 60 (3686400)
I0711 15:34:05.082960 21182 net.cpp:156] Memory required for data: 1083801600
I0711 15:34:05.082964 21182 layer_factory.hpp:77] Creating layer res4b1_res4b1_relu_0_split
I0711 15:34:05.082970 21182 net.cpp:91] Creating Layer res4b1_res4b1_relu_0_split
I0711 15:34:05.082974 21182 net.cpp:425] res4b1_res4b1_relu_0_split <- res4b1
I0711 15:34:05.082979 21182 net.cpp:399] res4b1_res4b1_relu_0_split -> res4b1_res4b1_relu_0_split_0
I0711 15:34:05.082986 21182 net.cpp:399] res4b1_res4b1_relu_0_split -> res4b1_res4b1_relu_0_split_1
I0711 15:34:05.083024 21182 net.cpp:141] Setting up res4b1_res4b1_relu_0_split
I0711 15:34:05.083031 21182 net.cpp:148] Top shape: 1 1024 60 60 (3686400)
I0711 15:34:05.083036 21182 net.cpp:148] Top shape: 1 1024 60 60 (3686400)
I0711 15:34:05.083051 21182 net.cpp:156] Memory required for data: 1113292800
I0711 15:34:05.083055 21182 layer_factory.hpp:77] Creating layer res4b2_branch2a
I0711 15:34:05.083067 21182 net.cpp:91] Creating Layer res4b2_branch2a
I0711 15:34:05.083072 21182 net.cpp:425] res4b2_branch2a <- res4b1_res4b1_relu_0_split_0
I0711 15:34:05.083082 21182 net.cpp:399] res4b2_branch2a -> res4b2_branch2a
I0711 15:34:05.084102 21182 net.cpp:141] Setting up res4b2_branch2a
I0711 15:34:05.084118 21182 net.cpp:148] Top shape: 1 256 60 60 (921600)
I0711 15:34:05.084122 21182 net.cpp:156] Memory required for data: 1116979200
I0711 15:34:05.084131 21182 layer_factory.hpp:77] Creating layer bn4b2_branch2a
I0711 15:34:05.084142 21182 net.cpp:91] Creating Layer bn4b2_branch2a
I0711 15:34:05.084146 21182 net.cpp:425] bn4b2_branch2a <- res4b2_branch2a
I0711 15:34:05.084153 21182 net.cpp:386] bn4b2_branch2a -> res4b2_branch2a (in-place)
I0711 15:34:05.084352 21182 net.cpp:141] Setting up bn4b2_branch2a
I0711 15:34:05.084362 21182 net.cpp:148] Top shape: 1 256 60 60 (921600)
I0711 15:34:05.084365 21182 net.cpp:156] Memory required for data: 1120665600
I0711 15:34:05.084374 21182 layer_factory.hpp:77] Creating layer scale4b2_branch2a
I0711 15:34:05.084385 21182 net.cpp:91] Creating Layer scale4b2_branch2a
I0711 15:34:05.084391 21182 net.cpp:425] scale4b2_branch2a <- res4b2_branch2a
I0711 15:34:05.084396 21182 net.cpp:386] scale4b2_branch2a -> res4b2_branch2a (in-place)
I0711 15:34:05.084440 21182 layer_factory.hpp:77] Creating layer scale4b2_branch2a
I0711 15:34:05.084599 21182 net.cpp:141] Setting up scale4b2_branch2a
I0711 15:34:05.084612 21182 net.cpp:148] Top shape: 1 256 60 60 (921600)
I0711 15:34:05.084616 21182 net.cpp:156] Memory required for data: 1124352000
I0711 15:34:05.084625 21182 layer_factory.hpp:77] Creating layer res4b2_branch2a_relu
I0711 15:34:05.084640 21182 net.cpp:91] Creating Layer res4b2_branch2a_relu
I0711 15:34:05.084646 21182 net.cpp:425] res4b2_branch2a_relu <- res4b2_branch2a
I0711 15:34:05.084655 21182 net.cpp:386] res4b2_branch2a_relu -> res4b2_branch2a (in-place)
I0711 15:34:05.084662 21182 net.cpp:141] Setting up res4b2_branch2a_relu
I0711 15:34:05.084667 21182 net.cpp:148] Top shape: 1 256 60 60 (921600)
I0711 15:34:05.084671 21182 net.cpp:156] Memory required for data: 1128038400
I0711 15:34:05.084676 21182 layer_factory.hpp:77] Creating layer res4b2_branch2b
I0711 15:34:05.084689 21182 net.cpp:91] Creating Layer res4b2_branch2b
I0711 15:34:05.084693 21182 net.cpp:425] res4b2_branch2b <- res4b2_branch2a
I0711 15:34:05.084699 21182 net.cpp:399] res4b2_branch2b -> res4b2_branch2b
I0711 15:34:05.086566 21182 net.cpp:141] Setting up res4b2_branch2b
I0711 15:34:05.086583 21182 net.cpp:148] Top shape: 1 256 60 60 (921600)
I0711 15:34:05.086588 21182 net.cpp:156] Memory required for data: 1131724800
I0711 15:34:05.086596 21182 layer_factory.hpp:77] Creating layer bn4b2_branch2b
I0711 15:34:05.086606 21182 net.cpp:91] Creating Layer bn4b2_branch2b
I0711 15:34:05.086611 21182 net.cpp:425] bn4b2_branch2b <- res4b2_branch2b
I0711 15:34:05.086617 21182 net.cpp:386] bn4b2_branch2b -> res4b2_branch2b (in-place)
I0711 15:34:05.086832 21182 net.cpp:141] Setting up bn4b2_branch2b
I0711 15:34:05.086843 21182 net.cpp:148] Top shape: 1 256 60 60 (921600)
I0711 15:34:05.086846 21182 net.cpp:156] Memory required for data: 1135411200
I0711 15:34:05.086856 21182 layer_factory.hpp:77] Creating layer scale4b2_branch2b
I0711 15:34:05.086863 21182 net.cpp:91] Creating Layer scale4b2_branch2b
I0711 15:34:05.086868 21182 net.cpp:425] scale4b2_branch2b <- res4b2_branch2b
I0711 15:34:05.086875 21182 net.cpp:386] scale4b2_branch2b -> res4b2_branch2b (in-place)
I0711 15:34:05.086920 21182 layer_factory.hpp:77] Creating layer scale4b2_branch2b
I0711 15:34:05.087050 21182 net.cpp:141] Setting up scale4b2_branch2b
I0711 15:34:05.087060 21182 net.cpp:148] Top shape: 1 256 60 60 (921600)
I0711 15:34:05.087064 21182 net.cpp:156] Memory required for data: 1139097600
I0711 15:34:05.087071 21182 layer_factory.hpp:77] Creating layer res4b2_branch2b_relu
I0711 15:34:05.087091 21182 net.cpp:91] Creating Layer res4b2_branch2b_relu
I0711 15:34:05.087096 21182 net.cpp:425] res4b2_branch2b_relu <- res4b2_branch2b
I0711 15:34:05.087102 21182 net.cpp:386] res4b2_branch2b_relu -> res4b2_branch2b (in-place)
I0711 15:34:05.087110 21182 net.cpp:141] Setting up res4b2_branch2b_relu
I0711 15:34:05.087115 21182 net.cpp:148] Top shape: 1 256 60 60 (921600)
I0711 15:34:05.087118 21182 net.cpp:156] Memory required for data: 1142784000
I0711 15:34:05.087121 21182 layer_factory.hpp:77] Creating layer res4b2_branch2c
I0711 15:34:05.087132 21182 net.cpp:91] Creating Layer res4b2_branch2c
I0711 15:34:05.087136 21182 net.cpp:425] res4b2_branch2c <- res4b2_branch2b
I0711 15:34:05.087144 21182 net.cpp:399] res4b2_branch2c -> res4b2_branch2c
I0711 15:34:05.088135 21182 net.cpp:141] Setting up res4b2_branch2c
I0711 15:34:05.088151 21182 net.cpp:148] Top shape: 1 1024 60 60 (3686400)
I0711 15:34:05.088156 21182 net.cpp:156] Memory required for data: 1157529600
I0711 15:34:05.088163 21182 layer_factory.hpp:77] Creating layer bn4b2_branch2c
I0711 15:34:05.088172 21182 net.cpp:91] Creating Layer bn4b2_branch2c
I0711 15:34:05.088177 21182 net.cpp:425] bn4b2_branch2c <- res4b2_branch2c
I0711 15:34:05.088183 21182 net.cpp:386] bn4b2_branch2c -> res4b2_branch2c (in-place)
I0711 15:34:05.088392 21182 net.cpp:141] Setting up bn4b2_branch2c
I0711 15:34:05.088402 21182 net.cpp:148] Top shape: 1 1024 60 60 (3686400)
I0711 15:34:05.088407 21182 net.cpp:156] Memory required for data: 1172275200
I0711 15:34:05.088416 21182 layer_factory.hpp:77] Creating layer scale4b2_branch2c
I0711 15:34:05.088425 21182 net.cpp:91] Creating Layer scale4b2_branch2c
I0711 15:34:05.088430 21182 net.cpp:425] scale4b2_branch2c <- res4b2_branch2c
I0711 15:34:05.088435 21182 net.cpp:386] scale4b2_branch2c -> res4b2_branch2c (in-place)
I0711 15:34:05.088485 21182 layer_factory.hpp:77] Creating layer scale4b2_branch2c
I0711 15:34:05.088624 21182 net.cpp:141] Setting up scale4b2_branch2c
I0711 15:34:05.088635 21182 net.cpp:148] Top shape: 1 1024 60 60 (3686400)
I0711 15:34:05.088640 21182 net.cpp:156] Memory required for data: 1187020800
I0711 15:34:05.088649 21182 layer_factory.hpp:77] Creating layer res4b2
I0711 15:34:05.088660 21182 net.cpp:91] Creating Layer res4b2
I0711 15:34:05.088663 21182 net.cpp:425] res4b2 <- res4b1_res4b1_relu_0_split_1
I0711 15:34:05.088668 21182 net.cpp:425] res4b2 <- res4b2_branch2c
I0711 15:34:05.088675 21182 net.cpp:399] res4b2 -> res4b2
I0711 15:34:05.088702 21182 net.cpp:141] Setting up res4b2
I0711 15:34:05.088711 21182 net.cpp:148] Top shape: 1 1024 60 60 (3686400)
I0711 15:34:05.088716 21182 net.cpp:156] Memory required for data: 1201766400
I0711 15:34:05.088719 21182 layer_factory.hpp:77] Creating layer res4b2_relu
I0711 15:34:05.088726 21182 net.cpp:91] Creating Layer res4b2_relu
I0711 15:34:05.088729 21182 net.cpp:425] res4b2_relu <- res4b2
I0711 15:34:05.088737 21182 net.cpp:386] res4b2_relu -> res4b2 (in-place)
I0711 15:34:05.088743 21182 net.cpp:141] Setting up res4b2_relu
I0711 15:34:05.088748 21182 net.cpp:148] Top shape: 1 1024 60 60 (3686400)
I0711 15:34:05.088752 21182 net.cpp:156] Memory required for data: 1216512000
I0711 15:34:05.088755 21182 layer_factory.hpp:77] Creating layer res4b2_res4b2_relu_0_split
I0711 15:34:05.088762 21182 net.cpp:91] Creating Layer res4b2_res4b2_relu_0_split
I0711 15:34:05.088764 21182 net.cpp:425] res4b2_res4b2_relu_0_split <- res4b2
I0711 15:34:05.088770 21182 net.cpp:399] res4b2_res4b2_relu_0_split -> res4b2_res4b2_relu_0_split_0
I0711 15:34:05.088778 21182 net.cpp:399] res4b2_res4b2_relu_0_split -> res4b2_res4b2_relu_0_split_1
I0711 15:34:05.088814 21182 net.cpp:141] Setting up res4b2_res4b2_relu_0_split
I0711 15:34:05.088822 21182 net.cpp:148] Top shape: 1 1024 60 60 (3686400)
I0711 15:34:05.088827 21182 net.cpp:148] Top shape: 1 1024 60 60 (3686400)
I0711 15:34:05.088831 21182 net.cpp:156] Memory required for data: 1246003200
I0711 15:34:05.088835 21182 layer_factory.hpp:77] Creating layer res4b3_branch2a
I0711 15:34:05.088845 21182 net.cpp:91] Creating Layer res4b3_branch2a
I0711 15:34:05.088862 21182 net.cpp:425] res4b3_branch2a <- res4b2_res4b2_relu_0_split_0
I0711 15:34:05.088871 21182 net.cpp:399] res4b3_branch2a -> res4b3_branch2a
I0711 15:34:05.089890 21182 net.cpp:141] Setting up res4b3_branch2a
I0711 15:34:05.089905 21182 net.cpp:148] Top shape: 1 256 60 60 (921600)
I0711 15:34:05.089910 21182 net.cpp:156] Memory required for data: 1249689600
I0711 15:34:05.089917 21182 layer_factory.hpp:77] Creating layer bn4b3_branch2a
I0711 15:34:05.089926 21182 net.cpp:91] Creating Layer bn4b3_branch2a
I0711 15:34:05.089929 21182 net.cpp:425] bn4b3_branch2a <- res4b3_branch2a
I0711 15:34:05.089946 21182 net.cpp:386] bn4b3_branch2a -> res4b3_branch2a (in-place)
I0711 15:34:05.090852 21182 net.cpp:141] Setting up bn4b3_branch2a
I0711 15:34:05.090868 21182 net.cpp:148] Top shape: 1 256 60 60 (921600)
I0711 15:34:05.090873 21182 net.cpp:156] Memory required for data: 1253376000
I0711 15:34:05.090884 21182 layer_factory.hpp:77] Creating layer scale4b3_branch2a
I0711 15:34:05.090893 21182 net.cpp:91] Creating Layer scale4b3_branch2a
I0711 15:34:05.090896 21182 net.cpp:425] scale4b3_branch2a <- res4b3_branch2a
I0711 15:34:05.090904 21182 net.cpp:386] scale4b3_branch2a -> res4b3_branch2a (in-place)
I0711 15:34:05.090953 21182 layer_factory.hpp:77] Creating layer scale4b3_branch2a
I0711 15:34:05.091080 21182 net.cpp:141] Setting up scale4b3_branch2a
I0711 15:34:05.091090 21182 net.cpp:148] Top shape: 1 256 60 60 (921600)
I0711 15:34:05.091099 21182 net.cpp:156] Memory required for data: 1257062400
I0711 15:34:05.091106 21182 layer_factory.hpp:77] Creating layer res4b3_branch2a_relu
I0711 15:34:05.091114 21182 net.cpp:91] Creating Layer res4b3_branch2a_relu
I0711 15:34:05.091119 21182 net.cpp:425] res4b3_branch2a_relu <- res4b3_branch2a
I0711 15:34:05.091125 21182 net.cpp:386] res4b3_branch2a_relu -> res4b3_branch2a (in-place)
I0711 15:34:05.091131 21182 net.cpp:141] Setting up res4b3_branch2a_relu
I0711 15:34:05.091137 21182 net.cpp:148] Top shape: 1 256 60 60 (921600)
I0711 15:34:05.091140 21182 net.cpp:156] Memory required for data: 1260748800
I0711 15:34:05.091145 21182 layer_factory.hpp:77] Creating layer res4b3_branch2b
I0711 15:34:05.091157 21182 net.cpp:91] Creating Layer res4b3_branch2b
I0711 15:34:05.091161 21182 net.cpp:425] res4b3_branch2b <- res4b3_branch2a
I0711 15:34:05.091171 21182 net.cpp:399] res4b3_branch2b -> res4b3_branch2b
I0711 15:34:05.092995 21182 net.cpp:141] Setting up res4b3_branch2b
I0711 15:34:05.093013 21182 net.cpp:148] Top shape: 1 256 60 60 (921600)
I0711 15:34:05.093016 21182 net.cpp:156] Memory required for data: 1264435200
I0711 15:34:05.093024 21182 layer_factory.hpp:77] Creating layer bn4b3_branch2b
I0711 15:34:05.093034 21182 net.cpp:91] Creating Layer bn4b3_branch2b
I0711 15:34:05.093037 21182 net.cpp:425] bn4b3_branch2b <- res4b3_branch2b
I0711 15:34:05.093044 21182 net.cpp:386] bn4b3_branch2b -> res4b3_branch2b (in-place)
I0711 15:34:05.093250 21182 net.cpp:141] Setting up bn4b3_branch2b
I0711 15:34:05.093260 21182 net.cpp:148] Top shape: 1 256 60 60 (921600)
I0711 15:34:05.093263 21182 net.cpp:156] Memory required for data: 1268121600
I0711 15:34:05.093274 21182 layer_factory.hpp:77] Creating layer scale4b3_branch2b
I0711 15:34:05.093286 21182 net.cpp:91] Creating Layer scale4b3_branch2b
I0711 15:34:05.093291 21182 net.cpp:425] scale4b3_branch2b <- res4b3_branch2b
I0711 15:34:05.093297 21182 net.cpp:386] scale4b3_branch2b -> res4b3_branch2b (in-place)
I0711 15:34:05.093343 21182 layer_factory.hpp:77] Creating layer scale4b3_branch2b
I0711 15:34:05.093472 21182 net.cpp:141] Setting up scale4b3_branch2b
I0711 15:34:05.093482 21182 net.cpp:148] Top shape: 1 256 60 60 (921600)
I0711 15:34:05.093487 21182 net.cpp:156] Memory required for data: 1271808000
I0711 15:34:05.093494 21182 layer_factory.hpp:77] Creating layer res4b3_branch2b_relu
I0711 15:34:05.093500 21182 net.cpp:91] Creating Layer res4b3_branch2b_relu
I0711 15:34:05.093504 21182 net.cpp:425] res4b3_branch2b_relu <- res4b3_branch2b
I0711 15:34:05.093511 21182 net.cpp:386] res4b3_branch2b_relu -> res4b3_branch2b (in-place)
I0711 15:34:05.093529 21182 net.cpp:141] Setting up res4b3_branch2b_relu
I0711 15:34:05.093536 21182 net.cpp:148] Top shape: 1 256 60 60 (921600)
I0711 15:34:05.093539 21182 net.cpp:156] Memory required for data: 1275494400
I0711 15:34:05.093544 21182 layer_factory.hpp:77] Creating layer res4b3_branch2c
I0711 15:34:05.093551 21182 net.cpp:91] Creating Layer res4b3_branch2c
I0711 15:34:05.093555 21182 net.cpp:425] res4b3_branch2c <- res4b3_branch2b
I0711 15:34:05.093564 21182 net.cpp:399] res4b3_branch2c -> res4b3_branch2c
I0711 15:34:05.094584 21182 net.cpp:141] Setting up res4b3_branch2c
I0711 15:34:05.094600 21182 net.cpp:148] Top shape: 1 1024 60 60 (3686400)
I0711 15:34:05.094604 21182 net.cpp:156] Memory required for data: 1290240000
I0711 15:34:05.094612 21182 layer_factory.hpp:77] Creating layer bn4b3_branch2c
I0711 15:34:05.094624 21182 net.cpp:91] Creating Layer bn4b3_branch2c
I0711 15:34:05.094629 21182 net.cpp:425] bn4b3_branch2c <- res4b3_branch2c
I0711 15:34:05.094635 21182 net.cpp:386] bn4b3_branch2c -> res4b3_branch2c (in-place)
I0711 15:34:05.094864 21182 net.cpp:141] Setting up bn4b3_branch2c
I0711 15:34:05.094877 21182 net.cpp:148] Top shape: 1 1024 60 60 (3686400)
I0711 15:34:05.094880 21182 net.cpp:156] Memory required for data: 1304985600
I0711 15:34:05.094893 21182 layer_factory.hpp:77] Creating layer scale4b3_branch2c
I0711 15:34:05.094900 21182 net.cpp:91] Creating Layer scale4b3_branch2c
I0711 15:34:05.094904 21182 net.cpp:425] scale4b3_branch2c <- res4b3_branch2c
I0711 15:34:05.094913 21182 net.cpp:386] scale4b3_branch2c -> res4b3_branch2c (in-place)
I0711 15:34:05.094957 21182 layer_factory.hpp:77] Creating layer scale4b3_branch2c
I0711 15:34:05.095090 21182 net.cpp:141] Setting up scale4b3_branch2c
I0711 15:34:05.095103 21182 net.cpp:148] Top shape: 1 1024 60 60 (3686400)
I0711 15:34:05.095106 21182 net.cpp:156] Memory required for data: 1319731200
I0711 15:34:05.095113 21182 layer_factory.hpp:77] Creating layer res4b3
I0711 15:34:05.095120 21182 net.cpp:91] Creating Layer res4b3
I0711 15:34:05.095124 21182 net.cpp:425] res4b3 <- res4b2_res4b2_relu_0_split_1
I0711 15:34:05.095129 21182 net.cpp:425] res4b3 <- res4b3_branch2c
I0711 15:34:05.095135 21182 net.cpp:399] res4b3 -> res4b3
I0711 15:34:05.095163 21182 net.cpp:141] Setting up res4b3
I0711 15:34:05.095172 21182 net.cpp:148] Top shape: 1 1024 60 60 (3686400)
I0711 15:34:05.095176 21182 net.cpp:156] Memory required for data: 1334476800
I0711 15:34:05.095180 21182 layer_factory.hpp:77] Creating layer res4b3_relu
I0711 15:34:05.095186 21182 net.cpp:91] Creating Layer res4b3_relu
I0711 15:34:05.095191 21182 net.cpp:425] res4b3_relu <- res4b3
I0711 15:34:05.095197 21182 net.cpp:386] res4b3_relu -> res4b3 (in-place)
I0711 15:34:05.095203 21182 net.cpp:141] Setting up res4b3_relu
I0711 15:34:05.095208 21182 net.cpp:148] Top shape: 1 1024 60 60 (3686400)
I0711 15:34:05.095212 21182 net.cpp:156] Memory required for data: 1349222400
I0711 15:34:05.095216 21182 layer_factory.hpp:77] Creating layer res4b3_res4b3_relu_0_split
I0711 15:34:05.095222 21182 net.cpp:91] Creating Layer res4b3_res4b3_relu_0_split
I0711 15:34:05.095226 21182 net.cpp:425] res4b3_res4b3_relu_0_split <- res4b3
I0711 15:34:05.095230 21182 net.cpp:399] res4b3_res4b3_relu_0_split -> res4b3_res4b3_relu_0_split_0
I0711 15:34:05.095237 21182 net.cpp:399] res4b3_res4b3_relu_0_split -> res4b3_res4b3_relu_0_split_1
I0711 15:34:05.095275 21182 net.cpp:141] Setting up res4b3_res4b3_relu_0_split
I0711 15:34:05.095284 21182 net.cpp:148] Top shape: 1 1024 60 60 (3686400)
I0711 15:34:05.095289 21182 net.cpp:148] Top shape: 1 1024 60 60 (3686400)
I0711 15:34:05.095293 21182 net.cpp:156] Memory required for data: 1378713600
I0711 15:34:05.095296 21182 layer_factory.hpp:77] Creating layer res4b4_branch2a
I0711 15:34:05.095306 21182 net.cpp:91] Creating Layer res4b4_branch2a
I0711 15:34:05.095311 21182 net.cpp:425] res4b4_branch2a <- res4b3_res4b3_relu_0_split_0
I0711 15:34:05.095319 21182 net.cpp:399] res4b4_branch2a -> res4b4_branch2a
I0711 15:34:05.096328 21182 net.cpp:141] Setting up res4b4_branch2a
I0711 15:34:05.096345 21182 net.cpp:148] Top shape: 1 256 60 60 (921600)
I0711 15:34:05.096349 21182 net.cpp:156] Memory required for data: 1382400000
I0711 15:34:05.096356 21182 layer_factory.hpp:77] Creating layer bn4b4_branch2a
I0711 15:34:05.096364 21182 net.cpp:91] Creating Layer bn4b4_branch2a
I0711 15:34:05.096369 21182 net.cpp:425] bn4b4_branch2a <- res4b4_branch2a
I0711 15:34:05.096375 21182 net.cpp:386] bn4b4_branch2a -> res4b4_branch2a (in-place)
I0711 15:34:05.096591 21182 net.cpp:141] Setting up bn4b4_branch2a
I0711 15:34:05.096603 21182 net.cpp:148] Top shape: 1 256 60 60 (921600)
I0711 15:34:05.096607 21182 net.cpp:156] Memory required for data: 1386086400
I0711 15:34:05.096616 21182 layer_factory.hpp:77] Creating layer scale4b4_branch2a
I0711 15:34:05.096627 21182 net.cpp:91] Creating Layer scale4b4_branch2a
I0711 15:34:05.096632 21182 net.cpp:425] scale4b4_branch2a <- res4b4_branch2a
I0711 15:34:05.096637 21182 net.cpp:386] scale4b4_branch2a -> res4b4_branch2a (in-place)
I0711 15:34:05.096683 21182 layer_factory.hpp:77] Creating layer scale4b4_branch2a
I0711 15:34:05.096824 21182 net.cpp:141] Setting up scale4b4_branch2a
I0711 15:34:05.096837 21182 net.cpp:148] Top shape: 1 256 60 60 (921600)
I0711 15:34:05.096840 21182 net.cpp:156] Memory required for data: 1389772800
I0711 15:34:05.096848 21182 layer_factory.hpp:77] Creating layer res4b4_branch2a_relu
I0711 15:34:05.096858 21182 net.cpp:91] Creating Layer res4b4_branch2a_relu
I0711 15:34:05.096863 21182 net.cpp:425] res4b4_branch2a_relu <- res4b4_branch2a
I0711 15:34:05.096868 21182 net.cpp:386] res4b4_branch2a_relu -> res4b4_branch2a (in-place)
I0711 15:34:05.096875 21182 net.cpp:141] Setting up res4b4_branch2a_relu
I0711 15:34:05.096880 21182 net.cpp:148] Top shape: 1 256 60 60 (921600)
I0711 15:34:05.096884 21182 net.cpp:156] Memory required for data: 1393459200
I0711 15:34:05.096887 21182 layer_factory.hpp:77] Creating layer res4b4_branch2b
I0711 15:34:05.096899 21182 net.cpp:91] Creating Layer res4b4_branch2b
I0711 15:34:05.096902 21182 net.cpp:425] res4b4_branch2b <- res4b4_branch2a
I0711 15:34:05.096909 21182 net.cpp:399] res4b4_branch2b -> res4b4_branch2b
I0711 15:34:05.098634 21182 net.cpp:141] Setting up res4b4_branch2b
I0711 15:34:05.098650 21182 net.cpp:148] Top shape: 1 256 60 60 (921600)
I0711 15:34:05.098654 21182 net.cpp:156] Memory required for data: 1397145600
I0711 15:34:05.098661 21182 layer_factory.hpp:77] Creating layer bn4b4_branch2b
I0711 15:34:05.098670 21182 net.cpp:91] Creating Layer bn4b4_branch2b
I0711 15:34:05.098675 21182 net.cpp:425] bn4b4_branch2b <- res4b4_branch2b
I0711 15:34:05.098683 21182 net.cpp:386] bn4b4_branch2b -> res4b4_branch2b (in-place)
I0711 15:34:05.098901 21182 net.cpp:141] Setting up bn4b4_branch2b
I0711 15:34:05.098912 21182 net.cpp:148] Top shape: 1 256 60 60 (921600)
I0711 15:34:05.098915 21182 net.cpp:156] Memory required for data: 1400832000
I0711 15:34:05.098924 21182 layer_factory.hpp:77] Creating layer scale4b4_branch2b
I0711 15:34:05.098932 21182 net.cpp:91] Creating Layer scale4b4_branch2b
I0711 15:34:05.098938 21182 net.cpp:425] scale4b4_branch2b <- res4b4_branch2b
I0711 15:34:05.098955 21182 net.cpp:386] scale4b4_branch2b -> res4b4_branch2b (in-place)
I0711 15:34:05.099004 21182 layer_factory.hpp:77] Creating layer scale4b4_branch2b
I0711 15:34:05.099143 21182 net.cpp:141] Setting up scale4b4_branch2b
I0711 15:34:05.099153 21182 net.cpp:148] Top shape: 1 256 60 60 (921600)
I0711 15:34:05.099158 21182 net.cpp:156] Memory required for data: 1404518400
I0711 15:34:05.099165 21182 layer_factory.hpp:77] Creating layer res4b4_branch2b_relu
I0711 15:34:05.099172 21182 net.cpp:91] Creating Layer res4b4_branch2b_relu
I0711 15:34:05.099180 21182 net.cpp:425] res4b4_branch2b_relu <- res4b4_branch2b
I0711 15:34:05.099185 21182 net.cpp:386] res4b4_branch2b_relu -> res4b4_branch2b (in-place)
I0711 15:34:05.099192 21182 net.cpp:141] Setting up res4b4_branch2b_relu
I0711 15:34:05.099197 21182 net.cpp:148] Top shape: 1 256 60 60 (921600)
I0711 15:34:05.099212 21182 net.cpp:156] Memory required for data: 1408204800
I0711 15:34:05.099217 21182 layer_factory.hpp:77] Creating layer res4b4_branch2c
I0711 15:34:05.099225 21182 net.cpp:91] Creating Layer res4b4_branch2c
I0711 15:34:05.099231 21182 net.cpp:425] res4b4_branch2c <- res4b4_branch2b
I0711 15:34:05.099238 21182 net.cpp:399] res4b4_branch2c -> res4b4_branch2c
I0711 15:34:05.100437 21182 net.cpp:141] Setting up res4b4_branch2c
I0711 15:34:05.100461 21182 net.cpp:148] Top shape: 1 1024 60 60 (3686400)
I0711 15:34:05.100467 21182 net.cpp:156] Memory required for data: 1422950400
I0711 15:34:05.100476 21182 layer_factory.hpp:77] Creating layer bn4b4_branch2c
I0711 15:34:05.100487 21182 net.cpp:91] Creating Layer bn4b4_branch2c
I0711 15:34:05.100497 21182 net.cpp:425] bn4b4_branch2c <- res4b4_branch2c
I0711 15:34:05.100510 21182 net.cpp:386] bn4b4_branch2c -> res4b4_branch2c (in-place)
I0711 15:34:05.100725 21182 net.cpp:141] Setting up bn4b4_branch2c
I0711 15:34:05.100736 21182 net.cpp:148] Top shape: 1 1024 60 60 (3686400)
I0711 15:34:05.100740 21182 net.cpp:156] Memory required for data: 1437696000
I0711 15:34:05.100750 21182 layer_factory.hpp:77] Creating layer scale4b4_branch2c
I0711 15:34:05.100759 21182 net.cpp:91] Creating Layer scale4b4_branch2c
I0711 15:34:05.100762 21182 net.cpp:425] scale4b4_branch2c <- res4b4_branch2c
I0711 15:34:05.100770 21182 net.cpp:386] scale4b4_branch2c -> res4b4_branch2c (in-place)
I0711 15:34:05.100812 21182 layer_factory.hpp:77] Creating layer scale4b4_branch2c
I0711 15:34:05.100950 21182 net.cpp:141] Setting up scale4b4_branch2c
I0711 15:34:05.100961 21182 net.cpp:148] Top shape: 1 1024 60 60 (3686400)
I0711 15:34:05.100965 21182 net.cpp:156] Memory required for data: 1452441600
I0711 15:34:05.100973 21182 layer_factory.hpp:77] Creating layer res4b4
I0711 15:34:05.100980 21182 net.cpp:91] Creating Layer res4b4
I0711 15:34:05.100985 21182 net.cpp:425] res4b4 <- res4b3_res4b3_relu_0_split_1
I0711 15:34:05.100991 21182 net.cpp:425] res4b4 <- res4b4_branch2c
I0711 15:34:05.100997 21182 net.cpp:399] res4b4 -> res4b4
I0711 15:34:05.101025 21182 net.cpp:141] Setting up res4b4
I0711 15:34:05.101035 21182 net.cpp:148] Top shape: 1 1024 60 60 (3686400)
I0711 15:34:05.101040 21182 net.cpp:156] Memory required for data: 1467187200
I0711 15:34:05.101043 21182 layer_factory.hpp:77] Creating layer res4b4_relu
I0711 15:34:05.101050 21182 net.cpp:91] Creating Layer res4b4_relu
I0711 15:34:05.101054 21182 net.cpp:425] res4b4_relu <- res4b4
I0711 15:34:05.101059 21182 net.cpp:386] res4b4_relu -> res4b4 (in-place)
I0711 15:34:05.101065 21182 net.cpp:141] Setting up res4b4_relu
I0711 15:34:05.101070 21182 net.cpp:148] Top shape: 1 1024 60 60 (3686400)
I0711 15:34:05.101073 21182 net.cpp:156] Memory required for data: 1481932800
I0711 15:34:05.101078 21182 layer_factory.hpp:77] Creating layer res4b4_res4b4_relu_0_split
I0711 15:34:05.101083 21182 net.cpp:91] Creating Layer res4b4_res4b4_relu_0_split
I0711 15:34:05.101086 21182 net.cpp:425] res4b4_res4b4_relu_0_split <- res4b4
I0711 15:34:05.101094 21182 net.cpp:399] res4b4_res4b4_relu_0_split -> res4b4_res4b4_relu_0_split_0
I0711 15:34:05.101100 21182 net.cpp:399] res4b4_res4b4_relu_0_split -> res4b4_res4b4_relu_0_split_1
I0711 15:34:05.101136 21182 net.cpp:141] Setting up res4b4_res4b4_relu_0_split
I0711 15:34:05.101145 21182 net.cpp:148] Top shape: 1 1024 60 60 (3686400)
I0711 15:34:05.101150 21182 net.cpp:148] Top shape: 1 1024 60 60 (3686400)
I0711 15:34:05.101152 21182 net.cpp:156] Memory required for data: 1511424000
I0711 15:34:05.101157 21182 layer_factory.hpp:77] Creating layer res4b5_branch2a
I0711 15:34:05.101167 21182 net.cpp:91] Creating Layer res4b5_branch2a
I0711 15:34:05.101172 21182 net.cpp:425] res4b5_branch2a <- res4b4_res4b4_relu_0_split_0
I0711 15:34:05.101179 21182 net.cpp:399] res4b5_branch2a -> res4b5_branch2a
I0711 15:34:05.102182 21182 net.cpp:141] Setting up res4b5_branch2a
I0711 15:34:05.102200 21182 net.cpp:148] Top shape: 1 256 60 60 (921600)
I0711 15:34:05.102203 21182 net.cpp:156] Memory required for data: 1515110400
I0711 15:34:05.102222 21182 layer_factory.hpp:77] Creating layer bn4b5_branch2a
I0711 15:34:05.102232 21182 net.cpp:91] Creating Layer bn4b5_branch2a
I0711 15:34:05.102237 21182 net.cpp:425] bn4b5_branch2a <- res4b5_branch2a
I0711 15:34:05.102243 21182 net.cpp:386] bn4b5_branch2a -> res4b5_branch2a (in-place)
I0711 15:34:05.102458 21182 net.cpp:141] Setting up bn4b5_branch2a
I0711 15:34:05.102469 21182 net.cpp:148] Top shape: 1 256 60 60 (921600)
I0711 15:34:05.102473 21182 net.cpp:156] Memory required for data: 1518796800
I0711 15:34:05.102485 21182 layer_factory.hpp:77] Creating layer scale4b5_branch2a
I0711 15:34:05.102494 21182 net.cpp:91] Creating Layer scale4b5_branch2a
I0711 15:34:05.102499 21182 net.cpp:425] scale4b5_branch2a <- res4b5_branch2a
I0711 15:34:05.102504 21182 net.cpp:386] scale4b5_branch2a -> res4b5_branch2a (in-place)
I0711 15:34:05.102552 21182 layer_factory.hpp:77] Creating layer scale4b5_branch2a
I0711 15:34:05.102681 21182 net.cpp:141] Setting up scale4b5_branch2a
I0711 15:34:05.102691 21182 net.cpp:148] Top shape: 1 256 60 60 (921600)
I0711 15:34:05.102695 21182 net.cpp:156] Memory required for data: 1522483200
I0711 15:34:05.102704 21182 layer_factory.hpp:77] Creating layer res4b5_branch2a_relu
I0711 15:34:05.102710 21182 net.cpp:91] Creating Layer res4b5_branch2a_relu
I0711 15:34:05.102713 21182 net.cpp:425] res4b5_branch2a_relu <- res4b5_branch2a
I0711 15:34:05.102720 21182 net.cpp:386] res4b5_branch2a_relu -> res4b5_branch2a (in-place)
I0711 15:34:05.102727 21182 net.cpp:141] Setting up res4b5_branch2a_relu
I0711 15:34:05.102732 21182 net.cpp:148] Top shape: 1 256 60 60 (921600)
I0711 15:34:05.102735 21182 net.cpp:156] Memory required for data: 1526169600
I0711 15:34:05.102741 21182 layer_factory.hpp:77] Creating layer res4b5_branch2b
I0711 15:34:05.102753 21182 net.cpp:91] Creating Layer res4b5_branch2b
I0711 15:34:05.102757 21182 net.cpp:425] res4b5_branch2b <- res4b5_branch2a
I0711 15:34:05.102766 21182 net.cpp:399] res4b5_branch2b -> res4b5_branch2b
I0711 15:34:05.104506 21182 net.cpp:141] Setting up res4b5_branch2b
I0711 15:34:05.104521 21182 net.cpp:148] Top shape: 1 256 60 60 (921600)
I0711 15:34:05.104526 21182 net.cpp:156] Memory required for data: 1529856000
I0711 15:34:05.104533 21182 layer_factory.hpp:77] Creating layer bn4b5_branch2b
I0711 15:34:05.104544 21182 net.cpp:91] Creating Layer bn4b5_branch2b
I0711 15:34:05.104549 21182 net.cpp:425] bn4b5_branch2b <- res4b5_branch2b
I0711 15:34:05.104555 21182 net.cpp:386] bn4b5_branch2b -> res4b5_branch2b (in-place)
I0711 15:34:05.104763 21182 net.cpp:141] Setting up bn4b5_branch2b
I0711 15:34:05.104773 21182 net.cpp:148] Top shape: 1 256 60 60 (921600)
I0711 15:34:05.104778 21182 net.cpp:156] Memory required for data: 1533542400
I0711 15:34:05.104786 21182 layer_factory.hpp:77] Creating layer scale4b5_branch2b
I0711 15:34:05.104795 21182 net.cpp:91] Creating Layer scale4b5_branch2b
I0711 15:34:05.104801 21182 net.cpp:425] scale4b5_branch2b <- res4b5_branch2b
I0711 15:34:05.104809 21182 net.cpp:386] scale4b5_branch2b -> res4b5_branch2b (in-place)
I0711 15:34:05.104856 21182 layer_factory.hpp:77] Creating layer scale4b5_branch2b
I0711 15:34:05.104995 21182 net.cpp:141] Setting up scale4b5_branch2b
I0711 15:34:05.105007 21182 net.cpp:148] Top shape: 1 256 60 60 (921600)
I0711 15:34:05.105011 21182 net.cpp:156] Memory required for data: 1537228800
I0711 15:34:05.105020 21182 layer_factory.hpp:77] Creating layer res4b5_branch2b_relu
I0711 15:34:05.105026 21182 net.cpp:91] Creating Layer res4b5_branch2b_relu
I0711 15:34:05.105029 21182 net.cpp:425] res4b5_branch2b_relu <- res4b5_branch2b
I0711 15:34:05.105036 21182 net.cpp:386] res4b5_branch2b_relu -> res4b5_branch2b (in-place)
I0711 15:34:05.105041 21182 net.cpp:141] Setting up res4b5_branch2b_relu
I0711 15:34:05.105046 21182 net.cpp:148] Top shape: 1 256 60 60 (921600)
I0711 15:34:05.105051 21182 net.cpp:156] Memory required for data: 1540915200
I0711 15:34:05.105053 21182 layer_factory.hpp:77] Creating layer res4b5_branch2c
I0711 15:34:05.105064 21182 net.cpp:91] Creating Layer res4b5_branch2c
I0711 15:34:05.105079 21182 net.cpp:425] res4b5_branch2c <- res4b5_branch2b
I0711 15:34:05.105088 21182 net.cpp:399] res4b5_branch2c -> res4b5_branch2c
I0711 15:34:05.106108 21182 net.cpp:141] Setting up res4b5_branch2c
I0711 15:34:05.106133 21182 net.cpp:148] Top shape: 1 1024 60 60 (3686400)
I0711 15:34:05.106142 21182 net.cpp:156] Memory required for data: 1555660800
I0711 15:34:05.106153 21182 layer_factory.hpp:77] Creating layer bn4b5_branch2c
I0711 15:34:05.106173 21182 net.cpp:91] Creating Layer bn4b5_branch2c
I0711 15:34:05.106184 21182 net.cpp:425] bn4b5_branch2c <- res4b5_branch2c
I0711 15:34:05.106195 21182 net.cpp:386] bn4b5_branch2c -> res4b5_branch2c (in-place)
I0711 15:34:05.106449 21182 net.cpp:141] Setting up bn4b5_branch2c
I0711 15:34:05.106464 21182 net.cpp:148] Top shape: 1 1024 60 60 (3686400)
I0711 15:34:05.106472 21182 net.cpp:156] Memory required for data: 1570406400
I0711 15:34:05.106487 21182 layer_factory.hpp:77] Creating layer scale4b5_branch2c
I0711 15:34:05.106511 21182 net.cpp:91] Creating Layer scale4b5_branch2c
I0711 15:34:05.106523 21182 net.cpp:425] scale4b5_branch2c <- res4b5_branch2c
I0711 15:34:05.106535 21182 net.cpp:386] scale4b5_branch2c -> res4b5_branch2c (in-place)
I0711 15:34:05.106600 21182 layer_factory.hpp:77] Creating layer scale4b5_branch2c
I0711 15:34:05.106752 21182 net.cpp:141] Setting up scale4b5_branch2c
I0711 15:34:05.106767 21182 net.cpp:148] Top shape: 1 1024 60 60 (3686400)
I0711 15:34:05.106775 21182 net.cpp:156] Memory required for data: 1585152000
I0711 15:34:05.106830 21182 layer_factory.hpp:77] Creating layer res4b5
I0711 15:34:05.106844 21182 net.cpp:91] Creating Layer res4b5
I0711 15:34:05.106853 21182 net.cpp:425] res4b5 <- res4b4_res4b4_relu_0_split_1
I0711 15:34:05.106863 21182 net.cpp:425] res4b5 <- res4b5_branch2c
I0711 15:34:05.106874 21182 net.cpp:399] res4b5 -> res4b5
I0711 15:34:05.106917 21182 net.cpp:141] Setting up res4b5
I0711 15:34:05.106930 21182 net.cpp:148] Top shape: 1 1024 60 60 (3686400)
I0711 15:34:05.106937 21182 net.cpp:156] Memory required for data: 1599897600
I0711 15:34:05.106945 21182 layer_factory.hpp:77] Creating layer res4b5_relu
I0711 15:34:05.106956 21182 net.cpp:91] Creating Layer res4b5_relu
I0711 15:34:05.106963 21182 net.cpp:425] res4b5_relu <- res4b5
I0711 15:34:05.106976 21182 net.cpp:386] res4b5_relu -> res4b5 (in-place)
I0711 15:34:05.106992 21182 net.cpp:141] Setting up res4b5_relu
I0711 15:34:05.107003 21182 net.cpp:148] Top shape: 1 1024 60 60 (3686400)
I0711 15:34:05.107010 21182 net.cpp:156] Memory required for data: 1614643200
I0711 15:34:05.107018 21182 layer_factory.hpp:77] Creating layer res4b5_res4b5_relu_0_split
I0711 15:34:05.107028 21182 net.cpp:91] Creating Layer res4b5_res4b5_relu_0_split
I0711 15:34:05.107038 21182 net.cpp:425] res4b5_res4b5_relu_0_split <- res4b5
I0711 15:34:05.107048 21182 net.cpp:399] res4b5_res4b5_relu_0_split -> res4b5_res4b5_relu_0_split_0
I0711 15:34:05.107064 21182 net.cpp:399] res4b5_res4b5_relu_0_split -> res4b5_res4b5_relu_0_split_1
I0711 15:34:05.107131 21182 net.cpp:141] Setting up res4b5_res4b5_relu_0_split
I0711 15:34:05.107151 21182 net.cpp:148] Top shape: 1 1024 60 60 (3686400)
I0711 15:34:05.107161 21182 net.cpp:148] Top shape: 1 1024 60 60 (3686400)
I0711 15:34:05.107167 21182 net.cpp:156] Memory required for data: 1644134400
I0711 15:34:05.107174 21182 layer_factory.hpp:77] Creating layer res4b6_branch2a
I0711 15:34:05.107197 21182 net.cpp:91] Creating Layer res4b6_branch2a
I0711 15:34:05.107206 21182 net.cpp:425] res4b6_branch2a <- res4b5_res4b5_relu_0_split_0
I0711 15:34:05.107218 21182 net.cpp:399] res4b6_branch2a -> res4b6_branch2a
I0711 15:34:05.108292 21182 net.cpp:141] Setting up res4b6_branch2a
I0711 15:34:05.108311 21182 net.cpp:148] Top shape: 1 256 60 60 (921600)
I0711 15:34:05.108319 21182 net.cpp:156] Memory required for data: 1647820800
I0711 15:34:05.108331 21182 layer_factory.hpp:77] Creating layer bn4b6_branch2a
I0711 15:34:05.108352 21182 net.cpp:91] Creating Layer bn4b6_branch2a
I0711 15:34:05.108362 21182 net.cpp:425] bn4b6_branch2a <- res4b6_branch2a
I0711 15:34:05.108388 21182 net.cpp:386] bn4b6_branch2a -> res4b6_branch2a (in-place)
I0711 15:34:05.108639 21182 net.cpp:141] Setting up bn4b6_branch2a
I0711 15:34:05.108655 21182 net.cpp:148] Top shape: 1 256 60 60 (921600)
I0711 15:34:05.108666 21182 net.cpp:156] Memory required for data: 1651507200
I0711 15:34:05.108682 21182 layer_factory.hpp:77] Creating layer scale4b6_branch2a
I0711 15:34:05.108701 21182 net.cpp:91] Creating Layer scale4b6_branch2a
I0711 15:34:05.108712 21182 net.cpp:425] scale4b6_branch2a <- res4b6_branch2a
I0711 15:34:05.108723 21182 net.cpp:386] scale4b6_branch2a -> res4b6_branch2a (in-place)
I0711 15:34:05.108788 21182 layer_factory.hpp:77] Creating layer scale4b6_branch2a
I0711 15:34:05.108942 21182 net.cpp:141] Setting up scale4b6_branch2a
I0711 15:34:05.108955 21182 net.cpp:148] Top shape: 1 256 60 60 (921600)
I0711 15:34:05.108966 21182 net.cpp:156] Memory required for data: 1655193600
I0711 15:34:05.108979 21182 layer_factory.hpp:77] Creating layer res4b6_branch2a_relu
I0711 15:34:05.108992 21182 net.cpp:91] Creating Layer res4b6_branch2a_relu
I0711 15:34:05.109002 21182 net.cpp:425] res4b6_branch2a_relu <- res4b6_branch2a
I0711 15:34:05.109016 21182 net.cpp:386] res4b6_branch2a_relu -> res4b6_branch2a (in-place)
I0711 15:34:05.109035 21182 net.cpp:141] Setting up res4b6_branch2a_relu
I0711 15:34:05.109047 21182 net.cpp:148] Top shape: 1 256 60 60 (921600)
I0711 15:34:05.109055 21182 net.cpp:156] Memory required for data: 1658880000
I0711 15:34:05.109061 21182 layer_factory.hpp:77] Creating layer res4b6_branch2b
I0711 15:34:05.109079 21182 net.cpp:91] Creating Layer res4b6_branch2b
I0711 15:34:05.109087 21182 net.cpp:425] res4b6_branch2b <- res4b6_branch2a
I0711 15:34:05.109099 21182 net.cpp:399] res4b6_branch2b -> res4b6_branch2b
I0711 15:34:05.110991 21182 net.cpp:141] Setting up res4b6_branch2b
I0711 15:34:05.111011 21182 net.cpp:148] Top shape: 1 256 60 60 (921600)
I0711 15:34:05.111018 21182 net.cpp:156] Memory required for data: 1662566400
I0711 15:34:05.111030 21182 layer_factory.hpp:77] Creating layer bn4b6_branch2b
I0711 15:34:05.111044 21182 net.cpp:91] Creating Layer bn4b6_branch2b
I0711 15:34:05.111055 21182 net.cpp:425] bn4b6_branch2b <- res4b6_branch2b
I0711 15:34:05.111071 21182 net.cpp:386] bn4b6_branch2b -> res4b6_branch2b (in-place)
I0711 15:34:05.111304 21182 net.cpp:141] Setting up bn4b6_branch2b
I0711 15:34:05.111318 21182 net.cpp:148] Top shape: 1 256 60 60 (921600)
I0711 15:34:05.111325 21182 net.cpp:156] Memory required for data: 1666252800
I0711 15:34:05.111341 21182 layer_factory.hpp:77] Creating layer scale4b6_branch2b
I0711 15:34:05.111356 21182 net.cpp:91] Creating Layer scale4b6_branch2b
I0711 15:34:05.111366 21182 net.cpp:425] scale4b6_branch2b <- res4b6_branch2b
I0711 15:34:05.111380 21182 net.cpp:386] scale4b6_branch2b -> res4b6_branch2b (in-place)
I0711 15:34:05.111440 21182 layer_factory.hpp:77] Creating layer scale4b6_branch2b
I0711 15:34:05.111590 21182 net.cpp:141] Setting up scale4b6_branch2b
I0711 15:34:05.111605 21182 net.cpp:148] Top shape: 1 256 60 60 (921600)
I0711 15:34:05.111613 21182 net.cpp:156] Memory required for data: 1669939200
I0711 15:34:05.111625 21182 layer_factory.hpp:77] Creating layer res4b6_branch2b_relu
I0711 15:34:05.111639 21182 net.cpp:91] Creating Layer res4b6_branch2b_relu
I0711 15:34:05.111649 21182 net.cpp:425] res4b6_branch2b_relu <- res4b6_branch2b
I0711 15:34:05.111661 21182 net.cpp:386] res4b6_branch2b_relu -> res4b6_branch2b (in-place)
I0711 15:34:05.111676 21182 net.cpp:141] Setting up res4b6_branch2b_relu
I0711 15:34:05.111688 21182 net.cpp:148] Top shape: 1 256 60 60 (921600)
I0711 15:34:05.111696 21182 net.cpp:156] Memory required for data: 1673625600
I0711 15:34:05.111703 21182 layer_factory.hpp:77] Creating layer res4b6_branch2c
I0711 15:34:05.111717 21182 net.cpp:91] Creating Layer res4b6_branch2c
I0711 15:34:05.111726 21182 net.cpp:425] res4b6_branch2c <- res4b6_branch2b
I0711 15:34:05.111742 21182 net.cpp:399] res4b6_branch2c -> res4b6_branch2c
I0711 15:34:05.112824 21182 net.cpp:141] Setting up res4b6_branch2c
I0711 15:34:05.112855 21182 net.cpp:148] Top shape: 1 1024 60 60 (3686400)
I0711 15:34:05.112864 21182 net.cpp:156] Memory required for data: 1688371200
I0711 15:34:05.112877 21182 layer_factory.hpp:77] Creating layer bn4b6_branch2c
I0711 15:34:05.112895 21182 net.cpp:91] Creating Layer bn4b6_branch2c
I0711 15:34:05.112905 21182 net.cpp:425] bn4b6_branch2c <- res4b6_branch2c
I0711 15:34:05.112917 21182 net.cpp:386] bn4b6_branch2c -> res4b6_branch2c (in-place)
I0711 15:34:05.113152 21182 net.cpp:141] Setting up bn4b6_branch2c
I0711 15:34:05.113167 21182 net.cpp:148] Top shape: 1 1024 60 60 (3686400)
I0711 15:34:05.113173 21182 net.cpp:156] Memory required for data: 1703116800
I0711 15:34:05.113189 21182 layer_factory.hpp:77] Creating layer scale4b6_branch2c
I0711 15:34:05.113204 21182 net.cpp:91] Creating Layer scale4b6_branch2c
I0711 15:34:05.113217 21182 net.cpp:425] scale4b6_branch2c <- res4b6_branch2c
I0711 15:34:05.113234 21182 net.cpp:386] scale4b6_branch2c -> res4b6_branch2c (in-place)
I0711 15:34:05.113291 21182 layer_factory.hpp:77] Creating layer scale4b6_branch2c
I0711 15:34:05.113445 21182 net.cpp:141] Setting up scale4b6_branch2c
I0711 15:34:05.113461 21182 net.cpp:148] Top shape: 1 1024 60 60 (3686400)
I0711 15:34:05.113467 21182 net.cpp:156] Memory required for data: 1717862400
I0711 15:34:05.113481 21182 layer_factory.hpp:77] Creating layer res4b6
I0711 15:34:05.113493 21182 net.cpp:91] Creating Layer res4b6
I0711 15:34:05.113503 21182 net.cpp:425] res4b6 <- res4b5_res4b5_relu_0_split_1
I0711 15:34:05.113513 21182 net.cpp:425] res4b6 <- res4b6_branch2c
I0711 15:34:05.113525 21182 net.cpp:399] res4b6 -> res4b6
I0711 15:34:05.113569 21182 net.cpp:141] Setting up res4b6
I0711 15:34:05.113581 21182 net.cpp:148] Top shape: 1 1024 60 60 (3686400)
I0711 15:34:05.113590 21182 net.cpp:156] Memory required for data: 1732608000
I0711 15:34:05.113596 21182 layer_factory.hpp:77] Creating layer res4b6_relu
I0711 15:34:05.113610 21182 net.cpp:91] Creating Layer res4b6_relu
I0711 15:34:05.113620 21182 net.cpp:425] res4b6_relu <- res4b6
I0711 15:34:05.113631 21182 net.cpp:386] res4b6_relu -> res4b6 (in-place)
I0711 15:34:05.113644 21182 net.cpp:141] Setting up res4b6_relu
I0711 15:34:05.113656 21182 net.cpp:148] Top shape: 1 1024 60 60 (3686400)
I0711 15:34:05.113663 21182 net.cpp:156] Memory required for data: 1747353600
I0711 15:34:05.113670 21182 layer_factory.hpp:77] Creating layer res4b6_res4b6_relu_0_split
I0711 15:34:05.113680 21182 net.cpp:91] Creating Layer res4b6_res4b6_relu_0_split
I0711 15:34:05.113689 21182 net.cpp:425] res4b6_res4b6_relu_0_split <- res4b6
I0711 15:34:05.113700 21182 net.cpp:399] res4b6_res4b6_relu_0_split -> res4b6_res4b6_relu_0_split_0
I0711 15:34:05.113718 21182 net.cpp:399] res4b6_res4b6_relu_0_split -> res4b6_res4b6_relu_0_split_1
I0711 15:34:05.113768 21182 net.cpp:141] Setting up res4b6_res4b6_relu_0_split
…
I0711 15:34:05.204046 21182 net.cpp:91] Creating Layer res4b20_branch2b_relu
I0711 15:34:05.204054 21182 net.cpp:425] res4b20_branch2b_relu <- res4b20_branch2b
I0711 15:34:05.204071 21182 net.cpp:386] res4b20_branch2b_relu -> res4b20_branch2b (in-place)
I0711 15:34:05.204085 21182 net.cpp:141] Setting up res4b20_branch2b_relu
I0711 15:34:05.204097 21182 net.cpp:148] Top shape: 1 256 60 60 (921600)
I0711 15:34:05.204107 21182 net.cpp:156] Memory required for data: 3531571200
I0711 15:34:05.204114 21182 layer_factory.hpp:77] Creating layer res4b20_branch2c
I0711 15:34:05.204129 21182 net.cpp:91] Creating Layer res4b20_branch2c
I0711 15:34:05.204138 21182 net.cpp:425] res4b20_branch2c <- res4b20_branch2b
I0711 15:34:05.204154 21182 net.cpp:399] res4b20_branch2c -> res4b20_branch2c
I0711 15:34:05.205274 21182 net.cpp:141] Setting up res4b20_branch2c
I0711 15:34:05.205293 21182 net.cpp:148] Top shape: 1 1024 60 60 (3686400)
I0711 15:34:05.205302 21182 net.cpp:156] Memory required for data: 3546316800
I0711 15:34:05.205313 21182 layer_factory.hpp:77] Creating layer bn4b20_branch2c
I0711 15:34:05.205332 21182 net.cpp:91] Creating Layer bn4b20_branch2c
I0711 15:34:05.205343 21182 net.cpp:425] bn4b20_branch2c <- res4b20_branch2c
I0711 15:34:05.205355 21182 net.cpp:386] bn4b20_branch2c -> res4b20_branch2c (in-place)
I0711 15:34:05.205605 21182 net.cpp:141] Setting up bn4b20_branch2c
I0711 15:34:05.205621 21182 net.cpp:148] Top shape: 1 1024 60 60 (3686400)
I0711 15:34:05.205628 21182 net.cpp:156] Memory required for data: 3561062400
I0711 15:34:05.205643 21182 layer_factory.hpp:77] Creating layer scale4b20_branch2c
I0711 15:34:05.205662 21182 net.cpp:91] Creating Layer scale4b20_branch2c
I0711 15:34:05.205672 21182 net.cpp:425] scale4b20_branch2c <- res4b20_branch2c
I0711 15:34:05.205687 21182 net.cpp:386] scale4b20_branch2c -> res4b20_branch2c (in-place)
I0711 15:34:05.205747 21182 layer_factory.hpp:77] Creating layer scale4b20_branch2c
I0711 15:34:05.205905 21182 net.cpp:141] Setting up scale4b20_branch2c
I0711 15:34:05.205924 21182 net.cpp:148] Top shape: 1 1024 60 60 (3686400)
I0711 15:34:05.205930 21182 net.cpp:156] Memory required for data: 3575808000
I0711 15:34:05.205945 21182 layer_factory.hpp:77] Creating layer res4b20
I0711 15:34:05.205957 21182 net.cpp:91] Creating Layer res4b20
I0711 15:34:05.205968 21182 net.cpp:425] res4b20 <- res4b19_res4b19_relu_0_split_1
I0711 15:34:05.205978 21182 net.cpp:425] res4b20 <- res4b20_branch2c
I0711 15:34:05.205991 21182 net.cpp:399] res4b20 -> res4b20
I0711 15:34:05.206037 21182 net.cpp:141] Setting up res4b20
I0711 15:34:05.206063 21182 net.cpp:148] Top shape: 1 1024 60 60 (3686400)
I0711 15:34:05.206073 21182 net.cpp:156] Memory required for data: 3590553600
I0711 15:34:05.206079 21182 layer_factory.hpp:77] Creating layer res4b20_relu
I0711 15:34:05.206091 21182 net.cpp:91] Creating Layer res4b20_relu
I0711 15:34:05.206099 21182 net.cpp:425] res4b20_relu <- res4b20
I0711 15:34:05.206112 21182 net.cpp:386] res4b20_relu -> res4b20 (in-place)
I0711 15:34:05.206137 21182 net.cpp:141] Setting up res4b20_relu
I0711 15:34:05.206151 21182 net.cpp:148] Top shape: 1 1024 60 60 (3686400)
I0711 15:34:05.206158 21182 net.cpp:156] Memory required for data: 3605299200
I0711 15:34:05.206166 21182 layer_factory.hpp:77] Creating layer res4b20_res4b20_relu_0_split
I0711 15:34:05.206177 21182 net.cpp:91] Creating Layer res4b20_res4b20_relu_0_split
I0711 15:34:05.206185 21182 net.cpp:425] res4b20_res4b20_relu_0_split <- res4b20
I0711 15:34:05.206197 21182 net.cpp:399] res4b20_res4b20_relu_0_split -> res4b20_res4b20_relu_0_split_0
I0711 15:34:05.206212 21182 net.cpp:399] res4b20_res4b20_relu_0_split -> res4b20_res4b20_relu_0_split_1
I0711 15:34:05.206269 21182 net.cpp:141] Setting up res4b20_res4b20_relu_0_split
I0711 15:34:05.206282 21182 net.cpp:148] Top shape: 1 1024 60 60 (3686400)
I0711 15:34:05.206291 21182 net.cpp:148] Top shape: 1 1024 60 60 (3686400)
I0711 15:34:05.206298 21182 net.cpp:156] Memory required for data: 3634790400
I0711 15:34:05.206305 21182 layer_factory.hpp:77] Creating layer res4b21_branch2a
I0711 15:34:05.206328 21182 net.cpp:91] Creating Layer res4b21_branch2a
I0711 15:34:05.206337 21182 net.cpp:425] res4b21_branch2a <- res4b20_res4b20_relu_0_split_0
I0711 15:34:05.206351 21182 net.cpp:399] res4b21_branch2a -> res4b21_branch2a
I0711 15:34:05.207437 21182 net.cpp:141] Setting up res4b21_branch2a
I0711 15:34:05.207456 21182 net.cpp:148] Top shape: 1 256 60 60 (921600)
I0711 15:34:05.207464 21182 net.cpp:156] Memory required for data: 3638476800
I0711 15:34:05.207476 21182 layer_factory.hpp:77] Creating layer bn4b21_branch2a
I0711 15:34:05.207490 21182 net.cpp:91] Creating Layer bn4b21_branch2a
I0711 15:34:05.207501 21182 net.cpp:425] bn4b21_branch2a <- res4b21_branch2a
I0711 15:34:05.207514 21182 net.cpp:386] bn4b21_branch2a -> res4b21_branch2a (in-place)
I0711 15:34:05.207757 21182 net.cpp:141] Setting up bn4b21_branch2a
I0711 15:34:05.207772 21182 net.cpp:148] Top shape: 1 256 60 60 (921600)
I0711 15:34:05.207779 21182 net.cpp:156] Memory required for data: 3642163200
I0711 15:34:05.207795 21182 layer_factory.hpp:77] Creating layer scale4b21_branch2a
I0711 15:34:05.207814 21182 net.cpp:91] Creating Layer scale4b21_branch2a
I0711 15:34:05.207824 21182 net.cpp:425] scale4b21_branch2a <- res4b21_branch2a
I0711 15:34:05.207835 21182 net.cpp:386] scale4b21_branch2a -> res4b21_branch2a (in-place)
I0711 15:34:05.207901 21182 layer_factory.hpp:77] Creating layer scale4b21_branch2a
I0711 15:34:05.208066 21182 net.cpp:141] Setting up scale4b21_branch2a
I0711 15:34:05.208081 21182 net.cpp:148] Top shape: 1 256 60 60 (921600)
I0711 15:34:05.208088 21182 net.cpp:156] Memory required for data: 3645849600
I0711 15:34:05.208103 21182 layer_factory.hpp:77] Creating layer res4b21_branch2a_relu
I0711 15:34:05.208120 21182 net.cpp:91] Creating Layer res4b21_branch2a_relu
I0711 15:34:05.208130 21182 net.cpp:425] res4b21_branch2a_relu <- res4b21_branch2a
I0711 15:34:05.208140 21182 net.cpp:386] res4b21_branch2a_relu -> res4b21_branch2a (in-place)
I0711 15:34:05.208155 21182 net.cpp:141] Setting up res4b21_branch2a_relu
I0711 15:34:05.208166 21182 net.cpp:148] Top shape: 1 256 60 60 (921600)
I0711 15:34:05.208174 21182 net.cpp:156] Memory required for data: 3649536000
I0711 15:34:05.208181 21182 layer_factory.hpp:77] Creating layer res4b21_branch2b
I0711 15:34:05.208199 21182 net.cpp:91] Creating Layer res4b21_branch2b
I0711 15:34:05.208207 21182 net.cpp:425] res4b21_branch2b <- res4b21_branch2a
I0711 15:34:05.208220 21182 net.cpp:399] res4b21_branch2b -> res4b21_branch2b
I0711 15:34:05.210177 21182 net.cpp:141] Setting up res4b21_branch2b
I0711 15:34:05.210208 21182 net.cpp:148] Top shape: 1 256 60 60 (921600)
I0711 15:34:05.210218 21182 net.cpp:156] Memory required for data: 3653222400
I0711 15:34:05.210230 21182 layer_factory.hpp:77] Creating layer bn4b21_branch2b
I0711 15:34:05.210245 21182 net.cpp:91] Creating Layer bn4b21_branch2b
I0711 15:34:05.210255 21182 net.cpp:425] bn4b21_branch2b <- res4b21_branch2b
I0711 15:34:05.210273 21182 net.cpp:386] bn4b21_branch2b -> res4b21_branch2b (in-place)
I0711 15:34:05.210508 21182 net.cpp:141] Setting up bn4b21_branch2b
I0711 15:34:05.210523 21182 net.cpp:148] Top shape: 1 256 60 60 (921600)
I0711 15:34:05.210530 21182 net.cpp:156] Memory required for data: 3656908800
I0711 15:34:05.210547 21182 layer_factory.hpp:77] Creating layer scale4b21_branch2b
I0711 15:34:05.210562 21182 net.cpp:91] Creating Layer scale4b21_branch2b
I0711 15:34:05.210573 21182 net.cpp:425] scale4b21_branch2b <- res4b21_branch2b
I0711 15:34:05.210584 21182 net.cpp:386] scale4b21_branch2b -> res4b21_branch2b (in-place)
I0711 15:34:05.210644 21182 layer_factory.hpp:77] Creating layer scale4b21_branch2b
I0711 15:34:05.210790 21182 net.cpp:141] Setting up scale4b21_branch2b
I0711 15:34:05.210805 21182 net.cpp:148] Top shape: 1 256 60 60 (921600)
I0711 15:34:05.210813 21182 net.cpp:156] Memory required for data: 3660595200
I0711 15:34:05.210825 21182 layer_factory.hpp:77] Creating layer res4b21_branch2b_relu
I0711 15:34:05.210839 21182 net.cpp:91] Creating Layer res4b21_branch2b_relu
I0711 15:34:05.210851 21182 net.cpp:425] res4b21_branch2b_relu <- res4b21_branch2b
I0711 15:34:05.210862 21182 net.cpp:386] res4b21_branch2b_relu -> res4b21_branch2b (in-place)
I0711 15:34:05.210877 21182 net.cpp:141] Setting up res4b21_branch2b_relu
I0711 15:34:05.210889 21182 net.cpp:148] Top shape: 1 256 60 60 (921600)
I0711 15:34:05.210897 21182 net.cpp:156] Memory required for data: 3664281600
I0711 15:34:05.210904 21182 layer_factory.hpp:77] Creating layer res4b21_branch2c
I0711 15:34:05.210918 21182 net.cpp:91] Creating Layer res4b21_branch2c
I0711 15:34:05.210927 21182 net.cpp:425] res4b21_branch2c <- res4b21_branch2b
I0711 15:34:05.210947 21182 net.cpp:399] res4b21_branch2c -> res4b21_branch2c
I0711 15:34:05.212023 21182 net.cpp:141] Setting up res4b21_branch2c
I0711 15:34:05.212041 21182 net.cpp:148] Top shape: 1 1024 60 60 (3686400)
I0711 15:34:05.212049 21182 net.cpp:156] Memory required for data: 3679027200
I0711 15:34:05.212061 21182 layer_factory.hpp:77] Creating layer bn4b21_branch2c
I0711 15:34:05.212082 21182 net.cpp:91] Creating Layer bn4b21_branch2c
I0711 15:34:05.212092 21182 net.cpp:425] bn4b21_branch2c <- res4b21_branch2c
I0711 15:34:05.212105 21182 net.cpp:386] bn4b21_branch2c -> res4b21_branch2c (in-place)
I0711 15:34:05.212342 21182 net.cpp:141] Setting up bn4b21_branch2c
I0711 15:34:05.212357 21182 net.cpp:148] Top shape: 1 1024 60 60 (3686400)
I0711 15:34:05.212364 21182 net.cpp:156] Memory required for data: 3693772800
I0711 15:34:05.212380 21182 layer_factory.hpp:77] Creating layer scale4b21_branch2c
I0711 15:34:05.212395 21182 net.cpp:91] Creating Layer scale4b21_branch2c
I0711 15:34:05.212405 21182 net.cpp:425] scale4b21_branch2c <- res4b21_branch2c
I0711 15:34:05.212420 21182 net.cpp:386] scale4b21_branch2c -> res4b21_branch2c (in-place)
I0711 15:34:05.212498 21182 layer_factory.hpp:77] Creating layer scale4b21_branch2c
I0711 15:34:05.212661 21182 net.cpp:141] Setting up scale4b21_branch2c
I0711 15:34:05.212679 21182 net.cpp:148] Top shape: 1 1024 60 60 (3686400)
I0711 15:34:05.212687 21182 net.cpp:156] Memory required for data: 3708518400
I0711 15:34:05.212702 21182 layer_factory.hpp:77] Creating layer res4b21
I0711 15:34:05.212715 21182 net.cpp:91] Creating Layer res4b21
I0711 15:34:05.212725 21182 net.cpp:425] res4b21 <- res4b20_res4b20_relu_0_split_1
I0711 15:34:05.212734 21182 net.cpp:425] res4b21 <- res4b21_branch2c
I0711 15:34:05.212751 21182 net.cpp:399] res4b21 -> res4b21
I0711 15:34:05.212790 21182 net.cpp:141] Setting up res4b21
I0711 15:34:05.212807 21182 net.cpp:148] Top shape: 1 1024 60 60 (3686400)
I0711 15:34:05.212831 21182 net.cpp:156] Memory required for data: 3723264000
I0711 15:34:05.212841 21182 layer_factory.hpp:77] Creating layer res4b21_relu
I0711 15:34:05.212852 21182 net.cpp:91] Creating Layer res4b21_relu
I0711 15:34:05.212862 21182 net.cpp:425] res4b21_relu <- res4b21
I0711 15:34:05.212873 21182 net.cpp:386] res4b21_relu -> res4b21 (in-place)
I0711 15:34:05.212888 21182 net.cpp:141] Setting up res4b21_relu
I0711 15:34:05.212899 21182 net.cpp:148] Top shape: 1 1024 60 60 (3686400)
I0711 15:34:05.212908 21182 net.cpp:156] Memory required for data: 3738009600
I0711 15:34:05.212915 21182 layer_factory.hpp:77] Creating layer res4b21_res4b21_relu_0_split
I0711 15:34:05.212925 21182 net.cpp:91] Creating Layer res4b21_res4b21_relu_0_split
I0711 15:34:05.212932 21182 net.cpp:425] res4b21_res4b21_relu_0_split <- res4b21
I0711 15:34:05.212946 21182 net.cpp:399] res4b21_res4b21_relu_0_split -> res4b21_res4b21_relu_0_split_0
I0711 15:34:05.212962 21182 net.cpp:399] res4b21_res4b21_relu_0_split -> res4b21_res4b21_relu_0_split_1
I0711 15:34:05.213026 21182 net.cpp:141] Setting up res4b21_res4b21_relu_0_split
I0711 15:34:05.213038 21182 net.cpp:148] Top shape: 1 1024 60 60 (3686400)
I0711 15:34:05.213048 21182 net.cpp:148] Top shape: 1 1024 60 60 (3686400)
I0711 15:34:05.213055 21182 net.cpp:156] Memory required for data: 3767500800
I0711 15:34:05.213063 21182 layer_factory.hpp:77] Creating layer res4b22_branch2a
I0711 15:34:05.213088 21182 net.cpp:91] Creating Layer res4b22_branch2a
I0711 15:34:05.213098 21182 net.cpp:425] res4b22_branch2a <- res4b21_res4b21_relu_0_split_0
I0711 15:34:05.213109 21182 net.cpp:399] res4b22_branch2a -> res4b22_branch2a
I0711 15:34:05.214182 21182 net.cpp:141] Setting up res4b22_branch2a
I0711 15:34:05.214200 21182 net.cpp:148] Top shape: 1 256 60 60 (921600)
I0711 15:34:05.214208 21182 net.cpp:156] Memory required for data: 3771187200
I0711 15:34:05.214221 21182 layer_factory.hpp:77] Creating layer bn4b22_branch2a
I0711 15:34:05.214234 21182 net.cpp:91] Creating Layer bn4b22_branch2a
I0711 15:34:05.214246 21182 net.cpp:425] bn4b22_branch2a <- res4b22_branch2a
I0711 15:34:05.214257 21182 net.cpp:386] bn4b22_branch2a -> res4b22_branch2a (in-place)
I0711 15:34:05.214485 21182 net.cpp:141] Setting up bn4b22_branch2a
I0711 15:34:05.214499 21182 net.cpp:148] Top shape: 1 256 60 60 (921600)
I0711 15:34:05.214506 21182 net.cpp:156] Memory required for data: 3774873600
I0711 15:34:05.214522 21182 layer_factory.hpp:77] Creating layer scale4b22_branch2a
I0711 15:34:05.214537 21182 net.cpp:91] Creating Layer scale4b22_branch2a
I0711 15:34:05.214548 21182 net.cpp:425] scale4b22_branch2a <- res4b22_branch2a
I0711 15:34:05.214560 21182 net.cpp:386] scale4b22_branch2a -> res4b22_branch2a (in-place)
I0711 15:34:05.214623 21182 layer_factory.hpp:77] Creating layer scale4b22_branch2a
I0711 15:34:05.214772 21182 net.cpp:141] Setting up scale4b22_branch2a
I0711 15:34:05.214787 21182 net.cpp:148] Top shape: 1 256 60 60 (921600)
I0711 15:34:05.214794 21182 net.cpp:156] Memory required for data: 3778560000
I0711 15:34:05.214807 21182 layer_factory.hpp:77] Creating layer res4b22_branch2a_relu
I0711 15:34:05.214821 21182 net.cpp:91] Creating Layer res4b22_branch2a_relu
I0711 15:34:05.214831 21182 net.cpp:425] res4b22_branch2a_relu <- res4b22_branch2a
I0711 15:34:05.214845 21182 net.cpp:386] res4b22_branch2a_relu -> res4b22_branch2a (in-place)
I0711 15:34:05.214860 21182 net.cpp:141] Setting up res4b22_branch2a_relu
I0711 15:34:05.214872 21182 net.cpp:148] Top shape: 1 256 60 60 (921600)
I0711 15:34:05.214879 21182 net.cpp:156] Memory required for data: 3782246400
I0711 15:34:05.214886 21182 layer_factory.hpp:77] Creating layer res4b22_branch2b
I0711 15:34:05.214906 21182 net.cpp:91] Creating Layer res4b22_branch2b
I0711 15:34:05.214915 21182 net.cpp:425] res4b22_branch2b <- res4b22_branch2a
I0711 15:34:05.214931 21182 net.cpp:399] res4b22_branch2b -> res4b22_branch2b
I0711 15:34:05.216810 21182 net.cpp:141] Setting up res4b22_branch2b
I0711 15:34:05.216830 21182 net.cpp:148] Top shape: 1 256 60 60 (921600)
I0711 15:34:05.216856 21182 net.cpp:156] Memory required for data: 3785932800
I0711 15:34:05.216874 21182 layer_factory.hpp:77] Creating layer bn4b22_branch2b
I0711 15:34:05.216895 21182 net.cpp:91] Creating Layer bn4b22_branch2b
I0711 15:34:05.216905 21182 net.cpp:425] bn4b22_branch2b <- res4b22_branch2b
I0711 15:34:05.216920 21182 net.cpp:386] bn4b22_branch2b -> res4b22_branch2b (in-place)
I0711 15:34:05.217145 21182 net.cpp:141] Setting up bn4b22_branch2b
I0711 15:34:05.217160 21182 net.cpp:148] Top shape: 1 256 60 60 (921600)
I0711 15:34:05.217167 21182 net.cpp:156] Memory required for data: 3789619200
I0711 15:34:05.217183 21182 layer_factory.hpp:77] Creating layer scale4b22_branch2b
I0711 15:34:05.217198 21182 net.cpp:91] Creating Layer scale4b22_branch2b
I0711 15:34:05.217209 21182 net.cpp:425] scale4b22_branch2b <- res4b22_branch2b
I0711 15:34:05.217224 21182 net.cpp:386] scale4b22_branch2b -> res4b22_branch2b (in-place)
I0711 15:34:05.217280 21182 layer_factory.hpp:77] Creating layer scale4b22_branch2b
I0711 15:34:05.217430 21182 net.cpp:141] Setting up scale4b22_branch2b
I0711 15:34:05.217447 21182 net.cpp:148] Top shape: 1 256 60 60 (921600)
I0711 15:34:05.217455 21182 net.cpp:156] Memory required for data: 3793305600
I0711 15:34:05.217469 21182 layer_factory.hpp:77] Creating layer res4b22_branch2b_relu
I0711 15:34:05.217481 21182 net.cpp:91] Creating Layer res4b22_branch2b_relu
I0711 15:34:05.217491 21182 net.cpp:425] res4b22_branch2b_relu <- res4b22_branch2b
I0711 15:34:05.217501 21182 net.cpp:386] res4b22_branch2b_relu -> res4b22_branch2b (in-place)
I0711 15:34:05.217515 21182 net.cpp:141] Setting up res4b22_branch2b_relu
I0711 15:34:05.217527 21182 net.cpp:148] Top shape: 1 256 60 60 (921600)
I0711 15:34:05.217535 21182 net.cpp:156] Memory required for data: 3796992000
I0711 15:34:05.217542 21182 layer_factory.hpp:77] Creating layer res4b22_branch2c
I0711 15:34:05.217562 21182 net.cpp:91] Creating Layer res4b22_branch2c
I0711 15:34:05.217571 21182 net.cpp:425] res4b22_branch2c <- res4b22_branch2b
I0711 15:34:05.217586 21182 net.cpp:399] res4b22_branch2c -> res4b22_branch2c
I0711 15:34:05.218657 21182 net.cpp:141] Setting up res4b22_branch2c
I0711 15:34:05.218677 21182 net.cpp:148] Top shape: 1 1024 60 60 (3686400)
I0711 15:34:05.218684 21182 net.cpp:156] Memory required for data: 3811737600
I0711 15:34:05.218696 21182 layer_factory.hpp:77] Creating layer bn4b22_branch2c
I0711 15:34:05.218714 21182 net.cpp:91] Creating Layer bn4b22_branch2c
I0711 15:34:05.218725 21182 net.cpp:425] bn4b22_branch2c <- res4b22_branch2c
I0711 15:34:05.218737 21182 net.cpp:386] bn4b22_branch2c -> res4b22_branch2c (in-place)
I0711 15:34:05.218991 21182 net.cpp:141] Setting up bn4b22_branch2c
I0711 15:34:05.219005 21182 net.cpp:148] Top shape: 1 1024 60 60 (3686400)
I0711 15:34:05.219013 21182 net.cpp:156] Memory required for data: 3826483200
I0711 15:34:05.219028 21182 layer_factory.hpp:77] Creating layer scale4b22_branch2c
I0711 15:34:05.219050 21182 net.cpp:91] Creating Layer scale4b22_branch2c
I0711 15:34:05.219059 21182 net.cpp:425] scale4b22_branch2c <- res4b22_branch2c
I0711 15:34:05.219070 21182 net.cpp:386] scale4b22_branch2c -> res4b22_branch2c (in-place)
I0711 15:34:05.219137 21182 layer_factory.hpp:77] Creating layer scale4b22_branch2c
I0711 15:34:05.219303 21182 net.cpp:141] Setting up scale4b22_branch2c
I0711 15:34:05.219318 21182 net.cpp:148] Top shape: 1 1024 60 60 (3686400)
I0711 15:34:05.219326 21182 net.cpp:156] Memory required for data: 3841228800
I0711 15:34:05.219339 21182 layer_factory.hpp:77] Creating layer res4b22
I0711 15:34:05.219350 21182 net.cpp:91] Creating Layer res4b22
I0711 15:34:05.219360 21182 net.cpp:425] res4b22 <- res4b21_res4b21_relu_0_split_1
I0711 15:34:05.219370 21182 net.cpp:425] res4b22 <- res4b22_branch2c
I0711 15:34:05.219384 21182 net.cpp:399] res4b22 -> res4b22
I0711 15:34:05.219429 21182 net.cpp:141] Setting up res4b22
I0711 15:34:05.219441 21182 net.cpp:148] Top shape: 1 1024 60 60 (3686400)
I0711 15:34:05.219449 21182 net.cpp:156] Memory required for data: 3855974400
I0711 15:34:05.219480 21182 layer_factory.hpp:77] Creating layer res4b22_relu
I0711 15:34:05.219496 21182 net.cpp:91] Creating Layer res4b22_relu
I0711 15:34:05.219507 21182 net.cpp:425] res4b22_relu <- res4b22
I0711 15:34:05.219518 21182 net.cpp:386] res4b22_relu -> res4b22 (in-place)
I0711 15:34:05.219532 21182 net.cpp:141] Setting up res4b22_relu
I0711 15:34:05.219544 21182 net.cpp:148] Top shape: 1 1024 60 60 (3686400)
I0711 15:34:05.219553 21182 net.cpp:156] Memory required for data: 3870720000
I0711 15:34:05.219560 21182 layer_factory.hpp:77] Creating layer res4b22_res4b22_relu_0_split
I0711 15:34:05.219575 21182 net.cpp:91] Creating Layer res4b22_res4b22_relu_0_split
I0711 15:34:05.219588 21182 net.cpp:425] res4b22_res4b22_relu_0_split <- res4b22
I0711 15:34:05.219599 21182 net.cpp:399] res4b22_res4b22_relu_0_split -> res4b22_res4b22_relu_0_split_0
I0711 15:34:05.219615 21182 net.cpp:399] res4b22_res4b22_relu_0_split -> res4b22_res4b22_relu_0_split_1
I0711 15:34:05.219674 21182 net.cpp:141] Setting up res4b22_res4b22_relu_0_split
I0711 15:34:05.219687 21182 net.cpp:148] Top shape: 1 1024 60 60 (3686400)
I0711 15:34:05.219697 21182 net.cpp:148] Top shape: 1 1024 60 60 (3686400)
I0711 15:34:05.219703 21182 net.cpp:156] Memory required for data: 3900211200
I0711 15:34:05.219712 21182 layer_factory.hpp:77] Creating layer res5a_branch1
I0711 15:34:05.219725 21182 net.cpp:91] Creating Layer res5a_branch1
I0711 15:34:05.219735 21182 net.cpp:425] res5a_branch1 <- res4b22_res4b22_relu_0_split_0
I0711 15:34:05.219749 21182 net.cpp:399] res5a_branch1 -> res5a_branch1
I0711 15:34:05.225383 21182 net.cpp:141] Setting up res5a_branch1
I0711 15:34:05.225404 21182 net.cpp:148] Top shape: 1 2048 60 60 (7372800)
I0711 15:34:05.225412 21182 net.cpp:156] Memory required for data: 3929702400
I0711 15:34:05.225425 21182 layer_factory.hpp:77] Creating layer bn5a_branch1
I0711 15:34:05.225440 21182 net.cpp:91] Creating Layer bn5a_branch1
I0711 15:34:05.225460 21182 net.cpp:425] bn5a_branch1 <- res5a_branch1
I0711 15:34:05.225476 21182 net.cpp:386] bn5a_branch1 -> res5a_branch1 (in-place)
I0711 15:34:05.225713 21182 net.cpp:141] Setting up bn5a_branch1
I0711 15:34:05.225728 21182 net.cpp:148] Top shape: 1 2048 60 60 (7372800)
I0711 15:34:05.225735 21182 net.cpp:156] Memory required for data: 3959193600
I0711 15:34:05.225754 21182 layer_factory.hpp:77] Creating layer scale5a_branch1
I0711 15:34:05.225770 21182 net.cpp:91] Creating Layer scale5a_branch1
I0711 15:34:05.225780 21182 net.cpp:425] scale5a_branch1 <- res5a_branch1
I0711 15:34:05.225795 21182 net.cpp:386] scale5a_branch1 -> res5a_branch1 (in-place)
I0711 15:34:05.225857 21182 layer_factory.hpp:77] Creating layer scale5a_branch1
I0711 15:34:05.226006 21182 net.cpp:141] Setting up scale5a_branch1
I0711 15:34:05.226019 21182 net.cpp:148] Top shape: 1 2048 60 60 (7372800)
I0711 15:34:05.226027 21182 net.cpp:156] Memory required for data: 3988684800
I0711 15:34:05.226040 21182 layer_factory.hpp:77] Creating layer res5a_branch2a
I0711 15:34:05.226063 21182 net.cpp:91] Creating Layer res5a_branch2a
I0711 15:34:05.226073 21182 net.cpp:425] res5a_branch2a <- res4b22_res4b22_relu_0_split_1
I0711 15:34:05.226084 21182 net.cpp:399] res5a_branch2a -> res5a_branch2a
I0711 15:34:05.227771 21182 net.cpp:141] Setting up res5a_branch2a
I0711 15:34:05.227789 21182 net.cpp:148] Top shape: 1 512 60 60 (1843200)
I0711 15:34:05.227797 21182 net.cpp:156] Memory required for data: 3996057600
I0711 15:34:05.227810 21182 layer_factory.hpp:77] Creating layer bn5a_branch2a
I0711 15:34:05.227824 21182 net.cpp:91] Creating Layer bn5a_branch2a
I0711 15:34:05.227835 21182 net.cpp:425] bn5a_branch2a <- res5a_branch2a
I0711 15:34:05.227851 21182 net.cpp:386] bn5a_branch2a -> res5a_branch2a (in-place)
I0711 15:34:05.228094 21182 net.cpp:141] Setting up bn5a_branch2a
I0711 15:34:05.228109 21182 net.cpp:148] Top shape: 1 512 60 60 (1843200)
I0711 15:34:05.228116 21182 net.cpp:156] Memory required for data: 4003430400
I0711 15:34:05.228132 21182 layer_factory.hpp:77] Creating layer scale5a_branch2a
I0711 15:34:05.228160 21182 net.cpp:91] Creating Layer scale5a_branch2a
I0711 15:34:05.228171 21182 net.cpp:425] scale5a_branch2a <- res5a_branch2a
I0711 15:34:05.228183 21182 net.cpp:386] scale5a_branch2a -> res5a_branch2a (in-place)
I0711 15:34:05.228247 21182 layer_factory.hpp:77] Creating layer scale5a_branch2a
I0711 15:34:05.228410 21182 net.cpp:141] Setting up scale5a_branch2a
I0711 15:34:05.228425 21182 net.cpp:148] Top shape: 1 512 60 60 (1843200)
I0711 15:34:05.228431 21182 net.cpp:156] Memory required for data: 4010803200
I0711 15:34:05.228446 21182 layer_factory.hpp:77] Creating layer res5a_branch2a_relu
I0711 15:34:05.228471 21182 net.cpp:91] Creating Layer res5a_branch2a_relu
I0711 15:34:05.228484 21182 net.cpp:425] res5a_branch2a_relu <- res5a_branch2a
I0711 15:34:05.228495 21182 net.cpp:386] res5a_branch2a_relu -> res5a_branch2a (in-place)
I0711 15:34:05.228510 21182 net.cpp:141] Setting up res5a_branch2a_relu
I0711 15:34:05.228523 21182 net.cpp:148] Top shape: 1 512 60 60 (1843200)
I0711 15:34:05.228529 21182 net.cpp:156] Memory required for data: 4018176000
I0711 15:34:05.228536 21182 layer_factory.hpp:77] Creating layer res5a_branch2b
I0711 15:34:05.228555 21182 net.cpp:91] Creating Layer res5a_branch2b
I0711 15:34:05.228566 21182 net.cpp:425] res5a_branch2b <- res5a_branch2a
I0711 15:34:05.228579 21182 net.cpp:399] res5a_branch2b -> res5a_branch2b
I0711 15:34:05.234547 21182 net.cpp:141] Setting up res5a_branch2b
I0711 15:34:05.234571 21182 net.cpp:148] Top shape: 1 512 60 60 (1843200)
I0711 15:34:05.234580 21182 net.cpp:156] Memory required for data: 4025548800
I0711 15:34:05.234592 21182 layer_factory.hpp:77] Creating layer bn5a_branch2b
I0711 15:34:05.234611 21182 net.cpp:91] Creating Layer bn5a_branch2b
I0711 15:34:05.234625 21182 net.cpp:425] bn5a_branch2b <- res5a_branch2b
I0711 15:34:05.234637 21182 net.cpp:386] bn5a_branch2b -> res5a_branch2b (in-place)
I0711 15:34:05.234889 21182 net.cpp:141] Setting up bn5a_branch2b
I0711 15:34:05.234904 21182 net.cpp:148] Top shape: 1 512 60 60 (1843200)
I0711 15:34:05.234910 21182 net.cpp:156] Memory required for data: 4032921600
I0711 15:34:05.234926 21182 layer_factory.hpp:77] Creating layer scale5a_branch2b
I0711 15:34:05.234948 21182 net.cpp:91] Creating Layer scale5a_branch2b
I0711 15:34:05.234959 21182 net.cpp:425] scale5a_branch2b <- res5a_branch2b
I0711 15:34:05.234971 21182 net.cpp:386] scale5a_branch2b -> res5a_branch2b (in-place)
I0711 15:34:05.235033 21182 layer_factory.hpp:77] Creating layer scale5a_branch2b
I0711 15:34:05.235196 21182 net.cpp:141] Setting up scale5a_branch2b
I0711 15:34:05.235211 21182 net.cpp:148] Top shape: 1 512 60 60 (1843200)
I0711 15:34:05.235219 21182 net.cpp:156] Memory required for data: 4040294400
I0711 15:34:05.235231 21182 layer_factory.hpp:77] Creating layer res5a_branch2b_relu
I0711 15:34:05.235242 21182 net.cpp:91] Creating Layer res5a_branch2b_relu
I0711 15:34:05.235252 21182 net.cpp:425] res5a_branch2b_relu <- res5a_branch2b
I0711 15:34:05.235266 21182 net.cpp:386] res5a_branch2b_relu -> res5a_branch2b (in-place)
I0711 15:34:05.235281 21182 net.cpp:141] Setting up res5a_branch2b_relu
I0711 15:34:05.235293 21182 net.cpp:148] Top shape: 1 512 60 60 (1843200)
I0711 15:34:05.235302 21182 net.cpp:156] Memory required for data: 4047667200
I0711 15:34:05.235311 21182 layer_factory.hpp:77] Creating layer res5a_branch2c
I0711 15:34:05.235327 21182 net.cpp:91] Creating Layer res5a_branch2c
I0711 15:34:05.235335 21182 net.cpp:425] res5a_branch2c <- res5a_branch2b
I0711 15:34:05.235350 21182 net.cpp:399] res5a_branch2c -> res5a_branch2c
I0711 15:34:05.238252 21182 net.cpp:141] Setting up res5a_branch2c
I0711 15:34:05.238273 21182 net.cpp:148] Top shape: 1 2048 60 60 (7372800)
I0711 15:34:05.238281 21182 net.cpp:156] Memory required for data: 4077158400
I0711 15:34:05.238296 21182 layer_factory.hpp:77] Creating layer bn5a_branch2c
I0711 15:34:05.238312 21182 net.cpp:91] Creating Layer bn5a_branch2c
I0711 15:34:05.238322 21182 net.cpp:425] bn5a_branch2c <- res5a_branch2c
I0711 15:34:05.238334 21182 net.cpp:386] bn5a_branch2c -> res5a_branch2c (in-place)
I0711 15:34:05.238600 21182 net.cpp:141] Setting up bn5a_branch2c
I0711 15:34:05.238615 21182 net.cpp:148] Top shape: 1 2048 60 60 (7372800)
I0711 15:34:05.238622 21182 net.cpp:156] Memory required for data: 4106649600
I0711 15:34:05.238639 21182 layer_factory.hpp:77] Creating layer scale5a_branch2c
I0711 15:34:05.238657 21182 net.cpp:91] Creating Layer scale5a_branch2c
I0711 15:34:05.238667 21182 net.cpp:425] scale5a_branch2c <- res5a_branch2c
I0711 15:34:05.238679 21182 net.cpp:386] scale5a_branch2c -> res5a_branch2c (in-place)
I0711 15:34:05.238745 21182 layer_factory.hpp:77] Creating layer scale5a_branch2c
I0711 15:34:05.238898 21182 net.cpp:141] Setting up scale5a_branch2c
I0711 15:34:05.238912 21182 net.cpp:148] Top shape: 1 2048 60 60 (7372800)
I0711 15:34:05.238919 21182 net.cpp:156] Memory required for data: 4136140800
I0711 15:34:05.238932 21182 layer_factory.hpp:77] Creating layer res5a
I0711 15:34:05.238961 21182 net.cpp:91] Creating Layer res5a
I0711 15:34:05.238970 21182 net.cpp:425] res5a <- res5a_branch1
I0711 15:34:05.238981 21182 net.cpp:425] res5a <- res5a_branch2c
I0711 15:34:05.238993 21182 net.cpp:399] res5a -> res5a
I0711 15:34:05.239034 21182 net.cpp:141] Setting up res5a
I0711 15:34:05.239059 21182 net.cpp:148] Top shape: 1 2048 60 60 (7372800)
I0711 15:34:05.239068 21182 net.cpp:156] Memory required for data: 4165632000
I0711 15:34:05.239076 21182 layer_factory.hpp:77] Creating layer res5a_relu
I0711 15:34:05.239087 21182 net.cpp:91] Creating Layer res5a_relu
I0711 15:34:05.239097 21182 net.cpp:425] res5a_relu <- res5a
I0711 15:34:05.239111 21182 net.cpp:386] res5a_relu -> res5a (in-place)
I0711 15:34:05.239125 21182 net.cpp:141] Setting up res5a_relu
I0711 15:34:05.239138 21182 net.cpp:148] Top shape: 1 2048 60 60 (7372800)
I0711 15:34:05.239147 21182 net.cpp:156] Memory required for data: 4195123200
I0711 15:34:05.239154 21182 layer_factory.hpp:77] Creating layer res5a_res5a_relu_0_split
I0711 15:34:05.239173 21182 net.cpp:91] Creating Layer res5a_res5a_relu_0_split
I0711 15:34:05.239182 21182 net.cpp:425] res5a_res5a_relu_0_split <- res5a
I0711 15:34:05.239193 21182 net.cpp:399] res5a_res5a_relu_0_split -> res5a_res5a_relu_0_split_0
I0711 15:34:05.239208 21182 net.cpp:399] res5a_res5a_relu_0_split -> res5a_res5a_relu_0_split_1
I0711 15:34:05.239274 21182 net.cpp:141] Setting up res5a_res5a_relu_0_split
I0711 15:34:05.239287 21182 net.cpp:148] Top shape: 1 2048 60 60 (7372800)
I0711 15:34:05.239296 21182 net.cpp:148] Top shape: 1 2048 60 60 (7372800)
I0711 15:34:05.239303 21182 net.cpp:156] Memory required for data: 4254105600
I0711 15:34:05.239310 21182 layer_factory.hpp:77] Creating layer res5b_branch2a
I0711 15:34:05.239336 21182 net.cpp:91] Creating Layer res5b_branch2a
I0711 15:34:05.239346 21182 net.cpp:425] res5b_branch2a <- res5a_res5a_relu_0_split_0
I0711 15:34:05.239362 21182 net.cpp:399] res5b_branch2a -> res5b_branch2a
I0711 15:34:05.242269 21182 net.cpp:141] Setting up res5b_branch2a
I0711 15:34:05.242290 21182 net.cpp:148] Top shape: 1 512 60 60 (1843200)
I0711 15:34:05.242298 21182 net.cpp:156] Memory required for data: 4261478400
I0711 15:34:05.242311 21182 layer_factory.hpp:77] Creating layer bn5b_branch2a
I0711 15:34:05.242328 21182 net.cpp:91] Creating Layer bn5b_branch2a
I0711 15:34:05.242341 21182 net.cpp:425] bn5b_branch2a <- res5b_branch2a
I0711 15:34:05.242352 21182 net.cpp:386] bn5b_branch2a -> res5b_branch2a (in-place)
I0711 15:34:05.242593 21182 net.cpp:141] Setting up bn5b_branch2a
I0711 15:34:05.242607 21182 net.cpp:148] Top shape: 1 512 60 60 (1843200)
I0711 15:34:05.242614 21182 net.cpp:156] Memory required for data: 4268851200
I0711 15:34:05.242630 21182 layer_factory.hpp:77] Creating layer scale5b_branch2a
I0711 15:34:05.242645 21182 net.cpp:91] Creating Layer scale5b_branch2a
I0711 15:34:05.242655 21182 net.cpp:425] scale5b_branch2a <- res5b_branch2a
I0711 15:34:05.242671 21182 net.cpp:386] scale5b_branch2a -> res5b_branch2a (in-place)
I0711 15:34:05.242734 21182 layer_factory.hpp:77] Creating layer scale5b_branch2a
I0711 15:34:05.242902 21182 net.cpp:141] Setting up scale5b_branch2a
I0711 15:34:05.242928 21182 net.cpp:148] Top shape: 1 512 60 60 (1843200)
I0711 15:34:05.242938 21182 net.cpp:156] Memory required for data: 4276224000
I0711 15:34:05.242950 21182 layer_factory.hpp:77] Creating layer res5b_branch2a_relu
I0711 15:34:05.242964 21182 net.cpp:91] Creating Layer res5b_branch2a_relu
I0711 15:34:05.242974 21182 net.cpp:425] res5b_branch2a_relu <- res5b_branch2a
I0711 15:34:05.242985 21182 net.cpp:386] res5b_branch2a_relu -> res5b_branch2a (in-place)
I0711 15:34:05.243013 21182 net.cpp:141] Setting up res5b_branch2a_relu
I0711 15:34:05.243026 21182 net.cpp:148] Top shape: 1 512 60 60 (1843200)
I0711 15:34:05.243034 21182 net.cpp:156] Memory required for data: 4283596800
I0711 15:34:05.243042 21182 layer_factory.hpp:77] Creating layer res5b_branch2b
I0711 15:34:05.243062 21182 net.cpp:91] Creating Layer res5b_branch2b
I0711 15:34:05.243069 21182 net.cpp:425] res5b_branch2b <- res5b_branch2a
I0711 15:34:05.243084 21182 net.cpp:399] res5b_branch2b -> res5b_branch2b
I0711 15:34:05.249164 21182 net.cpp:141] Setting up res5b_branch2b
I0711 15:34:05.249187 21182 net.cpp:148] Top shape: 1 512 60 60 (1843200)
I0711 15:34:05.249196 21182 net.cpp:156] Memory required for data: 4290969600
I0711 15:34:05.249208 21182 layer_factory.hpp:77] Creating layer bn5b_branch2b
I0711 15:34:05.249224 21182 net.cpp:91] Creating Layer bn5b_branch2b
I0711 15:34:05.249241 21182 net.cpp:425] bn5b_branch2b <- res5b_branch2b
I0711 15:34:05.249254 21182 net.cpp:386] bn5b_branch2b -> res5b_branch2b (in-place)
I0711 15:34:05.249502 21182 net.cpp:141] Setting up bn5b_branch2b
I0711 15:34:05.249518 21182 net.cpp:148] Top shape: 1 512 60 60 (1843200)
I0711 15:34:05.249526 21182 net.cpp:156] Memory required for data: 4298342400
I0711 15:34:05.249541 21182 layer_factory.hpp:77] Creating layer scale5b_branch2b
I0711 15:34:05.249562 21182 net.cpp:91] Creating Layer scale5b_branch2b
I0711 15:34:05.249573 21182 net.cpp:425] scale5b_branch2b <- res5b_branch2b
I0711 15:34:05.249584 21182 net.cpp:386] scale5b_branch2b -> res5b_branch2b (in-place)
I0711 15:34:05.249650 21182 layer_factory.hpp:77] Creating layer scale5b_branch2b
I0711 15:34:05.249816 21182 net.cpp:141] Setting up scale5b_branch2b
I0711 15:34:05.249831 21182 net.cpp:148] Top shape: 1 512 60 60 (1843200)
I0711 15:34:05.249838 21182 net.cpp:156] Memory required for data: 4305715200
I0711 15:34:05.249851 21182 layer_factory.hpp:77] Creating layer res5b_branch2b_relu
I0711 15:34:05.249869 21182 net.cpp:91] Creating Layer res5b_branch2b_relu
I0711 15:34:05.249878 21182 net.cpp:425] res5b_branch2b_relu <- res5b_branch2b
I0711 15:34:05.249889 21182 net.cpp:386] res5b_branch2b_relu -> res5b_branch2b (in-place)
I0711 15:34:05.249902 21182 net.cpp:141] Setting up res5b_branch2b_relu
I0711 15:34:05.249913 21182 net.cpp:148] Top shape: 1 512 60 60 (1843200)
I0711 15:34:05.249920 21182 net.cpp:156] Memory required for data: 4313088000
I0711 15:34:05.249928 21182 layer_factory.hpp:77] Creating layer res5b_branch2c
I0711 15:34:05.249956 21182 net.cpp:91] Creating Layer res5b_branch2c
I0711 15:34:05.249966 21182 net.cpp:425] res5b_branch2c <- res5b_branch2b
I0711 15:34:05.249979 21182 net.cpp:399] res5b_branch2c -> res5b_branch2c
I0711 15:34:05.253005 21182 net.cpp:141] Setting up res5b_branch2c
I0711 15:34:05.253026 21182 net.cpp:148] Top shape: 1 2048 60 60 (7372800)
I0711 15:34:05.253033 21182 net.cpp:156] Memory required for data: 4342579200
I0711 15:34:05.253046 21182 layer_factory.hpp:77] Creating layer bn5b_branch2c
I0711 15:34:05.253060 21182 net.cpp:91] Creating Layer bn5b_branch2c
I0711 15:34:05.253077 21182 net.cpp:425] bn5b_branch2c <- res5b_branch2c
I0711 15:34:05.253093 21182 net.cpp:386] bn5b_branch2c -> res5b_branch2c (in-place)
I0711 15:34:05.253329 21182 net.cpp:141] Setting up bn5b_branch2c
I0711 15:34:05.253343 21182 net.cpp:148] Top shape: 1 2048 60 60 (7372800)
I0711 15:34:05.253351 21182 net.cpp:156] Memory required for data: 4372070400
I0711 15:34:05.253367 21182 layer_factory.hpp:77] Creating layer scale5b_branch2c
I0711 15:34:05.253407 21182 net.cpp:91] Creating Layer scale5b_branch2c
I0711 15:34:05.253418 21182 net.cpp:425] scale5b_branch2c <- res5b_branch2c
I0711 15:34:05.253430 21182 net.cpp:386] scale5b_branch2c -> res5b_branch2c (in-place)
I0711 15:34:05.253502 21182 layer_factory.hpp:77] Creating layer scale5b_branch2c
I0711 15:34:05.253657 21182 net.cpp:141] Setting up scale5b_branch2c
I0711 15:34:05.253684 21182 net.cpp:148] Top shape: 1 2048 60 60 (7372800)
I0711 15:34:05.253693 21182 net.cpp:156] Memory required for data: 4401561600
I0711 15:34:05.253708 21182 layer_factory.hpp:77] Creating layer res5b
I0711 15:34:05.253727 21182 net.cpp:91] Creating Layer res5b
I0711 15:34:05.253737 21182 net.cpp:425] res5b <- res5a_res5a_relu_0_split_1
I0711 15:34:05.253747 21182 net.cpp:425] res5b <- res5b_branch2c
I0711 15:34:05.253767 21182 net.cpp:399] res5b -> res5b
I0711 15:34:05.253814 21182 net.cpp:141] Setting up res5b
I0711 15:34:05.253828 21182 net.cpp:148] Top shape: 1 2048 60 60 (7372800)
I0711 15:34:05.253834 21182 net.cpp:156] Memory required for data: 4431052800
I0711 15:34:05.253842 21182 layer_factory.hpp:77] Creating layer res5b_relu
I0711 15:34:05.253857 21182 net.cpp:91] Creating Layer res5b_relu
I0711 15:34:05.253867 21182 net.cpp:425] res5b_relu <- res5b
I0711 15:34:05.253878 21182 net.cpp:386] res5b_relu -> res5b (in-place)
I0711 15:34:05.253892 21182 net.cpp:141] Setting up res5b_relu
I0711 15:34:05.253904 21182 net.cpp:148] Top shape: 1 2048 60 60 (7372800)
I0711 15:34:05.253911 21182 net.cpp:156] Memory required for data: 4460544000
I0711 15:34:05.253918 21182 layer_factory.hpp:77] Creating layer res5b_res5b_relu_0_split
I0711 15:34:05.253939 21182 net.cpp:91] Creating Layer res5b_res5b_relu_0_split
I0711 15:34:05.253947 21182 net.cpp:425] res5b_res5b_relu_0_split <- res5b
I0711 15:34:05.253957 21182 net.cpp:399] res5b_res5b_relu_0_split -> res5b_res5b_relu_0_split_0
I0711 15:34:05.253970 21182 net.cpp:399] res5b_res5b_relu_0_split -> res5b_res5b_relu_0_split_1
I0711 15:34:05.254027 21182 net.cpp:141] Setting up res5b_res5b_relu_0_split
I0711 15:34:05.254040 21182 net.cpp:148] Top shape: 1 2048 60 60 (7372800)
I0711 15:34:05.254050 21182 net.cpp:148] Top shape: 1 2048 60 60 (7372800)
I0711 15:34:05.254056 21182 net.cpp:156] Memory required for data: 4519526400
I0711 15:34:05.254063 21182 layer_factory.hpp:77] Creating layer res5c_branch2a
I0711 15:34:05.254091 21182 net.cpp:91] Creating Layer res5c_branch2a
I0711 15:34:05.254101 21182 net.cpp:425] res5c_branch2a <- res5b_res5b_relu_0_split_0
I0711 15:34:05.254112 21182 net.cpp:399] res5c_branch2a -> res5c_branch2a
I0711 15:34:05.257027 21182 net.cpp:141] Setting up res5c_branch2a
I0711 15:34:05.257050 21182 net.cpp:148] Top shape: 1 512 60 60 (1843200)
I0711 15:34:05.257060 21182 net.cpp:156] Memory required for data: 4526899200
I0711 15:34:05.257072 21182 layer_factory.hpp:77] Creating layer bn5c_branch2a
I0711 15:34:05.257091 21182 net.cpp:91] Creating Layer bn5c_branch2a
I0711 15:34:05.257103 21182 net.cpp:425] bn5c_branch2a <- res5c_branch2a
I0711 15:34:05.257117 21182 net.cpp:386] bn5c_branch2a -> res5c_branch2a (in-place)
I0711 15:34:05.257364 21182 net.cpp:141] Setting up bn5c_branch2a
I0711 15:34:05.257377 21182 net.cpp:148] Top shape: 1 512 60 60 (1843200)
I0711 15:34:05.257385 21182 net.cpp:156] Memory required for data: 4534272000
I0711 15:34:05.257400 21182 layer_factory.hpp:77] Creating layer scale5c_branch2a
I0711 15:34:05.257419 21182 net.cpp:91] Creating Layer scale5c_branch2a
I0711 15:34:05.257428 21182 net.cpp:425] scale5c_branch2a <- res5c_branch2a
I0711 15:34:05.257439 21182 net.cpp:386] scale5c_branch2a -> res5c_branch2a (in-place)
I0711 15:34:05.257500 21182 layer_factory.hpp:77] Creating layer scale5c_branch2a
I0711 15:34:05.257665 21182 net.cpp:141] Setting up scale5c_branch2a
I0711 15:34:05.257680 21182 net.cpp:148] Top shape: 1 512 60 60 (1843200)
I0711 15:34:05.257688 21182 net.cpp:156] Memory required for data: 4541644800
I0711 15:34:05.257700 21182 layer_factory.hpp:77] Creating layer res5c_branch2a_relu
I0711 15:34:05.257711 21182 net.cpp:91] Creating Layer res5c_branch2a_relu
I0711 15:34:05.257748 21182 net.cpp:425] res5c_branch2a_relu <- res5c_branch2a
I0711 15:34:05.257766 21182 net.cpp:386] res5c_branch2a_relu -> res5c_branch2a (in-place)
I0711 15:34:05.257782 21182 net.cpp:141] Setting up res5c_branch2a_relu
I0711 15:34:05.257794 21182 net.cpp:148] Top shape: 1 512 60 60 (1843200)
I0711 15:34:05.257803 21182 net.cpp:156] Memory required for data: 4549017600
I0711 15:34:05.257812 21182 layer_factory.hpp:77] Creating layer res5c_branch2b
I0711 15:34:05.257828 21182 net.cpp:91] Creating Layer res5c_branch2b
I0711 15:34:05.257836 21182 net.cpp:425] res5c_branch2b <- res5c_branch2a
I0711 15:34:05.257859 21182 net.cpp:399] res5c_branch2b -> res5c_branch2b
I0711 15:34:05.263876 21182 net.cpp:141] Setting up res5c_branch2b
I0711 15:34:05.263898 21182 net.cpp:148] Top shape: 1 512 60 60 (1843200)
I0711 15:34:05.263906 21182 net.cpp:156] Memory required for data: 4556390400
I0711 15:34:05.263918 21182 layer_factory.hpp:77] Creating layer bn5c_branch2b
I0711 15:34:05.263932 21182 net.cpp:91] Creating Layer bn5c_branch2b
I0711 15:34:05.263942 21182 net.cpp:425] bn5c_branch2b <- res5c_branch2b
I0711 15:34:05.263952 21182 net.cpp:386] bn5c_branch2b -> res5c_branch2b (in-place)
I0711 15:34:05.264880 21182 net.cpp:141] Setting up bn5c_branch2b
I0711 15:34:05.264899 21182 net.cpp:148] Top shape: 1 512 60 60 (1843200)
I0711 15:34:05.264907 21182 net.cpp:156] Memory required for data: 4563763200
I0711 15:34:05.264930 21182 layer_factory.hpp:77] Creating layer scale5c_branch2b
I0711 15:34:05.264947 21182 net.cpp:91] Creating Layer scale5c_branch2b
I0711 15:34:05.264962 21182 net.cpp:425] scale5c_branch2b <- res5c_branch2b
I0711 15:34:05.264974 21182 net.cpp:386] scale5c_branch2b -> res5c_branch2b (in-place)
I0711 15:34:05.265044 21182 layer_factory.hpp:77] Creating layer scale5c_branch2b
I0711 15:34:05.265233 21182 net.cpp:141] Setting up scale5c_branch2b
I0711 15:34:05.265249 21182 net.cpp:148] Top shape: 1 512 60 60 (1843200)
I0711 15:34:05.265255 21182 net.cpp:156] Memory required for data: 4571136000
I0711 15:34:05.265270 21182 layer_factory.hpp:77] Creating layer res5c_branch2b_relu
I0711 15:34:05.265283 21182 net.cpp:91] Creating Layer res5c_branch2b_relu
I0711 15:34:05.265295 21182 net.cpp:425] res5c_branch2b_relu <- res5c_branch2b
I0711 15:34:05.265308 21182 net.cpp:386] res5c_branch2b_relu -> res5c_branch2b (in-place)
I0711 15:34:05.265324 21182 net.cpp:141] Setting up res5c_branch2b_relu
I0711 15:34:05.265336 21182 net.cpp:148] Top shape: 1 512 60 60 (1843200)
I0711 15:34:05.265346 21182 net.cpp:156] Memory required for data: 4578508800
I0711 15:34:05.265353 21182 layer_factory.hpp:77] Creating layer res5c_branch2c
I0711 15:34:05.265368 21182 net.cpp:91] Creating Layer res5c_branch2c
I0711 15:34:05.265377 21182 net.cpp:425] res5c_branch2c <- res5c_branch2b
I0711 15:34:05.265393 21182 net.cpp:399] res5c_branch2c -> res5c_branch2c
I0711 15:34:05.268257 21182 net.cpp:141] Setting up res5c_branch2c
I0711 15:34:05.268277 21182 net.cpp:148] Top shape: 1 2048 60 60 (7372800)
I0711 15:34:05.268285 21182 net.cpp:156] Memory required for data: 4608000000
I0711 15:34:05.268297 21182 layer_factory.hpp:77] Creating layer bn5c_branch2c
I0711 15:34:05.268316 21182 net.cpp:91] Creating Layer bn5c_branch2c
I0711 15:34:05.268327 21182 net.cpp:425] bn5c_branch2c <- res5c_branch2c
I0711 15:34:05.268339 21182 net.cpp:386] bn5c_branch2c -> res5c_branch2c (in-place)
I0711 15:34:05.268592 21182 net.cpp:141] Setting up bn5c_branch2c
I0711 15:34:05.268609 21182 net.cpp:148] Top shape: 1 2048 60 60 (7372800)
I0711 15:34:05.268615 21182 net.cpp:156] Memory required for data: 4637491200
I0711 15:34:05.268631 21182 layer_factory.hpp:77] Creating layer scale5c_branch2c
I0711 15:34:05.268652 21182 net.cpp:91] Creating Layer scale5c_branch2c
I0711 15:34:05.268662 21182 net.cpp:425] scale5c_branch2c <- res5c_branch2c
I0711 15:34:05.268673 21182 net.cpp:386] scale5c_branch2c -> res5c_branch2c (in-place)
I0711 15:34:05.268741 21182 layer_factory.hpp:77] Creating layer scale5c_branch2c
I0711 15:34:05.268918 21182 net.cpp:141] Setting up scale5c_branch2c
I0711 15:34:05.268934 21182 net.cpp:148] Top shape: 1 2048 60 60 (7372800)
I0711 15:34:05.268940 21182 net.cpp:156] Memory required for data: 4666982400
I0711 15:34:05.268954 21182 layer_factory.hpp:77] Creating layer res5c
I0711 15:34:05.268975 21182 net.cpp:91] Creating Layer res5c
I0711 15:34:05.268983 21182 net.cpp:425] res5c <- res5b_res5b_relu_0_split_1
I0711 15:34:05.268993 21182 net.cpp:425] res5c <- res5c_branch2c
I0711 15:34:05.269009 21182 net.cpp:399] res5c -> res5c
I0711 15:34:05.269057 21182 net.cpp:141] Setting up res5c
I0711 15:34:05.269073 21182 net.cpp:148] Top shape: 1 2048 60 60 (7372800)
I0711 15:34:05.269080 21182 net.cpp:156] Memory required for data: 4696473600
I0711 15:34:05.269088 21182 layer_factory.hpp:77] Creating layer res5c_relu
I0711 15:34:05.269098 21182 net.cpp:91] Creating Layer res5c_relu
I0711 15:34:05.269105 21182 net.cpp:425] res5c_relu <- res5c
I0711 15:34:05.269130 21182 net.cpp:386] res5c_relu -> res5c (in-place)
I0711 15:34:05.269146 21182 net.cpp:141] Setting up res5c_relu
I0711 15:34:05.269158 21182 net.cpp:148] Top shape: 1 2048 60 60 (7372800)
I0711 15:34:05.269168 21182 net.cpp:156] Memory required for data: 4725964800
I0711 15:34:05.269176 21182 layer_factory.hpp:77] Creating layer res5c_res5c_relu_0_split
I0711 15:34:05.269192 21182 net.cpp:91] Creating Layer res5c_res5c_relu_0_split
I0711 15:34:05.269203 21182 net.cpp:425] res5c_res5c_relu_0_split <- res5c
I0711 15:34:05.269223 21182 net.cpp:399] res5c_res5c_relu_0_split -> res5c_res5c_relu_0_split_0
I0711 15:34:05.269238 21182 net.cpp:399] res5c_res5c_relu_0_split -> res5c_res5c_relu_0_split_1
I0711 15:34:05.269254 21182 net.cpp:399] res5c_res5c_relu_0_split -> res5c_res5c_relu_0_split_2
I0711 15:34:05.269270 21182 net.cpp:399] res5c_res5c_relu_0_split -> res5c_res5c_relu_0_split_3
I0711 15:34:05.269284 21182 net.cpp:399] res5c_res5c_relu_0_split -> res5c_res5c_relu_0_split_4
I0711 15:34:05.269387 21182 net.cpp:141] Setting up res5c_res5c_relu_0_split
I0711 15:34:05.269400 21182 net.cpp:148] Top shape: 1 2048 60 60 (7372800)
I0711 15:34:05.269409 21182 net.cpp:148] Top shape: 1 2048 60 60 (7372800)
I0711 15:34:05.269418 21182 net.cpp:148] Top shape: 1 2048 60 60 (7372800)
I0711 15:34:05.269428 21182 net.cpp:148] Top shape: 1 2048 60 60 (7372800)
I0711 15:34:05.269435 21182 net.cpp:148] Top shape: 1 2048 60 60 (7372800)
I0711 15:34:05.269443 21182 net.cpp:156] Memory required for data: 4873420800
I0711 15:34:05.269449 21182 layer_factory.hpp:77] Creating layer fc1_VOC_c0
I0711 15:34:05.269474 21182 net.cpp:91] Creating Layer fc1_VOC_c0
I0711 15:34:05.269482 21182 net.cpp:425] fc1_VOC_c0 <- res5c_res5c_relu_0_split_0
I0711 15:34:05.269500 21182 net.cpp:399] fc1_VOC_c0 -> fc1_VOC_c0
I0711 15:34:05.283437 21182 net.cpp:141] Setting up fc1_VOC_c0
I0711 15:34:05.283458 21182 net.cpp:148] Top shape: 1 21 60 60 (75600)
I0711 15:34:05.283466 21182 net.cpp:156] Memory required for data: 4873723200
I0711 15:34:05.283480 21182 layer_factory.hpp:77] Creating layer fc1_VOC_c1
I0711 15:34:05.283504 21182 net.cpp:91] Creating Layer fc1_VOC_c1
I0711 15:34:05.283516 21182 net.cpp:425] fc1_VOC_c1 <- res5c_res5c_relu_0_split_1
I0711 15:34:05.283535 21182 net.cpp:399] fc1_VOC_c1 -> fc1_VOC_c1
I0711 15:34:05.297405 21182 net.cpp:141] Setting up fc1_VOC_c1
I0711 15:34:05.297425 21182 net.cpp:148] Top shape: 1 21 60 60 (75600)
I0711 15:34:05.297433 21182 net.cpp:156] Memory required for data: 4874025600
I0711 15:34:05.297446 21182 layer_factory.hpp:77] Creating layer fc1_VOC_c2
I0711 15:34:05.297472 21182 net.cpp:91] Creating Layer fc1_VOC_c2
I0711 15:34:05.297483 21182 net.cpp:425] fc1_VOC_c2 <- res5c_res5c_relu_0_split_2
I0711 15:34:05.297498 21182 net.cpp:399] fc1_VOC_c2 -> fc1_VOC_c2
I0711 15:34:05.311357 21182 net.cpp:141] Setting up fc1_VOC_c2
I0711 15:34:05.311377 21182 net.cpp:148] Top shape: 1 21 60 60 (75600)
I0711 15:34:05.311384 21182 net.cpp:156] Memory required for data: 4874328000
I0711 15:34:05.311398 21182 layer_factory.hpp:77] Creating layer fc1_VOC_c3
I0711 15:34:05.311420 21182 net.cpp:91] Creating Layer fc1_VOC_c3
I0711 15:34:05.311445 21182 net.cpp:425] fc1_VOC_c3 <- res5c_res5c_relu_0_split_3
I0711 15:34:05.311468 21182 net.cpp:399] fc1_VOC_c3 -> fc1_VOC_c3
I0711 15:34:05.325322 21182 net.cpp:141] Setting up fc1_VOC_c3
I0711 15:34:05.325342 21182 net.cpp:148] Top shape: 1 21 60 60 (75600)
I0711 15:34:05.325350 21182 net.cpp:156] Memory required for data: 4874630400
I0711 15:34:05.325364 21182 layer_factory.hpp:77] Creating layer fc1_VOC_c4
I0711 15:34:05.325383 21182 net.cpp:91] Creating Layer fc1_VOC_c4
I0711 15:34:05.325400 21182 net.cpp:425] fc1_VOC_c4 <- res5c_res5c_relu_0_split_4
I0711 15:34:05.325419 21182 net.cpp:399] fc1_VOC_c4 -> fc1_VOC_c4
I0711 15:34:05.339215 21182 net.cpp:141] Setting up fc1_VOC_c4
I0711 15:34:05.339236 21182 net.cpp:148] Top shape: 1 21 60 60 (75600)
I0711 15:34:05.339243 21182 net.cpp:156] Memory required for data: 4874932800
I0711 15:34:05.339257 21182 layer_factory.hpp:77] Creating layer fc1_VOC
I0711 15:34:05.339278 21182 net.cpp:91] Creating Layer fc1_VOC
I0711 15:34:05.339290 21182 net.cpp:425] fc1_VOC <- fc1_VOC_c0
I0711 15:34:05.339300 21182 net.cpp:425] fc1_VOC <- fc1_VOC_c1
I0711 15:34:05.339315 21182 net.cpp:425] fc1_VOC <- fc1_VOC_c2
I0711 15:34:05.339330 21182 net.cpp:425] fc1_VOC <- fc1_VOC_c3
I0711 15:34:05.339344 21182 net.cpp:425] fc1_VOC <- fc1_VOC_c4
I0711 15:34:05.339360 21182 net.cpp:399] fc1_VOC -> fc1_VOC
I0711 15:34:05.339411 21182 net.cpp:141] Setting up fc1_VOC
I0711 15:34:05.339427 21182 net.cpp:148] Top shape: 1 21 60 60 (75600)
I0711 15:34:05.339434 21182 net.cpp:156] Memory required for data: 4875235200
I0711 15:34:05.339445 21182 layer_factory.hpp:77] Creating layer upscore
I0711 15:34:05.339469 21182 net.cpp:91] Creating Layer upscore
I0711 15:34:05.339478 21182 net.cpp:425] upscore <- fc1_VOC
I0711 15:34:05.339493 21182 net.cpp:399] upscore -> upscore
I0711 15:34:05.340000 21182 net.cpp:141] Setting up upscore
I0711 15:34:05.340023 21182 net.cpp:148] Top shape: 1 21 480 480 (4838400)
I0711 15:34:05.340029 21182 net.cpp:156] Memory required for data: 4894588800
I0711 15:34:05.340041 21182 layer_factory.hpp:77] Creating layer loss
I0711 15:34:05.340056 21182 net.cpp:91] Creating Layer loss
I0711 15:34:05.340077 21182 net.cpp:425] loss <- upscore
I0711 15:34:05.340088 21182 net.cpp:425] loss <- label
I0711 15:34:05.340116 21182 net.cpp:399] loss -> loss
I0711 15:34:05.340152 21182 layer_factory.hpp:77] Creating layer loss
…
