…
I0711 15:34:37.020671 21326 solver.cpp:81] Creating training net from train_net file: examples/DPN2_Coco_val/DPN2_VOC.prototxt
I0711 15:34:37.035253 21326 net.cpp:49] Initializing net from parameters: 
name: "DPN"
state {
  phase: TRAIN
}
layer {
  name: "data"
  type: "ImageSegData"
  top: "data"
  top: "label"
  transform_param {
    mirror: true
    crop_size: 480
    mean_value: 104.00699
    mean_value: 116.66877
    mean_value: 122.67892
    crop_resize: 0.8
    crop_resize: 1
  }
  image_data_param {
    source: "data/VOC_arg/train.txt"
    batch_size: 1
    shuffle: true
    root_folder: "data/VOC_arg"
    label_type: PIXEL
  }
}
layer {
  name: "conv1"
  type: "Convolution"
  bottom: "data"
  top: "conv1"
  param {
    name: "conv1_0"
    lr_mult: 1
    decay_mult: 1
  }
  convolution_param {
    num_output: 64
    bias_term: false
    pad: 3
    kernel_size: 7
    stride: 2
  }
}
layer {
  name: "bn_conv1"
  type: "BatchNorm"
  bottom: "conv1"
  top: "conv1"
  param {
    name: "bn_conv1_0"
    lr_mult: 0
  }
  param {
    name: "bn_conv1_1"
    lr_mult: 0
  }
  param {
    name: "bn_conv1_2"
    lr_mult: 0
  }
  batch_norm_param {
    use_global_stats: true
  }
}
layer {
  name: "scale_conv1"
  type: "Scale"
  bottom: "conv1"
  top: "conv1"
  param {
    name: "scale_conv1_0"
    lr_mult: 0
  }
  param {
    name: "scale_conv1_1"
    lr_mult: 0
  }
  scale_param {
    bias_term: true
  }
}
layer {
  name: "conv1_relu"
  type: "ReLU"
  bottom: "conv1"
  top: "conv1"
}
layer {
  name: "pool1"
  type: "Pooling"
  bottom: "conv1"
  top: "pool1"
  pooling_param {
    pool: MAX
    kernel_size: 3
    stride: 2
  }
}
layer {
  name: "res2a_branch1"
  type: "Convolution"
  bottom: "pool1"
  top: "res2a_branch1"
  param {
    name: "res2a_branch1_0"
    lr_mult: 1
    decay_mult: 1
  }
  convolution_param {
    num_output: 256
    bias_term: false
    pad: 0
    kernel_size: 1
    stride: 1
  }
}
layer {
  name: "bn2a_branch1"
  type: "BatchNorm"
  bottom: "res2a_branch1"
  top: "res2a_branch1"
  param {
    name: "bn2a_branch1_0"
    lr_mult: 0
  }
  param {
    name: "bn2a_branch1_1"
    lr_mult: 0
  }
  param {
    name: "bn2a_branch1_2"
    lr_mult: 0
  }
  batch_norm_param {
    use_global_stats: true
  }
}
layer {
  name: "scale2a_branch1"
  type: "Scale"
  bottom: "res2a_branch1"
  top: "res2a_branch1"
  param {
    name: "scale2a_branch1_0"
    lr_mult: 0
  }
  param {
    name: "scale2a_branch1_1"
    lr_mult: 0
  }
  scale_param {
    bias_term: true
  }
}
layer {
  name: "res2a_branch2a"
  type: "Convolution"
  bottom: "pool1"
  top: "res2a_branch2a"
  param {
    name: "res2a_branch2a_0"
    lr_mult: 1
    decay_mult: 1
  }
  convolution_param {
    num_output: 64
    bias_term: false
    pad: 0
    kernel_size: 1
    stride: 1
  }
}
layer {
  name: "bn2a_branch2a"
  type: "BatchNorm"
  bottom: "res2a_branch2a"
  top: "res2a_branch2a"
  param {
    name: "bn2a_branch2a_0"
    lr_mult: 0
  }
  param {
    name: "bn2a_branch2a_1"
    lr_mult: 0
  }
  param {
    name: "bn2a_branch2a_2"
    lr_mult: 0
  }
  batch_norm_param {
    use_global_stats: true
  }
}
layer {
  name: "scale2a_branch2a"
  type: "Scale"
  bottom: "res2a_branch2a"
  top: "res2a_branch2a"
  param {
    name: "scale2a_branch2a_0"
    lr_mult: 0
  }
  param {
    name: "scale2a_branch2a_1"
    lr_mult: 0
  }
  scale_param {
    bias_term: true
  }
}
layer {
  name: "res2a_branch2a_relu"
  type: "ReLU"
  bottom: "res2a_branch2a"
  top: "res2a_branch2a"
}
layer {
  name: "res2a_branch2b"
  type: "Convolution"
  bottom: "res2a_branch2a"
  top: "res2a_branch2b"
  param {
    name: "res2a_branch2b_0"
    lr_mult: 1
    decay_mult: 1
  }
  convolution_param {
    num_output: 64
    bias_term: false
    pad: 1
    kernel_size: 3
    stride: 1
  }
}
layer {
  name: "bn2a_branch2b"
  type: "BatchNorm"
  bottom: "res2a_branch2b"
  top: "res2a_branch2b"
  param {
    name: "bn2a_branch2b_0"
    lr_mult: 0
  }
  param {
    name: "bn2a_branch2b_1"
    lr_mult: 0
  }
  param {
    name: "bn2a_branch2b_2"
    lr_mult: 0
  }
  batch_norm_param {
    use_global_stats: true
  }
}
layer {
  name: "scale2a_branch2b"
  type: "Scale"
  bottom: "res2a_branch2b"
  top: "res2a_branch2b"
  param {
    name: "scale2a_branch2b_0"
    lr_mult: 0
  }
  param {
    name: "scale2a_branch2b_1"
    lr_mult: 0
  }
  scale_param {
    bias_term: true
  }
}
layer {
  name: "res2a_branch2b_relu"
  type: "ReLU"
  bottom: "res2a_branch2b"
  top: "res2a_branch2b"
}
layer {
  name: "res2a_branch2c"
  type: "Convolution"
  bottom: "res2a_branch2b"
  top: "res2a_branch2c"
  param {
    name: "res2a_branch2c_0"
    lr_mult: 1
    decay_mult: 1
  }
  convolution_param {
    num_output: 256
    bias_term: false
    pad: 0
    kernel_size: 1
    stride: 1
  }
}
layer {
  name: "bn2a_branch2c"
  type: "BatchNorm"
  bottom: "res2a_branch2c"
  top: "res2a_branch2c"
  param {
    name: "bn2a_branch2c_0"
    lr_mult: 0
  }
  param {
    name: "bn2a_branch2c_1"
    lr_mult: 0
  }
  param {
    name: "bn2a_branch2c_2"
    lr_mult: 0
  }
  batch_norm_param {
    use_global_stats: true
  }
}
layer {
  name: "scale2a_branch2c"
  type: "Scale"
  bottom: "res2a_branch2c"
  top: "res2a_branch2c"
  param {
    name: "scale2a_branch2c_0"
    lr_mult: 0
  }
  param {
    name: "scale2a_branch2c_1"
    lr_mult: 0
  }
  scale_param {
    bias_term: true
  }
}
layer {
  name: "res2a"
  type: "Eltwise"
  bottom: "res2a_branch1"
  bottom: "res2a_branch2c"
  top: "res2a"
}
layer {
  name: "res2a_relu"
  type: "ReLU"
  bottom: "res2a"
  top: "res2a"
}
layer {
  name: "res2b_branch2a"
  type: "Convolution"
  bottom: "res2a"
  top: "res2b_branch2a"
  param {
    name: "res2b_branch2a_0"
    lr_mult: 1
    decay_mult: 1
  }
  convolution_param {
    num_output: 64
    bias_term: false
    pad: 0
    kernel_size: 1
    stride: 1
  }
}
layer {
  name: "bn2b_branch2a"
  type: "BatchNorm"
  bottom: "res2b_branch2a"
  top: "res2b_branch2a"
  param {
    name: "bn2b_branch2a_0"
    lr_mult: 0
  }
  param {
    name: "bn2b_branch2a_1"
    lr_mult: 0
  }
  param {
    name: "bn2b_branch2a_2"
    lr_mult: 0
  }
  batch_norm_param {
    use_global_stats: true
  }
}
layer {
  name: "scale2b_branch2a"
  type: "Scale"
  bottom: "res2b_branch2a"
  top: "res2b_branch2a"
  param {
    name: "scale2b_branch2a_0"
    lr_mult: 0
  }
  param {
    name: "scale2b_branch2a_1"
    lr_mult: 0
  }
  scale_param {
    bias_term: true
  }
}
layer {
  name: "res2b_branch2a_relu"
  type: "ReLU"
  bottom: "res2b_branch2a"
  top: "res2b_branch2a"
}
layer {
  name: "res2b_branch2b"
  type: "Convolution"
  bottom: "res2b_branch2a"
  top: "res2b_branch2b"
  param {
    name: "res2b_branch2b_0"
    lr_mult: 1
    decay_mult: 1
  }
  convolution_param {
    num_output: 64
    bias_term: false
    pad: 1
    kernel_size: 3
    stride: 1
  }
}
layer {
  name: "bn2b_branch2b"
  type: "BatchNorm"
  bottom: "res2b_branch2b"
  top: "res2b_branch2b"
  param {
    name: "bn2b_branch2b_0"
    lr_mult: 0
  }
  param {
    name: "bn2b_branch2b_1"
    lr_mult: 0
  }
  param {
    name: "bn2b_branch2b_2"
    lr_mult: 0
  }
  batch_norm_param {
    use_global_stats: true
  }
}
layer {
  name: "scale2b_branch2b"
  type: "Scale"
  bottom: "res2b_branch2b"
  top: "res2b_branch2b"
  param {
    name: "scale2b_branch2b_0"
    lr_mult: 0
  }
  param {
    name: "scale2b_branch2b_1"
    lr_mult: 0
  }
  scale_param {
    bias_term: true
  }
}
layer {
  name: "res2b_branch2b_relu"
  type: "ReLU"
  bottom: "res2b_branch2b"
  top: "res2b_branch2b"
}
layer {
  name: "res2b_branch2c"
  type: "Convolution"
  bottom: "res2b_branch2b"
  top: "res2b_branch2c"
  param {
    name: "res2b_branch2c_0"
    lr_mult: 1
    decay_mult: 1
  }
  convolution_param {
    num_output: 256
    bias_term: false
    pad: 0
    kernel_size: 1
    stride: 1
  }
}
layer {
  name: "bn2b_branch2c"
  type: "BatchNorm"
  bottom: "res2b_branch2c"
  top: "res2b_branch2c"
  param {
    name: "bn2b_branch2c_0"
    lr_mult: 0
  }
  param {
    name: "bn2b_branch2c_1"
    lr_mult: 0
  }
  param {
    name: "bn2b_branch2c_2"
    lr_mult: 0
  }
  batch_norm_param {
    use_global_stats: true
  }
}
layer {
  name: "scale2b_branch2c"
  type: "Scale"
  bottom: "res2b_branch2c"
  top: "res2b_branch2c"
  param {
    name: "scale2b_branch2c_0"
    lr_mult: 0
  }
  param {
    name: "scale2b_branch2c_1"
    lr_mult: 0
  }
  scale_param {
    bias_term: true
  }
}
layer {
  name: "res2b"
  type: "Eltwise"
  bottom: "res2a"
  bottom: "res2b_branch2c"
  top: "res2b"
}
layer {
  name: "res2b_relu"
  type: "ReLU"
  bottom: "res2b"
  top: "res2b"
}
layer {
  name: "res2c_branch2a"
  type: "Convolution"
  bottom: "res2b"
  top: "res2c_branch2a"
  param {
    name: "res2c_branch2a_0"
    lr_mult: 1
    decay_mult: 1
  }
  convolution_param {
    num_output: 64
    bias_term: false
    pad: 0
    kernel_size: 1
    stride: 1
  }
}
layer {
  name: "bn2c_branch2a"
  type: "BatchNorm"
  bottom: "res2c_branch2a"
  top: "res2c_branch2a"
  param {
    name: "bn2c_branch2a_0"
    lr_mult: 0
  }
  param {
    name: "bn2c_branch2a_1"
    lr_mult: 0
  }
  param {
    name: "bn2c_branch2a_2"
    lr_mult: 0
  }
  batch_norm_param {
    use_global_stats: true
  }
}
layer {
  name: "scale2c_branch2a"
  type: "Scale"
  bottom: "res2c_branch2a"
  top: "res2c_branch2a"
  param {
    name: "scale2c_branch2a_0"
    lr_mult: 0
  }
  param {
    name: "scale2c_branch2a_1"
    lr_mult: 0
  }
  scale_param {
    bias_term: true
  }
}
layer {
  name: "res2c_branch2a_relu"
  type: "ReLU"
  bottom: "res2c_branch2a"
  top: "res2c_branch2a"
}
layer {
  name: "res2c_branch2b"
  type: "Convolution"
  bottom: "res2c_branch2a"
  top: "res2c_branch2b"
  param {
    name: "res2c_branch2b_0"
    lr_mult: 1
    decay_mult: 1
  }
  convolution_param {
    num_output: 64
    bias_term: false
    pad: 1
    kernel_size: 3
    stride: 1
  }
}
layer {
  name: "bn2c_branch2b"
  type: "BatchNorm"
  bottom: "res2c_branch2b"
  top: "res2c_branch2b"
  param {
    name: "bn2c_branch2b_0"
    lr_mult: 0
  }
  param {
    name: "bn2c_branch2b_1"
    lr_mult: 0
  }
  param {
    name: "bn2c_branch2b_2"
    lr_mult: 0
  }
  batch_norm_param {
    use_global_stats: true
  }
}
layer {
  name: "scale2c_branch2b"
  type: "Scale"
  bottom: "res2c_branch2b"
  top: "res2c_branch2b"
  param {
    name: "scale2c_branch2b_0"
    lr_mult: 0
  }
  param {
    name: "scale2c_branch2b_1"
    lr_mult: 0
  }
  scale_param {
    bias_term: true
  }
}
layer {
  name: "res2c_branch2b_relu"
  type: "ReLU"
  bottom: "res2c_branch2b"
  top: "res2c_branch2b"
}
layer {
  name: "res2c_branch2c"
  type: "Convolution"
  bottom: "res2c_branch2b"
  top: "res2c_branch2c"
  param {
    name: "res2c_branch2c_0"
    lr_mult: 1
    decay_mult: 1
  }
  convolution_param {
    num_output: 256
    bias_term: false
    pad: 0
    kernel_size: 1
    stride: 1
  }
}
layer {
  name: "bn2c_branch2c"
  type: "BatchNorm"
  bottom: "res2c_branch2c"
  top: "res2c_branch2c"
  param {
    name: "bn2c_branch2c_0"
    lr_mult: 0
  }
  param {
    name: "bn2c_branch2c_1"
    lr_mult: 0
  }
  param {
    name: "bn2c_branch2c_2"
    lr_mult: 0
  }
  batch_norm_param {
    use_global_stats: true
  }
}
layer {
  name: "scale2c_branch2c"
  type: "Scale"
  bottom: "res2c_branch2c"
  top: "res2c_branch2c"
  param {
    name: "scale2c_branch2c_0"
    lr_mult: 0
  }
  param {
    name: "scale2c_branch2c_1"
    lr_mult: 0
  }
  scale_param {
    bias_term: true
  }
}
layer {
  name: "res2c"
  type: "Eltwise"
  bottom: "res2b"
  bottom: "res2c_branch2c"
  top: "res2c"
}
layer {
  name: "res2c_relu"
  type: "ReLU"
  bottom: "res2c"
  top: "res2c"
}
layer {
  name: "res3a_branch1"
  type: "Convolution"
  bottom: "res2c"
  top: "res3a_branch1"
  param {
    name: "res3a_branch1_0"
    lr_mult: 1
    decay_mult: 1
  }
  convolution_param {
    num_output: 512
    bias_term: false
    pad: 0
    kernel_size: 1
    stride: 2
  }
}
layer {
  name: "bn3a_branch1"
  type: "BatchNorm"
  bottom: "res3a_branch1"
  top: "res3a_branch1"
  param {
    name: "bn3a_branch1_0"
    lr_mult: 0
  }
  param {
    name: "bn3a_branch1_1"
    lr_mult: 0
  }
  param {
    name: "bn3a_branch1_2"
    lr_mult: 0
  }
  batch_norm_param {
    use_global_stats: true
  }
}
layer {
  name: "scale3a_branch1"
  type: "Scale"
  bottom: "res3a_branch1"
  top: "res3a_branch1"
  param {
    name: "scale3a_branch1_0"
    lr_mult: 0
  }
  param {
    name: "scale3a_branch1_1"
    lr_mult: 0
  }
  scale_param {
    bias_term: true
  }
}
layer {
  name: "res3a_branch2a"
  type: "Convolution"
  bottom: "res2c"
  top: "res3a_branch2a"
  param {
    name: "res3a_branch2a_0"
    lr_mult: 1
    decay_mult: 1
  }
  convolution_param {
    num_output: 128
    bias_term: false
    pad: 0
    kernel_size: 1
    stride: 2
  }
}
layer {
  name: "bn3a_branch2a"
  type: "BatchNorm"
  bottom: "res3a_branch2a"
  top: "res3a_branch2a"
  param {
    name: "bn3a_branch2a_0"
    lr_mult: 0
  }
  param {
    name: "bn3a_branch2a_1"
    lr_mult: 0
  }
  param {
    name: "bn3a_branch2a_2"
    lr_mult: 0
  }
  batch_norm_param {
    use_global_stats: true
  }
}
layer {
  name: "scale3a_branch2a"
  type: "Scale"
  bottom: "res3a_branch2a"
  top: "res3a_branch2a"
  param {
    name: "scale3a_branch2a_0"
    lr_mult: 0
  }
  param {
    name: "scale3a_branch2a_1"
    lr_mult: 0
  }
  scale_param {
    bias_term: true
  }
}
layer {
  name: "res3a_branch2a_relu"
  type: "ReLU"
  bottom: "res3a_branch2a"
  top: "res3a_branch2a"
}
layer {
  name: "res3a_branch2b"
  type: "Convolution"
  bottom: "res3a_branch2a"
  top: "res3a_branch2b"
  param {
    name: "res3a_branch2b_0"
    lr_mult: 1
    decay_mult: 1
  }
  convolution_param {
    num_output: 128
    bias_term: false
    pad: 1
    kernel_size: 3
    stride: 1
  }
}
layer {
  name: "bn3a_branch2b"
  type: "BatchNorm"
  bottom: "res3a_branch2b"
  top: "res3a_branch2b"
  param {
    name: "bn3a_branch2b_0"
    lr_mult: 0
  }
  param {
    name: "bn3a_branch2b_1"
    lr_mult: 0
  }
  param {
    name: "bn3a_branch2b_2"
    lr_mult: 0
  }
  batch_norm_param {
    use_global_stats: true
  }
}
layer {
  name: "scale3a_branch2b"
  type: "Scale"
  bottom: "res3a_branch2b"
  top: "res3a_branch2b"
  param {
    name: "scale3a_branch2b_0"
    lr_mult: 0
  }
  param {
    name: "scale3a_branch2b_1"
    lr_mult: 0
  }
  scale_param {
    bias_term: true
  }
}
layer {
  name: "res3a_branch2b_relu"
  type: "ReLU"
  bottom: "res3a_branch2b"
  top: "res3a_branch2b"
}
layer {
  name: "res3a_branch2c"
  type: "Convolution"
  bottom: "res3a_branch2b"
  top: "res3a_branch2c"
  param {
    name: "res3a_branch2c_0"
    lr_mult: 1
    decay_mult: 1
  }
  convolution_param {
    num_output: 512
    bias_term: false
    pad: 0
    kernel_size: 1
    stride: 1
  }
}
layer {
  name: "bn3a_branch2c"
  type: "BatchNorm"
  bottom: "res3a_branch2c"
  top: "res3a_branch2c"
  param {
    name: "bn3a_branch2c_0"
    lr_mult: 0
  }
  param {
    name: "bn3a_branch2c_1"
    lr_mult: 0
  }
  param {
    name: "bn3a_branch2c_2"
    lr_mult: 0
  }
  batch_norm_param {
    use_global_stats: true
  }
}
layer {
  name: "scale3a_branch2c"
  type: "Scale"
  bottom: "res3a_branch2c"
  top: "res3a_branch2c"
  param {
    name: "scale3a_branch2c_0"
    lr_mult: 0
  }
  param {
    name: "scale3a_branch2c_1"
    lr_mult: 0
  }
  scale_param {
    bias_term: true
  }
}
layer {
  name: "res3a"
  type: "Eltwise"
  bottom: "res3a_branch1"
  bottom: "res3a_branch2c"
  top: "res3a"
}
layer {
  name: "res3a_relu"
  type: "ReLU"
  bottom: "res3a"
  top: "res3a"
}
layer {
  name: "res3b1_branch2a"
  type: "Convolution"
  bottom: "res3a"
  top: "res3b1_branch2a"
  param {
    name: "res3b1_branch2a_0"
    lr_mult: 1
    decay_mult: 1
  }
  convolution_param {
    num_output: 128
    bias_term: false
    pad: 0
    kernel_size: 1
    stride: 1
  }
}
layer {
  name: "bn3b1_branch2a"
  type: "BatchNorm"
  bottom: "res3b1_branch2a"
  top: "res3b1_branch2a"
  param {
    name: "bn3b1_branch2a_0"
    lr_mult: 0
  }
  param {
    name: "bn3b1_branch2a_1"
    lr_mult: 0
  }
  param {
    name: "bn3b1_branch2a_2"
    lr_mult: 0
  }
  batch_norm_param {
    use_global_stats: true
  }
}
layer {
  name: "scale3b1_branch2a"
  type: "Scale"
  bottom: "res3b1_branch2a"
  top: "res3b1_branch2a"
  param {
    name: "scale3b1_branch2a_0"
    lr_mult: 0
  }
  param {
    name: "scale3b1_branch2a_1"
    lr_mult: 0
  }
  scale_param {
    bias_term: true
  }
}
layer {
  name: "res3b1_branch2a_relu"
  type: "ReLU"
  bottom: "res3b1_branch2a"
  top: "res3b1_branch2a"
}
layer {
  name: "res3b1_branch2b"
  type: "Convolution"
  bottom: "res3b1_branch2a"
  top: "res3b1_branch2b"
  param {
    name: "res3b1_branch2b_0"
    lr_mult: 1
    decay_mult: 1
  }
  convolution_param {
    num_output: 128
    bias_term: false
    pad: 1
    kernel_size: 3
    stride: 1
  }
}
layer {
  name: "bn3b1_branch2b"
  type: "BatchNorm"
  bottom: "res3b1_branch2b"
  top: "res3b1_branch2b"
  param {
    name: "bn3b1_branch2b_0"
    lr_mult: 0
  }
  param {
    name: "bn3b1_branch2b_1"
    lr_mult: 0
  }
  param {
    name: "bn3b1_branch2b_2"
    lr_mult: 0
  }
  batch_norm_param {
    use_global_stats: true
  }
}
layer {
  name: "scale3b1_branch2b"
  type: "Scale"
  bottom: "res3b1_branch2b"
  top: "res3b1_branch2b"
  param {
    name: "scale3b1_branch2b_0"
    lr_mult: 0
  }
  param {
    name: "scale3b1_branch2b_1"
    lr_mult: 0
  }
  scale_param {
    bias_term: true
  }
}
layer {
  name: "res3b1_branch2b_relu"
  type: "ReLU"
  bottom: "res3b1_branch2b"
  top: "res3b1_branch2b"
}
layer {
  name: "res3b1_branch2c"
  type: "Convolution"
  bottom: "res3b1_branch2b"
  top: "res3b1_branch2c"
  param {
    name: "res3b1_branch2c_0"
    lr_mult: 1
    decay_mult: 1
  }
  convolution_param {
    num_output: 512
    bias_term: false
    pad: 0
    kernel_size: 1
    stride: 1
  }
}
layer {
  name: "bn3b1_branch2c"
  type: "BatchNorm"
  bottom: "res3b1_branch2c"
  top: "res3b1_branch2c"
  param {
    name: "bn3b1_branch2c_0"
    lr_mult: 0
  }
  param {
    name: "bn3b1_branch2c_1"
    lr_mult: 0
  }
  param {
    name: "bn3b1_branch2c_2"
    lr_mult: 0
  }
  batch_norm_param {
    use_global_stats: true
  }
}
layer {
  name: "scale3b1_branch2c"
  type: "Scale"
  bottom: "res3b1_branch2c"
  top: "res3b1_branch2c"
  param {
    name: "scale3b1_branch2c_0"
    lr_mult: 0
  }
  param {
    name: "scale3b1_branch2c_1"
    lr_mult: 0
  }
  scale_param {
    bias_term: true
  }
}
layer {
  name: "res3b1"
  type: "Eltwise"
  bottom: "res3a"
  bottom: "res3b1_branch2c"
  top: "res3b1"
}
layer {
  name: "res3b1_relu"
  type: "ReLU"
  bottom: "res3b1"
  top: "res3b1"
}
layer {
  name: "res3b2_branch2a"
  type: "Convolution"
  bottom: "res3b1"
  top: "res3b2_branch2a"
  param {
    name: "res3b2_branch2a_0"
    lr_mult: 1
    decay_mult: 1
  }
  convolution_param {
    num_output: 128
    bias_term: false
    pad: 0
    kernel_size: 1
    stride: 1
  }
}
layer {
  name: "bn3b2_branch2a"
  type: "BatchNorm"
  bottom: "res3b2_branch2a"
  top: "res3b2_branch2a"
  param {
    name: "bn3b2_branch2a_0"
    lr_mult: 0
  }
  param {
    name: "bn3b2_branch2a_1"
    lr_mult: 0
  }
  param {
    name: "bn3b2_branch2a_2"
    lr_mult: 0
  }
  batch_norm_param {
    use_global_stats: true
  }
}
layer {
  name: "scale3b2_branch2a"
  type: "Scale"
  bottom: "res3b2_branch2a"
  top: "res3b2_branch2a"
  param {
    name: "scale3b2_branch2a_0"
    lr_mult: 0
  }
  param {
    name: "scale3b2_branch2a_1"
    lr_mult: 0
  }
  scale_param {
    bias_term: true
  }
}
layer {
  name: "res3b2_branch2a_relu"
  type: "ReLU"
  bottom: "res3b2_branch2a"
  top: "res3b2_branch2a"
}
layer {
  name: "res3b2_branch2b"
  type: "Convolution"
  bottom: "res3b2_branch2a"
  top: "res3b2_branch2b"
  param {
    name: "res3b2_branch2b_0"
    lr_mult: 1
    decay_mult: 1
  }
  convolution_param {
    num_output: 128
    bias_term: false
    pad: 1
    kernel_size: 3
    stride: 1
  }
}
layer {
  name: "bn3b2_branch2b"
  type: "BatchNorm"
  bottom: "res3b2_branch2b"
  top: "res3b2_branch2b"
  param {
    name: "bn3b2_branch2b_0"
    lr_mult: 0
  }
  param {
    name: "bn3b2_branch2b_1"
    lr_mult: 0
  }
  param {
    name: "bn3b2_branch2b_2"
    lr_mult: 0
  }
  batch_norm_param {
    use_global_stats: true
  }
}
layer {
  name: "scale3b2_branch2b"
  type: "Scale"
  bottom: "res3b2_branch2b"
  top: "res3b2_branch2b"
  param {
    name: "scale3b2_branch2b_0"
    lr_mult: 0
  }
  param {
    name: "scale3b2_branch2b_1"
    lr_mult: 0
  }
  scale_param {
    bias_term: true
  }
}
layer {
  name: "res3b2_branch2b_relu"
  type: "ReLU"
  bottom: "res3b2_branch2b"
  top: "res3b2_branch2b"
}
layer {
  name: "res3b2_branch2c"
  type: "Convolution"
  bottom: "res3b2_branch2b"
  top: "res3b2_branch2c"
  param {
    name: "res3b2_branch2c_0"
    lr_mult: 1
    decay_mult: 1
  }
  convolution_param {
    num_output: 512
    bias_term: false
    pad: 0
    kernel_size: 1
    stride: 1
  }
}
layer {
  name: "bn3b2_branch2c"
  type: "BatchNorm"
  bottom: "res3b2_branch2c"
  top: "res3b2_branch2c"
  param {
    name: "bn3b2_branch2c_0"
    lr_mult: 0
  }
  param {
    name: "bn3b2_branch2c_1"
    lr_mult: 0
  }
  param {
    name: "bn3b2_branch2c_2"
    lr_mult: 0
  }
  batch_norm_param {
    use_global_stats: true
  }
}
layer {
  name: "scale3b2_branch2c"
  type: "Scale"
  bottom: "res3b2_branch2c"
  top: "res3b2_branch2c"
  param {
    name: "scale3b2_branch2c_0"
    lr_mult: 0
  }
  param {
    name: "scale3b2_branch2c_1"
    lr_mult: 0
  }
  scale_param {
    bias_term: true
  }
}
layer {
  name: "res3b2"
  type: "Eltwise"
  bottom: "res3b1"
  bottom: "res3b2_branch2c"
  top: "res3b2"
}
layer {
  name: "res3b2_relu"
  type: "ReLU"
  bottom: "res3b2"
  top: "res3b2"
}
layer {
  name: "res3b3_branch2a"
  type: "Convolution"
  bottom: "res3b2"
  top: "res3b3_branch2a"
  param {
    name: "res3b3_branch2a_0"
    lr_mult: 1
    decay_mult: 1
  }
  convolution_param {
    num_output: 128
    bias_term: false
    pad: 0
    kernel_size: 1
    stride: 1
  }
}
layer {
  name: "bn3b3_branch2a"
  type: "BatchNorm"
  bottom: "res3b3_branch2a"
  top: "res3b3_branch2a"
  param {
    name: "bn3b3_branch2a_0"
    lr_mult: 0
  }
  param {
    name: "bn3b3_branch2a_1"
    lr_mult: 0
  }
  param {
    name: "bn3b3_branch2a_2"
    lr_mult: 0
  }
  batch_norm_param {
    use_global_stats: true
  }
}
layer {
  name: "scale3b3_branch2a"
  type: "Scale"
  bottom: "res3b3_branch2a"
  top: "res3b3_branch2a"
  param {
    name: "scale3b3_branch2a_0"
    lr_mult: 0
  }
  param {
    name: "scale3b3_branch2a_1"
    lr_mult: 0
  }
  scale_param {
    bias_term: true
  }
}
layer {
  name: "res3b3_branch2a_relu"
  type: "ReLU"
  bottom: "res3b3_branch2a"
  top: "res3b3_branch2a"
}
layer {
  name: "res3b3_branch2b"
  type: "Convolution"
  bottom: "res3b3_branch2a"
  top: "res3b3_branch2b"
  param {
    name: "res3b3_branch2b_0"
    lr_mult: 1
    decay_mult: 1
  }
  convolution_param {
    num_output: 128
    bias_term: false
    pad: 1
    kernel_size: 3
    stride: 1
  }
}
layer {
  name: "bn3b3_branch2b"
  type: "BatchNorm"
  bottom: "res3b3_branch2b"
  top: "res3b3_branch2b"
  param {
    name: "bn3b3_branch2b_0"
    lr_mult: 0
  }
  param {
    name: "bn3b3_branch2b_1"
    lr_mult: 0
  }
  param {
    name: "bn3b3_branch2b_2"
    lr_mult: 0
  }
  batch_norm_param {
    use_global_stats: true
  }
}
layer {
  name: "scale3b3_branch2b"
  type: "Scale"
  bottom: "res3b3_branch2b"
  top: "res3b3_branch2b"
  param {
    name: "scale3b3_branch2b_0"
    lr_mult: 0
  }
  param {
    name: "scale3b3_branch2b_1"
    lr_mult: 0
  }
  scale_param {
    bias_term: true
  }
}
layer {
  name: "res3b3_branch2b_relu"
  type: "ReLU"
  bottom: "res3b3_branch2b"
  top: "res3b3_branch2b"
}
layer {
  name: "res3b3_branch2c"
  type: "Convolution"
  bottom: "res3b3_branch2b"
  top: "res3b3_branch2c"
  param {
    name: "res3b3_branch2c_0"
    lr_mult: 1
    decay_mult: 1
  }
  convolution_param {
    num_output: 512
    bias_term: false
    pad: 0
    kernel_size: 1
    stride: 1
  }
}
layer {
  name: "bn3b3_branch2c"
  type: "BatchNorm"
  bottom: "res3b3_branch2c"
  top: "res3b3_branch2c"
  param {
    name: "bn3b3_branch2c_0"
    lr_mult: 0
  }
  param {
    name: "bn3b3_branch2c_1"
    lr_mult: 0
  }
  param {
    name: "bn3b3_branch2c_2"
    lr_mult: 0
  }
  batch_norm_param {
    use_global_stats: true
  }
}
layer {
  name: "scale3b3_branch2c"
  type: "Scale"
  bottom: "res3b3_branch2c"
  top: "res3b3_branch2c"
  param {
    name: "scale3b3_branch2c_0"
    lr_mult: 0
  }
  param {
    name: "scale3b3_branch2c_1"
    lr_mult: 0
  }
  scale_param {
    bias_term: true
  }
}
layer {
  name: "res3b3"
  type: "Eltwise"
  bottom: "res3b2"
  bottom: "res3b3_branch2c"
  top: "res3b3"
}
layer {
  name: "res3b3_relu"
  type: "ReLU"
  bottom: "res3b3"
  top: "res3b3"
}
layer {
  name: "res4a_branch1"
  type: "Convolution"
  bottom: "res3b3"
  top: "res4a_branch1"
  param {
    name: "res4a_branch1_0"
    lr_mult: 1
    decay_mult: 1
  }
  convolution_param {
    num_output: 1024
    bias_term: false
    pad: 0
    kernel_size: 1
    stride: 1
  }
}
layer {
  name: "bn4a_branch1"
  type: "BatchNorm"
  bottom: "res4a_branch1"
  top: "res4a_branch1"
  param {
    name: "bn4a_branch1_0"
    lr_mult: 0
  }
  param {
    name: "bn4a_branch1_1"
    lr_mult: 0
  }
  param {
    name: "bn4a_branch1_2"
    lr_mult: 0
  }
  batch_norm_param {
    use_global_stats: true
  }
}
layer {
  name: "scale4a_branch1"
  type: "Scale"
  bottom: "res4a_branch1"
  top: "res4a_branch1"
  param {
    name: "scale4a_branch1_0"
    lr_mult: 0
  }
  param {
    name: "scale4a_branch1_1"
    lr_mult: 0
  }
  scale_param {
    bias_term: true
  }
}
layer {
  name: "res4a_branch2a"
  type: "Convolution"
  bottom: "res3b3"
  top: "res4a_branch2a"
  param {
    name: "res4a_branch2a_0"
    lr_mult: 1
    decay_mult: 1
  }
  convolution_param {
    num_output: 256
    bias_term: false
    pad: 0
    kernel_size: 1
    stride: 1
  }
}
layer {
  name: "bn4a_branch2a"
  type: "BatchNorm"
  bottom: "res4a_branch2a"
  top: "res4a_branch2a"
  param {
    name: "bn4a_branch2a_0"
    lr_mult: 0
  }
  param {
    name: "bn4a_branch2a_1"
    lr_mult: 0
  }
  param {
    name: "bn4a_branch2a_2"
    lr_mult: 0
  }
  batch_norm_param {
    use_global_stats: true
  }
}
layer {
  name: "scale4a_branch2a"
  type: "Scale"
  bottom: "res4a_branch2a"
  top: "res4a_branch2a"
  param {
    name: "scale4a_branch2a_0"
    lr_mult: 0
  }
  param {
    name: "scale4a_branch2a_1"
    lr_mult: 0
  }
  scale_param {
    bias_term: true
  }
}
layer {
  name: "res4a_branch2a_relu"
  type: "ReLU"
  bottom: "res4a_branch2a"
  top: "res4a_branch2a"
}
layer {
  name: "res4a_branch2b"
  type: "Convolution"
  bottom: "res4a_branch2a"
  top: "res4a_branch2b"
  param {
    name: "res4a_branch2b_0"
    lr_mult: 1
    decay_mult: 1
  }
  convolution_param {
    num_output: 256
    bias_term: false
    pad: 2
    kernel_size: 3
    stride: 1
    dilation: 2
  }
}
layer {
  name: "bn4a_branch2b"
  type: "BatchNorm"
  bottom: "res4a_branch2b"
  top: "res4a_branch2b"
  param {
    name: "bn4a_branch2b_0"
    lr_mult: 0
  }
  param {
    name: "bn4a_branch2b_1"
    lr_mult: 0
  }
  param {
    name: "bn4a_branch2b_2"
    lr_mult: 0
  }
  batch_norm_param {
    use_global_stats: true
  }
}
layer {
  name: "scale4a_branch2b"
  type: "Scale"
  bottom: "res4a_branch2b"
  top: "res4a_branch2b"
  param {
    name: "scale4a_branch2b_0"
    lr_mult: 0
  }
  param {
    name: "scale4a_branch2b_1"
    lr_mult: 0
  }
  scale_param {
    bias_term: true
  }
}
layer {
  name: "res4a_branch2b_relu"
  type: "ReLU"
  bottom: "res4a_branch2b"
  top: "res4a_branch2b"
}
layer {
  name: "res4a_branch2c"
  type: "Convolution"
  bottom: "res4a_branch2b"
  top: "res4a_branch2c"
  param {
    name: "res4a_branch2c_0"
    lr_mult: 1
    decay_mult: 1
  }
  convolution_param {
    num_output: 1024
    bias_term: false
    pad: 0
    kernel_size: 1
    stride: 1
  }
}
layer {
  name: "bn4a_branch2c"
  type: "BatchNorm"
  bottom: "res4a_branch2c"
  top: "res4a_branch2c"
  param {
    name: "bn4a_branch2c_0"
    lr_mult: 0
  }
  param {
    name: "bn4a_branch2c_1"
    lr_mult: 0
  }
  param {
    name: "bn4a_branch2c_2"
    lr_mult: 0
  }
  batch_norm_param {
    use_global_stats: true
  }
}
layer {
  name: "scale4a_branch2c"
  type: "Scale"
  bottom: "res4a_branch2c"
  top: "res4a_branch2c"
  param {
    name: "scale4a_branch2c_0"
    lr_mult: 0
  }
  param {
    name: "scale4a_branch2c_1"
    lr_mult: 0
  }
  scale_param {
    bias_term: true
  }
}
layer {
  name: "res4a"
  type: "Eltwise"
  bottom: "res4a_branch1"
  bottom: "res4a_branch2c"
  top: "res4a"
}
layer {
  name: "res4a_relu"
  type: "ReLU"
  bottom: "res4a"
  top: "res4a"
}
layer {
  name: "res4b1_branch2a"
  type: "Convolution"
  bottom: "res4a"
  top: "res4b1_branch2a"
  param {
    name: "res4b1_branch2a_0"
    lr_mult: 1
    decay_mult: 1
  }
  convolution_param {
    num_output: 256
    bias_term: false
    pad: 0
    kernel_size: 1
    stride: 1
  }
}
layer {
  name: "bn4b1_branch2a"
  type: "BatchNorm"
  bottom: "res4b1_branch2a"
  top: "res4b1_branch2a"
  param {
    name: "bn4b1_branch2a_0"
    lr_mult: 0
  }
  param {
    name: "bn4b1_branch2a_1"
    lr_mult: 0
  }
  param {
    name: "bn4b1_branch2a_2"
    lr_mult: 0
  }
  batch_norm_param {
    use_global_stats: true
  }
}
layer {
  name: "scale4b1_branch2a"
  type: "Scale"
  bottom: "res4b1_branch2a"
  top: "res4b1_branch2a"
  param {
    name: "scale4b1_branch2a_0"
    lr_mult: 0
  }
  param {
    name: "scale4b1_branch2a_1"
    lr_mult: 0
  }
  scale_param {
    bias_term: true
  }
}
layer {
  name: "res4b1_branch2a_relu"
  type: "ReLU"
  bottom: "res4b1_branch2a"
  top: "res4b1_branch2a"
}
layer {
  name: "res4b1_branch2b"
  type: "Convolution"
  bottom: "res4b1_branch2a"
  top: "res4b1_branch2b"
  param {
    name: "res4b1_branch2b_0"
    lr_mult: 1
    decay_mult: 1
  }
  convolution_param {
    num_output: 256
    bias_term: false
    pad: 2
    kernel_size: 3
    stride: 1
    
I0711 15:34:37.038236 21326 layer_factory.hpp:77] Creating layer data
I0711 15:34:37.038285 21326 net.cpp:91] Creating Layer data
I0711 15:34:37.038295 21326 net.cpp:399] data -> data
I0711 15:34:37.038326 21326 net.cpp:399] data -> label
I0711 15:34:37.038702 21326 image_seg_data_layer.cpp:45] Opening file data/VOC_arg/train.txt
I0711 15:34:37.054528 21326 image_seg_data_layer.cpp:101] Shuffling data
I0711 15:34:37.054735 21326 image_seg_data_layer.cpp:106] A total of 10582 images.
I0711 15:34:37.068579 21326 image_seg_data_layer.cpp:179] output data size: 1,3,480,480
I0711 15:34:37.068598 21326 image_seg_data_layer.cpp:183] output label size: 1,1,480,480
I0711 15:34:37.082883 21326 net.cpp:141] Setting up data
I0711 15:34:37.082919 21326 net.cpp:148] Top shape: 1 3 480 480 (691200)
I0711 15:34:37.082938 21326 net.cpp:148] Top shape: 1 1 480 480 (230400)
I0711 15:34:37.082947 21326 net.cpp:156] Memory required for data: 3686400
I0711 15:34:37.082958 21326 layer_factory.hpp:77] Creating layer conv1
I0711 15:34:37.082983 21326 net.cpp:91] Creating Layer conv1
I0711 15:34:37.082989 21326 net.cpp:425] conv1 <- data
I0711 15:34:37.083008 21326 net.cpp:399] conv1 -> conv1
I0711 15:34:37.084446 21326 net.cpp:141] Setting up conv1
I0711 15:34:37.084482 21326 net.cpp:148] Top shape: 1 64 240 240 (3686400)
I0711 15:34:37.084488 21326 net.cpp:156] Memory required for data: 18432000
I0711 15:34:37.084501 21326 layer_factory.hpp:77] Creating layer bn_conv1
I0711 15:34:37.084519 21326 net.cpp:91] Creating Layer bn_conv1
I0711 15:34:37.084524 21326 net.cpp:425] bn_conv1 <- conv1
I0711 15:34:37.084533 21326 net.cpp:386] bn_conv1 -> conv1 (in-place)
I0711 15:34:37.086223 21326 net.cpp:141] Setting up bn_conv1
I0711 15:34:37.086241 21326 net.cpp:148] Top shape: 1 64 240 240 (3686400)
I0711 15:34:37.086246 21326 net.cpp:156] Memory required for data: 33177600
I0711 15:34:37.086261 21326 layer_factory.hpp:77] Creating layer scale_conv1
I0711 15:34:37.086278 21326 net.cpp:91] Creating Layer scale_conv1
I0711 15:34:37.086283 21326 net.cpp:425] scale_conv1 <- conv1
I0711 15:34:37.086290 21326 net.cpp:386] scale_conv1 -> conv1 (in-place)
I0711 15:34:37.086338 21326 layer_factory.hpp:77] Creating layer scale_conv1
I0711 15:34:37.086551 21326 net.cpp:141] Setting up scale_conv1
I0711 15:34:37.086565 21326 net.cpp:148] Top shape: 1 64 240 240 (3686400)
I0711 15:34:37.086575 21326 net.cpp:156] Memory required for data: 47923200
I0711 15:34:37.086585 21326 layer_factory.hpp:77] Creating layer conv1_relu
I0711 15:34:37.086596 21326 net.cpp:91] Creating Layer conv1_relu
I0711 15:34:37.086601 21326 net.cpp:425] conv1_relu <- conv1
I0711 15:34:37.086608 21326 net.cpp:386] conv1_relu -> conv1 (in-place)
I0711 15:34:37.086624 21326 net.cpp:141] Setting up conv1_relu
I0711 15:34:37.086632 21326 net.cpp:148] Top shape: 1 64 240 240 (3686400)
I0711 15:34:37.086637 21326 net.cpp:156] Memory required for data: 62668800
I0711 15:34:37.086640 21326 layer_factory.hpp:77] Creating layer pool1
I0711 15:34:37.086649 21326 net.cpp:91] Creating Layer pool1
I0711 15:34:37.086654 21326 net.cpp:425] pool1 <- conv1
I0711 15:34:37.086661 21326 net.cpp:399] pool1 -> pool1
I0711 15:34:37.086711 21326 net.cpp:141] Setting up pool1
I0711 15:34:37.086720 21326 net.cpp:148] Top shape: 1 64 120 120 (921600)
I0711 15:34:37.086724 21326 net.cpp:156] Memory required for data: 66355200
I0711 15:34:37.086730 21326 layer_factory.hpp:77] Creating layer pool1_pool1_0_split
I0711 15:34:37.086736 21326 net.cpp:91] Creating Layer pool1_pool1_0_split
I0711 15:34:37.086742 21326 net.cpp:425] pool1_pool1_0_split <- pool1
I0711 15:34:37.086750 21326 net.cpp:399] pool1_pool1_0_split -> pool1_pool1_0_split_0
I0711 15:34:37.086760 21326 net.cpp:399] pool1_pool1_0_split -> pool1_pool1_0_split_1
I0711 15:34:37.086801 21326 net.cpp:141] Setting up pool1_pool1_0_split
I0711 15:34:37.086809 21326 net.cpp:148] Top shape: 1 64 120 120 (921600)
I0711 15:34:37.086815 21326 net.cpp:148] Top shape: 1 64 120 120 (921600)
I0711 15:34:37.086819 21326 net.cpp:156] Memory required for data: 73728000
I0711 15:34:37.086823 21326 layer_factory.hpp:77] Creating layer res2a_branch1
I0711 15:34:37.086834 21326 net.cpp:91] Creating Layer res2a_branch1
I0711 15:34:37.086840 21326 net.cpp:425] res2a_branch1 <- pool1_pool1_0_split_0
I0711 15:34:37.086848 21326 net.cpp:399] res2a_branch1 -> res2a_branch1
I0711 15:34:37.087016 21326 net.cpp:141] Setting up res2a_branch1
I0711 15:34:37.087028 21326 net.cpp:148] Top shape: 1 256 120 120 (3686400)
I0711 15:34:37.087033 21326 net.cpp:156] Memory required for data: 88473600
I0711 15:34:37.087039 21326 layer_factory.hpp:77] Creating layer bn2a_branch1
I0711 15:34:37.087050 21326 net.cpp:91] Creating Layer bn2a_branch1
I0711 15:34:37.087056 21326 net.cpp:425] bn2a_branch1 <- res2a_branch1
I0711 15:34:37.087064 21326 net.cpp:386] bn2a_branch1 -> res2a_branch1 (in-place)
I0711 15:34:37.087229 21326 net.cpp:141] Setting up bn2a_branch1
I0711 15:34:37.087239 21326 net.cpp:148] Top shape: 1 256 120 120 (3686400)
I0711 15:34:37.087244 21326 net.cpp:156] Memory required for data: 103219200
I0711 15:34:37.087255 21326 layer_factory.hpp:77] Creating layer scale2a_branch1
I0711 15:34:37.087265 21326 net.cpp:91] Creating Layer scale2a_branch1
I0711 15:34:37.087271 21326 net.cpp:425] scale2a_branch1 <- res2a_branch1
I0711 15:34:37.087280 21326 net.cpp:386] scale2a_branch1 -> res2a_branch1 (in-place)
I0711 15:34:37.087319 21326 layer_factory.hpp:77] Creating layer scale2a_branch1
I0711 15:34:37.087440 21326 net.cpp:141] Setting up scale2a_branch1
I0711 15:34:37.087450 21326 net.cpp:148] Top shape: 1 256 120 120 (3686400)
I0711 15:34:37.087455 21326 net.cpp:156] Memory required for data: 117964800
I0711 15:34:37.087463 21326 layer_factory.hpp:77] Creating layer res2a_branch2a
I0711 15:34:37.087474 21326 net.cpp:91] Creating Layer res2a_branch2a
I0711 15:34:37.087481 21326 net.cpp:425] res2a_branch2a <- pool1_pool1_0_split_1
I0711 15:34:37.087488 21326 net.cpp:399] res2a_branch2a -> res2a_branch2a
I0711 15:34:37.090369 21326 net.cpp:141] Setting up res2a_branch2a
I0711 15:34:37.090390 21326 net.cpp:148] Top shape: 1 64 120 120 (921600)
I0711 15:34:37.090396 21326 net.cpp:156] Memory required for data: 121651200
I0711 15:34:37.090404 21326 layer_factory.hpp:77] Creating layer bn2a_branch2a
I0711 15:34:37.090428 21326 net.cpp:91] Creating Layer bn2a_branch2a
I0711 15:34:37.090435 21326 net.cpp:425] bn2a_branch2a <- res2a_branch2a
I0711 15:34:37.090443 21326 net.cpp:386] bn2a_branch2a -> res2a_branch2a (in-place)
I0711 15:34:37.090699 21326 net.cpp:141] Setting up bn2a_branch2a
I0711 15:34:37.090713 21326 net.cpp:148] Top shape: 1 64 120 120 (921600)
I0711 15:34:37.090718 21326 net.cpp:156] Memory required for data: 125337600
I0711 15:34:37.090729 21326 layer_factory.hpp:77] Creating layer scale2a_branch2a
I0711 15:34:37.090741 21326 net.cpp:91] Creating Layer scale2a_branch2a
I0711 15:34:37.090747 21326 net.cpp:425] scale2a_branch2a <- res2a_branch2a
I0711 15:34:37.090754 21326 net.cpp:386] scale2a_branch2a -> res2a_branch2a (in-place)
I0711 15:34:37.091092 21326 layer_factory.hpp:77] Creating layer scale2a_branch2a
I0711 15:34:37.091238 21326 net.cpp:141] Setting up scale2a_branch2a
I0711 15:34:37.091249 21326 net.cpp:148] Top shape: 1 64 120 120 (921600)
I0711 15:34:37.091255 21326 net.cpp:156] Memory required for data: 129024000
I0711 15:34:37.091269 21326 layer_factory.hpp:77] Creating layer res2a_branch2a_relu
I0711 15:34:37.091279 21326 net.cpp:91] Creating Layer res2a_branch2a_relu
I0711 15:34:37.091284 21326 net.cpp:425] res2a_branch2a_relu <- res2a_branch2a
I0711 15:34:37.091291 21326 net.cpp:386] res2a_branch2a_relu -> res2a_branch2a (in-place)
I0711 15:34:37.091300 21326 net.cpp:141] Setting up res2a_branch2a_relu
I0711 15:34:37.091307 21326 net.cpp:148] Top shape: 1 64 120 120 (921600)
I0711 15:34:37.091311 21326 net.cpp:156] Memory required for data: 132710400
I0711 15:34:37.091315 21326 layer_factory.hpp:77] Creating layer res2a_branch2b
I0711 15:34:37.091325 21326 net.cpp:91] Creating Layer res2a_branch2b
I0711 15:34:37.091331 21326 net.cpp:425] res2a_branch2b <- res2a_branch2a
I0711 15:34:37.091341 21326 net.cpp:399] res2a_branch2b -> res2a_branch2b
I0711 15:34:37.091518 21326 net.cpp:141] Setting up res2a_branch2b
I0711 15:34:37.091531 21326 net.cpp:148] Top shape: 1 64 120 120 (921600)
I0711 15:34:37.091536 21326 net.cpp:156] Memory required for data: 136396800
I0711 15:34:37.091542 21326 layer_factory.hpp:77] Creating layer bn2a_branch2b
I0711 15:34:37.091552 21326 net.cpp:91] Creating Layer bn2a_branch2b
I0711 15:34:37.091557 21326 net.cpp:425] bn2a_branch2b <- res2a_branch2b
I0711 15:34:37.091565 21326 net.cpp:386] bn2a_branch2b -> res2a_branch2b (in-place)
I0711 15:34:37.091742 21326 net.cpp:141] Setting up bn2a_branch2b
I0711 15:34:37.091752 21326 net.cpp:148] Top shape: 1 64 120 120 (921600)
I0711 15:34:37.091756 21326 net.cpp:156] Memory required for data: 140083200
I0711 15:34:37.091764 21326 layer_factory.hpp:77] Creating layer scale2a_branch2b
I0711 15:34:37.091776 21326 net.cpp:91] Creating Layer scale2a_branch2b
I0711 15:34:37.091783 21326 net.cpp:425] scale2a_branch2b <- res2a_branch2b
I0711 15:34:37.091789 21326 net.cpp:386] scale2a_branch2b -> res2a_branch2b (in-place)
I0711 15:34:37.091830 21326 layer_factory.hpp:77] Creating layer scale2a_branch2b
I0711 15:34:37.091956 21326 net.cpp:141] Setting up scale2a_branch2b
I0711 15:34:37.091966 21326 net.cpp:148] Top shape: 1 64 120 120 (921600)
I0711 15:34:37.091972 21326 net.cpp:156] Memory required for data: 143769600
I0711 15:34:37.091979 21326 layer_factory.hpp:77] Creating layer res2a_branch2b_relu
I0711 15:34:37.091989 21326 net.cpp:91] Creating Layer res2a_branch2b_relu
I0711 15:34:37.091994 21326 net.cpp:425] res2a_branch2b_relu <- res2a_branch2b
I0711 15:34:37.092000 21326 net.cpp:386] res2a_branch2b_relu -> res2a_branch2b (in-place)
I0711 15:34:37.092008 21326 net.cpp:141] Setting up res2a_branch2b_relu
I0711 15:34:37.092015 21326 net.cpp:148] Top shape: 1 64 120 120 (921600)
I0711 15:34:37.092020 21326 net.cpp:156] Memory required for data: 147456000
I0711 15:34:37.092022 21326 layer_factory.hpp:77] Creating layer res2a_branch2c
I0711 15:34:37.092032 21326 net.cpp:91] Creating Layer res2a_branch2c
I0711 15:34:37.092037 21326 net.cpp:425] res2a_branch2c <- res2a_branch2b
I0711 15:34:37.092046 21326 net.cpp:399] res2a_branch2c -> res2a_branch2c
I0711 15:34:37.092219 21326 net.cpp:141] Setting up res2a_branch2c
I0711 15:34:37.092231 21326 net.cpp:148] Top shape: 1 256 120 120 (3686400)
I0711 15:34:37.092236 21326 net.cpp:156] Memory required for data: 162201600
I0711 15:34:37.092243 21326 layer_factory.hpp:77] Creating layer bn2a_branch2c
I0711 15:34:37.092254 21326 net.cpp:91] Creating Layer bn2a_branch2c
I0711 15:34:37.092259 21326 net.cpp:425] bn2a_branch2c <- res2a_branch2c
I0711 15:34:37.092267 21326 net.cpp:386] bn2a_branch2c -> res2a_branch2c (in-place)
I0711 15:34:37.092428 21326 net.cpp:141] Setting up bn2a_branch2c
I0711 15:34:37.092438 21326 net.cpp:148] Top shape: 1 256 120 120 (3686400)
I0711 15:34:37.092442 21326 net.cpp:156] Memory required for data: 176947200
I0711 15:34:37.092452 21326 layer_factory.hpp:77] Creating layer scale2a_branch2c
I0711 15:34:37.092473 21326 net.cpp:91] Creating Layer scale2a_branch2c
I0711 15:34:37.092480 21326 net.cpp:425] scale2a_branch2c <- res2a_branch2c
I0711 15:34:37.092492 21326 net.cpp:386] scale2a_branch2c -> res2a_branch2c (in-place)
I0711 15:34:37.092532 21326 layer_factory.hpp:77] Creating layer scale2a_branch2c
I0711 15:34:37.092655 21326 net.cpp:141] Setting up scale2a_branch2c
I0711 15:34:37.092666 21326 net.cpp:148] Top shape: 1 256 120 120 (3686400)
I0711 15:34:37.092671 21326 net.cpp:156] Memory required for data: 191692800
I0711 15:34:37.092686 21326 layer_factory.hpp:77] Creating layer res2a
I0711 15:34:37.092701 21326 net.cpp:91] Creating Layer res2a
I0711 15:34:37.092706 21326 net.cpp:425] res2a <- res2a_branch1
I0711 15:34:37.092712 21326 net.cpp:425] res2a <- res2a_branch2c
I0711 15:34:37.092720 21326 net.cpp:399] res2a -> res2a
I0711 15:34:37.092753 21326 net.cpp:141] Setting up res2a
I0711 15:34:37.092762 21326 net.cpp:148] Top shape: 1 256 120 120 (3686400)
I0711 15:34:37.092768 21326 net.cpp:156] Memory required for data: 206438400
I0711 15:34:37.092772 21326 layer_factory.hpp:77] Creating layer res2a_relu
I0711 15:34:37.092779 21326 net.cpp:91] Creating Layer res2a_relu
I0711 15:34:37.092785 21326 net.cpp:425] res2a_relu <- res2a
I0711 15:34:37.092792 21326 net.cpp:386] res2a_relu -> res2a (in-place)
I0711 15:34:37.092800 21326 net.cpp:141] Setting up res2a_relu
I0711 15:34:37.092806 21326 net.cpp:148] Top shape: 1 256 120 120 (3686400)
I0711 15:34:37.092810 21326 net.cpp:156] Memory required for data: 221184000
I0711 15:34:37.092814 21326 layer_factory.hpp:77] Creating layer res2a_res2a_relu_0_split
I0711 15:34:37.092821 21326 net.cpp:91] Creating Layer res2a_res2a_relu_0_split
I0711 15:34:37.092825 21326 net.cpp:425] res2a_res2a_relu_0_split <- res2a
I0711 15:34:37.092831 21326 net.cpp:399] res2a_res2a_relu_0_split -> res2a_res2a_relu_0_split_0
I0711 15:34:37.092840 21326 net.cpp:399] res2a_res2a_relu_0_split -> res2a_res2a_relu_0_split_1
I0711 15:34:37.092874 21326 net.cpp:141] Setting up res2a_res2a_relu_0_split
I0711 15:34:37.092882 21326 net.cpp:148] Top shape: 1 256 120 120 (3686400)
I0711 15:34:37.092887 21326 net.cpp:148] Top shape: 1 256 120 120 (3686400)
I0711 15:34:37.092892 21326 net.cpp:156] Memory required for data: 250675200
I0711 15:34:37.092896 21326 layer_factory.hpp:77] Creating layer res2b_branch2a
I0711 15:34:37.092906 21326 net.cpp:91] Creating Layer res2b_branch2a
I0711 15:34:37.092911 21326 net.cpp:425] res2b_branch2a <- res2a_res2a_relu_0_split_0
I0711 15:34:37.092919 21326 net.cpp:399] res2b_branch2a -> res2b_branch2a
I0711 15:34:37.093086 21326 net.cpp:141] Setting up res2b_branch2a
I0711 15:34:37.093096 21326 net.cpp:148] Top shape: 1 64 120 120 (921600)
I0711 15:34:37.093101 21326 net.cpp:156] Memory required for data: 254361600
I0711 15:34:37.093108 21326 layer_factory.hpp:77] Creating layer bn2b_branch2a
I0711 15:34:37.093117 21326 net.cpp:91] Creating Layer bn2b_branch2a
I0711 15:34:37.093123 21326 net.cpp:425] bn2b_branch2a <- res2b_branch2a
I0711 15:34:37.093130 21326 net.cpp:386] bn2b_branch2a -> res2b_branch2a (in-place)
I0711 15:34:37.093305 21326 net.cpp:141] Setting up bn2b_branch2a
I0711 15:34:37.093315 21326 net.cpp:148] Top shape: 1 64 120 120 (921600)
I0711 15:34:37.093330 21326 net.cpp:156] Memory required for data: 258048000
I0711 15:34:37.093346 21326 layer_factory.hpp:77] Creating layer scale2b_branch2a
I0711 15:34:37.093358 21326 net.cpp:91] Creating Layer scale2b_branch2a
I0711 15:34:37.093364 21326 net.cpp:425] scale2b_branch2a <- res2b_branch2a
I0711 15:34:37.093371 21326 net.cpp:386] scale2b_branch2a -> res2b_branch2a (in-place)
I0711 15:34:37.093413 21326 layer_factory.hpp:77] Creating layer scale2b_branch2a
I0711 15:34:37.094228 21326 net.cpp:141] Setting up scale2b_branch2a
I0711 15:34:37.094245 21326 net.cpp:148] Top shape: 1 64 120 120 (921600)
I0711 15:34:37.094251 21326 net.cpp:156] Memory required for data: 261734400
I0711 15:34:37.094260 21326 layer_factory.hpp:77] Creating layer res2b_branch2a_relu
I0711 15:34:37.094270 21326 net.cpp:91] Creating Layer res2b_branch2a_relu
I0711 15:34:37.094276 21326 net.cpp:425] res2b_branch2a_relu <- res2b_branch2a
I0711 15:34:37.094283 21326 net.cpp:386] res2b_branch2a_relu -> res2b_branch2a (in-place)
I0711 15:34:37.094293 21326 net.cpp:141] Setting up res2b_branch2a_relu
I0711 15:34:37.094300 21326 net.cpp:148] Top shape: 1 64 120 120 (921600)
I0711 15:34:37.094305 21326 net.cpp:156] Memory required for data: 265420800
I0711 15:34:37.094308 21326 layer_factory.hpp:77] Creating layer res2b_branch2b
I0711 15:34:37.094318 21326 net.cpp:91] Creating Layer res2b_branch2b
I0711 15:34:37.094324 21326 net.cpp:425] res2b_branch2b <- res2b_branch2a
I0711 15:34:37.094332 21326 net.cpp:399] res2b_branch2b -> res2b_branch2b
I0711 15:34:37.094526 21326 net.cpp:141] Setting up res2b_branch2b
I0711 15:34:37.094537 21326 net.cpp:148] Top shape: 1 64 120 120 (921600)
I0711 15:34:37.094542 21326 net.cpp:156] Memory required for data: 269107200
I0711 15:34:37.094549 21326 layer_factory.hpp:77] Creating layer bn2b_branch2b
I0711 15:34:37.094559 21326 net.cpp:91] Creating Layer bn2b_branch2b
I0711 15:34:37.094565 21326 net.cpp:425] bn2b_branch2b <- res2b_branch2b
I0711 15:34:37.094573 21326 net.cpp:386] bn2b_branch2b -> res2b_branch2b (in-place)
I0711 15:34:37.094751 21326 net.cpp:141] Setting up bn2b_branch2b
I0711 15:34:37.094760 21326 net.cpp:148] Top shape: 1 64 120 120 (921600)
I0711 15:34:37.094766 21326 net.cpp:156] Memory required for data: 272793600
I0711 15:34:37.094776 21326 layer_factory.hpp:77] Creating layer scale2b_branch2b
I0711 15:34:37.094785 21326 net.cpp:91] Creating Layer scale2b_branch2b
I0711 15:34:37.094790 21326 net.cpp:425] scale2b_branch2b <- res2b_branch2b
I0711 15:34:37.094797 21326 net.cpp:386] scale2b_branch2b -> res2b_branch2b (in-place)
I0711 15:34:37.094837 21326 layer_factory.hpp:77] Creating layer scale2b_branch2b
I0711 15:34:37.094971 21326 net.cpp:141] Setting up scale2b_branch2b
I0711 15:34:37.094983 21326 net.cpp:148] Top shape: 1 64 120 120 (921600)
I0711 15:34:37.094990 21326 net.cpp:156] Memory required for data: 276480000
I0711 15:34:37.094996 21326 layer_factory.hpp:77] Creating layer res2b_branch2b_relu
I0711 15:34:37.095005 21326 net.cpp:91] Creating Layer res2b_branch2b_relu
I0711 15:34:37.095010 21326 net.cpp:425] res2b_branch2b_relu <- res2b_branch2b
I0711 15:34:37.095016 21326 net.cpp:386] res2b_branch2b_relu -> res2b_branch2b (in-place)
I0711 15:34:37.095023 21326 net.cpp:141] Setting up res2b_branch2b_relu
I0711 15:34:37.095031 21326 net.cpp:148] Top shape: 1 64 120 120 (921600)
I0711 15:34:37.095034 21326 net.cpp:156] Memory required for data: 280166400
I0711 15:34:37.095038 21326 layer_factory.hpp:77] Creating layer res2b_branch2c
I0711 15:34:37.095052 21326 net.cpp:91] Creating Layer res2b_branch2c
I0711 15:34:37.095057 21326 net.cpp:425] res2b_branch2c <- res2b_branch2b
I0711 15:34:37.095067 21326 net.cpp:399] res2b_branch2c -> res2b_branch2c
I0711 15:34:37.095237 21326 net.cpp:141] Setting up res2b_branch2c
I0711 15:34:37.095247 21326 net.cpp:148] Top shape: 1 256 120 120 (3686400)
I0711 15:34:37.095252 21326 net.cpp:156] Memory required for data: 294912000
I0711 15:34:37.095259 21326 layer_factory.hpp:77] Creating layer bn2b_branch2c
I0711 15:34:37.095283 21326 net.cpp:91] Creating Layer bn2b_branch2c
I0711 15:34:37.095288 21326 net.cpp:425] bn2b_branch2c <- res2b_branch2c
I0711 15:34:37.095295 21326 net.cpp:386] bn2b_branch2c -> res2b_branch2c (in-place)
I0711 15:34:37.095464 21326 net.cpp:141] Setting up bn2b_branch2c
I0711 15:34:37.095474 21326 net.cpp:148] Top shape: 1 256 120 120 (3686400)
I0711 15:34:37.095480 21326 net.cpp:156] Memory required for data: 309657600
I0711 15:34:37.095489 21326 layer_factory.hpp:77] Creating layer scale2b_branch2c
I0711 15:34:37.095500 21326 net.cpp:91] Creating Layer scale2b_branch2c
I0711 15:34:37.095505 21326 net.cpp:425] scale2b_branch2c <- res2b_branch2c
I0711 15:34:37.095512 21326 net.cpp:386] scale2b_branch2c -> res2b_branch2c (in-place)
I0711 15:34:37.095556 21326 layer_factory.hpp:77] Creating layer scale2b_branch2c
I0711 15:34:37.095679 21326 net.cpp:141] Setting up scale2b_branch2c
I0711 15:34:37.095690 21326 net.cpp:148] Top shape: 1 256 120 120 (3686400)
I0711 15:34:37.095695 21326 net.cpp:156] Memory required for data: 324403200
I0711 15:34:37.095702 21326 layer_factory.hpp:77] Creating layer res2b
I0711 15:34:37.095710 21326 net.cpp:91] Creating Layer res2b
I0711 15:34:37.095715 21326 net.cpp:425] res2b <- res2a_res2a_relu_0_split_1
I0711 15:34:37.095721 21326 net.cpp:425] res2b <- res2b_branch2c
I0711 15:34:37.095729 21326 net.cpp:399] res2b -> res2b
I0711 15:34:37.095758 21326 net.cpp:141] Setting up res2b
I0711 15:34:37.095768 21326 net.cpp:148] Top shape: 1 256 120 120 (3686400)
I0711 15:34:37.095773 21326 net.cpp:156] Memory required for data: 339148800
I0711 15:34:37.095778 21326 layer_factory.hpp:77] Creating layer res2b_relu
I0711 15:34:37.095784 21326 net.cpp:91] Creating Layer res2b_relu
I0711 15:34:37.095789 21326 net.cpp:425] res2b_relu <- res2b
I0711 15:34:37.095795 21326 net.cpp:386] res2b_relu -> res2b (in-place)
I0711 15:34:37.095803 21326 net.cpp:141] Setting up res2b_relu
I0711 15:34:37.095808 21326 net.cpp:148] Top shape: 1 256 120 120 (3686400)
I0711 15:34:37.095813 21326 net.cpp:156] Memory required for data: 353894400
I0711 15:34:37.095816 21326 layer_factory.hpp:77] Creating layer res2b_res2b_relu_0_split
I0711 15:34:37.095824 21326 net.cpp:91] Creating Layer res2b_res2b_relu_0_split
I0711 15:34:37.095829 21326 net.cpp:425] res2b_res2b_relu_0_split <- res2b
I0711 15:34:37.095835 21326 net.cpp:399] res2b_res2b_relu_0_split -> res2b_res2b_relu_0_split_0
I0711 15:34:37.095842 21326 net.cpp:399] res2b_res2b_relu_0_split -> res2b_res2b_relu_0_split_1
I0711 15:34:37.095876 21326 net.cpp:141] Setting up res2b_res2b_relu_0_split
I0711 15:34:37.095885 21326 net.cpp:148] Top shape: 1 256 120 120 (3686400)
I0711 15:34:37.095890 21326 net.cpp:148] Top shape: 1 256 120 120 (3686400)
I0711 15:34:37.095896 21326 net.cpp:156] Memory required for data: 383385600
I0711 15:34:37.095899 21326 layer_factory.hpp:77] Creating layer res2c_branch2a
I0711 15:34:37.095908 21326 net.cpp:91] Creating Layer res2c_branch2a
I0711 15:34:37.095914 21326 net.cpp:425] res2c_branch2a <- res2b_res2b_relu_0_split_0
I0711 15:34:37.095921 21326 net.cpp:399] res2c_branch2a -> res2c_branch2a
I0711 15:34:37.096091 21326 net.cpp:141] Setting up res2c_branch2a
I0711 15:34:37.096101 21326 net.cpp:148] Top shape: 1 64 120 120 (921600)
I0711 15:34:37.096107 21326 net.cpp:156] Memory required for data: 387072000
I0711 15:34:37.096112 21326 layer_factory.hpp:77] Creating layer bn2c_branch2a
I0711 15:34:37.096120 21326 net.cpp:91] Creating Layer bn2c_branch2a
I0711 15:34:37.096125 21326 net.cpp:425] bn2c_branch2a <- res2c_branch2a
I0711 15:34:37.096134 21326 net.cpp:386] bn2c_branch2a -> res2c_branch2a (in-place)
I0711 15:34:37.096318 21326 net.cpp:141] Setting up bn2c_branch2a
I0711 15:34:37.096328 21326 net.cpp:148] Top shape: 1 64 120 120 (921600)
I0711 15:34:37.096331 21326 net.cpp:156] Memory required for data: 390758400
I0711 15:34:37.096340 21326 layer_factory.hpp:77] Creating layer scale2c_branch2a
I0711 15:34:37.096349 21326 net.cpp:91] Creating Layer scale2c_branch2a
I0711 15:34:37.096355 21326 net.cpp:425] scale2c_branch2a <- res2c_branch2a
I0711 15:34:37.096372 21326 net.cpp:386] scale2c_branch2a -> res2c_branch2a (in-place)
I0711 15:34:37.096416 21326 layer_factory.hpp:77] Creating layer scale2c_branch2a
I0711 15:34:37.096554 21326 net.cpp:141] Setting up scale2c_branch2a
I0711 15:34:37.096566 21326 net.cpp:148] Top shape: 1 64 120 120 (921600)
I0711 15:34:37.096570 21326 net.cpp:156] Memory required for data: 394444800
I0711 15:34:37.096578 21326 layer_factory.hpp:77] Creating layer res2c_branch2a_relu
I0711 15:34:37.096586 21326 net.cpp:91] Creating Layer res2c_branch2a_relu
I0711 15:34:37.096592 21326 net.cpp:425] res2c_branch2a_relu <- res2c_branch2a
I0711 15:34:37.096597 21326 net.cpp:386] res2c_branch2a_relu -> res2c_branch2a (in-place)
I0711 15:34:37.096604 21326 net.cpp:141] Setting up res2c_branch2a_relu
I0711 15:34:37.096611 21326 net.cpp:148] Top shape: 1 64 120 120 (921600)
I0711 15:34:37.096616 21326 net.cpp:156] Memory required for data: 398131200
I0711 15:34:37.096619 21326 layer_factory.hpp:77] Creating layer res2c_branch2b
I0711 15:34:37.096631 21326 net.cpp:91] Creating Layer res2c_branch2b
I0711 15:34:37.096635 21326 net.cpp:425] res2c_branch2b <- res2c_branch2a
I0711 15:34:37.096644 21326 net.cpp:399] res2c_branch2b -> res2c_branch2b
I0711 15:34:37.097594 21326 net.cpp:141] Setting up res2c_branch2b
I0711 15:34:37.097611 21326 net.cpp:148] Top shape: 1 64 120 120 (921600)
I0711 15:34:37.097617 21326 net.cpp:156] Memory required for data: 401817600
I0711 15:34:37.097625 21326 layer_factory.hpp:77] Creating layer bn2c_branch2b
I0711 15:34:37.097635 21326 net.cpp:91] Creating Layer bn2c_branch2b
I0711 15:34:37.097641 21326 net.cpp:425] bn2c_branch2b <- res2c_branch2b
I0711 15:34:37.097648 21326 net.cpp:386] bn2c_branch2b -> res2c_branch2b (in-place)
I0711 15:34:37.097839 21326 net.cpp:141] Setting up bn2c_branch2b
I0711 15:34:37.097851 21326 net.cpp:148] Top shape: 1 64 120 120 (921600)
I0711 15:34:37.097856 21326 net.cpp:156] Memory required for data: 405504000
I0711 15:34:37.097864 21326 layer_factory.hpp:77] Creating layer scale2c_branch2b
I0711 15:34:37.097874 21326 net.cpp:91] Creating Layer scale2c_branch2b
I0711 15:34:37.097880 21326 net.cpp:425] scale2c_branch2b <- res2c_branch2b
I0711 15:34:37.097887 21326 net.cpp:386] scale2c_branch2b -> res2c_branch2b (in-place)
I0711 15:34:37.097930 21326 layer_factory.hpp:77] Creating layer scale2c_branch2b
I0711 15:34:37.098065 21326 net.cpp:141] Setting up scale2c_branch2b
I0711 15:34:37.098076 21326 net.cpp:148] Top shape: 1 64 120 120 (921600)
I0711 15:34:37.098081 21326 net.cpp:156] Memory required for data: 409190400
I0711 15:34:37.098088 21326 layer_factory.hpp:77] Creating layer res2c_branch2b_relu
I0711 15:34:37.098096 21326 net.cpp:91] Creating Layer res2c_branch2b_relu
I0711 15:34:37.098103 21326 net.cpp:425] res2c_branch2b_relu <- res2c_branch2b
I0711 15:34:37.098107 21326 net.cpp:386] res2c_branch2b_relu -> res2c_branch2b (in-place)
I0711 15:34:37.098115 21326 net.cpp:141] Setting up res2c_branch2b_relu
I0711 15:34:37.098121 21326 net.cpp:148] Top shape: 1 64 120 120 (921600)
I0711 15:34:37.098125 21326 net.cpp:156] Memory required for data: 412876800
I0711 15:34:37.098129 21326 layer_factory.hpp:77] Creating layer res2c_branch2c
I0711 15:34:37.098140 21326 net.cpp:91] Creating Layer res2c_branch2c
I0711 15:34:37.098146 21326 net.cpp:425] res2c_branch2c <- res2c_branch2b
I0711 15:34:37.098155 21326 net.cpp:399] res2c_branch2c -> res2c_branch2c
I0711 15:34:37.098330 21326 net.cpp:141] Setting up res2c_branch2c
I0711 15:34:37.098340 21326 net.cpp:148] Top shape: 1 256 120 120 (3686400)
I0711 15:34:37.098345 21326 net.cpp:156] Memory required for data: 427622400
I0711 15:34:37.098351 21326 layer_factory.hpp:77] Creating layer bn2c_branch2c
I0711 15:34:37.098361 21326 net.cpp:91] Creating Layer bn2c_branch2c
I0711 15:34:37.098367 21326 net.cpp:425] bn2c_branch2c <- res2c_branch2c
I0711 15:34:37.098373 21326 net.cpp:386] bn2c_branch2c -> res2c_branch2c (in-place)
I0711 15:34:37.098552 21326 net.cpp:141] Setting up bn2c_branch2c
I0711 15:34:37.098563 21326 net.cpp:148] Top shape: 1 256 120 120 (3686400)
I0711 15:34:37.098578 21326 net.cpp:156] Memory required for data: 442368000
I0711 15:34:37.098588 21326 layer_factory.hpp:77] Creating layer scale2c_branch2c
I0711 15:34:37.098600 21326 net.cpp:91] Creating Layer scale2c_branch2c
I0711 15:34:37.098606 21326 net.cpp:425] scale2c_branch2c <- res2c_branch2c
I0711 15:34:37.098613 21326 net.cpp:386] scale2c_branch2c -> res2c_branch2c (in-place)
I0711 15:34:37.098654 21326 layer_factory.hpp:77] Creating layer scale2c_branch2c
I0711 15:34:37.099731 21326 net.cpp:141] Setting up scale2c_branch2c
I0711 15:34:37.099748 21326 net.cpp:148] Top shape: 1 256 120 120 (3686400)
I0711 15:34:37.099753 21326 net.cpp:156] Memory required for data: 457113600
I0711 15:34:37.099773 21326 layer_factory.hpp:77] Creating layer res2c
I0711 15:34:37.099786 21326 net.cpp:91] Creating Layer res2c
I0711 15:34:37.099792 21326 net.cpp:425] res2c <- res2b_res2b_relu_0_split_1
I0711 15:34:37.099797 21326 net.cpp:425] res2c <- res2c_branch2c
I0711 15:34:37.099802 21326 net.cpp:399] res2c -> res2c
I0711 15:34:37.099830 21326 net.cpp:141] Setting up res2c
I0711 15:34:37.099839 21326 net.cpp:148] Top shape: 1 256 120 120 (3686400)
I0711 15:34:37.099844 21326 net.cpp:156] Memory required for data: 471859200
I0711 15:34:37.099849 21326 layer_factory.hpp:77] Creating layer res2c_relu
I0711 15:34:37.099856 21326 net.cpp:91] Creating Layer res2c_relu
I0711 15:34:37.099861 21326 net.cpp:425] res2c_relu <- res2c
I0711 15:34:37.099869 21326 net.cpp:386] res2c_relu -> res2c (in-place)
I0711 15:34:37.099877 21326 net.cpp:141] Setting up res2c_relu
I0711 15:34:37.099884 21326 net.cpp:148] Top shape: 1 256 120 120 (3686400)
I0711 15:34:37.099889 21326 net.cpp:156] Memory required for data: 486604800
I0711 15:34:37.099892 21326 layer_factory.hpp:77] Creating layer res2c_res2c_relu_0_split
I0711 15:34:37.099898 21326 net.cpp:91] Creating Layer res2c_res2c_relu_0_split
I0711 15:34:37.099902 21326 net.cpp:425] res2c_res2c_relu_0_split <- res2c
I0711 15:34:37.099907 21326 net.cpp:399] res2c_res2c_relu_0_split -> res2c_res2c_relu_0_split_0
I0711 15:34:37.099915 21326 net.cpp:399] res2c_res2c_relu_0_split -> res2c_res2c_relu_0_split_1
I0711 15:34:37.099951 21326 net.cpp:141] Setting up res2c_res2c_relu_0_split
I0711 15:34:37.099959 21326 net.cpp:148] Top shape: 1 256 120 120 (3686400)
I0711 15:34:37.099966 21326 net.cpp:148] Top shape: 1 256 120 120 (3686400)
I0711 15:34:37.099970 21326 net.cpp:156] Memory required for data: 516096000
I0711 15:34:37.099974 21326 layer_factory.hpp:77] Creating layer res3a_branch1
I0711 15:34:37.099983 21326 net.cpp:91] Creating Layer res3a_branch1
I0711 15:34:37.099989 21326 net.cpp:425] res3a_branch1 <- res2c_res2c_relu_0_split_0
I0711 15:34:37.099998 21326 net.cpp:399] res3a_branch1 -> res3a_branch1
I0711 15:34:37.101011 21326 net.cpp:141] Setting up res3a_branch1
I0711 15:34:37.101027 21326 net.cpp:148] Top shape: 1 512 60 60 (1843200)
I0711 15:34:37.101033 21326 net.cpp:156] Memory required for data: 523468800
I0711 15:34:37.101040 21326 layer_factory.hpp:77] Creating layer bn3a_branch1
I0711 15:34:37.101052 21326 net.cpp:91] Creating Layer bn3a_branch1
I0711 15:34:37.101059 21326 net.cpp:425] bn3a_branch1 <- res3a_branch1
I0711 15:34:37.101065 21326 net.cpp:386] bn3a_branch1 -> res3a_branch1 (in-place)
I0711 15:34:37.105234 21326 net.cpp:141] Setting up bn3a_branch1
I0711 15:34:37.105252 21326 net.cpp:148] Top shape: 1 512 60 60 (1843200)
I0711 15:34:37.105262 21326 net.cpp:156] Memory required for data: 530841600
I0711 15:34:37.105273 21326 layer_factory.hpp:77] Creating layer scale3a_branch1
I0711 15:34:37.105289 21326 net.cpp:91] Creating Layer scale3a_branch1
I0711 15:34:37.105295 21326 net.cpp:425] scale3a_branch1 <- res3a_branch1
I0711 15:34:37.105303 21326 net.cpp:386] scale3a_branch1 -> res3a_branch1 (in-place)
I0711 15:34:37.105345 21326 layer_factory.hpp:77] Creating layer scale3a_branch1
I0711 15:34:37.105473 21326 net.cpp:141] Setting up scale3a_branch1
I0711 15:34:37.105485 21326 net.cpp:148] Top shape: 1 512 60 60 (1843200)
I0711 15:34:37.105500 21326 net.cpp:156] Memory required for data: 538214400
I0711 15:34:37.105509 21326 layer_factory.hpp:77] Creating layer res3a_branch2a
I0711 15:34:37.105522 21326 net.cpp:91] Creating Layer res3a_branch2a
I0711 15:34:37.105530 21326 net.cpp:425] res3a_branch2a <- res2c_res2c_relu_0_split_1
I0711 15:34:37.105568 21326 net.cpp:399] res3a_branch2a -> res3a_branch2a
I0711 15:34:37.105851 21326 net.cpp:141] Setting up res3a_branch2a
I0711 15:34:37.105865 21326 net.cpp:148] Top shape: 1 128 60 60 (460800)
I0711 15:34:37.105875 21326 net.cpp:156] Memory required for data: 540057600
I0711 15:34:37.105883 21326 layer_factory.hpp:77] Creating layer bn3a_branch2a
I0711 15:34:37.105900 21326 net.cpp:91] Creating Layer bn3a_branch2a
I0711 15:34:37.105907 21326 net.cpp:425] bn3a_branch2a <- res3a_branch2a
I0711 15:34:37.105913 21326 net.cpp:386] bn3a_branch2a -> res3a_branch2a (in-place)
I0711 15:34:37.106293 21326 net.cpp:141] Setting up bn3a_branch2a
I0711 15:34:37.106307 21326 net.cpp:148] Top shape: 1 128 60 60 (460800)
I0711 15:34:37.106313 21326 net.cpp:156] Memory required for data: 541900800
I0711 15:34:37.106326 21326 layer_factory.hpp:77] Creating layer scale3a_branch2a
I0711 15:34:37.106339 21326 net.cpp:91] Creating Layer scale3a_branch2a
I0711 15:34:37.106346 21326 net.cpp:425] scale3a_branch2a <- res3a_branch2a
I0711 15:34:37.106371 21326 net.cpp:386] scale3a_branch2a -> res3a_branch2a (in-place)
I0711 15:34:37.106448 21326 layer_factory.hpp:77] Creating layer scale3a_branch2a
I0711 15:34:37.106672 21326 net.cpp:141] Setting up scale3a_branch2a
I0711 15:34:37.106683 21326 net.cpp:148] Top shape: 1 128 60 60 (460800)
I0711 15:34:37.106691 21326 net.cpp:156] Memory required for data: 543744000
I0711 15:34:37.106703 21326 layer_factory.hpp:77] Creating layer res3a_branch2a_relu
I0711 15:34:37.106711 21326 net.cpp:91] Creating Layer res3a_branch2a_relu
I0711 15:34:37.106720 21326 net.cpp:425] res3a_branch2a_relu <- res3a_branch2a
I0711 15:34:37.106751 21326 net.cpp:386] res3a_branch2a_relu -> res3a_branch2a (in-place)
I0711 15:34:37.106763 21326 net.cpp:141] Setting up res3a_branch2a_relu
I0711 15:34:37.106775 21326 net.cpp:148] Top shape: 1 128 60 60 (460800)
I0711 15:34:37.106781 21326 net.cpp:156] Memory required for data: 545587200
I0711 15:34:37.106784 21326 layer_factory.hpp:77] Creating layer res3a_branch2b
I0711 15:34:37.106793 21326 net.cpp:91] Creating Layer res3a_branch2b
I0711 15:34:37.106803 21326 net.cpp:425] res3a_branch2b <- res3a_branch2a
I0711 15:34:37.106837 21326 net.cpp:399] res3a_branch2b -> res3a_branch2b
I0711 15:34:37.108214 21326 net.cpp:141] Setting up res3a_branch2b
I0711 15:34:37.108230 21326 net.cpp:148] Top shape: 1 128 60 60 (460800)
I0711 15:34:37.108240 21326 net.cpp:156] Memory required for data: 547430400
I0711 15:34:37.108248 21326 layer_factory.hpp:77] Creating layer bn3a_branch2b
I0711 15:34:37.108263 21326 net.cpp:91] Creating Layer bn3a_branch2b
I0711 15:34:37.108269 21326 net.cpp:425] bn3a_branch2b <- res3a_branch2b
I0711 15:34:37.108295 21326 net.cpp:386] bn3a_branch2b -> res3a_branch2b (in-place)
I0711 15:34:37.108630 21326 net.cpp:141] Setting up bn3a_branch2b
I0711 15:34:37.108644 21326 net.cpp:148] Top shape: 1 128 60 60 (460800)
I0711 15:34:37.108649 21326 net.cpp:156] Memory required for data: 549273600
I0711 15:34:37.108664 21326 layer_factory.hpp:77] Creating layer scale3a_branch2b
I0711 15:34:37.108674 21326 net.cpp:91] Creating Layer scale3a_branch2b
I0711 15:34:37.108683 21326 net.cpp:425] scale3a_branch2b <- res3a_branch2b
I0711 15:34:37.108691 21326 net.cpp:386] scale3a_branch2b -> res3a_branch2b (in-place)
I0711 15:34:37.108767 21326 layer_factory.hpp:77] Creating layer scale3a_branch2b
I0711 15:34:37.108999 21326 net.cpp:141] Setting up scale3a_branch2b
I0711 15:34:37.109011 21326 net.cpp:148] Top shape: 1 128 60 60 (460800)
I0711 15:34:37.109020 21326 net.cpp:156] Memory required for data: 551116800
I0711 15:34:37.109030 21326 layer_factory.hpp:77] Creating layer res3a_branch2b_relu
I0711 15:34:37.109040 21326 net.cpp:91] Creating Layer res3a_branch2b_relu
I0711 15:34:37.109060 21326 net.cpp:425] res3a_branch2b_relu <- res3a_branch2b
I0711 15:34:37.109081 21326 net.cpp:386] res3a_branch2b_relu -> res3a_branch2b (in-place)
I0711 15:34:37.109093 21326 net.cpp:141] Setting up res3a_branch2b_relu
I0711 15:34:37.109103 21326 net.cpp:148] Top shape: 1 128 60 60 (460800)
I0711 15:34:37.109110 21326 net.cpp:156] Memory required for data: 552960000
I0711 15:34:37.109114 21326 layer_factory.hpp:77] Creating layer res3a_branch2c
I0711 15:34:37.109125 21326 net.cpp:91] Creating Layer res3a_branch2c
I0711 15:34:37.109133 21326 net.cpp:425] res3a_branch2c <- res3a_branch2b
I0711 15:34:37.109161 21326 net.cpp:399] res3a_branch2c -> res3a_branch2c
I0711 15:34:37.109479 21326 net.cpp:141] Setting up res3a_branch2c
I0711 15:34:37.109513 21326 net.cpp:148] Top shape: 1 512 60 60 (1843200)
I0711 15:34:37.109519 21326 net.cpp:156] Memory required for data: 560332800
I0711 15:34:37.109527 21326 layer_factory.hpp:77] Creating layer bn3a_branch2c
I0711 15:34:37.109568 21326 net.cpp:91] Creating Layer bn3a_branch2c
I0711 15:34:37.109576 21326 net.cpp:425] bn3a_branch2c <- res3a_branch2c
I0711 15:34:37.109585 21326 net.cpp:386] bn3a_branch2c -> res3a_branch2c (in-place)
I0711 15:34:37.109926 21326 net.cpp:141] Setting up bn3a_branch2c
I0711 15:34:37.109938 21326 net.cpp:148] Top shape: 1 512 60 60 (1843200)
I0711 15:34:37.109946 21326 net.cpp:156] Memory required for data: 567705600
I0711 15:34:37.109959 21326 layer_factory.hpp:77] Creating layer scale3a_branch2c
I0711 15:34:37.109972 21326 net.cpp:91] Creating Layer scale3a_branch2c
I0711 15:34:37.109979 21326 net.cpp:425] scale3a_branch2c <- res3a_branch2c
I0711 15:34:37.110008 21326 net.cpp:386] scale3a_branch2c -> res3a_branch2c (in-place)
I0711 15:34:37.110062 21326 layer_factory.hpp:77] Creating layer scale3a_branch2c
I0711 15:34:37.110282 21326 net.cpp:141] Setting up scale3a_branch2c
I0711 15:34:37.110296 21326 net.cpp:148] Top shape: 1 512 60 60 (1843200)
I0711 15:34:37.110301 21326 net.cpp:156] Memory required for data: 575078400
I0711 15:34:37.110314 21326 layer_factory.hpp:77] Creating layer res3a
I0711 15:34:37.110322 21326 net.cpp:91] Creating Layer res3a
I0711 15:34:37.110332 21326 net.cpp:425] res3a <- res3a_branch1
I0711 15:34:37.110339 21326 net.cpp:425] res3a <- res3a_branch2c
I0711 15:34:37.110364 21326 net.cpp:399] res3a -> res3a
I0711 15:34:37.110401 21326 net.cpp:141] Setting up res3a
I0711 15:34:37.110421 21326 net.cpp:148] Top shape: 1 512 60 60 (1843200)
I0711 15:34:37.110427 21326 net.cpp:156] Memory required for data: 582451200
I0711 15:34:37.110431 21326 layer_factory.hpp:77] Creating layer res3a_relu
I0711 15:34:37.110438 21326 net.cpp:91] Creating Layer res3a_relu
I0711 15:34:37.110448 21326 net.cpp:425] res3a_relu <- res3a
I0711 15:34:37.110455 21326 net.cpp:386] res3a_relu -> res3a (in-place)
I0711 15:34:37.110463 21326 net.cpp:141] Setting up res3a_relu
I0711 15:34:37.110474 21326 net.cpp:148] Top shape: 1 512 60 60 (1843200)
I0711 15:34:37.110479 21326 net.cpp:156] Memory required for data: 589824000
I0711 15:34:37.110483 21326 layer_factory.hpp:77] Creating layer res3a_res3a_relu_0_split
I0711 15:34:37.110491 21326 net.cpp:91] Creating Layer res3a_res3a_relu_0_split
I0711 15:34:37.110499 21326 net.cpp:425] res3a_res3a_relu_0_split <- res3a
I0711 15:34:37.110529 21326 net.cpp:399] res3a_res3a_relu_0_split -> res3a_res3a_relu_0_split_0
I0711 15:34:37.110541 21326 net.cpp:399] res3a_res3a_relu_0_split -> res3a_res3a_relu_0_split_1
I0711 15:34:37.110589 21326 net.cpp:141] Setting up res3a_res3a_relu_0_split
I0711 15:34:37.110600 21326 net.cpp:148] Top shape: 1 512 60 60 (1843200)
I0711 15:34:37.110608 21326 net.cpp:148] Top shape: 1 512 60 60 (1843200)
I0711 15:34:37.110612 21326 net.cpp:156] Memory required for data: 604569600
I0711 15:34:37.110617 21326 layer_factory.hpp:77] Creating layer res3b1_branch2a
I0711 15:34:37.110632 21326 net.cpp:91] Creating Layer res3b1_branch2a
I0711 15:34:37.110640 21326 net.cpp:425] res3b1_branch2a <- res3a_res3a_relu_0_split_0
I0711 15:34:37.110646 21326 net.cpp:399] res3b1_branch2a -> res3b1_branch2a
I0711 15:34:37.110991 21326 net.cpp:141] Setting up res3b1_branch2a
I0711 15:34:37.111006 21326 net.cpp:148] Top shape: 1 128 60 60 (460800)
I0711 15:34:37.111013 21326 net.cpp:156] Memory required for data: 606412800
I0711 15:34:37.111023 21326 layer_factory.hpp:77] Creating layer bn3b1_branch2a
I0711 15:34:37.111033 21326 net.cpp:91] Creating Layer bn3b1_branch2a
I0711 15:34:37.111042 21326 net.cpp:425] bn3b1_branch2a <- res3b1_branch2a
I0711 15:34:37.111052 21326 net.cpp:386] bn3b1_branch2a -> res3b1_branch2a (in-place)
I0711 15:34:37.111394 21326 net.cpp:141] Setting up bn3b1_branch2a
I0711 15:34:37.111407 21326 net.cpp:148] Top shape: 1 128 60 60 (460800)
I0711 15:34:37.111414 21326 net.cpp:156] Memory required for data: 608256000
I0711 15:34:37.111426 21326 layer_factory.hpp:77] Creating layer scale3b1_branch2a
I0711 15:34:37.111450 21326 net.cpp:91] Creating Layer scale3b1_branch2a
I0711 15:34:37.111459 21326 net.cpp:425] scale3b1_branch2a <- res3b1_branch2a
I0711 15:34:37.111465 21326 net.cpp:386] scale3b1_branch2a -> res3b1_branch2a (in-place)
I0711 15:34:37.111572 21326 layer_factory.hpp:77] Creating layer scale3b1_branch2a
I0711 15:34:37.111785 21326 net.cpp:141] Setting up scale3b1_branch2a
I0711 15:34:37.111798 21326 net.cpp:148] Top shape: 1 128 60 60 (460800)
I0711 15:34:37.111802 21326 net.cpp:156] Memory required for data: 610099200
I0711 15:34:37.111814 21326 layer_factory.hpp:77] Creating layer res3b1_branch2a_relu
I0711 15:34:37.111845 21326 net.cpp:91] Creating Layer res3b1_branch2a_relu
I0711 15:34:37.111853 21326 net.cpp:425] res3b1_branch2a_relu <- res3b1_branch2a
I0711 15:34:37.111860 21326 net.cpp:386] res3b1_branch2a_relu -> res3b1_branch2a (in-place)
I0711 15:34:37.111871 21326 net.cpp:141] Setting up res3b1_branch2a_relu
I0711 15:34:37.111879 21326 net.cpp:148] Top shape: 1 128 60 60 (460800)
I0711 15:34:37.111883 21326 net.cpp:156] Memory required for data: 611942400
I0711 15:34:37.111887 21326 layer_factory.hpp:77] Creating layer res3b1_branch2b
I0711 15:34:37.111908 21326 net.cpp:91] Creating Layer res3b1_branch2b
I0711 15:34:37.111915 21326 net.cpp:425] res3b1_branch2b <- res3b1_branch2a
I0711 15:34:37.111937 21326 net.cpp:399] res3b1_branch2b -> res3b1_branch2b
I0711 15:34:37.113070 21326 net.cpp:141] Setting up res3b1_branch2b
I0711 15:34:37.113086 21326 net.cpp:148] Top shape: 1 128 60 60 (460800)
I0711 15:34:37.113095 21326 net.cpp:156] Memory required for data: 613785600
I0711 15:34:37.113104 21326 layer_factory.hpp:77] Creating layer bn3b1_branch2b
I0711 15:34:37.113131 21326 net.cpp:91] Creating Layer bn3b1_branch2b
I0711 15:34:37.113139 21326 net.cpp:425] bn3b1_branch2b <- res3b1_branch2b
I0711 15:34:37.113147 21326 net.cpp:386] bn3b1_branch2b -> res3b1_branch2b (in-place)
I0711 15:34:37.113492 21326 net.cpp:141] Setting up bn3b1_branch2b
I0711 15:34:37.113503 21326 net.cpp:148] Top shape: 1 128 60 60 (460800)
I0711 15:34:37.113509 21326 net.cpp:156] Memory required for data: 615628800
I0711 15:34:37.113525 21326 layer_factory.hpp:77] Creating layer scale3b1_branch2b
I0711 15:34:37.113534 21326 net.cpp:91] Creating Layer scale3b1_branch2b
I0711 15:34:37.113543 21326 net.cpp:425] scale3b1_branch2b <- res3b1_branch2b
I0711 15:34:37.113579 21326 net.cpp:386] scale3b1_branch2b -> res3b1_branch2b (in-place)
I0711 15:34:37.113637 21326 layer_factory.hpp:77] Creating layer scale3b1_branch2b
I0711 15:34:37.113886 21326 net.cpp:141] Setting up scale3b1_branch2b
I0711 15:34:37.113903 21326 net.cpp:148] Top shape: 1 128 60 60 (460800)
I0711 15:34:37.113909 21326 net.cpp:156] Memory required for data: 617472000
I0711 15:34:37.113916 21326 layer_factory.hpp:77] Creating layer res3b1_branch2b_relu
I0711 15:34:37.113924 21326 net.cpp:91] Creating Layer res3b1_branch2b_relu
I0711 15:34:37.113930 21326 net.cpp:425] res3b1_branch2b_relu <- res3b1_branch2b
I0711 15:34:37.113936 21326 net.cpp:386] res3b1_branch2b_relu -> res3b1_branch2b (in-place)
I0711 15:34:37.113945 21326 net.cpp:141] Setting up res3b1_branch2b_relu
I0711 15:34:37.113950 21326 net.cpp:148] Top shape: 1 128 60 60 (460800)
I0711 15:34:37.113966 21326 net.cpp:156] Memory required for data: 619315200
I0711 15:34:37.113971 21326 layer_factory.hpp:77] Creating layer res3b1_branch2c
I0711 15:34:37.113982 21326 net.cpp:91] Creating Layer res3b1_branch2c
I0711 15:34:37.113991 21326 net.cpp:425] res3b1_branch2c <- res3b1_branch2b
I0711 15:34:37.113998 21326 net.cpp:399] res3b1_branch2c -> res3b1_branch2c
I0711 15:34:37.118074 21326 net.cpp:141] Setting up res3b1_branch2c
I0711 15:34:37.118099 21326 net.cpp:148] Top shape: 1 512 60 60 (1843200)
I0711 15:34:37.118109 21326 net.cpp:156] Memory required for data: 626688000
I0711 15:34:37.118122 21326 layer_factory.hpp:77] Creating layer bn3b1_branch2c
I0711 15:34:37.118137 21326 net.cpp:91] Creating Layer bn3b1_branch2c
I0711 15:34:37.118149 21326 net.cpp:425] bn3b1_branch2c <- res3b1_branch2c
I0711 15:34:37.118165 21326 net.cpp:386] bn3b1_branch2c -> res3b1_branch2c (in-place)
I0711 15:34:37.120082 21326 net.cpp:141] Setting up bn3b1_branch2c
I0711 15:34:37.120100 21326 net.cpp:148] Top shape: 1 512 60 60 (1843200)
I0711 15:34:37.120105 21326 net.cpp:156] Memory required for data: 634060800
I0711 15:34:37.120118 21326 layer_factory.hpp:77] Creating layer scale3b1_branch2c
I0711 15:34:37.120134 21326 net.cpp:91] Creating Layer scale3b1_branch2c
I0711 15:34:37.120149 21326 net.cpp:425] scale3b1_branch2c <- res3b1_branch2c
I0711 15:34:37.120157 21326 net.cpp:386] scale3b1_branch2c -> res3b1_branch2c (in-place)
I0711 15:34:37.120254 21326 layer_factory.hpp:77] Creating layer scale3b1_branch2c
I0711 15:34:37.120422 21326 net.cpp:141] Setting up scale3b1_branch2c
I0711 15:34:37.120436 21326 net.cpp:148] Top shape: 1 512 60 60 (1843200)
I0711 15:34:37.120445 21326 net.cpp:156] Memory required for data: 641433600
I0711 15:34:37.120471 21326 layer_factory.hpp:77] Creating layer res3b1
I0711 15:34:37.120487 21326 net.cpp:91] Creating Layer res3b1
I0711 15:34:37.120496 21326 net.cpp:425] res3b1 <- res3a_res3a_relu_0_split_1
I0711 15:34:37.120507 21326 net.cpp:425] res3b1 <- res3b1_branch2c
I0711 15:34:37.120522 21326 net.cpp:399] res3b1 -> res3b1
I0711 15:34:37.120565 21326 net.cpp:141] Setting up res3b1
I0711 15:34:37.120579 21326 net.cpp:148] Top shape: 1 512 60 60 (1843200)
I0711 15:34:37.120606 21326 net.cpp:156] Memory required for data: 648806400
I0711 15:34:37.120610 21326 layer_factory.hpp:77] Creating layer res3b1_relu
I0711 15:34:37.120621 21326 net.cpp:91] Creating Layer res3b1_relu
I0711 15:34:37.120626 21326 net.cpp:425] res3b1_relu <- res3b1
I0711 15:34:37.120632 21326 net.cpp:386] res3b1_relu -> res3b1 (in-place)
I0711 15:34:37.120640 21326 net.cpp:141] Setting up res3b1_relu
I0711 15:34:37.120646 21326 net.cpp:148] Top shape: 1 512 60 60 (1843200)
I0711 15:34:37.120651 21326 net.cpp:156] Memory required for data: 656179200
I0711 15:34:37.120653 21326 layer_factory.hpp:77] Creating layer res3b1_res3b1_relu_0_split
I0711 15:34:37.120661 21326 net.cpp:91] Creating Layer res3b1_res3b1_relu_0_split
I0711 15:34:37.120664 21326 net.cpp:425] res3b1_res3b1_relu_0_split <- res3b1
I0711 15:34:37.120669 21326 net.cpp:399] res3b1_res3b1_relu_0_split -> res3b1_res3b1_relu_0_split_0
I0711 15:34:37.120677 21326 net.cpp:399] res3b1_res3b1_relu_0_split -> res3b1_res3b1_relu_0_split_1
I0711 15:34:37.120723 21326 net.cpp:141] Setting up res3b1_res3b1_relu_0_split
I0711 15:34:37.120733 21326 net.cpp:148] Top shape: 1 512 60 60 (1843200)
I0711 15:34:37.120739 21326 net.cpp:148] Top shape: 1 512 60 60 (1843200)
I0711 15:34:37.120744 21326 net.cpp:156] Memory required for data: 670924800
I0711 15:34:37.120749 21326 layer_factory.hpp:77] Creating layer res3b2_branch2a
I0711 15:34:37.120760 21326 net.cpp:91] Creating Layer res3b2_branch2a
I0711 15:34:37.120764 21326 net.cpp:425] res3b2_branch2a <- res3b1_res3b1_relu_0_split_0
I0711 15:34:37.120774 21326 net.cpp:399] res3b2_branch2a -> res3b2_branch2a
I0711 15:34:37.121023 21326 net.cpp:141] Setting up res3b2_branch2a
I0711 15:34:37.121034 21326 net.cpp:148] Top shape: 1 128 60 60 (460800)
I0711 15:34:37.121039 21326 net.cpp:156] Memory required for data: 672768000
I0711 15:34:37.121062 21326 layer_factory.hpp:77] Creating layer bn3b2_branch2a
I0711 15:34:37.121071 21326 net.cpp:91] Creating Layer bn3b2_branch2a
I0711 15:34:37.121075 21326 net.cpp:425] bn3b2_branch2a <- res3b2_branch2a
I0711 15:34:37.121083 21326 net.cpp:386] bn3b2_branch2a -> res3b2_branch2a (in-place)
I0711 15:34:37.121265 21326 net.cpp:141] Setting up bn3b2_branch2a
I0711 15:34:37.121275 21326 net.cpp:148] Top shape: 1 128 60 60 (460800)
I0711 15:34:37.121280 21326 net.cpp:156] Memory required for data: 674611200
I0711 15:34:37.121289 21326 layer_factory.hpp:77] Creating layer scale3b2_branch2a
I0711 15:34:37.121297 21326 net.cpp:91] Creating Layer scale3b2_branch2a
I0711 15:34:37.121302 21326 net.cpp:425] scale3b2_branch2a <- res3b2_branch2a
I0711 15:34:37.121309 21326 net.cpp:386] scale3b2_branch2a -> res3b2_branch2a (in-place)
I0711 15:34:37.121350 21326 layer_factory.hpp:77] Creating layer scale3b2_branch2a
I0711 15:34:37.121472 21326 net.cpp:141] Setting up scale3b2_branch2a
I0711 15:34:37.121484 21326 net.cpp:148] Top shape: 1 128 60 60 (460800)
I0711 15:34:37.121487 21326 net.cpp:156] Memory required for data: 676454400
I0711 15:34:37.121495 21326 layer_factory.hpp:77] Creating layer res3b2_branch2a_relu
I0711 15:34:37.121502 21326 net.cpp:91] Creating Layer res3b2_branch2a_relu
I0711 15:34:37.121506 21326 net.cpp:425] res3b2_branch2a_relu <- res3b2_branch2a
I0711 15:34:37.121515 21326 net.cpp:386] res3b2_branch2a_relu -> res3b2_branch2a (in-place)
I0711 15:34:37.121522 21326 net.cpp:141] Setting up res3b2_branch2a_relu
I0711 15:34:37.121528 21326 net.cpp:148] Top shape: 1 128 60 60 (460800)
I0711 15:34:37.121531 21326 net.cpp:156] Memory required for data: 678297600
I0711 15:34:37.121536 21326 layer_factory.hpp:77] Creating layer res3b2_branch2b
I0711 15:34:37.121544 21326 net.cpp:91] Creating Layer res3b2_branch2b
I0711 15:34:37.121548 21326 net.cpp:425] res3b2_branch2b <- res3b2_branch2a
I0711 15:34:37.121556 21326 net.cpp:399] res3b2_branch2b -> res3b2_branch2b
I0711 15:34:37.123749 21326 net.cpp:141] Setting up res3b2_branch2b
I0711 15:34:37.123766 21326 net.cpp:148] Top shape: 1 128 60 60 (460800)
I0711 15:34:37.123771 21326 net.cpp:156] Memory required for data: 680140800
I0711 15:34:37.123780 21326 layer_factory.hpp:77] Creating layer bn3b2_branch2b
I0711 15:34:37.123808 21326 net.cpp:91] Creating Layer bn3b2_branch2b
I0711 15:34:37.123816 21326 net.cpp:425] bn3b2_branch2b <- res3b2_branch2b
I0711 15:34:37.123824 21326 net.cpp:386] bn3b2_branch2b -> res3b2_branch2b (in-place)
I0711 15:34:37.124028 21326 net.cpp:141] Setting up bn3b2_branch2b
I0711 15:34:37.124040 21326 net.cpp:148] Top shape: 1 128 60 60 (460800)
I0711 15:34:37.124044 21326 net.cpp:156] Memory required for data: 681984000
I0711 15:34:37.124054 21326 layer_factory.hpp:77] Creating layer scale3b2_branch2b
I0711 15:34:37.124065 21326 net.cpp:91] Creating Layer scale3b2_branch2b
I0711 15:34:37.124070 21326 net.cpp:425] scale3b2_branch2b <- res3b2_branch2b
I0711 15:34:37.124076 21326 net.cpp:386] scale3b2_branch2b -> res3b2_branch2b (in-place)
I0711 15:34:37.124228 21326 layer_factory.hpp:77] Creating layer scale3b2_branch2b
I0711 15:34:37.124359 21326 net.cpp:141] Setting up scale3b2_branch2b
I0711 15:34:37.124371 21326 net.cpp:148] Top shape: 1 128 60 60 (460800)
I0711 15:34:37.124374 21326 net.cpp:156] Memory required for data: 683827200
I0711 15:34:37.124383 21326 layer_factory.hpp:77] Creating layer res3b2_branch2b_relu
I0711 15:34:37.124390 21326 net.cpp:91] Creating Layer res3b2_branch2b_relu
I0711 15:34:37.124394 21326 net.cpp:425] res3b2_branch2b_relu <- res3b2_branch2b
I0711 15:34:37.124402 21326 net.cpp:386] res3b2_branch2b_relu -> res3b2_branch2b (in-place)
I0711 15:34:37.124410 21326 net.cpp:141] Setting up res3b2_branch2b_relu
I0711 15:34:37.124416 21326 net.cpp:148] Top shape: 1 128 60 60 (460800)
I0711 15:34:37.124419 21326 net.cpp:156] Memory required for data: 685670400
I0711 15:34:37.124423 21326 layer_factory.hpp:77] Creating layer res3b2_branch2c
I0711 15:34:37.124433 21326 net.cpp:91] Creating Layer res3b2_branch2c
I0711 15:34:37.124449 21326 net.cpp:425] res3b2_branch2c <- res3b2_branch2b
I0711 15:34:37.124470 21326 net.cpp:399] res3b2_branch2c -> res3b2_branch2c
I0711 15:34:37.124701 21326 net.cpp:141] Setting up res3b2_branch2c
I0711 15:34:37.124714 21326 net.cpp:148] Top shape: 1 512 60 60 (1843200)
I0711 15:34:37.124719 21326 net.cpp:156] Memory required for data: 693043200
I0711 15:34:37.124727 21326 layer_factory.hpp:77] Creating layer bn3b2_branch2c
I0711 15:34:37.124737 21326 net.cpp:91] Creating Layer bn3b2_branch2c
I0711 15:34:37.124742 21326 net.cpp:425] bn3b2_branch2c <- res3b2_branch2c
I0711 15:34:37.124748 21326 net.cpp:386] bn3b2_branch2c -> res3b2_branch2c (in-place)
I0711 15:34:37.124934 21326 net.cpp:141] Setting up bn3b2_branch2c
I0711 15:34:37.124944 21326 net.cpp:148] Top shape: 1 512 60 60 (1843200)
I0711 15:34:37.124949 21326 net.cpp:156] Memory required for data: 700416000
I0711 15:34:37.124958 21326 layer_factory.hpp:77] Creating layer scale3b2_branch2c
I0711 15:34:37.124969 21326 net.cpp:91] Creating Layer scale3b2_branch2c
I0711 15:34:37.124974 21326 net.cpp:425] scale3b2_branch2c <- res3b2_branch2c
I0711 15:34:37.124979 21326 net.cpp:386] scale3b2_branch2c -> res3b2_branch2c (in-place)
I0711 15:34:37.125018 21326 layer_factory.hpp:77] Creating layer scale3b2_branch2c
I0711 15:34:37.125143 21326 net.cpp:141] Setting up scale3b2_branch2c
I0711 15:34:37.125152 21326 net.cpp:148] Top shape: 1 512 60 60 (1843200)
I0711 15:34:37.125156 21326 net.cpp:156] Memory required for data: 707788800
I0711 15:34:37.125164 21326 layer_factory.hpp:77] Creating layer res3b2
I0711 15:34:37.125172 21326 net.cpp:91] Creating Layer res3b2
I0711 15:34:37.125177 21326 net.cpp:425] res3b2 <- res3b1_res3b1_relu_0_split_1
I0711 15:34:37.125183 21326 net.cpp:425] res3b2 <- res3b2_branch2c
I0711 15:34:37.125190 21326 net.cpp:399] res3b2 -> res3b2
I0711 15:34:37.125216 21326 net.cpp:141] Setting up res3b2
I0711 15:34:37.125226 21326 net.cpp:148] Top shape: 1 512 60 60 (1843200)
I0711 15:34:37.125229 21326 net.cpp:156] Memory required for data: 715161600
I0711 15:34:37.125233 21326 layer_factory.hpp:77] Creating layer res3b2_relu
I0711 15:34:37.125239 21326 net.cpp:91] Creating Layer res3b2_relu
I0711 15:34:37.125243 21326 net.cpp:425] res3b2_relu <- res3b2
I0711 15:34:37.125252 21326 net.cpp:386] res3b2_relu -> res3b2 (in-place)
I0711 15:34:37.125259 21326 net.cpp:141] Setting up res3b2_relu
I0711 15:34:37.125264 21326 net.cpp:148] Top shape: 1 512 60 60 (1843200)
I0711 15:34:37.125268 21326 net.cpp:156] Memory required for data: 722534400
I0711 15:34:37.125272 21326 layer_factory.hpp:77] Creating layer res3b2_res3b2_relu_0_split
I0711 15:34:37.125278 21326 net.cpp:91] Creating Layer res3b2_res3b2_relu_0_split
I0711 15:34:37.125283 21326 net.cpp:425] res3b2_res3b2_relu_0_split <- res3b2
I0711 15:34:37.125288 21326 net.cpp:399] res3b2_res3b2_relu_0_split -> res3b2_res3b2_relu_0_split_0
I0711 15:34:37.125294 21326 net.cpp:399] res3b2_res3b2_relu_0_split -> res3b2_res3b2_relu_0_split_1
I0711 15:34:37.125331 21326 net.cpp:141] Setting up res3b2_res3b2_relu_0_split
I0711 15:34:37.125341 21326 net.cpp:148] Top shape: 1 512 60 60 (1843200)
I0711 15:34:37.125346 21326 net.cpp:148] Top shape: 1 512 60 60 (1843200)
I0711 15:34:37.125350 21326 net.cpp:156] Memory required for data: 737280000
I0711 15:34:37.125355 21326 layer_factory.hpp:77] Creating layer res3b3_branch2a
I0711 15:34:37.125362 21326 net.cpp:91] Creating Layer res3b3_branch2a
I0711 15:34:37.125366 21326 net.cpp:425] res3b3_branch2a <- res3b2_res3b2_relu_0_split_0
I0711 15:34:37.125373 21326 net.cpp:399] res3b3_branch2a -> res3b3_branch2a
I0711 15:34:37.125589 21326 net.cpp:141] Setting up res3b3_branch2a
I0711 15:34:37.125600 21326 net.cpp:148] Top shape: 1 128 60 60 (460800)
I0711 15:34:37.125604 21326 net.cpp:156] Memory required for data: 739123200
I0711 15:34:37.125610 21326 layer_factory.hpp:77] Creating layer bn3b3_branch2a
I0711 15:34:37.125620 21326 net.cpp:91] Creating Layer bn3b3_branch2a
I0711 15:34:37.125625 21326 net.cpp:425] bn3b3_branch2a <- res3b3_branch2a
I0711 15:34:37.125643 21326 net.cpp:386] bn3b3_branch2a -> res3b3_branch2a (in-place)
I0711 15:34:37.125829 21326 net.cpp:141] Setting up bn3b3_branch2a
I0711 15:34:37.125840 21326 net.cpp:148] Top shape: 1 128 60 60 (460800)
I0711 15:34:37.125844 21326 net.cpp:156] Memory required for data: 740966400
I0711 15:34:37.125876 21326 layer_factory.hpp:77] Creating layer scale3b3_branch2a
I0711 15:34:37.125890 21326 net.cpp:91] Creating Layer scale3b3_branch2a
I0711 15:34:37.125895 21326 net.cpp:425] scale3b3_branch2a <- res3b3_branch2a
I0711 15:34:37.125901 21326 net.cpp:386] scale3b3_branch2a -> res3b3_branch2a (in-place)
I0711 15:34:37.125946 21326 layer_factory.hpp:77] Creating layer scale3b3_branch2a
I0711 15:34:37.126066 21326 net.cpp:141] Setting up scale3b3_branch2a
I0711 15:34:37.126077 21326 net.cpp:148] Top shape: 1 128 60 60 (460800)
I0711 15:34:37.126081 21326 net.cpp:156] Memory required for data: 742809600
I0711 15:34:37.126090 21326 layer_factory.hpp:77] Creating layer res3b3_branch2a_relu
I0711 15:34:37.126096 21326 net.cpp:91] Creating Layer res3b3_branch2a_relu
I0711 15:34:37.126101 21326 net.cpp:425] res3b3_branch2a_relu <- res3b3_branch2a
I0711 15:34:37.126106 21326 net.cpp:386] res3b3_branch2a_relu -> res3b3_branch2a (in-place)
I0711 15:34:37.126112 21326 net.cpp:141] Setting up res3b3_branch2a_relu
I0711 15:34:37.126118 21326 net.cpp:148] Top shape: 1 128 60 60 (460800)
I0711 15:34:37.126122 21326 net.cpp:156] Memory required for data: 744652800
I0711 15:34:37.126127 21326 layer_factory.hpp:77] Creating layer res3b3_branch2b
I0711 15:34:37.126137 21326 net.cpp:91] Creating Layer res3b3_branch2b
I0711 15:34:37.126140 21326 net.cpp:425] res3b3_branch2b <- res3b3_branch2a
I0711 15:34:37.126148 21326 net.cpp:399] res3b3_branch2b -> res3b3_branch2b
I0711 15:34:37.127224 21326 net.cpp:141] Setting up res3b3_branch2b
I0711 15:34:37.127241 21326 net.cpp:148] Top shape: 1 128 60 60 (460800)
I0711 15:34:37.127245 21326 net.cpp:156] Memory required for data: 746496000
I0711 15:34:37.127254 21326 layer_factory.hpp:77] Creating layer bn3b3_branch2b
I0711 15:34:37.127262 21326 net.cpp:91] Creating Layer bn3b3_branch2b
I0711 15:34:37.127267 21326 net.cpp:425] bn3b3_branch2b <- res3b3_branch2b
I0711 15:34:37.127276 21326 net.cpp:386] bn3b3_branch2b -> res3b3_branch2b (in-place)
I0711 15:34:37.127470 21326 net.cpp:141] Setting up bn3b3_branch2b
I0711 15:34:37.127480 21326 net.cpp:148] Top shape: 1 128 60 60 (460800)
I0711 15:34:37.127485 21326 net.cpp:156] Memory required for data: 748339200
I0711 15:34:37.127495 21326 layer_factory.hpp:77] Creating layer scale3b3_branch2b
I0711 15:34:37.127502 21326 net.cpp:91] Creating Layer scale3b3_branch2b
I0711 15:34:37.127507 21326 net.cpp:425] scale3b3_branch2b <- res3b3_branch2b
I0711 15:34:37.127513 21326 net.cpp:386] scale3b3_branch2b -> res3b3_branch2b (in-place)
I0711 15:34:37.127888 21326 layer_factory.hpp:77] Creating layer scale3b3_branch2b
I0711 15:34:37.128023 21326 net.cpp:141] Setting up scale3b3_branch2b
I0711 15:34:37.128036 21326 net.cpp:148] Top shape: 1 128 60 60 (460800)
I0711 15:34:37.128039 21326 net.cpp:156] Memory required for data: 750182400
I0711 15:34:37.128048 21326 layer_factory.hpp:77] Creating layer res3b3_branch2b_relu
I0711 15:34:37.128056 21326 net.cpp:91] Creating Layer res3b3_branch2b_relu
I0711 15:34:37.128060 21326 net.cpp:425] res3b3_branch2b_relu <- res3b3_branch2b
I0711 15:34:37.128067 21326 net.cpp:386] res3b3_branch2b_relu -> res3b3_branch2b (in-place)
I0711 15:34:37.128075 21326 net.cpp:141] Setting up res3b3_branch2b_relu
I0711 15:34:37.128082 21326 net.cpp:148] Top shape: 1 128 60 60 (460800)
I0711 15:34:37.128085 21326 net.cpp:156] Memory required for data: 752025600
I0711 15:34:37.128089 21326 layer_factory.hpp:77] Creating layer res3b3_branch2c
I0711 15:34:37.128098 21326 net.cpp:91] Creating Layer res3b3_branch2c
I0711 15:34:37.128103 21326 net.cpp:425] res3b3_branch2c <- res3b3_branch2b
I0711 15:34:37.128110 21326 net.cpp:399] res3b3_branch2c -> res3b3_branch2c
I0711 15:34:37.129019 21326 net.cpp:141] Setting up res3b3_branch2c
I0711 15:34:37.129047 21326 net.cpp:148] Top shape: 1 512 60 60 (1843200)
I0711 15:34:37.129052 21326 net.cpp:156] Memory required for data: 759398400
I0711 15:34:37.129060 21326 layer_factory.hpp:77] Creating layer bn3b3_branch2c
I0711 15:34:37.129075 21326 net.cpp:91] Creating Layer bn3b3_branch2c
I0711 15:34:37.129081 21326 net.cpp:425] bn3b3_branch2c <- res3b3_branch2c
I0711 15:34:37.129087 21326 net.cpp:386] bn3b3_branch2c -> res3b3_branch2c (in-place)
I0711 15:34:37.129278 21326 net.cpp:141] Setting up bn3b3_branch2c
I0711 15:34:37.129290 21326 net.cpp:148] Top shape: 1 512 60 60 (1843200)
I0711 15:34:37.129294 21326 net.cpp:156] Memory required for data: 766771200
I0711 15:34:37.129304 21326 layer_factory.hpp:77] Creating layer scale3b3_branch2c
I0711 15:34:37.129312 21326 net.cpp:91] Creating Layer scale3b3_branch2c
I0711 15:34:37.129317 21326 net.cpp:425] scale3b3_branch2c <- res3b3_branch2c
I0711 15:34:37.129325 21326 net.cpp:386] scale3b3_branch2c -> res3b3_branch2c (in-place)
I0711 15:34:37.129364 21326 layer_factory.hpp:77] Creating layer scale3b3_branch2c
I0711 15:34:37.129490 21326 net.cpp:141] Setting up scale3b3_branch2c
I0711 15:34:37.129501 21326 net.cpp:148] Top shape: 1 512 60 60 (1843200)
I0711 15:34:37.129505 21326 net.cpp:156] Memory required for data: 774144000
I0711 15:34:37.129513 21326 layer_factory.hpp:77] Creating layer res3b3
I0711 15:34:37.129520 21326 net.cpp:91] Creating Layer res3b3
I0711 15:34:37.129525 21326 net.cpp:425] res3b3 <- res3b2_res3b2_relu_0_split_1
I0711 15:34:37.129530 21326 net.cpp:425] res3b3 <- res3b3_branch2c
I0711 15:34:37.129539 21326 net.cpp:399] res3b3 -> res3b3
I0711 15:34:37.129565 21326 net.cpp:141] Setting up res3b3
I0711 15:34:37.129575 21326 net.cpp:148] Top shape: 1 512 60 60 (1843200)
I0711 15:34:37.129580 21326 net.cpp:156] Memory required for data: 781516800
I0711 15:34:37.129585 21326 layer_factory.hpp:77] Creating layer res3b3_relu
I0711 15:34:37.129590 21326 net.cpp:91] Creating Layer res3b3_relu
I0711 15:34:37.129595 21326 net.cpp:425] res3b3_relu <- res3b3
I0711 15:34:37.129600 21326 net.cpp:386] res3b3_relu -> res3b3 (in-place)
I0711 15:34:37.129606 21326 net.cpp:141] Setting up res3b3_relu
I0711 15:34:37.129612 21326 net.cpp:148] Top shape: 1 512 60 60 (1843200)
I0711 15:34:37.129616 21326 net.cpp:156] Memory required for data: 788889600
I0711 15:34:37.129621 21326 layer_factory.hpp:77] Creating layer res3b3_res3b3_relu_0_split
I0711 15:34:37.129626 21326 net.cpp:91] Creating Layer res3b3_res3b3_relu_0_split
I0711 15:34:37.129631 21326 net.cpp:425] res3b3_res3b3_relu_0_split <- res3b3
I0711 15:34:37.129637 21326 net.cpp:399] res3b3_res3b3_relu_0_split -> res3b3_res3b3_relu_0_split_0
I0711 15:34:37.129645 21326 net.cpp:399] res3b3_res3b3_relu_0_split -> res3b3_res3b3_relu_0_split_1
I0711 15:34:37.129679 21326 net.cpp:141] Setting up res3b3_res3b3_relu_0_split
I0711 15:34:37.129688 21326 net.cpp:148] Top shape: 1 512 60 60 (1843200)
I0711 15:34:37.129693 21326 net.cpp:148] Top shape: 1 512 60 60 (1843200)
I0711 15:34:37.129696 21326 net.cpp:156] Memory required for data: 803635200
I0711 15:34:37.129700 21326 layer_factory.hpp:77] Creating layer res4a_branch1
I0711 15:34:37.129711 21326 net.cpp:91] Creating Layer res4a_branch1
I0711 15:34:37.129716 21326 net.cpp:425] res4a_branch1 <- res3b3_res3b3_relu_0_split_0
I0711 15:34:37.129722 21326 net.cpp:399] res4a_branch1 -> res4a_branch1
I0711 15:34:37.131476 21326 net.cpp:141] Setting up res4a_branch1
I0711 15:34:37.131494 21326 net.cpp:148] Top shape: 1 1024 60 60 (3686400)
I0711 15:34:37.131500 21326 net.cpp:156] Memory required for data: 818380800
I0711 15:34:37.131507 21326 layer_factory.hpp:77] Creating layer bn4a_branch1
I0711 15:34:37.131516 21326 net.cpp:91] Creating Layer bn4a_branch1
I0711 15:34:37.131520 21326 net.cpp:425] bn4a_branch1 <- res4a_branch1
I0711 15:34:37.131530 21326 net.cpp:386] bn4a_branch1 -> res4a_branch1 (in-place)
I0711 15:34:37.131732 21326 net.cpp:141] Setting up bn4a_branch1
I0711 15:34:37.131742 21326 net.cpp:148] Top shape: 1 1024 60 60 (3686400)
I0711 15:34:37.131757 21326 net.cpp:156] Memory required for data: 833126400
I0711 15:34:37.131768 21326 layer_factory.hpp:77] Creating layer scale4a_branch1
I0711 15:34:37.131777 21326 net.cpp:91] Creating Layer scale4a_branch1
I0711 15:34:37.131784 21326 net.cpp:425] scale4a_branch1 <- res4a_branch1
I0711 15:34:37.131790 21326 net.cpp:386] scale4a_branch1 -> res4a_branch1 (in-place)
I0711 15:34:37.131834 21326 layer_factory.hpp:77] Creating layer scale4a_branch1
I0711 15:34:37.131961 21326 net.cpp:141] Setting up scale4a_branch1
I0711 15:34:37.131971 21326 net.cpp:148] Top shape: 1 1024 60 60 (3686400)
I0711 15:34:37.131978 21326 net.cpp:156] Memory required for data: 847872000
I0711 15:34:37.131985 21326 layer_factory.hpp:77] Creating layer res4a_branch2a
I0711 15:34:37.131996 21326 net.cpp:91] Creating Layer res4a_branch2a
I0711 15:34:37.132002 21326 net.cpp:425] res4a_branch2a <- res3b3_res3b3_relu_0_split_1
I0711 15:34:37.132009 21326 net.cpp:399] res4a_branch2a -> res4a_branch2a
I0711 15:34:37.132302 21326 net.cpp:141] Setting up res4a_branch2a
I0711 15:34:37.132314 21326 net.cpp:148] Top shape: 1 256 60 60 (921600)
I0711 15:34:37.132318 21326 net.cpp:156] Memory required for data: 851558400
I0711 15:34:37.132324 21326 layer_factory.hpp:77] Creating layer bn4a_branch2a
I0711 15:34:37.132338 21326 net.cpp:91] Creating Layer bn4a_branch2a
I0711 15:34:37.132349 21326 net.cpp:425] bn4a_branch2a <- res4a_branch2a
I0711 15:34:37.132356 21326 net.cpp:386] bn4a_branch2a -> res4a_branch2a (in-place)
I0711 15:34:37.132650 21326 net.cpp:141] Setting up bn4a_branch2a
I0711 15:34:37.132666 21326 net.cpp:148] Top shape: 1 256 60 60 (921600)
I0711 15:34:37.132671 21326 net.cpp:156] Memory required for data: 855244800
I0711 15:34:37.132681 21326 layer_factory.hpp:77] Creating layer scale4a_branch2a
I0711 15:34:37.132694 21326 net.cpp:91] Creating Layer scale4a_branch2a
I0711 15:34:37.132699 21326 net.cpp:425] scale4a_branch2a <- res4a_branch2a
I0711 15:34:37.132705 21326 net.cpp:386] scale4a_branch2a -> res4a_branch2a (in-place)
I0711 15:34:37.132752 21326 layer_factory.hpp:77] Creating layer scale4a_branch2a
I0711 15:34:37.132872 21326 net.cpp:141] Setting up scale4a_branch2a
I0711 15:34:37.132882 21326 net.cpp:148] Top shape: 1 256 60 60 (921600)
I0711 15:34:37.132887 21326 net.cpp:156] Memory required for data: 858931200
I0711 15:34:37.132895 21326 layer_factory.hpp:77] Creating layer res4a_branch2a_relu
I0711 15:34:37.132904 21326 net.cpp:91] Creating Layer res4a_branch2a_relu
I0711 15:34:37.132907 21326 net.cpp:425] res4a_branch2a_relu <- res4a_branch2a
I0711 15:34:37.132915 21326 net.cpp:386] res4a_branch2a_relu -> res4a_branch2a (in-place)
I0711 15:34:37.132925 21326 net.cpp:141] Setting up res4a_branch2a_relu
I0711 15:34:37.132930 21326 net.cpp:148] Top shape: 1 256 60 60 (921600)
I0711 15:34:37.132935 21326 net.cpp:156] Memory required for data: 862617600
I0711 15:34:37.132939 21326 layer_factory.hpp:77] Creating layer res4a_branch2b
I0711 15:34:37.132951 21326 net.cpp:91] Creating Layer res4a_branch2b
I0711 15:34:37.132956 21326 net.cpp:425] res4a_branch2b <- res4a_branch2a
I0711 15:34:37.132962 21326 net.cpp:399] res4a_branch2b -> res4a_branch2b
I0711 15:34:37.135962 21326 net.cpp:141] Setting up res4a_branch2b
I0711 15:34:37.135979 21326 net.cpp:148] Top shape: 1 256 60 60 (921600)
I0711 15:34:37.135984 21326 net.cpp:156] Memory required for data: 866304000
I0711 15:34:37.135993 21326 layer_factory.hpp:77] Creating layer bn4a_branch2b
I0711 15:34:37.136001 21326 net.cpp:91] Creating Layer bn4a_branch2b
I0711 15:34:37.136005 21326 net.cpp:425] bn4a_branch2b <- res4a_branch2b
I0711 15:34:37.136015 21326 net.cpp:386] bn4a_branch2b -> res4a_branch2b (in-place)
I0711 15:34:37.136205 21326 net.cpp:141] Setting up bn4a_branch2b
I0711 15:34:37.136217 21326 net.cpp:148] Top shape: 1 256 60 60 (921600)
I0711 15:34:37.136221 21326 net.cpp:156] Memory required for data: 869990400
I0711 15:34:37.136231 21326 layer_factory.hpp:77] Creating layer scale4a_branch2b
I0711 15:34:37.136240 21326 net.cpp:91] Creating Layer scale4a_branch2b
I0711 15:34:37.136256 21326 net.cpp:425] scale4a_branch2b <- res4a_branch2b
I0711 15:34:37.136265 21326 net.cpp:386] scale4a_branch2b -> res4a_branch2b (in-place)
I0711 15:34:37.136310 21326 layer_factory.hpp:77] Creating layer scale4a_branch2b
I0711 15:34:37.136435 21326 net.cpp:141] Setting up scale4a_branch2b
I0711 15:34:37.136445 21326 net.cpp:148] Top shape: 1 256 60 60 (921600)
I0711 15:34:37.136451 21326 net.cpp:156] Memory required for data: 873676800
I0711 15:34:37.136471 21326 layer_factory.hpp:77] Creating layer res4a_branch2b_relu
I0711 15:34:37.136479 21326 net.cpp:91] Creating Layer res4a_branch2b_relu
I0711 15:34:37.136485 21326 net.cpp:425] res4a_branch2b_relu <- res4a_branch2b
I0711 15:34:37.136493 21326 net.cpp:386] res4a_branch2b_relu -> res4a_branch2b (in-place)
I0711 15:34:37.136500 21326 net.cpp:141] Setting up res4a_branch2b_relu
I0711 15:34:37.136507 21326 net.cpp:148] Top shape: 1 256 60 60 (921600)
I0711 15:34:37.136510 21326 net.cpp:156] Memory required for data: 877363200
I0711 15:34:37.136514 21326 layer_factory.hpp:77] Creating layer res4a_branch2c
I0711 15:34:37.136523 21326 net.cpp:91] Creating Layer res4a_branch2c
I0711 15:34:37.136528 21326 net.cpp:425] res4a_branch2c <- res4a_branch2b
I0711 15:34:37.136538 21326 net.cpp:399] res4a_branch2c -> res4a_branch2c
I0711 15:34:37.137975 21326 net.cpp:141] Setting up res4a_branch2c
I0711 15:34:37.137992 21326 net.cpp:148] Top shape: 1 1024 60 60 (3686400)
I0711 15:34:37.137998 21326 net.cpp:156] Memory required for data: 892108800
I0711 15:34:37.138005 21326 layer_factory.hpp:77] Creating layer bn4a_branch2c
I0711 15:34:37.138018 21326 net.cpp:91] Creating Layer bn4a_branch2c
I0711 15:34:37.138025 21326 net.cpp:425] bn4a_branch2c <- res4a_branch2c
I0711 15:34:37.138031 21326 net.cpp:386] bn4a_branch2c -> res4a_branch2c (in-place)
I0711 15:34:37.138227 21326 net.cpp:141] Setting up bn4a_branch2c
I0711 15:34:37.138237 21326 net.cpp:148] Top shape: 1 1024 60 60 (3686400)
I0711 15:34:37.138242 21326 net.cpp:156] Memory required for data: 906854400
I0711 15:34:37.138252 21326 layer_factory.hpp:77] Creating layer scale4a_branch2c
I0711 15:34:37.138260 21326 net.cpp:91] Creating Layer scale4a_branch2c
I0711 15:34:37.138265 21326 net.cpp:425] scale4a_branch2c <- res4a_branch2c
I0711 15:34:37.138274 21326 net.cpp:386] scale4a_branch2c -> res4a_branch2c (in-place)
I0711 15:34:37.138315 21326 layer_factory.hpp:77] Creating layer scale4a_branch2c
I0711 15:34:37.138453 21326 net.cpp:141] Setting up scale4a_branch2c
I0711 15:34:37.138463 21326 net.cpp:148] Top shape: 1 1024 60 60 (3686400)
I0711 15:34:37.138468 21326 net.cpp:156] Memory required for data: 921600000
I0711 15:34:37.138475 21326 layer_factory.hpp:77] Creating layer res4a
I0711 15:34:37.138487 21326 net.cpp:91] Creating Layer res4a
I0711 15:34:37.138492 21326 net.cpp:425] res4a <- res4a_branch1
I0711 15:34:37.138497 21326 net.cpp:425] res4a <- res4a_branch2c
I0711 15:34:37.138505 21326 net.cpp:399] res4a -> res4a
I0711 15:34:37.138536 21326 net.cpp:141] Setting up res4a
I0711 15:34:37.138545 21326 net.cpp:148] Top shape: 1 1024 60 60 (3686400)
I0711 15:34:37.138563 21326 net.cpp:156] Memory required for data: 936345600
I0711 15:34:37.138567 21326 layer_factory.hpp:77] Creating layer res4a_relu
I0711 15:34:37.138576 21326 net.cpp:91] Creating Layer res4a_relu
I0711 15:34:37.138582 21326 net.cpp:425] res4a_relu <- res4a
I0711 15:34:37.138588 21326 net.cpp:386] res4a_relu -> res4a (in-place)
I0711 15:34:37.138595 21326 net.cpp:141] Setting up res4a_relu
I0711 15:34:37.138602 21326 net.cpp:148] Top shape: 1 1024 60 60 (3686400)
I0711 15:34:37.138607 21326 net.cpp:156] Memory required for data: 951091200
I0711 15:34:37.138610 21326 layer_factory.hpp:77] Creating layer res4a_res4a_relu_0_split
I0711 15:34:37.138617 21326 net.cpp:91] Creating Layer res4a_res4a_relu_0_split
I0711 15:34:37.138619 21326 net.cpp:425] res4a_res4a_relu_0_split <- res4a
I0711 15:34:37.138628 21326 net.cpp:399] res4a_res4a_relu_0_split -> res4a_res4a_relu_0_split_0
I0711 15:34:37.138636 21326 net.cpp:399] res4a_res4a_relu_0_split -> res4a_res4a_relu_0_split_1
I0711 15:34:37.138687 21326 net.cpp:141] Setting up res4a_res4a_relu_0_split
I0711 15:34:37.138697 21326 net.cpp:148] Top shape: 1 1024 60 60 (3686400)
I0711 15:34:37.138702 21326 net.cpp:148] Top shape: 1 1024 60 60 (3686400)
I0711 15:34:37.138707 21326 net.cpp:156] Memory required for data: 980582400
I0711 15:34:37.138711 21326 layer_factory.hpp:77] Creating layer res4b1_branch2a
I0711 15:34:37.138738 21326 net.cpp:91] Creating Layer res4b1_branch2a
I0711 15:34:37.138744 21326 net.cpp:425] res4b1_branch2a <- res4a_res4a_relu_0_split_0
I0711 15:34:37.138753 21326 net.cpp:399] res4b1_branch2a -> res4b1_branch2a
I0711 15:34:37.140230 21326 net.cpp:141] Setting up res4b1_branch2a
I0711 15:34:37.140247 21326 net.cpp:148] Top shape: 1 256 60 60 (921600)
I0711 15:34:37.140254 21326 net.cpp:156] Memory required for data: 984268800
I0711 15:34:37.140264 21326 layer_factory.hpp:77] Creating layer bn4b1_branch2a
I0711 15:34:37.140276 21326 net.cpp:91] Creating Layer bn4b1_branch2a
I0711 15:34:37.140283 21326 net.cpp:425] bn4b1_branch2a <- res4b1_branch2a
I0711 15:34:37.140292 21326 net.cpp:386] bn4b1_branch2a -> res4b1_branch2a (in-place)
I0711 15:34:37.140507 21326 net.cpp:141] Setting up bn4b1_branch2a
I0711 15:34:37.140521 21326 net.cpp:148] Top shape: 1 256 60 60 (921600)
I0711 15:34:37.140524 21326 net.cpp:156] Memory required for data: 987955200
I0711 15:34:37.140537 21326 layer_factory.hpp:77] Creating layer scale4b1_branch2a
I0711 15:34:37.140548 21326 net.cpp:91] Creating Layer scale4b1_branch2a
I0711 15:34:37.140554 21326 net.cpp:425] scale4b1_branch2a <- res4b1_branch2a
I0711 15:34:37.140561 21326 net.cpp:386] scale4b1_branch2a -> res4b1_branch2a (in-place)
I0711 15:34:37.140614 21326 layer_factory.hpp:77] Creating layer scale4b1_branch2a
I0711 15:34:37.140743 21326 net.cpp:141] Setting up scale4b1_branch2a
I0711 15:34:37.140754 21326 net.cpp:148] Top shape: 1 256 60 60 (921600)
I0711 15:34:37.140759 21326 net.cpp:156] Memory required for data: 991641600
I0711 15:34:37.140768 21326 layer_factory.hpp:77] Creating layer res4b1_branch2a_relu
I0711 15:34:37.140779 21326 net.cpp:91] Creating Layer res4b1_branch2a_relu
I0711 15:34:37.140784 21326 net.cpp:425] res4b1_branch2a_relu <- res4b1_branch2a
I0711 15:34:37.140794 21326 net.cpp:386] res4b1_branch2a_relu -> res4b1_branch2a (in-place)
I0711 15:34:37.140802 21326 net.cpp:141] Setting up res4b1_branch2a_relu
I0711 15:34:37.140810 21326 net.cpp:148] Top shape: 1 256 60 60 (921600)
I0711 15:34:37.140813 21326 net.cpp:156] Memory required for data: 995328000
I0711 15:34:37.140817 21326 layer_factory.hpp:77] Creating layer res4b1_branch2b
I0711 15:34:37.140828 21326 net.cpp:91] Creating Layer res4b1_branch2b
I0711 15:34:37.140835 21326 net.cpp:425] res4b1_branch2b <- res4b1_branch2a
I0711 15:34:37.140841 21326 net.cpp:399] res4b1_branch2b -> res4b1_branch2b
I0711 15:34:37.142578 21326 net.cpp:141] Setting up res4b1_branch2b
I0711 15:34:37.142596 21326 net.cpp:148] Top shape: 1 256 60 60 (921600)
I0711 15:34:37.142601 21326 net.cpp:156] Memory required for data: 999014400
I0711 15:34:37.142608 21326 layer_factory.hpp:77] Creating layer bn4b1_branch2b
I0711 15:34:37.142619 21326 net.cpp:91] Creating Layer bn4b1_branch2b
I0711 15:34:37.142626 21326 net.cpp:425] bn4b1_branch2b <- res4b1_branch2b
I0711 15:34:37.142634 21326 net.cpp:386] bn4b1_branch2b -> res4b1_branch2b (in-place)
I0711 15:34:37.142832 21326 net.cpp:141] Setting up bn4b1_branch2b
I0711 15:34:37.142841 21326 net.cpp:148] Top shape: 1 256 60 60 (921600)
I0711 15:34:37.142848 21326 net.cpp:156] Memory required for data: 1002700800
I0711 15:34:37.142858 21326 layer_factory.hpp:77] Creating layer scale4b1_branch2b
I0711 15:34:37.142868 21326 net.cpp:91] Creating Layer scale4b1_branch2b
I0711 15:34:37.142874 21326 net.cpp:425] scale4b1_branch2b <- res4b1_branch2b
I0711 15:34:37.142879 21326 net.cpp:386] scale4b1_branch2b -> res4b1_branch2b (in-place)
I0711 15:34:37.142926 21326 layer_factory.hpp:77] Creating layer scale4b1_branch2b
I0711 15:34:37.143054 21326 net.cpp:141] Setting up scale4b1_branch2b
I0711 15:34:37.143075 21326 net.cpp:148] Top shape: 1 256 60 60 (921600)
I0711 15:34:37.143081 21326 net.cpp:156] Memory required for data: 1006387200
I0711 15:34:37.143090 21326 layer_factory.hpp:77] Creating layer res4b1_branch2b_relu
I0711 15:34:37.143097 21326 net.cpp:91] Creating Layer res4b1_branch2b_relu
I0711 15:34:37.143103 21326 net.cpp:425] res4b1_branch2b_relu <- res4b1_branch2b
I0711 15:34:37.143111 21326 net.cpp:386] res4b1_branch2b_relu -> res4b1_branch2b (in-place)
I0711 15:34:37.143120 21326 net.cpp:141] Setting up res4b1_branch2b_relu
I0711 15:34:37.143127 21326 net.cpp:148] Top shape: 1 256 60 60 (921600)
I0711 15:34:37.143131 21326 net.cpp:156] Memory required for data: 1010073600
I0711 15:34:37.143134 21326 layer_factory.hpp:77] Creating layer res4b1_branch2c
I0711 15:34:37.143143 21326 net.cpp:91] Creating Layer res4b1_branch2c
I0711 15:34:37.143148 21326 net.cpp:425] res4b1_branch2c <- res4b1_branch2b
I0711 15:34:37.143157 21326 net.cpp:399] res4b1_branch2c -> res4b1_branch2c
I0711 15:34:37.145236 21326 net.cpp:141] Setting up res4b1_branch2c
I0711 15:34:37.145254 21326 net.cpp:148] Top shape: 1 1024 60 60 (3686400)
I0711 15:34:37.145259 21326 net.cpp:156] Memory required for data: 1024819200
I0711 15:34:37.145267 21326 layer_factory.hpp:77] Creating layer bn4b1_branch2c
I0711 15:34:37.145280 21326 net.cpp:91] Creating Layer bn4b1_branch2c
I0711 15:34:37.145287 21326 net.cpp:425] bn4b1_branch2c <- res4b1_branch2c
I0711 15:34:37.145293 21326 net.cpp:386] bn4b1_branch2c -> res4b1_branch2c (in-place)
I0711 15:34:37.145494 21326 net.cpp:141] Setting up bn4b1_branch2c
I0711 15:34:37.145505 21326 net.cpp:148] Top shape: 1 1024 60 60 (3686400)
I0711 15:34:37.145510 21326 net.cpp:156] Memory required for data: 1039564800
I0711 15:34:37.145520 21326 layer_factory.hpp:77] Creating layer scale4b1_branch2c
I0711 15:34:37.145530 21326 net.cpp:91] Creating Layer scale4b1_branch2c
I0711 15:34:37.145535 21326 net.cpp:425] scale4b1_branch2c <- res4b1_branch2c
I0711 15:34:37.145550 21326 net.cpp:386] scale4b1_branch2c -> res4b1_branch2c (in-place)
I0711 15:34:37.145592 21326 layer_factory.hpp:77] Creating layer scale4b1_branch2c
I0711 15:34:37.145726 21326 net.cpp:141] Setting up scale4b1_branch2c
I0711 15:34:37.145736 21326 net.cpp:148] Top shape: 1 1024 60 60 (3686400)
I0711 15:34:37.145741 21326 net.cpp:156] Memory required for data: 1054310400
I0711 15:34:37.145750 21326 layer_factory.hpp:77] Creating layer res4b1
I0711 15:34:37.145758 21326 net.cpp:91] Creating Layer res4b1
I0711 15:34:37.145764 21326 net.cpp:425] res4b1 <- res4a_res4a_relu_0_split_1
I0711 15:34:37.145771 21326 net.cpp:425] res4b1 <- res4b1_branch2c
I0711 15:34:37.145776 21326 net.cpp:399] res4b1 -> res4b1
I0711 15:34:37.145807 21326 net.cpp:141] Setting up res4b1
I0711 15:34:37.145815 21326 net.cpp:148] Top shape: 1 1024 60 60 (3686400)
I0711 15:34:37.145822 21326 net.cpp:156] Memory required for data: 1069056000
I0711 15:34:37.145825 21326 layer_factory.hpp:77] Creating layer res4b1_relu
I0711 15:34:37.145833 21326 net.cpp:91] Creating Layer res4b1_relu
I0711 15:34:37.145839 21326 net.cpp:425] res4b1_relu <- res4b1
I0711 15:34:37.145845 21326 net.cpp:386] res4b1_relu -> res4b1 (in-place)
I0711 15:34:37.145853 21326 net.cpp:141] Setting up res4b1_relu
I0711 15:34:37.145859 21326 net.cpp:148] Top shape: 1 1024 60 60 (3686400)
I0711 15:34:37.145862 21326 net.cpp:156] Memory required for data: 1083801600
I0711 15:34:37.145866 21326 layer_factory.hpp:77] Creating layer res4b1_res4b1_relu_0_split
I0711 15:34:37.145872 21326 net.cpp:91] Creating Layer res4b1_res4b1_relu_0_split
I0711 15:34:37.145876 21326 net.cpp:425] res4b1_res4b1_relu_0_split <- res4b1
I0711 15:34:37.145881 21326 net.cpp:399] res4b1_res4b1_relu_0_split -> res4b1_res4b1_relu_0_split_0
I0711 15:34:37.145890 21326 net.cpp:399] res4b1_res4b1_relu_0_split -> res4b1_res4b1_relu_0_split_1
I0711 15:34:37.145928 21326 net.cpp:141] Setting up res4b1_res4b1_relu_0_split
I0711 15:34:37.145936 21326 net.cpp:148] Top shape: 1 1024 60 60 (3686400)
I0711 15:34:37.145942 21326 net.cpp:148] Top shape: 1 1024 60 60 (3686400)
I0711 15:34:37.145957 21326 net.cpp:156] Memory required for data: 1113292800
I0711 15:34:37.145962 21326 layer_factory.hpp:77] Creating layer res4b2_branch2a
I0711 15:34:37.145973 21326 net.cpp:91] Creating Layer res4b2_branch2a
I0711 15:34:37.145979 21326 net.cpp:425] res4b2_branch2a <- res4b1_res4b1_relu_0_split_0
I0711 15:34:37.145987 21326 net.cpp:399] res4b2_branch2a -> res4b2_branch2a
I0711 15:34:37.147186 21326 net.cpp:141] Setting up res4b2_branch2a
I0711 15:34:37.147202 21326 net.cpp:148] Top shape: 1 256 60 60 (921600)
I0711 15:34:37.147208 21326 net.cpp:156] Memory required for data: 1116979200
I0711 15:34:37.147217 21326 layer_factory.hpp:77] Creating layer bn4b2_branch2a
I0711 15:34:37.147227 21326 net.cpp:91] Creating Layer bn4b2_branch2a
I0711 15:34:37.147233 21326 net.cpp:425] bn4b2_branch2a <- res4b2_branch2a
I0711 15:34:37.147239 21326 net.cpp:386] bn4b2_branch2a -> res4b2_branch2a (in-place)
I0711 15:34:37.147441 21326 net.cpp:141] Setting up bn4b2_branch2a
I0711 15:34:37.147452 21326 net.cpp:148] Top shape: 1 256 60 60 (921600)
I0711 15:34:37.147457 21326 net.cpp:156] Memory required for data: 1120665600
I0711 15:34:37.147467 21326 layer_factory.hpp:77] Creating layer scale4b2_branch2a
I0711 15:34:37.147478 21326 net.cpp:91] Creating Layer scale4b2_branch2a
I0711 15:34:37.147485 21326 net.cpp:425] scale4b2_branch2a <- res4b2_branch2a
I0711 15:34:37.147490 21326 net.cpp:386] scale4b2_branch2a -> res4b2_branch2a (in-place)
I0711 15:34:37.147536 21326 layer_factory.hpp:77] Creating layer scale4b2_branch2a
I0711 15:34:37.147663 21326 net.cpp:141] Setting up scale4b2_branch2a
I0711 15:34:37.147673 21326 net.cpp:148] Top shape: 1 256 60 60 (921600)
I0711 15:34:37.147678 21326 net.cpp:156] Memory required for data: 1124352000
I0711 15:34:37.147687 21326 layer_factory.hpp:77] Creating layer res4b2_branch2a_relu
I0711 15:34:37.147697 21326 net.cpp:91] Creating Layer res4b2_branch2a_relu
I0711 15:34:37.147703 21326 net.cpp:425] res4b2_branch2a_relu <- res4b2_branch2a
I0711 15:34:37.147709 21326 net.cpp:386] res4b2_branch2a_relu -> res4b2_branch2a (in-place)
I0711 15:34:37.147716 21326 net.cpp:141] Setting up res4b2_branch2a_relu
I0711 15:34:37.147723 21326 net.cpp:148] Top shape: 1 256 60 60 (921600)
I0711 15:34:37.147727 21326 net.cpp:156] Memory required for data: 1128038400
I0711 15:34:37.147732 21326 layer_factory.hpp:77] Creating layer res4b2_branch2b
I0711 15:34:37.147742 21326 net.cpp:91] Creating Layer res4b2_branch2b
I0711 15:34:37.147747 21326 net.cpp:425] res4b2_branch2b <- res4b2_branch2a
I0711 15:34:37.147753 21326 net.cpp:399] res4b2_branch2b -> res4b2_branch2b
I0711 15:34:37.149441 21326 net.cpp:141] Setting up res4b2_branch2b
I0711 15:34:37.149459 21326 net.cpp:148] Top shape: 1 256 60 60 (921600)
I0711 15:34:37.149464 21326 net.cpp:156] Memory required for data: 1131724800
I0711 15:34:37.149473 21326 layer_factory.hpp:77] Creating layer bn4b2_branch2b
I0711 15:34:37.149485 21326 net.cpp:91] Creating Layer bn4b2_branch2b
I0711 15:34:37.149492 21326 net.cpp:425] bn4b2_branch2b <- res4b2_branch2b
I0711 15:34:37.149498 21326 net.cpp:386] bn4b2_branch2b -> res4b2_branch2b (in-place)
I0711 15:34:37.149701 21326 net.cpp:141] Setting up bn4b2_branch2b
I0711 15:34:37.149713 21326 net.cpp:148] Top shape: 1 256 60 60 (921600)
I0711 15:34:37.149718 21326 net.cpp:156] Memory required for data: 1135411200
I0711 15:34:37.149729 21326 layer_factory.hpp:77] Creating layer scale4b2_branch2b
I0711 15:34:37.149749 21326 net.cpp:91] Creating Layer scale4b2_branch2b
I0711 15:34:37.149756 21326 net.cpp:425] scale4b2_branch2b <- res4b2_branch2b
I0711 15:34:37.149762 21326 net.cpp:386] scale4b2_branch2b -> res4b2_branch2b (in-place)
I0711 15:34:37.149808 21326 layer_factory.hpp:77] Creating layer scale4b2_branch2b
I0711 15:34:37.149935 21326 net.cpp:141] Setting up scale4b2_branch2b
I0711 15:34:37.149945 21326 net.cpp:148] Top shape: 1 256 60 60 (921600)
I0711 15:34:37.149948 21326 net.cpp:156] Memory required for data: 1139097600
I0711 15:34:37.149956 21326 layer_factory.hpp:77] Creating layer res4b2_branch2b_relu
I0711 15:34:37.149976 21326 net.cpp:91] Creating Layer res4b2_branch2b_relu
I0711 15:34:37.149981 21326 net.cpp:425] res4b2_branch2b_relu <- res4b2_branch2b
I0711 15:34:37.149989 21326 net.cpp:386] res4b2_branch2b_relu -> res4b2_branch2b (in-place)
I0711 15:34:37.149998 21326 net.cpp:141] Setting up res4b2_branch2b_relu
I0711 15:34:37.150004 21326 net.cpp:148] Top shape: 1 256 60 60 (921600)
I0711 15:34:37.150008 21326 net.cpp:156] Memory required for data: 1142784000
I0711 15:34:37.150013 21326 layer_factory.hpp:77] Creating layer res4b2_branch2c
I0711 15:34:37.150023 21326 net.cpp:91] Creating Layer res4b2_branch2c
I0711 15:34:37.150028 21326 net.cpp:425] res4b2_branch2c <- res4b2_branch2b
I0711 15:34:37.150035 21326 net.cpp:399] res4b2_branch2c -> res4b2_branch2c
I0711 15:34:37.150965 21326 net.cpp:141] Setting up res4b2_branch2c
I0711 15:34:37.150982 21326 net.cpp:148] Top shape: 1 1024 60 60 (3686400)
I0711 15:34:37.150988 21326 net.cpp:156] Memory required for data: 1157529600
I0711 15:34:37.150995 21326 layer_factory.hpp:77] Creating layer bn4b2_branch2c
I0711 15:34:37.151005 21326 net.cpp:91] Creating Layer bn4b2_branch2c
I0711 15:34:37.151011 21326 net.cpp:425] bn4b2_branch2c <- res4b2_branch2c
I0711 15:34:37.151017 21326 net.cpp:386] bn4b2_branch2c -> res4b2_branch2c (in-place)
I0711 15:34:37.151218 21326 net.cpp:141] Setting up bn4b2_branch2c
I0711 15:34:37.151229 21326 net.cpp:148] Top shape: 1 1024 60 60 (3686400)
I0711 15:34:37.151234 21326 net.cpp:156] Memory required for data: 1172275200
I0711 15:34:37.151244 21326 layer_factory.hpp:77] Creating layer scale4b2_branch2c
I0711 15:34:37.151253 21326 net.cpp:91] Creating Layer scale4b2_branch2c
I0711 15:34:37.151258 21326 net.cpp:425] scale4b2_branch2c <- res4b2_branch2c
I0711 15:34:37.151265 21326 net.cpp:386] scale4b2_branch2c -> res4b2_branch2c (in-place)
I0711 15:34:37.151468 21326 layer_factory.hpp:77] Creating layer scale4b2_branch2c
I0711 15:34:37.151618 21326 net.cpp:141] Setting up scale4b2_branch2c
I0711 15:34:37.151629 21326 net.cpp:148] Top shape: 1 1024 60 60 (3686400)
I0711 15:34:37.151634 21326 net.cpp:156] Memory required for data: 1187020800
I0711 15:34:37.151644 21326 layer_factory.hpp:77] Creating layer res4b2
I0711 15:34:37.151651 21326 net.cpp:91] Creating Layer res4b2
I0711 15:34:37.151657 21326 net.cpp:425] res4b2 <- res4b1_res4b1_relu_0_split_1
I0711 15:34:37.151664 21326 net.cpp:425] res4b2 <- res4b2_branch2c
I0711 15:34:37.151672 21326 net.cpp:399] res4b2 -> res4b2
I0711 15:34:37.151703 21326 net.cpp:141] Setting up res4b2
I0711 15:34:37.151712 21326 net.cpp:148] Top shape: 1 1024 60 60 (3686400)
I0711 15:34:37.151716 21326 net.cpp:156] Memory required for data: 1201766400
I0711 15:34:37.151721 21326 layer_factory.hpp:77] Creating layer res4b2_relu
I0711 15:34:37.151729 21326 net.cpp:91] Creating Layer res4b2_relu
I0711 15:34:37.151736 21326 net.cpp:425] res4b2_relu <- res4b2
I0711 15:34:37.151741 21326 net.cpp:386] res4b2_relu -> res4b2 (in-place)
I0711 15:34:37.151747 21326 net.cpp:141] Setting up res4b2_relu
I0711 15:34:37.151754 21326 net.cpp:148] Top shape: 1 1024 60 60 (3686400)
I0711 15:34:37.151758 21326 net.cpp:156] Memory required for data: 1216512000
I0711 15:34:37.151762 21326 layer_factory.hpp:77] Creating layer res4b2_res4b2_relu_0_split
I0711 15:34:37.151768 21326 net.cpp:91] Creating Layer res4b2_res4b2_relu_0_split
I0711 15:34:37.151772 21326 net.cpp:425] res4b2_res4b2_relu_0_split <- res4b2
I0711 15:34:37.151778 21326 net.cpp:399] res4b2_res4b2_relu_0_split -> res4b2_res4b2_relu_0_split_0
I0711 15:34:37.151787 21326 net.cpp:399] res4b2_res4b2_relu_0_split -> res4b2_res4b2_relu_0_split_1
I0711 15:34:37.151826 21326 net.cpp:141] Setting up res4b2_res4b2_relu_0_split
I0711 15:34:37.151835 21326 net.cpp:148] Top shape: 1 1024 60 60 (3686400)
I0711 15:34:37.151840 21326 net.cpp:148] Top shape: 1 1024 60 60 (3686400)
I0711 15:34:37.151845 21326 net.cpp:156] Memory required for data: 1246003200
I0711 15:34:37.151850 21326 layer_factory.hpp:77] Creating layer res4b3_branch2a
I0711 15:34:37.151859 21326 net.cpp:91] Creating Layer res4b3_branch2a
I0711 15:34:37.151875 21326 net.cpp:425] res4b3_branch2a <- res4b2_res4b2_relu_0_split_0
I0711 15:34:37.151885 21326 net.cpp:399] res4b3_branch2a -> res4b3_branch2a
I0711 15:34:37.152832 21326 net.cpp:141] Setting up res4b3_branch2a
I0711 15:34:37.152849 21326 net.cpp:148] Top shape: 1 256 60 60 (921600)
I0711 15:34:37.152855 21326 net.cpp:156] Memory required for data: 1249689600
I0711 15:34:37.152863 21326 layer_factory.hpp:77] Creating layer bn4b3_branch2a
I0711 15:34:37.152884 21326 net.cpp:91] Creating Layer bn4b3_branch2a
I0711 15:34:37.152889 21326 net.cpp:425] bn4b3_branch2a <- res4b3_branch2a
I0711 15:34:37.152896 21326 net.cpp:386] bn4b3_branch2a -> res4b3_branch2a (in-place)
I0711 15:34:37.153671 21326 net.cpp:141] Setting up bn4b3_branch2a
I0711 15:34:37.153687 21326 net.cpp:148] Top shape: 1 256 60 60 (921600)
I0711 15:34:37.153692 21326 net.cpp:156] Memory required for data: 1253376000
I0711 15:34:37.153703 21326 layer_factory.hpp:77] Creating layer scale4b3_branch2a
I0711 15:34:37.153715 21326 net.cpp:91] Creating Layer scale4b3_branch2a
I0711 15:34:37.153722 21326 net.cpp:425] scale4b3_branch2a <- res4b3_branch2a
I0711 15:34:37.153728 21326 net.cpp:386] scale4b3_branch2a -> res4b3_branch2a (in-place)
I0711 15:34:37.153776 21326 layer_factory.hpp:77] Creating layer scale4b3_branch2a
I0711 15:34:37.153901 21326 net.cpp:141] Setting up scale4b3_branch2a
I0711 15:34:37.153911 21326 net.cpp:148] Top shape: 1 256 60 60 (921600)
I0711 15:34:37.153916 21326 net.cpp:156] Memory required for data: 1257062400
I0711 15:34:37.153924 21326 layer_factory.hpp:77] Creating layer res4b3_branch2a_relu
I0711 15:34:37.153933 21326 net.cpp:91] Creating Layer res4b3_branch2a_relu
I0711 15:34:37.153939 21326 net.cpp:425] res4b3_branch2a_relu <- res4b3_branch2a
I0711 15:34:37.153946 21326 net.cpp:386] res4b3_branch2a_relu -> res4b3_branch2a (in-place)
I0711 15:34:37.153954 21326 net.cpp:141] Setting up res4b3_branch2a_relu
I0711 15:34:37.153961 21326 net.cpp:148] Top shape: 1 256 60 60 (921600)
I0711 15:34:37.153965 21326 net.cpp:156] Memory required for data: 1260748800
I0711 15:34:37.153970 21326 layer_factory.hpp:77] Creating layer res4b3_branch2b
I0711 15:34:37.153981 21326 net.cpp:91] Creating Layer res4b3_branch2b
I0711 15:34:37.153987 21326 net.cpp:425] res4b3_branch2b <- res4b3_branch2a
I0711 15:34:37.153993 21326 net.cpp:399] res4b3_branch2b -> res4b3_branch2b
I0711 15:34:37.155609 21326 net.cpp:141] Setting up res4b3_branch2b
I0711 15:34:37.155625 21326 net.cpp:148] Top shape: 1 256 60 60 (921600)
I0711 15:34:37.155632 21326 net.cpp:156] Memory required for data: 1264435200
I0711 15:34:37.155639 21326 layer_factory.hpp:77] Creating layer bn4b3_branch2b
I0711 15:34:37.155649 21326 net.cpp:91] Creating Layer bn4b3_branch2b
I0711 15:34:37.155655 21326 net.cpp:425] bn4b3_branch2b <- res4b3_branch2b
I0711 15:34:37.155663 21326 net.cpp:386] bn4b3_branch2b -> res4b3_branch2b (in-place)
I0711 15:34:37.155864 21326 net.cpp:141] Setting up bn4b3_branch2b
I0711 15:34:37.155874 21326 net.cpp:148] Top shape: 1 256 60 60 (921600)
I0711 15:34:37.155879 21326 net.cpp:156] Memory required for data: 1268121600
I0711 15:34:37.155889 21326 layer_factory.hpp:77] Creating layer scale4b3_branch2b
I0711 15:34:37.155899 21326 net.cpp:91] Creating Layer scale4b3_branch2b
I0711 15:34:37.155903 21326 net.cpp:425] scale4b3_branch2b <- res4b3_branch2b
I0711 15:34:37.155910 21326 net.cpp:386] scale4b3_branch2b -> res4b3_branch2b (in-place)
I0711 15:34:37.155956 21326 layer_factory.hpp:77] Creating layer scale4b3_branch2b
I0711 15:34:37.156080 21326 net.cpp:141] Setting up scale4b3_branch2b
I0711 15:34:37.156090 21326 net.cpp:148] Top shape: 1 256 60 60 (921600)
I0711 15:34:37.156095 21326 net.cpp:156] Memory required for data: 1271808000
I0711 15:34:37.156103 21326 layer_factory.hpp:77] Creating layer res4b3_branch2b_relu
I0711 15:34:37.156111 21326 net.cpp:91] Creating Layer res4b3_branch2b_relu
I0711 15:34:37.156118 21326 net.cpp:425] res4b3_branch2b_relu <- res4b3_branch2b
I0711 15:34:37.156124 21326 net.cpp:386] res4b3_branch2b_relu -> res4b3_branch2b (in-place)
I0711 15:34:37.156144 21326 net.cpp:141] Setting up res4b3_branch2b_relu
I0711 15:34:37.156152 21326 net.cpp:148] Top shape: 1 256 60 60 (921600)
I0711 15:34:37.156157 21326 net.cpp:156] Memory required for data: 1275494400
I0711 15:34:37.156162 21326 layer_factory.hpp:77] Creating layer res4b3_branch2c
I0711 15:34:37.156170 21326 net.cpp:91] Creating Layer res4b3_branch2c
I0711 15:34:37.156175 21326 net.cpp:425] res4b3_branch2c <- res4b3_branch2b
I0711 15:34:37.156184 21326 net.cpp:399] res4b3_branch2c -> res4b3_branch2c
I0711 15:34:37.157138 21326 net.cpp:141] Setting up res4b3_branch2c
I0711 15:34:37.157155 21326 net.cpp:148] Top shape: 1 1024 60 60 (3686400)
I0711 15:34:37.157160 21326 net.cpp:156] Memory required for data: 1290240000
I0711 15:34:37.157169 21326 layer_factory.hpp:77] Creating layer bn4b3_branch2c
I0711 15:34:37.157181 21326 net.cpp:91] Creating Layer bn4b3_branch2c
I0711 15:34:37.157187 21326 net.cpp:425] bn4b3_branch2c <- res4b3_branch2c
I0711 15:34:37.157194 21326 net.cpp:386] bn4b3_branch2c -> res4b3_branch2c (in-place)
I0711 15:34:37.157400 21326 net.cpp:141] Setting up bn4b3_branch2c
I0711 15:34:37.157412 21326 net.cpp:148] Top shape: 1 1024 60 60 (3686400)
I0711 15:34:37.157416 21326 net.cpp:156] Memory required for data: 1304985600
I0711 15:34:37.157426 21326 layer_factory.hpp:77] Creating layer scale4b3_branch2c
I0711 15:34:37.157435 21326 net.cpp:91] Creating Layer scale4b3_branch2c
I0711 15:34:37.157441 21326 net.cpp:425] scale4b3_branch2c <- res4b3_branch2c
I0711 15:34:37.157449 21326 net.cpp:386] scale4b3_branch2c -> res4b3_branch2c (in-place)
I0711 15:34:37.157491 21326 layer_factory.hpp:77] Creating layer scale4b3_branch2c
I0711 15:34:37.157624 21326 net.cpp:141] Setting up scale4b3_branch2c
I0711 15:34:37.157634 21326 net.cpp:148] Top shape: 1 1024 60 60 (3686400)
I0711 15:34:37.157639 21326 net.cpp:156] Memory required for data: 1319731200
I0711 15:34:37.157646 21326 layer_factory.hpp:77] Creating layer res4b3
I0711 15:34:37.157655 21326 net.cpp:91] Creating Layer res4b3
I0711 15:34:37.157660 21326 net.cpp:425] res4b3 <- res4b2_res4b2_relu_0_split_1
I0711 15:34:37.157665 21326 net.cpp:425] res4b3 <- res4b3_branch2c
I0711 15:34:37.157671 21326 net.cpp:399] res4b3 -> res4b3
I0711 15:34:37.157701 21326 net.cpp:141] Setting up res4b3
I0711 15:34:37.157712 21326 net.cpp:148] Top shape: 1 1024 60 60 (3686400)
I0711 15:34:37.157717 21326 net.cpp:156] Memory required for data: 1334476800
I0711 15:34:37.157721 21326 layer_factory.hpp:77] Creating layer res4b3_relu
I0711 15:34:37.157727 21326 net.cpp:91] Creating Layer res4b3_relu
I0711 15:34:37.157732 21326 net.cpp:425] res4b3_relu <- res4b3
I0711 15:34:37.157737 21326 net.cpp:386] res4b3_relu -> res4b3 (in-place)
I0711 15:34:37.157745 21326 net.cpp:141] Setting up res4b3_relu
I0711 15:34:37.157752 21326 net.cpp:148] Top shape: 1 1024 60 60 (3686400)
I0711 15:34:37.157757 21326 net.cpp:156] Memory required for data: 1349222400
I0711 15:34:37.157760 21326 layer_factory.hpp:77] Creating layer res4b3_res4b3_relu_0_split
I0711 15:34:37.157766 21326 net.cpp:91] Creating Layer res4b3_res4b3_relu_0_split
I0711 15:34:37.157770 21326 net.cpp:425] res4b3_res4b3_relu_0_split <- res4b3
I0711 15:34:37.157778 21326 net.cpp:399] res4b3_res4b3_relu_0_split -> res4b3_res4b3_relu_0_split_0
I0711 15:34:37.157786 21326 net.cpp:399] res4b3_res4b3_relu_0_split -> res4b3_res4b3_relu_0_split_1
I0711 15:34:37.157824 21326 net.cpp:141] Setting up res4b3_res4b3_relu_0_split
I0711 15:34:37.157832 21326 net.cpp:148] Top shape: 1 1024 60 60 (3686400)
I0711 15:34:37.157838 21326 net.cpp:148] Top shape: 1 1024 60 60 (3686400)
I0711 15:34:37.157842 21326 net.cpp:156] Memory required for data: 1378713600
I0711 15:34:37.157846 21326 layer_factory.hpp:77] Creating layer res4b4_branch2a
I0711 15:34:37.157857 21326 net.cpp:91] Creating Layer res4b4_branch2a
I0711 15:34:37.157863 21326 net.cpp:425] res4b4_branch2a <- res4b3_res4b3_relu_0_split_0
I0711 15:34:37.157871 21326 net.cpp:399] res4b4_branch2a -> res4b4_branch2a
I0711 15:34:37.158823 21326 net.cpp:141] Setting up res4b4_branch2a
I0711 15:34:37.158840 21326 net.cpp:148] Top shape: 1 256 60 60 (921600)
I0711 15:34:37.158845 21326 net.cpp:156] Memory required for data: 1382400000
I0711 15:34:37.158854 21326 layer_factory.hpp:77] Creating layer bn4b4_branch2a
I0711 15:34:37.158864 21326 net.cpp:91] Creating Layer bn4b4_branch2a
I0711 15:34:37.158869 21326 net.cpp:425] bn4b4_branch2a <- res4b4_branch2a
I0711 15:34:37.158876 21326 net.cpp:386] bn4b4_branch2a -> res4b4_branch2a (in-place)
I0711 15:34:37.159081 21326 net.cpp:141] Setting up bn4b4_branch2a
I0711 15:34:37.159092 21326 net.cpp:148] Top shape: 1 256 60 60 (921600)
I0711 15:34:37.159096 21326 net.cpp:156] Memory required for data: 1386086400
I0711 15:34:37.159107 21326 layer_factory.hpp:77] Creating layer scale4b4_branch2a
I0711 15:34:37.159116 21326 net.cpp:91] Creating Layer scale4b4_branch2a
I0711 15:34:37.159122 21326 net.cpp:425] scale4b4_branch2a <- res4b4_branch2a
I0711 15:34:37.159128 21326 net.cpp:386] scale4b4_branch2a -> res4b4_branch2a (in-place)
I0711 15:34:37.159175 21326 layer_factory.hpp:77] Creating layer scale4b4_branch2a
I0711 15:34:37.159306 21326 net.cpp:141] Setting up scale4b4_branch2a
I0711 15:34:37.159317 21326 net.cpp:148] Top shape: 1 256 60 60 (921600)
I0711 15:34:37.159320 21326 net.cpp:156] Memory required for data: 1389772800
I0711 15:34:37.159328 21326 layer_factory.hpp:77] Creating layer res4b4_branch2a_relu
I0711 15:34:37.159337 21326 net.cpp:91] Creating Layer res4b4_branch2a_relu
I0711 15:34:37.159343 21326 net.cpp:425] res4b4_branch2a_relu <- res4b4_branch2a
I0711 15:34:37.159349 21326 net.cpp:386] res4b4_branch2a_relu -> res4b4_branch2a (in-place)
I0711 15:34:37.159358 21326 net.cpp:141] Setting up res4b4_branch2a_relu
I0711 15:34:37.159364 21326 net.cpp:148] Top shape: 1 256 60 60 (921600)
I0711 15:34:37.159368 21326 net.cpp:156] Memory required for data: 1393459200
I0711 15:34:37.159373 21326 layer_factory.hpp:77] Creating layer res4b4_branch2b
I0711 15:34:37.159381 21326 net.cpp:91] Creating Layer res4b4_branch2b
I0711 15:34:37.159386 21326 net.cpp:425] res4b4_branch2b <- res4b4_branch2a
I0711 15:34:37.159394 21326 net.cpp:399] res4b4_branch2b -> res4b4_branch2b
I0711 15:34:37.161016 21326 net.cpp:141] Setting up res4b4_branch2b
I0711 15:34:37.161033 21326 net.cpp:148] Top shape: 1 256 60 60 (921600)
I0711 15:34:37.161038 21326 net.cpp:156] Memory required for data: 1397145600
I0711 15:34:37.161046 21326 layer_factory.hpp:77] Creating layer bn4b4_branch2b
I0711 15:34:37.161058 21326 net.cpp:91] Creating Layer bn4b4_branch2b
I0711 15:34:37.161065 21326 net.cpp:425] bn4b4_branch2b <- res4b4_branch2b
I0711 15:34:37.161072 21326 net.cpp:386] bn4b4_branch2b -> res4b4_branch2b (in-place)
I0711 15:34:37.161270 21326 net.cpp:141] Setting up bn4b4_branch2b
I0711 15:34:37.161281 21326 net.cpp:148] Top shape: 1 256 60 60 (921600)
I0711 15:34:37.161286 21326 net.cpp:156] Memory required for data: 1400832000
I0711 15:34:37.161296 21326 layer_factory.hpp:77] Creating layer scale4b4_branch2b
I0711 15:34:37.161305 21326 net.cpp:91] Creating Layer scale4b4_branch2b
I0711 15:34:37.161310 21326 net.cpp:425] scale4b4_branch2b <- res4b4_branch2b
I0711 15:34:37.161319 21326 net.cpp:386] scale4b4_branch2b -> res4b4_branch2b (in-place)
I0711 15:34:37.161362 21326 layer_factory.hpp:77] Creating layer scale4b4_branch2b
I0711 15:34:37.161485 21326 net.cpp:141] Setting up scale4b4_branch2b
I0711 15:34:37.161497 21326 net.cpp:148] Top shape: 1 256 60 60 (921600)
I0711 15:34:37.161504 21326 net.cpp:156] Memory required for data: 1404518400
I0711 15:34:37.161511 21326 layer_factory.hpp:77] Creating layer res4b4_branch2b_relu
I0711 15:34:37.161520 21326 net.cpp:91] Creating Layer res4b4_branch2b_relu
I0711 15:34:37.161525 21326 net.cpp:425] res4b4_branch2b_relu <- res4b4_branch2b
I0711 15:34:37.161530 21326 net.cpp:386] res4b4_branch2b_relu -> res4b4_branch2b (in-place)
I0711 15:34:37.161537 21326 net.cpp:141] Setting up res4b4_branch2b_relu
I0711 15:34:37.161545 21326 net.cpp:148] Top shape: 1 256 60 60 (921600)
I0711 15:34:37.161559 21326 net.cpp:156] Memory required for data: 1408204800
I0711 15:34:37.161563 21326 layer_factory.hpp:77] Creating layer res4b4_branch2c
I0711 15:34:37.161576 21326 net.cpp:91] Creating Layer res4b4_branch2c
I0711 15:34:37.161581 21326 net.cpp:425] res4b4_branch2c <- res4b4_branch2b
I0711 15:34:37.161589 21326 net.cpp:399] res4b4_branch2c -> res4b4_branch2c
I0711 15:34:37.162528 21326 net.cpp:141] Setting up res4b4_branch2c
I0711 15:34:37.162545 21326 net.cpp:148] Top shape: 1 1024 60 60 (3686400)
I0711 15:34:37.162550 21326 net.cpp:156] Memory required for data: 1422950400
I0711 15:34:37.162559 21326 layer_factory.hpp:77] Creating layer bn4b4_branch2c
I0711 15:34:37.162570 21326 net.cpp:91] Creating Layer bn4b4_branch2c
I0711 15:34:37.162576 21326 net.cpp:425] bn4b4_branch2c <- res4b4_branch2c
I0711 15:34:37.162583 21326 net.cpp:386] bn4b4_branch2c -> res4b4_branch2c (in-place)
I0711 15:34:37.162796 21326 net.cpp:141] Setting up bn4b4_branch2c
I0711 15:34:37.162809 21326 net.cpp:148] Top shape: 1 1024 60 60 (3686400)
I0711 15:34:37.162816 21326 net.cpp:156] Memory required for data: 1437696000
I0711 15:34:37.162825 21326 layer_factory.hpp:77] Creating layer scale4b4_branch2c
I0711 15:34:37.162837 21326 net.cpp:91] Creating Layer scale4b4_branch2c
I0711 15:34:37.162843 21326 net.cpp:425] scale4b4_branch2c <- res4b4_branch2c
I0711 15:34:37.162849 21326 net.cpp:386] scale4b4_branch2c -> res4b4_branch2c (in-place)
I0711 15:34:37.162896 21326 layer_factory.hpp:77] Creating layer scale4b4_branch2c
I0711 15:34:37.163027 21326 net.cpp:141] Setting up scale4b4_branch2c
I0711 15:34:37.163036 21326 net.cpp:148] Top shape: 1 1024 60 60 (3686400)
I0711 15:34:37.163043 21326 net.cpp:156] Memory required for data: 1452441600
I0711 15:34:37.163050 21326 layer_factory.hpp:77] Creating layer res4b4
I0711 15:34:37.163058 21326 net.cpp:91] Creating Layer res4b4
I0711 15:34:37.163064 21326 net.cpp:425] res4b4 <- res4b3_res4b3_relu_0_split_1
I0711 15:34:37.163069 21326 net.cpp:425] res4b4 <- res4b4_branch2c
I0711 15:34:37.163077 21326 net.cpp:399] res4b4 -> res4b4
I0711 15:34:37.163107 21326 net.cpp:141] Setting up res4b4
I0711 15:34:37.163116 21326 net.cpp:148] Top shape: 1 1024 60 60 (3686400)
I0711 15:34:37.163122 21326 net.cpp:156] Memory required for data: 1467187200
I0711 15:34:37.163126 21326 layer_factory.hpp:77] Creating layer res4b4_relu
I0711 15:34:37.163133 21326 net.cpp:91] Creating Layer res4b4_relu
I0711 15:34:37.163138 21326 net.cpp:425] res4b4_relu <- res4b4
I0711 15:34:37.163143 21326 net.cpp:386] res4b4_relu -> res4b4 (in-place)
I0711 15:34:37.163151 21326 net.cpp:141] Setting up res4b4_relu
I0711 15:34:37.163157 21326 net.cpp:148] Top shape: 1 1024 60 60 (3686400)
I0711 15:34:37.163161 21326 net.cpp:156] Memory required for data: 1481932800
I0711 15:34:37.163164 21326 layer_factory.hpp:77] Creating layer res4b4_res4b4_relu_0_split
I0711 15:34:37.163172 21326 net.cpp:91] Creating Layer res4b4_res4b4_relu_0_split
I0711 15:34:37.163178 21326 net.cpp:425] res4b4_res4b4_relu_0_split <- res4b4
I0711 15:34:37.163183 21326 net.cpp:399] res4b4_res4b4_relu_0_split -> res4b4_res4b4_relu_0_split_0
I0711 15:34:37.163192 21326 net.cpp:399] res4b4_res4b4_relu_0_split -> res4b4_res4b4_relu_0_split_1
I0711 15:34:37.163230 21326 net.cpp:141] Setting up res4b4_res4b4_relu_0_split
I0711 15:34:37.163239 21326 net.cpp:148] Top shape: 1 1024 60 60 (3686400)
I0711 15:34:37.163244 21326 net.cpp:148] Top shape: 1 1024 60 60 (3686400)
I0711 15:34:37.163250 21326 net.cpp:156] Memory required for data: 1511424000
I0711 15:34:37.163254 21326 layer_factory.hpp:77] Creating layer res4b5_branch2a
I0711 15:34:37.163262 21326 net.cpp:91] Creating Layer res4b5_branch2a
I0711 15:34:37.163269 21326 net.cpp:425] res4b5_branch2a <- res4b4_res4b4_relu_0_split_0
I0711 15:34:37.163275 21326 net.cpp:399] res4b5_branch2a -> res4b5_branch2a
I0711 15:34:37.164208 21326 net.cpp:141] Setting up res4b5_branch2a
I0711 15:34:37.164225 21326 net.cpp:148] Top shape: 1 256 60 60 (921600)
I0711 15:34:37.164232 21326 net.cpp:156] Memory required for data: 1515110400
I0711 15:34:37.164249 21326 layer_factory.hpp:77] Creating layer bn4b5_branch2a
I0711 15:34:37.164260 21326 net.cpp:91] Creating Layer bn4b5_branch2a
I0711 15:34:37.164266 21326 net.cpp:425] bn4b5_branch2a <- res4b5_branch2a
I0711 15:34:37.164275 21326 net.cpp:386] bn4b5_branch2a -> res4b5_branch2a (in-place)
I0711 15:34:37.164486 21326 net.cpp:141] Setting up bn4b5_branch2a
I0711 15:34:37.164499 21326 net.cpp:148] Top shape: 1 256 60 60 (921600)
I0711 15:34:37.164502 21326 net.cpp:156] Memory required for data: 1518796800
I0711 15:34:37.164512 21326 layer_factory.hpp:77] Creating layer scale4b5_branch2a
I0711 15:34:37.164525 21326 net.cpp:91] Creating Layer scale4b5_branch2a
I0711 15:34:37.164528 21326 net.cpp:425] scale4b5_branch2a <- res4b5_branch2a
I0711 15:34:37.164535 21326 net.cpp:386] scale4b5_branch2a -> res4b5_branch2a (in-place)
I0711 15:34:37.164579 21326 layer_factory.hpp:77] Creating layer scale4b5_branch2a
I0711 15:34:37.164703 21326 net.cpp:141] Setting up scale4b5_branch2a
I0711 15:34:37.164713 21326 net.cpp:148] Top shape: 1 256 60 60 (921600)
I0711 15:34:37.164718 21326 net.cpp:156] Memory required for data: 1522483200
I0711 15:34:37.164726 21326 layer_factory.hpp:77] Creating layer res4b5_branch2a_relu
I0711 15:34:37.164734 21326 net.cpp:91] Creating Layer res4b5_branch2a_relu
I0711 15:34:37.164741 21326 net.cpp:425] res4b5_branch2a_relu <- res4b5_branch2a
I0711 15:34:37.164747 21326 net.cpp:386] res4b5_branch2a_relu -> res4b5_branch2a (in-place)
I0711 15:34:37.164754 21326 net.cpp:141] Setting up res4b5_branch2a_relu
I0711 15:34:37.164762 21326 net.cpp:148] Top shape: 1 256 60 60 (921600)
I0711 15:34:37.164765 21326 net.cpp:156] Memory required for data: 1526169600
I0711 15:34:37.164770 21326 layer_factory.hpp:77] Creating layer res4b5_branch2b
I0711 15:34:37.164778 21326 net.cpp:91] Creating Layer res4b5_branch2b
I0711 15:34:37.164783 21326 net.cpp:425] res4b5_branch2b <- res4b5_branch2a
I0711 15:34:37.164793 21326 net.cpp:399] res4b5_branch2b -> res4b5_branch2b
I0711 15:34:37.166407 21326 net.cpp:141] Setting up res4b5_branch2b
I0711 15:34:37.166424 21326 net.cpp:148] Top shape: 1 256 60 60 (921600)
I0711 15:34:37.166429 21326 net.cpp:156] Memory required for data: 1529856000
I0711 15:34:37.166437 21326 layer_factory.hpp:77] Creating layer bn4b5_branch2b
I0711 15:34:37.166450 21326 net.cpp:91] Creating Layer bn4b5_branch2b
I0711 15:34:37.166455 21326 net.cpp:425] bn4b5_branch2b <- res4b5_branch2b
I0711 15:34:37.166462 21326 net.cpp:386] bn4b5_branch2b -> res4b5_branch2b (in-place)
I0711 15:34:37.166663 21326 net.cpp:141] Setting up bn4b5_branch2b
I0711 15:34:37.166674 21326 net.cpp:148] Top shape: 1 256 60 60 (921600)
I0711 15:34:37.166679 21326 net.cpp:156] Memory required for data: 1533542400
I0711 15:34:37.166689 21326 layer_factory.hpp:77] Creating layer scale4b5_branch2b
I0711 15:34:37.166699 21326 net.cpp:91] Creating Layer scale4b5_branch2b
I0711 15:34:37.166704 21326 net.cpp:425] scale4b5_branch2b <- res4b5_branch2b
I0711 15:34:37.166713 21326 net.cpp:386] scale4b5_branch2b -> res4b5_branch2b (in-place)
I0711 15:34:37.166760 21326 layer_factory.hpp:77] Creating layer scale4b5_branch2b
I0711 15:34:37.166887 21326 net.cpp:141] Setting up scale4b5_branch2b
I0711 15:34:37.166896 21326 net.cpp:148] Top shape: 1 256 60 60 (921600)
I0711 15:34:37.166903 21326 net.cpp:156] Memory required for data: 1537228800
I0711 15:34:37.166910 21326 layer_factory.hpp:77] Creating layer res4b5_branch2b_relu
I0711 15:34:37.166918 21326 net.cpp:91] Creating Layer res4b5_branch2b_relu
I0711 15:34:37.166923 21326 net.cpp:425] res4b5_branch2b_relu <- res4b5_branch2b
I0711 15:34:37.166929 21326 net.cpp:386] res4b5_branch2b_relu -> res4b5_branch2b (in-place)
I0711 15:34:37.166936 21326 net.cpp:141] Setting up res4b5_branch2b_relu
I0711 15:34:37.166942 21326 net.cpp:148] Top shape: 1 256 60 60 (921600)
I0711 15:34:37.166946 21326 net.cpp:156] Memory required for data: 1540915200
I0711 15:34:37.166950 21326 layer_factory.hpp:77] Creating layer res4b5_branch2c
I0711 15:34:37.166961 21326 net.cpp:91] Creating Layer res4b5_branch2c
I0711 15:34:37.166977 21326 net.cpp:425] res4b5_branch2c <- res4b5_branch2b
I0711 15:34:37.166987 21326 net.cpp:399] res4b5_branch2c -> res4b5_branch2c
I0711 15:34:37.167928 21326 net.cpp:141] Setting up res4b5_branch2c
I0711 15:34:37.167944 21326 net.cpp:148] Top shape: 1 1024 60 60 (3686400)
I0711 15:34:37.167950 21326 net.cpp:156] Memory required for data: 1555660800
I0711 15:34:37.167958 21326 layer_factory.hpp:77] Creating layer bn4b5_branch2c
I0711 15:34:37.167968 21326 net.cpp:91] Creating Layer bn4b5_branch2c
I0711 15:34:37.167974 21326 net.cpp:425] bn4b5_branch2c <- res4b5_branch2c
I0711 15:34:37.167981 21326 net.cpp:386] bn4b5_branch2c -> res4b5_branch2c (in-place)
I0711 15:34:37.168197 21326 net.cpp:141] Setting up bn4b5_branch2c
I0711 15:34:37.168208 21326 net.cpp:148] Top shape: 1 1024 60 60 (3686400)
I0711 15:34:37.168212 21326 net.cpp:156] Memory required for data: 1570406400
I0711 15:34:37.168222 21326 layer_factory.hpp:77] Creating layer scale4b5_branch2c
I0711 15:34:37.168233 21326 net.cpp:91] Creating Layer scale4b5_branch2c
I0711 15:34:37.168239 21326 net.cpp:425] scale4b5_branch2c <- res4b5_branch2c
I0711 15:34:37.168246 21326 net.cpp:386] scale4b5_branch2c -> res4b5_branch2c (in-place)
I0711 15:34:37.168289 21326 layer_factory.hpp:77] Creating layer scale4b5_branch2c
I0711 15:34:37.168422 21326 net.cpp:141] Setting up scale4b5_branch2c
I0711 15:34:37.168432 21326 net.cpp:148] Top shape: 1 1024 60 60 (3686400)
I0711 15:34:37.168437 21326 net.cpp:156] Memory required for data: 1585152000
I0711 15:34:37.168490 21326 layer_factory.hpp:77] Creating layer res4b5
I0711 15:34:37.168500 21326 net.cpp:91] Creating Layer res4b5
I0711 15:34:37.168505 21326 net.cpp:425] res4b5 <- res4b4_res4b4_relu_0_split_1
I0711 15:34:37.168511 21326 net.cpp:425] res4b5 <- res4b5_branch2c
I0711 15:34:37.168517 21326 net.cpp:399] res4b5 -> res4b5
I0711 15:34:37.168550 21326 net.cpp:141] Setting up res4b5
I0711 15:34:37.168560 21326 net.cpp:148] Top shape: 1 1024 60 60 (3686400)
I0711 15:34:37.168566 21326 net.cpp:156] Memory required for data: 1599897600
I0711 15:34:37.168570 21326 layer_factory.hpp:77] Creating layer res4b5_relu
I0711 15:34:37.168578 21326 net.cpp:91] Creating Layer res4b5_relu
I0711 15:34:37.168584 21326 net.cpp:425] res4b5_relu <- res4b5
I0711 15:34:37.168589 21326 net.cpp:386] res4b5_relu -> res4b5 (in-place)
I0711 15:34:37.168596 21326 net.cpp:141] Setting up res4b5_relu
I0711 15:34:37.168603 21326 net.cpp:148] Top shape: 1 1024 60 60 (3686400)
I0711 15:34:37.168607 21326 net.cpp:156] Memory required for data: 1614643200
I0711 15:34:37.168612 21326 layer_factory.hpp:77] Creating layer res4b5_res4b5_relu_0_split
I0711 15:34:37.168617 21326 net.cpp:91] Creating Layer res4b5_res4b5_relu_0_split
I0711 15:34:37.168622 21326 net.cpp:425] res4b5_res4b5_relu_0_split <- res4b5
I0711 15:34:37.168627 21326 net.cpp:399] res4b5_res4b5_relu_0_split -> res4b5_res4b5_relu_0_split_0
I0711 15:34:37.168635 21326 net.cpp:399] res4b5_res4b5_relu_0_split -> res4b5_res4b5_relu_0_split_1
I0711 15:34:37.168676 21326 net.cpp:141] Setting up res4b5_res4b5_relu_0_split
I0711 15:34:37.168685 21326 net.cpp:148] Top shape: 1 1024 60 60 (3686400)
I0711 15:34:37.168690 21326 net.cpp:148] Top shape: 1 1024 60 60 (3686400)
I0711 15:34:37.168694 21326 net.cpp:156] Memory required for data: 1644134400
I0711 15:34:37.168699 21326 layer_factory.hpp:77] Creating layer res4b6_branch2a
I0711 15:34:37.168709 21326 net.cpp:91] Creating Layer res4b6_branch2a
I0711 15:34:37.168715 21326 net.cpp:425] res4b6_branch2a <- res4b5_res4b5_relu_0_split_0
I0711 15:34:37.168722 21326 net.cpp:399] res4b6_branch2a -> res4b6_branch2a
I0711 15:34:37.169667 21326 net.cpp:141] Setting up res4b6_branch2a
I0711 15:34:37.169683 21326 net.cpp:148] Top shape: 1 256 60 60 (921600)
I0711 15:34:37.169689 21326 net.cpp:156] Memory required for data: 1647820800
I0711 15:34:37.169697 21326 layer_factory.hpp:77] Creating layer bn4b6_branch2a
I0711 15:34:37.169708 21326 net.cpp:91] Creating Layer bn4b6_branch2a
I0711 15:34:37.169713 21326 net.cpp:425] bn4b6_branch2a <- res4b6_branch2a
I0711 15:34:37.169731 21326 net.cpp:386] bn4b6_branch2a -> res4b6_branch2a (in-place)
I0711 15:34:37.169935 21326 net.cpp:141] Setting up bn4b6_branch2a
I0711 15:34:37.169946 21326 net.cpp:148] Top shape: 1 256 60 60 (921600)
I0711 15:34:37.169951 21326 net.cpp:156] Memory required for data: 1651507200
I0711 15:34:37.169961 21326 layer_factory.hpp:77] Creating layer scale4b6_branch2a
I0711 15:34:37.169972 21326 net.cpp:91] Creating Layer scale4b6_branch2a
I0711 15:34:37.169980 21326 net.cpp:425] scale4b6_branch2a <- res4b6_branch2a
I0711 15:34:37.169986 21326 net.cpp:386] scale4b6_branch2a -> res4b6_branch2a (in-place)
I0711 15:34:37.170033 21326 layer_factory.hpp:77] Creating layer scale4b6_branch2a
I0711 15:34:37.170161 21326 net.cpp:141] Setting up scale4b6_branch2a
I0711 15:34:37.170171 21326 net.cpp:148] Top shape: 1 256 60 60 (921600)
I0711 15:34:37.170176 21326 net.cpp:156] Memory required for data: 1655193600
I0711 15:34:37.170183 21326 layer_factory.hpp:77] Creating layer res4b6_branch2a_relu
I0711 15:34:37.170194 21326 net.cpp:91] Creating Layer res4b6_branch2a_relu
I0711 15:34:37.170199 21326 net.cpp:425] res4b6_branch2a_relu <- res4b6_branch2a
I0711 15:34:37.170205 21326 net.cpp:386] res4b6_branch2a_relu -> res4b6_branch2a (in-place)
I0711 15:34:37.170213 21326 net.cpp:141] Setting up res4b6_branch2a_relu
I0711 15:34:37.170219 21326 net.cpp:148] Top shape: 1 256 60 60 (921600)
I0711 15:34:37.170223 21326 net.cpp:156] Memory required for data: 1658880000
I0711 15:34:37.170228 21326 layer_factory.hpp:77] Creating layer res4b6_branch2b
I0711 15:34:37.170238 21326 net.cpp:91] Creating Layer res4b6_branch2b
I0711 15:34:37.170243 21326 net.cpp:425] res4b6_branch2b <- res4b6_branch2a
I0711 15:34:37.170249 21326 net.cpp:399] res4b6_branch2b -> res4b6_branch2b
I0711 15:34:37.171967 21326 net.cpp:141] Setting up res4b6_branch2b
I0711 15:34:37.171983 21326 net.cpp:148] Top shape: 1 256 60 60 (921600)
I0711 15:34:37.171988 21326 net.cpp:156] Memory required for data: 1662566400
I0711 15:34:37.171996 21326 layer_factory.hpp:77] Creating layer bn4b6_branch2b
I0711 15:34:37.172006 21326 net.cpp:91] Creating Layer bn4b6_branch2b
I0711 15:34:37.172013 21326 net.cpp:425] bn4b6_branch2b <- res4b6_branch2b
I0711 15:34:37.172020 21326 net.cpp:386] bn4b6_branch2b -> res4b6_branch2b (in-place)
I0711 15:34:37.172225 21326 net.cpp:141] Setting up bn4b6_branch2b
I0711 15:34:37.172235 21326 net.cpp:148] Top shape: 1 256 60 60 (921600)
I0711 15:34:37.172241 21326 net.cpp:156] Memory required for data: 1666252800
I0711 15:34:37.172250 21326 layer_factory.hpp:77] Creating layer scale4b6_branch2b
I0711 15:34:37.172260 21326 net.cpp:91] Creating Layer scale4b6_branch2b
I0711 15:34:37.172266 21326 net.cpp:425] scale4b6_branch2b <- res4b6_branch2b
I0711 15:34:37.172271 21326 net.cpp:386] scale4b6_branch2b -> res4b6_branch2b (in-place)
I0711 15:34:37.172317 21326 layer_factory.hpp:77] Creating layer scale4b6_branch2b
I0711 15:34:37.172446 21326 net.cpp:141] Setting up scale4b6_branch2b
I0711 15:34:37.172464 21326 net.cpp:148] Top shape: 1 256 60 60 (921600)
I0711 15:34:37.172471 21326 net.cpp:156] Memory required for data: 1669939200
I0711 15:34:37.172478 21326 layer_factory.hpp:77] Creating layer res4b6_branch2b_relu
I0711 15:34:37.172487 21326 net.cpp:91] Creating Layer res4b6_branch2b_relu
I0711 15:34:37.172493 21326 net.cpp:425] res4b6_branch2b_relu <- res4b6_branch2b
I0711 15:34:37.172499 21326 net.cpp:386] res4b6_branch2b_relu -> res4b6_branch2b (in-place)
I0711 15:34:37.172507 21326 net.cpp:141] Setting up res4b6_branch2b_relu
I0711 15:34:37.172513 21326 net.cpp:148] Top shape: 1 256 60 60 (921600)
I0711 15:34:37.172518 21326 net.cpp:156] Memory required for data: 1673625600
I0711 15:34:37.172521 21326 layer_factory.hpp:77] Creating layer res4b6_branch2c
I0711 15:34:37.172533 21326 net.cpp:91] Creating Layer res4b6_branch2c
I0711 15:34:37.172540 21326 net.cpp:425] res4b6_branch2c <- res4b6_branch2b
I0711 15:34:37.172546 21326 net.cpp:399] res4b6_branch2c -> res4b6_branch2c
I0711 15:34:37.173504 21326 net.cpp:141] Setting up res4b6_branch2c
I0711 15:34:37.173530 21326 net.cpp:148] Top shape: 1 1024 60 60 (3686400)
I0711 15:34:37.173537 21326 net.cpp:156] Memory required for data: 1688371200
I0711 15:34:37.173544 21326 layer_factory.hpp:77] Creating layer bn4b6_branch2c
I0711 15:34:37.173557 21326 net.cpp:91] Creating Layer bn4b6_branch2c
I0711 15:34:37.173563 21326 net.cpp:425] bn4b6_branch2c <- res4b6_branch2c
I0711 15:34:37.173569 21326 net.cpp:386] bn4b6_branch2c -> res4b6_branch2c (in-place)
I0711 15:34:37.173779 21326 net.cpp:141] Setting up bn4b6_branch2c
I0711 15:34:37.173790 21326 net.cpp:148] Top shape: 1 1024 60 60 (3686400)
I0711 15:34:37.173795 21326 net.cpp:156] Memory required for data: 1703116800
I0711 15:34:37.173805 21326 layer_factory.hpp:77] Creating layer scale4b6_branch2c
I0711 15:34:37.173816 21326 net.cpp:91] Creating Layer scale4b6_branch2c
I0711 15:34:37.173823 21326 net.cpp:425] scale4b6_branch2c <- res4b6_branch2c
I0711 15:34:37.173830 21326 net.cpp:386] scale4b6_branch2c -> res4b6_branch2c (in-place)
I0711 15:34:37.173871 21326 layer_factory.hpp:77] Creating layer scale4b6_branch2c
I0711 15:34:37.174007 21326 net.cpp:141] Setting up scale4b6_branch2c
I0711 15:34:37.174017 21326 net.cpp:148] Top shape: 1 1024 60 60 (3686400)
I0711 15:34:37.174022 21326 net.cpp:156] Memory required for data: 1717862400
I0711 15:34:37.174031 21326 layer_factory.hpp:77] Creating layer res4b6
I0711 15:34:37.174038 21326 net.cpp:91] Creating Layer res4b6
I0711 15:34:37.174044 21326 net.cpp:425] res4b6 <- res4b5_res4b5_relu_0_split_1
I0711 15:34:37.174049 21326 net.cpp:425] res4b6 <- res4b6_branch2c
I0711 15:34:37.174064 21326 net.cpp:399] res4b6 -> res4b6
I0711 15:34:37.174093 21326 net.cpp:141] Setting up res4b6
I0711 15:34:37.174104 21326 net.cpp:148] Top shape: 1 1024 60 60 (3686400)
I0711 15:34:37.174108 21326 net.cpp:156] Memory required for data: 1732608000
I0711 15:34:37.174113 21326 layer_factory.hpp:77] Creating layer res4b6_relu
I0711 15:34:37.174119 21326 net.cpp:91] Creating Layer res4b6_relu
I0711 15:34:37.174124 21326 net.cpp:425] res4b6_relu <- res4b6
I0711 15:34:37.174130 21326 net.cpp:386] res4b6_relu -> res4b6 (in-place)
I0711 15:34:37.174137 21326 net.cpp:141] Setting up res4b6_relu
I0711 15:34:37.174144 21326 net.cpp:148] Top shape: 1 1024 60 60 (3686400)
I0711 15:34:37.174147 21326 net.cpp:156] Memory required for data: 1747353600
I0711 15:34:37.174151 21326 layer_factory.hpp:77] Creating layer res4b6_res4b6_relu_0_split
I0711 15:34:37.174159 21326 net.cpp:91] Creating Layer res4b6_res4b6_relu_0_split
I0711 15:34:37.174162 21326 net.cpp:425] res4b6_res4b6_relu_0_split <- res4b6
I0711 15:34:37.174170 21326 net.cpp:399] res4b6_res4b6_relu_0_split -> res4b6_res4b6_relu_0_split_0
I0711 15:34:37.174178 21326 net.cpp:399] res4b6_res4b6_relu_0_split -> res4b6_res4b6_relu_0_split_1
I0711 15:34:37.174219 21326 net.cpp:141] Setting up res4b6_res4b6_relu_0_split
…
I0711 15:34:37.251016 21326 net.cpp:91] Creating Layer res4b20_branch2b_relu
I0711 15:34:37.251025 21326 net.cpp:425] res4b20_branch2b_relu <- res4b20_branch2b
I0711 15:34:37.251031 21326 net.cpp:386] res4b20_branch2b_relu -> res4b20_branch2b (in-place)
I0711 15:34:37.251039 21326 net.cpp:141] Setting up res4b20_branch2b_relu
I0711 15:34:37.251045 21326 net.cpp:148] Top shape: 1 256 60 60 (921600)
I0711 15:34:37.251049 21326 net.cpp:156] Memory required for data: 3531571200
I0711 15:34:37.251054 21326 layer_factory.hpp:77] Creating layer res4b20_branch2c
I0711 15:34:37.251062 21326 net.cpp:91] Creating Layer res4b20_branch2c
I0711 15:34:37.251067 21326 net.cpp:425] res4b20_branch2c <- res4b20_branch2b
I0711 15:34:37.251076 21326 net.cpp:399] res4b20_branch2c -> res4b20_branch2c
I0711 15:34:37.252028 21326 net.cpp:141] Setting up res4b20_branch2c
I0711 15:34:37.252043 21326 net.cpp:148] Top shape: 1 1024 60 60 (3686400)
I0711 15:34:37.252049 21326 net.cpp:156] Memory required for data: 3546316800
I0711 15:34:37.252058 21326 layer_factory.hpp:77] Creating layer bn4b20_branch2c
I0711 15:34:37.252068 21326 net.cpp:91] Creating Layer bn4b20_branch2c
I0711 15:34:37.252075 21326 net.cpp:425] bn4b20_branch2c <- res4b20_branch2c
I0711 15:34:37.252082 21326 net.cpp:386] bn4b20_branch2c -> res4b20_branch2c (in-place)
I0711 15:34:37.252297 21326 net.cpp:141] Setting up bn4b20_branch2c
I0711 15:34:37.252307 21326 net.cpp:148] Top shape: 1 1024 60 60 (3686400)
I0711 15:34:37.252313 21326 net.cpp:156] Memory required for data: 3561062400
I0711 15:34:37.252322 21326 layer_factory.hpp:77] Creating layer scale4b20_branch2c
I0711 15:34:37.252332 21326 net.cpp:91] Creating Layer scale4b20_branch2c
I0711 15:34:37.252337 21326 net.cpp:425] scale4b20_branch2c <- res4b20_branch2c
I0711 15:34:37.252346 21326 net.cpp:386] scale4b20_branch2c -> res4b20_branch2c (in-place)
I0711 15:34:37.252393 21326 layer_factory.hpp:77] Creating layer scale4b20_branch2c
I0711 15:34:37.252538 21326 net.cpp:141] Setting up scale4b20_branch2c
I0711 15:34:37.252550 21326 net.cpp:148] Top shape: 1 1024 60 60 (3686400)
I0711 15:34:37.252555 21326 net.cpp:156] Memory required for data: 3575808000
I0711 15:34:37.252563 21326 layer_factory.hpp:77] Creating layer res4b20
I0711 15:34:37.252573 21326 net.cpp:91] Creating Layer res4b20
I0711 15:34:37.252578 21326 net.cpp:425] res4b20 <- res4b19_res4b19_relu_0_split_1
I0711 15:34:37.252584 21326 net.cpp:425] res4b20 <- res4b20_branch2c
I0711 15:34:37.252593 21326 net.cpp:399] res4b20 -> res4b20
I0711 15:34:37.252621 21326 net.cpp:141] Setting up res4b20
I0711 15:34:37.252643 21326 net.cpp:148] Top shape: 1 1024 60 60 (3686400)
I0711 15:34:37.252650 21326 net.cpp:156] Memory required for data: 3590553600
I0711 15:34:37.252653 21326 layer_factory.hpp:77] Creating layer res4b20_relu
I0711 15:34:37.252661 21326 net.cpp:91] Creating Layer res4b20_relu
I0711 15:34:37.252666 21326 net.cpp:425] res4b20_relu <- res4b20
I0711 15:34:37.252672 21326 net.cpp:386] res4b20_relu -> res4b20 (in-place)
I0711 15:34:37.252679 21326 net.cpp:141] Setting up res4b20_relu
I0711 15:34:37.252686 21326 net.cpp:148] Top shape: 1 1024 60 60 (3686400)
I0711 15:34:37.252691 21326 net.cpp:156] Memory required for data: 3605299200
I0711 15:34:37.252694 21326 layer_factory.hpp:77] Creating layer res4b20_res4b20_relu_0_split
I0711 15:34:37.252701 21326 net.cpp:91] Creating Layer res4b20_res4b20_relu_0_split
I0711 15:34:37.252704 21326 net.cpp:425] res4b20_res4b20_relu_0_split <- res4b20
I0711 15:34:37.252712 21326 net.cpp:399] res4b20_res4b20_relu_0_split -> res4b20_res4b20_relu_0_split_0
I0711 15:34:37.252722 21326 net.cpp:399] res4b20_res4b20_relu_0_split -> res4b20_res4b20_relu_0_split_1
I0711 15:34:37.252763 21326 net.cpp:141] Setting up res4b20_res4b20_relu_0_split
I0711 15:34:37.252770 21326 net.cpp:148] Top shape: 1 1024 60 60 (3686400)
I0711 15:34:37.252775 21326 net.cpp:148] Top shape: 1 1024 60 60 (3686400)
I0711 15:34:37.252780 21326 net.cpp:156] Memory required for data: 3634790400
I0711 15:34:37.252784 21326 layer_factory.hpp:77] Creating layer res4b21_branch2a
I0711 15:34:37.252800 21326 net.cpp:91] Creating Layer res4b21_branch2a
I0711 15:34:37.252806 21326 net.cpp:425] res4b21_branch2a <- res4b20_res4b20_relu_0_split_0
I0711 15:34:37.252815 21326 net.cpp:399] res4b21_branch2a -> res4b21_branch2a
I0711 15:34:37.253767 21326 net.cpp:141] Setting up res4b21_branch2a
I0711 15:34:37.253782 21326 net.cpp:148] Top shape: 1 256 60 60 (921600)
I0711 15:34:37.253788 21326 net.cpp:156] Memory required for data: 3638476800
I0711 15:34:37.253796 21326 layer_factory.hpp:77] Creating layer bn4b21_branch2a
I0711 15:34:37.253806 21326 net.cpp:91] Creating Layer bn4b21_branch2a
I0711 15:34:37.253813 21326 net.cpp:425] bn4b21_branch2a <- res4b21_branch2a
I0711 15:34:37.253820 21326 net.cpp:386] bn4b21_branch2a -> res4b21_branch2a (in-place)
I0711 15:34:37.254029 21326 net.cpp:141] Setting up bn4b21_branch2a
I0711 15:34:37.254040 21326 net.cpp:148] Top shape: 1 256 60 60 (921600)
I0711 15:34:37.254045 21326 net.cpp:156] Memory required for data: 3642163200
I0711 15:34:37.254055 21326 layer_factory.hpp:77] Creating layer scale4b21_branch2a
I0711 15:34:37.254062 21326 net.cpp:91] Creating Layer scale4b21_branch2a
I0711 15:34:37.254068 21326 net.cpp:425] scale4b21_branch2a <- res4b21_branch2a
I0711 15:34:37.254075 21326 net.cpp:386] scale4b21_branch2a -> res4b21_branch2a (in-place)
I0711 15:34:37.254119 21326 layer_factory.hpp:77] Creating layer scale4b21_branch2a
I0711 15:34:37.254250 21326 net.cpp:141] Setting up scale4b21_branch2a
I0711 15:34:37.254261 21326 net.cpp:148] Top shape: 1 256 60 60 (921600)
I0711 15:34:37.254266 21326 net.cpp:156] Memory required for data: 3645849600
I0711 15:34:37.254273 21326 layer_factory.hpp:77] Creating layer res4b21_branch2a_relu
I0711 15:34:37.254281 21326 net.cpp:91] Creating Layer res4b21_branch2a_relu
I0711 15:34:37.254287 21326 net.cpp:425] res4b21_branch2a_relu <- res4b21_branch2a
I0711 15:34:37.254294 21326 net.cpp:386] res4b21_branch2a_relu -> res4b21_branch2a (in-place)
I0711 15:34:37.254303 21326 net.cpp:141] Setting up res4b21_branch2a_relu
I0711 15:34:37.254310 21326 net.cpp:148] Top shape: 1 256 60 60 (921600)
I0711 15:34:37.254314 21326 net.cpp:156] Memory required for data: 3649536000
I0711 15:34:37.254318 21326 layer_factory.hpp:77] Creating layer res4b21_branch2b
I0711 15:34:37.254328 21326 net.cpp:91] Creating Layer res4b21_branch2b
I0711 15:34:37.254333 21326 net.cpp:425] res4b21_branch2b <- res4b21_branch2a
I0711 15:34:37.254341 21326 net.cpp:399] res4b21_branch2b -> res4b21_branch2b
I0711 15:34:37.256109 21326 net.cpp:141] Setting up res4b21_branch2b
I0711 15:34:37.256135 21326 net.cpp:148] Top shape: 1 256 60 60 (921600)
I0711 15:34:37.256142 21326 net.cpp:156] Memory required for data: 3653222400
I0711 15:34:37.256150 21326 layer_factory.hpp:77] Creating layer bn4b21_branch2b
I0711 15:34:37.256162 21326 net.cpp:91] Creating Layer bn4b21_branch2b
I0711 15:34:37.256170 21326 net.cpp:425] bn4b21_branch2b <- res4b21_branch2b
I0711 15:34:37.256176 21326 net.cpp:386] bn4b21_branch2b -> res4b21_branch2b (in-place)
I0711 15:34:37.256381 21326 net.cpp:141] Setting up bn4b21_branch2b
I0711 15:34:37.256392 21326 net.cpp:148] Top shape: 1 256 60 60 (921600)
I0711 15:34:37.256397 21326 net.cpp:156] Memory required for data: 3656908800
I0711 15:34:37.256407 21326 layer_factory.hpp:77] Creating layer scale4b21_branch2b
I0711 15:34:37.256417 21326 net.cpp:91] Creating Layer scale4b21_branch2b
I0711 15:34:37.256423 21326 net.cpp:425] scale4b21_branch2b <- res4b21_branch2b
I0711 15:34:37.256431 21326 net.cpp:386] scale4b21_branch2b -> res4b21_branch2b (in-place)
I0711 15:34:37.256484 21326 layer_factory.hpp:77] Creating layer scale4b21_branch2b
I0711 15:34:37.256616 21326 net.cpp:141] Setting up scale4b21_branch2b
I0711 15:34:37.256633 21326 net.cpp:148] Top shape: 1 256 60 60 (921600)
I0711 15:34:37.256638 21326 net.cpp:156] Memory required for data: 3660595200
I0711 15:34:37.256646 21326 layer_factory.hpp:77] Creating layer res4b21_branch2b_relu
I0711 15:34:37.256654 21326 net.cpp:91] Creating Layer res4b21_branch2b_relu
I0711 15:34:37.256659 21326 net.cpp:425] res4b21_branch2b_relu <- res4b21_branch2b
I0711 15:34:37.256665 21326 net.cpp:386] res4b21_branch2b_relu -> res4b21_branch2b (in-place)
I0711 15:34:37.256674 21326 net.cpp:141] Setting up res4b21_branch2b_relu
I0711 15:34:37.256680 21326 net.cpp:148] Top shape: 1 256 60 60 (921600)
I0711 15:34:37.256683 21326 net.cpp:156] Memory required for data: 3664281600
I0711 15:34:37.256687 21326 layer_factory.hpp:77] Creating layer res4b21_branch2c
I0711 15:34:37.256697 21326 net.cpp:91] Creating Layer res4b21_branch2c
I0711 15:34:37.256703 21326 net.cpp:425] res4b21_branch2c <- res4b21_branch2b
I0711 15:34:37.256711 21326 net.cpp:399] res4b21_branch2c -> res4b21_branch2c
I0711 15:34:37.257668 21326 net.cpp:141] Setting up res4b21_branch2c
I0711 15:34:37.257684 21326 net.cpp:148] Top shape: 1 1024 60 60 (3686400)
I0711 15:34:37.257689 21326 net.cpp:156] Memory required for data: 3679027200
I0711 15:34:37.257697 21326 layer_factory.hpp:77] Creating layer bn4b21_branch2c
I0711 15:34:37.257709 21326 net.cpp:91] Creating Layer bn4b21_branch2c
I0711 15:34:37.257716 21326 net.cpp:425] bn4b21_branch2c <- res4b21_branch2c
I0711 15:34:37.257724 21326 net.cpp:386] bn4b21_branch2c -> res4b21_branch2c (in-place)
I0711 15:34:37.257937 21326 net.cpp:141] Setting up bn4b21_branch2c
I0711 15:34:37.257948 21326 net.cpp:148] Top shape: 1 1024 60 60 (3686400)
I0711 15:34:37.257954 21326 net.cpp:156] Memory required for data: 3693772800
I0711 15:34:37.257963 21326 layer_factory.hpp:77] Creating layer scale4b21_branch2c
I0711 15:34:37.257974 21326 net.cpp:91] Creating Layer scale4b21_branch2c
I0711 15:34:37.257982 21326 net.cpp:425] scale4b21_branch2c <- res4b21_branch2c
I0711 15:34:37.257987 21326 net.cpp:386] scale4b21_branch2c -> res4b21_branch2c (in-place)
I0711 15:34:37.258036 21326 layer_factory.hpp:77] Creating layer scale4b21_branch2c
I0711 15:34:37.258174 21326 net.cpp:141] Setting up scale4b21_branch2c
I0711 15:34:37.258185 21326 net.cpp:148] Top shape: 1 1024 60 60 (3686400)
I0711 15:34:37.258190 21326 net.cpp:156] Memory required for data: 3708518400
I0711 15:34:37.258199 21326 layer_factory.hpp:77] Creating layer res4b21
I0711 15:34:37.258208 21326 net.cpp:91] Creating Layer res4b21
I0711 15:34:37.258213 21326 net.cpp:425] res4b21 <- res4b20_res4b20_relu_0_split_1
I0711 15:34:37.258220 21326 net.cpp:425] res4b21 <- res4b21_branch2c
I0711 15:34:37.258229 21326 net.cpp:399] res4b21 -> res4b21
I0711 15:34:37.258258 21326 net.cpp:141] Setting up res4b21
I0711 15:34:37.258268 21326 net.cpp:148] Top shape: 1 1024 60 60 (3686400)
I0711 15:34:37.258283 21326 net.cpp:156] Memory required for data: 3723264000
I0711 15:34:37.258288 21326 layer_factory.hpp:77] Creating layer res4b21_relu
I0711 15:34:37.258296 21326 net.cpp:91] Creating Layer res4b21_relu
I0711 15:34:37.258301 21326 net.cpp:425] res4b21_relu <- res4b21
I0711 15:34:37.258306 21326 net.cpp:386] res4b21_relu -> res4b21 (in-place)
I0711 15:34:37.258314 21326 net.cpp:141] Setting up res4b21_relu
I0711 15:34:37.258322 21326 net.cpp:148] Top shape: 1 1024 60 60 (3686400)
I0711 15:34:37.258324 21326 net.cpp:156] Memory required for data: 3738009600
I0711 15:34:37.258328 21326 layer_factory.hpp:77] Creating layer res4b21_res4b21_relu_0_split
I0711 15:34:37.258338 21326 net.cpp:91] Creating Layer res4b21_res4b21_relu_0_split
I0711 15:34:37.258344 21326 net.cpp:425] res4b21_res4b21_relu_0_split <- res4b21
I0711 15:34:37.258350 21326 net.cpp:399] res4b21_res4b21_relu_0_split -> res4b21_res4b21_relu_0_split_0
I0711 15:34:37.258358 21326 net.cpp:399] res4b21_res4b21_relu_0_split -> res4b21_res4b21_relu_0_split_1
I0711 15:34:37.258400 21326 net.cpp:141] Setting up res4b21_res4b21_relu_0_split
I0711 15:34:37.258410 21326 net.cpp:148] Top shape: 1 1024 60 60 (3686400)
I0711 15:34:37.258416 21326 net.cpp:148] Top shape: 1 1024 60 60 (3686400)
I0711 15:34:37.258420 21326 net.cpp:156] Memory required for data: 3767500800
I0711 15:34:37.258424 21326 layer_factory.hpp:77] Creating layer res4b22_branch2a
I0711 15:34:37.258435 21326 net.cpp:91] Creating Layer res4b22_branch2a
I0711 15:34:37.258440 21326 net.cpp:425] res4b22_branch2a <- res4b21_res4b21_relu_0_split_0
I0711 15:34:37.258455 21326 net.cpp:399] res4b22_branch2a -> res4b22_branch2a
I0711 15:34:37.259398 21326 net.cpp:141] Setting up res4b22_branch2a
I0711 15:34:37.259413 21326 net.cpp:148] Top shape: 1 256 60 60 (921600)
I0711 15:34:37.259419 21326 net.cpp:156] Memory required for data: 3771187200
I0711 15:34:37.259428 21326 layer_factory.hpp:77] Creating layer bn4b22_branch2a
I0711 15:34:37.259438 21326 net.cpp:91] Creating Layer bn4b22_branch2a
I0711 15:34:37.259443 21326 net.cpp:425] bn4b22_branch2a <- res4b22_branch2a
I0711 15:34:37.259452 21326 net.cpp:386] bn4b22_branch2a -> res4b22_branch2a (in-place)
I0711 15:34:37.259662 21326 net.cpp:141] Setting up bn4b22_branch2a
I0711 15:34:37.259673 21326 net.cpp:148] Top shape: 1 256 60 60 (921600)
I0711 15:34:37.259678 21326 net.cpp:156] Memory required for data: 3774873600
I0711 15:34:37.259688 21326 layer_factory.hpp:77] Creating layer scale4b22_branch2a
I0711 15:34:37.259697 21326 net.cpp:91] Creating Layer scale4b22_branch2a
I0711 15:34:37.259703 21326 net.cpp:425] scale4b22_branch2a <- res4b22_branch2a
I0711 15:34:37.259709 21326 net.cpp:386] scale4b22_branch2a -> res4b22_branch2a (in-place)
I0711 15:34:37.259757 21326 layer_factory.hpp:77] Creating layer scale4b22_branch2a
I0711 15:34:37.259886 21326 net.cpp:141] Setting up scale4b22_branch2a
I0711 15:34:37.259896 21326 net.cpp:148] Top shape: 1 256 60 60 (921600)
I0711 15:34:37.259901 21326 net.cpp:156] Memory required for data: 3778560000
I0711 15:34:37.259908 21326 layer_factory.hpp:77] Creating layer res4b22_branch2a_relu
I0711 15:34:37.259918 21326 net.cpp:91] Creating Layer res4b22_branch2a_relu
I0711 15:34:37.259923 21326 net.cpp:425] res4b22_branch2a_relu <- res4b22_branch2a
I0711 15:34:37.259929 21326 net.cpp:386] res4b22_branch2a_relu -> res4b22_branch2a (in-place)
I0711 15:34:37.259937 21326 net.cpp:141] Setting up res4b22_branch2a_relu
I0711 15:34:37.259943 21326 net.cpp:148] Top shape: 1 256 60 60 (921600)
I0711 15:34:37.259948 21326 net.cpp:156] Memory required for data: 3782246400
I0711 15:34:37.259951 21326 layer_factory.hpp:77] Creating layer res4b22_branch2b
I0711 15:34:37.259961 21326 net.cpp:91] Creating Layer res4b22_branch2b
I0711 15:34:37.259968 21326 net.cpp:425] res4b22_branch2b <- res4b22_branch2a
I0711 15:34:37.259974 21326 net.cpp:399] res4b22_branch2b -> res4b22_branch2b
I0711 15:34:37.261603 21326 net.cpp:141] Setting up res4b22_branch2b
I0711 15:34:37.261620 21326 net.cpp:148] Top shape: 1 256 60 60 (921600)
I0711 15:34:37.261636 21326 net.cpp:156] Memory required for data: 3785932800
I0711 15:34:37.261644 21326 layer_factory.hpp:77] Creating layer bn4b22_branch2b
I0711 15:34:37.261656 21326 net.cpp:91] Creating Layer bn4b22_branch2b
I0711 15:34:37.261662 21326 net.cpp:425] bn4b22_branch2b <- res4b22_branch2b
I0711 15:34:37.261669 21326 net.cpp:386] bn4b22_branch2b -> res4b22_branch2b (in-place)
I0711 15:34:37.261880 21326 net.cpp:141] Setting up bn4b22_branch2b
I0711 15:34:37.261891 21326 net.cpp:148] Top shape: 1 256 60 60 (921600)
I0711 15:34:37.261898 21326 net.cpp:156] Memory required for data: 3789619200
I0711 15:34:37.261907 21326 layer_factory.hpp:77] Creating layer scale4b22_branch2b
I0711 15:34:37.261916 21326 net.cpp:91] Creating Layer scale4b22_branch2b
I0711 15:34:37.261922 21326 net.cpp:425] scale4b22_branch2b <- res4b22_branch2b
I0711 15:34:37.261930 21326 net.cpp:386] scale4b22_branch2b -> res4b22_branch2b (in-place)
I0711 15:34:37.261981 21326 layer_factory.hpp:77] Creating layer scale4b22_branch2b
I0711 15:34:37.262114 21326 net.cpp:141] Setting up scale4b22_branch2b
I0711 15:34:37.262125 21326 net.cpp:148] Top shape: 1 256 60 60 (921600)
I0711 15:34:37.262130 21326 net.cpp:156] Memory required for data: 3793305600
I0711 15:34:37.262138 21326 layer_factory.hpp:77] Creating layer res4b22_branch2b_relu
I0711 15:34:37.262146 21326 net.cpp:91] Creating Layer res4b22_branch2b_relu
I0711 15:34:37.262151 21326 net.cpp:425] res4b22_branch2b_relu <- res4b22_branch2b
I0711 15:34:37.262157 21326 net.cpp:386] res4b22_branch2b_relu -> res4b22_branch2b (in-place)
I0711 15:34:37.262164 21326 net.cpp:141] Setting up res4b22_branch2b_relu
I0711 15:34:37.262171 21326 net.cpp:148] Top shape: 1 256 60 60 (921600)
I0711 15:34:37.262176 21326 net.cpp:156] Memory required for data: 3796992000
I0711 15:34:37.262178 21326 layer_factory.hpp:77] Creating layer res4b22_branch2c
I0711 15:34:37.262189 21326 net.cpp:91] Creating Layer res4b22_branch2c
I0711 15:34:37.262195 21326 net.cpp:425] res4b22_branch2c <- res4b22_branch2b
I0711 15:34:37.262203 21326 net.cpp:399] res4b22_branch2c -> res4b22_branch2c
I0711 15:34:37.263147 21326 net.cpp:141] Setting up res4b22_branch2c
I0711 15:34:37.263164 21326 net.cpp:148] Top shape: 1 1024 60 60 (3686400)
I0711 15:34:37.263170 21326 net.cpp:156] Memory required for data: 3811737600
I0711 15:34:37.263177 21326 layer_factory.hpp:77] Creating layer bn4b22_branch2c
I0711 15:34:37.263187 21326 net.cpp:91] Creating Layer bn4b22_branch2c
I0711 15:34:37.263193 21326 net.cpp:425] bn4b22_branch2c <- res4b22_branch2c
I0711 15:34:37.263200 21326 net.cpp:386] bn4b22_branch2c -> res4b22_branch2c (in-place)
I0711 15:34:37.263422 21326 net.cpp:141] Setting up bn4b22_branch2c
I0711 15:34:37.263433 21326 net.cpp:148] Top shape: 1 1024 60 60 (3686400)
I0711 15:34:37.263439 21326 net.cpp:156] Memory required for data: 3826483200
I0711 15:34:37.263449 21326 layer_factory.hpp:77] Creating layer scale4b22_branch2c
I0711 15:34:37.263460 21326 net.cpp:91] Creating Layer scale4b22_branch2c
I0711 15:34:37.263466 21326 net.cpp:425] scale4b22_branch2c <- res4b22_branch2c
I0711 15:34:37.263473 21326 net.cpp:386] scale4b22_branch2c -> res4b22_branch2c (in-place)
I0711 15:34:37.263523 21326 layer_factory.hpp:77] Creating layer scale4b22_branch2c
I0711 15:34:37.263670 21326 net.cpp:141] Setting up scale4b22_branch2c
I0711 15:34:37.263680 21326 net.cpp:148] Top shape: 1 1024 60 60 (3686400)
I0711 15:34:37.263686 21326 net.cpp:156] Memory required for data: 3841228800
I0711 15:34:37.263695 21326 layer_factory.hpp:77] Creating layer res4b22
I0711 15:34:37.263705 21326 net.cpp:91] Creating Layer res4b22
I0711 15:34:37.263710 21326 net.cpp:425] res4b22 <- res4b21_res4b21_relu_0_split_1
I0711 15:34:37.263716 21326 net.cpp:425] res4b22 <- res4b22_branch2c
I0711 15:34:37.263722 21326 net.cpp:399] res4b22 -> res4b22
I0711 15:34:37.263753 21326 net.cpp:141] Setting up res4b22
I0711 15:34:37.263763 21326 net.cpp:148] Top shape: 1 1024 60 60 (3686400)
I0711 15:34:37.263768 21326 net.cpp:156] Memory required for data: 3855974400
I0711 15:34:37.263785 21326 layer_factory.hpp:77] Creating layer res4b22_relu
I0711 15:34:37.263792 21326 net.cpp:91] Creating Layer res4b22_relu
I0711 15:34:37.263797 21326 net.cpp:425] res4b22_relu <- res4b22
I0711 15:34:37.263804 21326 net.cpp:386] res4b22_relu -> res4b22 (in-place)
I0711 15:34:37.263813 21326 net.cpp:141] Setting up res4b22_relu
I0711 15:34:37.263820 21326 net.cpp:148] Top shape: 1 1024 60 60 (3686400)
I0711 15:34:37.263824 21326 net.cpp:156] Memory required for data: 3870720000
I0711 15:34:37.263828 21326 layer_factory.hpp:77] Creating layer res4b22_res4b22_relu_0_split
I0711 15:34:37.263834 21326 net.cpp:91] Creating Layer res4b22_res4b22_relu_0_split
I0711 15:34:37.263839 21326 net.cpp:425] res4b22_res4b22_relu_0_split <- res4b22
I0711 15:34:37.263844 21326 net.cpp:399] res4b22_res4b22_relu_0_split -> res4b22_res4b22_relu_0_split_0
I0711 15:34:37.263854 21326 net.cpp:399] res4b22_res4b22_relu_0_split -> res4b22_res4b22_relu_0_split_1
I0711 15:34:37.263897 21326 net.cpp:141] Setting up res4b22_res4b22_relu_0_split
I0711 15:34:37.263907 21326 net.cpp:148] Top shape: 1 1024 60 60 (3686400)
I0711 15:34:37.263912 21326 net.cpp:148] Top shape: 1 1024 60 60 (3686400)
I0711 15:34:37.263917 21326 net.cpp:156] Memory required for data: 3900211200
I0711 15:34:37.263921 21326 layer_factory.hpp:77] Creating layer res5a_branch1
I0711 15:34:37.263931 21326 net.cpp:91] Creating Layer res5a_branch1
I0711 15:34:37.263936 21326 net.cpp:425] res5a_branch1 <- res4b22_res4b22_relu_0_split_0
I0711 15:34:37.263945 21326 net.cpp:399] res5a_branch1 -> res5a_branch1
I0711 15:34:37.268729 21326 net.cpp:141] Setting up res5a_branch1
I0711 15:34:37.268748 21326 net.cpp:148] Top shape: 1 2048 60 60 (7372800)
I0711 15:34:37.268753 21326 net.cpp:156] Memory required for data: 3929702400
I0711 15:34:37.268760 21326 layer_factory.hpp:77] Creating layer bn5a_branch1
I0711 15:34:37.268777 21326 net.cpp:91] Creating Layer bn5a_branch1
I0711 15:34:37.268784 21326 net.cpp:425] bn5a_branch1 <- res5a_branch1
I0711 15:34:37.268790 21326 net.cpp:386] bn5a_branch1 -> res5a_branch1 (in-place)
I0711 15:34:37.269003 21326 net.cpp:141] Setting up bn5a_branch1
I0711 15:34:37.269013 21326 net.cpp:148] Top shape: 1 2048 60 60 (7372800)
I0711 15:34:37.269019 21326 net.cpp:156] Memory required for data: 3959193600
I0711 15:34:37.269031 21326 layer_factory.hpp:77] Creating layer scale5a_branch1
I0711 15:34:37.269039 21326 net.cpp:91] Creating Layer scale5a_branch1
I0711 15:34:37.269044 21326 net.cpp:425] scale5a_branch1 <- res5a_branch1
I0711 15:34:37.269052 21326 net.cpp:386] scale5a_branch1 -> res5a_branch1 (in-place)
I0711 15:34:37.269101 21326 layer_factory.hpp:77] Creating layer scale5a_branch1
I0711 15:34:37.269233 21326 net.cpp:141] Setting up scale5a_branch1
I0711 15:34:37.269244 21326 net.cpp:148] Top shape: 1 2048 60 60 (7372800)
I0711 15:34:37.269249 21326 net.cpp:156] Memory required for data: 3988684800
I0711 15:34:37.269258 21326 layer_factory.hpp:77] Creating layer res5a_branch2a
I0711 15:34:37.269268 21326 net.cpp:91] Creating Layer res5a_branch2a
I0711 15:34:37.269275 21326 net.cpp:425] res5a_branch2a <- res4b22_res4b22_relu_0_split_1
I0711 15:34:37.269284 21326 net.cpp:399] res5a_branch2a -> res5a_branch2a
I0711 15:34:37.270777 21326 net.cpp:141] Setting up res5a_branch2a
I0711 15:34:37.270793 21326 net.cpp:148] Top shape: 1 512 60 60 (1843200)
I0711 15:34:37.270799 21326 net.cpp:156] Memory required for data: 3996057600
I0711 15:34:37.270807 21326 layer_factory.hpp:77] Creating layer bn5a_branch2a
I0711 15:34:37.270822 21326 net.cpp:91] Creating Layer bn5a_branch2a
I0711 15:34:37.270828 21326 net.cpp:425] bn5a_branch2a <- res5a_branch2a
I0711 15:34:37.270835 21326 net.cpp:386] bn5a_branch2a -> res5a_branch2a (in-place)
I0711 15:34:37.271055 21326 net.cpp:141] Setting up bn5a_branch2a
I0711 15:34:37.271066 21326 net.cpp:148] Top shape: 1 512 60 60 (1843200)
I0711 15:34:37.271071 21326 net.cpp:156] Memory required for data: 4003430400
I0711 15:34:37.271081 21326 layer_factory.hpp:77] Creating layer scale5a_branch2a
I0711 15:34:37.271102 21326 net.cpp:91] Creating Layer scale5a_branch2a
I0711 15:34:37.271109 21326 net.cpp:425] scale5a_branch2a <- res5a_branch2a
I0711 15:34:37.271117 21326 net.cpp:386] scale5a_branch2a -> res5a_branch2a (in-place)
I0711 15:34:37.271167 21326 layer_factory.hpp:77] Creating layer scale5a_branch2a
I0711 15:34:37.271311 21326 net.cpp:141] Setting up scale5a_branch2a
I0711 15:34:37.271322 21326 net.cpp:148] Top shape: 1 512 60 60 (1843200)
I0711 15:34:37.271327 21326 net.cpp:156] Memory required for data: 4010803200
I0711 15:34:37.271335 21326 layer_factory.hpp:77] Creating layer res5a_branch2a_relu
I0711 15:34:37.271343 21326 net.cpp:91] Creating Layer res5a_branch2a_relu
I0711 15:34:37.271348 21326 net.cpp:425] res5a_branch2a_relu <- res5a_branch2a
I0711 15:34:37.271354 21326 net.cpp:386] res5a_branch2a_relu -> res5a_branch2a (in-place)
I0711 15:34:37.271361 21326 net.cpp:141] Setting up res5a_branch2a_relu
I0711 15:34:37.271368 21326 net.cpp:148] Top shape: 1 512 60 60 (1843200)
I0711 15:34:37.271373 21326 net.cpp:156] Memory required for data: 4018176000
I0711 15:34:37.271376 21326 layer_factory.hpp:77] Creating layer res5a_branch2b
I0711 15:34:37.271387 21326 net.cpp:91] Creating Layer res5a_branch2b
I0711 15:34:37.271394 21326 net.cpp:425] res5a_branch2b <- res5a_branch2a
I0711 15:34:37.271401 21326 net.cpp:399] res5a_branch2b -> res5a_branch2b
I0711 15:34:37.276723 21326 net.cpp:141] Setting up res5a_branch2b
I0711 15:34:37.276743 21326 net.cpp:148] Top shape: 1 512 60 60 (1843200)
I0711 15:34:37.276748 21326 net.cpp:156] Memory required for data: 4025548800
I0711 15:34:37.276757 21326 layer_factory.hpp:77] Creating layer bn5a_branch2b
I0711 15:34:37.276772 21326 net.cpp:91] Creating Layer bn5a_branch2b
I0711 15:34:37.276777 21326 net.cpp:425] bn5a_branch2b <- res5a_branch2b
I0711 15:34:37.276784 21326 net.cpp:386] bn5a_branch2b -> res5a_branch2b (in-place)
I0711 15:34:37.277010 21326 net.cpp:141] Setting up bn5a_branch2b
I0711 15:34:37.277021 21326 net.cpp:148] Top shape: 1 512 60 60 (1843200)
I0711 15:34:37.277026 21326 net.cpp:156] Memory required for data: 4032921600
I0711 15:34:37.277036 21326 layer_factory.hpp:77] Creating layer scale5a_branch2b
I0711 15:34:37.277048 21326 net.cpp:91] Creating Layer scale5a_branch2b
I0711 15:34:37.277055 21326 net.cpp:425] scale5a_branch2b <- res5a_branch2b
I0711 15:34:37.277060 21326 net.cpp:386] scale5a_branch2b -> res5a_branch2b (in-place)
I0711 15:34:37.277108 21326 layer_factory.hpp:77] Creating layer scale5a_branch2b
I0711 15:34:37.277251 21326 net.cpp:141] Setting up scale5a_branch2b
I0711 15:34:37.277261 21326 net.cpp:148] Top shape: 1 512 60 60 (1843200)
I0711 15:34:37.277266 21326 net.cpp:156] Memory required for data: 4040294400
I0711 15:34:37.277276 21326 layer_factory.hpp:77] Creating layer res5a_branch2b_relu
I0711 15:34:37.277284 21326 net.cpp:91] Creating Layer res5a_branch2b_relu
I0711 15:34:37.277292 21326 net.cpp:425] res5a_branch2b_relu <- res5a_branch2b
I0711 15:34:37.277297 21326 net.cpp:386] res5a_branch2b_relu -> res5a_branch2b (in-place)
I0711 15:34:37.277304 21326 net.cpp:141] Setting up res5a_branch2b_relu
I0711 15:34:37.277312 21326 net.cpp:148] Top shape: 1 512 60 60 (1843200)
I0711 15:34:37.277315 21326 net.cpp:156] Memory required for data: 4047667200
I0711 15:34:37.277319 21326 layer_factory.hpp:77] Creating layer res5a_branch2c
I0711 15:34:37.277329 21326 net.cpp:91] Creating Layer res5a_branch2c
I0711 15:34:37.277334 21326 net.cpp:425] res5a_branch2c <- res5a_branch2b
I0711 15:34:37.277341 21326 net.cpp:399] res5a_branch2c -> res5a_branch2c
I0711 15:34:37.280073 21326 net.cpp:141] Setting up res5a_branch2c
I0711 15:34:37.280089 21326 net.cpp:148] Top shape: 1 2048 60 60 (7372800)
I0711 15:34:37.280094 21326 net.cpp:156] Memory required for data: 4077158400
I0711 15:34:37.280102 21326 layer_factory.hpp:77] Creating layer bn5a_branch2c
I0711 15:34:37.280112 21326 net.cpp:91] Creating Layer bn5a_branch2c
I0711 15:34:37.280118 21326 net.cpp:425] bn5a_branch2c <- res5a_branch2c
I0711 15:34:37.280128 21326 net.cpp:386] bn5a_branch2c -> res5a_branch2c (in-place)
I0711 15:34:37.280357 21326 net.cpp:141] Setting up bn5a_branch2c
I0711 15:34:37.280369 21326 net.cpp:148] Top shape: 1 2048 60 60 (7372800)
I0711 15:34:37.280374 21326 net.cpp:156] Memory required for data: 4106649600
I0711 15:34:37.280385 21326 layer_factory.hpp:77] Creating layer scale5a_branch2c
I0711 15:34:37.280393 21326 net.cpp:91] Creating Layer scale5a_branch2c
I0711 15:34:37.280398 21326 net.cpp:425] scale5a_branch2c <- res5a_branch2c
I0711 15:34:37.280405 21326 net.cpp:386] scale5a_branch2c -> res5a_branch2c (in-place)
I0711 15:34:37.280462 21326 layer_factory.hpp:77] Creating layer scale5a_branch2c
I0711 15:34:37.280602 21326 net.cpp:141] Setting up scale5a_branch2c
I0711 15:34:37.280613 21326 net.cpp:148] Top shape: 1 2048 60 60 (7372800)
I0711 15:34:37.280618 21326 net.cpp:156] Memory required for data: 4136140800
I0711 15:34:37.280627 21326 layer_factory.hpp:77] Creating layer res5a
I0711 15:34:37.280635 21326 net.cpp:91] Creating Layer res5a
I0711 15:34:37.280643 21326 net.cpp:425] res5a <- res5a_branch1
I0711 15:34:37.280648 21326 net.cpp:425] res5a <- res5a_branch2c
I0711 15:34:37.280655 21326 net.cpp:399] res5a -> res5a
I0711 15:34:37.280685 21326 net.cpp:141] Setting up res5a
I0711 15:34:37.280695 21326 net.cpp:148] Top shape: 1 2048 60 60 (7372800)
I0711 15:34:37.280700 21326 net.cpp:156] Memory required for data: 4165632000
I0711 15:34:37.280704 21326 layer_factory.hpp:77] Creating layer res5a_relu
I0711 15:34:37.280712 21326 net.cpp:91] Creating Layer res5a_relu
I0711 15:34:37.280719 21326 net.cpp:425] res5a_relu <- res5a
I0711 15:34:37.280725 21326 net.cpp:386] res5a_relu -> res5a (in-place)
I0711 15:34:37.280735 21326 net.cpp:141] Setting up res5a_relu
I0711 15:34:37.280740 21326 net.cpp:148] Top shape: 1 2048 60 60 (7372800)
I0711 15:34:37.280745 21326 net.cpp:156] Memory required for data: 4195123200
I0711 15:34:37.280748 21326 layer_factory.hpp:77] Creating layer res5a_res5a_relu_0_split
I0711 15:34:37.280755 21326 net.cpp:91] Creating Layer res5a_res5a_relu_0_split
I0711 15:34:37.280760 21326 net.cpp:425] res5a_res5a_relu_0_split <- res5a
I0711 15:34:37.280766 21326 net.cpp:399] res5a_res5a_relu_0_split -> res5a_res5a_relu_0_split_0
I0711 15:34:37.280773 21326 net.cpp:399] res5a_res5a_relu_0_split -> res5a_res5a_relu_0_split_1
I0711 15:34:37.280817 21326 net.cpp:141] Setting up res5a_res5a_relu_0_split
I0711 15:34:37.280825 21326 net.cpp:148] Top shape: 1 2048 60 60 (7372800)
I0711 15:34:37.280832 21326 net.cpp:148] Top shape: 1 2048 60 60 (7372800)
I0711 15:34:37.280835 21326 net.cpp:156] Memory required for data: 4254105600
I0711 15:34:37.280839 21326 layer_factory.hpp:77] Creating layer res5b_branch2a
I0711 15:34:37.280850 21326 net.cpp:91] Creating Layer res5b_branch2a
I0711 15:34:37.280856 21326 net.cpp:425] res5b_branch2a <- res5a_res5a_relu_0_split_0
I0711 15:34:37.280863 21326 net.cpp:399] res5b_branch2a -> res5b_branch2a
I0711 15:34:37.283606 21326 net.cpp:141] Setting up res5b_branch2a
I0711 15:34:37.283623 21326 net.cpp:148] Top shape: 1 512 60 60 (1843200)
I0711 15:34:37.283629 21326 net.cpp:156] Memory required for data: 4261478400
I0711 15:34:37.283638 21326 layer_factory.hpp:77] Creating layer bn5b_branch2a
I0711 15:34:37.283649 21326 net.cpp:91] Creating Layer bn5b_branch2a
I0711 15:34:37.283655 21326 net.cpp:425] bn5b_branch2a <- res5b_branch2a
I0711 15:34:37.283663 21326 net.cpp:386] bn5b_branch2a -> res5b_branch2a (in-place)
I0711 15:34:37.283886 21326 net.cpp:141] Setting up bn5b_branch2a
I0711 15:34:37.283897 21326 net.cpp:148] Top shape: 1 512 60 60 (1843200)
I0711 15:34:37.283902 21326 net.cpp:156] Memory required for data: 4268851200
I0711 15:34:37.283912 21326 layer_factory.hpp:77] Creating layer scale5b_branch2a
I0711 15:34:37.283928 21326 net.cpp:91] Creating Layer scale5b_branch2a
I0711 15:34:37.283934 21326 net.cpp:425] scale5b_branch2a <- res5b_branch2a
I0711 15:34:37.283941 21326 net.cpp:386] scale5b_branch2a -> res5b_branch2a (in-place)
I0711 15:34:37.283989 21326 layer_factory.hpp:77] Creating layer scale5b_branch2a
I0711 15:34:37.284134 21326 net.cpp:141] Setting up scale5b_branch2a
I0711 15:34:37.284155 21326 net.cpp:148] Top shape: 1 512 60 60 (1843200)
I0711 15:34:37.284162 21326 net.cpp:156] Memory required for data: 4276224000
I0711 15:34:37.284170 21326 layer_factory.hpp:77] Creating layer res5b_branch2a_relu
I0711 15:34:37.284178 21326 net.cpp:91] Creating Layer res5b_branch2a_relu
I0711 15:34:37.284184 21326 net.cpp:425] res5b_branch2a_relu <- res5b_branch2a
I0711 15:34:37.284195 21326 net.cpp:386] res5b_branch2a_relu -> res5b_branch2a (in-place)
I0711 15:34:37.284205 21326 net.cpp:141] Setting up res5b_branch2a_relu
I0711 15:34:37.284212 21326 net.cpp:148] Top shape: 1 512 60 60 (1843200)
I0711 15:34:37.284216 21326 net.cpp:156] Memory required for data: 4283596800
I0711 15:34:37.284220 21326 layer_factory.hpp:77] Creating layer res5b_branch2b
I0711 15:34:37.284231 21326 net.cpp:91] Creating Layer res5b_branch2b
I0711 15:34:37.284237 21326 net.cpp:425] res5b_branch2b <- res5b_branch2a
I0711 15:34:37.284243 21326 net.cpp:399] res5b_branch2b -> res5b_branch2b
I0711 15:34:37.289852 21326 net.cpp:141] Setting up res5b_branch2b
I0711 15:34:37.289872 21326 net.cpp:148] Top shape: 1 512 60 60 (1843200)
I0711 15:34:37.289877 21326 net.cpp:156] Memory required for data: 4290969600
I0711 15:34:37.289886 21326 layer_factory.hpp:77] Creating layer bn5b_branch2b
I0711 15:34:37.289899 21326 net.cpp:91] Creating Layer bn5b_branch2b
I0711 15:34:37.289906 21326 net.cpp:425] bn5b_branch2b <- res5b_branch2b
I0711 15:34:37.289912 21326 net.cpp:386] bn5b_branch2b -> res5b_branch2b (in-place)
I0711 15:34:37.290139 21326 net.cpp:141] Setting up bn5b_branch2b
I0711 15:34:37.290150 21326 net.cpp:148] Top shape: 1 512 60 60 (1843200)
I0711 15:34:37.290155 21326 net.cpp:156] Memory required for data: 4298342400
I0711 15:34:37.290168 21326 layer_factory.hpp:77] Creating layer scale5b_branch2b
I0711 15:34:37.290177 21326 net.cpp:91] Creating Layer scale5b_branch2b
I0711 15:34:37.290184 21326 net.cpp:425] scale5b_branch2b <- res5b_branch2b
I0711 15:34:37.290189 21326 net.cpp:386] scale5b_branch2b -> res5b_branch2b (in-place)
I0711 15:34:37.290238 21326 layer_factory.hpp:77] Creating layer scale5b_branch2b
I0711 15:34:37.290385 21326 net.cpp:141] Setting up scale5b_branch2b
I0711 15:34:37.290396 21326 net.cpp:148] Top shape: 1 512 60 60 (1843200)
I0711 15:34:37.290401 21326 net.cpp:156] Memory required for data: 4305715200
I0711 15:34:37.290410 21326 layer_factory.hpp:77] Creating layer res5b_branch2b_relu
I0711 15:34:37.290417 21326 net.cpp:91] Creating Layer res5b_branch2b_relu
I0711 15:34:37.290422 21326 net.cpp:425] res5b_branch2b_relu <- res5b_branch2b
I0711 15:34:37.290428 21326 net.cpp:386] res5b_branch2b_relu -> res5b_branch2b (in-place)
I0711 15:34:37.290438 21326 net.cpp:141] Setting up res5b_branch2b_relu
I0711 15:34:37.290446 21326 net.cpp:148] Top shape: 1 512 60 60 (1843200)
I0711 15:34:37.290449 21326 net.cpp:156] Memory required for data: 4313088000
I0711 15:34:37.290453 21326 layer_factory.hpp:77] Creating layer res5b_branch2c
I0711 15:34:37.290462 21326 net.cpp:91] Creating Layer res5b_branch2c
I0711 15:34:37.290467 21326 net.cpp:425] res5b_branch2c <- res5b_branch2b
I0711 15:34:37.290477 21326 net.cpp:399] res5b_branch2c -> res5b_branch2c
I0711 15:34:37.293217 21326 net.cpp:141] Setting up res5b_branch2c
I0711 15:34:37.293234 21326 net.cpp:148] Top shape: 1 2048 60 60 (7372800)
I0711 15:34:37.293241 21326 net.cpp:156] Memory required for data: 4342579200
I0711 15:34:37.293248 21326 layer_factory.hpp:77] Creating layer bn5b_branch2c
I0711 15:34:37.293261 21326 net.cpp:91] Creating Layer bn5b_branch2c
I0711 15:34:37.293267 21326 net.cpp:425] bn5b_branch2c <- res5b_branch2c
I0711 15:34:37.293273 21326 net.cpp:386] bn5b_branch2c -> res5b_branch2c (in-place)
I0711 15:34:37.293488 21326 net.cpp:141] Setting up bn5b_branch2c
I0711 15:34:37.293499 21326 net.cpp:148] Top shape: 1 2048 60 60 (7372800)
I0711 15:34:37.293504 21326 net.cpp:156] Memory required for data: 4372070400
I0711 15:34:37.293514 21326 layer_factory.hpp:77] Creating layer scale5b_branch2c
I0711 15:34:37.293536 21326 net.cpp:91] Creating Layer scale5b_branch2c
I0711 15:34:37.293541 21326 net.cpp:425] scale5b_branch2c <- res5b_branch2c
I0711 15:34:37.293550 21326 net.cpp:386] scale5b_branch2c -> res5b_branch2c (in-place)
I0711 15:34:37.293601 21326 layer_factory.hpp:77] Creating layer scale5b_branch2c
I0711 15:34:37.293740 21326 net.cpp:141] Setting up scale5b_branch2c
I0711 15:34:37.293752 21326 net.cpp:148] Top shape: 1 2048 60 60 (7372800)
I0711 15:34:37.293757 21326 net.cpp:156] Memory required for data: 4401561600
I0711 15:34:37.293766 21326 layer_factory.hpp:77] Creating layer res5b
I0711 15:34:37.293776 21326 net.cpp:91] Creating Layer res5b
I0711 15:34:37.293781 21326 net.cpp:425] res5b <- res5a_res5a_relu_0_split_1
I0711 15:34:37.293787 21326 net.cpp:425] res5b <- res5b_branch2c
I0711 15:34:37.293793 21326 net.cpp:399] res5b -> res5b
I0711 15:34:37.293826 21326 net.cpp:141] Setting up res5b
I0711 15:34:37.293836 21326 net.cpp:148] Top shape: 1 2048 60 60 (7372800)
I0711 15:34:37.293841 21326 net.cpp:156] Memory required for data: 4431052800
I0711 15:34:37.293846 21326 layer_factory.hpp:77] Creating layer res5b_relu
I0711 15:34:37.293853 21326 net.cpp:91] Creating Layer res5b_relu
I0711 15:34:37.293859 21326 net.cpp:425] res5b_relu <- res5b
I0711 15:34:37.293865 21326 net.cpp:386] res5b_relu -> res5b (in-place)
I0711 15:34:37.293874 21326 net.cpp:141] Setting up res5b_relu
I0711 15:34:37.293880 21326 net.cpp:148] Top shape: 1 2048 60 60 (7372800)
I0711 15:34:37.293884 21326 net.cpp:156] Memory required for data: 4460544000
I0711 15:34:37.293889 21326 layer_factory.hpp:77] Creating layer res5b_res5b_relu_0_split
I0711 15:34:37.293895 21326 net.cpp:91] Creating Layer res5b_res5b_relu_0_split
I0711 15:34:37.293900 21326 net.cpp:425] res5b_res5b_relu_0_split <- res5b
I0711 15:34:37.293906 21326 net.cpp:399] res5b_res5b_relu_0_split -> res5b_res5b_relu_0_split_0
I0711 15:34:37.293913 21326 net.cpp:399] res5b_res5b_relu_0_split -> res5b_res5b_relu_0_split_1
I0711 15:34:37.293957 21326 net.cpp:141] Setting up res5b_res5b_relu_0_split
I0711 15:34:37.293967 21326 net.cpp:148] Top shape: 1 2048 60 60 (7372800)
I0711 15:34:37.293972 21326 net.cpp:148] Top shape: 1 2048 60 60 (7372800)
I0711 15:34:37.293977 21326 net.cpp:156] Memory required for data: 4519526400
I0711 15:34:37.293980 21326 layer_factory.hpp:77] Creating layer res5c_branch2a
I0711 15:34:37.293992 21326 net.cpp:91] Creating Layer res5c_branch2a
I0711 15:34:37.293998 21326 net.cpp:425] res5c_branch2a <- res5b_res5b_relu_0_split_0
I0711 15:34:37.294003 21326 net.cpp:399] res5c_branch2a -> res5c_branch2a
I0711 15:34:37.296748 21326 net.cpp:141] Setting up res5c_branch2a
I0711 15:34:37.296766 21326 net.cpp:148] Top shape: 1 512 60 60 (1843200)
I0711 15:34:37.296772 21326 net.cpp:156] Memory required for data: 4526899200
I0711 15:34:37.296780 21326 layer_factory.hpp:77] Creating layer bn5c_branch2a
I0711 15:34:37.296790 21326 net.cpp:91] Creating Layer bn5c_branch2a
I0711 15:34:37.296797 21326 net.cpp:425] bn5c_branch2a <- res5c_branch2a
I0711 15:34:37.296803 21326 net.cpp:386] bn5c_branch2a -> res5c_branch2a (in-place)
I0711 15:34:37.297034 21326 net.cpp:141] Setting up bn5c_branch2a
I0711 15:34:37.297044 21326 net.cpp:148] Top shape: 1 512 60 60 (1843200)
I0711 15:34:37.297049 21326 net.cpp:156] Memory required for data: 4534272000
I0711 15:34:37.297060 21326 layer_factory.hpp:77] Creating layer scale5c_branch2a
I0711 15:34:37.297070 21326 net.cpp:91] Creating Layer scale5c_branch2a
I0711 15:34:37.297076 21326 net.cpp:425] scale5c_branch2a <- res5c_branch2a
I0711 15:34:37.297083 21326 net.cpp:386] scale5c_branch2a -> res5c_branch2a (in-place)
I0711 15:34:37.297132 21326 layer_factory.hpp:77] Creating layer scale5c_branch2a
I0711 15:34:37.297278 21326 net.cpp:141] Setting up scale5c_branch2a
I0711 15:34:37.297288 21326 net.cpp:148] Top shape: 1 512 60 60 (1843200)
I0711 15:34:37.297293 21326 net.cpp:156] Memory required for data: 4541644800
I0711 15:34:37.297302 21326 layer_factory.hpp:77] Creating layer res5c_branch2a_relu
I0711 15:34:37.297309 21326 net.cpp:91] Creating Layer res5c_branch2a_relu
I0711 15:34:37.297327 21326 net.cpp:425] res5c_branch2a_relu <- res5c_branch2a
I0711 15:34:37.297336 21326 net.cpp:386] res5c_branch2a_relu -> res5c_branch2a (in-place)
I0711 15:34:37.297345 21326 net.cpp:141] Setting up res5c_branch2a_relu
I0711 15:34:37.297353 21326 net.cpp:148] Top shape: 1 512 60 60 (1843200)
I0711 15:34:37.297356 21326 net.cpp:156] Memory required for data: 4549017600
I0711 15:34:37.297360 21326 layer_factory.hpp:77] Creating layer res5c_branch2b
I0711 15:34:37.297372 21326 net.cpp:91] Creating Layer res5c_branch2b
I0711 15:34:37.297377 21326 net.cpp:425] res5c_branch2b <- res5c_branch2a
I0711 15:34:37.297384 21326 net.cpp:399] res5c_branch2b -> res5c_branch2b
I0711 15:34:37.302659 21326 net.cpp:141] Setting up res5c_branch2b
I0711 15:34:37.302677 21326 net.cpp:148] Top shape: 1 512 60 60 (1843200)
I0711 15:34:37.302682 21326 net.cpp:156] Memory required for data: 4556390400
I0711 15:34:37.302690 21326 layer_factory.hpp:77] Creating layer bn5c_branch2b
I0711 15:34:37.302703 21326 net.cpp:91] Creating Layer bn5c_branch2b
I0711 15:34:37.302709 21326 net.cpp:425] bn5c_branch2b <- res5c_branch2b
I0711 15:34:37.302718 21326 net.cpp:386] bn5c_branch2b -> res5c_branch2b (in-place)
I0711 15:34:37.303532 21326 net.cpp:141] Setting up bn5c_branch2b
I0711 15:34:37.303549 21326 net.cpp:148] Top shape: 1 512 60 60 (1843200)
I0711 15:34:37.303556 21326 net.cpp:156] Memory required for data: 4563763200
I0711 15:34:37.303567 21326 layer_factory.hpp:77] Creating layer scale5c_branch2b
I0711 15:34:37.303577 21326 net.cpp:91] Creating Layer scale5c_branch2b
I0711 15:34:37.303583 21326 net.cpp:425] scale5c_branch2b <- res5c_branch2b
I0711 15:34:37.303592 21326 net.cpp:386] scale5c_branch2b -> res5c_branch2b (in-place)
I0711 15:34:37.303642 21326 layer_factory.hpp:77] Creating layer scale5c_branch2b
I0711 15:34:37.303786 21326 net.cpp:141] Setting up scale5c_branch2b
I0711 15:34:37.303799 21326 net.cpp:148] Top shape: 1 512 60 60 (1843200)
I0711 15:34:37.303804 21326 net.cpp:156] Memory required for data: 4571136000
I0711 15:34:37.303813 21326 layer_factory.hpp:77] Creating layer res5c_branch2b_relu
I0711 15:34:37.303822 21326 net.cpp:91] Creating Layer res5c_branch2b_relu
I0711 15:34:37.303828 21326 net.cpp:425] res5c_branch2b_relu <- res5c_branch2b
I0711 15:34:37.303833 21326 net.cpp:386] res5c_branch2b_relu -> res5c_branch2b (in-place)
I0711 15:34:37.303840 21326 net.cpp:141] Setting up res5c_branch2b_relu
I0711 15:34:37.303846 21326 net.cpp:148] Top shape: 1 512 60 60 (1843200)
I0711 15:34:37.303850 21326 net.cpp:156] Memory required for data: 4578508800
I0711 15:34:37.303854 21326 layer_factory.hpp:77] Creating layer res5c_branch2c
I0711 15:34:37.303865 21326 net.cpp:91] Creating Layer res5c_branch2c
I0711 15:34:37.303871 21326 net.cpp:425] res5c_branch2c <- res5c_branch2b
I0711 15:34:37.303879 21326 net.cpp:399] res5c_branch2c -> res5c_branch2c
I0711 15:34:37.306471 21326 net.cpp:141] Setting up res5c_branch2c
I0711 15:34:37.306488 21326 net.cpp:148] Top shape: 1 2048 60 60 (7372800)
I0711 15:34:37.306493 21326 net.cpp:156] Memory required for data: 4608000000
I0711 15:34:37.306502 21326 layer_factory.hpp:77] Creating layer bn5c_branch2c
I0711 15:34:37.306512 21326 net.cpp:91] Creating Layer bn5c_branch2c
I0711 15:34:37.306519 21326 net.cpp:425] bn5c_branch2c <- res5c_branch2c
I0711 15:34:37.306525 21326 net.cpp:386] bn5c_branch2c -> res5c_branch2c (in-place)
I0711 15:34:37.306741 21326 net.cpp:141] Setting up bn5c_branch2c
I0711 15:34:37.306752 21326 net.cpp:148] Top shape: 1 2048 60 60 (7372800)
I0711 15:34:37.306757 21326 net.cpp:156] Memory required for data: 4637491200
I0711 15:34:37.306767 21326 layer_factory.hpp:77] Creating layer scale5c_branch2c
I0711 15:34:37.306779 21326 net.cpp:91] Creating Layer scale5c_branch2c
I0711 15:34:37.306785 21326 net.cpp:425] scale5c_branch2c <- res5c_branch2c
I0711 15:34:37.306792 21326 net.cpp:386] scale5c_branch2c -> res5c_branch2c (in-place)
I0711 15:34:37.306843 21326 layer_factory.hpp:77] Creating layer scale5c_branch2c
I0711 15:34:37.306994 21326 net.cpp:141] Setting up scale5c_branch2c
I0711 15:34:37.307006 21326 net.cpp:148] Top shape: 1 2048 60 60 (7372800)
I0711 15:34:37.307010 21326 net.cpp:156] Memory required for data: 4666982400
I0711 15:34:37.307018 21326 layer_factory.hpp:77] Creating layer res5c
I0711 15:34:37.307029 21326 net.cpp:91] Creating Layer res5c
I0711 15:34:37.307035 21326 net.cpp:425] res5c <- res5b_res5b_relu_0_split_1
I0711 15:34:37.307041 21326 net.cpp:425] res5c <- res5c_branch2c
I0711 15:34:37.307047 21326 net.cpp:399] res5c -> res5c
I0711 15:34:37.307080 21326 net.cpp:141] Setting up res5c
I0711 15:34:37.307090 21326 net.cpp:148] Top shape: 1 2048 60 60 (7372800)
I0711 15:34:37.307096 21326 net.cpp:156] Memory required for data: 4696473600
I0711 15:34:37.307099 21326 layer_factory.hpp:77] Creating layer res5c_relu
I0711 15:34:37.307106 21326 net.cpp:91] Creating Layer res5c_relu
I0711 15:34:37.307111 21326 net.cpp:425] res5c_relu <- res5c
I0711 15:34:37.307119 21326 net.cpp:386] res5c_relu -> res5c (in-place)
I0711 15:34:37.307128 21326 net.cpp:141] Setting up res5c_relu
I0711 15:34:37.307135 21326 net.cpp:148] Top shape: 1 2048 60 60 (7372800)
I0711 15:34:37.307138 21326 net.cpp:156] Memory required for data: 4725964800
I0711 15:34:37.307142 21326 layer_factory.hpp:77] Creating layer res5c_res5c_relu_0_split
I0711 15:34:37.307150 21326 net.cpp:91] Creating Layer res5c_res5c_relu_0_split
I0711 15:34:37.307155 21326 net.cpp:425] res5c_res5c_relu_0_split <- res5c
I0711 15:34:37.307162 21326 net.cpp:399] res5c_res5c_relu_0_split -> res5c_res5c_relu_0_split_0
I0711 15:34:37.307169 21326 net.cpp:399] res5c_res5c_relu_0_split -> res5c_res5c_relu_0_split_1
I0711 15:34:37.307179 21326 net.cpp:399] res5c_res5c_relu_0_split -> res5c_res5c_relu_0_split_2
I0711 15:34:37.307188 21326 net.cpp:399] res5c_res5c_relu_0_split -> res5c_res5c_relu_0_split_3
I0711 15:34:37.307201 21326 net.cpp:399] res5c_res5c_relu_0_split -> res5c_res5c_relu_0_split_4
I0711 15:34:37.307279 21326 net.cpp:141] Setting up res5c_res5c_relu_0_split
I0711 15:34:37.307288 21326 net.cpp:148] Top shape: 1 2048 60 60 (7372800)
I0711 15:34:37.307296 21326 net.cpp:148] Top shape: 1 2048 60 60 (7372800)
I0711 15:34:37.307301 21326 net.cpp:148] Top shape: 1 2048 60 60 (7372800)
I0711 15:34:37.307307 21326 net.cpp:148] Top shape: 1 2048 60 60 (7372800)
I0711 15:34:37.307312 21326 net.cpp:148] Top shape: 1 2048 60 60 (7372800)
I0711 15:34:37.307315 21326 net.cpp:156] Memory required for data: 4873420800
I0711 15:34:37.307319 21326 layer_factory.hpp:77] Creating layer fc1_VOC_c0
I0711 15:34:37.307333 21326 net.cpp:91] Creating Layer fc1_VOC_c0
I0711 15:34:37.307339 21326 net.cpp:425] fc1_VOC_c0 <- res5c_res5c_relu_0_split_0
I0711 15:34:37.307348 21326 net.cpp:399] fc1_VOC_c0 -> fc1_VOC_c0
I0711 15:34:37.321364 21326 net.cpp:141] Setting up fc1_VOC_c0
I0711 15:34:37.321382 21326 net.cpp:148] Top shape: 1 21 60 60 (75600)
I0711 15:34:37.321391 21326 net.cpp:156] Memory required for data: 4873723200
I0711 15:34:37.321400 21326 layer_factory.hpp:77] Creating layer fc1_VOC_c1
I0711 15:34:37.321419 21326 net.cpp:91] Creating Layer fc1_VOC_c1
I0711 15:34:37.321425 21326 net.cpp:425] fc1_VOC_c1 <- res5c_res5c_relu_0_split_1
I0711 15:34:37.321434 21326 net.cpp:399] fc1_VOC_c1 -> fc1_VOC_c1
I0711 15:34:37.335085 21326 net.cpp:141] Setting up fc1_VOC_c1
I0711 15:34:37.335103 21326 net.cpp:148] Top shape: 1 21 60 60 (75600)
I0711 15:34:37.335108 21326 net.cpp:156] Memory required for data: 4874025600
I0711 15:34:37.335116 21326 layer_factory.hpp:77] Creating layer fc1_VOC_c2
I0711 15:34:37.335130 21326 net.cpp:91] Creating Layer fc1_VOC_c2
I0711 15:34:37.335135 21326 net.cpp:425] fc1_VOC_c2 <- res5c_res5c_relu_0_split_2
I0711 15:34:37.335145 21326 net.cpp:399] fc1_VOC_c2 -> fc1_VOC_c2
I0711 15:34:37.348803 21326 net.cpp:141] Setting up fc1_VOC_c2
I0711 15:34:37.348819 21326 net.cpp:148] Top shape: 1 21 60 60 (75600)
I0711 15:34:37.348824 21326 net.cpp:156] Memory required for data: 4874328000
I0711 15:34:37.348834 21326 layer_factory.hpp:77] Creating layer fc1_VOC_c3
I0711 15:34:37.348845 21326 net.cpp:91] Creating Layer fc1_VOC_c3
I0711 15:34:37.348862 21326 net.cpp:425] fc1_VOC_c3 <- res5c_res5c_relu_0_split_3
I0711 15:34:37.348873 21326 net.cpp:399] fc1_VOC_c3 -> fc1_VOC_c3
I0711 15:34:37.362697 21326 net.cpp:141] Setting up fc1_VOC_c3
I0711 15:34:37.362715 21326 net.cpp:148] Top shape: 1 21 60 60 (75600)
I0711 15:34:37.362720 21326 net.cpp:156] Memory required for data: 4874630400
I0711 15:34:37.362728 21326 layer_factory.hpp:77] Creating layer fc1_VOC_c4
I0711 15:34:37.362749 21326 net.cpp:91] Creating Layer fc1_VOC_c4
I0711 15:34:37.362756 21326 net.cpp:425] fc1_VOC_c4 <- res5c_res5c_relu_0_split_4
I0711 15:34:37.362766 21326 net.cpp:399] fc1_VOC_c4 -> fc1_VOC_c4
I0711 15:34:37.376440 21326 net.cpp:141] Setting up fc1_VOC_c4
I0711 15:34:37.376459 21326 net.cpp:148] Top shape: 1 21 60 60 (75600)
I0711 15:34:37.376466 21326 net.cpp:156] Memory required for data: 4874932800
I0711 15:34:37.376474 21326 layer_factory.hpp:77] Creating layer fc1_VOC
I0711 15:34:37.376487 21326 net.cpp:91] Creating Layer fc1_VOC
I0711 15:34:37.376492 21326 net.cpp:425] fc1_VOC <- fc1_VOC_c0
I0711 15:34:37.376497 21326 net.cpp:425] fc1_VOC <- fc1_VOC_c1
I0711 15:34:37.376502 21326 net.cpp:425] fc1_VOC <- fc1_VOC_c2
I0711 15:34:37.376507 21326 net.cpp:425] fc1_VOC <- fc1_VOC_c3
I0711 15:34:37.376510 21326 net.cpp:425] fc1_VOC <- fc1_VOC_c4
I0711 15:34:37.376518 21326 net.cpp:399] fc1_VOC -> fc1_VOC
I0711 15:34:37.376555 21326 net.cpp:141] Setting up fc1_VOC
I0711 15:34:37.376565 21326 net.cpp:148] Top shape: 1 21 60 60 (75600)
I0711 15:34:37.376569 21326 net.cpp:156] Memory required for data: 4875235200
I0711 15:34:37.376574 21326 layer_factory.hpp:77] Creating layer upscore
I0711 15:34:37.376585 21326 net.cpp:91] Creating Layer upscore
I0711 15:34:37.376590 21326 net.cpp:425] upscore <- fc1_VOC
I0711 15:34:37.376597 21326 net.cpp:399] upscore -> upscore
I0711 15:34:37.377076 21326 net.cpp:141] Setting up upscore
I0711 15:34:37.377089 21326 net.cpp:148] Top shape: 1 21 480 480 (4838400)
I0711 15:34:37.377092 21326 net.cpp:156] Memory required for data: 4894588800
I0711 15:34:37.377100 21326 layer_factory.hpp:77] Creating layer loss
I0711 15:34:37.377109 21326 net.cpp:91] Creating Layer loss
I0711 15:34:37.377112 21326 net.cpp:425] loss <- upscore
I0711 15:34:37.377120 21326 net.cpp:425] loss <- label
I0711 15:34:37.377128 21326 net.cpp:399] loss -> loss
I0711 15:34:37.377152 21326 layer_factory.hpp:77] Creating layer loss
…
