…
I0706 14:05:45.780346 27901 solver.cpp:81] Creating training net from train_net file: examples/DPN2_Coco_val/DPN2_Coco.prototxt
I0706 14:05:45.794945 27901 net.cpp:49] Initializing net from parameters: 
name: "DPN"
state {
  phase: TRAIN
}
layer {
  name: "data"
  type: "ImageSegData"
  top: "data"
  top: "label"
  transform_param {
    mirror: true
    crop_size: 480
    mean_value: 104.00699
    mean_value: 116.66877
    mean_value: 122.67892
    crop_resize: 0.8
    crop_resize: 1
  }
  image_data_param {
    source: "data/coco/trainval2014.txt"
    batch_size: 1
    shuffle: true
    root_folder: "data/coco/"
    label_type: PIXEL
  }
}
layer {
  name: "conv1"
  type: "Convolution"
  bottom: "data"
  top: "conv1"
  param {
    name: "conv1_0"
    lr_mult: 1
    decay_mult: 1
  }
  convolution_param {
    num_output: 64
    bias_term: false
    pad: 3
    kernel_size: 7
    stride: 2
  }
}
layer {
  name: "bn_conv1"
  type: "BatchNorm"
  bottom: "conv1"
  top: "conv1"
  param {
    name: "bn_conv1_0"
    lr_mult: 0
  }
  param {
    name: "bn_conv1_1"
    lr_mult: 0
  }
  param {
    name: "bn_conv1_2"
    lr_mult: 0
  }
  batch_norm_param {
    use_global_stats: true
  }
}
layer {
  name: "scale_conv1"
  type: "Scale"
  bottom: "conv1"
  top: "conv1"
  param {
    name: "scale_conv1_0"
    lr_mult: 0
  }
  param {
    name: "scale_conv1_1"
    lr_mult: 0
  }
  scale_param {
    bias_term: true
  }
}
layer {
  name: "conv1_relu"
  type: "ReLU"
  bottom: "conv1"
  top: "conv1"
}
layer {
  name: "pool1"
  type: "Pooling"
  bottom: "conv1"
  top: "pool1"
  pooling_param {
    pool: MAX
    kernel_size: 3
    stride: 2
  }
}
layer {
  name: "res2a_branch1"
  type: "Convolution"
  bottom: "pool1"
  top: "res2a_branch1"
  param {
    name: "res2a_branch1_0"
    lr_mult: 1
    decay_mult: 1
  }
  convolution_param {
    num_output: 256
    bias_term: false
    pad: 0
    kernel_size: 1
    stride: 1
  }
}
layer {
  name: "bn2a_branch1"
  type: "BatchNorm"
  bottom: "res2a_branch1"
  top: "res2a_branch1"
  param {
    name: "bn2a_branch1_0"
    lr_mult: 0
  }
  param {
    name: "bn2a_branch1_1"
    lr_mult: 0
  }
  param {
    name: "bn2a_branch1_2"
    lr_mult: 0
  }
  batch_norm_param {
    use_global_stats: true
  }
}
layer {
  name: "scale2a_branch1"
  type: "Scale"
  bottom: "res2a_branch1"
  top: "res2a_branch1"
  param {
    name: "scale2a_branch1_0"
    lr_mult: 0
  }
  param {
    name: "scale2a_branch1_1"
    lr_mult: 0
  }
  scale_param {
    bias_term: true
  }
}
layer {
  name: "res2a_branch2a"
  type: "Convolution"
  bottom: "pool1"
  top: "res2a_branch2a"
  param {
    name: "res2a_branch2a_0"
    lr_mult: 1
    decay_mult: 1
  }
  convolution_param {
    num_output: 64
    bias_term: false
    pad: 0
    kernel_size: 1
    stride: 1
  }
}
layer {
  name: "bn2a_branch2a"
  type: "BatchNorm"
  bottom: "res2a_branch2a"
  top: "res2a_branch2a"
  param {
    name: "bn2a_branch2a_0"
    lr_mult: 0
  }
  param {
    name: "bn2a_branch2a_1"
    lr_mult: 0
  }
  param {
    name: "bn2a_branch2a_2"
    lr_mult: 0
  }
  batch_norm_param {
    use_global_stats: true
  }
}
layer {
  name: "scale2a_branch2a"
  type: "Scale"
  bottom: "res2a_branch2a"
  top: "res2a_branch2a"
  param {
    name: "scale2a_branch2a_0"
    lr_mult: 0
  }
  param {
    name: "scale2a_branch2a_1"
    lr_mult: 0
  }
  scale_param {
    bias_term: true
  }
}
layer {
  name: "res2a_branch2a_relu"
  type: "ReLU"
  bottom: "res2a_branch2a"
  top: "res2a_branch2a"
}
layer {
  name: "res2a_branch2b"
  type: "Convolution"
  bottom: "res2a_branch2a"
  top: "res2a_branch2b"
  param {
    name: "res2a_branch2b_0"
    lr_mult: 1
    decay_mult: 1
  }
  convolution_param {
    num_output: 64
    bias_term: false
    pad: 1
    kernel_size: 3
    stride: 1
  }
}
layer {
  name: "bn2a_branch2b"
  type: "BatchNorm"
  bottom: "res2a_branch2b"
  top: "res2a_branch2b"
  param {
    name: "bn2a_branch2b_0"
    lr_mult: 0
  }
  param {
    name: "bn2a_branch2b_1"
    lr_mult: 0
  }
  param {
    name: "bn2a_branch2b_2"
    lr_mult: 0
  }
  batch_norm_param {
    use_global_stats: true
  }
}
layer {
  name: "scale2a_branch2b"
  type: "Scale"
  bottom: "res2a_branch2b"
  top: "res2a_branch2b"
  param {
    name: "scale2a_branch2b_0"
    lr_mult: 0
  }
  param {
    name: "scale2a_branch2b_1"
    lr_mult: 0
  }
  scale_param {
    bias_term: true
  }
}
layer {
  name: "res2a_branch2b_relu"
  type: "ReLU"
  bottom: "res2a_branch2b"
  top: "res2a_branch2b"
}
layer {
  name: "res2a_branch2c"
  type: "Convolution"
  bottom: "res2a_branch2b"
  top: "res2a_branch2c"
  param {
    name: "res2a_branch2c_0"
    lr_mult: 1
    decay_mult: 1
  }
  convolution_param {
    num_output: 256
    bias_term: false
    pad: 0
    kernel_size: 1
    stride: 1
  }
}
layer {
  name: "bn2a_branch2c"
  type: "BatchNorm"
  bottom: "res2a_branch2c"
  top: "res2a_branch2c"
  param {
    name: "bn2a_branch2c_0"
    lr_mult: 0
  }
  param {
    name: "bn2a_branch2c_1"
    lr_mult: 0
  }
  param {
    name: "bn2a_branch2c_2"
    lr_mult: 0
  }
  batch_norm_param {
    use_global_stats: true
  }
}
layer {
  name: "scale2a_branch2c"
  type: "Scale"
  bottom: "res2a_branch2c"
  top: "res2a_branch2c"
  param {
    name: "scale2a_branch2c_0"
    lr_mult: 0
  }
  param {
    name: "scale2a_branch2c_1"
    lr_mult: 0
  }
  scale_param {
    bias_term: true
  }
}
layer {
  name: "res2a"
  type: "Eltwise"
  bottom: "res2a_branch1"
  bottom: "res2a_branch2c"
  top: "res2a"
}
layer {
  name: "res2a_relu"
  type: "ReLU"
  bottom: "res2a"
  top: "res2a"
}
layer {
  name: "res2b_branch2a"
  type: "Convolution"
  bottom: "res2a"
  top: "res2b_branch2a"
  param {
    name: "res2b_branch2a_0"
    lr_mult: 1
    decay_mult: 1
  }
  convolution_param {
    num_output: 64
    bias_term: false
    pad: 0
    kernel_size: 1
    stride: 1
  }
}
layer {
  name: "bn2b_branch2a"
  type: "BatchNorm"
  bottom: "res2b_branch2a"
  top: "res2b_branch2a"
  param {
    name: "bn2b_branch2a_0"
    lr_mult: 0
  }
  param {
    name: "bn2b_branch2a_1"
    lr_mult: 0
  }
  param {
    name: "bn2b_branch2a_2"
    lr_mult: 0
  }
  batch_norm_param {
    use_global_stats: true
  }
}
layer {
  name: "scale2b_branch2a"
  type: "Scale"
  bottom: "res2b_branch2a"
  top: "res2b_branch2a"
  param {
    name: "scale2b_branch2a_0"
    lr_mult: 0
  }
  param {
    name: "scale2b_branch2a_1"
    lr_mult: 0
  }
  scale_param {
    bias_term: true
  }
}
layer {
  name: "res2b_branch2a_relu"
  type: "ReLU"
  bottom: "res2b_branch2a"
  top: "res2b_branch2a"
}
layer {
  name: "res2b_branch2b"
  type: "Convolution"
  bottom: "res2b_branch2a"
  top: "res2b_branch2b"
  param {
    name: "res2b_branch2b_0"
    lr_mult: 1
    decay_mult: 1
  }
  convolution_param {
    num_output: 64
    bias_term: false
    pad: 1
    kernel_size: 3
    stride: 1
  }
}
layer {
  name: "bn2b_branch2b"
  type: "BatchNorm"
  bottom: "res2b_branch2b"
  top: "res2b_branch2b"
  param {
    name: "bn2b_branch2b_0"
    lr_mult: 0
  }
  param {
    name: "bn2b_branch2b_1"
    lr_mult: 0
  }
  param {
    name: "bn2b_branch2b_2"
    lr_mult: 0
  }
  batch_norm_param {
    use_global_stats: true
  }
}
layer {
  name: "scale2b_branch2b"
  type: "Scale"
  bottom: "res2b_branch2b"
  top: "res2b_branch2b"
  param {
    name: "scale2b_branch2b_0"
    lr_mult: 0
  }
  param {
    name: "scale2b_branch2b_1"
    lr_mult: 0
  }
  scale_param {
    bias_term: true
  }
}
layer {
  name: "res2b_branch2b_relu"
  type: "ReLU"
  bottom: "res2b_branch2b"
  top: "res2b_branch2b"
}
layer {
  name: "res2b_branch2c"
  type: "Convolution"
  bottom: "res2b_branch2b"
  top: "res2b_branch2c"
  param {
    name: "res2b_branch2c_0"
    lr_mult: 1
    decay_mult: 1
  }
  convolution_param {
    num_output: 256
    bias_term: false
    pad: 0
    kernel_size: 1
    stride: 1
  }
}
layer {
  name: "bn2b_branch2c"
  type: "BatchNorm"
  bottom: "res2b_branch2c"
  top: "res2b_branch2c"
  param {
    name: "bn2b_branch2c_0"
    lr_mult: 0
  }
  param {
    name: "bn2b_branch2c_1"
    lr_mult: 0
  }
  param {
    name: "bn2b_branch2c_2"
    lr_mult: 0
  }
  batch_norm_param {
    use_global_stats: true
  }
}
layer {
  name: "scale2b_branch2c"
  type: "Scale"
  bottom: "res2b_branch2c"
  top: "res2b_branch2c"
  param {
    name: "scale2b_branch2c_0"
    lr_mult: 0
  }
  param {
    name: "scale2b_branch2c_1"
    lr_mult: 0
  }
  scale_param {
    bias_term: true
  }
}
layer {
  name: "res2b"
  type: "Eltwise"
  bottom: "res2a"
  bottom: "res2b_branch2c"
  top: "res2b"
}
layer {
  name: "res2b_relu"
  type: "ReLU"
  bottom: "res2b"
  top: "res2b"
}
layer {
  name: "res2c_branch2a"
  type: "Convolution"
  bottom: "res2b"
  top: "res2c_branch2a"
  param {
    name: "res2c_branch2a_0"
    lr_mult: 1
    decay_mult: 1
  }
  convolution_param {
    num_output: 64
    bias_term: false
    pad: 0
    kernel_size: 1
    stride: 1
  }
}
layer {
  name: "bn2c_branch2a"
  type: "BatchNorm"
  bottom: "res2c_branch2a"
  top: "res2c_branch2a"
  param {
    name: "bn2c_branch2a_0"
    lr_mult: 0
  }
  param {
    name: "bn2c_branch2a_1"
    lr_mult: 0
  }
  param {
    name: "bn2c_branch2a_2"
    lr_mult: 0
  }
  batch_norm_param {
    use_global_stats: true
  }
}
layer {
  name: "scale2c_branch2a"
  type: "Scale"
  bottom: "res2c_branch2a"
  top: "res2c_branch2a"
  param {
    name: "scale2c_branch2a_0"
    lr_mult: 0
  }
  param {
    name: "scale2c_branch2a_1"
    lr_mult: 0
  }
  scale_param {
    bias_term: true
  }
}
layer {
  name: "res2c_branch2a_relu"
  type: "ReLU"
  bottom: "res2c_branch2a"
  top: "res2c_branch2a"
}
layer {
  name: "res2c_branch2b"
  type: "Convolution"
  bottom: "res2c_branch2a"
  top: "res2c_branch2b"
  param {
    name: "res2c_branch2b_0"
    lr_mult: 1
    decay_mult: 1
  }
  convolution_param {
    num_output: 64
    bias_term: false
    pad: 1
    kernel_size: 3
    stride: 1
  }
}
layer {
  name: "bn2c_branch2b"
  type: "BatchNorm"
  bottom: "res2c_branch2b"
  top: "res2c_branch2b"
  param {
    name: "bn2c_branch2b_0"
    lr_mult: 0
  }
  param {
    name: "bn2c_branch2b_1"
    lr_mult: 0
  }
  param {
    name: "bn2c_branch2b_2"
    lr_mult: 0
  }
  batch_norm_param {
    use_global_stats: true
  }
}
layer {
  name: "scale2c_branch2b"
  type: "Scale"
  bottom: "res2c_branch2b"
  top: "res2c_branch2b"
  param {
    name: "scale2c_branch2b_0"
    lr_mult: 0
  }
  param {
    name: "scale2c_branch2b_1"
    lr_mult: 0
  }
  scale_param {
    bias_term: true
  }
}
layer {
  name: "res2c_branch2b_relu"
  type: "ReLU"
  bottom: "res2c_branch2b"
  top: "res2c_branch2b"
}
layer {
  name: "res2c_branch2c"
  type: "Convolution"
  bottom: "res2c_branch2b"
  top: "res2c_branch2c"
  param {
    name: "res2c_branch2c_0"
    lr_mult: 1
    decay_mult: 1
  }
  convolution_param {
    num_output: 256
    bias_term: false
    pad: 0
    kernel_size: 1
    stride: 1
  }
}
layer {
  name: "bn2c_branch2c"
  type: "BatchNorm"
  bottom: "res2c_branch2c"
  top: "res2c_branch2c"
  param {
    name: "bn2c_branch2c_0"
    lr_mult: 0
  }
  param {
    name: "bn2c_branch2c_1"
    lr_mult: 0
  }
  param {
    name: "bn2c_branch2c_2"
    lr_mult: 0
  }
  batch_norm_param {
    use_global_stats: true
  }
}
layer {
  name: "scale2c_branch2c"
  type: "Scale"
  bottom: "res2c_branch2c"
  top: "res2c_branch2c"
  param {
    name: "scale2c_branch2c_0"
    lr_mult: 0
  }
  param {
    name: "scale2c_branch2c_1"
    lr_mult: 0
  }
  scale_param {
    bias_term: true
  }
}
layer {
  name: "res2c"
  type: "Eltwise"
  bottom: "res2b"
  bottom: "res2c_branch2c"
  top: "res2c"
}
layer {
  name: "res2c_relu"
  type: "ReLU"
  bottom: "res2c"
  top: "res2c"
}
layer {
  name: "res3a_branch1"
  type: "Convolution"
  bottom: "res2c"
  top: "res3a_branch1"
  param {
    name: "res3a_branch1_0"
    lr_mult: 1
    decay_mult: 1
  }
  convolution_param {
    num_output: 512
    bias_term: false
    pad: 0
    kernel_size: 1
    stride: 2
  }
}
layer {
  name: "bn3a_branch1"
  type: "BatchNorm"
  bottom: "res3a_branch1"
  top: "res3a_branch1"
  param {
    name: "bn3a_branch1_0"
    lr_mult: 0
  }
  param {
    name: "bn3a_branch1_1"
    lr_mult: 0
  }
  param {
    name: "bn3a_branch1_2"
    lr_mult: 0
  }
  batch_norm_param {
    use_global_stats: true
  }
}
layer {
  name: "scale3a_branch1"
  type: "Scale"
  bottom: "res3a_branch1"
  top: "res3a_branch1"
  param {
    name: "scale3a_branch1_0"
    lr_mult: 0
  }
  param {
    name: "scale3a_branch1_1"
    lr_mult: 0
  }
  scale_param {
    bias_term: true
  }
}
layer {
  name: "res3a_branch2a"
  type: "Convolution"
  bottom: "res2c"
  top: "res3a_branch2a"
  param {
    name: "res3a_branch2a_0"
    lr_mult: 1
    decay_mult: 1
  }
  convolution_param {
    num_output: 128
    bias_term: false
    pad: 0
    kernel_size: 1
    stride: 2
  }
}
layer {
  name: "bn3a_branch2a"
  type: "BatchNorm"
  bottom: "res3a_branch2a"
  top: "res3a_branch2a"
  param {
    name: "bn3a_branch2a_0"
    lr_mult: 0
  }
  param {
    name: "bn3a_branch2a_1"
    lr_mult: 0
  }
  param {
    name: "bn3a_branch2a_2"
    lr_mult: 0
  }
  batch_norm_param {
    use_global_stats: true
  }
}
layer {
  name: "scale3a_branch2a"
  type: "Scale"
  bottom: "res3a_branch2a"
  top: "res3a_branch2a"
  param {
    name: "scale3a_branch2a_0"
    lr_mult: 0
  }
  param {
    name: "scale3a_branch2a_1"
    lr_mult: 0
  }
  scale_param {
    bias_term: true
  }
}
layer {
  name: "res3a_branch2a_relu"
  type: "ReLU"
  bottom: "res3a_branch2a"
  top: "res3a_branch2a"
}
layer {
  name: "res3a_branch2b"
  type: "Convolution"
  bottom: "res3a_branch2a"
  top: "res3a_branch2b"
  param {
    name: "res3a_branch2b_0"
    lr_mult: 1
    decay_mult: 1
  }
  convolution_param {
    num_output: 128
    bias_term: false
    pad: 1
    kernel_size: 3
    stride: 1
  }
}
layer {
  name: "bn3a_branch2b"
  type: "BatchNorm"
  bottom: "res3a_branch2b"
  top: "res3a_branch2b"
  param {
    name: "bn3a_branch2b_0"
    lr_mult: 0
  }
  param {
    name: "bn3a_branch2b_1"
    lr_mult: 0
  }
  param {
    name: "bn3a_branch2b_2"
    lr_mult: 0
  }
  batch_norm_param {
    use_global_stats: true
  }
}
layer {
  name: "scale3a_branch2b"
  type: "Scale"
  bottom: "res3a_branch2b"
  top: "res3a_branch2b"
  param {
    name: "scale3a_branch2b_0"
    lr_mult: 0
  }
  param {
    name: "scale3a_branch2b_1"
    lr_mult: 0
  }
  scale_param {
    bias_term: true
  }
}
layer {
  name: "res3a_branch2b_relu"
  type: "ReLU"
  bottom: "res3a_branch2b"
  top: "res3a_branch2b"
}
layer {
  name: "res3a_branch2c"
  type: "Convolution"
  bottom: "res3a_branch2b"
  top: "res3a_branch2c"
  param {
    name: "res3a_branch2c_0"
    lr_mult: 1
    decay_mult: 1
  }
  convolution_param {
    num_output: 512
    bias_term: false
    pad: 0
    kernel_size: 1
    stride: 1
  }
}
layer {
  name: "bn3a_branch2c"
  type: "BatchNorm"
  bottom: "res3a_branch2c"
  top: "res3a_branch2c"
  param {
    name: "bn3a_branch2c_0"
    lr_mult: 0
  }
  param {
    name: "bn3a_branch2c_1"
    lr_mult: 0
  }
  param {
    name: "bn3a_branch2c_2"
    lr_mult: 0
  }
  batch_norm_param {
    use_global_stats: true
  }
}
layer {
  name: "scale3a_branch2c"
  type: "Scale"
  bottom: "res3a_branch2c"
  top: "res3a_branch2c"
  param {
    name: "scale3a_branch2c_0"
    lr_mult: 0
  }
  param {
    name: "scale3a_branch2c_1"
    lr_mult: 0
  }
  scale_param {
    bias_term: true
  }
}
layer {
  name: "res3a"
  type: "Eltwise"
  bottom: "res3a_branch1"
  bottom: "res3a_branch2c"
  top: "res3a"
}
layer {
  name: "res3a_relu"
  type: "ReLU"
  bottom: "res3a"
  top: "res3a"
}
layer {
  name: "res3b1_branch2a"
  type: "Convolution"
  bottom: "res3a"
  top: "res3b1_branch2a"
  param {
    name: "res3b1_branch2a_0"
    lr_mult: 1
    decay_mult: 1
  }
  convolution_param {
    num_output: 128
    bias_term: false
    pad: 0
    kernel_size: 1
    stride: 1
  }
}
layer {
  name: "bn3b1_branch2a"
  type: "BatchNorm"
  bottom: "res3b1_branch2a"
  top: "res3b1_branch2a"
  param {
    name: "bn3b1_branch2a_0"
    lr_mult: 0
  }
  param {
    name: "bn3b1_branch2a_1"
    lr_mult: 0
  }
  param {
    name: "bn3b1_branch2a_2"
    lr_mult: 0
  }
  batch_norm_param {
    use_global_stats: true
  }
}
layer {
  name: "scale3b1_branch2a"
  type: "Scale"
  bottom: "res3b1_branch2a"
  top: "res3b1_branch2a"
  param {
    name: "scale3b1_branch2a_0"
    lr_mult: 0
  }
  param {
    name: "scale3b1_branch2a_1"
    lr_mult: 0
  }
  scale_param {
    bias_term: true
  }
}
layer {
  name: "res3b1_branch2a_relu"
  type: "ReLU"
  bottom: "res3b1_branch2a"
  top: "res3b1_branch2a"
}
layer {
  name: "res3b1_branch2b"
  type: "Convolution"
  bottom: "res3b1_branch2a"
  top: "res3b1_branch2b"
  param {
    name: "res3b1_branch2b_0"
    lr_mult: 1
    decay_mult: 1
  }
  convolution_param {
    num_output: 128
    bias_term: false
    pad: 1
    kernel_size: 3
    stride: 1
  }
}
layer {
  name: "bn3b1_branch2b"
  type: "BatchNorm"
  bottom: "res3b1_branch2b"
  top: "res3b1_branch2b"
  param {
    name: "bn3b1_branch2b_0"
    lr_mult: 0
  }
  param {
    name: "bn3b1_branch2b_1"
    lr_mult: 0
  }
  param {
    name: "bn3b1_branch2b_2"
    lr_mult: 0
  }
  batch_norm_param {
    use_global_stats: true
  }
}
layer {
  name: "scale3b1_branch2b"
  type: "Scale"
  bottom: "res3b1_branch2b"
  top: "res3b1_branch2b"
  param {
    name: "scale3b1_branch2b_0"
    lr_mult: 0
  }
  param {
    name: "scale3b1_branch2b_1"
    lr_mult: 0
  }
  scale_param {
    bias_term: true
  }
}
layer {
  name: "res3b1_branch2b_relu"
  type: "ReLU"
  bottom: "res3b1_branch2b"
  top: "res3b1_branch2b"
}
layer {
  name: "res3b1_branch2c"
  type: "Convolution"
  bottom: "res3b1_branch2b"
  top: "res3b1_branch2c"
  param {
    name: "res3b1_branch2c_0"
    lr_mult: 1
    decay_mult: 1
  }
  convolution_param {
    num_output: 512
    bias_term: false
    pad: 0
    kernel_size: 1
    stride: 1
  }
}
layer {
  name: "bn3b1_branch2c"
  type: "BatchNorm"
  bottom: "res3b1_branch2c"
  top: "res3b1_branch2c"
  param {
    name: "bn3b1_branch2c_0"
    lr_mult: 0
  }
  param {
    name: "bn3b1_branch2c_1"
    lr_mult: 0
  }
  param {
    name: "bn3b1_branch2c_2"
    lr_mult: 0
  }
  batch_norm_param {
    use_global_stats: true
  }
}
layer {
  name: "scale3b1_branch2c"
  type: "Scale"
  bottom: "res3b1_branch2c"
  top: "res3b1_branch2c"
  param {
    name: "scale3b1_branch2c_0"
    lr_mult: 0
  }
  param {
    name: "scale3b1_branch2c_1"
    lr_mult: 0
  }
  scale_param {
    bias_term: true
  }
}
layer {
  name: "res3b1"
  type: "Eltwise"
  bottom: "res3a"
  bottom: "res3b1_branch2c"
  top: "res3b1"
}
layer {
  name: "res3b1_relu"
  type: "ReLU"
  bottom: "res3b1"
  top: "res3b1"
}
layer {
  name: "res3b2_branch2a"
  type: "Convolution"
  bottom: "res3b1"
  top: "res3b2_branch2a"
  param {
    name: "res3b2_branch2a_0"
    lr_mult: 1
    decay_mult: 1
  }
  convolution_param {
    num_output: 128
    bias_term: false
    pad: 0
    kernel_size: 1
    stride: 1
  }
}
layer {
  name: "bn3b2_branch2a"
  type: "BatchNorm"
  bottom: "res3b2_branch2a"
  top: "res3b2_branch2a"
  param {
    name: "bn3b2_branch2a_0"
    lr_mult: 0
  }
  param {
    name: "bn3b2_branch2a_1"
    lr_mult: 0
  }
  param {
    name: "bn3b2_branch2a_2"
    lr_mult: 0
  }
  batch_norm_param {
    use_global_stats: true
  }
}
layer {
  name: "scale3b2_branch2a"
  type: "Scale"
  bottom: "res3b2_branch2a"
  top: "res3b2_branch2a"
  param {
    name: "scale3b2_branch2a_0"
    lr_mult: 0
  }
  param {
    name: "scale3b2_branch2a_1"
    lr_mult: 0
  }
  scale_param {
    bias_term: true
  }
}
layer {
  name: "res3b2_branch2a_relu"
  type: "ReLU"
  bottom: "res3b2_branch2a"
  top: "res3b2_branch2a"
}
layer {
  name: "res3b2_branch2b"
  type: "Convolution"
  bottom: "res3b2_branch2a"
  top: "res3b2_branch2b"
  param {
    name: "res3b2_branch2b_0"
    lr_mult: 1
    decay_mult: 1
  }
  convolution_param {
    num_output: 128
    bias_term: false
    pad: 1
    kernel_size: 3
    stride: 1
  }
}
layer {
  name: "bn3b2_branch2b"
  type: "BatchNorm"
  bottom: "res3b2_branch2b"
  top: "res3b2_branch2b"
  param {
    name: "bn3b2_branch2b_0"
    lr_mult: 0
  }
  param {
    name: "bn3b2_branch2b_1"
    lr_mult: 0
  }
  param {
    name: "bn3b2_branch2b_2"
    lr_mult: 0
  }
  batch_norm_param {
    use_global_stats: true
  }
}
layer {
  name: "scale3b2_branch2b"
  type: "Scale"
  bottom: "res3b2_branch2b"
  top: "res3b2_branch2b"
  param {
    name: "scale3b2_branch2b_0"
    lr_mult: 0
  }
  param {
    name: "scale3b2_branch2b_1"
    lr_mult: 0
  }
  scale_param {
    bias_term: true
  }
}
layer {
  name: "res3b2_branch2b_relu"
  type: "ReLU"
  bottom: "res3b2_branch2b"
  top: "res3b2_branch2b"
}
layer {
  name: "res3b2_branch2c"
  type: "Convolution"
  bottom: "res3b2_branch2b"
  top: "res3b2_branch2c"
  param {
    name: "res3b2_branch2c_0"
    lr_mult: 1
    decay_mult: 1
  }
  convolution_param {
    num_output: 512
    bias_term: false
    pad: 0
    kernel_size: 1
    stride: 1
  }
}
layer {
  name: "bn3b2_branch2c"
  type: "BatchNorm"
  bottom: "res3b2_branch2c"
  top: "res3b2_branch2c"
  param {
    name: "bn3b2_branch2c_0"
    lr_mult: 0
  }
  param {
    name: "bn3b2_branch2c_1"
    lr_mult: 0
  }
  param {
    name: "bn3b2_branch2c_2"
    lr_mult: 0
  }
  batch_norm_param {
    use_global_stats: true
  }
}
layer {
  name: "scale3b2_branch2c"
  type: "Scale"
  bottom: "res3b2_branch2c"
  top: "res3b2_branch2c"
  param {
    name: "scale3b2_branch2c_0"
    lr_mult: 0
  }
  param {
    name: "scale3b2_branch2c_1"
    lr_mult: 0
  }
  scale_param {
    bias_term: true
  }
}
layer {
  name: "res3b2"
  type: "Eltwise"
  bottom: "res3b1"
  bottom: "res3b2_branch2c"
  top: "res3b2"
}
layer {
  name: "res3b2_relu"
  type: "ReLU"
  bottom: "res3b2"
  top: "res3b2"
}
layer {
  name: "res3b3_branch2a"
  type: "Convolution"
  bottom: "res3b2"
  top: "res3b3_branch2a"
  param {
    name: "res3b3_branch2a_0"
    lr_mult: 1
    decay_mult: 1
  }
  convolution_param {
    num_output: 128
    bias_term: false
    pad: 0
    kernel_size: 1
    stride: 1
  }
}
layer {
  name: "bn3b3_branch2a"
  type: "BatchNorm"
  bottom: "res3b3_branch2a"
  top: "res3b3_branch2a"
  param {
    name: "bn3b3_branch2a_0"
    lr_mult: 0
  }
  param {
    name: "bn3b3_branch2a_1"
    lr_mult: 0
  }
  param {
    name: "bn3b3_branch2a_2"
    lr_mult: 0
  }
  batch_norm_param {
    use_global_stats: true
  }
}
layer {
  name: "scale3b3_branch2a"
  type: "Scale"
  bottom: "res3b3_branch2a"
  top: "res3b3_branch2a"
  param {
    name: "scale3b3_branch2a_0"
    lr_mult: 0
  }
  param {
    name: "scale3b3_branch2a_1"
    lr_mult: 0
  }
  scale_param {
    bias_term: true
  }
}
layer {
  name: "res3b3_branch2a_relu"
  type: "ReLU"
  bottom: "res3b3_branch2a"
  top: "res3b3_branch2a"
}
layer {
  name: "res3b3_branch2b"
  type: "Convolution"
  bottom: "res3b3_branch2a"
  top: "res3b3_branch2b"
  param {
    name: "res3b3_branch2b_0"
    lr_mult: 1
    decay_mult: 1
  }
  convolution_param {
    num_output: 128
    bias_term: false
    pad: 1
    kernel_size: 3
    stride: 1
  }
}
layer {
  name: "bn3b3_branch2b"
  type: "BatchNorm"
  bottom: "res3b3_branch2b"
  top: "res3b3_branch2b"
  param {
    name: "bn3b3_branch2b_0"
    lr_mult: 0
  }
  param {
    name: "bn3b3_branch2b_1"
    lr_mult: 0
  }
  param {
    name: "bn3b3_branch2b_2"
    lr_mult: 0
  }
  batch_norm_param {
    use_global_stats: true
  }
}
layer {
  name: "scale3b3_branch2b"
  type: "Scale"
  bottom: "res3b3_branch2b"
  top: "res3b3_branch2b"
  param {
    name: "scale3b3_branch2b_0"
    lr_mult: 0
  }
  param {
    name: "scale3b3_branch2b_1"
    lr_mult: 0
  }
  scale_param {
    bias_term: true
  }
}
layer {
  name: "res3b3_branch2b_relu"
  type: "ReLU"
  bottom: "res3b3_branch2b"
  top: "res3b3_branch2b"
}
layer {
  name: "res3b3_branch2c"
  type: "Convolution"
  bottom: "res3b3_branch2b"
  top: "res3b3_branch2c"
  param {
    name: "res3b3_branch2c_0"
    lr_mult: 1
    decay_mult: 1
  }
  convolution_param {
    num_output: 512
    bias_term: false
    pad: 0
    kernel_size: 1
    stride: 1
  }
}
layer {
  name: "bn3b3_branch2c"
  type: "BatchNorm"
  bottom: "res3b3_branch2c"
  top: "res3b3_branch2c"
  param {
    name: "bn3b3_branch2c_0"
    lr_mult: 0
  }
  param {
    name: "bn3b3_branch2c_1"
    lr_mult: 0
  }
  param {
    name: "bn3b3_branch2c_2"
    lr_mult: 0
  }
  batch_norm_param {
    use_global_stats: true
  }
}
layer {
  name: "scale3b3_branch2c"
  type: "Scale"
  bottom: "res3b3_branch2c"
  top: "res3b3_branch2c"
  param {
    name: "scale3b3_branch2c_0"
    lr_mult: 0
  }
  param {
    name: "scale3b3_branch2c_1"
    lr_mult: 0
  }
  scale_param {
    bias_term: true
  }
}
layer {
  name: "res3b3"
  type: "Eltwise"
  bottom: "res3b2"
  bottom: "res3b3_branch2c"
  top: "res3b3"
}
layer {
  name: "res3b3_relu"
  type: "ReLU"
  bottom: "res3b3"
  top: "res3b3"
}
layer {
  name: "res4a_branch1"
  type: "Convolution"
  bottom: "res3b3"
  top: "res4a_branch1"
  param {
    name: "res4a_branch1_0"
    lr_mult: 1
    decay_mult: 1
  }
  convolution_param {
    num_output: 1024
    bias_term: false
    pad: 0
    kernel_size: 1
    stride: 1
  }
}
layer {
  name: "bn4a_branch1"
  type: "BatchNorm"
  bottom: "res4a_branch1"
  top: "res4a_branch1"
  param {
    name: "bn4a_branch1_0"
    lr_mult: 0
  }
  param {
    name: "bn4a_branch1_1"
    lr_mult: 0
  }
  param {
    name: "bn4a_branch1_2"
    lr_mult: 0
  }
  batch_norm_param {
    use_global_stats: true
  }
}
layer {
  name: "scale4a_branch1"
  type: "Scale"
  bottom: "res4a_branch1"
  top: "res4a_branch1"
  param {
    name: "scale4a_branch1_0"
    lr_mult: 0
  }
  param {
    name: "scale4a_branch1_1"
    lr_mult: 0
  }
  scale_param {
    bias_term: true
  }
}
layer {
  name: "res4a_branch2a"
  type: "Convolution"
  bottom: "res3b3"
  top: "res4a_branch2a"
  param {
    name: "res4a_branch2a_0"
    lr_mult: 1
    decay_mult: 1
  }
  convolution_param {
    num_output: 256
    bias_term: false
    pad: 0
    kernel_size: 1
    stride: 1
  }
}
layer {
  name: "bn4a_branch2a"
  type: "BatchNorm"
  bottom: "res4a_branch2a"
  top: "res4a_branch2a"
  param {
    name: "bn4a_branch2a_0"
    lr_mult: 0
  }
  param {
    name: "bn4a_branch2a_1"
    lr_mult: 0
  }
  param {
    name: "bn4a_branch2a_2"
    lr_mult: 0
  }
  batch_norm_param {
    use_global_stats: true
  }
}
layer {
  name: "scale4a_branch2a"
  type: "Scale"
  bottom: "res4a_branch2a"
  top: "res4a_branch2a"
  param {
    name: "scale4a_branch2a_0"
    lr_mult: 0
  }
  param {
    name: "scale4a_branch2a_1"
    lr_mult: 0
  }
  scale_param {
    bias_term: true
  }
}
layer {
  name: "res4a_branch2a_relu"
  type: "ReLU"
  bottom: "res4a_branch2a"
  top: "res4a_branch2a"
}
layer {
  name: "res4a_branch2b"
  type: "Convolution"
  bottom: "res4a_branch2a"
  top: "res4a_branch2b"
  param {
    name: "res4a_branch2b_0"
    lr_mult: 1
    decay_mult: 1
  }
  convolution_param {
    num_output: 256
    bias_term: false
    pad: 2
    kernel_size: 3
    stride: 1
    dilation: 2
  }
}
layer {
  name: "bn4a_branch2b"
  type: "BatchNorm"
  bottom: "res4a_branch2b"
  top: "res4a_branch2b"
  param {
    name: "bn4a_branch2b_0"
    lr_mult: 0
  }
  param {
    name: "bn4a_branch2b_1"
    lr_mult: 0
  }
  param {
    name: "bn4a_branch2b_2"
    lr_mult: 0
  }
  batch_norm_param {
    use_global_stats: true
  }
}
layer {
  name: "scale4a_branch2b"
  type: "Scale"
  bottom: "res4a_branch2b"
  top: "res4a_branch2b"
  param {
    name: "scale4a_branch2b_0"
    lr_mult: 0
  }
  param {
    name: "scale4a_branch2b_1"
    lr_mult: 0
  }
  scale_param {
    bias_term: true
  }
}
layer {
  name: "res4a_branch2b_relu"
  type: "ReLU"
  bottom: "res4a_branch2b"
  top: "res4a_branch2b"
}
layer {
  name: "res4a_branch2c"
  type: "Convolution"
  bottom: "res4a_branch2b"
  top: "res4a_branch2c"
  param {
    name: "res4a_branch2c_0"
    lr_mult: 1
    decay_mult: 1
  }
  convolution_param {
    num_output: 1024
    bias_term: false
    pad: 0
    kernel_size: 1
    stride: 1
  }
}
layer {
  name: "bn4a_branch2c"
  type: "BatchNorm"
  bottom: "res4a_branch2c"
  top: "res4a_branch2c"
  param {
    name: "bn4a_branch2c_0"
    lr_mult: 0
  }
  param {
    name: "bn4a_branch2c_1"
    lr_mult: 0
  }
  param {
    name: "bn4a_branch2c_2"
    lr_mult: 0
  }
  batch_norm_param {
    use_global_stats: true
  }
}
layer {
  name: "scale4a_branch2c"
  type: "Scale"
  bottom: "res4a_branch2c"
  top: "res4a_branch2c"
  param {
    name: "scale4a_branch2c_0"
    lr_mult: 0
  }
  param {
    name: "scale4a_branch2c_1"
    lr_mult: 0
  }
  scale_param {
    bias_term: true
  }
}
layer {
  name: "res4a"
  type: "Eltwise"
  bottom: "res4a_branch1"
  bottom: "res4a_branch2c"
  top: "res4a"
}
layer {
  name: "res4a_relu"
  type: "ReLU"
  bottom: "res4a"
  top: "res4a"
}
layer {
  name: "res4b1_branch2a"
  type: "Convolution"
  bottom: "res4a"
  top: "res4b1_branch2a"
  param {
    name: "res4b1_branch2a_0"
    lr_mult: 1
    decay_mult: 1
  }
  convolution_param {
    num_output: 256
    bias_term: false
    pad: 0
    kernel_size: 1
    stride: 1
  }
}
layer {
  name: "bn4b1_branch2a"
  type: "BatchNorm"
  bottom: "res4b1_branch2a"
  top: "res4b1_branch2a"
  param {
    name: "bn4b1_branch2a_0"
    lr_mult: 0
  }
  param {
    name: "bn4b1_branch2a_1"
    lr_mult: 0
  }
  param {
    name: "bn4b1_branch2a_2"
    lr_mult: 0
  }
  batch_norm_param {
    use_global_stats: true
  }
}
layer {
  name: "scale4b1_branch2a"
  type: "Scale"
  bottom: "res4b1_branch2a"
  top: "res4b1_branch2a"
  param {
    name: "scale4b1_branch2a_0"
    lr_mult: 0
  }
  param {
    name: "scale4b1_branch2a_1"
    lr_mult: 0
  }
  scale_param {
    bias_term: true
  }
}
layer {
  name: "res4b1_branch2a_relu"
  type: "ReLU"
  bottom: "res4b1_branch2a"
  top: "res4b1_branch2a"
}
layer {
  name: "res4b1_branch2b"
  type: "Convolution"
  bottom: "res4b1_branch2a"
  top: "res4b1_branch2b"
  param {
    name: "res4b1_branch2b_0"
    lr_mult: 1
    decay_mult: 1
  }
  convolution_param {
    num_output: 256
    bias_term: false
    pad: 2
    kernel_size: 3
    stride: 1
  
I0706 14:05:45.798553 27901 layer_factory.hpp:77] Creating layer data
I0706 14:05:45.798615 27901 net.cpp:91] Creating Layer data
I0706 14:05:45.798629 27901 net.cpp:399] data -> data
I0706 14:05:45.798663 27901 net.cpp:399] data -> label
I0706 14:05:45.799209 27901 image_seg_data_layer.cpp:45] Opening file data/coco/trainval2014.txt
I0706 14:05:45.967955 27901 image_seg_data_layer.cpp:101] Shuffling data
I0706 14:05:45.969950 27901 image_seg_data_layer.cpp:106] A total of 72236 images.
I0706 14:05:46.003829 27901 image_seg_data_layer.cpp:179] output data size: 1,3,480,480
I0706 14:05:46.003852 27901 image_seg_data_layer.cpp:183] output label size: 1,1,480,480
I0706 14:05:46.012290 27901 net.cpp:141] Setting up data
I0706 14:05:46.012331 27901 net.cpp:148] Top shape: 1 3 480 480 (691200)
I0706 14:05:46.012338 27901 net.cpp:148] Top shape: 1 1 480 480 (230400)
I0706 14:05:46.012343 27901 net.cpp:156] Memory required for data: 3686400
I0706 14:05:46.012356 27901 layer_factory.hpp:77] Creating layer conv1
I0706 14:05:46.012382 27901 net.cpp:91] Creating Layer conv1
I0706 14:05:46.012395 27901 net.cpp:425] conv1 <- data
I0706 14:05:46.012414 27901 net.cpp:399] conv1 -> conv1
I0706 14:05:46.013484 27901 net.cpp:141] Setting up conv1
I0706 14:05:46.013504 27901 net.cpp:148] Top shape: 1 64 240 240 (3686400)
I0706 14:05:46.013509 27901 net.cpp:156] Memory required for data: 18432000
I0706 14:05:46.013520 27901 layer_factory.hpp:77] Creating layer bn_conv1
I0706 14:05:46.013545 27901 net.cpp:91] Creating Layer bn_conv1
I0706 14:05:46.013550 27901 net.cpp:425] bn_conv1 <- conv1
I0706 14:05:46.013559 27901 net.cpp:386] bn_conv1 -> conv1 (in-place)
I0706 14:05:46.014389 27901 net.cpp:141] Setting up bn_conv1
I0706 14:05:46.014406 27901 net.cpp:148] Top shape: 1 64 240 240 (3686400)
I0706 14:05:46.014411 27901 net.cpp:156] Memory required for data: 33177600
I0706 14:05:46.014425 27901 layer_factory.hpp:77] Creating layer scale_conv1
I0706 14:05:46.014444 27901 net.cpp:91] Creating Layer scale_conv1
I0706 14:05:46.014454 27901 net.cpp:425] scale_conv1 <- conv1
I0706 14:05:46.014462 27901 net.cpp:386] scale_conv1 -> conv1 (in-place)
I0706 14:05:46.014570 27901 layer_factory.hpp:77] Creating layer scale_conv1
I0706 14:05:46.015138 27901 net.cpp:141] Setting up scale_conv1
I0706 14:05:46.015154 27901 net.cpp:148] Top shape: 1 64 240 240 (3686400)
I0706 14:05:46.015159 27901 net.cpp:156] Memory required for data: 47923200
I0706 14:05:46.015172 27901 layer_factory.hpp:77] Creating layer conv1_relu
I0706 14:05:46.015182 27901 net.cpp:91] Creating Layer conv1_relu
I0706 14:05:46.015187 27901 net.cpp:425] conv1_relu <- conv1
I0706 14:05:46.015195 27901 net.cpp:386] conv1_relu -> conv1 (in-place)
I0706 14:05:46.015210 27901 net.cpp:141] Setting up conv1_relu
I0706 14:05:46.015221 27901 net.cpp:148] Top shape: 1 64 240 240 (3686400)
I0706 14:05:46.015226 27901 net.cpp:156] Memory required for data: 62668800
I0706 14:05:46.015230 27901 layer_factory.hpp:77] Creating layer pool1
I0706 14:05:46.015239 27901 net.cpp:91] Creating Layer pool1
I0706 14:05:46.015244 27901 net.cpp:425] pool1 <- conv1
I0706 14:05:46.015250 27901 net.cpp:399] pool1 -> pool1
I0706 14:05:46.015301 27901 net.cpp:141] Setting up pool1
I0706 14:05:46.015311 27901 net.cpp:148] Top shape: 1 64 120 120 (921600)
I0706 14:05:46.015316 27901 net.cpp:156] Memory required for data: 66355200
I0706 14:05:46.015321 27901 layer_factory.hpp:77] Creating layer pool1_pool1_0_split
I0706 14:05:46.015329 27901 net.cpp:91] Creating Layer pool1_pool1_0_split
I0706 14:05:46.015334 27901 net.cpp:425] pool1_pool1_0_split <- pool1
I0706 14:05:46.015341 27901 net.cpp:399] pool1_pool1_0_split -> pool1_pool1_0_split_0
I0706 14:05:46.015350 27901 net.cpp:399] pool1_pool1_0_split -> pool1_pool1_0_split_1
I0706 14:05:46.015391 27901 net.cpp:141] Setting up pool1_pool1_0_split
I0706 14:05:46.015401 27901 net.cpp:148] Top shape: 1 64 120 120 (921600)
I0706 14:05:46.015406 27901 net.cpp:148] Top shape: 1 64 120 120 (921600)
I0706 14:05:46.015410 27901 net.cpp:156] Memory required for data: 73728000
I0706 14:05:46.015414 27901 layer_factory.hpp:77] Creating layer res2a_branch1
I0706 14:05:46.015426 27901 net.cpp:91] Creating Layer res2a_branch1
I0706 14:05:46.015430 27901 net.cpp:425] res2a_branch1 <- pool1_pool1_0_split_0
I0706 14:05:46.015439 27901 net.cpp:399] res2a_branch1 -> res2a_branch1
I0706 14:05:46.015612 27901 net.cpp:141] Setting up res2a_branch1
I0706 14:05:46.015624 27901 net.cpp:148] Top shape: 1 256 120 120 (3686400)
I0706 14:05:46.015627 27901 net.cpp:156] Memory required for data: 88473600
I0706 14:05:46.015635 27901 layer_factory.hpp:77] Creating layer bn2a_branch1
I0706 14:05:46.015647 27901 net.cpp:91] Creating Layer bn2a_branch1
I0706 14:05:46.015653 27901 net.cpp:425] bn2a_branch1 <- res2a_branch1
I0706 14:05:46.015661 27901 net.cpp:386] bn2a_branch1 -> res2a_branch1 (in-place)
I0706 14:05:46.015835 27901 net.cpp:141] Setting up bn2a_branch1
I0706 14:05:46.015844 27901 net.cpp:148] Top shape: 1 256 120 120 (3686400)
I0706 14:05:46.015848 27901 net.cpp:156] Memory required for data: 103219200
I0706 14:05:46.015861 27901 layer_factory.hpp:77] Creating layer scale2a_branch1
I0706 14:05:46.015872 27901 net.cpp:91] Creating Layer scale2a_branch1
I0706 14:05:46.015877 27901 net.cpp:425] scale2a_branch1 <- res2a_branch1
I0706 14:05:46.015885 27901 net.cpp:386] scale2a_branch1 -> res2a_branch1 (in-place)
I0706 14:05:46.015928 27901 layer_factory.hpp:77] Creating layer scale2a_branch1
I0706 14:05:46.016059 27901 net.cpp:141] Setting up scale2a_branch1
I0706 14:05:46.016070 27901 net.cpp:148] Top shape: 1 256 120 120 (3686400)
I0706 14:05:46.016074 27901 net.cpp:156] Memory required for data: 117964800
I0706 14:05:46.016083 27901 layer_factory.hpp:77] Creating layer res2a_branch2a
I0706 14:05:46.016093 27901 net.cpp:91] Creating Layer res2a_branch2a
I0706 14:05:46.016098 27901 net.cpp:425] res2a_branch2a <- pool1_pool1_0_split_1
I0706 14:05:46.016106 27901 net.cpp:399] res2a_branch2a -> res2a_branch2a
I0706 14:05:46.016907 27901 net.cpp:141] Setting up res2a_branch2a
I0706 14:05:46.016924 27901 net.cpp:148] Top shape: 1 64 120 120 (921600)
I0706 14:05:46.016929 27901 net.cpp:156] Memory required for data: 121651200
I0706 14:05:46.016937 27901 layer_factory.hpp:77] Creating layer bn2a_branch2a
I0706 14:05:46.016960 27901 net.cpp:91] Creating Layer bn2a_branch2a
I0706 14:05:46.016966 27901 net.cpp:425] bn2a_branch2a <- res2a_branch2a
I0706 14:05:46.016974 27901 net.cpp:386] bn2a_branch2a -> res2a_branch2a (in-place)
I0706 14:05:46.017156 27901 net.cpp:141] Setting up bn2a_branch2a
I0706 14:05:46.017168 27901 net.cpp:148] Top shape: 1 64 120 120 (921600)
I0706 14:05:46.017173 27901 net.cpp:156] Memory required for data: 125337600
I0706 14:05:46.017182 27901 layer_factory.hpp:77] Creating layer scale2a_branch2a
I0706 14:05:46.017194 27901 net.cpp:91] Creating Layer scale2a_branch2a
I0706 14:05:46.017199 27901 net.cpp:425] scale2a_branch2a <- res2a_branch2a
I0706 14:05:46.017205 27901 net.cpp:386] scale2a_branch2a -> res2a_branch2a (in-place)
I0706 14:05:46.017244 27901 layer_factory.hpp:77] Creating layer scale2a_branch2a
I0706 14:05:46.017381 27901 net.cpp:141] Setting up scale2a_branch2a
I0706 14:05:46.017391 27901 net.cpp:148] Top shape: 1 64 120 120 (921600)
I0706 14:05:46.017396 27901 net.cpp:156] Memory required for data: 129024000
I0706 14:05:46.017408 27901 layer_factory.hpp:77] Creating layer res2a_branch2a_relu
I0706 14:05:46.017416 27901 net.cpp:91] Creating Layer res2a_branch2a_relu
I0706 14:05:46.017421 27901 net.cpp:425] res2a_branch2a_relu <- res2a_branch2a
I0706 14:05:46.017427 27901 net.cpp:386] res2a_branch2a_relu -> res2a_branch2a (in-place)
I0706 14:05:46.017436 27901 net.cpp:141] Setting up res2a_branch2a_relu
I0706 14:05:46.017441 27901 net.cpp:148] Top shape: 1 64 120 120 (921600)
I0706 14:05:46.017446 27901 net.cpp:156] Memory required for data: 132710400
I0706 14:05:46.017449 27901 layer_factory.hpp:77] Creating layer res2a_branch2b
I0706 14:05:46.017460 27901 net.cpp:91] Creating Layer res2a_branch2b
I0706 14:05:46.017464 27901 net.cpp:425] res2a_branch2b <- res2a_branch2a
I0706 14:05:46.017472 27901 net.cpp:399] res2a_branch2b -> res2a_branch2b
I0706 14:05:46.017655 27901 net.cpp:141] Setting up res2a_branch2b
I0706 14:05:46.017668 27901 net.cpp:148] Top shape: 1 64 120 120 (921600)
I0706 14:05:46.017671 27901 net.cpp:156] Memory required for data: 136396800
I0706 14:05:46.017678 27901 layer_factory.hpp:77] Creating layer bn2a_branch2b
I0706 14:05:46.017688 27901 net.cpp:91] Creating Layer bn2a_branch2b
I0706 14:05:46.017691 27901 net.cpp:425] bn2a_branch2b <- res2a_branch2b
I0706 14:05:46.017699 27901 net.cpp:386] bn2a_branch2b -> res2a_branch2b (in-place)
I0706 14:05:46.017877 27901 net.cpp:141] Setting up bn2a_branch2b
I0706 14:05:46.017889 27901 net.cpp:148] Top shape: 1 64 120 120 (921600)
I0706 14:05:46.017892 27901 net.cpp:156] Memory required for data: 140083200
I0706 14:05:46.017901 27901 layer_factory.hpp:77] Creating layer scale2a_branch2b
I0706 14:05:46.017911 27901 net.cpp:91] Creating Layer scale2a_branch2b
I0706 14:05:46.017916 27901 net.cpp:425] scale2a_branch2b <- res2a_branch2b
I0706 14:05:46.017925 27901 net.cpp:386] scale2a_branch2b -> res2a_branch2b (in-place)
I0706 14:05:46.017962 27901 layer_factory.hpp:77] Creating layer scale2a_branch2b
I0706 14:05:46.018098 27901 net.cpp:141] Setting up scale2a_branch2b
I0706 14:05:46.018110 27901 net.cpp:148] Top shape: 1 64 120 120 (921600)
I0706 14:05:46.018113 27901 net.cpp:156] Memory required for data: 143769600
I0706 14:05:46.018121 27901 layer_factory.hpp:77] Creating layer res2a_branch2b_relu
I0706 14:05:46.018129 27901 net.cpp:91] Creating Layer res2a_branch2b_relu
I0706 14:05:46.018133 27901 net.cpp:425] res2a_branch2b_relu <- res2a_branch2b
I0706 14:05:46.018141 27901 net.cpp:386] res2a_branch2b_relu -> res2a_branch2b (in-place)
I0706 14:05:46.018148 27901 net.cpp:141] Setting up res2a_branch2b_relu
I0706 14:05:46.018153 27901 net.cpp:148] Top shape: 1 64 120 120 (921600)
I0706 14:05:46.018157 27901 net.cpp:156] Memory required for data: 147456000
I0706 14:05:46.018162 27901 layer_factory.hpp:77] Creating layer res2a_branch2c
I0706 14:05:46.018172 27901 net.cpp:91] Creating Layer res2a_branch2c
I0706 14:05:46.018177 27901 net.cpp:425] res2a_branch2c <- res2a_branch2b
I0706 14:05:46.018184 27901 net.cpp:399] res2a_branch2c -> res2a_branch2c
I0706 14:05:46.018364 27901 net.cpp:141] Setting up res2a_branch2c
I0706 14:05:46.018375 27901 net.cpp:148] Top shape: 1 256 120 120 (3686400)
I0706 14:05:46.018379 27901 net.cpp:156] Memory required for data: 162201600
I0706 14:05:46.018386 27901 layer_factory.hpp:77] Creating layer bn2a_branch2c
I0706 14:05:46.018395 27901 net.cpp:91] Creating Layer bn2a_branch2c
I0706 14:05:46.018399 27901 net.cpp:425] bn2a_branch2c <- res2a_branch2c
I0706 14:05:46.018409 27901 net.cpp:386] bn2a_branch2c -> res2a_branch2c (in-place)
I0706 14:05:46.018573 27901 net.cpp:141] Setting up bn2a_branch2c
I0706 14:05:46.018582 27901 net.cpp:148] Top shape: 1 256 120 120 (3686400)
I0706 14:05:46.018586 27901 net.cpp:156] Memory required for data: 176947200
I0706 14:05:46.018595 27901 layer_factory.hpp:77] Creating layer scale2a_branch2c
I0706 14:05:46.018605 27901 net.cpp:91] Creating Layer scale2a_branch2c
I0706 14:05:46.018610 27901 net.cpp:425] scale2a_branch2c <- res2a_branch2c
I0706 14:05:46.018617 27901 net.cpp:386] scale2a_branch2c -> res2a_branch2c (in-place)
I0706 14:05:46.018656 27901 layer_factory.hpp:77] Creating layer scale2a_branch2c
I0706 14:05:46.018775 27901 net.cpp:141] Setting up scale2a_branch2c
I0706 14:05:46.018786 27901 net.cpp:148] Top shape: 1 256 120 120 (3686400)
I0706 14:05:46.018791 27901 net.cpp:156] Memory required for data: 191692800
I0706 14:05:46.018800 27901 layer_factory.hpp:77] Creating layer res2a
I0706 14:05:46.018813 27901 net.cpp:91] Creating Layer res2a
I0706 14:05:46.018818 27901 net.cpp:425] res2a <- res2a_branch1
I0706 14:05:46.018823 27901 net.cpp:425] res2a <- res2a_branch2c
I0706 14:05:46.018831 27901 net.cpp:399] res2a -> res2a
I0706 14:05:46.018859 27901 net.cpp:141] Setting up res2a
I0706 14:05:46.018867 27901 net.cpp:148] Top shape: 1 256 120 120 (3686400)
I0706 14:05:46.018872 27901 net.cpp:156] Memory required for data: 206438400
I0706 14:05:46.018875 27901 layer_factory.hpp:77] Creating layer res2a_relu
I0706 14:05:46.018883 27901 net.cpp:91] Creating Layer res2a_relu
I0706 14:05:46.018887 27901 net.cpp:425] res2a_relu <- res2a
I0706 14:05:46.018894 27901 net.cpp:386] res2a_relu -> res2a (in-place)
I0706 14:05:46.018901 27901 net.cpp:141] Setting up res2a_relu
I0706 14:05:46.018908 27901 net.cpp:148] Top shape: 1 256 120 120 (3686400)
I0706 14:05:46.018911 27901 net.cpp:156] Memory required for data: 221184000
I0706 14:05:46.018915 27901 layer_factory.hpp:77] Creating layer res2a_res2a_relu_0_split
I0706 14:05:46.018923 27901 net.cpp:91] Creating Layer res2a_res2a_relu_0_split
I0706 14:05:46.018926 27901 net.cpp:425] res2a_res2a_relu_0_split <- res2a
I0706 14:05:46.018934 27901 net.cpp:399] res2a_res2a_relu_0_split -> res2a_res2a_relu_0_split_0
I0706 14:05:46.018940 27901 net.cpp:399] res2a_res2a_relu_0_split -> res2a_res2a_relu_0_split_1
I0706 14:05:46.018975 27901 net.cpp:141] Setting up res2a_res2a_relu_0_split
I0706 14:05:46.018982 27901 net.cpp:148] Top shape: 1 256 120 120 (3686400)
I0706 14:05:46.018988 27901 net.cpp:148] Top shape: 1 256 120 120 (3686400)
I0706 14:05:46.018991 27901 net.cpp:156] Memory required for data: 250675200
I0706 14:05:46.018996 27901 layer_factory.hpp:77] Creating layer res2b_branch2a
I0706 14:05:46.019007 27901 net.cpp:91] Creating Layer res2b_branch2a
I0706 14:05:46.019012 27901 net.cpp:425] res2b_branch2a <- res2a_res2a_relu_0_split_0
I0706 14:05:46.019019 27901 net.cpp:399] res2b_branch2a -> res2b_branch2a
I0706 14:05:46.019187 27901 net.cpp:141] Setting up res2b_branch2a
I0706 14:05:46.019197 27901 net.cpp:148] Top shape: 1 64 120 120 (921600)
I0706 14:05:46.019201 27901 net.cpp:156] Memory required for data: 254361600
I0706 14:05:46.019207 27901 layer_factory.hpp:77] Creating layer bn2b_branch2a
I0706 14:05:46.019217 27901 net.cpp:91] Creating Layer bn2b_branch2a
I0706 14:05:46.019222 27901 net.cpp:425] bn2b_branch2a <- res2b_branch2a
I0706 14:05:46.019228 27901 net.cpp:386] bn2b_branch2a -> res2b_branch2a (in-place)
I0706 14:05:46.019412 27901 net.cpp:141] Setting up bn2b_branch2a
I0706 14:05:46.019430 27901 net.cpp:148] Top shape: 1 64 120 120 (921600)
I0706 14:05:46.019435 27901 net.cpp:156] Memory required for data: 258048000
I0706 14:05:46.019449 27901 layer_factory.hpp:77] Creating layer scale2b_branch2a
I0706 14:05:46.019461 27901 net.cpp:91] Creating Layer scale2b_branch2a
I0706 14:05:46.019465 27901 net.cpp:425] scale2b_branch2a <- res2b_branch2a
I0706 14:05:46.019474 27901 net.cpp:386] scale2b_branch2a -> res2b_branch2a (in-place)
I0706 14:05:46.019515 27901 layer_factory.hpp:77] Creating layer scale2b_branch2a
I0706 14:05:46.020233 27901 net.cpp:141] Setting up scale2b_branch2a
I0706 14:05:46.020251 27901 net.cpp:148] Top shape: 1 64 120 120 (921600)
I0706 14:05:46.020256 27901 net.cpp:156] Memory required for data: 261734400
I0706 14:05:46.020264 27901 layer_factory.hpp:77] Creating layer res2b_branch2a_relu
I0706 14:05:46.020274 27901 net.cpp:91] Creating Layer res2b_branch2a_relu
I0706 14:05:46.020278 27901 net.cpp:425] res2b_branch2a_relu <- res2b_branch2a
I0706 14:05:46.020285 27901 net.cpp:386] res2b_branch2a_relu -> res2b_branch2a (in-place)
I0706 14:05:46.020294 27901 net.cpp:141] Setting up res2b_branch2a_relu
I0706 14:05:46.020300 27901 net.cpp:148] Top shape: 1 64 120 120 (921600)
I0706 14:05:46.020304 27901 net.cpp:156] Memory required for data: 265420800
I0706 14:05:46.020308 27901 layer_factory.hpp:77] Creating layer res2b_branch2b
I0706 14:05:46.020319 27901 net.cpp:91] Creating Layer res2b_branch2b
I0706 14:05:46.020324 27901 net.cpp:425] res2b_branch2b <- res2b_branch2a
I0706 14:05:46.020331 27901 net.cpp:399] res2b_branch2b -> res2b_branch2b
I0706 14:05:46.020539 27901 net.cpp:141] Setting up res2b_branch2b
I0706 14:05:46.020552 27901 net.cpp:148] Top shape: 1 64 120 120 (921600)
I0706 14:05:46.020556 27901 net.cpp:156] Memory required for data: 269107200
I0706 14:05:46.020563 27901 layer_factory.hpp:77] Creating layer bn2b_branch2b
I0706 14:05:46.020573 27901 net.cpp:91] Creating Layer bn2b_branch2b
I0706 14:05:46.020578 27901 net.cpp:425] bn2b_branch2b <- res2b_branch2b
I0706 14:05:46.020586 27901 net.cpp:386] bn2b_branch2b -> res2b_branch2b (in-place)
I0706 14:05:46.020768 27901 net.cpp:141] Setting up bn2b_branch2b
I0706 14:05:46.020778 27901 net.cpp:148] Top shape: 1 64 120 120 (921600)
I0706 14:05:46.020782 27901 net.cpp:156] Memory required for data: 272793600
I0706 14:05:46.020792 27901 layer_factory.hpp:77] Creating layer scale2b_branch2b
I0706 14:05:46.020802 27901 net.cpp:91] Creating Layer scale2b_branch2b
I0706 14:05:46.020807 27901 net.cpp:425] scale2b_branch2b <- res2b_branch2b
I0706 14:05:46.020815 27901 net.cpp:386] scale2b_branch2b -> res2b_branch2b (in-place)
I0706 14:05:46.020855 27901 layer_factory.hpp:77] Creating layer scale2b_branch2b
I0706 14:05:46.020982 27901 net.cpp:141] Setting up scale2b_branch2b
I0706 14:05:46.020993 27901 net.cpp:148] Top shape: 1 64 120 120 (921600)
I0706 14:05:46.020998 27901 net.cpp:156] Memory required for data: 276480000
I0706 14:05:46.021006 27901 layer_factory.hpp:77] Creating layer res2b_branch2b_relu
I0706 14:05:46.021014 27901 net.cpp:91] Creating Layer res2b_branch2b_relu
I0706 14:05:46.021018 27901 net.cpp:425] res2b_branch2b_relu <- res2b_branch2b
I0706 14:05:46.021025 27901 net.cpp:386] res2b_branch2b_relu -> res2b_branch2b (in-place)
I0706 14:05:46.021034 27901 net.cpp:141] Setting up res2b_branch2b_relu
I0706 14:05:46.021039 27901 net.cpp:148] Top shape: 1 64 120 120 (921600)
I0706 14:05:46.021042 27901 net.cpp:156] Memory required for data: 280166400
I0706 14:05:46.021046 27901 layer_factory.hpp:77] Creating layer res2b_branch2c
I0706 14:05:46.021060 27901 net.cpp:91] Creating Layer res2b_branch2c
I0706 14:05:46.021064 27901 net.cpp:425] res2b_branch2c <- res2b_branch2b
I0706 14:05:46.021072 27901 net.cpp:399] res2b_branch2c -> res2b_branch2c
I0706 14:05:46.021242 27901 net.cpp:141] Setting up res2b_branch2c
I0706 14:05:46.021253 27901 net.cpp:148] Top shape: 1 256 120 120 (3686400)
I0706 14:05:46.021257 27901 net.cpp:156] Memory required for data: 294912000
I0706 14:05:46.021265 27901 layer_factory.hpp:77] Creating layer bn2b_branch2c
I0706 14:05:46.021286 27901 net.cpp:91] Creating Layer bn2b_branch2c
I0706 14:05:46.021291 27901 net.cpp:425] bn2b_branch2c <- res2b_branch2c
I0706 14:05:46.021298 27901 net.cpp:386] bn2b_branch2c -> res2b_branch2c (in-place)
I0706 14:05:46.021468 27901 net.cpp:141] Setting up bn2b_branch2c
I0706 14:05:46.021478 27901 net.cpp:148] Top shape: 1 256 120 120 (3686400)
I0706 14:05:46.021482 27901 net.cpp:156] Memory required for data: 309657600
I0706 14:05:46.021492 27901 layer_factory.hpp:77] Creating layer scale2b_branch2c
I0706 14:05:46.021502 27901 net.cpp:91] Creating Layer scale2b_branch2c
I0706 14:05:46.021505 27901 net.cpp:425] scale2b_branch2c <- res2b_branch2c
I0706 14:05:46.021514 27901 net.cpp:386] scale2b_branch2c -> res2b_branch2c (in-place)
I0706 14:05:46.021553 27901 layer_factory.hpp:77] Creating layer scale2b_branch2c
I0706 14:05:46.021677 27901 net.cpp:141] Setting up scale2b_branch2c
I0706 14:05:46.021688 27901 net.cpp:148] Top shape: 1 256 120 120 (3686400)
I0706 14:05:46.021692 27901 net.cpp:156] Memory required for data: 324403200
I0706 14:05:46.021700 27901 layer_factory.hpp:77] Creating layer res2b
I0706 14:05:46.021708 27901 net.cpp:91] Creating Layer res2b
I0706 14:05:46.021713 27901 net.cpp:425] res2b <- res2a_res2a_relu_0_split_1
I0706 14:05:46.021719 27901 net.cpp:425] res2b <- res2b_branch2c
I0706 14:05:46.021728 27901 net.cpp:399] res2b -> res2b
I0706 14:05:46.021754 27901 net.cpp:141] Setting up res2b
I0706 14:05:46.021762 27901 net.cpp:148] Top shape: 1 256 120 120 (3686400)
I0706 14:05:46.021767 27901 net.cpp:156] Memory required for data: 339148800
I0706 14:05:46.021771 27901 layer_factory.hpp:77] Creating layer res2b_relu
I0706 14:05:46.021778 27901 net.cpp:91] Creating Layer res2b_relu
I0706 14:05:46.021782 27901 net.cpp:425] res2b_relu <- res2b
I0706 14:05:46.021788 27901 net.cpp:386] res2b_relu -> res2b (in-place)
I0706 14:05:46.021795 27901 net.cpp:141] Setting up res2b_relu
I0706 14:05:46.021801 27901 net.cpp:148] Top shape: 1 256 120 120 (3686400)
I0706 14:05:46.021806 27901 net.cpp:156] Memory required for data: 353894400
I0706 14:05:46.021809 27901 layer_factory.hpp:77] Creating layer res2b_res2b_relu_0_split
I0706 14:05:46.021816 27901 net.cpp:91] Creating Layer res2b_res2b_relu_0_split
I0706 14:05:46.021821 27901 net.cpp:425] res2b_res2b_relu_0_split <- res2b
I0706 14:05:46.021826 27901 net.cpp:399] res2b_res2b_relu_0_split -> res2b_res2b_relu_0_split_0
I0706 14:05:46.021834 27901 net.cpp:399] res2b_res2b_relu_0_split -> res2b_res2b_relu_0_split_1
I0706 14:05:46.021868 27901 net.cpp:141] Setting up res2b_res2b_relu_0_split
I0706 14:05:46.021875 27901 net.cpp:148] Top shape: 1 256 120 120 (3686400)
I0706 14:05:46.021880 27901 net.cpp:148] Top shape: 1 256 120 120 (3686400)
I0706 14:05:46.021884 27901 net.cpp:156] Memory required for data: 383385600
I0706 14:05:46.021888 27901 layer_factory.hpp:77] Creating layer res2c_branch2a
I0706 14:05:46.021899 27901 net.cpp:91] Creating Layer res2c_branch2a
I0706 14:05:46.021903 27901 net.cpp:425] res2c_branch2a <- res2b_res2b_relu_0_split_0
I0706 14:05:46.021911 27901 net.cpp:399] res2c_branch2a -> res2c_branch2a
I0706 14:05:46.022074 27901 net.cpp:141] Setting up res2c_branch2a
I0706 14:05:46.022085 27901 net.cpp:148] Top shape: 1 64 120 120 (921600)
I0706 14:05:46.022089 27901 net.cpp:156] Memory required for data: 387072000
I0706 14:05:46.022096 27901 layer_factory.hpp:77] Creating layer bn2c_branch2a
I0706 14:05:46.022106 27901 net.cpp:91] Creating Layer bn2c_branch2a
I0706 14:05:46.022110 27901 net.cpp:425] bn2c_branch2a <- res2c_branch2a
I0706 14:05:46.022119 27901 net.cpp:386] bn2c_branch2a -> res2c_branch2a (in-place)
I0706 14:05:46.022294 27901 net.cpp:141] Setting up bn2c_branch2a
I0706 14:05:46.022303 27901 net.cpp:148] Top shape: 1 64 120 120 (921600)
I0706 14:05:46.022307 27901 net.cpp:156] Memory required for data: 390758400
I0706 14:05:46.022317 27901 layer_factory.hpp:77] Creating layer scale2c_branch2a
I0706 14:05:46.022325 27901 net.cpp:91] Creating Layer scale2c_branch2a
I0706 14:05:46.022330 27901 net.cpp:425] scale2c_branch2a <- res2c_branch2a
I0706 14:05:46.022348 27901 net.cpp:386] scale2c_branch2a -> res2c_branch2a (in-place)
I0706 14:05:46.022389 27901 layer_factory.hpp:77] Creating layer scale2c_branch2a
I0706 14:05:46.022522 27901 net.cpp:141] Setting up scale2c_branch2a
I0706 14:05:46.022533 27901 net.cpp:148] Top shape: 1 64 120 120 (921600)
I0706 14:05:46.022537 27901 net.cpp:156] Memory required for data: 394444800
I0706 14:05:46.022545 27901 layer_factory.hpp:77] Creating layer res2c_branch2a_relu
I0706 14:05:46.022553 27901 net.cpp:91] Creating Layer res2c_branch2a_relu
I0706 14:05:46.022558 27901 net.cpp:425] res2c_branch2a_relu <- res2c_branch2a
I0706 14:05:46.022564 27901 net.cpp:386] res2c_branch2a_relu -> res2c_branch2a (in-place)
I0706 14:05:46.022572 27901 net.cpp:141] Setting up res2c_branch2a_relu
I0706 14:05:46.022578 27901 net.cpp:148] Top shape: 1 64 120 120 (921600)
I0706 14:05:46.022581 27901 net.cpp:156] Memory required for data: 398131200
I0706 14:05:46.022585 27901 layer_factory.hpp:77] Creating layer res2c_branch2b
I0706 14:05:46.022596 27901 net.cpp:91] Creating Layer res2c_branch2b
I0706 14:05:46.022600 27901 net.cpp:425] res2c_branch2b <- res2c_branch2a
I0706 14:05:46.022608 27901 net.cpp:399] res2c_branch2b -> res2c_branch2b
I0706 14:05:46.023393 27901 net.cpp:141] Setting up res2c_branch2b
I0706 14:05:46.023409 27901 net.cpp:148] Top shape: 1 64 120 120 (921600)
I0706 14:05:46.023414 27901 net.cpp:156] Memory required for data: 401817600
I0706 14:05:46.023422 27901 layer_factory.hpp:77] Creating layer bn2c_branch2b
I0706 14:05:46.023432 27901 net.cpp:91] Creating Layer bn2c_branch2b
I0706 14:05:46.023437 27901 net.cpp:425] bn2c_branch2b <- res2c_branch2b
I0706 14:05:46.023444 27901 net.cpp:386] bn2c_branch2b -> res2c_branch2b (in-place)
I0706 14:05:46.023627 27901 net.cpp:141] Setting up bn2c_branch2b
I0706 14:05:46.023638 27901 net.cpp:148] Top shape: 1 64 120 120 (921600)
I0706 14:05:46.023643 27901 net.cpp:156] Memory required for data: 405504000
I0706 14:05:46.023653 27901 layer_factory.hpp:77] Creating layer scale2c_branch2b
I0706 14:05:46.023661 27901 net.cpp:91] Creating Layer scale2c_branch2b
I0706 14:05:46.023666 27901 net.cpp:425] scale2c_branch2b <- res2c_branch2b
I0706 14:05:46.023674 27901 net.cpp:386] scale2c_branch2b -> res2c_branch2b (in-place)
I0706 14:05:46.023715 27901 layer_factory.hpp:77] Creating layer scale2c_branch2b
I0706 14:05:46.023854 27901 net.cpp:141] Setting up scale2c_branch2b
I0706 14:05:46.023865 27901 net.cpp:148] Top shape: 1 64 120 120 (921600)
I0706 14:05:46.023870 27901 net.cpp:156] Memory required for data: 409190400
I0706 14:05:46.023879 27901 layer_factory.hpp:77] Creating layer res2c_branch2b_relu
I0706 14:05:46.023886 27901 net.cpp:91] Creating Layer res2c_branch2b_relu
I0706 14:05:46.023890 27901 net.cpp:425] res2c_branch2b_relu <- res2c_branch2b
I0706 14:05:46.023897 27901 net.cpp:386] res2c_branch2b_relu -> res2c_branch2b (in-place)
I0706 14:05:46.023905 27901 net.cpp:141] Setting up res2c_branch2b_relu
I0706 14:05:46.023910 27901 net.cpp:148] Top shape: 1 64 120 120 (921600)
I0706 14:05:46.023915 27901 net.cpp:156] Memory required for data: 412876800
I0706 14:05:46.023918 27901 layer_factory.hpp:77] Creating layer res2c_branch2c
I0706 14:05:46.023928 27901 net.cpp:91] Creating Layer res2c_branch2c
I0706 14:05:46.023932 27901 net.cpp:425] res2c_branch2c <- res2c_branch2b
I0706 14:05:46.023941 27901 net.cpp:399] res2c_branch2c -> res2c_branch2c
I0706 14:05:46.024118 27901 net.cpp:141] Setting up res2c_branch2c
I0706 14:05:46.024129 27901 net.cpp:148] Top shape: 1 256 120 120 (3686400)
I0706 14:05:46.024133 27901 net.cpp:156] Memory required for data: 427622400
I0706 14:05:46.024139 27901 layer_factory.hpp:77] Creating layer bn2c_branch2c
I0706 14:05:46.024150 27901 net.cpp:91] Creating Layer bn2c_branch2c
I0706 14:05:46.024154 27901 net.cpp:425] bn2c_branch2c <- res2c_branch2c
I0706 14:05:46.024163 27901 net.cpp:386] bn2c_branch2c -> res2c_branch2c (in-place)
I0706 14:05:46.024332 27901 net.cpp:141] Setting up bn2c_branch2c
I0706 14:05:46.024351 27901 net.cpp:148] Top shape: 1 256 120 120 (3686400)
I0706 14:05:46.024356 27901 net.cpp:156] Memory required for data: 442368000
I0706 14:05:46.024366 27901 layer_factory.hpp:77] Creating layer scale2c_branch2c
I0706 14:05:46.024376 27901 net.cpp:91] Creating Layer scale2c_branch2c
I0706 14:05:46.024380 27901 net.cpp:425] scale2c_branch2c <- res2c_branch2c
I0706 14:05:46.024389 27901 net.cpp:386] scale2c_branch2c -> res2c_branch2c (in-place)
I0706 14:05:46.024430 27901 layer_factory.hpp:77] Creating layer scale2c_branch2c
I0706 14:05:46.025161 27901 net.cpp:141] Setting up scale2c_branch2c
I0706 14:05:46.025177 27901 net.cpp:148] Top shape: 1 256 120 120 (3686400)
I0706 14:05:46.025182 27901 net.cpp:156] Memory required for data: 457113600
I0706 14:05:46.025202 27901 layer_factory.hpp:77] Creating layer res2c
I0706 14:05:46.025212 27901 net.cpp:91] Creating Layer res2c
I0706 14:05:46.025216 27901 net.cpp:425] res2c <- res2b_res2b_relu_0_split_1
I0706 14:05:46.025223 27901 net.cpp:425] res2c <- res2c_branch2c
I0706 14:05:46.025228 27901 net.cpp:399] res2c -> res2c
I0706 14:05:46.025256 27901 net.cpp:141] Setting up res2c
I0706 14:05:46.025265 27901 net.cpp:148] Top shape: 1 256 120 120 (3686400)
I0706 14:05:46.025270 27901 net.cpp:156] Memory required for data: 471859200
I0706 14:05:46.025274 27901 layer_factory.hpp:77] Creating layer res2c_relu
I0706 14:05:46.025284 27901 net.cpp:91] Creating Layer res2c_relu
I0706 14:05:46.025287 27901 net.cpp:425] res2c_relu <- res2c
I0706 14:05:46.025295 27901 net.cpp:386] res2c_relu -> res2c (in-place)
I0706 14:05:46.025302 27901 net.cpp:141] Setting up res2c_relu
I0706 14:05:46.025307 27901 net.cpp:148] Top shape: 1 256 120 120 (3686400)
I0706 14:05:46.025311 27901 net.cpp:156] Memory required for data: 486604800
I0706 14:05:46.025315 27901 layer_factory.hpp:77] Creating layer res2c_res2c_relu_0_split
I0706 14:05:46.025323 27901 net.cpp:91] Creating Layer res2c_res2c_relu_0_split
I0706 14:05:46.025327 27901 net.cpp:425] res2c_res2c_relu_0_split <- res2c
I0706 14:05:46.025334 27901 net.cpp:399] res2c_res2c_relu_0_split -> res2c_res2c_relu_0_split_0
I0706 14:05:46.025342 27901 net.cpp:399] res2c_res2c_relu_0_split -> res2c_res2c_relu_0_split_1
I0706 14:05:46.025377 27901 net.cpp:141] Setting up res2c_res2c_relu_0_split
I0706 14:05:46.025385 27901 net.cpp:148] Top shape: 1 256 120 120 (3686400)
I0706 14:05:46.025390 27901 net.cpp:148] Top shape: 1 256 120 120 (3686400)
I0706 14:05:46.025394 27901 net.cpp:156] Memory required for data: 516096000
I0706 14:05:46.025399 27901 layer_factory.hpp:77] Creating layer res3a_branch1
I0706 14:05:46.025409 27901 net.cpp:91] Creating Layer res3a_branch1
I0706 14:05:46.025414 27901 net.cpp:425] res3a_branch1 <- res2c_res2c_relu_0_split_0
I0706 14:05:46.025421 27901 net.cpp:399] res3a_branch1 -> res3a_branch1
I0706 14:05:46.026257 27901 net.cpp:141] Setting up res3a_branch1
I0706 14:05:46.026273 27901 net.cpp:148] Top shape: 1 512 60 60 (1843200)
I0706 14:05:46.026276 27901 net.cpp:156] Memory required for data: 523468800
I0706 14:05:46.026284 27901 layer_factory.hpp:77] Creating layer bn3a_branch1
I0706 14:05:46.026294 27901 net.cpp:91] Creating Layer bn3a_branch1
I0706 14:05:46.026299 27901 net.cpp:425] bn3a_branch1 <- res3a_branch1
I0706 14:05:46.026306 27901 net.cpp:386] bn3a_branch1 -> res3a_branch1 (in-place)
I0706 14:05:46.027082 27901 net.cpp:141] Setting up bn3a_branch1
I0706 14:05:46.027098 27901 net.cpp:148] Top shape: 1 512 60 60 (1843200)
I0706 14:05:46.027102 27901 net.cpp:156] Memory required for data: 530841600
I0706 14:05:46.027113 27901 layer_factory.hpp:77] Creating layer scale3a_branch1
I0706 14:05:46.027123 27901 net.cpp:91] Creating Layer scale3a_branch1
I0706 14:05:46.027127 27901 net.cpp:425] scale3a_branch1 <- res3a_branch1
I0706 14:05:46.027140 27901 net.cpp:386] scale3a_branch1 -> res3a_branch1 (in-place)
I0706 14:05:46.027180 27901 layer_factory.hpp:77] Creating layer scale3a_branch1
I0706 14:05:46.027310 27901 net.cpp:141] Setting up scale3a_branch1
I0706 14:05:46.027321 27901 net.cpp:148] Top shape: 1 512 60 60 (1843200)
I0706 14:05:46.027335 27901 net.cpp:156] Memory required for data: 538214400
I0706 14:05:46.027344 27901 layer_factory.hpp:77] Creating layer res3a_branch2a
I0706 14:05:46.027357 27901 net.cpp:91] Creating Layer res3a_branch2a
I0706 14:05:46.027362 27901 net.cpp:425] res3a_branch2a <- res2c_res2c_relu_0_split_1
I0706 14:05:46.027369 27901 net.cpp:399] res3a_branch2a -> res3a_branch2a
I0706 14:05:46.027555 27901 net.cpp:141] Setting up res3a_branch2a
I0706 14:05:46.027567 27901 net.cpp:148] Top shape: 1 128 60 60 (460800)
I0706 14:05:46.027571 27901 net.cpp:156] Memory required for data: 540057600
I0706 14:05:46.027577 27901 layer_factory.hpp:77] Creating layer bn3a_branch2a
I0706 14:05:46.027588 27901 net.cpp:91] Creating Layer bn3a_branch2a
I0706 14:05:46.027593 27901 net.cpp:425] bn3a_branch2a <- res3a_branch2a
I0706 14:05:46.027602 27901 net.cpp:386] bn3a_branch2a -> res3a_branch2a (in-place)
I0706 14:05:46.027781 27901 net.cpp:141] Setting up bn3a_branch2a
I0706 14:05:46.027791 27901 net.cpp:148] Top shape: 1 128 60 60 (460800)
I0706 14:05:46.027794 27901 net.cpp:156] Memory required for data: 541900800
I0706 14:05:46.027803 27901 layer_factory.hpp:77] Creating layer scale3a_branch2a
I0706 14:05:46.027812 27901 net.cpp:91] Creating Layer scale3a_branch2a
I0706 14:05:46.027817 27901 net.cpp:425] scale3a_branch2a <- res3a_branch2a
I0706 14:05:46.027823 27901 net.cpp:386] scale3a_branch2a -> res3a_branch2a (in-place)
I0706 14:05:46.027863 27901 layer_factory.hpp:77] Creating layer scale3a_branch2a
I0706 14:05:46.027981 27901 net.cpp:141] Setting up scale3a_branch2a
I0706 14:05:46.027990 27901 net.cpp:148] Top shape: 1 128 60 60 (460800)
I0706 14:05:46.027994 27901 net.cpp:156] Memory required for data: 543744000
I0706 14:05:46.028002 27901 layer_factory.hpp:77] Creating layer res3a_branch2a_relu
I0706 14:05:46.028012 27901 net.cpp:91] Creating Layer res3a_branch2a_relu
I0706 14:05:46.028015 27901 net.cpp:425] res3a_branch2a_relu <- res3a_branch2a
I0706 14:05:46.028023 27901 net.cpp:386] res3a_branch2a_relu -> res3a_branch2a (in-place)
I0706 14:05:46.028031 27901 net.cpp:141] Setting up res3a_branch2a_relu
I0706 14:05:46.028038 27901 net.cpp:148] Top shape: 1 128 60 60 (460800)
I0706 14:05:46.028041 27901 net.cpp:156] Memory required for data: 545587200
I0706 14:05:46.028045 27901 layer_factory.hpp:77] Creating layer res3a_branch2b
I0706 14:05:46.028054 27901 net.cpp:91] Creating Layer res3a_branch2b
I0706 14:05:46.028059 27901 net.cpp:425] res3a_branch2b <- res3a_branch2a
I0706 14:05:46.028066 27901 net.cpp:399] res3a_branch2b -> res3a_branch2b
I0706 14:05:46.028940 27901 net.cpp:141] Setting up res3a_branch2b
I0706 14:05:46.028957 27901 net.cpp:148] Top shape: 1 128 60 60 (460800)
I0706 14:05:46.028962 27901 net.cpp:156] Memory required for data: 547430400
I0706 14:05:46.028970 27901 layer_factory.hpp:77] Creating layer bn3a_branch2b
I0706 14:05:46.028982 27901 net.cpp:91] Creating Layer bn3a_branch2b
I0706 14:05:46.028987 27901 net.cpp:425] bn3a_branch2b <- res3a_branch2b
I0706 14:05:46.028993 27901 net.cpp:386] bn3a_branch2b -> res3a_branch2b (in-place)
I0706 14:05:46.029180 27901 net.cpp:141] Setting up bn3a_branch2b
I0706 14:05:46.029191 27901 net.cpp:148] Top shape: 1 128 60 60 (460800)
I0706 14:05:46.029194 27901 net.cpp:156] Memory required for data: 549273600
I0706 14:05:46.029206 27901 layer_factory.hpp:77] Creating layer scale3a_branch2b
I0706 14:05:46.029214 27901 net.cpp:91] Creating Layer scale3a_branch2b
I0706 14:05:46.029218 27901 net.cpp:425] scale3a_branch2b <- res3a_branch2b
I0706 14:05:46.029225 27901 net.cpp:386] scale3a_branch2b -> res3a_branch2b (in-place)
I0706 14:05:46.029266 27901 layer_factory.hpp:77] Creating layer scale3a_branch2b
I0706 14:05:46.029387 27901 net.cpp:141] Setting up scale3a_branch2b
I0706 14:05:46.029397 27901 net.cpp:148] Top shape: 1 128 60 60 (460800)
I0706 14:05:46.029402 27901 net.cpp:156] Memory required for data: 551116800
I0706 14:05:46.029409 27901 layer_factory.hpp:77] Creating layer res3a_branch2b_relu
I0706 14:05:46.029419 27901 net.cpp:91] Creating Layer res3a_branch2b_relu
I0706 14:05:46.029434 27901 net.cpp:425] res3a_branch2b_relu <- res3a_branch2b
I0706 14:05:46.029441 27901 net.cpp:386] res3a_branch2b_relu -> res3a_branch2b (in-place)
I0706 14:05:46.029449 27901 net.cpp:141] Setting up res3a_branch2b_relu
I0706 14:05:46.029454 27901 net.cpp:148] Top shape: 1 128 60 60 (460800)
I0706 14:05:46.029458 27901 net.cpp:156] Memory required for data: 552960000
I0706 14:05:46.029463 27901 layer_factory.hpp:77] Creating layer res3a_branch2c
I0706 14:05:46.029474 27901 net.cpp:91] Creating Layer res3a_branch2c
I0706 14:05:46.029477 27901 net.cpp:425] res3a_branch2c <- res3a_branch2b
I0706 14:05:46.029484 27901 net.cpp:399] res3a_branch2c -> res3a_branch2c
I0706 14:05:46.029697 27901 net.cpp:141] Setting up res3a_branch2c
I0706 14:05:46.029708 27901 net.cpp:148] Top shape: 1 512 60 60 (1843200)
I0706 14:05:46.029713 27901 net.cpp:156] Memory required for data: 560332800
I0706 14:05:46.029719 27901 layer_factory.hpp:77] Creating layer bn3a_branch2c
I0706 14:05:46.029737 27901 net.cpp:91] Creating Layer bn3a_branch2c
I0706 14:05:46.029742 27901 net.cpp:425] bn3a_branch2c <- res3a_branch2c
I0706 14:05:46.029749 27901 net.cpp:386] bn3a_branch2c -> res3a_branch2c (in-place)
I0706 14:05:46.029934 27901 net.cpp:141] Setting up bn3a_branch2c
I0706 14:05:46.029945 27901 net.cpp:148] Top shape: 1 512 60 60 (1843200)
I0706 14:05:46.029949 27901 net.cpp:156] Memory required for data: 567705600
I0706 14:05:46.029959 27901 layer_factory.hpp:77] Creating layer scale3a_branch2c
I0706 14:05:46.029968 27901 net.cpp:91] Creating Layer scale3a_branch2c
I0706 14:05:46.029971 27901 net.cpp:425] scale3a_branch2c <- res3a_branch2c
I0706 14:05:46.029981 27901 net.cpp:386] scale3a_branch2c -> res3a_branch2c (in-place)
I0706 14:05:46.030019 27901 layer_factory.hpp:77] Creating layer scale3a_branch2c
I0706 14:05:46.030140 27901 net.cpp:141] Setting up scale3a_branch2c
I0706 14:05:46.030151 27901 net.cpp:148] Top shape: 1 512 60 60 (1843200)
I0706 14:05:46.030155 27901 net.cpp:156] Memory required for data: 575078400
I0706 14:05:46.030164 27901 layer_factory.hpp:77] Creating layer res3a
I0706 14:05:46.030171 27901 net.cpp:91] Creating Layer res3a
I0706 14:05:46.030175 27901 net.cpp:425] res3a <- res3a_branch1
I0706 14:05:46.030180 27901 net.cpp:425] res3a <- res3a_branch2c
I0706 14:05:46.030189 27901 net.cpp:399] res3a -> res3a
I0706 14:05:46.030213 27901 net.cpp:141] Setting up res3a
I0706 14:05:46.030220 27901 net.cpp:148] Top shape: 1 512 60 60 (1843200)
I0706 14:05:46.030225 27901 net.cpp:156] Memory required for data: 582451200
I0706 14:05:46.030228 27901 layer_factory.hpp:77] Creating layer res3a_relu
I0706 14:05:46.030236 27901 net.cpp:91] Creating Layer res3a_relu
I0706 14:05:46.030239 27901 net.cpp:425] res3a_relu <- res3a
I0706 14:05:46.030246 27901 net.cpp:386] res3a_relu -> res3a (in-place)
I0706 14:05:46.030254 27901 net.cpp:141] Setting up res3a_relu
I0706 14:05:46.030259 27901 net.cpp:148] Top shape: 1 512 60 60 (1843200)
I0706 14:05:46.030263 27901 net.cpp:156] Memory required for data: 589824000
I0706 14:05:46.030267 27901 layer_factory.hpp:77] Creating layer res3a_res3a_relu_0_split
I0706 14:05:46.030274 27901 net.cpp:91] Creating Layer res3a_res3a_relu_0_split
I0706 14:05:46.030278 27901 net.cpp:425] res3a_res3a_relu_0_split <- res3a
I0706 14:05:46.030284 27901 net.cpp:399] res3a_res3a_relu_0_split -> res3a_res3a_relu_0_split_0
I0706 14:05:46.030292 27901 net.cpp:399] res3a_res3a_relu_0_split -> res3a_res3a_relu_0_split_1
I0706 14:05:46.030328 27901 net.cpp:141] Setting up res3a_res3a_relu_0_split
I0706 14:05:46.030334 27901 net.cpp:148] Top shape: 1 512 60 60 (1843200)
I0706 14:05:46.030339 27901 net.cpp:148] Top shape: 1 512 60 60 (1843200)
I0706 14:05:46.030344 27901 net.cpp:156] Memory required for data: 604569600
I0706 14:05:46.030347 27901 layer_factory.hpp:77] Creating layer res3b1_branch2a
I0706 14:05:46.030357 27901 net.cpp:91] Creating Layer res3b1_branch2a
I0706 14:05:46.030361 27901 net.cpp:425] res3b1_branch2a <- res3a_res3a_relu_0_split_0
I0706 14:05:46.030369 27901 net.cpp:399] res3b1_branch2a -> res3b1_branch2a
I0706 14:05:46.030589 27901 net.cpp:141] Setting up res3b1_branch2a
I0706 14:05:46.030602 27901 net.cpp:148] Top shape: 1 128 60 60 (460800)
I0706 14:05:46.030606 27901 net.cpp:156] Memory required for data: 606412800
I0706 14:05:46.030613 27901 layer_factory.hpp:77] Creating layer bn3b1_branch2a
I0706 14:05:46.030624 27901 net.cpp:91] Creating Layer bn3b1_branch2a
I0706 14:05:46.030629 27901 net.cpp:425] bn3b1_branch2a <- res3b1_branch2a
I0706 14:05:46.030637 27901 net.cpp:386] bn3b1_branch2a -> res3b1_branch2a (in-place)
I0706 14:05:46.030833 27901 net.cpp:141] Setting up bn3b1_branch2a
I0706 14:05:46.030843 27901 net.cpp:148] Top shape: 1 128 60 60 (460800)
I0706 14:05:46.030848 27901 net.cpp:156] Memory required for data: 608256000
I0706 14:05:46.030856 27901 layer_factory.hpp:77] Creating layer scale3b1_branch2a
I0706 14:05:46.030865 27901 net.cpp:91] Creating Layer scale3b1_branch2a
I0706 14:05:46.030870 27901 net.cpp:425] scale3b1_branch2a <- res3b1_branch2a
I0706 14:05:46.030876 27901 net.cpp:386] scale3b1_branch2a -> res3b1_branch2a (in-place)
I0706 14:05:46.030916 27901 layer_factory.hpp:77] Creating layer scale3b1_branch2a
I0706 14:05:46.031034 27901 net.cpp:141] Setting up scale3b1_branch2a
I0706 14:05:46.031044 27901 net.cpp:148] Top shape: 1 128 60 60 (460800)
I0706 14:05:46.031049 27901 net.cpp:156] Memory required for data: 610099200
I0706 14:05:46.031057 27901 layer_factory.hpp:77] Creating layer res3b1_branch2a_relu
I0706 14:05:46.031066 27901 net.cpp:91] Creating Layer res3b1_branch2a_relu
I0706 14:05:46.031071 27901 net.cpp:425] res3b1_branch2a_relu <- res3b1_branch2a
I0706 14:05:46.031077 27901 net.cpp:386] res3b1_branch2a_relu -> res3b1_branch2a (in-place)
I0706 14:05:46.031085 27901 net.cpp:141] Setting up res3b1_branch2a_relu
I0706 14:05:46.031090 27901 net.cpp:148] Top shape: 1 128 60 60 (460800)
I0706 14:05:46.031095 27901 net.cpp:156] Memory required for data: 611942400
I0706 14:05:46.031098 27901 layer_factory.hpp:77] Creating layer res3b1_branch2b
I0706 14:05:46.031110 27901 net.cpp:91] Creating Layer res3b1_branch2b
I0706 14:05:46.031113 27901 net.cpp:425] res3b1_branch2b <- res3b1_branch2a
I0706 14:05:46.031121 27901 net.cpp:399] res3b1_branch2b -> res3b1_branch2b
I0706 14:05:46.031985 27901 net.cpp:141] Setting up res3b1_branch2b
I0706 14:05:46.032001 27901 net.cpp:148] Top shape: 1 128 60 60 (460800)
I0706 14:05:46.032006 27901 net.cpp:156] Memory required for data: 613785600
I0706 14:05:46.032013 27901 layer_factory.hpp:77] Creating layer bn3b1_branch2b
I0706 14:05:46.032023 27901 net.cpp:91] Creating Layer bn3b1_branch2b
I0706 14:05:46.032028 27901 net.cpp:425] bn3b1_branch2b <- res3b1_branch2b
I0706 14:05:46.032035 27901 net.cpp:386] bn3b1_branch2b -> res3b1_branch2b (in-place)
I0706 14:05:46.032227 27901 net.cpp:141] Setting up bn3b1_branch2b
I0706 14:05:46.032238 27901 net.cpp:148] Top shape: 1 128 60 60 (460800)
I0706 14:05:46.032241 27901 net.cpp:156] Memory required for data: 615628800
I0706 14:05:46.032251 27901 layer_factory.hpp:77] Creating layer scale3b1_branch2b
I0706 14:05:46.032259 27901 net.cpp:91] Creating Layer scale3b1_branch2b
I0706 14:05:46.032264 27901 net.cpp:425] scale3b1_branch2b <- res3b1_branch2b
I0706 14:05:46.032272 27901 net.cpp:386] scale3b1_branch2b -> res3b1_branch2b (in-place)
I0706 14:05:46.032312 27901 layer_factory.hpp:77] Creating layer scale3b1_branch2b
I0706 14:05:46.032433 27901 net.cpp:141] Setting up scale3b1_branch2b
I0706 14:05:46.032444 27901 net.cpp:148] Top shape: 1 128 60 60 (460800)
I0706 14:05:46.032447 27901 net.cpp:156] Memory required for data: 617472000
I0706 14:05:46.032462 27901 layer_factory.hpp:77] Creating layer res3b1_branch2b_relu
I0706 14:05:46.032472 27901 net.cpp:91] Creating Layer res3b1_branch2b_relu
I0706 14:05:46.032477 27901 net.cpp:425] res3b1_branch2b_relu <- res3b1_branch2b
I0706 14:05:46.032490 27901 net.cpp:386] res3b1_branch2b_relu -> res3b1_branch2b (in-place)
I0706 14:05:46.032497 27901 net.cpp:141] Setting up res3b1_branch2b_relu
I0706 14:05:46.032503 27901 net.cpp:148] Top shape: 1 128 60 60 (460800)
I0706 14:05:46.032517 27901 net.cpp:156] Memory required for data: 619315200
I0706 14:05:46.032521 27901 layer_factory.hpp:77] Creating layer res3b1_branch2c
I0706 14:05:46.032533 27901 net.cpp:91] Creating Layer res3b1_branch2c
I0706 14:05:46.032537 27901 net.cpp:425] res3b1_branch2c <- res3b1_branch2b
I0706 14:05:46.032544 27901 net.cpp:399] res3b1_branch2c -> res3b1_branch2c
I0706 14:05:46.033357 27901 net.cpp:141] Setting up res3b1_branch2c
I0706 14:05:46.033373 27901 net.cpp:148] Top shape: 1 512 60 60 (1843200)
I0706 14:05:46.033377 27901 net.cpp:156] Memory required for data: 626688000
I0706 14:05:46.033385 27901 layer_factory.hpp:77] Creating layer bn3b1_branch2c
I0706 14:05:46.033396 27901 net.cpp:91] Creating Layer bn3b1_branch2c
I0706 14:05:46.033401 27901 net.cpp:425] bn3b1_branch2c <- res3b1_branch2c
I0706 14:05:46.033408 27901 net.cpp:386] bn3b1_branch2c -> res3b1_branch2c (in-place)
I0706 14:05:46.033617 27901 net.cpp:141] Setting up bn3b1_branch2c
I0706 14:05:46.033627 27901 net.cpp:148] Top shape: 1 512 60 60 (1843200)
I0706 14:05:46.033632 27901 net.cpp:156] Memory required for data: 634060800
I0706 14:05:46.033643 27901 layer_factory.hpp:77] Creating layer scale3b1_branch2c
I0706 14:05:46.033651 27901 net.cpp:91] Creating Layer scale3b1_branch2c
I0706 14:05:46.033655 27901 net.cpp:425] scale3b1_branch2c <- res3b1_branch2c
I0706 14:05:46.033663 27901 net.cpp:386] scale3b1_branch2c -> res3b1_branch2c (in-place)
I0706 14:05:46.033702 27901 layer_factory.hpp:77] Creating layer scale3b1_branch2c
I0706 14:05:46.033825 27901 net.cpp:141] Setting up scale3b1_branch2c
I0706 14:05:46.033836 27901 net.cpp:148] Top shape: 1 512 60 60 (1843200)
I0706 14:05:46.033840 27901 net.cpp:156] Memory required for data: 641433600
I0706 14:05:46.033849 27901 layer_factory.hpp:77] Creating layer res3b1
I0706 14:05:46.033857 27901 net.cpp:91] Creating Layer res3b1
I0706 14:05:46.033861 27901 net.cpp:425] res3b1 <- res3a_res3a_relu_0_split_1
I0706 14:05:46.033867 27901 net.cpp:425] res3b1 <- res3b1_branch2c
I0706 14:05:46.033874 27901 net.cpp:399] res3b1 -> res3b1
I0706 14:05:46.033898 27901 net.cpp:141] Setting up res3b1
I0706 14:05:46.033905 27901 net.cpp:148] Top shape: 1 512 60 60 (1843200)
I0706 14:05:46.033910 27901 net.cpp:156] Memory required for data: 648806400
I0706 14:05:46.033913 27901 layer_factory.hpp:77] Creating layer res3b1_relu
I0706 14:05:46.033922 27901 net.cpp:91] Creating Layer res3b1_relu
I0706 14:05:46.033926 27901 net.cpp:425] res3b1_relu <- res3b1
I0706 14:05:46.033932 27901 net.cpp:386] res3b1_relu -> res3b1 (in-place)
I0706 14:05:46.033939 27901 net.cpp:141] Setting up res3b1_relu
I0706 14:05:46.033946 27901 net.cpp:148] Top shape: 1 512 60 60 (1843200)
I0706 14:05:46.033948 27901 net.cpp:156] Memory required for data: 656179200
I0706 14:05:46.033952 27901 layer_factory.hpp:77] Creating layer res3b1_res3b1_relu_0_split
I0706 14:05:46.033959 27901 net.cpp:91] Creating Layer res3b1_res3b1_relu_0_split
I0706 14:05:46.033963 27901 net.cpp:425] res3b1_res3b1_relu_0_split <- res3b1
I0706 14:05:46.033972 27901 net.cpp:399] res3b1_res3b1_relu_0_split -> res3b1_res3b1_relu_0_split_0
I0706 14:05:46.033979 27901 net.cpp:399] res3b1_res3b1_relu_0_split -> res3b1_res3b1_relu_0_split_1
I0706 14:05:46.034014 27901 net.cpp:141] Setting up res3b1_res3b1_relu_0_split
I0706 14:05:46.034021 27901 net.cpp:148] Top shape: 1 512 60 60 (1843200)
I0706 14:05:46.034026 27901 net.cpp:148] Top shape: 1 512 60 60 (1843200)
I0706 14:05:46.034030 27901 net.cpp:156] Memory required for data: 670924800
I0706 14:05:46.034034 27901 layer_factory.hpp:77] Creating layer res3b2_branch2a
I0706 14:05:46.034044 27901 net.cpp:91] Creating Layer res3b2_branch2a
I0706 14:05:46.034049 27901 net.cpp:425] res3b2_branch2a <- res3b1_res3b1_relu_0_split_0
I0706 14:05:46.034056 27901 net.cpp:399] res3b2_branch2a -> res3b2_branch2a
I0706 14:05:46.034265 27901 net.cpp:141] Setting up res3b2_branch2a
I0706 14:05:46.034276 27901 net.cpp:148] Top shape: 1 128 60 60 (460800)
I0706 14:05:46.034281 27901 net.cpp:156] Memory required for data: 672768000
I0706 14:05:46.034299 27901 layer_factory.hpp:77] Creating layer bn3b2_branch2a
I0706 14:05:46.034312 27901 net.cpp:91] Creating Layer bn3b2_branch2a
I0706 14:05:46.034317 27901 net.cpp:425] bn3b2_branch2a <- res3b2_branch2a
I0706 14:05:46.034323 27901 net.cpp:386] bn3b2_branch2a -> res3b2_branch2a (in-place)
I0706 14:05:46.034509 27901 net.cpp:141] Setting up bn3b2_branch2a
I0706 14:05:46.034519 27901 net.cpp:148] Top shape: 1 128 60 60 (460800)
I0706 14:05:46.034523 27901 net.cpp:156] Memory required for data: 674611200
I0706 14:05:46.034533 27901 layer_factory.hpp:77] Creating layer scale3b2_branch2a
I0706 14:05:46.034543 27901 net.cpp:91] Creating Layer scale3b2_branch2a
I0706 14:05:46.034546 27901 net.cpp:425] scale3b2_branch2a <- res3b2_branch2a
I0706 14:05:46.034553 27901 net.cpp:386] scale3b2_branch2a -> res3b2_branch2a (in-place)
I0706 14:05:46.034593 27901 layer_factory.hpp:77] Creating layer scale3b2_branch2a
I0706 14:05:46.034711 27901 net.cpp:141] Setting up scale3b2_branch2a
I0706 14:05:46.034721 27901 net.cpp:148] Top shape: 1 128 60 60 (460800)
I0706 14:05:46.034725 27901 net.cpp:156] Memory required for data: 676454400
I0706 14:05:46.034734 27901 layer_factory.hpp:77] Creating layer res3b2_branch2a_relu
I0706 14:05:46.034741 27901 net.cpp:91] Creating Layer res3b2_branch2a_relu
I0706 14:05:46.034745 27901 net.cpp:425] res3b2_branch2a_relu <- res3b2_branch2a
I0706 14:05:46.034754 27901 net.cpp:386] res3b2_branch2a_relu -> res3b2_branch2a (in-place)
I0706 14:05:46.034761 27901 net.cpp:141] Setting up res3b2_branch2a_relu
I0706 14:05:46.034766 27901 net.cpp:148] Top shape: 1 128 60 60 (460800)
I0706 14:05:46.034770 27901 net.cpp:156] Memory required for data: 678297600
I0706 14:05:46.034775 27901 layer_factory.hpp:77] Creating layer res3b2_branch2b
I0706 14:05:46.034783 27901 net.cpp:91] Creating Layer res3b2_branch2b
I0706 14:05:46.034788 27901 net.cpp:425] res3b2_branch2b <- res3b2_branch2a
I0706 14:05:46.034796 27901 net.cpp:399] res3b2_branch2b -> res3b2_branch2b
I0706 14:05:46.035681 27901 net.cpp:141] Setting up res3b2_branch2b
I0706 14:05:46.035696 27901 net.cpp:148] Top shape: 1 128 60 60 (460800)
I0706 14:05:46.035701 27901 net.cpp:156] Memory required for data: 680140800
I0706 14:05:46.035709 27901 layer_factory.hpp:77] Creating layer bn3b2_branch2b
I0706 14:05:46.035719 27901 net.cpp:91] Creating Layer bn3b2_branch2b
I0706 14:05:46.035724 27901 net.cpp:425] bn3b2_branch2b <- res3b2_branch2b
I0706 14:05:46.035732 27901 net.cpp:386] bn3b2_branch2b -> res3b2_branch2b (in-place)
I0706 14:05:46.035940 27901 net.cpp:141] Setting up bn3b2_branch2b
I0706 14:05:46.035951 27901 net.cpp:148] Top shape: 1 128 60 60 (460800)
I0706 14:05:46.035955 27901 net.cpp:156] Memory required for data: 681984000
I0706 14:05:46.035966 27901 layer_factory.hpp:77] Creating layer scale3b2_branch2b
I0706 14:05:46.035974 27901 net.cpp:91] Creating Layer scale3b2_branch2b
I0706 14:05:46.035979 27901 net.cpp:425] scale3b2_branch2b <- res3b2_branch2b
I0706 14:05:46.035986 27901 net.cpp:386] scale3b2_branch2b -> res3b2_branch2b (in-place)
I0706 14:05:46.036031 27901 layer_factory.hpp:77] Creating layer scale3b2_branch2b
I0706 14:05:46.036155 27901 net.cpp:141] Setting up scale3b2_branch2b
I0706 14:05:46.036165 27901 net.cpp:148] Top shape: 1 128 60 60 (460800)
I0706 14:05:46.036170 27901 net.cpp:156] Memory required for data: 683827200
I0706 14:05:46.036177 27901 layer_factory.hpp:77] Creating layer res3b2_branch2b_relu
I0706 14:05:46.036186 27901 net.cpp:91] Creating Layer res3b2_branch2b_relu
I0706 14:05:46.036191 27901 net.cpp:425] res3b2_branch2b_relu <- res3b2_branch2b
I0706 14:05:46.036197 27901 net.cpp:386] res3b2_branch2b_relu -> res3b2_branch2b (in-place)
I0706 14:05:46.036204 27901 net.cpp:141] Setting up res3b2_branch2b_relu
I0706 14:05:46.036211 27901 net.cpp:148] Top shape: 1 128 60 60 (460800)
I0706 14:05:46.036213 27901 net.cpp:156] Memory required for data: 685670400
I0706 14:05:46.036218 27901 layer_factory.hpp:77] Creating layer res3b2_branch2c
I0706 14:05:46.036229 27901 net.cpp:91] Creating Layer res3b2_branch2c
I0706 14:05:46.036243 27901 net.cpp:425] res3b2_branch2c <- res3b2_branch2b
I0706 14:05:46.036252 27901 net.cpp:399] res3b2_branch2c -> res3b2_branch2c
I0706 14:05:46.036487 27901 net.cpp:141] Setting up res3b2_branch2c
I0706 14:05:46.036499 27901 net.cpp:148] Top shape: 1 512 60 60 (1843200)
I0706 14:05:46.036504 27901 net.cpp:156] Memory required for data: 693043200
I0706 14:05:46.036511 27901 layer_factory.hpp:77] Creating layer bn3b2_branch2c
I0706 14:05:46.036522 27901 net.cpp:91] Creating Layer bn3b2_branch2c
I0706 14:05:46.036526 27901 net.cpp:425] bn3b2_branch2c <- res3b2_branch2c
I0706 14:05:46.036533 27901 net.cpp:386] bn3b2_branch2c -> res3b2_branch2c (in-place)
I0706 14:05:46.036731 27901 net.cpp:141] Setting up bn3b2_branch2c
I0706 14:05:46.036741 27901 net.cpp:148] Top shape: 1 512 60 60 (1843200)
I0706 14:05:46.036746 27901 net.cpp:156] Memory required for data: 700416000
I0706 14:05:46.036756 27901 layer_factory.hpp:77] Creating layer scale3b2_branch2c
I0706 14:05:46.036764 27901 net.cpp:91] Creating Layer scale3b2_branch2c
I0706 14:05:46.036768 27901 net.cpp:425] scale3b2_branch2c <- res3b2_branch2c
I0706 14:05:46.036774 27901 net.cpp:386] scale3b2_branch2c -> res3b2_branch2c (in-place)
I0706 14:05:46.036813 27901 layer_factory.hpp:77] Creating layer scale3b2_branch2c
I0706 14:05:46.036937 27901 net.cpp:141] Setting up scale3b2_branch2c
I0706 14:05:46.036947 27901 net.cpp:148] Top shape: 1 512 60 60 (1843200)
I0706 14:05:46.036952 27901 net.cpp:156] Memory required for data: 707788800
I0706 14:05:46.036960 27901 layer_factory.hpp:77] Creating layer res3b2
I0706 14:05:46.036968 27901 net.cpp:91] Creating Layer res3b2
I0706 14:05:46.036973 27901 net.cpp:425] res3b2 <- res3b1_res3b1_relu_0_split_1
I0706 14:05:46.036978 27901 net.cpp:425] res3b2 <- res3b2_branch2c
I0706 14:05:46.036988 27901 net.cpp:399] res3b2 -> res3b2
I0706 14:05:46.037012 27901 net.cpp:141] Setting up res3b2
I0706 14:05:46.037021 27901 net.cpp:148] Top shape: 1 512 60 60 (1843200)
I0706 14:05:46.037025 27901 net.cpp:156] Memory required for data: 715161600
I0706 14:05:46.037029 27901 layer_factory.hpp:77] Creating layer res3b2_relu
I0706 14:05:46.037036 27901 net.cpp:91] Creating Layer res3b2_relu
I0706 14:05:46.037040 27901 net.cpp:425] res3b2_relu <- res3b2
I0706 14:05:46.037046 27901 net.cpp:386] res3b2_relu -> res3b2 (in-place)
I0706 14:05:46.037053 27901 net.cpp:141] Setting up res3b2_relu
I0706 14:05:46.037060 27901 net.cpp:148] Top shape: 1 512 60 60 (1843200)
I0706 14:05:46.037063 27901 net.cpp:156] Memory required for data: 722534400
I0706 14:05:46.037066 27901 layer_factory.hpp:77] Creating layer res3b2_res3b2_relu_0_split
I0706 14:05:46.037075 27901 net.cpp:91] Creating Layer res3b2_res3b2_relu_0_split
I0706 14:05:46.037078 27901 net.cpp:425] res3b2_res3b2_relu_0_split <- res3b2
I0706 14:05:46.037084 27901 net.cpp:399] res3b2_res3b2_relu_0_split -> res3b2_res3b2_relu_0_split_0
I0706 14:05:46.037092 27901 net.cpp:399] res3b2_res3b2_relu_0_split -> res3b2_res3b2_relu_0_split_1
I0706 14:05:46.037129 27901 net.cpp:141] Setting up res3b2_res3b2_relu_0_split
I0706 14:05:46.037137 27901 net.cpp:148] Top shape: 1 512 60 60 (1843200)
I0706 14:05:46.037142 27901 net.cpp:148] Top shape: 1 512 60 60 (1843200)
I0706 14:05:46.037144 27901 net.cpp:156] Memory required for data: 737280000
I0706 14:05:46.037149 27901 layer_factory.hpp:77] Creating layer res3b3_branch2a
I0706 14:05:46.037161 27901 net.cpp:91] Creating Layer res3b3_branch2a
I0706 14:05:46.037165 27901 net.cpp:425] res3b3_branch2a <- res3b2_res3b2_relu_0_split_0
I0706 14:05:46.037173 27901 net.cpp:399] res3b3_branch2a -> res3b3_branch2a
I0706 14:05:46.037379 27901 net.cpp:141] Setting up res3b3_branch2a
I0706 14:05:46.037389 27901 net.cpp:148] Top shape: 1 128 60 60 (460800)
I0706 14:05:46.037394 27901 net.cpp:156] Memory required for data: 739123200
I0706 14:05:46.037400 27901 layer_factory.hpp:77] Creating layer bn3b3_branch2a
I0706 14:05:46.037408 27901 net.cpp:91] Creating Layer bn3b3_branch2a
I0706 14:05:46.037413 27901 net.cpp:425] bn3b3_branch2a <- res3b3_branch2a
I0706 14:05:46.037431 27901 net.cpp:386] bn3b3_branch2a -> res3b3_branch2a (in-place)
I0706 14:05:46.037628 27901 net.cpp:141] Setting up bn3b3_branch2a
I0706 14:05:46.037638 27901 net.cpp:148] Top shape: 1 128 60 60 (460800)
I0706 14:05:46.037643 27901 net.cpp:156] Memory required for data: 740966400
I0706 14:05:46.037674 27901 layer_factory.hpp:77] Creating layer scale3b3_branch2a
I0706 14:05:46.037684 27901 net.cpp:91] Creating Layer scale3b3_branch2a
I0706 14:05:46.037689 27901 net.cpp:425] scale3b3_branch2a <- res3b3_branch2a
I0706 14:05:46.037696 27901 net.cpp:386] scale3b3_branch2a -> res3b3_branch2a (in-place)
I0706 14:05:46.037742 27901 layer_factory.hpp:77] Creating layer scale3b3_branch2a
I0706 14:05:46.037866 27901 net.cpp:141] Setting up scale3b3_branch2a
I0706 14:05:46.037876 27901 net.cpp:148] Top shape: 1 128 60 60 (460800)
I0706 14:05:46.037881 27901 net.cpp:156] Memory required for data: 742809600
I0706 14:05:46.037889 27901 layer_factory.hpp:77] Creating layer res3b3_branch2a_relu
I0706 14:05:46.037899 27901 net.cpp:91] Creating Layer res3b3_branch2a_relu
I0706 14:05:46.037904 27901 net.cpp:425] res3b3_branch2a_relu <- res3b3_branch2a
I0706 14:05:46.037909 27901 net.cpp:386] res3b3_branch2a_relu -> res3b3_branch2a (in-place)
I0706 14:05:46.037917 27901 net.cpp:141] Setting up res3b3_branch2a_relu
I0706 14:05:46.037924 27901 net.cpp:148] Top shape: 1 128 60 60 (460800)
I0706 14:05:46.037927 27901 net.cpp:156] Memory required for data: 744652800
I0706 14:05:46.037930 27901 layer_factory.hpp:77] Creating layer res3b3_branch2b
I0706 14:05:46.037940 27901 net.cpp:91] Creating Layer res3b3_branch2b
I0706 14:05:46.037945 27901 net.cpp:425] res3b3_branch2b <- res3b3_branch2a
I0706 14:05:46.037951 27901 net.cpp:399] res3b3_branch2b -> res3b3_branch2b
I0706 14:05:46.038830 27901 net.cpp:141] Setting up res3b3_branch2b
I0706 14:05:46.038846 27901 net.cpp:148] Top shape: 1 128 60 60 (460800)
I0706 14:05:46.038851 27901 net.cpp:156] Memory required for data: 746496000
I0706 14:05:46.038858 27901 layer_factory.hpp:77] Creating layer bn3b3_branch2b
I0706 14:05:46.038868 27901 net.cpp:91] Creating Layer bn3b3_branch2b
I0706 14:05:46.038873 27901 net.cpp:425] bn3b3_branch2b <- res3b3_branch2b
I0706 14:05:46.038882 27901 net.cpp:386] bn3b3_branch2b -> res3b3_branch2b (in-place)
I0706 14:05:46.039070 27901 net.cpp:141] Setting up bn3b3_branch2b
I0706 14:05:46.039082 27901 net.cpp:148] Top shape: 1 128 60 60 (460800)
I0706 14:05:46.039085 27901 net.cpp:156] Memory required for data: 748339200
I0706 14:05:46.039096 27901 layer_factory.hpp:77] Creating layer scale3b3_branch2b
I0706 14:05:46.039105 27901 net.cpp:91] Creating Layer scale3b3_branch2b
I0706 14:05:46.039109 27901 net.cpp:425] scale3b3_branch2b <- res3b3_branch2b
I0706 14:05:46.039119 27901 net.cpp:386] scale3b3_branch2b -> res3b3_branch2b (in-place)
I0706 14:05:46.039157 27901 layer_factory.hpp:77] Creating layer scale3b3_branch2b
I0706 14:05:46.039283 27901 net.cpp:141] Setting up scale3b3_branch2b
I0706 14:05:46.039294 27901 net.cpp:148] Top shape: 1 128 60 60 (460800)
I0706 14:05:46.039299 27901 net.cpp:156] Memory required for data: 750182400
I0706 14:05:46.039307 27901 layer_factory.hpp:77] Creating layer res3b3_branch2b_relu
I0706 14:05:46.039314 27901 net.cpp:91] Creating Layer res3b3_branch2b_relu
I0706 14:05:46.039319 27901 net.cpp:425] res3b3_branch2b_relu <- res3b3_branch2b
I0706 14:05:46.039325 27901 net.cpp:386] res3b3_branch2b_relu -> res3b3_branch2b (in-place)
I0706 14:05:46.039333 27901 net.cpp:141] Setting up res3b3_branch2b_relu
I0706 14:05:46.039338 27901 net.cpp:148] Top shape: 1 128 60 60 (460800)
I0706 14:05:46.039343 27901 net.cpp:156] Memory required for data: 752025600
I0706 14:05:46.039347 27901 layer_factory.hpp:77] Creating layer res3b3_branch2c
I0706 14:05:46.039358 27901 net.cpp:91] Creating Layer res3b3_branch2c
I0706 14:05:46.039363 27901 net.cpp:425] res3b3_branch2c <- res3b3_branch2b
I0706 14:05:46.039369 27901 net.cpp:399] res3b3_branch2c -> res3b3_branch2c
I0706 14:05:46.040316 27901 net.cpp:141] Setting up res3b3_branch2c
I0706 14:05:46.040344 27901 net.cpp:148] Top shape: 1 512 60 60 (1843200)
I0706 14:05:46.040350 27901 net.cpp:156] Memory required for data: 759398400
I0706 14:05:46.040361 27901 layer_factory.hpp:77] Creating layer bn3b3_branch2c
I0706 14:05:46.040372 27901 net.cpp:91] Creating Layer bn3b3_branch2c
I0706 14:05:46.040376 27901 net.cpp:425] bn3b3_branch2c <- res3b3_branch2c
I0706 14:05:46.040385 27901 net.cpp:386] bn3b3_branch2c -> res3b3_branch2c (in-place)
I0706 14:05:46.040714 27901 net.cpp:141] Setting up bn3b3_branch2c
I0706 14:05:46.040726 27901 net.cpp:148] Top shape: 1 512 60 60 (1843200)
I0706 14:05:46.040732 27901 net.cpp:156] Memory required for data: 766771200
I0706 14:05:46.040746 27901 layer_factory.hpp:77] Creating layer scale3b3_branch2c
I0706 14:05:46.040756 27901 net.cpp:91] Creating Layer scale3b3_branch2c
I0706 14:05:46.040761 27901 net.cpp:425] scale3b3_branch2c <- res3b3_branch2c
I0706 14:05:46.040777 27901 net.cpp:386] scale3b3_branch2c -> res3b3_branch2c (in-place)
I0706 14:05:46.040827 27901 layer_factory.hpp:77] Creating layer scale3b3_branch2c
I0706 14:05:46.041043 27901 net.cpp:141] Setting up scale3b3_branch2c
I0706 14:05:46.041054 27901 net.cpp:148] Top shape: 1 512 60 60 (1843200)
I0706 14:05:46.041061 27901 net.cpp:156] Memory required for data: 774144000
I0706 14:05:46.041071 27901 layer_factory.hpp:77] Creating layer res3b3
I0706 14:05:46.041105 27901 net.cpp:91] Creating Layer res3b3
I0706 14:05:46.041112 27901 net.cpp:425] res3b3 <- res3b2_res3b2_relu_0_split_1
I0706 14:05:46.041118 27901 net.cpp:425] res3b3 <- res3b3_branch2c
I0706 14:05:46.041126 27901 net.cpp:399] res3b3 -> res3b3
I0706 14:05:46.041158 27901 net.cpp:141] Setting up res3b3
I0706 14:05:46.041172 27901 net.cpp:148] Top shape: 1 512 60 60 (1843200)
I0706 14:05:46.041175 27901 net.cpp:156] Memory required for data: 781516800
I0706 14:05:46.041180 27901 layer_factory.hpp:77] Creating layer res3b3_relu
I0706 14:05:46.041208 27901 net.cpp:91] Creating Layer res3b3_relu
I0706 14:05:46.041214 27901 net.cpp:425] res3b3_relu <- res3b3
I0706 14:05:46.041221 27901 net.cpp:386] res3b3_relu -> res3b3 (in-place)
I0706 14:05:46.041229 27901 net.cpp:141] Setting up res3b3_relu
I0706 14:05:46.041239 27901 net.cpp:148] Top shape: 1 512 60 60 (1843200)
I0706 14:05:46.041242 27901 net.cpp:156] Memory required for data: 788889600
I0706 14:05:46.041246 27901 layer_factory.hpp:77] Creating layer res3b3_res3b3_relu_0_split
I0706 14:05:46.041254 27901 net.cpp:91] Creating Layer res3b3_res3b3_relu_0_split
I0706 14:05:46.041280 27901 net.cpp:425] res3b3_res3b3_relu_0_split <- res3b3
I0706 14:05:46.041288 27901 net.cpp:399] res3b3_res3b3_relu_0_split -> res3b3_res3b3_relu_0_split_0
I0706 14:05:46.041296 27901 net.cpp:399] res3b3_res3b3_relu_0_split -> res3b3_res3b3_relu_0_split_1
I0706 14:05:46.041347 27901 net.cpp:141] Setting up res3b3_res3b3_relu_0_split
I0706 14:05:46.041357 27901 net.cpp:148] Top shape: 1 512 60 60 (1843200)
I0706 14:05:46.041363 27901 net.cpp:148] Top shape: 1 512 60 60 (1843200)
I0706 14:05:46.041368 27901 net.cpp:156] Memory required for data: 803635200
I0706 14:05:46.041374 27901 layer_factory.hpp:77] Creating layer res4a_branch1
I0706 14:05:46.041384 27901 net.cpp:91] Creating Layer res4a_branch1
I0706 14:05:46.041388 27901 net.cpp:425] res4a_branch1 <- res3b3_res3b3_relu_0_split_0
I0706 14:05:46.041396 27901 net.cpp:399] res4a_branch1 -> res4a_branch1
I0706 14:05:46.043005 27901 net.cpp:141] Setting up res4a_branch1
I0706 14:05:46.043021 27901 net.cpp:148] Top shape: 1 1024 60 60 (3686400)
I0706 14:05:46.043030 27901 net.cpp:156] Memory required for data: 818380800
I0706 14:05:46.043037 27901 layer_factory.hpp:77] Creating layer bn4a_branch1
I0706 14:05:46.043048 27901 net.cpp:91] Creating Layer bn4a_branch1
I0706 14:05:46.043052 27901 net.cpp:425] bn4a_branch1 <- res4a_branch1
I0706 14:05:46.043063 27901 net.cpp:386] bn4a_branch1 -> res4a_branch1 (in-place)
I0706 14:05:46.043393 27901 net.cpp:141] Setting up bn4a_branch1
I0706 14:05:46.043406 27901 net.cpp:148] Top shape: 1 1024 60 60 (3686400)
I0706 14:05:46.043423 27901 net.cpp:156] Memory required for data: 833126400
I0706 14:05:46.043436 27901 layer_factory.hpp:77] Creating layer scale4a_branch1
I0706 14:05:46.043444 27901 net.cpp:91] Creating Layer scale4a_branch1
I0706 14:05:46.043452 27901 net.cpp:425] scale4a_branch1 <- res4a_branch1
I0706 14:05:46.043495 27901 net.cpp:386] scale4a_branch1 -> res4a_branch1 (in-place)
I0706 14:05:46.043547 27901 layer_factory.hpp:77] Creating layer scale4a_branch1
I0706 14:05:46.043766 27901 net.cpp:141] Setting up scale4a_branch1
I0706 14:05:46.043778 27901 net.cpp:148] Top shape: 1 1024 60 60 (3686400)
I0706 14:05:46.043784 27901 net.cpp:156] Memory required for data: 847872000
I0706 14:05:46.043795 27901 layer_factory.hpp:77] Creating layer res4a_branch2a
I0706 14:05:46.043838 27901 net.cpp:91] Creating Layer res4a_branch2a
I0706 14:05:46.043846 27901 net.cpp:425] res4a_branch2a <- res3b3_res3b3_relu_0_split_1
I0706 14:05:46.043854 27901 net.cpp:399] res4a_branch2a -> res4a_branch2a
I0706 14:05:46.044256 27901 net.cpp:141] Setting up res4a_branch2a
I0706 14:05:46.044270 27901 net.cpp:148] Top shape: 1 256 60 60 (921600)
I0706 14:05:46.044275 27901 net.cpp:156] Memory required for data: 851558400
I0706 14:05:46.044284 27901 layer_factory.hpp:77] Creating layer bn4a_branch2a
I0706 14:05:46.044294 27901 net.cpp:91] Creating Layer bn4a_branch2a
I0706 14:05:46.044298 27901 net.cpp:425] bn4a_branch2a <- res4a_branch2a
I0706 14:05:46.044324 27901 net.cpp:386] bn4a_branch2a -> res4a_branch2a (in-place)
I0706 14:05:46.044637 27901 net.cpp:141] Setting up bn4a_branch2a
I0706 14:05:46.044651 27901 net.cpp:148] Top shape: 1 256 60 60 (921600)
I0706 14:05:46.044654 27901 net.cpp:156] Memory required for data: 855244800
I0706 14:05:46.044668 27901 layer_factory.hpp:77] Creating layer scale4a_branch2a
I0706 14:05:46.044713 27901 net.cpp:91] Creating Layer scale4a_branch2a
I0706 14:05:46.044720 27901 net.cpp:425] scale4a_branch2a <- res4a_branch2a
I0706 14:05:46.044728 27901 net.cpp:386] scale4a_branch2a -> res4a_branch2a (in-place)
I0706 14:05:46.044798 27901 layer_factory.hpp:77] Creating layer scale4a_branch2a
I0706 14:05:46.045006 27901 net.cpp:141] Setting up scale4a_branch2a
I0706 14:05:46.045017 27901 net.cpp:148] Top shape: 1 256 60 60 (921600)
I0706 14:05:46.045022 27901 net.cpp:156] Memory required for data: 858931200
I0706 14:05:46.045034 27901 layer_factory.hpp:77] Creating layer res4a_branch2a_relu
I0706 14:05:46.045042 27901 net.cpp:91] Creating Layer res4a_branch2a_relu
I0706 14:05:46.045047 27901 net.cpp:425] res4a_branch2a_relu <- res4a_branch2a
I0706 14:05:46.045053 27901 net.cpp:386] res4a_branch2a_relu -> res4a_branch2a (in-place)
I0706 14:05:46.045064 27901 net.cpp:141] Setting up res4a_branch2a_relu
I0706 14:05:46.045070 27901 net.cpp:148] Top shape: 1 256 60 60 (921600)
I0706 14:05:46.045074 27901 net.cpp:156] Memory required for data: 862617600
I0706 14:05:46.045078 27901 layer_factory.hpp:77] Creating layer res4a_branch2b
I0706 14:05:46.045106 27901 net.cpp:91] Creating Layer res4a_branch2b
I0706 14:05:46.045114 27901 net.cpp:425] res4a_branch2b <- res4a_branch2a
I0706 14:05:46.045122 27901 net.cpp:399] res4a_branch2b -> res4a_branch2b
I0706 14:05:46.046959 27901 net.cpp:141] Setting up res4a_branch2b
I0706 14:05:46.046977 27901 net.cpp:148] Top shape: 1 256 60 60 (921600)
I0706 14:05:46.046980 27901 net.cpp:156] Memory required for data: 866304000
I0706 14:05:46.046993 27901 layer_factory.hpp:77] Creating layer bn4a_branch2b
I0706 14:05:46.047003 27901 net.cpp:91] Creating Layer bn4a_branch2b
I0706 14:05:46.047008 27901 net.cpp:425] bn4a_branch2b <- res4a_branch2b
I0706 14:05:46.047029 27901 net.cpp:386] bn4a_branch2b -> res4a_branch2b (in-place)
I0706 14:05:46.047333 27901 net.cpp:141] Setting up bn4a_branch2b
I0706 14:05:46.047345 27901 net.cpp:148] Top shape: 1 256 60 60 (921600)
I0706 14:05:46.047349 27901 net.cpp:156] Memory required for data: 869990400
I0706 14:05:46.047363 27901 layer_factory.hpp:77] Creating layer scale4a_branch2b
I0706 14:05:46.047402 27901 net.cpp:91] Creating Layer scale4a_branch2b
I0706 14:05:46.047420 27901 net.cpp:425] scale4a_branch2b <- res4a_branch2b
I0706 14:05:46.047435 27901 net.cpp:386] scale4a_branch2b -> res4a_branch2b (in-place)
I0706 14:05:46.047508 27901 layer_factory.hpp:77] Creating layer scale4a_branch2b
I0706 14:05:46.047734 27901 net.cpp:141] Setting up scale4a_branch2b
I0706 14:05:46.047745 27901 net.cpp:148] Top shape: 1 256 60 60 (921600)
I0706 14:05:46.047750 27901 net.cpp:156] Memory required for data: 873676800
I0706 14:05:46.047762 27901 layer_factory.hpp:77] Creating layer res4a_branch2b_relu
I0706 14:05:46.047771 27901 net.cpp:91] Creating Layer res4a_branch2b_relu
I0706 14:05:46.047775 27901 net.cpp:425] res4a_branch2b_relu <- res4a_branch2b
I0706 14:05:46.047781 27901 net.cpp:386] res4a_branch2b_relu -> res4a_branch2b (in-place)
I0706 14:05:46.047790 27901 net.cpp:141] Setting up res4a_branch2b_relu
I0706 14:05:46.047796 27901 net.cpp:148] Top shape: 1 256 60 60 (921600)
I0706 14:05:46.047802 27901 net.cpp:156] Memory required for data: 877363200
I0706 14:05:46.047806 27901 layer_factory.hpp:77] Creating layer res4a_branch2c
I0706 14:05:46.047847 27901 net.cpp:91] Creating Layer res4a_branch2c
I0706 14:05:46.047853 27901 net.cpp:425] res4a_branch2c <- res4a_branch2b
I0706 14:05:46.047861 27901 net.cpp:399] res4a_branch2c -> res4a_branch2c
I0706 14:05:46.048995 27901 net.cpp:141] Setting up res4a_branch2c
I0706 14:05:46.049013 27901 net.cpp:148] Top shape: 1 1024 60 60 (3686400)
I0706 14:05:46.049021 27901 net.cpp:156] Memory required for data: 892108800
I0706 14:05:46.049028 27901 layer_factory.hpp:77] Creating layer bn4a_branch2c
I0706 14:05:46.049038 27901 net.cpp:91] Creating Layer bn4a_branch2c
I0706 14:05:46.049043 27901 net.cpp:425] bn4a_branch2c <- res4a_branch2c
I0706 14:05:46.049065 27901 net.cpp:386] bn4a_branch2c -> res4a_branch2c (in-place)
I0706 14:05:46.049356 27901 net.cpp:141] Setting up bn4a_branch2c
I0706 14:05:46.049370 27901 net.cpp:148] Top shape: 1 1024 60 60 (3686400)
I0706 14:05:46.049373 27901 net.cpp:156] Memory required for data: 906854400
I0706 14:05:46.049384 27901 layer_factory.hpp:77] Creating layer scale4a_branch2c
I0706 14:05:46.049396 27901 net.cpp:91] Creating Layer scale4a_branch2c
I0706 14:05:46.049401 27901 net.cpp:425] scale4a_branch2c <- res4a_branch2c
I0706 14:05:46.049407 27901 net.cpp:386] scale4a_branch2c -> res4a_branch2c (in-place)
I0706 14:05:46.049450 27901 layer_factory.hpp:77] Creating layer scale4a_branch2c
I0706 14:05:46.049584 27901 net.cpp:141] Setting up scale4a_branch2c
I0706 14:05:46.049595 27901 net.cpp:148] Top shape: 1 1024 60 60 (3686400)
I0706 14:05:46.049599 27901 net.cpp:156] Memory required for data: 921600000
I0706 14:05:46.049607 27901 layer_factory.hpp:77] Creating layer res4a
I0706 14:05:46.049619 27901 net.cpp:91] Creating Layer res4a
I0706 14:05:46.049624 27901 net.cpp:425] res4a <- res4a_branch1
I0706 14:05:46.049629 27901 net.cpp:425] res4a <- res4a_branch2c
I0706 14:05:46.049636 27901 net.cpp:399] res4a -> res4a
I0706 14:05:46.049875 27901 net.cpp:141] Setting up res4a
I0706 14:05:46.049886 27901 net.cpp:148] Top shape: 1 1024 60 60 (3686400)
I0706 14:05:46.049890 27901 net.cpp:156] Memory required for data: 936345600
I0706 14:05:46.049895 27901 layer_factory.hpp:77] Creating layer res4a_relu
I0706 14:05:46.049902 27901 net.cpp:91] Creating Layer res4a_relu
I0706 14:05:46.049907 27901 net.cpp:425] res4a_relu <- res4a
I0706 14:05:46.049914 27901 net.cpp:386] res4a_relu -> res4a (in-place)
I0706 14:05:46.049922 27901 net.cpp:141] Setting up res4a_relu
I0706 14:05:46.049928 27901 net.cpp:148] Top shape: 1 1024 60 60 (3686400)
I0706 14:05:46.049932 27901 net.cpp:156] Memory required for data: 951091200
I0706 14:05:46.049937 27901 layer_factory.hpp:77] Creating layer res4a_res4a_relu_0_split
I0706 14:05:46.049943 27901 net.cpp:91] Creating Layer res4a_res4a_relu_0_split
I0706 14:05:46.049947 27901 net.cpp:425] res4a_res4a_relu_0_split <- res4a
I0706 14:05:46.049953 27901 net.cpp:399] res4a_res4a_relu_0_split -> res4a_res4a_relu_0_split_0
I0706 14:05:46.049962 27901 net.cpp:399] res4a_res4a_relu_0_split -> res4a_res4a_relu_0_split_1
I0706 14:05:46.050016 27901 net.cpp:141] Setting up res4a_res4a_relu_0_split
I0706 14:05:46.050024 27901 net.cpp:148] Top shape: 1 1024 60 60 (3686400)
I0706 14:05:46.050029 27901 net.cpp:148] Top shape: 1 1024 60 60 (3686400)
I0706 14:05:46.050034 27901 net.cpp:156] Memory required for data: 980582400
I0706 14:05:46.050037 27901 layer_factory.hpp:77] Creating layer res4b1_branch2a
I0706 14:05:46.050065 27901 net.cpp:91] Creating Layer res4b1_branch2a
I0706 14:05:46.050071 27901 net.cpp:425] res4b1_branch2a <- res4a_res4a_relu_0_split_0
I0706 14:05:46.050079 27901 net.cpp:399] res4b1_branch2a -> res4b1_branch2a
I0706 14:05:46.050940 27901 net.cpp:141] Setting up res4b1_branch2a
I0706 14:05:46.050957 27901 net.cpp:148] Top shape: 1 256 60 60 (921600)
I0706 14:05:46.050962 27901 net.cpp:156] Memory required for data: 984268800
I0706 14:05:46.050971 27901 layer_factory.hpp:77] Creating layer bn4b1_branch2a
I0706 14:05:46.050981 27901 net.cpp:91] Creating Layer bn4b1_branch2a
I0706 14:05:46.050986 27901 net.cpp:425] bn4b1_branch2a <- res4b1_branch2a
I0706 14:05:46.050993 27901 net.cpp:386] bn4b1_branch2a -> res4b1_branch2a (in-place)
I0706 14:05:46.052806 27901 net.cpp:141] Setting up bn4b1_branch2a
I0706 14:05:46.052832 27901 net.cpp:148] Top shape: 1 256 60 60 (921600)
I0706 14:05:46.052839 27901 net.cpp:156] Memory required for data: 987955200
I0706 14:05:46.052850 27901 layer_factory.hpp:77] Creating layer scale4b1_branch2a
I0706 14:05:46.052865 27901 net.cpp:91] Creating Layer scale4b1_branch2a
I0706 14:05:46.052871 27901 net.cpp:425] scale4b1_branch2a <- res4b1_branch2a
I0706 14:05:46.054244 27901 net.cpp:386] scale4b1_branch2a -> res4b1_branch2a (in-place)
I0706 14:05:46.054328 27901 layer_factory.hpp:77] Creating layer scale4b1_branch2a
I0706 14:05:46.055208 27901 net.cpp:141] Setting up scale4b1_branch2a
I0706 14:05:46.055233 27901 net.cpp:148] Top shape: 1 256 60 60 (921600)
I0706 14:05:46.055238 27901 net.cpp:156] Memory required for data: 991641600
I0706 14:05:46.055251 27901 layer_factory.hpp:77] Creating layer res4b1_branch2a_relu
I0706 14:05:46.055259 27901 net.cpp:91] Creating Layer res4b1_branch2a_relu
I0706 14:05:46.055263 27901 net.cpp:425] res4b1_branch2a_relu <- res4b1_branch2a
I0706 14:05:46.055286 27901 net.cpp:386] res4b1_branch2a_relu -> res4b1_branch2a (in-place)
I0706 14:05:46.055296 27901 net.cpp:141] Setting up res4b1_branch2a_relu
I0706 14:05:46.055301 27901 net.cpp:148] Top shape: 1 256 60 60 (921600)
I0706 14:05:46.055305 27901 net.cpp:156] Memory required for data: 995328000
I0706 14:05:46.055310 27901 layer_factory.hpp:77] Creating layer res4b1_branch2b
I0706 14:05:46.055320 27901 net.cpp:91] Creating Layer res4b1_branch2b
I0706 14:05:46.055323 27901 net.cpp:425] res4b1_branch2b <- res4b1_branch2a
I0706 14:05:46.055330 27901 net.cpp:399] res4b1_branch2b -> res4b1_branch2b
I0706 14:05:46.059526 27901 net.cpp:141] Setting up res4b1_branch2b
I0706 14:05:46.059566 27901 net.cpp:148] Top shape: 1 256 60 60 (921600)
I0706 14:05:46.059576 27901 net.cpp:156] Memory required for data: 999014400
I0706 14:05:46.059597 27901 layer_factory.hpp:77] Creating layer bn4b1_branch2b
I0706 14:05:46.059626 27901 net.cpp:91] Creating Layer bn4b1_branch2b
I0706 14:05:46.059644 27901 net.cpp:425] bn4b1_branch2b <- res4b1_branch2b
I0706 14:05:46.059667 27901 net.cpp:386] bn4b1_branch2b -> res4b1_branch2b (in-place)
I0706 14:05:46.060063 27901 net.cpp:141] Setting up bn4b1_branch2b
I0706 14:05:46.060075 27901 net.cpp:148] Top shape: 1 256 60 60 (921600)
I0706 14:05:46.060078 27901 net.cpp:156] Memory required for data: 1002700800
I0706 14:05:46.060091 27901 layer_factory.hpp:77] Creating layer scale4b1_branch2b
I0706 14:05:46.060099 27901 net.cpp:91] Creating Layer scale4b1_branch2b
I0706 14:05:46.060103 27901 net.cpp:425] scale4b1_branch2b <- res4b1_branch2b
I0706 14:05:46.060112 27901 net.cpp:386] scale4b1_branch2b -> res4b1_branch2b (in-place)
I0706 14:05:46.060153 27901 layer_factory.hpp:77] Creating layer scale4b1_branch2b
I0706 14:05:46.060279 27901 net.cpp:141] Setting up scale4b1_branch2b
I0706 14:05:46.060307 27901 net.cpp:148] Top shape: 1 256 60 60 (921600)
I0706 14:05:46.060312 27901 net.cpp:156] Memory required for data: 1006387200
I0706 14:05:46.060320 27901 layer_factory.hpp:77] Creating layer res4b1_branch2b_relu
I0706 14:05:46.060328 27901 net.cpp:91] Creating Layer res4b1_branch2b_relu
I0706 14:05:46.060333 27901 net.cpp:425] res4b1_branch2b_relu <- res4b1_branch2b
I0706 14:05:46.060339 27901 net.cpp:386] res4b1_branch2b_relu -> res4b1_branch2b (in-place)
I0706 14:05:46.060348 27901 net.cpp:141] Setting up res4b1_branch2b_relu
I0706 14:05:46.060353 27901 net.cpp:148] Top shape: 1 256 60 60 (921600)
I0706 14:05:46.060356 27901 net.cpp:156] Memory required for data: 1010073600
I0706 14:05:46.060359 27901 layer_factory.hpp:77] Creating layer res4b1_branch2c
I0706 14:05:46.060369 27901 net.cpp:91] Creating Layer res4b1_branch2c
I0706 14:05:46.060374 27901 net.cpp:425] res4b1_branch2c <- res4b1_branch2b
I0706 14:05:46.060380 27901 net.cpp:399] res4b1_branch2c -> res4b1_branch2c
I0706 14:05:46.061422 27901 net.cpp:141] Setting up res4b1_branch2c
I0706 14:05:46.061439 27901 net.cpp:148] Top shape: 1 1024 60 60 (3686400)
I0706 14:05:46.061444 27901 net.cpp:156] Memory required for data: 1024819200
I0706 14:05:46.061450 27901 layer_factory.hpp:77] Creating layer bn4b1_branch2c
I0706 14:05:46.061460 27901 net.cpp:91] Creating Layer bn4b1_branch2c
I0706 14:05:46.061465 27901 net.cpp:425] bn4b1_branch2c <- res4b1_branch2c
I0706 14:05:46.061471 27901 net.cpp:386] bn4b1_branch2c -> res4b1_branch2c (in-place)
I0706 14:05:46.061688 27901 net.cpp:141] Setting up bn4b1_branch2c
I0706 14:05:46.061697 27901 net.cpp:148] Top shape: 1 1024 60 60 (3686400)
I0706 14:05:46.061702 27901 net.cpp:156] Memory required for data: 1039564800
I0706 14:05:46.061710 27901 layer_factory.hpp:77] Creating layer scale4b1_branch2c
I0706 14:05:46.061718 27901 net.cpp:91] Creating Layer scale4b1_branch2c
I0706 14:05:46.061723 27901 net.cpp:425] scale4b1_branch2c <- res4b1_branch2c
I0706 14:05:46.061730 27901 net.cpp:386] scale4b1_branch2c -> res4b1_branch2c (in-place)
I0706 14:05:46.061767 27901 layer_factory.hpp:77] Creating layer scale4b1_branch2c
I0706 14:05:46.061898 27901 net.cpp:141] Setting up scale4b1_branch2c
I0706 14:05:46.061909 27901 net.cpp:148] Top shape: 1 1024 60 60 (3686400)
I0706 14:05:46.061913 27901 net.cpp:156] Memory required for data: 1054310400
I0706 14:05:46.061921 27901 layer_factory.hpp:77] Creating layer res4b1
I0706 14:05:46.061929 27901 net.cpp:91] Creating Layer res4b1
I0706 14:05:46.061933 27901 net.cpp:425] res4b1 <- res4a_res4a_relu_0_split_1
I0706 14:05:46.061939 27901 net.cpp:425] res4b1 <- res4b1_branch2c
I0706 14:05:46.061945 27901 net.cpp:399] res4b1 -> res4b1
I0706 14:05:46.061970 27901 net.cpp:141] Setting up res4b1
I0706 14:05:46.061978 27901 net.cpp:148] Top shape: 1 1024 60 60 (3686400)
I0706 14:05:46.061982 27901 net.cpp:156] Memory required for data: 1069056000
I0706 14:05:46.061986 27901 layer_factory.hpp:77] Creating layer res4b1_relu
I0706 14:05:46.061993 27901 net.cpp:91] Creating Layer res4b1_relu
I0706 14:05:46.061996 27901 net.cpp:425] res4b1_relu <- res4b1
I0706 14:05:46.062005 27901 net.cpp:386] res4b1_relu -> res4b1 (in-place)
I0706 14:05:46.062011 27901 net.cpp:141] Setting up res4b1_relu
I0706 14:05:46.062016 27901 net.cpp:148] Top shape: 1 1024 60 60 (3686400)
I0706 14:05:46.062019 27901 net.cpp:156] Memory required for data: 1083801600
I0706 14:05:46.062023 27901 layer_factory.hpp:77] Creating layer res4b1_res4b1_relu_0_split
I0706 14:05:46.062031 27901 net.cpp:91] Creating Layer res4b1_res4b1_relu_0_split
I0706 14:05:46.062033 27901 net.cpp:425] res4b1_res4b1_relu_0_split <- res4b1
I0706 14:05:46.062039 27901 net.cpp:399] res4b1_res4b1_relu_0_split -> res4b1_res4b1_relu_0_split_0
I0706 14:05:46.062046 27901 net.cpp:399] res4b1_res4b1_relu_0_split -> res4b1_res4b1_relu_0_split_1
I0706 14:05:46.062083 27901 net.cpp:141] Setting up res4b1_res4b1_relu_0_split
I0706 14:05:46.062091 27901 net.cpp:148] Top shape: 1 1024 60 60 (3686400)
I0706 14:05:46.062096 27901 net.cpp:148] Top shape: 1 1024 60 60 (3686400)
I0706 14:05:46.062111 27901 net.cpp:156] Memory required for data: 1113292800
I0706 14:05:46.062115 27901 layer_factory.hpp:77] Creating layer res4b2_branch2a
I0706 14:05:46.062125 27901 net.cpp:91] Creating Layer res4b2_branch2a
I0706 14:05:46.062129 27901 net.cpp:425] res4b2_branch2a <- res4b1_res4b1_relu_0_split_0
I0706 14:05:46.062136 27901 net.cpp:399] res4b2_branch2a -> res4b2_branch2a
I0706 14:05:46.063114 27901 net.cpp:141] Setting up res4b2_branch2a
I0706 14:05:46.063129 27901 net.cpp:148] Top shape: 1 256 60 60 (921600)
I0706 14:05:46.063133 27901 net.cpp:156] Memory required for data: 1116979200
I0706 14:05:46.063140 27901 layer_factory.hpp:77] Creating layer bn4b2_branch2a
I0706 14:05:46.063153 27901 net.cpp:91] Creating Layer bn4b2_branch2a
I0706 14:05:46.063156 27901 net.cpp:425] bn4b2_branch2a <- res4b2_branch2a
I0706 14:05:46.063163 27901 net.cpp:386] bn4b2_branch2a -> res4b2_branch2a (in-place)
I0706 14:05:46.063374 27901 net.cpp:141] Setting up bn4b2_branch2a
I0706 14:05:46.063383 27901 net.cpp:148] Top shape: 1 256 60 60 (921600)
I0706 14:05:46.063387 27901 net.cpp:156] Memory required for data: 1120665600
I0706 14:05:46.063396 27901 layer_factory.hpp:77] Creating layer scale4b2_branch2a
I0706 14:05:46.063405 27901 net.cpp:91] Creating Layer scale4b2_branch2a
I0706 14:05:46.063410 27901 net.cpp:425] scale4b2_branch2a <- res4b2_branch2a
I0706 14:05:46.063415 27901 net.cpp:386] scale4b2_branch2a -> res4b2_branch2a (in-place)
I0706 14:05:46.063457 27901 layer_factory.hpp:77] Creating layer scale4b2_branch2a
I0706 14:05:46.063580 27901 net.cpp:141] Setting up scale4b2_branch2a
I0706 14:05:46.063588 27901 net.cpp:148] Top shape: 1 256 60 60 (921600)
I0706 14:05:46.063591 27901 net.cpp:156] Memory required for data: 1124352000
I0706 14:05:46.063599 27901 layer_factory.hpp:77] Creating layer res4b2_branch2a_relu
I0706 14:05:46.063609 27901 net.cpp:91] Creating Layer res4b2_branch2a_relu
I0706 14:05:46.063613 27901 net.cpp:425] res4b2_branch2a_relu <- res4b2_branch2a
I0706 14:05:46.063618 27901 net.cpp:386] res4b2_branch2a_relu -> res4b2_branch2a (in-place)
I0706 14:05:46.063626 27901 net.cpp:141] Setting up res4b2_branch2a_relu
I0706 14:05:46.063630 27901 net.cpp:148] Top shape: 1 256 60 60 (921600)
I0706 14:05:46.063634 27901 net.cpp:156] Memory required for data: 1128038400
I0706 14:05:46.063638 27901 layer_factory.hpp:77] Creating layer res4b2_branch2b
I0706 14:05:46.063650 27901 net.cpp:91] Creating Layer res4b2_branch2b
I0706 14:05:46.063654 27901 net.cpp:425] res4b2_branch2b <- res4b2_branch2a
I0706 14:05:46.063659 27901 net.cpp:399] res4b2_branch2b -> res4b2_branch2b
I0706 14:05:46.065560 27901 net.cpp:141] Setting up res4b2_branch2b
I0706 14:05:46.065582 27901 net.cpp:148] Top shape: 1 256 60 60 (921600)
I0706 14:05:46.065587 27901 net.cpp:156] Memory required for data: 1131724800
I0706 14:05:46.065596 27901 layer_factory.hpp:77] Creating layer bn4b2_branch2b
I0706 14:05:46.065608 27901 net.cpp:91] Creating Layer bn4b2_branch2b
I0706 14:05:46.065613 27901 net.cpp:425] bn4b2_branch2b <- res4b2_branch2b
I0706 14:05:46.065621 27901 net.cpp:386] bn4b2_branch2b -> res4b2_branch2b (in-place)
I0706 14:05:46.065827 27901 net.cpp:141] Setting up bn4b2_branch2b
I0706 14:05:46.065837 27901 net.cpp:148] Top shape: 1 256 60 60 (921600)
I0706 14:05:46.065840 27901 net.cpp:156] Memory required for data: 1135411200
I0706 14:05:46.065851 27901 layer_factory.hpp:77] Creating layer scale4b2_branch2b
I0706 14:05:46.065861 27901 net.cpp:91] Creating Layer scale4b2_branch2b
I0706 14:05:46.065866 27901 net.cpp:425] scale4b2_branch2b <- res4b2_branch2b
I0706 14:05:46.065872 27901 net.cpp:386] scale4b2_branch2b -> res4b2_branch2b (in-place)
I0706 14:05:46.065912 27901 layer_factory.hpp:77] Creating layer scale4b2_branch2b
I0706 14:05:46.066046 27901 net.cpp:141] Setting up scale4b2_branch2b
I0706 14:05:46.066057 27901 net.cpp:148] Top shape: 1 256 60 60 (921600)
I0706 14:05:46.066061 27901 net.cpp:156] Memory required for data: 1139097600
I0706 14:05:46.066069 27901 layer_factory.hpp:77] Creating layer res4b2_branch2b_relu
I0706 14:05:46.066092 27901 net.cpp:91] Creating Layer res4b2_branch2b_relu
I0706 14:05:46.066097 27901 net.cpp:425] res4b2_branch2b_relu <- res4b2_branch2b
I0706 14:05:46.066102 27901 net.cpp:386] res4b2_branch2b_relu -> res4b2_branch2b (in-place)
I0706 14:05:46.066109 27901 net.cpp:141] Setting up res4b2_branch2b_relu
I0706 14:05:46.066114 27901 net.cpp:148] Top shape: 1 256 60 60 (921600)
I0706 14:05:46.066118 27901 net.cpp:156] Memory required for data: 1142784000
I0706 14:05:46.066123 27901 layer_factory.hpp:77] Creating layer res4b2_branch2c
I0706 14:05:46.066133 27901 net.cpp:91] Creating Layer res4b2_branch2c
I0706 14:05:46.066135 27901 net.cpp:425] res4b2_branch2c <- res4b2_branch2b
I0706 14:05:46.066144 27901 net.cpp:399] res4b2_branch2c -> res4b2_branch2c
I0706 14:05:46.067123 27901 net.cpp:141] Setting up res4b2_branch2c
I0706 14:05:46.067147 27901 net.cpp:148] Top shape: 1 1024 60 60 (3686400)
I0706 14:05:46.067150 27901 net.cpp:156] Memory required for data: 1157529600
I0706 14:05:46.067157 27901 layer_factory.hpp:77] Creating layer bn4b2_branch2c
I0706 14:05:46.067167 27901 net.cpp:91] Creating Layer bn4b2_branch2c
I0706 14:05:46.067172 27901 net.cpp:425] bn4b2_branch2c <- res4b2_branch2c
I0706 14:05:46.067179 27901 net.cpp:386] bn4b2_branch2c -> res4b2_branch2c (in-place)
I0706 14:05:46.067390 27901 net.cpp:141] Setting up bn4b2_branch2c
I0706 14:05:46.067400 27901 net.cpp:148] Top shape: 1 1024 60 60 (3686400)
I0706 14:05:46.067404 27901 net.cpp:156] Memory required for data: 1172275200
I0706 14:05:46.067420 27901 layer_factory.hpp:77] Creating layer scale4b2_branch2c
I0706 14:05:46.067431 27901 net.cpp:91] Creating Layer scale4b2_branch2c
I0706 14:05:46.067436 27901 net.cpp:425] scale4b2_branch2c <- res4b2_branch2c
I0706 14:05:46.067442 27901 net.cpp:386] scale4b2_branch2c -> res4b2_branch2c (in-place)
I0706 14:05:46.067481 27901 layer_factory.hpp:77] Creating layer scale4b2_branch2c
I0706 14:05:46.067610 27901 net.cpp:141] Setting up scale4b2_branch2c
I0706 14:05:46.067620 27901 net.cpp:148] Top shape: 1 1024 60 60 (3686400)
I0706 14:05:46.067623 27901 net.cpp:156] Memory required for data: 1187020800
I0706 14:05:46.067631 27901 layer_factory.hpp:77] Creating layer res4b2
I0706 14:05:46.067638 27901 net.cpp:91] Creating Layer res4b2
I0706 14:05:46.067643 27901 net.cpp:425] res4b2 <- res4b1_res4b1_relu_0_split_1
I0706 14:05:46.067648 27901 net.cpp:425] res4b2 <- res4b2_branch2c
I0706 14:05:46.067658 27901 net.cpp:399] res4b2 -> res4b2
I0706 14:05:46.067687 27901 net.cpp:141] Setting up res4b2
I0706 14:05:46.067694 27901 net.cpp:148] Top shape: 1 1024 60 60 (3686400)
I0706 14:05:46.067698 27901 net.cpp:156] Memory required for data: 1201766400
I0706 14:05:46.067701 27901 layer_factory.hpp:77] Creating layer res4b2_relu
I0706 14:05:46.067708 27901 net.cpp:91] Creating Layer res4b2_relu
I0706 14:05:46.067713 27901 net.cpp:425] res4b2_relu <- res4b2
I0706 14:05:46.067718 27901 net.cpp:386] res4b2_relu -> res4b2 (in-place)
I0706 14:05:46.067724 27901 net.cpp:141] Setting up res4b2_relu
I0706 14:05:46.067728 27901 net.cpp:148] Top shape: 1 1024 60 60 (3686400)
I0706 14:05:46.067733 27901 net.cpp:156] Memory required for data: 1216512000
I0706 14:05:46.067736 27901 layer_factory.hpp:77] Creating layer res4b2_res4b2_relu_0_split
I0706 14:05:46.067744 27901 net.cpp:91] Creating Layer res4b2_res4b2_relu_0_split
I0706 14:05:46.067749 27901 net.cpp:425] res4b2_res4b2_relu_0_split <- res4b2
I0706 14:05:46.067754 27901 net.cpp:399] res4b2_res4b2_relu_0_split -> res4b2_res4b2_relu_0_split_0
I0706 14:05:46.067760 27901 net.cpp:399] res4b2_res4b2_relu_0_split -> res4b2_res4b2_relu_0_split_1
I0706 14:05:46.067796 27901 net.cpp:141] Setting up res4b2_res4b2_relu_0_split
I0706 14:05:46.067803 27901 net.cpp:148] Top shape: 1 1024 60 60 (3686400)
I0706 14:05:46.067808 27901 net.cpp:148] Top shape: 1 1024 60 60 (3686400)
I0706 14:05:46.067812 27901 net.cpp:156] Memory required for data: 1246003200
I0706 14:05:46.067816 27901 layer_factory.hpp:77] Creating layer res4b3_branch2a
I0706 14:05:46.067837 27901 net.cpp:91] Creating Layer res4b3_branch2a
I0706 14:05:46.067842 27901 net.cpp:425] res4b3_branch2a <- res4b2_res4b2_relu_0_split_0
I0706 14:05:46.067850 27901 net.cpp:399] res4b3_branch2a -> res4b3_branch2a
I0706 14:05:46.068737 27901 net.cpp:141] Setting up res4b3_branch2a
I0706 14:05:46.068753 27901 net.cpp:148] Top shape: 1 256 60 60 (921600)
I0706 14:05:46.068756 27901 net.cpp:156] Memory required for data: 1249689600
I0706 14:05:46.068763 27901 layer_factory.hpp:77] Creating layer bn4b3_branch2a
I0706 14:05:46.068773 27901 net.cpp:91] Creating Layer bn4b3_branch2a
I0706 14:05:46.068778 27901 net.cpp:425] bn4b3_branch2a <- res4b3_branch2a
I0706 14:05:46.068783 27901 net.cpp:386] bn4b3_branch2a -> res4b3_branch2a (in-place)
I0706 14:05:46.069555 27901 net.cpp:141] Setting up bn4b3_branch2a
I0706 14:05:46.069568 27901 net.cpp:148] Top shape: 1 256 60 60 (921600)
I0706 14:05:46.069572 27901 net.cpp:156] Memory required for data: 1253376000
I0706 14:05:46.069583 27901 layer_factory.hpp:77] Creating layer scale4b3_branch2a
I0706 14:05:46.069594 27901 net.cpp:91] Creating Layer scale4b3_branch2a
I0706 14:05:46.069599 27901 net.cpp:425] scale4b3_branch2a <- res4b3_branch2a
I0706 14:05:46.069605 27901 net.cpp:386] scale4b3_branch2a -> res4b3_branch2a (in-place)
I0706 14:05:46.069648 27901 layer_factory.hpp:77] Creating layer scale4b3_branch2a
I0706 14:05:46.069771 27901 net.cpp:141] Setting up scale4b3_branch2a
I0706 14:05:46.069780 27901 net.cpp:148] Top shape: 1 256 60 60 (921600)
I0706 14:05:46.069784 27901 net.cpp:156] Memory required for data: 1257062400
I0706 14:05:46.069792 27901 layer_factory.hpp:77] Creating layer res4b3_branch2a_relu
I0706 14:05:46.069799 27901 net.cpp:91] Creating Layer res4b3_branch2a_relu
I0706 14:05:46.069803 27901 net.cpp:425] res4b3_branch2a_relu <- res4b3_branch2a
I0706 14:05:46.069808 27901 net.cpp:386] res4b3_branch2a_relu -> res4b3_branch2a (in-place)
I0706 14:05:46.069815 27901 net.cpp:141] Setting up res4b3_branch2a_relu
I0706 14:05:46.069819 27901 net.cpp:148] Top shape: 1 256 60 60 (921600)
I0706 14:05:46.069823 27901 net.cpp:156] Memory required for data: 1260748800
I0706 14:05:46.069828 27901 layer_factory.hpp:77] Creating layer res4b3_branch2b
I0706 14:05:46.069836 27901 net.cpp:91] Creating Layer res4b3_branch2b
I0706 14:05:46.069839 27901 net.cpp:425] res4b3_branch2b <- res4b3_branch2a
I0706 14:05:46.069847 27901 net.cpp:399] res4b3_branch2b -> res4b3_branch2b
I0706 14:05:46.071480 27901 net.cpp:141] Setting up res4b3_branch2b
I0706 14:05:46.071496 27901 net.cpp:148] Top shape: 1 256 60 60 (921600)
I0706 14:05:46.071499 27901 net.cpp:156] Memory required for data: 1264435200
I0706 14:05:46.071507 27901 layer_factory.hpp:77] Creating layer bn4b3_branch2b
I0706 14:05:46.071516 27901 net.cpp:91] Creating Layer bn4b3_branch2b
I0706 14:05:46.071521 27901 net.cpp:425] bn4b3_branch2b <- res4b3_branch2b
I0706 14:05:46.071745 27901 net.cpp:386] bn4b3_branch2b -> res4b3_branch2b (in-place)
I0706 14:05:46.071969 27901 net.cpp:141] Setting up bn4b3_branch2b
I0706 14:05:46.071979 27901 net.cpp:148] Top shape: 1 256 60 60 (921600)
I0706 14:05:46.071984 27901 net.cpp:156] Memory required for data: 1268121600
I0706 14:05:46.071995 27901 layer_factory.hpp:77] Creating layer scale4b3_branch2b
I0706 14:05:46.072005 27901 net.cpp:91] Creating Layer scale4b3_branch2b
I0706 14:05:46.072010 27901 net.cpp:425] scale4b3_branch2b <- res4b3_branch2b
I0706 14:05:46.072017 27901 net.cpp:386] scale4b3_branch2b -> res4b3_branch2b (in-place)
I0706 14:05:46.072059 27901 layer_factory.hpp:77] Creating layer scale4b3_branch2b
I0706 14:05:46.072183 27901 net.cpp:141] Setting up scale4b3_branch2b
I0706 14:05:46.072192 27901 net.cpp:148] Top shape: 1 256 60 60 (921600)
I0706 14:05:46.072196 27901 net.cpp:156] Memory required for data: 1271808000
I0706 14:05:46.072204 27901 layer_factory.hpp:77] Creating layer res4b3_branch2b_relu
I0706 14:05:46.072211 27901 net.cpp:91] Creating Layer res4b3_branch2b_relu
I0706 14:05:46.072214 27901 net.cpp:425] res4b3_branch2b_relu <- res4b3_branch2b
I0706 14:05:46.072221 27901 net.cpp:386] res4b3_branch2b_relu -> res4b3_branch2b (in-place)
I0706 14:05:46.072239 27901 net.cpp:141] Setting up res4b3_branch2b_relu
I0706 14:05:46.072245 27901 net.cpp:148] Top shape: 1 256 60 60 (921600)
I0706 14:05:46.072248 27901 net.cpp:156] Memory required for data: 1275494400
I0706 14:05:46.072252 27901 layer_factory.hpp:77] Creating layer res4b3_branch2c
I0706 14:05:46.072263 27901 net.cpp:91] Creating Layer res4b3_branch2c
I0706 14:05:46.072268 27901 net.cpp:425] res4b3_branch2c <- res4b3_branch2b
I0706 14:05:46.072274 27901 net.cpp:399] res4b3_branch2c -> res4b3_branch2c
I0706 14:05:46.073408 27901 net.cpp:141] Setting up res4b3_branch2c
I0706 14:05:46.073424 27901 net.cpp:148] Top shape: 1 1024 60 60 (3686400)
I0706 14:05:46.073428 27901 net.cpp:156] Memory required for data: 1290240000
I0706 14:05:46.073436 27901 layer_factory.hpp:77] Creating layer bn4b3_branch2c
I0706 14:05:46.073446 27901 net.cpp:91] Creating Layer bn4b3_branch2c
I0706 14:05:46.073451 27901 net.cpp:425] bn4b3_branch2c <- res4b3_branch2c
I0706 14:05:46.073460 27901 net.cpp:386] bn4b3_branch2c -> res4b3_branch2c (in-place)
I0706 14:05:46.073663 27901 net.cpp:141] Setting up bn4b3_branch2c
I0706 14:05:46.073673 27901 net.cpp:148] Top shape: 1 1024 60 60 (3686400)
I0706 14:05:46.073678 27901 net.cpp:156] Memory required for data: 1304985600
I0706 14:05:46.073688 27901 layer_factory.hpp:77] Creating layer scale4b3_branch2c
I0706 14:05:46.073696 27901 net.cpp:91] Creating Layer scale4b3_branch2c
I0706 14:05:46.073700 27901 net.cpp:425] scale4b3_branch2c <- res4b3_branch2c
I0706 14:05:46.073706 27901 net.cpp:386] scale4b3_branch2c -> res4b3_branch2c (in-place)
I0706 14:05:46.073747 27901 layer_factory.hpp:77] Creating layer scale4b3_branch2c
I0706 14:05:46.073874 27901 net.cpp:141] Setting up scale4b3_branch2c
I0706 14:05:46.073884 27901 net.cpp:148] Top shape: 1 1024 60 60 (3686400)
I0706 14:05:46.073889 27901 net.cpp:156] Memory required for data: 1319731200
I0706 14:05:46.073896 27901 layer_factory.hpp:77] Creating layer res4b3
I0706 14:05:46.073904 27901 net.cpp:91] Creating Layer res4b3
I0706 14:05:46.073907 27901 net.cpp:425] res4b3 <- res4b2_res4b2_relu_0_split_1
I0706 14:05:46.073912 27901 net.cpp:425] res4b3 <- res4b3_branch2c
I0706 14:05:46.073918 27901 net.cpp:399] res4b3 -> res4b3
I0706 14:05:46.073945 27901 net.cpp:141] Setting up res4b3
I0706 14:05:46.073952 27901 net.cpp:148] Top shape: 1 1024 60 60 (3686400)
I0706 14:05:46.073956 27901 net.cpp:156] Memory required for data: 1334476800
I0706 14:05:46.073961 27901 layer_factory.hpp:77] Creating layer res4b3_relu
I0706 14:05:46.073967 27901 net.cpp:91] Creating Layer res4b3_relu
I0706 14:05:46.073971 27901 net.cpp:425] res4b3_relu <- res4b3
I0706 14:05:46.073978 27901 net.cpp:386] res4b3_relu -> res4b3 (in-place)
I0706 14:05:46.073985 27901 net.cpp:141] Setting up res4b3_relu
I0706 14:05:46.073990 27901 net.cpp:148] Top shape: 1 1024 60 60 (3686400)
I0706 14:05:46.073993 27901 net.cpp:156] Memory required for data: 1349222400
I0706 14:05:46.073998 27901 layer_factory.hpp:77] Creating layer res4b3_res4b3_relu_0_split
I0706 14:05:46.074004 27901 net.cpp:91] Creating Layer res4b3_res4b3_relu_0_split
I0706 14:05:46.074008 27901 net.cpp:425] res4b3_res4b3_relu_0_split <- res4b3
I0706 14:05:46.074013 27901 net.cpp:399] res4b3_res4b3_relu_0_split -> res4b3_res4b3_relu_0_split_0
I0706 14:05:46.074020 27901 net.cpp:399] res4b3_res4b3_relu_0_split -> res4b3_res4b3_relu_0_split_1
I0706 14:05:46.074056 27901 net.cpp:141] Setting up res4b3_res4b3_relu_0_split
I0706 14:05:46.074064 27901 net.cpp:148] Top shape: 1 1024 60 60 (3686400)
I0706 14:05:46.074069 27901 net.cpp:148] Top shape: 1 1024 60 60 (3686400)
I0706 14:05:46.074072 27901 net.cpp:156] Memory required for data: 1378713600
I0706 14:05:46.074076 27901 layer_factory.hpp:77] Creating layer res4b4_branch2a
I0706 14:05:46.074085 27901 net.cpp:91] Creating Layer res4b4_branch2a
I0706 14:05:46.074090 27901 net.cpp:425] res4b4_branch2a <- res4b3_res4b3_relu_0_split_0
I0706 14:05:46.074097 27901 net.cpp:399] res4b4_branch2a -> res4b4_branch2a
I0706 14:05:46.074982 27901 net.cpp:141] Setting up res4b4_branch2a
I0706 14:05:46.074997 27901 net.cpp:148] Top shape: 1 256 60 60 (921600)
I0706 14:05:46.075001 27901 net.cpp:156] Memory required for data: 1382400000
I0706 14:05:46.075008 27901 layer_factory.hpp:77] Creating layer bn4b4_branch2a
I0706 14:05:46.075018 27901 net.cpp:91] Creating Layer bn4b4_branch2a
I0706 14:05:46.075022 27901 net.cpp:425] bn4b4_branch2a <- res4b4_branch2a
I0706 14:05:46.075031 27901 net.cpp:386] bn4b4_branch2a -> res4b4_branch2a (in-place)
I0706 14:05:46.075227 27901 net.cpp:141] Setting up bn4b4_branch2a
I0706 14:05:46.075237 27901 net.cpp:148] Top shape: 1 256 60 60 (921600)
I0706 14:05:46.075240 27901 net.cpp:156] Memory required for data: 1386086400
I0706 14:05:46.075250 27901 layer_factory.hpp:77] Creating layer scale4b4_branch2a
I0706 14:05:46.075259 27901 net.cpp:91] Creating Layer scale4b4_branch2a
I0706 14:05:46.075264 27901 net.cpp:425] scale4b4_branch2a <- res4b4_branch2a
I0706 14:05:46.075270 27901 net.cpp:386] scale4b4_branch2a -> res4b4_branch2a (in-place)
I0706 14:05:46.075310 27901 layer_factory.hpp:77] Creating layer scale4b4_branch2a
I0706 14:05:46.075431 27901 net.cpp:141] Setting up scale4b4_branch2a
I0706 14:05:46.075440 27901 net.cpp:148] Top shape: 1 256 60 60 (921600)
I0706 14:05:46.075444 27901 net.cpp:156] Memory required for data: 1389772800
I0706 14:05:46.075453 27901 layer_factory.hpp:77] Creating layer res4b4_branch2a_relu
I0706 14:05:46.075460 27901 net.cpp:91] Creating Layer res4b4_branch2a_relu
I0706 14:05:46.075464 27901 net.cpp:425] res4b4_branch2a_relu <- res4b4_branch2a
I0706 14:05:46.075469 27901 net.cpp:386] res4b4_branch2a_relu -> res4b4_branch2a (in-place)
I0706 14:05:46.075476 27901 net.cpp:141] Setting up res4b4_branch2a_relu
I0706 14:05:46.075481 27901 net.cpp:148] Top shape: 1 256 60 60 (921600)
I0706 14:05:46.075485 27901 net.cpp:156] Memory required for data: 1393459200
I0706 14:05:46.075489 27901 layer_factory.hpp:77] Creating layer res4b4_branch2b
I0706 14:05:46.075497 27901 net.cpp:91] Creating Layer res4b4_branch2b
I0706 14:05:46.075501 27901 net.cpp:425] res4b4_branch2b <- res4b4_branch2a
I0706 14:05:46.075508 27901 net.cpp:399] res4b4_branch2b -> res4b4_branch2b
I0706 14:05:46.076967 27901 net.cpp:141] Setting up res4b4_branch2b
I0706 14:05:46.076984 27901 net.cpp:148] Top shape: 1 256 60 60 (921600)
I0706 14:05:46.076988 27901 net.cpp:156] Memory required for data: 1397145600
I0706 14:05:46.076995 27901 layer_factory.hpp:77] Creating layer bn4b4_branch2b
I0706 14:05:46.077004 27901 net.cpp:91] Creating Layer bn4b4_branch2b
I0706 14:05:46.077008 27901 net.cpp:425] bn4b4_branch2b <- res4b4_branch2b
I0706 14:05:46.077015 27901 net.cpp:386] bn4b4_branch2b -> res4b4_branch2b (in-place)
I0706 14:05:46.077213 27901 net.cpp:141] Setting up bn4b4_branch2b
I0706 14:05:46.077221 27901 net.cpp:148] Top shape: 1 256 60 60 (921600)
I0706 14:05:46.077225 27901 net.cpp:156] Memory required for data: 1400832000
I0706 14:05:46.077234 27901 layer_factory.hpp:77] Creating layer scale4b4_branch2b
I0706 14:05:46.077244 27901 net.cpp:91] Creating Layer scale4b4_branch2b
I0706 14:05:46.077249 27901 net.cpp:425] scale4b4_branch2b <- res4b4_branch2b
I0706 14:05:46.077255 27901 net.cpp:386] scale4b4_branch2b -> res4b4_branch2b (in-place)
I0706 14:05:46.077296 27901 layer_factory.hpp:77] Creating layer scale4b4_branch2b
I0706 14:05:46.077417 27901 net.cpp:141] Setting up scale4b4_branch2b
I0706 14:05:46.077426 27901 net.cpp:148] Top shape: 1 256 60 60 (921600)
I0706 14:05:46.077430 27901 net.cpp:156] Memory required for data: 1404518400
I0706 14:05:46.077438 27901 layer_factory.hpp:77] Creating layer res4b4_branch2b_relu
I0706 14:05:46.077446 27901 net.cpp:91] Creating Layer res4b4_branch2b_relu
I0706 14:05:46.077451 27901 net.cpp:425] res4b4_branch2b_relu <- res4b4_branch2b
I0706 14:05:46.077456 27901 net.cpp:386] res4b4_branch2b_relu -> res4b4_branch2b (in-place)
I0706 14:05:46.077462 27901 net.cpp:141] Setting up res4b4_branch2b_relu
I0706 14:05:46.077467 27901 net.cpp:148] Top shape: 1 256 60 60 (921600)
I0706 14:05:46.077481 27901 net.cpp:156] Memory required for data: 1408204800
I0706 14:05:46.077486 27901 layer_factory.hpp:77] Creating layer res4b4_branch2c
I0706 14:05:46.077504 27901 net.cpp:91] Creating Layer res4b4_branch2c
I0706 14:05:46.077510 27901 net.cpp:425] res4b4_branch2c <- res4b4_branch2b
I0706 14:05:46.077518 27901 net.cpp:399] res4b4_branch2c -> res4b4_branch2c
I0706 14:05:46.078460 27901 net.cpp:141] Setting up res4b4_branch2c
I0706 14:05:46.078476 27901 net.cpp:148] Top shape: 1 1024 60 60 (3686400)
I0706 14:05:46.078480 27901 net.cpp:156] Memory required for data: 1422950400
I0706 14:05:46.078487 27901 layer_factory.hpp:77] Creating layer bn4b4_branch2c
I0706 14:05:46.078496 27901 net.cpp:91] Creating Layer bn4b4_branch2c
I0706 14:05:46.078501 27901 net.cpp:425] bn4b4_branch2c <- res4b4_branch2c
I0706 14:05:46.078507 27901 net.cpp:386] bn4b4_branch2c -> res4b4_branch2c (in-place)
I0706 14:05:46.078708 27901 net.cpp:141] Setting up bn4b4_branch2c
I0706 14:05:46.078717 27901 net.cpp:148] Top shape: 1 1024 60 60 (3686400)
I0706 14:05:46.078722 27901 net.cpp:156] Memory required for data: 1437696000
I0706 14:05:46.078730 27901 layer_factory.hpp:77] Creating layer scale4b4_branch2c
I0706 14:05:46.078740 27901 net.cpp:91] Creating Layer scale4b4_branch2c
I0706 14:05:46.078744 27901 net.cpp:425] scale4b4_branch2c <- res4b4_branch2c
I0706 14:05:46.078750 27901 net.cpp:386] scale4b4_branch2c -> res4b4_branch2c (in-place)
I0706 14:05:46.078795 27901 layer_factory.hpp:77] Creating layer scale4b4_branch2c
I0706 14:05:46.078924 27901 net.cpp:141] Setting up scale4b4_branch2c
I0706 14:05:46.078933 27901 net.cpp:148] Top shape: 1 1024 60 60 (3686400)
I0706 14:05:46.078938 27901 net.cpp:156] Memory required for data: 1452441600
I0706 14:05:46.078944 27901 layer_factory.hpp:77] Creating layer res4b4
I0706 14:05:46.078953 27901 net.cpp:91] Creating Layer res4b4
I0706 14:05:46.078958 27901 net.cpp:425] res4b4 <- res4b3_res4b3_relu_0_split_1
I0706 14:05:46.078966 27901 net.cpp:425] res4b4 <- res4b4_branch2c
I0706 14:05:46.078972 27901 net.cpp:399] res4b4 -> res4b4
I0706 14:05:46.078997 27901 net.cpp:141] Setting up res4b4
I0706 14:05:46.079005 27901 net.cpp:148] Top shape: 1 1024 60 60 (3686400)
I0706 14:05:46.079008 27901 net.cpp:156] Memory required for data: 1467187200
I0706 14:05:46.079012 27901 layer_factory.hpp:77] Creating layer res4b4_relu
I0706 14:05:46.079021 27901 net.cpp:91] Creating Layer res4b4_relu
I0706 14:05:46.079025 27901 net.cpp:425] res4b4_relu <- res4b4
I0706 14:05:46.079030 27901 net.cpp:386] res4b4_relu -> res4b4 (in-place)
I0706 14:05:46.079037 27901 net.cpp:141] Setting up res4b4_relu
I0706 14:05:46.079042 27901 net.cpp:148] Top shape: 1 1024 60 60 (3686400)
I0706 14:05:46.079046 27901 net.cpp:156] Memory required for data: 1481932800
I0706 14:05:46.079049 27901 layer_factory.hpp:77] Creating layer res4b4_res4b4_relu_0_split
I0706 14:05:46.079057 27901 net.cpp:91] Creating Layer res4b4_res4b4_relu_0_split
I0706 14:05:46.079061 27901 net.cpp:425] res4b4_res4b4_relu_0_split <- res4b4
I0706 14:05:46.079066 27901 net.cpp:399] res4b4_res4b4_relu_0_split -> res4b4_res4b4_relu_0_split_0
I0706 14:05:46.079073 27901 net.cpp:399] res4b4_res4b4_relu_0_split -> res4b4_res4b4_relu_0_split_1
I0706 14:05:46.079109 27901 net.cpp:141] Setting up res4b4_res4b4_relu_0_split
I0706 14:05:46.079115 27901 net.cpp:148] Top shape: 1 1024 60 60 (3686400)
I0706 14:05:46.079120 27901 net.cpp:148] Top shape: 1 1024 60 60 (3686400)
I0706 14:05:46.079124 27901 net.cpp:156] Memory required for data: 1511424000
I0706 14:05:46.079128 27901 layer_factory.hpp:77] Creating layer res4b5_branch2a
I0706 14:05:46.079136 27901 net.cpp:91] Creating Layer res4b5_branch2a
I0706 14:05:46.079140 27901 net.cpp:425] res4b5_branch2a <- res4b4_res4b4_relu_0_split_0
I0706 14:05:46.079146 27901 net.cpp:399] res4b5_branch2a -> res4b5_branch2a
I0706 14:05:46.080082 27901 net.cpp:141] Setting up res4b5_branch2a
I0706 14:05:46.080096 27901 net.cpp:148] Top shape: 1 256 60 60 (921600)
I0706 14:05:46.080101 27901 net.cpp:156] Memory required for data: 1515110400
I0706 14:05:46.080117 27901 layer_factory.hpp:77] Creating layer bn4b5_branch2a
I0706 14:05:46.080127 27901 net.cpp:91] Creating Layer bn4b5_branch2a
I0706 14:05:46.080132 27901 net.cpp:425] bn4b5_branch2a <- res4b5_branch2a
I0706 14:05:46.080138 27901 net.cpp:386] bn4b5_branch2a -> res4b5_branch2a (in-place)
I0706 14:05:46.080340 27901 net.cpp:141] Setting up bn4b5_branch2a
I0706 14:05:46.080349 27901 net.cpp:148] Top shape: 1 256 60 60 (921600)
I0706 14:05:46.080353 27901 net.cpp:156] Memory required for data: 1518796800
I0706 14:05:46.080363 27901 layer_factory.hpp:77] Creating layer scale4b5_branch2a
I0706 14:05:46.080370 27901 net.cpp:91] Creating Layer scale4b5_branch2a
I0706 14:05:46.080374 27901 net.cpp:425] scale4b5_branch2a <- res4b5_branch2a
I0706 14:05:46.080390 27901 net.cpp:386] scale4b5_branch2a -> res4b5_branch2a (in-place)
I0706 14:05:46.080431 27901 layer_factory.hpp:77] Creating layer scale4b5_branch2a
I0706 14:05:46.080560 27901 net.cpp:141] Setting up scale4b5_branch2a
I0706 14:05:46.080571 27901 net.cpp:148] Top shape: 1 256 60 60 (921600)
I0706 14:05:46.080575 27901 net.cpp:156] Memory required for data: 1522483200
I0706 14:05:46.080584 27901 layer_factory.hpp:77] Creating layer res4b5_branch2a_relu
I0706 14:05:46.080590 27901 net.cpp:91] Creating Layer res4b5_branch2a_relu
I0706 14:05:46.080593 27901 net.cpp:425] res4b5_branch2a_relu <- res4b5_branch2a
I0706 14:05:46.080600 27901 net.cpp:386] res4b5_branch2a_relu -> res4b5_branch2a (in-place)
I0706 14:05:46.080607 27901 net.cpp:141] Setting up res4b5_branch2a_relu
I0706 14:05:46.080612 27901 net.cpp:148] Top shape: 1 256 60 60 (921600)
I0706 14:05:46.080616 27901 net.cpp:156] Memory required for data: 1526169600
I0706 14:05:46.080621 27901 layer_factory.hpp:77] Creating layer res4b5_branch2b
I0706 14:05:46.080629 27901 net.cpp:91] Creating Layer res4b5_branch2b
I0706 14:05:46.080633 27901 net.cpp:425] res4b5_branch2b <- res4b5_branch2a
I0706 14:05:46.080639 27901 net.cpp:399] res4b5_branch2b -> res4b5_branch2b
I0706 14:05:46.082275 27901 net.cpp:141] Setting up res4b5_branch2b
I0706 14:05:46.082290 27901 net.cpp:148] Top shape: 1 256 60 60 (921600)
I0706 14:05:46.082294 27901 net.cpp:156] Memory required for data: 1529856000
I0706 14:05:46.082301 27901 layer_factory.hpp:77] Creating layer bn4b5_branch2b
I0706 14:05:46.082312 27901 net.cpp:91] Creating Layer bn4b5_branch2b
I0706 14:05:46.082316 27901 net.cpp:425] bn4b5_branch2b <- res4b5_branch2b
I0706 14:05:46.082322 27901 net.cpp:386] bn4b5_branch2b -> res4b5_branch2b (in-place)
I0706 14:05:46.082530 27901 net.cpp:141] Setting up bn4b5_branch2b
I0706 14:05:46.082540 27901 net.cpp:148] Top shape: 1 256 60 60 (921600)
I0706 14:05:46.082543 27901 net.cpp:156] Memory required for data: 1533542400
I0706 14:05:46.082552 27901 layer_factory.hpp:77] Creating layer scale4b5_branch2b
I0706 14:05:46.082561 27901 net.cpp:91] Creating Layer scale4b5_branch2b
I0706 14:05:46.082566 27901 net.cpp:425] scale4b5_branch2b <- res4b5_branch2b
I0706 14:05:46.082573 27901 net.cpp:386] scale4b5_branch2b -> res4b5_branch2b (in-place)
I0706 14:05:46.082614 27901 layer_factory.hpp:77] Creating layer scale4b5_branch2b
I0706 14:05:46.082742 27901 net.cpp:141] Setting up scale4b5_branch2b
I0706 14:05:46.082751 27901 net.cpp:148] Top shape: 1 256 60 60 (921600)
I0706 14:05:46.082756 27901 net.cpp:156] Memory required for data: 1537228800
I0706 14:05:46.082763 27901 layer_factory.hpp:77] Creating layer res4b5_branch2b_relu
I0706 14:05:46.082770 27901 net.cpp:91] Creating Layer res4b5_branch2b_relu
I0706 14:05:46.082774 27901 net.cpp:425] res4b5_branch2b_relu <- res4b5_branch2b
I0706 14:05:46.082782 27901 net.cpp:386] res4b5_branch2b_relu -> res4b5_branch2b (in-place)
I0706 14:05:46.082787 27901 net.cpp:141] Setting up res4b5_branch2b_relu
I0706 14:05:46.082792 27901 net.cpp:148] Top shape: 1 256 60 60 (921600)
I0706 14:05:46.082797 27901 net.cpp:156] Memory required for data: 1540915200
I0706 14:05:46.082800 27901 layer_factory.hpp:77] Creating layer res4b5_branch2c
I0706 14:05:46.082808 27901 net.cpp:91] Creating Layer res4b5_branch2c
I0706 14:05:46.082823 27901 net.cpp:425] res4b5_branch2c <- res4b5_branch2b
I0706 14:05:46.082829 27901 net.cpp:399] res4b5_branch2c -> res4b5_branch2c
I0706 14:05:46.083778 27901 net.cpp:141] Setting up res4b5_branch2c
I0706 14:05:46.083793 27901 net.cpp:148] Top shape: 1 1024 60 60 (3686400)
I0706 14:05:46.083798 27901 net.cpp:156] Memory required for data: 1555660800
I0706 14:05:46.083806 27901 layer_factory.hpp:77] Creating layer bn4b5_branch2c
I0706 14:05:46.083817 27901 net.cpp:91] Creating Layer bn4b5_branch2c
I0706 14:05:46.083820 27901 net.cpp:425] bn4b5_branch2c <- res4b5_branch2c
I0706 14:05:46.083827 27901 net.cpp:386] bn4b5_branch2c -> res4b5_branch2c (in-place)
I0706 14:05:46.084033 27901 net.cpp:141] Setting up bn4b5_branch2c
I0706 14:05:46.084043 27901 net.cpp:148] Top shape: 1 1024 60 60 (3686400)
I0706 14:05:46.084046 27901 net.cpp:156] Memory required for data: 1570406400
I0706 14:05:46.084055 27901 layer_factory.hpp:77] Creating layer scale4b5_branch2c
I0706 14:05:46.084064 27901 net.cpp:91] Creating Layer scale4b5_branch2c
I0706 14:05:46.084067 27901 net.cpp:425] scale4b5_branch2c <- res4b5_branch2c
I0706 14:05:46.084075 27901 net.cpp:386] scale4b5_branch2c -> res4b5_branch2c (in-place)
I0706 14:05:46.084113 27901 layer_factory.hpp:77] Creating layer scale4b5_branch2c
I0706 14:05:46.084246 27901 net.cpp:141] Setting up scale4b5_branch2c
I0706 14:05:46.084255 27901 net.cpp:148] Top shape: 1 1024 60 60 (3686400)
I0706 14:05:46.084259 27901 net.cpp:156] Memory required for data: 1585152000
I0706 14:05:46.084313 27901 layer_factory.hpp:77] Creating layer res4b5
I0706 14:05:46.084323 27901 net.cpp:91] Creating Layer res4b5
I0706 14:05:46.084328 27901 net.cpp:425] res4b5 <- res4b4_res4b4_relu_0_split_1
I0706 14:05:46.084333 27901 net.cpp:425] res4b5 <- res4b5_branch2c
I0706 14:05:46.084339 27901 net.cpp:399] res4b5 -> res4b5
I0706 14:05:46.084367 27901 net.cpp:141] Setting up res4b5
I0706 14:05:46.084378 27901 net.cpp:148] Top shape: 1 1024 60 60 (3686400)
I0706 14:05:46.084381 27901 net.cpp:156] Memory required for data: 1599897600
I0706 14:05:46.084385 27901 layer_factory.hpp:77] Creating layer res4b5_relu
I0706 14:05:46.084393 27901 net.cpp:91] Creating Layer res4b5_relu
I0706 14:05:46.084396 27901 net.cpp:425] res4b5_relu <- res4b5
I0706 14:05:46.084401 27901 net.cpp:386] res4b5_relu -> res4b5 (in-place)
I0706 14:05:46.084408 27901 net.cpp:141] Setting up res4b5_relu
I0706 14:05:46.084413 27901 net.cpp:148] Top shape: 1 1024 60 60 (3686400)
I0706 14:05:46.084416 27901 net.cpp:156] Memory required for data: 1614643200
I0706 14:05:46.084419 27901 layer_factory.hpp:77] Creating layer res4b5_res4b5_relu_0_split
I0706 14:05:46.084426 27901 net.cpp:91] Creating Layer res4b5_res4b5_relu_0_split
I0706 14:05:46.084430 27901 net.cpp:425] res4b5_res4b5_relu_0_split <- res4b5
I0706 14:05:46.084435 27901 net.cpp:399] res4b5_res4b5_relu_0_split -> res4b5_res4b5_relu_0_split_0
I0706 14:05:46.084442 27901 net.cpp:399] res4b5_res4b5_relu_0_split -> res4b5_res4b5_relu_0_split_1
I0706 14:05:46.084488 27901 net.cpp:141] Setting up res4b5_res4b5_relu_0_split
I0706 14:05:46.084496 27901 net.cpp:148] Top shape: 1 1024 60 60 (3686400)
I0706 14:05:46.084501 27901 net.cpp:148] Top shape: 1 1024 60 60 (3686400)
I0706 14:05:46.084503 27901 net.cpp:156] Memory required for data: 1644134400
I0706 14:05:46.084507 27901 layer_factory.hpp:77] Creating layer res4b6_branch2a
I0706 14:05:46.084524 27901 net.cpp:91] Creating Layer res4b6_branch2a
I0706 14:05:46.084528 27901 net.cpp:425] res4b6_branch2a <- res4b5_res4b5_relu_0_split_0
I0706 14:05:46.084534 27901 net.cpp:399] res4b6_branch2a -> res4b6_branch2a
I0706 14:05:46.085480 27901 net.cpp:141] Setting up res4b6_branch2a
I0706 14:05:46.085495 27901 net.cpp:148] Top shape: 1 256 60 60 (921600)
I0706 14:05:46.085500 27901 net.cpp:156] Memory required for data: 1647820800
I0706 14:05:46.085506 27901 layer_factory.hpp:77] Creating layer bn4b6_branch2a
I0706 14:05:46.085516 27901 net.cpp:91] Creating Layer bn4b6_branch2a
I0706 14:05:46.085521 27901 net.cpp:425] bn4b6_branch2a <- res4b6_branch2a
I0706 14:05:46.085541 27901 net.cpp:386] bn4b6_branch2a -> res4b6_branch2a (in-place)
I0706 14:05:46.085747 27901 net.cpp:141] Setting up bn4b6_branch2a
I0706 14:05:46.085755 27901 net.cpp:148] Top shape: 1 256 60 60 (921600)
I0706 14:05:46.085759 27901 net.cpp:156] Memory required for data: 1651507200
I0706 14:05:46.085768 27901 layer_factory.hpp:77] Creating layer scale4b6_branch2a
I0706 14:05:46.085779 27901 net.cpp:91] Creating Layer scale4b6_branch2a
I0706 14:05:46.085783 27901 net.cpp:425] scale4b6_branch2a <- res4b6_branch2a
I0706 14:05:46.085789 27901 net.cpp:386] scale4b6_branch2a -> res4b6_branch2a (in-place)
I0706 14:05:46.085832 27901 layer_factory.hpp:77] Creating layer scale4b6_branch2a
I0706 14:05:46.085959 27901 net.cpp:141] Setting up scale4b6_branch2a
I0706 14:05:46.085968 27901 net.cpp:148] Top shape: 1 256 60 60 (921600)
I0706 14:05:46.085973 27901 net.cpp:156] Memory required for data: 1655193600
I0706 14:05:46.085980 27901 layer_factory.hpp:77] Creating layer res4b6_branch2a_relu
I0706 14:05:46.085988 27901 net.cpp:91] Creating Layer res4b6_branch2a_relu
I0706 14:05:46.085991 27901 net.cpp:425] res4b6_branch2a_relu <- res4b6_branch2a
I0706 14:05:46.085996 27901 net.cpp:386] res4b6_branch2a_relu -> res4b6_branch2a (in-place)
I0706 14:05:46.086002 27901 net.cpp:141] Setting up res4b6_branch2a_relu
I0706 14:05:46.086007 27901 net.cpp:148] Top shape: 1 256 60 60 (921600)
I0706 14:05:46.086011 27901 net.cpp:156] Memory required for data: 1658880000
I0706 14:05:46.086015 27901 layer_factory.hpp:77] Creating layer res4b6_branch2b
I0706 14:05:46.086025 27901 net.cpp:91] Creating Layer res4b6_branch2b
I0706 14:05:46.086030 27901 net.cpp:425] res4b6_branch2b <- res4b6_branch2a
I0706 14:05:46.086035 27901 net.cpp:399] res4b6_branch2b -> res4b6_branch2b
I0706 14:05:46.087663 27901 net.cpp:141] Setting up res4b6_branch2b
I0706 14:05:46.087678 27901 net.cpp:148] Top shape: 1 256 60 60 (921600)
I0706 14:05:46.087682 27901 net.cpp:156] Memory required for data: 1662566400
I0706 14:05:46.087689 27901 layer_factory.hpp:77] Creating layer bn4b6_branch2b
I0706 14:05:46.087699 27901 net.cpp:91] Creating Layer bn4b6_branch2b
I0706 14:05:46.087703 27901 net.cpp:425] bn4b6_branch2b <- res4b6_branch2b
I0706 14:05:46.087713 27901 net.cpp:386] bn4b6_branch2b -> res4b6_branch2b (in-place)
I0706 14:05:46.087913 27901 net.cpp:141] Setting up bn4b6_branch2b
I0706 14:05:46.087923 27901 net.cpp:148] Top shape: 1 256 60 60 (921600)
I0706 14:05:46.087926 27901 net.cpp:156] Memory required for data: 1666252800
I0706 14:05:46.087935 27901 layer_factory.hpp:77] Creating layer scale4b6_branch2b
I0706 14:05:46.087946 27901 net.cpp:91] Creating Layer scale4b6_branch2b
I0706 14:05:46.087950 27901 net.cpp:425] scale4b6_branch2b <- res4b6_branch2b
I0706 14:05:46.087955 27901 net.cpp:386] scale4b6_branch2b -> res4b6_branch2b (in-place)
I0706 14:05:46.087998 27901 layer_factory.hpp:77] Creating layer scale4b6_branch2b
I0706 14:05:46.088125 27901 net.cpp:141] Setting up scale4b6_branch2b
I0706 14:05:46.088135 27901 net.cpp:148] Top shape: 1 256 60 60 (921600)
I0706 14:05:46.088138 27901 net.cpp:156] Memory required for data: 1669939200
I0706 14:05:46.088146 27901 layer_factory.hpp:77] Creating layer res4b6_branch2b_relu
I0706 14:05:46.088153 27901 net.cpp:91] Creating Layer res4b6_branch2b_relu
I0706 14:05:46.088157 27901 net.cpp:425] res4b6_branch2b_relu <- res4b6_branch2b
I0706 14:05:46.088162 27901 net.cpp:386] res4b6_branch2b_relu -> res4b6_branch2b (in-place)
I0706 14:05:46.088168 27901 net.cpp:141] Setting up res4b6_branch2b_relu
I0706 14:05:46.088173 27901 net.cpp:148] Top shape: 1 256 60 60 (921600)
I0706 14:05:46.088176 27901 net.cpp:156] Memory required for data: 1673625600
I0706 14:05:46.088181 27901 layer_factory.hpp:77] Creating layer res4b6_branch2c
I0706 14:05:46.088192 27901 net.cpp:91] Creating Layer res4b6_branch2c
I0706 14:05:46.088196 27901 net.cpp:425] res4b6_branch2c <- res4b6_branch2b
I0706 14:05:46.088202 27901 net.cpp:399] res4b6_branch2c -> res4b6_branch2c
I0706 14:05:46.089154 27901 net.cpp:141] Setting up res4b6_branch2c
I0706 14:05:46.089180 27901 net.cpp:148] Top shape: 1 1024 60 60 (3686400)
I0706 14:05:46.089185 27901 net.cpp:156] Memory required for data: 1688371200
I0706 14:05:46.089192 27901 layer_factory.hpp:77] Creating layer bn4b6_branch2c
I0706 14:05:46.089202 27901 net.cpp:91] Creating Layer bn4b6_branch2c
I0706 14:05:46.089206 27901 net.cpp:425] bn4b6_branch2c <- res4b6_branch2c
I0706 14:05:46.089215 27901 net.cpp:386] bn4b6_branch2c -> res4b6_branch2c (in-place)
I0706 14:05:46.089429 27901 net.cpp:141] Setting up bn4b6_branch2c
I0706 14:05:46.089439 27901 net.cpp:148] Top shape: 1 1024 60 60 (3686400)
I0706 14:05:46.089442 27901 net.cpp:156] Memory required for data: 1703116800
I0706 14:05:46.089452 27901 layer_factory.hpp:77] Creating layer scale4b6_branch2c
I0706 14:05:46.089463 27901 net.cpp:91] Creating Layer scale4b6_branch2c
I0706 14:05:46.089469 27901 net.cpp:425] scale4b6_branch2c <- res4b6_branch2c
I0706 14:05:46.089475 27901 net.cpp:386] scale4b6_branch2c -> res4b6_branch2c (in-place)
I0706 14:05:46.089517 27901 layer_factory.hpp:77] Creating layer scale4b6_branch2c
I0706 14:05:46.089653 27901 net.cpp:141] Setting up scale4b6_branch2c
I0706 14:05:46.089661 27901 net.cpp:148] Top shape: 1 1024 60 60 (3686400)
I0706 14:05:46.089665 27901 net.cpp:156] Memory required for data: 1717862400
I0706 14:05:46.089673 27901 layer_factory.hpp:77] Creating layer res4b6
I0706 14:05:46.089680 27901 net.cpp:91] Creating Layer res4b6
I0706 14:05:46.089684 27901 net.cpp:425] res4b6 <- res4b5_res4b5_relu_0_split_1
I0706 14:05:46.089689 27901 net.cpp:425] res4b6 <- res4b6_branch2c
I0706 14:05:46.089695 27901 net.cpp:399] res4b6 -> res4b6
I0706 14:05:46.089721 27901 net.cpp:141] Setting up res4b6
I0706 14:05:46.089730 27901 net.cpp:148] Top shape: 1 1024 60 60 (3686400)
I0706 14:05:46.089733 27901 net.cpp:156] Memory required for data: 1732608000
I0706 14:05:46.089737 27901 layer_factory.hpp:77] Creating layer res4b6_relu
I0706 14:05:46.089745 27901 net.cpp:91] Creating Layer res4b6_relu
I0706 14:05:46.089747 27901 net.cpp:425] res4b6_relu <- res4b6
I0706 14:05:46.089754 27901 net.cpp:386] res4b6_relu -> res4b6 (in-place)
I0706 14:05:46.089761 27901 net.cpp:141] Setting up res4b6_relu
I0706 14:05:46.089766 27901 net.cpp:148] Top shape: 1 1024 60 60 (3686400)
I0706 14:05:46.089769 27901 net.cpp:156] Memory required for data: 1747353600
I0706 14:05:46.089773 27901 layer_factory.hpp:77] Creating layer res4b6_res4b6_relu_0_split
I0706 14:05:46.089779 27901 net.cpp:91] Creating Layer res4b6_res4b6_relu_0_split
I0706 14:05:46.089783 27901 net.cpp:425] res4b6_res4b6_relu_0_split <- res4b6
I0706 14:05:46.089788 27901 net.cpp:399] res4b6_res4b6_relu_0_split -> res4b6_res4b6_relu_0_split_0
I0706 14:05:46.089794 27901 net.cpp:399] res4b6_res4b6_relu_0_split -> res4b6_res4b6_relu_0_split_1
I0706 14:05:46.089833 27901 net.cpp:141] Setting up res4b6_res4b6_relu_0_split
…
I0706 14:05:46.176041 27901 net.cpp:91] Creating Layer res4b20_branch2b_relu
I0706 14:05:46.176048 27901 net.cpp:425] res4b20_branch2b_relu <- res4b20_branch2b
I0706 14:05:46.176059 27901 net.cpp:386] res4b20_branch2b_relu -> res4b20_branch2b (in-place)
I0706 14:05:46.176071 27901 net.cpp:141] Setting up res4b20_branch2b_relu
I0706 14:05:46.176079 27901 net.cpp:148] Top shape: 1 256 60 60 (921600)
I0706 14:05:46.176086 27901 net.cpp:156] Memory required for data: 3531571200
I0706 14:05:46.176092 27901 layer_factory.hpp:77] Creating layer res4b20_branch2c
I0706 14:05:46.176110 27901 net.cpp:91] Creating Layer res4b20_branch2c
I0706 14:05:46.176118 27901 net.cpp:425] res4b20_branch2c <- res4b20_branch2b
I0706 14:05:46.176129 27901 net.cpp:399] res4b20_branch2c -> res4b20_branch2c
I0706 14:05:46.177773 27901 net.cpp:141] Setting up res4b20_branch2c
I0706 14:05:46.177799 27901 net.cpp:148] Top shape: 1 1024 60 60 (3686400)
I0706 14:05:46.177806 27901 net.cpp:156] Memory required for data: 3546316800
I0706 14:05:46.177819 27901 layer_factory.hpp:77] Creating layer bn4b20_branch2c
I0706 14:05:46.177834 27901 net.cpp:91] Creating Layer bn4b20_branch2c
I0706 14:05:46.177841 27901 net.cpp:425] bn4b20_branch2c <- res4b20_branch2c
I0706 14:05:46.177855 27901 net.cpp:386] bn4b20_branch2c -> res4b20_branch2c (in-place)
I0706 14:05:46.178246 27901 net.cpp:141] Setting up bn4b20_branch2c
I0706 14:05:46.178261 27901 net.cpp:148] Top shape: 1 1024 60 60 (3686400)
I0706 14:05:46.178268 27901 net.cpp:156] Memory required for data: 3561062400
I0706 14:05:46.178285 27901 layer_factory.hpp:77] Creating layer scale4b20_branch2c
I0706 14:05:46.178300 27901 net.cpp:91] Creating Layer scale4b20_branch2c
I0706 14:05:46.178308 27901 net.cpp:425] scale4b20_branch2c <- res4b20_branch2c
I0706 14:05:46.178318 27901 net.cpp:386] scale4b20_branch2c -> res4b20_branch2c (in-place)
I0706 14:05:46.178396 27901 layer_factory.hpp:77] Creating layer scale4b20_branch2c
I0706 14:05:46.178640 27901 net.cpp:141] Setting up scale4b20_branch2c
I0706 14:05:46.178655 27901 net.cpp:148] Top shape: 1 1024 60 60 (3686400)
I0706 14:05:46.178663 27901 net.cpp:156] Memory required for data: 3575808000
I0706 14:05:46.178676 27901 layer_factory.hpp:77] Creating layer res4b20
I0706 14:05:46.178688 27901 net.cpp:91] Creating Layer res4b20
I0706 14:05:46.178696 27901 net.cpp:425] res4b20 <- res4b19_res4b19_relu_0_split_1
I0706 14:05:46.178706 27901 net.cpp:425] res4b20 <- res4b20_branch2c
I0706 14:05:46.178717 27901 net.cpp:399] res4b20 -> res4b20
I0706 14:05:46.178787 27901 net.cpp:141] Setting up res4b20
I0706 14:05:46.178802 27901 net.cpp:148] Top shape: 1 1024 60 60 (3686400)
I0706 14:05:46.178809 27901 net.cpp:156] Memory required for data: 3590553600
I0706 14:05:46.178817 27901 layer_factory.hpp:77] Creating layer res4b20_relu
I0706 14:05:46.178828 27901 net.cpp:91] Creating Layer res4b20_relu
I0706 14:05:46.178834 27901 net.cpp:425] res4b20_relu <- res4b20
I0706 14:05:46.178848 27901 net.cpp:386] res4b20_relu -> res4b20 (in-place)
I0706 14:05:46.178858 27901 net.cpp:141] Setting up res4b20_relu
I0706 14:05:46.178869 27901 net.cpp:148] Top shape: 1 1024 60 60 (3686400)
I0706 14:05:46.178874 27901 net.cpp:156] Memory required for data: 3605299200
I0706 14:05:46.178881 27901 layer_factory.hpp:77] Creating layer res4b20_res4b20_relu_0_split
I0706 14:05:46.178891 27901 net.cpp:91] Creating Layer res4b20_res4b20_relu_0_split
I0706 14:05:46.178899 27901 net.cpp:425] res4b20_res4b20_relu_0_split <- res4b20
I0706 14:05:46.178910 27901 net.cpp:399] res4b20_res4b20_relu_0_split -> res4b20_res4b20_relu_0_split_0
I0706 14:05:46.178922 27901 net.cpp:399] res4b20_res4b20_relu_0_split -> res4b20_res4b20_relu_0_split_1
I0706 14:05:46.178990 27901 net.cpp:141] Setting up res4b20_res4b20_relu_0_split
I0706 14:05:46.179003 27901 net.cpp:148] Top shape: 1 1024 60 60 (3686400)
I0706 14:05:46.179013 27901 net.cpp:148] Top shape: 1 1024 60 60 (3686400)
I0706 14:05:46.179018 27901 net.cpp:156] Memory required for data: 3634790400
I0706 14:05:46.179025 27901 layer_factory.hpp:77] Creating layer res4b21_branch2a
I0706 14:05:46.179039 27901 net.cpp:91] Creating Layer res4b21_branch2a
I0706 14:05:46.179047 27901 net.cpp:425] res4b21_branch2a <- res4b20_res4b20_relu_0_split_0
I0706 14:05:46.179062 27901 net.cpp:399] res4b21_branch2a -> res4b21_branch2a
I0706 14:05:46.180721 27901 net.cpp:141] Setting up res4b21_branch2a
I0706 14:05:46.180747 27901 net.cpp:148] Top shape: 1 256 60 60 (921600)
I0706 14:05:46.180754 27901 net.cpp:156] Memory required for data: 3638476800
I0706 14:05:46.180766 27901 layer_factory.hpp:77] Creating layer bn4b21_branch2a
I0706 14:05:46.180780 27901 net.cpp:91] Creating Layer bn4b21_branch2a
I0706 14:05:46.180788 27901 net.cpp:425] bn4b21_branch2a <- res4b21_branch2a
I0706 14:05:46.180800 27901 net.cpp:386] bn4b21_branch2a -> res4b21_branch2a (in-place)
I0706 14:05:46.181169 27901 net.cpp:141] Setting up bn4b21_branch2a
I0706 14:05:46.181183 27901 net.cpp:148] Top shape: 1 256 60 60 (921600)
I0706 14:05:46.181190 27901 net.cpp:156] Memory required for data: 3642163200
I0706 14:05:46.181206 27901 layer_factory.hpp:77] Creating layer scale4b21_branch2a
I0706 14:05:46.181221 27901 net.cpp:91] Creating Layer scale4b21_branch2a
I0706 14:05:46.181229 27901 net.cpp:425] scale4b21_branch2a <- res4b21_branch2a
I0706 14:05:46.181241 27901 net.cpp:386] scale4b21_branch2a -> res4b21_branch2a (in-place)
I0706 14:05:46.181311 27901 layer_factory.hpp:77] Creating layer scale4b21_branch2a
I0706 14:05:46.181550 27901 net.cpp:141] Setting up scale4b21_branch2a
I0706 14:05:46.181565 27901 net.cpp:148] Top shape: 1 256 60 60 (921600)
I0706 14:05:46.181572 27901 net.cpp:156] Memory required for data: 3645849600
I0706 14:05:46.181587 27901 layer_factory.hpp:77] Creating layer res4b21_branch2a_relu
I0706 14:05:46.181601 27901 net.cpp:91] Creating Layer res4b21_branch2a_relu
I0706 14:05:46.181610 27901 net.cpp:425] res4b21_branch2a_relu <- res4b21_branch2a
I0706 14:05:46.181622 27901 net.cpp:386] res4b21_branch2a_relu -> res4b21_branch2a (in-place)
I0706 14:05:46.181634 27901 net.cpp:141] Setting up res4b21_branch2a_relu
I0706 14:05:46.181645 27901 net.cpp:148] Top shape: 1 256 60 60 (921600)
I0706 14:05:46.181653 27901 net.cpp:156] Memory required for data: 3649536000
I0706 14:05:46.181659 27901 layer_factory.hpp:77] Creating layer res4b21_branch2b
I0706 14:05:46.181674 27901 net.cpp:91] Creating Layer res4b21_branch2b
I0706 14:05:46.181680 27901 net.cpp:425] res4b21_branch2b <- res4b21_branch2a
I0706 14:05:46.181694 27901 net.cpp:399] res4b21_branch2b -> res4b21_branch2b
I0706 14:05:46.184571 27901 net.cpp:141] Setting up res4b21_branch2b
I0706 14:05:46.184617 27901 net.cpp:148] Top shape: 1 256 60 60 (921600)
I0706 14:05:46.184626 27901 net.cpp:156] Memory required for data: 3653222400
I0706 14:05:46.184638 27901 layer_factory.hpp:77] Creating layer bn4b21_branch2b
I0706 14:05:46.184653 27901 net.cpp:91] Creating Layer bn4b21_branch2b
I0706 14:05:46.184660 27901 net.cpp:425] bn4b21_branch2b <- res4b21_branch2b
I0706 14:05:46.184672 27901 net.cpp:386] bn4b21_branch2b -> res4b21_branch2b (in-place)
I0706 14:05:46.185035 27901 net.cpp:141] Setting up bn4b21_branch2b
I0706 14:05:46.185050 27901 net.cpp:148] Top shape: 1 256 60 60 (921600)
I0706 14:05:46.185056 27901 net.cpp:156] Memory required for data: 3656908800
I0706 14:05:46.185072 27901 layer_factory.hpp:77] Creating layer scale4b21_branch2b
I0706 14:05:46.185087 27901 net.cpp:91] Creating Layer scale4b21_branch2b
I0706 14:05:46.185094 27901 net.cpp:425] scale4b21_branch2b <- res4b21_branch2b
I0706 14:05:46.185104 27901 net.cpp:386] scale4b21_branch2b -> res4b21_branch2b (in-place)
I0706 14:05:46.185171 27901 layer_factory.hpp:77] Creating layer scale4b21_branch2b
I0706 14:05:46.185389 27901 net.cpp:141] Setting up scale4b21_branch2b
I0706 14:05:46.185403 27901 net.cpp:148] Top shape: 1 256 60 60 (921600)
I0706 14:05:46.185410 27901 net.cpp:156] Memory required for data: 3660595200
I0706 14:05:46.185425 27901 layer_factory.hpp:77] Creating layer res4b21_branch2b_relu
I0706 14:05:46.185436 27901 net.cpp:91] Creating Layer res4b21_branch2b_relu
I0706 14:05:46.185443 27901 net.cpp:425] res4b21_branch2b_relu <- res4b21_branch2b
I0706 14:05:46.185452 27901 net.cpp:386] res4b21_branch2b_relu -> res4b21_branch2b (in-place)
I0706 14:05:46.185463 27901 net.cpp:141] Setting up res4b21_branch2b_relu
I0706 14:05:46.185472 27901 net.cpp:148] Top shape: 1 256 60 60 (921600)
I0706 14:05:46.185478 27901 net.cpp:156] Memory required for data: 3664281600
I0706 14:05:46.185484 27901 layer_factory.hpp:77] Creating layer res4b21_branch2c
I0706 14:05:46.185497 27901 net.cpp:91] Creating Layer res4b21_branch2c
I0706 14:05:46.185503 27901 net.cpp:425] res4b21_branch2c <- res4b21_branch2b
I0706 14:05:46.185516 27901 net.cpp:399] res4b21_branch2c -> res4b21_branch2c
I0706 14:05:46.187106 27901 net.cpp:141] Setting up res4b21_branch2c
I0706 14:05:46.187132 27901 net.cpp:148] Top shape: 1 1024 60 60 (3686400)
I0706 14:05:46.187139 27901 net.cpp:156] Memory required for data: 3679027200
I0706 14:05:46.187151 27901 layer_factory.hpp:77] Creating layer bn4b21_branch2c
I0706 14:05:46.187165 27901 net.cpp:91] Creating Layer bn4b21_branch2c
I0706 14:05:46.187172 27901 net.cpp:425] bn4b21_branch2c <- res4b21_branch2c
I0706 14:05:46.187183 27901 net.cpp:386] bn4b21_branch2c -> res4b21_branch2c (in-place)
I0706 14:05:46.187551 27901 net.cpp:141] Setting up bn4b21_branch2c
I0706 14:05:46.187566 27901 net.cpp:148] Top shape: 1 1024 60 60 (3686400)
I0706 14:05:46.187572 27901 net.cpp:156] Memory required for data: 3693772800
I0706 14:05:46.187587 27901 layer_factory.hpp:77] Creating layer scale4b21_branch2c
I0706 14:05:46.187602 27901 net.cpp:91] Creating Layer scale4b21_branch2c
I0706 14:05:46.187608 27901 net.cpp:425] scale4b21_branch2c <- res4b21_branch2c
I0706 14:05:46.187618 27901 net.cpp:386] scale4b21_branch2c -> res4b21_branch2c (in-place)
I0706 14:05:46.187686 27901 layer_factory.hpp:77] Creating layer scale4b21_branch2c
I0706 14:05:46.187932 27901 net.cpp:141] Setting up scale4b21_branch2c
I0706 14:05:46.187949 27901 net.cpp:148] Top shape: 1 1024 60 60 (3686400)
I0706 14:05:46.187955 27901 net.cpp:156] Memory required for data: 3708518400
I0706 14:05:46.187970 27901 layer_factory.hpp:77] Creating layer res4b21
I0706 14:05:46.187983 27901 net.cpp:91] Creating Layer res4b21
I0706 14:05:46.187994 27901 net.cpp:425] res4b21 <- res4b20_res4b20_relu_0_split_1
I0706 14:05:46.188004 27901 net.cpp:425] res4b21 <- res4b21_branch2c
I0706 14:05:46.188014 27901 net.cpp:399] res4b21 -> res4b21
I0706 14:05:46.188056 27901 net.cpp:141] Setting up res4b21
I0706 14:05:46.188068 27901 net.cpp:148] Top shape: 1 1024 60 60 (3686400)
I0706 14:05:46.188091 27901 net.cpp:156] Memory required for data: 3723264000
I0706 14:05:46.188098 27901 layer_factory.hpp:77] Creating layer res4b21_relu
I0706 14:05:46.188112 27901 net.cpp:91] Creating Layer res4b21_relu
I0706 14:05:46.188119 27901 net.cpp:425] res4b21_relu <- res4b21
I0706 14:05:46.188128 27901 net.cpp:386] res4b21_relu -> res4b21 (in-place)
I0706 14:05:46.188141 27901 net.cpp:141] Setting up res4b21_relu
I0706 14:05:46.188149 27901 net.cpp:148] Top shape: 1 1024 60 60 (3686400)
I0706 14:05:46.188155 27901 net.cpp:156] Memory required for data: 3738009600
I0706 14:05:46.188161 27901 layer_factory.hpp:77] Creating layer res4b21_res4b21_relu_0_split
I0706 14:05:46.188174 27901 net.cpp:91] Creating Layer res4b21_res4b21_relu_0_split
I0706 14:05:46.188180 27901 net.cpp:425] res4b21_res4b21_relu_0_split <- res4b21
I0706 14:05:46.188191 27901 net.cpp:399] res4b21_res4b21_relu_0_split -> res4b21_res4b21_relu_0_split_0
I0706 14:05:46.188204 27901 net.cpp:399] res4b21_res4b21_relu_0_split -> res4b21_res4b21_relu_0_split_1
I0706 14:05:46.188269 27901 net.cpp:141] Setting up res4b21_res4b21_relu_0_split
I0706 14:05:46.188282 27901 net.cpp:148] Top shape: 1 1024 60 60 (3686400)
I0706 14:05:46.188290 27901 net.cpp:148] Top shape: 1 1024 60 60 (3686400)
I0706 14:05:46.188297 27901 net.cpp:156] Memory required for data: 3767500800
I0706 14:05:46.188302 27901 layer_factory.hpp:77] Creating layer res4b22_branch2a
I0706 14:05:46.188316 27901 net.cpp:91] Creating Layer res4b22_branch2a
I0706 14:05:46.188324 27901 net.cpp:425] res4b22_branch2a <- res4b21_res4b21_relu_0_split_0
I0706 14:05:46.188336 27901 net.cpp:399] res4b22_branch2a -> res4b22_branch2a
I0706 14:05:46.192000 27901 net.cpp:141] Setting up res4b22_branch2a
I0706 14:05:46.192029 27901 net.cpp:148] Top shape: 1 256 60 60 (921600)
I0706 14:05:46.192037 27901 net.cpp:156] Memory required for data: 3771187200
I0706 14:05:46.192049 27901 layer_factory.hpp:77] Creating layer bn4b22_branch2a
I0706 14:05:46.192064 27901 net.cpp:91] Creating Layer bn4b22_branch2a
I0706 14:05:46.192071 27901 net.cpp:425] bn4b22_branch2a <- res4b22_branch2a
I0706 14:05:46.192083 27901 net.cpp:386] bn4b22_branch2a -> res4b22_branch2a (in-place)
I0706 14:05:46.192446 27901 net.cpp:141] Setting up bn4b22_branch2a
I0706 14:05:46.192473 27901 net.cpp:148] Top shape: 1 256 60 60 (921600)
I0706 14:05:46.192479 27901 net.cpp:156] Memory required for data: 3774873600
I0706 14:05:46.192495 27901 layer_factory.hpp:77] Creating layer scale4b22_branch2a
I0706 14:05:46.192507 27901 net.cpp:91] Creating Layer scale4b22_branch2a
I0706 14:05:46.192514 27901 net.cpp:425] scale4b22_branch2a <- res4b22_branch2a
I0706 14:05:46.192528 27901 net.cpp:386] scale4b22_branch2a -> res4b22_branch2a (in-place)
I0706 14:05:46.192600 27901 layer_factory.hpp:77] Creating layer scale4b22_branch2a
I0706 14:05:46.192817 27901 net.cpp:141] Setting up scale4b22_branch2a
I0706 14:05:46.192834 27901 net.cpp:148] Top shape: 1 256 60 60 (921600)
I0706 14:05:46.192840 27901 net.cpp:156] Memory required for data: 3778560000
I0706 14:05:46.192854 27901 layer_factory.hpp:77] Creating layer res4b22_branch2a_relu
I0706 14:05:46.192865 27901 net.cpp:91] Creating Layer res4b22_branch2a_relu
I0706 14:05:46.192873 27901 net.cpp:425] res4b22_branch2a_relu <- res4b22_branch2a
I0706 14:05:46.192884 27901 net.cpp:386] res4b22_branch2a_relu -> res4b22_branch2a (in-place)
I0706 14:05:46.192895 27901 net.cpp:141] Setting up res4b22_branch2a_relu
I0706 14:05:46.192914 27901 net.cpp:148] Top shape: 1 256 60 60 (921600)
I0706 14:05:46.192920 27901 net.cpp:156] Memory required for data: 3782246400
I0706 14:05:46.192926 27901 layer_factory.hpp:77] Creating layer res4b22_branch2b
I0706 14:05:46.192946 27901 net.cpp:91] Creating Layer res4b22_branch2b
I0706 14:05:46.192953 27901 net.cpp:425] res4b22_branch2b <- res4b22_branch2a
I0706 14:05:46.192965 27901 net.cpp:399] res4b22_branch2b -> res4b22_branch2b
I0706 14:05:46.196192 27901 net.cpp:141] Setting up res4b22_branch2b
I0706 14:05:46.196221 27901 net.cpp:148] Top shape: 1 256 60 60 (921600)
I0706 14:05:46.196246 27901 net.cpp:156] Memory required for data: 3785932800
I0706 14:05:46.196260 27901 layer_factory.hpp:77] Creating layer bn4b22_branch2b
I0706 14:05:46.196274 27901 net.cpp:91] Creating Layer bn4b22_branch2b
I0706 14:05:46.196282 27901 net.cpp:425] bn4b22_branch2b <- res4b22_branch2b
I0706 14:05:46.196295 27901 net.cpp:386] bn4b22_branch2b -> res4b22_branch2b (in-place)
I0706 14:05:46.196682 27901 net.cpp:141] Setting up bn4b22_branch2b
I0706 14:05:46.196701 27901 net.cpp:148] Top shape: 1 256 60 60 (921600)
I0706 14:05:46.196707 27901 net.cpp:156] Memory required for data: 3789619200
I0706 14:05:46.196722 27901 layer_factory.hpp:77] Creating layer scale4b22_branch2b
I0706 14:05:46.196735 27901 net.cpp:91] Creating Layer scale4b22_branch2b
I0706 14:05:46.196743 27901 net.cpp:425] scale4b22_branch2b <- res4b22_branch2b
I0706 14:05:46.196755 27901 net.cpp:386] scale4b22_branch2b -> res4b22_branch2b (in-place)
I0706 14:05:46.196825 27901 layer_factory.hpp:77] Creating layer scale4b22_branch2b
I0706 14:05:46.197053 27901 net.cpp:141] Setting up scale4b22_branch2b
I0706 14:05:46.197072 27901 net.cpp:148] Top shape: 1 256 60 60 (921600)
I0706 14:05:46.197078 27901 net.cpp:156] Memory required for data: 3793305600
I0706 14:05:46.197091 27901 layer_factory.hpp:77] Creating layer res4b22_branch2b_relu
I0706 14:05:46.197103 27901 net.cpp:91] Creating Layer res4b22_branch2b_relu
I0706 14:05:46.197119 27901 net.cpp:425] res4b22_branch2b_relu <- res4b22_branch2b
I0706 14:05:46.197131 27901 net.cpp:386] res4b22_branch2b_relu -> res4b22_branch2b (in-place)
I0706 14:05:46.197144 27901 net.cpp:141] Setting up res4b22_branch2b_relu
I0706 14:05:46.197152 27901 net.cpp:148] Top shape: 1 256 60 60 (921600)
I0706 14:05:46.197159 27901 net.cpp:156] Memory required for data: 3796992000
I0706 14:05:46.197165 27901 layer_factory.hpp:77] Creating layer res4b22_branch2c
I0706 14:05:46.197177 27901 net.cpp:91] Creating Layer res4b22_branch2c
I0706 14:05:46.197185 27901 net.cpp:425] res4b22_branch2c <- res4b22_branch2b
I0706 14:05:46.197196 27901 net.cpp:399] res4b22_branch2c -> res4b22_branch2c
I0706 14:05:46.199228 27901 net.cpp:141] Setting up res4b22_branch2c
I0706 14:05:46.199256 27901 net.cpp:148] Top shape: 1 1024 60 60 (3686400)
I0706 14:05:46.199265 27901 net.cpp:156] Memory required for data: 3811737600
I0706 14:05:46.199276 27901 layer_factory.hpp:77] Creating layer bn4b22_branch2c
I0706 14:05:46.199291 27901 net.cpp:91] Creating Layer bn4b22_branch2c
I0706 14:05:46.199300 27901 net.cpp:425] bn4b22_branch2c <- res4b22_branch2c
I0706 14:05:46.199311 27901 net.cpp:386] bn4b22_branch2c -> res4b22_branch2c (in-place)
I0706 14:05:46.199700 27901 net.cpp:141] Setting up bn4b22_branch2c
I0706 14:05:46.199715 27901 net.cpp:148] Top shape: 1 1024 60 60 (3686400)
I0706 14:05:46.199723 27901 net.cpp:156] Memory required for data: 3826483200
I0706 14:05:46.199738 27901 layer_factory.hpp:77] Creating layer scale4b22_branch2c
I0706 14:05:46.199751 27901 net.cpp:91] Creating Layer scale4b22_branch2c
I0706 14:05:46.199759 27901 net.cpp:425] scale4b22_branch2c <- res4b22_branch2c
I0706 14:05:46.199771 27901 net.cpp:386] scale4b22_branch2c -> res4b22_branch2c (in-place)
I0706 14:05:46.199846 27901 layer_factory.hpp:77] Creating layer scale4b22_branch2c
I0706 14:05:46.200088 27901 net.cpp:141] Setting up scale4b22_branch2c
I0706 14:05:46.200105 27901 net.cpp:148] Top shape: 1 1024 60 60 (3686400)
I0706 14:05:46.200112 27901 net.cpp:156] Memory required for data: 3841228800
I0706 14:05:46.200126 27901 layer_factory.hpp:77] Creating layer res4b22
I0706 14:05:46.200137 27901 net.cpp:91] Creating Layer res4b22
I0706 14:05:46.200145 27901 net.cpp:425] res4b22 <- res4b21_res4b21_relu_0_split_1
I0706 14:05:46.200155 27901 net.cpp:425] res4b22 <- res4b22_branch2c
I0706 14:05:46.200166 27901 net.cpp:399] res4b22 -> res4b22
I0706 14:05:46.200212 27901 net.cpp:141] Setting up res4b22
I0706 14:05:46.200224 27901 net.cpp:148] Top shape: 1 1024 60 60 (3686400)
I0706 14:05:46.200230 27901 net.cpp:156] Memory required for data: 3855974400
I0706 14:05:46.200255 27901 layer_factory.hpp:77] Creating layer res4b22_relu
I0706 14:05:46.200266 27901 net.cpp:91] Creating Layer res4b22_relu
I0706 14:05:46.200273 27901 net.cpp:425] res4b22_relu <- res4b22
I0706 14:05:46.200285 27901 net.cpp:386] res4b22_relu -> res4b22 (in-place)
I0706 14:05:46.200299 27901 net.cpp:141] Setting up res4b22_relu
I0706 14:05:46.200310 27901 net.cpp:148] Top shape: 1 1024 60 60 (3686400)
I0706 14:05:46.200316 27901 net.cpp:156] Memory required for data: 3870720000
I0706 14:05:46.200323 27901 layer_factory.hpp:77] Creating layer res4b22_res4b22_relu_0_split
I0706 14:05:46.200332 27901 net.cpp:91] Creating Layer res4b22_res4b22_relu_0_split
I0706 14:05:46.200340 27901 net.cpp:425] res4b22_res4b22_relu_0_split <- res4b22
I0706 14:05:46.200350 27901 net.cpp:399] res4b22_res4b22_relu_0_split -> res4b22_res4b22_relu_0_split_0
I0706 14:05:46.200362 27901 net.cpp:399] res4b22_res4b22_relu_0_split -> res4b22_res4b22_relu_0_split_1
I0706 14:05:46.200433 27901 net.cpp:141] Setting up res4b22_res4b22_relu_0_split
I0706 14:05:46.200445 27901 net.cpp:148] Top shape: 1 1024 60 60 (3686400)
I0706 14:05:46.200453 27901 net.cpp:148] Top shape: 1 1024 60 60 (3686400)
I0706 14:05:46.200470 27901 net.cpp:156] Memory required for data: 3900211200
I0706 14:05:46.200477 27901 layer_factory.hpp:77] Creating layer res5a_branch1
I0706 14:05:46.200491 27901 net.cpp:91] Creating Layer res5a_branch1
I0706 14:05:46.200500 27901 net.cpp:425] res5a_branch1 <- res4b22_res4b22_relu_0_split_0
I0706 14:05:46.200512 27901 net.cpp:399] res5a_branch1 -> res5a_branch1
I0706 14:05:46.208055 27901 net.cpp:141] Setting up res5a_branch1
I0706 14:05:46.208083 27901 net.cpp:148] Top shape: 1 2048 60 60 (7372800)
I0706 14:05:46.208091 27901 net.cpp:156] Memory required for data: 3929702400
I0706 14:05:46.208103 27901 layer_factory.hpp:77] Creating layer bn5a_branch1
I0706 14:05:46.208119 27901 net.cpp:91] Creating Layer bn5a_branch1
I0706 14:05:46.208127 27901 net.cpp:425] bn5a_branch1 <- res5a_branch1
I0706 14:05:46.208138 27901 net.cpp:386] bn5a_branch1 -> res5a_branch1 (in-place)
I0706 14:05:46.208521 27901 net.cpp:141] Setting up bn5a_branch1
I0706 14:05:46.208537 27901 net.cpp:148] Top shape: 1 2048 60 60 (7372800)
I0706 14:05:46.208544 27901 net.cpp:156] Memory required for data: 3959193600
I0706 14:05:46.208559 27901 layer_factory.hpp:77] Creating layer scale5a_branch1
I0706 14:05:46.208571 27901 net.cpp:91] Creating Layer scale5a_branch1
I0706 14:05:46.208578 27901 net.cpp:425] scale5a_branch1 <- res5a_branch1
I0706 14:05:46.208588 27901 net.cpp:386] scale5a_branch1 -> res5a_branch1 (in-place)
I0706 14:05:46.208667 27901 layer_factory.hpp:77] Creating layer scale5a_branch1
I0706 14:05:46.208894 27901 net.cpp:141] Setting up scale5a_branch1
I0706 14:05:46.208909 27901 net.cpp:148] Top shape: 1 2048 60 60 (7372800)
I0706 14:05:46.208915 27901 net.cpp:156] Memory required for data: 3988684800
I0706 14:05:46.208930 27901 layer_factory.hpp:77] Creating layer res5a_branch2a
I0706 14:05:46.208948 27901 net.cpp:91] Creating Layer res5a_branch2a
I0706 14:05:46.208959 27901 net.cpp:425] res5a_branch2a <- res4b22_res4b22_relu_0_split_1
I0706 14:05:46.208972 27901 net.cpp:399] res5a_branch2a -> res5a_branch2a
I0706 14:05:46.211357 27901 net.cpp:141] Setting up res5a_branch2a
I0706 14:05:46.211380 27901 net.cpp:148] Top shape: 1 512 60 60 (1843200)
I0706 14:05:46.211387 27901 net.cpp:156] Memory required for data: 3996057600
I0706 14:05:46.211398 27901 layer_factory.hpp:77] Creating layer bn5a_branch2a
I0706 14:05:46.211413 27901 net.cpp:91] Creating Layer bn5a_branch2a
I0706 14:05:46.211421 27901 net.cpp:425] bn5a_branch2a <- res5a_branch2a
I0706 14:05:46.211431 27901 net.cpp:386] bn5a_branch2a -> res5a_branch2a (in-place)
I0706 14:05:46.211783 27901 net.cpp:141] Setting up bn5a_branch2a
I0706 14:05:46.211797 27901 net.cpp:148] Top shape: 1 512 60 60 (1843200)
I0706 14:05:46.211803 27901 net.cpp:156] Memory required for data: 4003430400
I0706 14:05:46.211818 27901 layer_factory.hpp:77] Creating layer scale5a_branch2a
I0706 14:05:46.211848 27901 net.cpp:91] Creating Layer scale5a_branch2a
I0706 14:05:46.211855 27901 net.cpp:425] scale5a_branch2a <- res5a_branch2a
I0706 14:05:46.211864 27901 net.cpp:386] scale5a_branch2a -> res5a_branch2a (in-place)
I0706 14:05:46.211935 27901 layer_factory.hpp:77] Creating layer scale5a_branch2a
I0706 14:05:46.212158 27901 net.cpp:141] Setting up scale5a_branch2a
I0706 14:05:46.212172 27901 net.cpp:148] Top shape: 1 512 60 60 (1843200)
I0706 14:05:46.212179 27901 net.cpp:156] Memory required for data: 4010803200
I0706 14:05:46.212191 27901 layer_factory.hpp:77] Creating layer res5a_branch2a_relu
I0706 14:05:46.212201 27901 net.cpp:91] Creating Layer res5a_branch2a_relu
I0706 14:05:46.212208 27901 net.cpp:425] res5a_branch2a_relu <- res5a_branch2a
I0706 14:05:46.212219 27901 net.cpp:386] res5a_branch2a_relu -> res5a_branch2a (in-place)
I0706 14:05:46.212230 27901 net.cpp:141] Setting up res5a_branch2a_relu
I0706 14:05:46.212239 27901 net.cpp:148] Top shape: 1 512 60 60 (1843200)
I0706 14:05:46.212244 27901 net.cpp:156] Memory required for data: 4018176000
I0706 14:05:46.212250 27901 layer_factory.hpp:77] Creating layer res5a_branch2b
I0706 14:05:46.212262 27901 net.cpp:91] Creating Layer res5a_branch2b
I0706 14:05:46.212268 27901 net.cpp:425] res5a_branch2b <- res5a_branch2a
I0706 14:05:46.212280 27901 net.cpp:399] res5a_branch2b -> res5a_branch2b
I0706 14:05:46.220705 27901 net.cpp:141] Setting up res5a_branch2b
I0706 14:05:46.220737 27901 net.cpp:148] Top shape: 1 512 60 60 (1843200)
I0706 14:05:46.220744 27901 net.cpp:156] Memory required for data: 4025548800
I0706 14:05:46.220757 27901 layer_factory.hpp:77] Creating layer bn5a_branch2b
I0706 14:05:46.220774 27901 net.cpp:91] Creating Layer bn5a_branch2b
I0706 14:05:46.220782 27901 net.cpp:425] bn5a_branch2b <- res5a_branch2b
I0706 14:05:46.220794 27901 net.cpp:386] bn5a_branch2b -> res5a_branch2b (in-place)
I0706 14:05:46.221158 27901 net.cpp:141] Setting up bn5a_branch2b
I0706 14:05:46.221173 27901 net.cpp:148] Top shape: 1 512 60 60 (1843200)
I0706 14:05:46.221177 27901 net.cpp:156] Memory required for data: 4032921600
I0706 14:05:46.221194 27901 layer_factory.hpp:77] Creating layer scale5a_branch2b
I0706 14:05:46.221204 27901 net.cpp:91] Creating Layer scale5a_branch2b
I0706 14:05:46.221211 27901 net.cpp:425] scale5a_branch2b <- res5a_branch2b
I0706 14:05:46.221220 27901 net.cpp:386] scale5a_branch2b -> res5a_branch2b (in-place)
I0706 14:05:46.221287 27901 layer_factory.hpp:77] Creating layer scale5a_branch2b
I0706 14:05:46.221504 27901 net.cpp:141] Setting up scale5a_branch2b
I0706 14:05:46.221518 27901 net.cpp:148] Top shape: 1 512 60 60 (1843200)
I0706 14:05:46.221524 27901 net.cpp:156] Memory required for data: 4040294400
I0706 14:05:46.221536 27901 layer_factory.hpp:77] Creating layer res5a_branch2b_relu
I0706 14:05:46.221546 27901 net.cpp:91] Creating Layer res5a_branch2b_relu
I0706 14:05:46.221552 27901 net.cpp:425] res5a_branch2b_relu <- res5a_branch2b
I0706 14:05:46.221563 27901 net.cpp:386] res5a_branch2b_relu -> res5a_branch2b (in-place)
I0706 14:05:46.221575 27901 net.cpp:141] Setting up res5a_branch2b_relu
I0706 14:05:46.221582 27901 net.cpp:148] Top shape: 1 512 60 60 (1843200)
I0706 14:05:46.221588 27901 net.cpp:156] Memory required for data: 4047667200
I0706 14:05:46.221593 27901 layer_factory.hpp:77] Creating layer res5a_branch2c
I0706 14:05:46.221606 27901 net.cpp:91] Creating Layer res5a_branch2c
I0706 14:05:46.221611 27901 net.cpp:425] res5a_branch2c <- res5a_branch2b
I0706 14:05:46.221626 27901 net.cpp:399] res5a_branch2c -> res5a_branch2c
I0706 14:05:46.225852 27901 net.cpp:141] Setting up res5a_branch2c
I0706 14:05:46.225879 27901 net.cpp:148] Top shape: 1 2048 60 60 (7372800)
I0706 14:05:46.225886 27901 net.cpp:156] Memory required for data: 4077158400
I0706 14:05:46.225898 27901 layer_factory.hpp:77] Creating layer bn5a_branch2c
I0706 14:05:46.225914 27901 net.cpp:91] Creating Layer bn5a_branch2c
I0706 14:05:46.225921 27901 net.cpp:425] bn5a_branch2c <- res5a_branch2c
I0706 14:05:46.225932 27901 net.cpp:386] bn5a_branch2c -> res5a_branch2c (in-place)
I0706 14:05:46.226300 27901 net.cpp:141] Setting up bn5a_branch2c
I0706 14:05:46.226315 27901 net.cpp:148] Top shape: 1 2048 60 60 (7372800)
I0706 14:05:46.226321 27901 net.cpp:156] Memory required for data: 4106649600
I0706 14:05:46.226336 27901 layer_factory.hpp:77] Creating layer scale5a_branch2c
I0706 14:05:46.226348 27901 net.cpp:91] Creating Layer scale5a_branch2c
I0706 14:05:46.226354 27901 net.cpp:425] scale5a_branch2c <- res5a_branch2c
I0706 14:05:46.226363 27901 net.cpp:386] scale5a_branch2c -> res5a_branch2c (in-place)
I0706 14:05:46.226434 27901 layer_factory.hpp:77] Creating layer scale5a_branch2c
I0706 14:05:46.226640 27901 net.cpp:141] Setting up scale5a_branch2c
I0706 14:05:46.226654 27901 net.cpp:148] Top shape: 1 2048 60 60 (7372800)
I0706 14:05:46.226660 27901 net.cpp:156] Memory required for data: 4136140800
I0706 14:05:46.226671 27901 layer_factory.hpp:77] Creating layer res5a
I0706 14:05:46.226681 27901 net.cpp:91] Creating Layer res5a
I0706 14:05:46.226688 27901 net.cpp:425] res5a <- res5a_branch1
I0706 14:05:46.226696 27901 net.cpp:425] res5a <- res5a_branch2c
I0706 14:05:46.226707 27901 net.cpp:399] res5a -> res5a
I0706 14:05:46.226747 27901 net.cpp:141] Setting up res5a
I0706 14:05:46.226761 27901 net.cpp:148] Top shape: 1 2048 60 60 (7372800)
I0706 14:05:46.226766 27901 net.cpp:156] Memory required for data: 4165632000
I0706 14:05:46.226773 27901 layer_factory.hpp:77] Creating layer res5a_relu
I0706 14:05:46.226781 27901 net.cpp:91] Creating Layer res5a_relu
I0706 14:05:46.226788 27901 net.cpp:425] res5a_relu <- res5a
I0706 14:05:46.226795 27901 net.cpp:386] res5a_relu -> res5a (in-place)
I0706 14:05:46.226805 27901 net.cpp:141] Setting up res5a_relu
I0706 14:05:46.226814 27901 net.cpp:148] Top shape: 1 2048 60 60 (7372800)
I0706 14:05:46.226819 27901 net.cpp:156] Memory required for data: 4195123200
I0706 14:05:46.226824 27901 layer_factory.hpp:77] Creating layer res5a_res5a_relu_0_split
I0706 14:05:46.226833 27901 net.cpp:91] Creating Layer res5a_res5a_relu_0_split
I0706 14:05:46.226840 27901 net.cpp:425] res5a_res5a_relu_0_split <- res5a
I0706 14:05:46.226881 27901 net.cpp:399] res5a_res5a_relu_0_split -> res5a_res5a_relu_0_split_0
I0706 14:05:46.226892 27901 net.cpp:399] res5a_res5a_relu_0_split -> res5a_res5a_relu_0_split_1
I0706 14:05:46.226951 27901 net.cpp:141] Setting up res5a_res5a_relu_0_split
I0706 14:05:46.226963 27901 net.cpp:148] Top shape: 1 2048 60 60 (7372800)
I0706 14:05:46.226969 27901 net.cpp:148] Top shape: 1 2048 60 60 (7372800)
I0706 14:05:46.226974 27901 net.cpp:156] Memory required for data: 4254105600
I0706 14:05:46.226980 27901 layer_factory.hpp:77] Creating layer res5b_branch2a
I0706 14:05:46.226995 27901 net.cpp:91] Creating Layer res5b_branch2a
I0706 14:05:46.227002 27901 net.cpp:425] res5b_branch2a <- res5a_res5a_relu_0_split_0
I0706 14:05:46.227011 27901 net.cpp:399] res5b_branch2a -> res5b_branch2a
I0706 14:05:46.230604 27901 net.cpp:141] Setting up res5b_branch2a
I0706 14:05:46.230628 27901 net.cpp:148] Top shape: 1 512 60 60 (1843200)
I0706 14:05:46.230633 27901 net.cpp:156] Memory required for data: 4261478400
I0706 14:05:46.230644 27901 layer_factory.hpp:77] Creating layer bn5b_branch2a
I0706 14:05:46.230660 27901 net.cpp:91] Creating Layer bn5b_branch2a
I0706 14:05:46.230667 27901 net.cpp:425] bn5b_branch2a <- res5b_branch2a
I0706 14:05:46.230677 27901 net.cpp:386] bn5b_branch2a -> res5b_branch2a (in-place)
I0706 14:05:46.231022 27901 net.cpp:141] Setting up bn5b_branch2a
I0706 14:05:46.231036 27901 net.cpp:148] Top shape: 1 512 60 60 (1843200)
I0706 14:05:46.231041 27901 net.cpp:156] Memory required for data: 4268851200
I0706 14:05:46.231055 27901 layer_factory.hpp:77] Creating layer scale5b_branch2a
I0706 14:05:46.231068 27901 net.cpp:91] Creating Layer scale5b_branch2a
I0706 14:05:46.231075 27901 net.cpp:425] scale5b_branch2a <- res5b_branch2a
I0706 14:05:46.231084 27901 net.cpp:386] scale5b_branch2a -> res5b_branch2a (in-place)
I0706 14:05:46.231153 27901 layer_factory.hpp:77] Creating layer scale5b_branch2a
I0706 14:05:46.231371 27901 net.cpp:141] Setting up scale5b_branch2a
I0706 14:05:46.231400 27901 net.cpp:148] Top shape: 1 512 60 60 (1843200)
I0706 14:05:46.231407 27901 net.cpp:156] Memory required for data: 4276224000
I0706 14:05:46.231420 27901 layer_factory.hpp:77] Creating layer res5b_branch2a_relu
I0706 14:05:46.231428 27901 net.cpp:91] Creating Layer res5b_branch2a_relu
I0706 14:05:46.231436 27901 net.cpp:425] res5b_branch2a_relu <- res5b_branch2a
I0706 14:05:46.231443 27901 net.cpp:386] res5b_branch2a_relu -> res5b_branch2a (in-place)
I0706 14:05:46.231454 27901 net.cpp:141] Setting up res5b_branch2a_relu
I0706 14:05:46.231462 27901 net.cpp:148] Top shape: 1 512 60 60 (1843200)
I0706 14:05:46.231468 27901 net.cpp:156] Memory required for data: 4283596800
I0706 14:05:46.231473 27901 layer_factory.hpp:77] Creating layer res5b_branch2b
I0706 14:05:46.231488 27901 net.cpp:91] Creating Layer res5b_branch2b
I0706 14:05:46.231494 27901 net.cpp:425] res5b_branch2b <- res5b_branch2a
I0706 14:05:46.231504 27901 net.cpp:399] res5b_branch2b -> res5b_branch2b
I0706 14:05:46.238900 27901 net.cpp:141] Setting up res5b_branch2b
I0706 14:05:46.238948 27901 net.cpp:148] Top shape: 1 512 60 60 (1843200)
I0706 14:05:46.238955 27901 net.cpp:156] Memory required for data: 4290969600
I0706 14:05:46.238973 27901 layer_factory.hpp:77] Creating layer bn5b_branch2b
I0706 14:05:46.238992 27901 net.cpp:91] Creating Layer bn5b_branch2b
I0706 14:05:46.239001 27901 net.cpp:425] bn5b_branch2b <- res5b_branch2b
I0706 14:05:46.239012 27901 net.cpp:386] bn5b_branch2b -> res5b_branch2b (in-place)
I0706 14:05:46.239388 27901 net.cpp:141] Setting up bn5b_branch2b
I0706 14:05:46.239401 27901 net.cpp:148] Top shape: 1 512 60 60 (1843200)
I0706 14:05:46.239406 27901 net.cpp:156] Memory required for data: 4298342400
I0706 14:05:46.239421 27901 layer_factory.hpp:77] Creating layer scale5b_branch2b
I0706 14:05:46.239439 27901 net.cpp:91] Creating Layer scale5b_branch2b
I0706 14:05:46.239445 27901 net.cpp:425] scale5b_branch2b <- res5b_branch2b
I0706 14:05:46.239455 27901 net.cpp:386] scale5b_branch2b -> res5b_branch2b (in-place)
I0706 14:05:46.239521 27901 layer_factory.hpp:77] Creating layer scale5b_branch2b
I0706 14:05:46.239725 27901 net.cpp:141] Setting up scale5b_branch2b
I0706 14:05:46.239738 27901 net.cpp:148] Top shape: 1 512 60 60 (1843200)
I0706 14:05:46.239743 27901 net.cpp:156] Memory required for data: 4305715200
I0706 14:05:46.239756 27901 layer_factory.hpp:77] Creating layer res5b_branch2b_relu
I0706 14:05:46.239766 27901 net.cpp:91] Creating Layer res5b_branch2b_relu
I0706 14:05:46.239773 27901 net.cpp:425] res5b_branch2b_relu <- res5b_branch2b
I0706 14:05:46.239781 27901 net.cpp:386] res5b_branch2b_relu -> res5b_branch2b (in-place)
I0706 14:05:46.239791 27901 net.cpp:141] Setting up res5b_branch2b_relu
I0706 14:05:46.239799 27901 net.cpp:148] Top shape: 1 512 60 60 (1843200)
I0706 14:05:46.239804 27901 net.cpp:156] Memory required for data: 4313088000
I0706 14:05:46.239809 27901 layer_factory.hpp:77] Creating layer res5b_branch2c
I0706 14:05:46.239823 27901 net.cpp:91] Creating Layer res5b_branch2c
I0706 14:05:46.239830 27901 net.cpp:425] res5b_branch2c <- res5b_branch2b
I0706 14:05:46.239840 27901 net.cpp:399] res5b_branch2c -> res5b_branch2c
I0706 14:05:46.243371 27901 net.cpp:141] Setting up res5b_branch2c
I0706 14:05:46.243396 27901 net.cpp:148] Top shape: 1 2048 60 60 (7372800)
I0706 14:05:46.243403 27901 net.cpp:156] Memory required for data: 4342579200
I0706 14:05:46.243413 27901 layer_factory.hpp:77] Creating layer bn5b_branch2c
I0706 14:05:46.243428 27901 net.cpp:91] Creating Layer bn5b_branch2c
I0706 14:05:46.243435 27901 net.cpp:425] bn5b_branch2c <- res5b_branch2c
I0706 14:05:46.243445 27901 net.cpp:386] bn5b_branch2c -> res5b_branch2c (in-place)
I0706 14:05:46.243762 27901 net.cpp:141] Setting up bn5b_branch2c
I0706 14:05:46.243774 27901 net.cpp:148] Top shape: 1 2048 60 60 (7372800)
I0706 14:05:46.243779 27901 net.cpp:156] Memory required for data: 4372070400
I0706 14:05:46.243793 27901 layer_factory.hpp:77] Creating layer scale5b_branch2c
I0706 14:05:46.243844 27901 net.cpp:91] Creating Layer scale5b_branch2c
I0706 14:05:46.243851 27901 net.cpp:425] scale5b_branch2c <- res5b_branch2c
I0706 14:05:46.243861 27901 net.cpp:386] scale5b_branch2c -> res5b_branch2c (in-place)
I0706 14:05:46.243932 27901 layer_factory.hpp:77] Creating layer scale5b_branch2c
I0706 14:05:46.244122 27901 net.cpp:141] Setting up scale5b_branch2c
I0706 14:05:46.244134 27901 net.cpp:148] Top shape: 1 2048 60 60 (7372800)
I0706 14:05:46.244139 27901 net.cpp:156] Memory required for data: 4401561600
I0706 14:05:46.244151 27901 layer_factory.hpp:77] Creating layer res5b
I0706 14:05:46.244161 27901 net.cpp:91] Creating Layer res5b
I0706 14:05:46.244168 27901 net.cpp:425] res5b <- res5a_res5a_relu_0_split_1
I0706 14:05:46.244174 27901 net.cpp:425] res5b <- res5b_branch2c
I0706 14:05:46.244184 27901 net.cpp:399] res5b -> res5b
I0706 14:05:46.244225 27901 net.cpp:141] Setting up res5b
I0706 14:05:46.244235 27901 net.cpp:148] Top shape: 1 2048 60 60 (7372800)
I0706 14:05:46.244240 27901 net.cpp:156] Memory required for data: 4431052800
I0706 14:05:46.244246 27901 layer_factory.hpp:77] Creating layer res5b_relu
I0706 14:05:46.244254 27901 net.cpp:91] Creating Layer res5b_relu
I0706 14:05:46.244262 27901 net.cpp:425] res5b_relu <- res5b
I0706 14:05:46.244271 27901 net.cpp:386] res5b_relu -> res5b (in-place)
I0706 14:05:46.244280 27901 net.cpp:141] Setting up res5b_relu
I0706 14:05:46.244287 27901 net.cpp:148] Top shape: 1 2048 60 60 (7372800)
I0706 14:05:46.244293 27901 net.cpp:156] Memory required for data: 4460544000
I0706 14:05:46.244298 27901 layer_factory.hpp:77] Creating layer res5b_res5b_relu_0_split
I0706 14:05:46.244307 27901 net.cpp:91] Creating Layer res5b_res5b_relu_0_split
I0706 14:05:46.244313 27901 net.cpp:425] res5b_res5b_relu_0_split <- res5b
I0706 14:05:46.244321 27901 net.cpp:399] res5b_res5b_relu_0_split -> res5b_res5b_relu_0_split_0
I0706 14:05:46.244330 27901 net.cpp:399] res5b_res5b_relu_0_split -> res5b_res5b_relu_0_split_1
I0706 14:05:46.244386 27901 net.cpp:141] Setting up res5b_res5b_relu_0_split
I0706 14:05:46.244396 27901 net.cpp:148] Top shape: 1 2048 60 60 (7372800)
I0706 14:05:46.244403 27901 net.cpp:148] Top shape: 1 2048 60 60 (7372800)
I0706 14:05:46.244408 27901 net.cpp:156] Memory required for data: 4519526400
I0706 14:05:46.244413 27901 layer_factory.hpp:77] Creating layer res5c_branch2a
I0706 14:05:46.244426 27901 net.cpp:91] Creating Layer res5c_branch2a
I0706 14:05:46.244431 27901 net.cpp:425] res5c_branch2a <- res5b_res5b_relu_0_split_0
I0706 14:05:46.244442 27901 net.cpp:399] res5c_branch2a -> res5c_branch2a
I0706 14:05:46.247499 27901 net.cpp:141] Setting up res5c_branch2a
I0706 14:05:46.247519 27901 net.cpp:148] Top shape: 1 512 60 60 (1843200)
I0706 14:05:46.247525 27901 net.cpp:156] Memory required for data: 4526899200
I0706 14:05:46.247535 27901 layer_factory.hpp:77] Creating layer bn5c_branch2a
I0706 14:05:46.247546 27901 net.cpp:91] Creating Layer bn5c_branch2a
I0706 14:05:46.247552 27901 net.cpp:425] bn5c_branch2a <- res5c_branch2a
I0706 14:05:46.247565 27901 net.cpp:386] bn5c_branch2a -> res5c_branch2a (in-place)
I0706 14:05:46.247874 27901 net.cpp:141] Setting up bn5c_branch2a
I0706 14:05:46.247886 27901 net.cpp:148] Top shape: 1 512 60 60 (1843200)
I0706 14:05:46.247891 27901 net.cpp:156] Memory required for data: 4534272000
I0706 14:05:46.247905 27901 layer_factory.hpp:77] Creating layer scale5c_branch2a
I0706 14:05:46.247915 27901 net.cpp:91] Creating Layer scale5c_branch2a
I0706 14:05:46.247921 27901 net.cpp:425] scale5c_branch2a <- res5c_branch2a
I0706 14:05:46.247930 27901 net.cpp:386] scale5c_branch2a -> res5c_branch2a (in-place)
I0706 14:05:46.247987 27901 layer_factory.hpp:77] Creating layer scale5c_branch2a
I0706 14:05:46.248177 27901 net.cpp:141] Setting up scale5c_branch2a
I0706 14:05:46.248189 27901 net.cpp:148] Top shape: 1 512 60 60 (1843200)
I0706 14:05:46.248194 27901 net.cpp:156] Memory required for data: 4541644800
I0706 14:05:46.248205 27901 layer_factory.hpp:77] Creating layer res5c_branch2a_relu
I0706 14:05:46.248214 27901 net.cpp:91] Creating Layer res5c_branch2a_relu
I0706 14:05:46.248234 27901 net.cpp:425] res5c_branch2a_relu <- res5c_branch2a
I0706 14:05:46.248242 27901 net.cpp:386] res5c_branch2a_relu -> res5c_branch2a (in-place)
I0706 14:05:46.248252 27901 net.cpp:141] Setting up res5c_branch2a_relu
I0706 14:05:46.248260 27901 net.cpp:148] Top shape: 1 512 60 60 (1843200)
I0706 14:05:46.248265 27901 net.cpp:156] Memory required for data: 4549017600
I0706 14:05:46.248268 27901 layer_factory.hpp:77] Creating layer res5c_branch2b
I0706 14:05:46.248281 27901 net.cpp:91] Creating Layer res5c_branch2b
I0706 14:05:46.248286 27901 net.cpp:425] res5c_branch2b <- res5c_branch2a
I0706 14:05:46.248297 27901 net.cpp:399] res5c_branch2b -> res5c_branch2b
I0706 14:05:46.254891 27901 net.cpp:141] Setting up res5c_branch2b
I0706 14:05:46.254920 27901 net.cpp:148] Top shape: 1 512 60 60 (1843200)
I0706 14:05:46.254925 27901 net.cpp:156] Memory required for data: 4556390400
I0706 14:05:46.254935 27901 layer_factory.hpp:77] Creating layer bn5c_branch2b
I0706 14:05:46.254946 27901 net.cpp:91] Creating Layer bn5c_branch2b
I0706 14:05:46.254952 27901 net.cpp:425] bn5c_branch2b <- res5c_branch2b
I0706 14:05:46.254964 27901 net.cpp:386] bn5c_branch2b -> res5c_branch2b (in-place)
I0706 14:05:46.255981 27901 net.cpp:141] Setting up bn5c_branch2b
I0706 14:05:46.256000 27901 net.cpp:148] Top shape: 1 512 60 60 (1843200)
I0706 14:05:46.256006 27901 net.cpp:156] Memory required for data: 4563763200
I0706 14:05:46.256019 27901 layer_factory.hpp:77] Creating layer scale5c_branch2b
I0706 14:05:46.256032 27901 net.cpp:91] Creating Layer scale5c_branch2b
I0706 14:05:46.256038 27901 net.cpp:425] scale5c_branch2b <- res5c_branch2b
I0706 14:05:46.256047 27901 net.cpp:386] scale5c_branch2b -> res5c_branch2b (in-place)
I0706 14:05:46.256110 27901 layer_factory.hpp:77] Creating layer scale5c_branch2b
I0706 14:05:46.256301 27901 net.cpp:141] Setting up scale5c_branch2b
I0706 14:05:46.256314 27901 net.cpp:148] Top shape: 1 512 60 60 (1843200)
I0706 14:05:46.256319 27901 net.cpp:156] Memory required for data: 4571136000
I0706 14:05:46.256330 27901 layer_factory.hpp:77] Creating layer res5c_branch2b_relu
I0706 14:05:46.256338 27901 net.cpp:91] Creating Layer res5c_branch2b_relu
I0706 14:05:46.256345 27901 net.cpp:425] res5c_branch2b_relu <- res5c_branch2b
I0706 14:05:46.256352 27901 net.cpp:386] res5c_branch2b_relu -> res5c_branch2b (in-place)
I0706 14:05:46.256361 27901 net.cpp:141] Setting up res5c_branch2b_relu
I0706 14:05:46.256367 27901 net.cpp:148] Top shape: 1 512 60 60 (1843200)
I0706 14:05:46.256372 27901 net.cpp:156] Memory required for data: 4578508800
I0706 14:05:46.256377 27901 layer_factory.hpp:77] Creating layer res5c_branch2c
I0706 14:05:46.256391 27901 net.cpp:91] Creating Layer res5c_branch2c
I0706 14:05:46.256395 27901 net.cpp:425] res5c_branch2c <- res5c_branch2b
I0706 14:05:46.256404 27901 net.cpp:399] res5c_branch2c -> res5c_branch2c
I0706 14:05:46.261243 27901 net.cpp:141] Setting up res5c_branch2c
I0706 14:05:46.261281 27901 net.cpp:148] Top shape: 1 2048 60 60 (7372800)
I0706 14:05:46.261291 27901 net.cpp:156] Memory required for data: 4608000000
I0706 14:05:46.261309 27901 layer_factory.hpp:77] Creating layer bn5c_branch2c
I0706 14:05:46.261329 27901 net.cpp:91] Creating Layer bn5c_branch2c
I0706 14:05:46.261348 27901 net.cpp:425] bn5c_branch2c <- res5c_branch2c
I0706 14:05:46.261366 27901 net.cpp:386] bn5c_branch2c -> res5c_branch2c (in-place)
I0706 14:05:46.261780 27901 net.cpp:141] Setting up bn5c_branch2c
I0706 14:05:46.261800 27901 net.cpp:148] Top shape: 1 2048 60 60 (7372800)
I0706 14:05:46.261806 27901 net.cpp:156] Memory required for data: 4637491200
I0706 14:05:46.261826 27901 layer_factory.hpp:77] Creating layer scale5c_branch2c
I0706 14:05:46.261842 27901 net.cpp:91] Creating Layer scale5c_branch2c
I0706 14:05:46.261858 27901 net.cpp:425] scale5c_branch2c <- res5c_branch2c
I0706 14:05:46.261875 27901 net.cpp:386] scale5c_branch2c -> res5c_branch2c (in-place)
I0706 14:05:46.261965 27901 layer_factory.hpp:77] Creating layer scale5c_branch2c
I0706 14:05:46.262238 27901 net.cpp:141] Setting up scale5c_branch2c
I0706 14:05:46.262259 27901 net.cpp:148] Top shape: 1 2048 60 60 (7372800)
I0706 14:05:46.262267 27901 net.cpp:156] Memory required for data: 4666982400
I0706 14:05:46.262284 27901 layer_factory.hpp:77] Creating layer res5c
I0706 14:05:46.262300 27901 net.cpp:91] Creating Layer res5c
I0706 14:05:46.262310 27901 net.cpp:425] res5c <- res5b_res5b_relu_0_split_1
I0706 14:05:46.262329 27901 net.cpp:425] res5c <- res5c_branch2c
I0706 14:05:46.262343 27901 net.cpp:399] res5c -> res5c
I0706 14:05:46.262392 27901 net.cpp:141] Setting up res5c
I0706 14:05:46.262408 27901 net.cpp:148] Top shape: 1 2048 60 60 (7372800)
I0706 14:05:46.262420 27901 net.cpp:156] Memory required for data: 4696473600
I0706 14:05:46.262428 27901 layer_factory.hpp:77] Creating layer res5c_relu
I0706 14:05:46.262439 27901 net.cpp:91] Creating Layer res5c_relu
I0706 14:05:46.262447 27901 net.cpp:425] res5c_relu <- res5c
I0706 14:05:46.262457 27901 net.cpp:386] res5c_relu -> res5c (in-place)
I0706 14:05:46.262471 27901 net.cpp:141] Setting up res5c_relu
I0706 14:05:46.262481 27901 net.cpp:148] Top shape: 1 2048 60 60 (7372800)
I0706 14:05:46.262488 27901 net.cpp:156] Memory required for data: 4725964800
I0706 14:05:46.262495 27901 layer_factory.hpp:77] Creating layer res5c_res5c_relu_0_split
I0706 14:05:46.262508 27901 net.cpp:91] Creating Layer res5c_res5c_relu_0_split
I0706 14:05:46.262516 27901 net.cpp:425] res5c_res5c_relu_0_split <- res5c
I0706 14:05:46.262527 27901 net.cpp:399] res5c_res5c_relu_0_split -> res5c_res5c_relu_0_split_0
I0706 14:05:46.262543 27901 net.cpp:399] res5c_res5c_relu_0_split -> res5c_res5c_relu_0_split_1
I0706 14:05:46.262558 27901 net.cpp:399] res5c_res5c_relu_0_split -> res5c_res5c_relu_0_split_2
I0706 14:05:46.262576 27901 net.cpp:399] res5c_res5c_relu_0_split -> res5c_res5c_relu_0_split_3
I0706 14:05:46.262591 27901 net.cpp:399] res5c_res5c_relu_0_split -> res5c_res5c_relu_0_split_4
I0706 14:05:46.262732 27901 net.cpp:141] Setting up res5c_res5c_relu_0_split
I0706 14:05:46.262748 27901 net.cpp:148] Top shape: 1 2048 60 60 (7372800)
I0706 14:05:46.262758 27901 net.cpp:148] Top shape: 1 2048 60 60 (7372800)
I0706 14:05:46.262766 27901 net.cpp:148] Top shape: 1 2048 60 60 (7372800)
I0706 14:05:46.262774 27901 net.cpp:148] Top shape: 1 2048 60 60 (7372800)
I0706 14:05:46.262784 27901 net.cpp:148] Top shape: 1 2048 60 60 (7372800)
I0706 14:05:46.262790 27901 net.cpp:156] Memory required for data: 4873420800
I0706 14:05:46.262797 27901 layer_factory.hpp:77] Creating layer fc1_VOC_c0
I0706 14:05:46.262819 27901 net.cpp:91] Creating Layer fc1_VOC_c0
I0706 14:05:46.262828 27901 net.cpp:425] fc1_VOC_c0 <- res5c_res5c_relu_0_split_0
I0706 14:05:46.262843 27901 net.cpp:399] fc1_VOC_c0 -> fc1_VOC_c0
I0706 14:05:46.290020 27901 net.cpp:141] Setting up fc1_VOC_c0
I0706 14:05:46.290066 27901 net.cpp:148] Top shape: 1 21 60 60 (75600)
I0706 14:05:46.290086 27901 net.cpp:156] Memory required for data: 4873723200
I0706 14:05:46.290206 27901 layer_factory.hpp:77] Creating layer fc1_VOC_c1
I0706 14:05:46.290246 27901 net.cpp:91] Creating Layer fc1_VOC_c1
I0706 14:05:46.290314 27901 net.cpp:425] fc1_VOC_c1 <- res5c_res5c_relu_0_split_1
I0706 14:05:46.290364 27901 net.cpp:399] fc1_VOC_c1 -> fc1_VOC_c1
I0706 14:05:46.311697 27901 net.cpp:141] Setting up fc1_VOC_c1
I0706 14:05:46.311720 27901 net.cpp:148] Top shape: 1 21 60 60 (75600)
I0706 14:05:46.311728 27901 net.cpp:156] Memory required for data: 4874025600
I0706 14:05:46.311745 27901 layer_factory.hpp:77] Creating layer fc1_VOC_c2
I0706 14:05:46.311769 27901 net.cpp:91] Creating Layer fc1_VOC_c2
I0706 14:05:46.311784 27901 net.cpp:425] fc1_VOC_c2 <- res5c_res5c_relu_0_split_2
I0706 14:05:46.311800 27901 net.cpp:399] fc1_VOC_c2 -> fc1_VOC_c2
I0706 14:05:46.330864 27901 net.cpp:141] Setting up fc1_VOC_c2
I0706 14:05:46.330888 27901 net.cpp:148] Top shape: 1 21 60 60 (75600)
I0706 14:05:46.330894 27901 net.cpp:156] Memory required for data: 4874328000
I0706 14:05:46.330907 27901 layer_factory.hpp:77] Creating layer fc1_VOC_c3
I0706 14:05:46.330957 27901 net.cpp:91] Creating Layer fc1_VOC_c3
I0706 14:05:46.330966 27901 net.cpp:425] fc1_VOC_c3 <- res5c_res5c_relu_0_split_3
I0706 14:05:46.330978 27901 net.cpp:399] fc1_VOC_c3 -> fc1_VOC_c3
I0706 14:05:46.348579 27901 net.cpp:141] Setting up fc1_VOC_c3
I0706 14:05:46.348601 27901 net.cpp:148] Top shape: 1 21 60 60 (75600)
I0706 14:05:46.348606 27901 net.cpp:156] Memory required for data: 4874630400
I0706 14:05:46.348618 27901 layer_factory.hpp:77] Creating layer fc1_VOC_c4
I0706 14:05:46.348640 27901 net.cpp:91] Creating Layer fc1_VOC_c4
I0706 14:05:46.348649 27901 net.cpp:425] fc1_VOC_c4 <- res5c_res5c_relu_0_split_4
I0706 14:05:46.348661 27901 net.cpp:399] fc1_VOC_c4 -> fc1_VOC_c4
I0706 14:05:46.365526 27901 net.cpp:141] Setting up fc1_VOC_c4
I0706 14:05:46.365547 27901 net.cpp:148] Top shape: 1 21 60 60 (75600)
I0706 14:05:46.365553 27901 net.cpp:156] Memory required for data: 4874932800
I0706 14:05:46.365564 27901 layer_factory.hpp:77] Creating layer fc1_VOC
I0706 14:05:46.365581 27901 net.cpp:91] Creating Layer fc1_VOC
I0706 14:05:46.365588 27901 net.cpp:425] fc1_VOC <- fc1_VOC_c0
I0706 14:05:46.365597 27901 net.cpp:425] fc1_VOC <- fc1_VOC_c1
I0706 14:05:46.365602 27901 net.cpp:425] fc1_VOC <- fc1_VOC_c2
I0706 14:05:46.365608 27901 net.cpp:425] fc1_VOC <- fc1_VOC_c3
I0706 14:05:46.365613 27901 net.cpp:425] fc1_VOC <- fc1_VOC_c4
I0706 14:05:46.365623 27901 net.cpp:399] fc1_VOC -> fc1_VOC
I0706 14:05:46.365665 27901 net.cpp:141] Setting up fc1_VOC
I0706 14:05:46.365677 27901 net.cpp:148] Top shape: 1 21 60 60 (75600)
I0706 14:05:46.365682 27901 net.cpp:156] Memory required for data: 4875235200
I0706 14:05:46.365687 27901 layer_factory.hpp:77] Creating layer upscore
I0706 14:05:46.365701 27901 net.cpp:91] Creating Layer upscore
I0706 14:05:46.365708 27901 net.cpp:425] upscore <- fc1_VOC
I0706 14:05:46.365717 27901 net.cpp:399] upscore -> upscore
I0706 14:05:46.366359 27901 net.cpp:141] Setting up upscore
I0706 14:05:46.366374 27901 net.cpp:148] Top shape: 1 21 480 480 (4838400)
I0706 14:05:46.366379 27901 net.cpp:156] Memory required for data: 4894588800
I0706 14:05:46.366387 27901 layer_factory.hpp:77] Creating layer loss
I0706 14:05:46.366403 27901 net.cpp:91] Creating Layer loss
I0706 14:05:46.366410 27901 net.cpp:425] loss <- upscore
I0706 14:05:46.366417 27901 net.cpp:425] loss <- label
I0706 14:05:46.366428 27901 net.cpp:399] loss -> loss
I0706 14:05:46.366446 27901 layer_factory.hpp:77] Creating layer loss
…
