…
I0706 14:05:43.148620 27831 solver.cpp:81] Creating training net from train_net file: examples/DPN2_Coco_val/DPN2_Coco.prototxt
I0706 14:05:43.178555 27831 net.cpp:49] Initializing net from parameters: 
name: "DPN"
state {
  phase: TRAIN
}
layer {
  name: "data"
  type: "ImageSegData"
  top: "data"
  top: "label"
  transform_param {
    mirror: true
    crop_size: 480
    mean_value: 104.00699
    mean_value: 116.66877
    mean_value: 122.67892
    crop_resize: 0.8
    crop_resize: 1
  }
  image_data_param {
    source: "data/coco/trainval2014.txt"
    batch_size: 1
    shuffle: true
    root_folder: "data/coco/"
    label_type: PIXEL
  }
}
layer {
  name: "conv1"
  type: "Convolution"
  bottom: "data"
  top: "conv1"
  param {
    name: "conv1_0"
    lr_mult: 1
    decay_mult: 1
  }
  convolution_param {
    num_output: 64
    bias_term: false
    pad: 3
    kernel_size: 7
    stride: 2
  }
}
layer {
  name: "bn_conv1"
  type: "BatchNorm"
  bottom: "conv1"
  top: "conv1"
  param {
    name: "bn_conv1_0"
    lr_mult: 0
  }
  param {
    name: "bn_conv1_1"
    lr_mult: 0
  }
  param {
    name: "bn_conv1_2"
    lr_mult: 0
  }
  batch_norm_param {
    use_global_stats: true
  }
}
layer {
  name: "scale_conv1"
  type: "Scale"
  bottom: "conv1"
  top: "conv1"
  param {
    name: "scale_conv1_0"
    lr_mult: 0
  }
  param {
    name: "scale_conv1_1"
    lr_mult: 0
  }
  scale_param {
    bias_term: true
  }
}
layer {
  name: "conv1_relu"
  type: "ReLU"
  bottom: "conv1"
  top: "conv1"
}
layer {
  name: "pool1"
  type: "Pooling"
  bottom: "conv1"
  top: "pool1"
  pooling_param {
    pool: MAX
    kernel_size: 3
    stride: 2
  }
}
layer {
  name: "res2a_branch1"
  type: "Convolution"
  bottom: "pool1"
  top: "res2a_branch1"
  param {
    name: "res2a_branch1_0"
    lr_mult: 1
    decay_mult: 1
  }
  convolution_param {
    num_output: 256
    bias_term: false
    pad: 0
    kernel_size: 1
    stride: 1
  }
}
layer {
  name: "bn2a_branch1"
  type: "BatchNorm"
  bottom: "res2a_branch1"
  top: "res2a_branch1"
  param {
    name: "bn2a_branch1_0"
    lr_mult: 0
  }
  param {
    name: "bn2a_branch1_1"
    lr_mult: 0
  }
  param {
    name: "bn2a_branch1_2"
    lr_mult: 0
  }
  batch_norm_param {
    use_global_stats: true
  }
}
layer {
  name: "scale2a_branch1"
  type: "Scale"
  bottom: "res2a_branch1"
  top: "res2a_branch1"
  param {
    name: "scale2a_branch1_0"
    lr_mult: 0
  }
  param {
    name: "scale2a_branch1_1"
    lr_mult: 0
  }
  scale_param {
    bias_term: true
  }
}
layer {
  name: "res2a_branch2a"
  type: "Convolution"
  bottom: "pool1"
  top: "res2a_branch2a"
  param {
    name: "res2a_branch2a_0"
    lr_mult: 1
    decay_mult: 1
  }
  convolution_param {
    num_output: 64
    bias_term: false
    pad: 0
    kernel_size: 1
    stride: 1
  }
}
layer {
  name: "bn2a_branch2a"
  type: "BatchNorm"
  bottom: "res2a_branch2a"
  top: "res2a_branch2a"
  param {
    name: "bn2a_branch2a_0"
    lr_mult: 0
  }
  param {
    name: "bn2a_branch2a_1"
    lr_mult: 0
  }
  param {
    name: "bn2a_branch2a_2"
    lr_mult: 0
  }
  batch_norm_param {
    use_global_stats: true
  }
}
layer {
  name: "scale2a_branch2a"
  type: "Scale"
  bottom: "res2a_branch2a"
  top: "res2a_branch2a"
  param {
    name: "scale2a_branch2a_0"
    lr_mult: 0
  }
  param {
    name: "scale2a_branch2a_1"
    lr_mult: 0
  }
  scale_param {
    bias_term: true
  }
}
layer {
  name: "res2a_branch2a_relu"
  type: "ReLU"
  bottom: "res2a_branch2a"
  top: "res2a_branch2a"
}
layer {
  name: "res2a_branch2b"
  type: "Convolution"
  bottom: "res2a_branch2a"
  top: "res2a_branch2b"
  param {
    name: "res2a_branch2b_0"
    lr_mult: 1
    decay_mult: 1
  }
  convolution_param {
    num_output: 64
    bias_term: false
    pad: 1
    kernel_size: 3
    stride: 1
  }
}
layer {
  name: "bn2a_branch2b"
  type: "BatchNorm"
  bottom: "res2a_branch2b"
  top: "res2a_branch2b"
  param {
    name: "bn2a_branch2b_0"
    lr_mult: 0
  }
  param {
    name: "bn2a_branch2b_1"
    lr_mult: 0
  }
  param {
    name: "bn2a_branch2b_2"
    lr_mult: 0
  }
  batch_norm_param {
    use_global_stats: true
  }
}
layer {
  name: "scale2a_branch2b"
  type: "Scale"
  bottom: "res2a_branch2b"
  top: "res2a_branch2b"
  param {
    name: "scale2a_branch2b_0"
    lr_mult: 0
  }
  param {
    name: "scale2a_branch2b_1"
    lr_mult: 0
  }
  scale_param {
    bias_term: true
  }
}
layer {
  name: "res2a_branch2b_relu"
  type: "ReLU"
  bottom: "res2a_branch2b"
  top: "res2a_branch2b"
}
layer {
  name: "res2a_branch2c"
  type: "Convolution"
  bottom: "res2a_branch2b"
  top: "res2a_branch2c"
  param {
    name: "res2a_branch2c_0"
    lr_mult: 1
    decay_mult: 1
  }
  convolution_param {
    num_output: 256
    bias_term: false
    pad: 0
    kernel_size: 1
    stride: 1
  }
}
layer {
  name: "bn2a_branch2c"
  type: "BatchNorm"
  bottom: "res2a_branch2c"
  top: "res2a_branch2c"
  param {
    name: "bn2a_branch2c_0"
    lr_mult: 0
  }
  param {
    name: "bn2a_branch2c_1"
    lr_mult: 0
  }
  param {
    name: "bn2a_branch2c_2"
    lr_mult: 0
  }
  batch_norm_param {
    use_global_stats: true
  }
}
layer {
  name: "scale2a_branch2c"
  type: "Scale"
  bottom: "res2a_branch2c"
  top: "res2a_branch2c"
  param {
    name: "scale2a_branch2c_0"
    lr_mult: 0
  }
  param {
    name: "scale2a_branch2c_1"
    lr_mult: 0
  }
  scale_param {
    bias_term: true
  }
}
layer {
  name: "res2a"
  type: "Eltwise"
  bottom: "res2a_branch1"
  bottom: "res2a_branch2c"
  top: "res2a"
}
layer {
  name: "res2a_relu"
  type: "ReLU"
  bottom: "res2a"
  top: "res2a"
}
layer {
  name: "res2b_branch2a"
  type: "Convolution"
  bottom: "res2a"
  top: "res2b_branch2a"
  param {
    name: "res2b_branch2a_0"
    lr_mult: 1
    decay_mult: 1
  }
  convolution_param {
    num_output: 64
    bias_term: false
    pad: 0
    kernel_size: 1
    stride: 1
  }
}
layer {
  name: "bn2b_branch2a"
  type: "BatchNorm"
  bottom: "res2b_branch2a"
  top: "res2b_branch2a"
  param {
    name: "bn2b_branch2a_0"
    lr_mult: 0
  }
  param {
    name: "bn2b_branch2a_1"
    lr_mult: 0
  }
  param {
    name: "bn2b_branch2a_2"
    lr_mult: 0
  }
  batch_norm_param {
    use_global_stats: true
  }
}
layer {
  name: "scale2b_branch2a"
  type: "Scale"
  bottom: "res2b_branch2a"
  top: "res2b_branch2a"
  param {
    name: "scale2b_branch2a_0"
    lr_mult: 0
  }
  param {
    name: "scale2b_branch2a_1"
    lr_mult: 0
  }
  scale_param {
    bias_term: true
  }
}
layer {
  name: "res2b_branch2a_relu"
  type: "ReLU"
  bottom: "res2b_branch2a"
  top: "res2b_branch2a"
}
layer {
  name: "res2b_branch2b"
  type: "Convolution"
  bottom: "res2b_branch2a"
  top: "res2b_branch2b"
  param {
    name: "res2b_branch2b_0"
    lr_mult: 1
    decay_mult: 1
  }
  convolution_param {
    num_output: 64
    bias_term: false
    pad: 1
    kernel_size: 3
    stride: 1
  }
}
layer {
  name: "bn2b_branch2b"
  type: "BatchNorm"
  bottom: "res2b_branch2b"
  top: "res2b_branch2b"
  param {
    name: "bn2b_branch2b_0"
    lr_mult: 0
  }
  param {
    name: "bn2b_branch2b_1"
    lr_mult: 0
  }
  param {
    name: "bn2b_branch2b_2"
    lr_mult: 0
  }
  batch_norm_param {
    use_global_stats: true
  }
}
layer {
  name: "scale2b_branch2b"
  type: "Scale"
  bottom: "res2b_branch2b"
  top: "res2b_branch2b"
  param {
    name: "scale2b_branch2b_0"
    lr_mult: 0
  }
  param {
    name: "scale2b_branch2b_1"
    lr_mult: 0
  }
  scale_param {
    bias_term: true
  }
}
layer {
  name: "res2b_branch2b_relu"
  type: "ReLU"
  bottom: "res2b_branch2b"
  top: "res2b_branch2b"
}
layer {
  name: "res2b_branch2c"
  type: "Convolution"
  bottom: "res2b_branch2b"
  top: "res2b_branch2c"
  param {
    name: "res2b_branch2c_0"
    lr_mult: 1
    decay_mult: 1
  }
  convolution_param {
    num_output: 256
    bias_term: false
    pad: 0
    kernel_size: 1
    stride: 1
  }
}
layer {
  name: "bn2b_branch2c"
  type: "BatchNorm"
  bottom: "res2b_branch2c"
  top: "res2b_branch2c"
  param {
    name: "bn2b_branch2c_0"
    lr_mult: 0
  }
  param {
    name: "bn2b_branch2c_1"
    lr_mult: 0
  }
  param {
    name: "bn2b_branch2c_2"
    lr_mult: 0
  }
  batch_norm_param {
    use_global_stats: true
  }
}
layer {
  name: "scale2b_branch2c"
  type: "Scale"
  bottom: "res2b_branch2c"
  top: "res2b_branch2c"
  param {
    name: "scale2b_branch2c_0"
    lr_mult: 0
  }
  param {
    name: "scale2b_branch2c_1"
    lr_mult: 0
  }
  scale_param {
    bias_term: true
  }
}
layer {
  name: "res2b"
  type: "Eltwise"
  bottom: "res2a"
  bottom: "res2b_branch2c"
  top: "res2b"
}
layer {
  name: "res2b_relu"
  type: "ReLU"
  bottom: "res2b"
  top: "res2b"
}
layer {
  name: "res2c_branch2a"
  type: "Convolution"
  bottom: "res2b"
  top: "res2c_branch2a"
  param {
    name: "res2c_branch2a_0"
    lr_mult: 1
    decay_mult: 1
  }
  convolution_param {
    num_output: 64
    bias_term: false
    pad: 0
    kernel_size: 1
    stride: 1
  }
}
layer {
  name: "bn2c_branch2a"
  type: "BatchNorm"
  bottom: "res2c_branch2a"
  top: "res2c_branch2a"
  param {
    name: "bn2c_branch2a_0"
    lr_mult: 0
  }
  param {
    name: "bn2c_branch2a_1"
    lr_mult: 0
  }
  param {
    name: "bn2c_branch2a_2"
    lr_mult: 0
  }
  batch_norm_param {
    use_global_stats: true
  }
}
layer {
  name: "scale2c_branch2a"
  type: "Scale"
  bottom: "res2c_branch2a"
  top: "res2c_branch2a"
  param {
    name: "scale2c_branch2a_0"
    lr_mult: 0
  }
  param {
    name: "scale2c_branch2a_1"
    lr_mult: 0
  }
  scale_param {
    bias_term: true
  }
}
layer {
  name: "res2c_branch2a_relu"
  type: "ReLU"
  bottom: "res2c_branch2a"
  top: "res2c_branch2a"
}
layer {
  name: "res2c_branch2b"
  type: "Convolution"
  bottom: "res2c_branch2a"
  top: "res2c_branch2b"
  param {
    name: "res2c_branch2b_0"
    lr_mult: 1
    decay_mult: 1
  }
  convolution_param {
    num_output: 64
    bias_term: false
    pad: 1
    kernel_size: 3
    stride: 1
  }
}
layer {
  name: "bn2c_branch2b"
  type: "BatchNorm"
  bottom: "res2c_branch2b"
  top: "res2c_branch2b"
  param {
    name: "bn2c_branch2b_0"
    lr_mult: 0
  }
  param {
    name: "bn2c_branch2b_1"
    lr_mult: 0
  }
  param {
    name: "bn2c_branch2b_2"
    lr_mult: 0
  }
  batch_norm_param {
    use_global_stats: true
  }
}
layer {
  name: "scale2c_branch2b"
  type: "Scale"
  bottom: "res2c_branch2b"
  top: "res2c_branch2b"
  param {
    name: "scale2c_branch2b_0"
    lr_mult: 0
  }
  param {
    name: "scale2c_branch2b_1"
    lr_mult: 0
  }
  scale_param {
    bias_term: true
  }
}
layer {
  name: "res2c_branch2b_relu"
  type: "ReLU"
  bottom: "res2c_branch2b"
  top: "res2c_branch2b"
}
layer {
  name: "res2c_branch2c"
  type: "Convolution"
  bottom: "res2c_branch2b"
  top: "res2c_branch2c"
  param {
    name: "res2c_branch2c_0"
    lr_mult: 1
    decay_mult: 1
  }
  convolution_param {
    num_output: 256
    bias_term: false
    pad: 0
    kernel_size: 1
    stride: 1
  }
}
layer {
  name: "bn2c_branch2c"
  type: "BatchNorm"
  bottom: "res2c_branch2c"
  top: "res2c_branch2c"
  param {
    name: "bn2c_branch2c_0"
    lr_mult: 0
  }
  param {
    name: "bn2c_branch2c_1"
    lr_mult: 0
  }
  param {
    name: "bn2c_branch2c_2"
    lr_mult: 0
  }
  batch_norm_param {
    use_global_stats: true
  }
}
layer {
  name: "scale2c_branch2c"
  type: "Scale"
  bottom: "res2c_branch2c"
  top: "res2c_branch2c"
  param {
    name: "scale2c_branch2c_0"
    lr_mult: 0
  }
  param {
    name: "scale2c_branch2c_1"
    lr_mult: 0
  }
  scale_param {
    bias_term: true
  }
}
layer {
  name: "res2c"
  type: "Eltwise"
  bottom: "res2b"
  bottom: "res2c_branch2c"
  top: "res2c"
}
layer {
  name: "res2c_relu"
  type: "ReLU"
  bottom: "res2c"
  top: "res2c"
}
layer {
  name: "res3a_branch1"
  type: "Convolution"
  bottom: "res2c"
  top: "res3a_branch1"
  param {
    name: "res3a_branch1_0"
    lr_mult: 1
    decay_mult: 1
  }
  convolution_param {
    num_output: 512
    bias_term: false
    pad: 0
    kernel_size: 1
    stride: 2
  }
}
layer {
  name: "bn3a_branch1"
  type: "BatchNorm"
  bottom: "res3a_branch1"
  top: "res3a_branch1"
  param {
    name: "bn3a_branch1_0"
    lr_mult: 0
  }
  param {
    name: "bn3a_branch1_1"
    lr_mult: 0
  }
  param {
    name: "bn3a_branch1_2"
    lr_mult: 0
  }
  batch_norm_param {
    use_global_stats: true
  }
}
layer {
  name: "scale3a_branch1"
  type: "Scale"
  bottom: "res3a_branch1"
  top: "res3a_branch1"
  param {
    name: "scale3a_branch1_0"
    lr_mult: 0
  }
  param {
    name: "scale3a_branch1_1"
    lr_mult: 0
  }
  scale_param {
    bias_term: true
  }
}
layer {
  name: "res3a_branch2a"
  type: "Convolution"
  bottom: "res2c"
  top: "res3a_branch2a"
  param {
    name: "res3a_branch2a_0"
    lr_mult: 1
    decay_mult: 1
  }
  convolution_param {
    num_output: 128
    bias_term: false
    pad: 0
    kernel_size: 1
    stride: 2
  }
}
layer {
  name: "bn3a_branch2a"
  type: "BatchNorm"
  bottom: "res3a_branch2a"
  top: "res3a_branch2a"
  param {
    name: "bn3a_branch2a_0"
    lr_mult: 0
  }
  param {
    name: "bn3a_branch2a_1"
    lr_mult: 0
  }
  param {
    name: "bn3a_branch2a_2"
    lr_mult: 0
  }
  batch_norm_param {
    use_global_stats: true
  }
}
layer {
  name: "scale3a_branch2a"
  type: "Scale"
  bottom: "res3a_branch2a"
  top: "res3a_branch2a"
  param {
    name: "scale3a_branch2a_0"
    lr_mult: 0
  }
  param {
    name: "scale3a_branch2a_1"
    lr_mult: 0
  }
  scale_param {
    bias_term: true
  }
}
layer {
  name: "res3a_branch2a_relu"
  type: "ReLU"
  bottom: "res3a_branch2a"
  top: "res3a_branch2a"
}
layer {
  name: "res3a_branch2b"
  type: "Convolution"
  bottom: "res3a_branch2a"
  top: "res3a_branch2b"
  param {
    name: "res3a_branch2b_0"
    lr_mult: 1
    decay_mult: 1
  }
  convolution_param {
    num_output: 128
    bias_term: false
    pad: 1
    kernel_size: 3
    stride: 1
  }
}
layer {
  name: "bn3a_branch2b"
  type: "BatchNorm"
  bottom: "res3a_branch2b"
  top: "res3a_branch2b"
  param {
    name: "bn3a_branch2b_0"
    lr_mult: 0
  }
  param {
    name: "bn3a_branch2b_1"
    lr_mult: 0
  }
  param {
    name: "bn3a_branch2b_2"
    lr_mult: 0
  }
  batch_norm_param {
    use_global_stats: true
  }
}
layer {
  name: "scale3a_branch2b"
  type: "Scale"
  bottom: "res3a_branch2b"
  top: "res3a_branch2b"
  param {
    name: "scale3a_branch2b_0"
    lr_mult: 0
  }
  param {
    name: "scale3a_branch2b_1"
    lr_mult: 0
  }
  scale_param {
    bias_term: true
  }
}
layer {
  name: "res3a_branch2b_relu"
  type: "ReLU"
  bottom: "res3a_branch2b"
  top: "res3a_branch2b"
}
layer {
  name: "res3a_branch2c"
  type: "Convolution"
  bottom: "res3a_branch2b"
  top: "res3a_branch2c"
  param {
    name: "res3a_branch2c_0"
    lr_mult: 1
    decay_mult: 1
  }
  convolution_param {
    num_output: 512
    bias_term: false
    pad: 0
    kernel_size: 1
    stride: 1
  }
}
layer {
  name: "bn3a_branch2c"
  type: "BatchNorm"
  bottom: "res3a_branch2c"
  top: "res3a_branch2c"
  param {
    name: "bn3a_branch2c_0"
    lr_mult: 0
  }
  param {
    name: "bn3a_branch2c_1"
    lr_mult: 0
  }
  param {
    name: "bn3a_branch2c_2"
    lr_mult: 0
  }
  batch_norm_param {
    use_global_stats: true
  }
}
layer {
  name: "scale3a_branch2c"
  type: "Scale"
  bottom: "res3a_branch2c"
  top: "res3a_branch2c"
  param {
    name: "scale3a_branch2c_0"
    lr_mult: 0
  }
  param {
    name: "scale3a_branch2c_1"
    lr_mult: 0
  }
  scale_param {
    bias_term: true
  }
}
layer {
  name: "res3a"
  type: "Eltwise"
  bottom: "res3a_branch1"
  bottom: "res3a_branch2c"
  top: "res3a"
}
layer {
  name: "res3a_relu"
  type: "ReLU"
  bottom: "res3a"
  top: "res3a"
}
layer {
  name: "res3b1_branch2a"
  type: "Convolution"
  bottom: "res3a"
  top: "res3b1_branch2a"
  param {
    name: "res3b1_branch2a_0"
    lr_mult: 1
    decay_mult: 1
  }
  convolution_param {
    num_output: 128
    bias_term: false
    pad: 0
    kernel_size: 1
    stride: 1
  }
}
layer {
  name: "bn3b1_branch2a"
  type: "BatchNorm"
  bottom: "res3b1_branch2a"
  top: "res3b1_branch2a"
  param {
    name: "bn3b1_branch2a_0"
    lr_mult: 0
  }
  param {
    name: "bn3b1_branch2a_1"
    lr_mult: 0
  }
  param {
    name: "bn3b1_branch2a_2"
    lr_mult: 0
  }
  batch_norm_param {
    use_global_stats: true
  }
}
layer {
  name: "scale3b1_branch2a"
  type: "Scale"
  bottom: "res3b1_branch2a"
  top: "res3b1_branch2a"
  param {
    name: "scale3b1_branch2a_0"
    lr_mult: 0
  }
  param {
    name: "scale3b1_branch2a_1"
    lr_mult: 0
  }
  scale_param {
    bias_term: true
  }
}
layer {
  name: "res3b1_branch2a_relu"
  type: "ReLU"
  bottom: "res3b1_branch2a"
  top: "res3b1_branch2a"
}
layer {
  name: "res3b1_branch2b"
  type: "Convolution"
  bottom: "res3b1_branch2a"
  top: "res3b1_branch2b"
  param {
    name: "res3b1_branch2b_0"
    lr_mult: 1
    decay_mult: 1
  }
  convolution_param {
    num_output: 128
    bias_term: false
    pad: 1
    kernel_size: 3
    stride: 1
  }
}
layer {
  name: "bn3b1_branch2b"
  type: "BatchNorm"
  bottom: "res3b1_branch2b"
  top: "res3b1_branch2b"
  param {
    name: "bn3b1_branch2b_0"
    lr_mult: 0
  }
  param {
    name: "bn3b1_branch2b_1"
    lr_mult: 0
  }
  param {
    name: "bn3b1_branch2b_2"
    lr_mult: 0
  }
  batch_norm_param {
    use_global_stats: true
  }
}
layer {
  name: "scale3b1_branch2b"
  type: "Scale"
  bottom: "res3b1_branch2b"
  top: "res3b1_branch2b"
  param {
    name: "scale3b1_branch2b_0"
    lr_mult: 0
  }
  param {
    name: "scale3b1_branch2b_1"
    lr_mult: 0
  }
  scale_param {
    bias_term: true
  }
}
layer {
  name: "res3b1_branch2b_relu"
  type: "ReLU"
  bottom: "res3b1_branch2b"
  top: "res3b1_branch2b"
}
layer {
  name: "res3b1_branch2c"
  type: "Convolution"
  bottom: "res3b1_branch2b"
  top: "res3b1_branch2c"
  param {
    name: "res3b1_branch2c_0"
    lr_mult: 1
    decay_mult: 1
  }
  convolution_param {
    num_output: 512
    bias_term: false
    pad: 0
    kernel_size: 1
    stride: 1
  }
}
layer {
  name: "bn3b1_branch2c"
  type: "BatchNorm"
  bottom: "res3b1_branch2c"
  top: "res3b1_branch2c"
  param {
    name: "bn3b1_branch2c_0"
    lr_mult: 0
  }
  param {
    name: "bn3b1_branch2c_1"
    lr_mult: 0
  }
  param {
    name: "bn3b1_branch2c_2"
    lr_mult: 0
  }
  batch_norm_param {
    use_global_stats: true
  }
}
layer {
  name: "scale3b1_branch2c"
  type: "Scale"
  bottom: "res3b1_branch2c"
  top: "res3b1_branch2c"
  param {
    name: "scale3b1_branch2c_0"
    lr_mult: 0
  }
  param {
    name: "scale3b1_branch2c_1"
    lr_mult: 0
  }
  scale_param {
    bias_term: true
  }
}
layer {
  name: "res3b1"
  type: "Eltwise"
  bottom: "res3a"
  bottom: "res3b1_branch2c"
  top: "res3b1"
}
layer {
  name: "res3b1_relu"
  type: "ReLU"
  bottom: "res3b1"
  top: "res3b1"
}
layer {
  name: "res3b2_branch2a"
  type: "Convolution"
  bottom: "res3b1"
  top: "res3b2_branch2a"
  param {
    name: "res3b2_branch2a_0"
    lr_mult: 1
    decay_mult: 1
  }
  convolution_param {
    num_output: 128
    bias_term: false
    pad: 0
    kernel_size: 1
    stride: 1
  }
}
layer {
  name: "bn3b2_branch2a"
  type: "BatchNorm"
  bottom: "res3b2_branch2a"
  top: "res3b2_branch2a"
  param {
    name: "bn3b2_branch2a_0"
    lr_mult: 0
  }
  param {
    name: "bn3b2_branch2a_1"
    lr_mult: 0
  }
  param {
    name: "bn3b2_branch2a_2"
    lr_mult: 0
  }
  batch_norm_param {
    use_global_stats: true
  }
}
layer {
  name: "scale3b2_branch2a"
  type: "Scale"
  bottom: "res3b2_branch2a"
  top: "res3b2_branch2a"
  param {
    name: "scale3b2_branch2a_0"
    lr_mult: 0
  }
  param {
    name: "scale3b2_branch2a_1"
    lr_mult: 0
  }
  scale_param {
    bias_term: true
  }
}
layer {
  name: "res3b2_branch2a_relu"
  type: "ReLU"
  bottom: "res3b2_branch2a"
  top: "res3b2_branch2a"
}
layer {
  name: "res3b2_branch2b"
  type: "Convolution"
  bottom: "res3b2_branch2a"
  top: "res3b2_branch2b"
  param {
    name: "res3b2_branch2b_0"
    lr_mult: 1
    decay_mult: 1
  }
  convolution_param {
    num_output: 128
    bias_term: false
    pad: 1
    kernel_size: 3
    stride: 1
  }
}
layer {
  name: "bn3b2_branch2b"
  type: "BatchNorm"
  bottom: "res3b2_branch2b"
  top: "res3b2_branch2b"
  param {
    name: "bn3b2_branch2b_0"
    lr_mult: 0
  }
  param {
    name: "bn3b2_branch2b_1"
    lr_mult: 0
  }
  param {
    name: "bn3b2_branch2b_2"
    lr_mult: 0
  }
  batch_norm_param {
    use_global_stats: true
  }
}
layer {
  name: "scale3b2_branch2b"
  type: "Scale"
  bottom: "res3b2_branch2b"
  top: "res3b2_branch2b"
  param {
    name: "scale3b2_branch2b_0"
    lr_mult: 0
  }
  param {
    name: "scale3b2_branch2b_1"
    lr_mult: 0
  }
  scale_param {
    bias_term: true
  }
}
layer {
  name: "res3b2_branch2b_relu"
  type: "ReLU"
  bottom: "res3b2_branch2b"
  top: "res3b2_branch2b"
}
layer {
  name: "res3b2_branch2c"
  type: "Convolution"
  bottom: "res3b2_branch2b"
  top: "res3b2_branch2c"
  param {
    name: "res3b2_branch2c_0"
    lr_mult: 1
    decay_mult: 1
  }
  convolution_param {
    num_output: 512
    bias_term: false
    pad: 0
    kernel_size: 1
    stride: 1
  }
}
layer {
  name: "bn3b2_branch2c"
  type: "BatchNorm"
  bottom: "res3b2_branch2c"
  top: "res3b2_branch2c"
  param {
    name: "bn3b2_branch2c_0"
    lr_mult: 0
  }
  param {
    name: "bn3b2_branch2c_1"
    lr_mult: 0
  }
  param {
    name: "bn3b2_branch2c_2"
    lr_mult: 0
  }
  batch_norm_param {
    use_global_stats: true
  }
}
layer {
  name: "scale3b2_branch2c"
  type: "Scale"
  bottom: "res3b2_branch2c"
  top: "res3b2_branch2c"
  param {
    name: "scale3b2_branch2c_0"
    lr_mult: 0
  }
  param {
    name: "scale3b2_branch2c_1"
    lr_mult: 0
  }
  scale_param {
    bias_term: true
  }
}
layer {
  name: "res3b2"
  type: "Eltwise"
  bottom: "res3b1"
  bottom: "res3b2_branch2c"
  top: "res3b2"
}
layer {
  name: "res3b2_relu"
  type: "ReLU"
  bottom: "res3b2"
  top: "res3b2"
}
layer {
  name: "res3b3_branch2a"
  type: "Convolution"
  bottom: "res3b2"
  top: "res3b3_branch2a"
  param {
    name: "res3b3_branch2a_0"
    lr_mult: 1
    decay_mult: 1
  }
  convolution_param {
    num_output: 128
    bias_term: false
    pad: 0
    kernel_size: 1
    stride: 1
  }
}
layer {
  name: "bn3b3_branch2a"
  type: "BatchNorm"
  bottom: "res3b3_branch2a"
  top: "res3b3_branch2a"
  param {
    name: "bn3b3_branch2a_0"
    lr_mult: 0
  }
  param {
    name: "bn3b3_branch2a_1"
    lr_mult: 0
  }
  param {
    name: "bn3b3_branch2a_2"
    lr_mult: 0
  }
  batch_norm_param {
    use_global_stats: true
  }
}
layer {
  name: "scale3b3_branch2a"
  type: "Scale"
  bottom: "res3b3_branch2a"
  top: "res3b3_branch2a"
  param {
    name: "scale3b3_branch2a_0"
    lr_mult: 0
  }
  param {
    name: "scale3b3_branch2a_1"
    lr_mult: 0
  }
  scale_param {
    bias_term: true
  }
}
layer {
  name: "res3b3_branch2a_relu"
  type: "ReLU"
  bottom: "res3b3_branch2a"
  top: "res3b3_branch2a"
}
layer {
  name: "res3b3_branch2b"
  type: "Convolution"
  bottom: "res3b3_branch2a"
  top: "res3b3_branch2b"
  param {
    name: "res3b3_branch2b_0"
    lr_mult: 1
    decay_mult: 1
  }
  convolution_param {
    num_output: 128
    bias_term: false
    pad: 1
    kernel_size: 3
    stride: 1
  }
}
layer {
  name: "bn3b3_branch2b"
  type: "BatchNorm"
  bottom: "res3b3_branch2b"
  top: "res3b3_branch2b"
  param {
    name: "bn3b3_branch2b_0"
    lr_mult: 0
  }
  param {
    name: "bn3b3_branch2b_1"
    lr_mult: 0
  }
  param {
    name: "bn3b3_branch2b_2"
    lr_mult: 0
  }
  batch_norm_param {
    use_global_stats: true
  }
}
layer {
  name: "scale3b3_branch2b"
  type: "Scale"
  bottom: "res3b3_branch2b"
  top: "res3b3_branch2b"
  param {
    name: "scale3b3_branch2b_0"
    lr_mult: 0
  }
  param {
    name: "scale3b3_branch2b_1"
    lr_mult: 0
  }
  scale_param {
    bias_term: true
  }
}
layer {
  name: "res3b3_branch2b_relu"
  type: "ReLU"
  bottom: "res3b3_branch2b"
  top: "res3b3_branch2b"
}
layer {
  name: "res3b3_branch2c"
  type: "Convolution"
  bottom: "res3b3_branch2b"
  top: "res3b3_branch2c"
  param {
    name: "res3b3_branch2c_0"
    lr_mult: 1
    decay_mult: 1
  }
  convolution_param {
    num_output: 512
    bias_term: false
    pad: 0
    kernel_size: 1
    stride: 1
  }
}
layer {
  name: "bn3b3_branch2c"
  type: "BatchNorm"
  bottom: "res3b3_branch2c"
  top: "res3b3_branch2c"
  param {
    name: "bn3b3_branch2c_0"
    lr_mult: 0
  }
  param {
    name: "bn3b3_branch2c_1"
    lr_mult: 0
  }
  param {
    name: "bn3b3_branch2c_2"
    lr_mult: 0
  }
  batch_norm_param {
    use_global_stats: true
  }
}
layer {
  name: "scale3b3_branch2c"
  type: "Scale"
  bottom: "res3b3_branch2c"
  top: "res3b3_branch2c"
  param {
    name: "scale3b3_branch2c_0"
    lr_mult: 0
  }
  param {
    name: "scale3b3_branch2c_1"
    lr_mult: 0
  }
  scale_param {
    bias_term: true
  }
}
layer {
  name: "res3b3"
  type: "Eltwise"
  bottom: "res3b2"
  bottom: "res3b3_branch2c"
  top: "res3b3"
}
layer {
  name: "res3b3_relu"
  type: "ReLU"
  bottom: "res3b3"
  top: "res3b3"
}
layer {
  name: "res4a_branch1"
  type: "Convolution"
  bottom: "res3b3"
  top: "res4a_branch1"
  param {
    name: "res4a_branch1_0"
    lr_mult: 1
    decay_mult: 1
  }
  convolution_param {
    num_output: 1024
    bias_term: false
    pad: 0
    kernel_size: 1
    stride: 1
  }
}
layer {
  name: "bn4a_branch1"
  type: "BatchNorm"
  bottom: "res4a_branch1"
  top: "res4a_branch1"
  param {
    name: "bn4a_branch1_0"
    lr_mult: 0
  }
  param {
    name: "bn4a_branch1_1"
    lr_mult: 0
  }
  param {
    name: "bn4a_branch1_2"
    lr_mult: 0
  }
  batch_norm_param {
    use_global_stats: true
  }
}
layer {
  name: "scale4a_branch1"
  type: "Scale"
  bottom: "res4a_branch1"
  top: "res4a_branch1"
  param {
    name: "scale4a_branch1_0"
    lr_mult: 0
  }
  param {
    name: "scale4a_branch1_1"
    lr_mult: 0
  }
  scale_param {
    bias_term: true
  }
}
layer {
  name: "res4a_branch2a"
  type: "Convolution"
  bottom: "res3b3"
  top: "res4a_branch2a"
  param {
    name: "res4a_branch2a_0"
    lr_mult: 1
    decay_mult: 1
  }
  convolution_param {
    num_output: 256
    bias_term: false
    pad: 0
    kernel_size: 1
    stride: 1
  }
}
layer {
  name: "bn4a_branch2a"
  type: "BatchNorm"
  bottom: "res4a_branch2a"
  top: "res4a_branch2a"
  param {
    name: "bn4a_branch2a_0"
    lr_mult: 0
  }
  param {
    name: "bn4a_branch2a_1"
    lr_mult: 0
  }
  param {
    name: "bn4a_branch2a_2"
    lr_mult: 0
  }
  batch_norm_param {
    use_global_stats: true
  }
}
layer {
  name: "scale4a_branch2a"
  type: "Scale"
  bottom: "res4a_branch2a"
  top: "res4a_branch2a"
  param {
    name: "scale4a_branch2a_0"
    lr_mult: 0
  }
  param {
    name: "scale4a_branch2a_1"
    lr_mult: 0
  }
  scale_param {
    bias_term: true
  }
}
layer {
  name: "res4a_branch2a_relu"
  type: "ReLU"
  bottom: "res4a_branch2a"
  top: "res4a_branch2a"
}
layer {
  name: "res4a_branch2b"
  type: "Convolution"
  bottom: "res4a_branch2a"
  top: "res4a_branch2b"
  param {
    name: "res4a_branch2b_0"
    lr_mult: 1
    decay_mult: 1
  }
  convolution_param {
    num_output: 256
    bias_term: false
    pad: 2
    kernel_size: 3
    stride: 1
    dilation: 2
  }
}
layer {
  name: "bn4a_branch2b"
  type: "BatchNorm"
  bottom: "res4a_branch2b"
  top: "res4a_branch2b"
  param {
    name: "bn4a_branch2b_0"
    lr_mult: 0
  }
  param {
    name: "bn4a_branch2b_1"
    lr_mult: 0
  }
  param {
    name: "bn4a_branch2b_2"
    lr_mult: 0
  }
  batch_norm_param {
    use_global_stats: true
  }
}
layer {
  name: "scale4a_branch2b"
  type: "Scale"
  bottom: "res4a_branch2b"
  top: "res4a_branch2b"
  param {
    name: "scale4a_branch2b_0"
    lr_mult: 0
  }
  param {
    name: "scale4a_branch2b_1"
    lr_mult: 0
  }
  scale_param {
    bias_term: true
  }
}
layer {
  name: "res4a_branch2b_relu"
  type: "ReLU"
  bottom: "res4a_branch2b"
  top: "res4a_branch2b"
}
layer {
  name: "res4a_branch2c"
  type: "Convolution"
  bottom: "res4a_branch2b"
  top: "res4a_branch2c"
  param {
    name: "res4a_branch2c_0"
    lr_mult: 1
    decay_mult: 1
  }
  convolution_param {
    num_output: 1024
    bias_term: false
    pad: 0
    kernel_size: 1
    stride: 1
  }
}
layer {
  name: "bn4a_branch2c"
  type: "BatchNorm"
  bottom: "res4a_branch2c"
  top: "res4a_branch2c"
  param {
    name: "bn4a_branch2c_0"
    lr_mult: 0
  }
  param {
    name: "bn4a_branch2c_1"
    lr_mult: 0
  }
  param {
    name: "bn4a_branch2c_2"
    lr_mult: 0
  }
  batch_norm_param {
    use_global_stats: true
  }
}
layer {
  name: "scale4a_branch2c"
  type: "Scale"
  bottom: "res4a_branch2c"
  top: "res4a_branch2c"
  param {
    name: "scale4a_branch2c_0"
    lr_mult: 0
  }
  param {
    name: "scale4a_branch2c_1"
    lr_mult: 0
  }
  scale_param {
    bias_term: true
  }
}
layer {
  name: "res4a"
  type: "Eltwise"
  bottom: "res4a_branch1"
  bottom: "res4a_branch2c"
  top: "res4a"
}
layer {
  name: "res4a_relu"
  type: "ReLU"
  bottom: "res4a"
  top: "res4a"
}
layer {
  name: "res4b1_branch2a"
  type: "Convolution"
  bottom: "res4a"
  top: "res4b1_branch2a"
  param {
    name: "res4b1_branch2a_0"
    lr_mult: 1
    decay_mult: 1
  }
  convolution_param {
    num_output: 256
    bias_term: false
    pad: 0
    kernel_size: 1
    stride: 1
  }
}
layer {
  name: "bn4b1_branch2a"
  type: "BatchNorm"
  bottom: "res4b1_branch2a"
  top: "res4b1_branch2a"
  param {
    name: "bn4b1_branch2a_0"
    lr_mult: 0
  }
  param {
    name: "bn4b1_branch2a_1"
    lr_mult: 0
  }
  param {
    name: "bn4b1_branch2a_2"
    lr_mult: 0
  }
  batch_norm_param {
    use_global_stats: true
  }
}
layer {
  name: "scale4b1_branch2a"
  type: "Scale"
  bottom: "res4b1_branch2a"
  top: "res4b1_branch2a"
  param {
    name: "scale4b1_branch2a_0"
    lr_mult: 0
  }
  param {
    name: "scale4b1_branch2a_1"
    lr_mult: 0
  }
  scale_param {
    bias_term: true
  }
}
layer {
  name: "res4b1_branch2a_relu"
  type: "ReLU"
  bottom: "res4b1_branch2a"
  top: "res4b1_branch2a"
}
layer {
  name: "res4b1_branch2b"
  type: "Convolution"
  bottom: "res4b1_branch2a"
  top: "res4b1_branch2b"
  param {
    name: "res4b1_branch2b_0"
    lr_mult: 1
    decay_mult: 1
  }
  convolution_param {
    num_output: 256
    bias_term: false
    pad: 2
    kernel_size: 3
    stride: 1
  
I0706 14:05:43.182517 27831 layer_factory.hpp:77] Creating layer data
I0706 14:05:43.182585 27831 net.cpp:91] Creating Layer data
I0706 14:05:43.182600 27831 net.cpp:399] data -> data
I0706 14:05:43.182641 27831 net.cpp:399] data -> label
I0706 14:05:43.183265 27831 image_seg_data_layer.cpp:45] Opening file data/coco/trainval2014.txt
I0706 14:05:43.336804 27831 image_seg_data_layer.cpp:101] Shuffling data
I0706 14:05:43.338572 27831 image_seg_data_layer.cpp:106] A total of 72236 images.
I0706 14:05:43.388505 27831 image_seg_data_layer.cpp:179] output data size: 1,3,480,480
I0706 14:05:43.388540 27831 image_seg_data_layer.cpp:183] output label size: 1,1,480,480
I0706 14:05:43.398381 27831 net.cpp:141] Setting up data
I0706 14:05:43.398416 27831 net.cpp:148] Top shape: 1 3 480 480 (691200)
I0706 14:05:43.398430 27831 net.cpp:148] Top shape: 1 1 480 480 (230400)
I0706 14:05:43.398437 27831 net.cpp:156] Memory required for data: 3686400
I0706 14:05:43.398468 27831 layer_factory.hpp:77] Creating layer conv1
I0706 14:05:43.398502 27831 net.cpp:91] Creating Layer conv1
I0706 14:05:43.398516 27831 net.cpp:425] conv1 <- data
I0706 14:05:43.398541 27831 net.cpp:399] conv1 -> conv1
I0706 14:05:43.399727 27831 net.cpp:141] Setting up conv1
I0706 14:05:43.399758 27831 net.cpp:148] Top shape: 1 64 240 240 (3686400)
I0706 14:05:43.399767 27831 net.cpp:156] Memory required for data: 18432000
I0706 14:05:43.399781 27831 layer_factory.hpp:77] Creating layer bn_conv1
I0706 14:05:43.399821 27831 net.cpp:91] Creating Layer bn_conv1
I0706 14:05:43.399830 27831 net.cpp:425] bn_conv1 <- conv1
I0706 14:05:43.399842 27831 net.cpp:386] bn_conv1 -> conv1 (in-place)
I0706 14:05:43.401505 27831 net.cpp:141] Setting up bn_conv1
I0706 14:05:43.401526 27831 net.cpp:148] Top shape: 1 64 240 240 (3686400)
I0706 14:05:43.401535 27831 net.cpp:156] Memory required for data: 33177600
I0706 14:05:43.401563 27831 layer_factory.hpp:77] Creating layer scale_conv1
I0706 14:05:43.401587 27831 net.cpp:91] Creating Layer scale_conv1
I0706 14:05:43.401597 27831 net.cpp:425] scale_conv1 <- conv1
I0706 14:05:43.401609 27831 net.cpp:386] scale_conv1 -> conv1 (in-place)
I0706 14:05:43.402127 27831 layer_factory.hpp:77] Creating layer scale_conv1
I0706 14:05:43.402426 27831 net.cpp:141] Setting up scale_conv1
I0706 14:05:43.402443 27831 net.cpp:148] Top shape: 1 64 240 240 (3686400)
I0706 14:05:43.402454 27831 net.cpp:156] Memory required for data: 47923200
I0706 14:05:43.402472 27831 layer_factory.hpp:77] Creating layer conv1_relu
I0706 14:05:43.402488 27831 net.cpp:91] Creating Layer conv1_relu
I0706 14:05:43.402498 27831 net.cpp:425] conv1_relu <- conv1
I0706 14:05:43.402508 27831 net.cpp:386] conv1_relu -> conv1 (in-place)
I0706 14:05:43.402520 27831 net.cpp:141] Setting up conv1_relu
I0706 14:05:43.402531 27831 net.cpp:148] Top shape: 1 64 240 240 (3686400)
I0706 14:05:43.402539 27831 net.cpp:156] Memory required for data: 62668800
I0706 14:05:43.402547 27831 layer_factory.hpp:77] Creating layer pool1
I0706 14:05:43.402561 27831 net.cpp:91] Creating Layer pool1
I0706 14:05:43.402570 27831 net.cpp:425] pool1 <- conv1
I0706 14:05:43.402581 27831 net.cpp:399] pool1 -> pool1
I0706 14:05:43.402643 27831 net.cpp:141] Setting up pool1
I0706 14:05:43.402657 27831 net.cpp:148] Top shape: 1 64 120 120 (921600)
I0706 14:05:43.402665 27831 net.cpp:156] Memory required for data: 66355200
I0706 14:05:43.402673 27831 layer_factory.hpp:77] Creating layer pool1_pool1_0_split
I0706 14:05:43.402685 27831 net.cpp:91] Creating Layer pool1_pool1_0_split
I0706 14:05:43.402693 27831 net.cpp:425] pool1_pool1_0_split <- pool1
I0706 14:05:43.402703 27831 net.cpp:399] pool1_pool1_0_split -> pool1_pool1_0_split_0
I0706 14:05:43.402717 27831 net.cpp:399] pool1_pool1_0_split -> pool1_pool1_0_split_1
I0706 14:05:43.402770 27831 net.cpp:141] Setting up pool1_pool1_0_split
I0706 14:05:43.402783 27831 net.cpp:148] Top shape: 1 64 120 120 (921600)
I0706 14:05:43.402793 27831 net.cpp:148] Top shape: 1 64 120 120 (921600)
I0706 14:05:43.402801 27831 net.cpp:156] Memory required for data: 73728000
I0706 14:05:43.402807 27831 layer_factory.hpp:77] Creating layer res2a_branch1
I0706 14:05:43.402823 27831 net.cpp:91] Creating Layer res2a_branch1
I0706 14:05:43.402832 27831 net.cpp:425] res2a_branch1 <- pool1_pool1_0_split_0
I0706 14:05:43.402845 27831 net.cpp:399] res2a_branch1 -> res2a_branch1
I0706 14:05:43.403072 27831 net.cpp:141] Setting up res2a_branch1
I0706 14:05:43.403087 27831 net.cpp:148] Top shape: 1 256 120 120 (3686400)
I0706 14:05:43.403096 27831 net.cpp:156] Memory required for data: 88473600
I0706 14:05:43.403107 27831 layer_factory.hpp:77] Creating layer bn2a_branch1
I0706 14:05:43.403126 27831 net.cpp:91] Creating Layer bn2a_branch1
I0706 14:05:43.403134 27831 net.cpp:425] bn2a_branch1 <- res2a_branch1
I0706 14:05:43.403146 27831 net.cpp:386] bn2a_branch1 -> res2a_branch1 (in-place)
I0706 14:05:43.403369 27831 net.cpp:141] Setting up bn2a_branch1
I0706 14:05:43.403383 27831 net.cpp:148] Top shape: 1 256 120 120 (3686400)
I0706 14:05:43.403391 27831 net.cpp:156] Memory required for data: 103219200
I0706 14:05:43.403409 27831 layer_factory.hpp:77] Creating layer scale2a_branch1
I0706 14:05:43.403425 27831 net.cpp:91] Creating Layer scale2a_branch1
I0706 14:05:43.403434 27831 net.cpp:425] scale2a_branch1 <- res2a_branch1
I0706 14:05:43.403446 27831 net.cpp:386] scale2a_branch1 -> res2a_branch1 (in-place)
I0706 14:05:43.403499 27831 layer_factory.hpp:77] Creating layer scale2a_branch1
I0706 14:05:43.403664 27831 net.cpp:141] Setting up scale2a_branch1
I0706 14:05:43.403679 27831 net.cpp:148] Top shape: 1 256 120 120 (3686400)
I0706 14:05:43.403687 27831 net.cpp:156] Memory required for data: 117964800
I0706 14:05:43.403700 27831 layer_factory.hpp:77] Creating layer res2a_branch2a
I0706 14:05:43.403717 27831 net.cpp:91] Creating Layer res2a_branch2a
I0706 14:05:43.403725 27831 net.cpp:425] res2a_branch2a <- pool1_pool1_0_split_1
I0706 14:05:43.403738 27831 net.cpp:399] res2a_branch2a -> res2a_branch2a
I0706 14:05:43.404718 27831 net.cpp:141] Setting up res2a_branch2a
I0706 14:05:43.404738 27831 net.cpp:148] Top shape: 1 64 120 120 (921600)
I0706 14:05:43.404748 27831 net.cpp:156] Memory required for data: 121651200
I0706 14:05:43.404764 27831 layer_factory.hpp:77] Creating layer bn2a_branch2a
I0706 14:05:43.404804 27831 net.cpp:91] Creating Layer bn2a_branch2a
I0706 14:05:43.404814 27831 net.cpp:425] bn2a_branch2a <- res2a_branch2a
I0706 14:05:43.404827 27831 net.cpp:386] bn2a_branch2a -> res2a_branch2a (in-place)
I0706 14:05:43.405081 27831 net.cpp:141] Setting up bn2a_branch2a
I0706 14:05:43.405094 27831 net.cpp:148] Top shape: 1 64 120 120 (921600)
I0706 14:05:43.405103 27831 net.cpp:156] Memory required for data: 125337600
I0706 14:05:43.405118 27831 layer_factory.hpp:77] Creating layer scale2a_branch2a
I0706 14:05:43.405133 27831 net.cpp:91] Creating Layer scale2a_branch2a
I0706 14:05:43.405141 27831 net.cpp:425] scale2a_branch2a <- res2a_branch2a
I0706 14:05:43.405154 27831 net.cpp:386] scale2a_branch2a -> res2a_branch2a (in-place)
I0706 14:05:43.405208 27831 layer_factory.hpp:77] Creating layer scale2a_branch2a
I0706 14:05:43.405383 27831 net.cpp:141] Setting up scale2a_branch2a
I0706 14:05:43.405397 27831 net.cpp:148] Top shape: 1 64 120 120 (921600)
I0706 14:05:43.405406 27831 net.cpp:156] Memory required for data: 129024000
I0706 14:05:43.405423 27831 layer_factory.hpp:77] Creating layer res2a_branch2a_relu
I0706 14:05:43.405437 27831 net.cpp:91] Creating Layer res2a_branch2a_relu
I0706 14:05:43.405447 27831 net.cpp:425] res2a_branch2a_relu <- res2a_branch2a
I0706 14:05:43.405458 27831 net.cpp:386] res2a_branch2a_relu -> res2a_branch2a (in-place)
I0706 14:05:43.405472 27831 net.cpp:141] Setting up res2a_branch2a_relu
I0706 14:05:43.405481 27831 net.cpp:148] Top shape: 1 64 120 120 (921600)
I0706 14:05:43.405488 27831 net.cpp:156] Memory required for data: 132710400
I0706 14:05:43.405494 27831 layer_factory.hpp:77] Creating layer res2a_branch2b
I0706 14:05:43.405510 27831 net.cpp:91] Creating Layer res2a_branch2b
I0706 14:05:43.405519 27831 net.cpp:425] res2a_branch2b <- res2a_branch2a
I0706 14:05:43.405532 27831 net.cpp:399] res2a_branch2b -> res2a_branch2b
I0706 14:05:43.405784 27831 net.cpp:141] Setting up res2a_branch2b
I0706 14:05:43.405798 27831 net.cpp:148] Top shape: 1 64 120 120 (921600)
I0706 14:05:43.405807 27831 net.cpp:156] Memory required for data: 136396800
I0706 14:05:43.405817 27831 layer_factory.hpp:77] Creating layer bn2a_branch2b
I0706 14:05:43.405832 27831 net.cpp:91] Creating Layer bn2a_branch2b
I0706 14:05:43.405840 27831 net.cpp:425] bn2a_branch2b <- res2a_branch2b
I0706 14:05:43.405853 27831 net.cpp:386] bn2a_branch2b -> res2a_branch2b (in-place)
I0706 14:05:43.406250 27831 net.cpp:141] Setting up bn2a_branch2b
I0706 14:05:43.406267 27831 net.cpp:148] Top shape: 1 64 120 120 (921600)
I0706 14:05:43.406276 27831 net.cpp:156] Memory required for data: 140083200
I0706 14:05:43.406291 27831 layer_factory.hpp:77] Creating layer scale2a_branch2b
I0706 14:05:43.406308 27831 net.cpp:91] Creating Layer scale2a_branch2b
I0706 14:05:43.406317 27831 net.cpp:425] scale2a_branch2b <- res2a_branch2b
I0706 14:05:43.406329 27831 net.cpp:386] scale2a_branch2b -> res2a_branch2b (in-place)
I0706 14:05:43.406384 27831 layer_factory.hpp:77] Creating layer scale2a_branch2b
I0706 14:05:43.406563 27831 net.cpp:141] Setting up scale2a_branch2b
I0706 14:05:43.406576 27831 net.cpp:148] Top shape: 1 64 120 120 (921600)
I0706 14:05:43.406585 27831 net.cpp:156] Memory required for data: 143769600
I0706 14:05:43.406597 27831 layer_factory.hpp:77] Creating layer res2a_branch2b_relu
I0706 14:05:43.406610 27831 net.cpp:91] Creating Layer res2a_branch2b_relu
I0706 14:05:43.406618 27831 net.cpp:425] res2a_branch2b_relu <- res2a_branch2b
I0706 14:05:43.406630 27831 net.cpp:386] res2a_branch2b_relu -> res2a_branch2b (in-place)
I0706 14:05:43.406642 27831 net.cpp:141] Setting up res2a_branch2b_relu
I0706 14:05:43.406652 27831 net.cpp:148] Top shape: 1 64 120 120 (921600)
I0706 14:05:43.406661 27831 net.cpp:156] Memory required for data: 147456000
I0706 14:05:43.406668 27831 layer_factory.hpp:77] Creating layer res2a_branch2c
I0706 14:05:43.406683 27831 net.cpp:91] Creating Layer res2a_branch2c
I0706 14:05:43.406692 27831 net.cpp:425] res2a_branch2c <- res2a_branch2b
I0706 14:05:43.406705 27831 net.cpp:399] res2a_branch2c -> res2a_branch2c
I0706 14:05:43.406945 27831 net.cpp:141] Setting up res2a_branch2c
I0706 14:05:43.406961 27831 net.cpp:148] Top shape: 1 256 120 120 (3686400)
I0706 14:05:43.406970 27831 net.cpp:156] Memory required for data: 162201600
I0706 14:05:43.406980 27831 layer_factory.hpp:77] Creating layer bn2a_branch2c
I0706 14:05:43.406996 27831 net.cpp:91] Creating Layer bn2a_branch2c
I0706 14:05:43.407004 27831 net.cpp:425] bn2a_branch2c <- res2a_branch2c
I0706 14:05:43.407017 27831 net.cpp:386] bn2a_branch2c -> res2a_branch2c (in-place)
I0706 14:05:43.407251 27831 net.cpp:141] Setting up bn2a_branch2c
I0706 14:05:43.407265 27831 net.cpp:148] Top shape: 1 256 120 120 (3686400)
I0706 14:05:43.407274 27831 net.cpp:156] Memory required for data: 176947200
I0706 14:05:43.407287 27831 layer_factory.hpp:77] Creating layer scale2a_branch2c
I0706 14:05:43.407302 27831 net.cpp:91] Creating Layer scale2a_branch2c
I0706 14:05:43.407310 27831 net.cpp:425] scale2a_branch2c <- res2a_branch2c
I0706 14:05:43.407323 27831 net.cpp:386] scale2a_branch2c -> res2a_branch2c (in-place)
I0706 14:05:43.407378 27831 layer_factory.hpp:77] Creating layer scale2a_branch2c
I0706 14:05:43.407547 27831 net.cpp:141] Setting up scale2a_branch2c
I0706 14:05:43.407562 27831 net.cpp:148] Top shape: 1 256 120 120 (3686400)
I0706 14:05:43.407570 27831 net.cpp:156] Memory required for data: 191692800
I0706 14:05:43.407582 27831 layer_factory.hpp:77] Creating layer res2a
I0706 14:05:43.407595 27831 net.cpp:91] Creating Layer res2a
I0706 14:05:43.407604 27831 net.cpp:425] res2a <- res2a_branch1
I0706 14:05:43.407614 27831 net.cpp:425] res2a <- res2a_branch2c
I0706 14:05:43.407625 27831 net.cpp:399] res2a -> res2a
I0706 14:05:43.407662 27831 net.cpp:141] Setting up res2a
I0706 14:05:43.407675 27831 net.cpp:148] Top shape: 1 256 120 120 (3686400)
I0706 14:05:43.407682 27831 net.cpp:156] Memory required for data: 206438400
I0706 14:05:43.407691 27831 layer_factory.hpp:77] Creating layer res2a_relu
I0706 14:05:43.407702 27831 net.cpp:91] Creating Layer res2a_relu
I0706 14:05:43.407711 27831 net.cpp:425] res2a_relu <- res2a
I0706 14:05:43.407722 27831 net.cpp:386] res2a_relu -> res2a (in-place)
I0706 14:05:43.407734 27831 net.cpp:141] Setting up res2a_relu
I0706 14:05:43.407745 27831 net.cpp:148] Top shape: 1 256 120 120 (3686400)
I0706 14:05:43.407753 27831 net.cpp:156] Memory required for data: 221184000
I0706 14:05:43.407759 27831 layer_factory.hpp:77] Creating layer res2a_res2a_relu_0_split
I0706 14:05:43.407769 27831 net.cpp:91] Creating Layer res2a_res2a_relu_0_split
I0706 14:05:43.407778 27831 net.cpp:425] res2a_res2a_relu_0_split <- res2a
I0706 14:05:43.407789 27831 net.cpp:399] res2a_res2a_relu_0_split -> res2a_res2a_relu_0_split_0
I0706 14:05:43.407802 27831 net.cpp:399] res2a_res2a_relu_0_split -> res2a_res2a_relu_0_split_1
I0706 14:05:43.407851 27831 net.cpp:141] Setting up res2a_res2a_relu_0_split
I0706 14:05:43.407865 27831 net.cpp:148] Top shape: 1 256 120 120 (3686400)
I0706 14:05:43.407874 27831 net.cpp:148] Top shape: 1 256 120 120 (3686400)
I0706 14:05:43.407882 27831 net.cpp:156] Memory required for data: 250675200
I0706 14:05:43.407891 27831 layer_factory.hpp:77] Creating layer res2b_branch2a
I0706 14:05:43.407907 27831 net.cpp:91] Creating Layer res2b_branch2a
I0706 14:05:43.407915 27831 net.cpp:425] res2b_branch2a <- res2a_res2a_relu_0_split_0
I0706 14:05:43.407927 27831 net.cpp:399] res2b_branch2a -> res2b_branch2a
I0706 14:05:43.408164 27831 net.cpp:141] Setting up res2b_branch2a
I0706 14:05:43.408179 27831 net.cpp:148] Top shape: 1 64 120 120 (921600)
I0706 14:05:43.408186 27831 net.cpp:156] Memory required for data: 254361600
I0706 14:05:43.408197 27831 layer_factory.hpp:77] Creating layer bn2b_branch2a
I0706 14:05:43.408211 27831 net.cpp:91] Creating Layer bn2b_branch2a
I0706 14:05:43.408221 27831 net.cpp:425] bn2b_branch2a <- res2b_branch2a
I0706 14:05:43.408232 27831 net.cpp:386] bn2b_branch2a -> res2b_branch2a (in-place)
I0706 14:05:43.408496 27831 net.cpp:141] Setting up bn2b_branch2a
I0706 14:05:43.408514 27831 net.cpp:148] Top shape: 1 64 120 120 (921600)
I0706 14:05:43.408535 27831 net.cpp:156] Memory required for data: 258048000
I0706 14:05:43.408571 27831 layer_factory.hpp:77] Creating layer scale2b_branch2a
I0706 14:05:43.408588 27831 net.cpp:91] Creating Layer scale2b_branch2a
I0706 14:05:43.408597 27831 net.cpp:425] scale2b_branch2a <- res2b_branch2a
I0706 14:05:43.408609 27831 net.cpp:386] scale2b_branch2a -> res2b_branch2a (in-place)
I0706 14:05:43.408668 27831 layer_factory.hpp:77] Creating layer scale2b_branch2a
I0706 14:05:43.409605 27831 net.cpp:141] Setting up scale2b_branch2a
I0706 14:05:43.409623 27831 net.cpp:148] Top shape: 1 64 120 120 (921600)
I0706 14:05:43.409633 27831 net.cpp:156] Memory required for data: 261734400
I0706 14:05:43.409658 27831 layer_factory.hpp:77] Creating layer res2b_branch2a_relu
I0706 14:05:43.409672 27831 net.cpp:91] Creating Layer res2b_branch2a_relu
I0706 14:05:43.409680 27831 net.cpp:425] res2b_branch2a_relu <- res2b_branch2a
I0706 14:05:43.409692 27831 net.cpp:386] res2b_branch2a_relu -> res2b_branch2a (in-place)
I0706 14:05:43.409705 27831 net.cpp:141] Setting up res2b_branch2a_relu
I0706 14:05:43.409716 27831 net.cpp:148] Top shape: 1 64 120 120 (921600)
I0706 14:05:43.409723 27831 net.cpp:156] Memory required for data: 265420800
I0706 14:05:43.409731 27831 layer_factory.hpp:77] Creating layer res2b_branch2b
I0706 14:05:43.409747 27831 net.cpp:91] Creating Layer res2b_branch2b
I0706 14:05:43.409756 27831 net.cpp:425] res2b_branch2b <- res2b_branch2a
I0706 14:05:43.409770 27831 net.cpp:399] res2b_branch2b -> res2b_branch2b
I0706 14:05:43.410028 27831 net.cpp:141] Setting up res2b_branch2b
I0706 14:05:43.410043 27831 net.cpp:148] Top shape: 1 64 120 120 (921600)
I0706 14:05:43.410053 27831 net.cpp:156] Memory required for data: 269107200
I0706 14:05:43.410065 27831 layer_factory.hpp:77] Creating layer bn2b_branch2b
I0706 14:05:43.410081 27831 net.cpp:91] Creating Layer bn2b_branch2b
I0706 14:05:43.410089 27831 net.cpp:425] bn2b_branch2b <- res2b_branch2b
I0706 14:05:43.410102 27831 net.cpp:386] bn2b_branch2b -> res2b_branch2b (in-place)
I0706 14:05:43.410359 27831 net.cpp:141] Setting up bn2b_branch2b
I0706 14:05:43.410373 27831 net.cpp:148] Top shape: 1 64 120 120 (921600)
I0706 14:05:43.410382 27831 net.cpp:156] Memory required for data: 272793600
I0706 14:05:43.410397 27831 layer_factory.hpp:77] Creating layer scale2b_branch2b
I0706 14:05:43.410410 27831 net.cpp:91] Creating Layer scale2b_branch2b
I0706 14:05:43.410419 27831 net.cpp:425] scale2b_branch2b <- res2b_branch2b
I0706 14:05:43.410431 27831 net.cpp:386] scale2b_branch2b -> res2b_branch2b (in-place)
I0706 14:05:43.410485 27831 layer_factory.hpp:77] Creating layer scale2b_branch2b
I0706 14:05:43.410667 27831 net.cpp:141] Setting up scale2b_branch2b
I0706 14:05:43.410681 27831 net.cpp:148] Top shape: 1 64 120 120 (921600)
I0706 14:05:43.410691 27831 net.cpp:156] Memory required for data: 276480000
I0706 14:05:43.410702 27831 layer_factory.hpp:77] Creating layer res2b_branch2b_relu
I0706 14:05:43.410715 27831 net.cpp:91] Creating Layer res2b_branch2b_relu
I0706 14:05:43.410724 27831 net.cpp:425] res2b_branch2b_relu <- res2b_branch2b
I0706 14:05:43.410735 27831 net.cpp:386] res2b_branch2b_relu -> res2b_branch2b (in-place)
I0706 14:05:43.410748 27831 net.cpp:141] Setting up res2b_branch2b_relu
I0706 14:05:43.410758 27831 net.cpp:148] Top shape: 1 64 120 120 (921600)
I0706 14:05:43.410766 27831 net.cpp:156] Memory required for data: 280166400
I0706 14:05:43.410773 27831 layer_factory.hpp:77] Creating layer res2b_branch2c
I0706 14:05:43.410791 27831 net.cpp:91] Creating Layer res2b_branch2c
I0706 14:05:43.410800 27831 net.cpp:425] res2b_branch2c <- res2b_branch2b
I0706 14:05:43.410815 27831 net.cpp:399] res2b_branch2c -> res2b_branch2c
I0706 14:05:43.411052 27831 net.cpp:141] Setting up res2b_branch2c
I0706 14:05:43.411067 27831 net.cpp:148] Top shape: 1 256 120 120 (3686400)
I0706 14:05:43.411074 27831 net.cpp:156] Memory required for data: 294912000
I0706 14:05:43.411085 27831 layer_factory.hpp:77] Creating layer bn2b_branch2c
I0706 14:05:43.411114 27831 net.cpp:91] Creating Layer bn2b_branch2c
I0706 14:05:43.411124 27831 net.cpp:425] bn2b_branch2c <- res2b_branch2c
I0706 14:05:43.411136 27831 net.cpp:386] bn2b_branch2c -> res2b_branch2c (in-place)
I0706 14:05:43.411372 27831 net.cpp:141] Setting up bn2b_branch2c
I0706 14:05:43.411387 27831 net.cpp:148] Top shape: 1 256 120 120 (3686400)
I0706 14:05:43.411396 27831 net.cpp:156] Memory required for data: 309657600
I0706 14:05:43.411413 27831 layer_factory.hpp:77] Creating layer scale2b_branch2c
I0706 14:05:43.411427 27831 net.cpp:91] Creating Layer scale2b_branch2c
I0706 14:05:43.411437 27831 net.cpp:425] scale2b_branch2c <- res2b_branch2c
I0706 14:05:43.411449 27831 net.cpp:386] scale2b_branch2c -> res2b_branch2c (in-place)
I0706 14:05:43.411506 27831 layer_factory.hpp:77] Creating layer scale2b_branch2c
I0706 14:05:43.411675 27831 net.cpp:141] Setting up scale2b_branch2c
I0706 14:05:43.411689 27831 net.cpp:148] Top shape: 1 256 120 120 (3686400)
I0706 14:05:43.411698 27831 net.cpp:156] Memory required for data: 324403200
I0706 14:05:43.411710 27831 layer_factory.hpp:77] Creating layer res2b
I0706 14:05:43.411722 27831 net.cpp:91] Creating Layer res2b
I0706 14:05:43.411731 27831 net.cpp:425] res2b <- res2a_res2a_relu_0_split_1
I0706 14:05:43.411741 27831 net.cpp:425] res2b <- res2b_branch2c
I0706 14:05:43.411752 27831 net.cpp:399] res2b -> res2b
I0706 14:05:43.411788 27831 net.cpp:141] Setting up res2b
I0706 14:05:43.411801 27831 net.cpp:148] Top shape: 1 256 120 120 (3686400)
I0706 14:05:43.411809 27831 net.cpp:156] Memory required for data: 339148800
I0706 14:05:43.411818 27831 layer_factory.hpp:77] Creating layer res2b_relu
I0706 14:05:43.411829 27831 net.cpp:91] Creating Layer res2b_relu
I0706 14:05:43.411837 27831 net.cpp:425] res2b_relu <- res2b
I0706 14:05:43.411847 27831 net.cpp:386] res2b_relu -> res2b (in-place)
I0706 14:05:43.411859 27831 net.cpp:141] Setting up res2b_relu
I0706 14:05:43.411870 27831 net.cpp:148] Top shape: 1 256 120 120 (3686400)
I0706 14:05:43.411877 27831 net.cpp:156] Memory required for data: 353894400
I0706 14:05:43.411885 27831 layer_factory.hpp:77] Creating layer res2b_res2b_relu_0_split
I0706 14:05:43.411896 27831 net.cpp:91] Creating Layer res2b_res2b_relu_0_split
I0706 14:05:43.411905 27831 net.cpp:425] res2b_res2b_relu_0_split <- res2b
I0706 14:05:43.411916 27831 net.cpp:399] res2b_res2b_relu_0_split -> res2b_res2b_relu_0_split_0
I0706 14:05:43.411928 27831 net.cpp:399] res2b_res2b_relu_0_split -> res2b_res2b_relu_0_split_1
I0706 14:05:43.411978 27831 net.cpp:141] Setting up res2b_res2b_relu_0_split
I0706 14:05:43.411989 27831 net.cpp:148] Top shape: 1 256 120 120 (3686400)
I0706 14:05:43.412000 27831 net.cpp:148] Top shape: 1 256 120 120 (3686400)
I0706 14:05:43.412009 27831 net.cpp:156] Memory required for data: 383385600
I0706 14:05:43.412017 27831 layer_factory.hpp:77] Creating layer res2c_branch2a
I0706 14:05:43.412034 27831 net.cpp:91] Creating Layer res2c_branch2a
I0706 14:05:43.412044 27831 net.cpp:425] res2c_branch2a <- res2b_res2b_relu_0_split_0
I0706 14:05:43.412057 27831 net.cpp:399] res2c_branch2a -> res2c_branch2a
I0706 14:05:43.412287 27831 net.cpp:141] Setting up res2c_branch2a
I0706 14:05:43.412302 27831 net.cpp:148] Top shape: 1 64 120 120 (921600)
I0706 14:05:43.412310 27831 net.cpp:156] Memory required for data: 387072000
I0706 14:05:43.412320 27831 layer_factory.hpp:77] Creating layer bn2c_branch2a
I0706 14:05:43.412334 27831 net.cpp:91] Creating Layer bn2c_branch2a
I0706 14:05:43.412343 27831 net.cpp:425] bn2c_branch2a <- res2c_branch2a
I0706 14:05:43.412356 27831 net.cpp:386] bn2c_branch2a -> res2c_branch2a (in-place)
I0706 14:05:43.412627 27831 net.cpp:141] Setting up bn2c_branch2a
I0706 14:05:43.412644 27831 net.cpp:148] Top shape: 1 64 120 120 (921600)
I0706 14:05:43.412653 27831 net.cpp:156] Memory required for data: 390758400
I0706 14:05:43.412667 27831 layer_factory.hpp:77] Creating layer scale2c_branch2a
I0706 14:05:43.412683 27831 net.cpp:91] Creating Layer scale2c_branch2a
I0706 14:05:43.412690 27831 net.cpp:425] scale2c_branch2a <- res2c_branch2a
I0706 14:05:43.412719 27831 net.cpp:386] scale2c_branch2a -> res2c_branch2a (in-place)
I0706 14:05:43.412777 27831 layer_factory.hpp:77] Creating layer scale2c_branch2a
I0706 14:05:43.412971 27831 net.cpp:141] Setting up scale2c_branch2a
I0706 14:05:43.412986 27831 net.cpp:148] Top shape: 1 64 120 120 (921600)
I0706 14:05:43.412994 27831 net.cpp:156] Memory required for data: 394444800
I0706 14:05:43.413007 27831 layer_factory.hpp:77] Creating layer res2c_branch2a_relu
I0706 14:05:43.413019 27831 net.cpp:91] Creating Layer res2c_branch2a_relu
I0706 14:05:43.413028 27831 net.cpp:425] res2c_branch2a_relu <- res2c_branch2a
I0706 14:05:43.413039 27831 net.cpp:386] res2c_branch2a_relu -> res2c_branch2a (in-place)
I0706 14:05:43.413051 27831 net.cpp:141] Setting up res2c_branch2a_relu
I0706 14:05:43.413063 27831 net.cpp:148] Top shape: 1 64 120 120 (921600)
I0706 14:05:43.413070 27831 net.cpp:156] Memory required for data: 398131200
I0706 14:05:43.413076 27831 layer_factory.hpp:77] Creating layer res2c_branch2b
I0706 14:05:43.413091 27831 net.cpp:91] Creating Layer res2c_branch2b
I0706 14:05:43.413100 27831 net.cpp:425] res2c_branch2b <- res2c_branch2a
I0706 14:05:43.413113 27831 net.cpp:399] res2c_branch2b -> res2c_branch2b
I0706 14:05:43.414098 27831 net.cpp:141] Setting up res2c_branch2b
I0706 14:05:43.414116 27831 net.cpp:148] Top shape: 1 64 120 120 (921600)
I0706 14:05:43.414125 27831 net.cpp:156] Memory required for data: 401817600
I0706 14:05:43.414139 27831 layer_factory.hpp:77] Creating layer bn2c_branch2b
I0706 14:05:43.414154 27831 net.cpp:91] Creating Layer bn2c_branch2b
I0706 14:05:43.414163 27831 net.cpp:425] bn2c_branch2b <- res2c_branch2b
I0706 14:05:43.414175 27831 net.cpp:386] bn2c_branch2b -> res2c_branch2b (in-place)
I0706 14:05:43.414438 27831 net.cpp:141] Setting up bn2c_branch2b
I0706 14:05:43.414451 27831 net.cpp:148] Top shape: 1 64 120 120 (921600)
I0706 14:05:43.414459 27831 net.cpp:156] Memory required for data: 405504000
I0706 14:05:43.414474 27831 layer_factory.hpp:77] Creating layer scale2c_branch2b
I0706 14:05:43.414489 27831 net.cpp:91] Creating Layer scale2c_branch2b
I0706 14:05:43.414499 27831 net.cpp:425] scale2c_branch2b <- res2c_branch2b
I0706 14:05:43.414511 27831 net.cpp:386] scale2c_branch2b -> res2c_branch2b (in-place)
I0706 14:05:43.414569 27831 layer_factory.hpp:77] Creating layer scale2c_branch2b
I0706 14:05:43.414753 27831 net.cpp:141] Setting up scale2c_branch2b
I0706 14:05:43.414768 27831 net.cpp:148] Top shape: 1 64 120 120 (921600)
I0706 14:05:43.414777 27831 net.cpp:156] Memory required for data: 409190400
I0706 14:05:43.414789 27831 layer_factory.hpp:77] Creating layer res2c_branch2b_relu
I0706 14:05:43.414803 27831 net.cpp:91] Creating Layer res2c_branch2b_relu
I0706 14:05:43.414810 27831 net.cpp:425] res2c_branch2b_relu <- res2c_branch2b
I0706 14:05:43.414821 27831 net.cpp:386] res2c_branch2b_relu -> res2c_branch2b (in-place)
I0706 14:05:43.414834 27831 net.cpp:141] Setting up res2c_branch2b_relu
I0706 14:05:43.414845 27831 net.cpp:148] Top shape: 1 64 120 120 (921600)
I0706 14:05:43.414854 27831 net.cpp:156] Memory required for data: 412876800
I0706 14:05:43.414860 27831 layer_factory.hpp:77] Creating layer res2c_branch2c
I0706 14:05:43.414875 27831 net.cpp:91] Creating Layer res2c_branch2c
I0706 14:05:43.414883 27831 net.cpp:425] res2c_branch2c <- res2c_branch2b
I0706 14:05:43.414896 27831 net.cpp:399] res2c_branch2c -> res2c_branch2c
I0706 14:05:43.415141 27831 net.cpp:141] Setting up res2c_branch2c
I0706 14:05:43.415156 27831 net.cpp:148] Top shape: 1 256 120 120 (3686400)
I0706 14:05:43.415165 27831 net.cpp:156] Memory required for data: 427622400
I0706 14:05:43.415176 27831 layer_factory.hpp:77] Creating layer bn2c_branch2c
I0706 14:05:43.415190 27831 net.cpp:91] Creating Layer bn2c_branch2c
I0706 14:05:43.415200 27831 net.cpp:425] bn2c_branch2c <- res2c_branch2c
I0706 14:05:43.415212 27831 net.cpp:386] bn2c_branch2c -> res2c_branch2c (in-place)
I0706 14:05:43.415452 27831 net.cpp:141] Setting up bn2c_branch2c
I0706 14:05:43.415464 27831 net.cpp:148] Top shape: 1 256 120 120 (3686400)
I0706 14:05:43.415484 27831 net.cpp:156] Memory required for data: 442368000
I0706 14:05:43.415500 27831 layer_factory.hpp:77] Creating layer scale2c_branch2c
I0706 14:05:43.415515 27831 net.cpp:91] Creating Layer scale2c_branch2c
I0706 14:05:43.415524 27831 net.cpp:425] scale2c_branch2c <- res2c_branch2c
I0706 14:05:43.415535 27831 net.cpp:386] scale2c_branch2c -> res2c_branch2c (in-place)
I0706 14:05:43.415590 27831 layer_factory.hpp:77] Creating layer scale2c_branch2c
I0706 14:05:43.416558 27831 net.cpp:141] Setting up scale2c_branch2c
I0706 14:05:43.416577 27831 net.cpp:148] Top shape: 1 256 120 120 (3686400)
I0706 14:05:43.416584 27831 net.cpp:156] Memory required for data: 457113600
I0706 14:05:43.416604 27831 layer_factory.hpp:77] Creating layer res2c
I0706 14:05:43.416615 27831 net.cpp:91] Creating Layer res2c
I0706 14:05:43.416622 27831 net.cpp:425] res2c <- res2b_res2b_relu_0_split_1
I0706 14:05:43.416627 27831 net.cpp:425] res2c <- res2c_branch2c
I0706 14:05:43.416633 27831 net.cpp:399] res2c -> res2c
I0706 14:05:43.416671 27831 net.cpp:141] Setting up res2c
I0706 14:05:43.416678 27831 net.cpp:148] Top shape: 1 256 120 120 (3686400)
I0706 14:05:43.416682 27831 net.cpp:156] Memory required for data: 471859200
I0706 14:05:43.416687 27831 layer_factory.hpp:77] Creating layer res2c_relu
I0706 14:05:43.416693 27831 net.cpp:91] Creating Layer res2c_relu
I0706 14:05:43.416698 27831 net.cpp:425] res2c_relu <- res2c
I0706 14:05:43.416704 27831 net.cpp:386] res2c_relu -> res2c (in-place)
I0706 14:05:43.416712 27831 net.cpp:141] Setting up res2c_relu
I0706 14:05:43.416718 27831 net.cpp:148] Top shape: 1 256 120 120 (3686400)
I0706 14:05:43.416720 27831 net.cpp:156] Memory required for data: 486604800
I0706 14:05:43.416724 27831 layer_factory.hpp:77] Creating layer res2c_res2c_relu_0_split
I0706 14:05:43.416730 27831 net.cpp:91] Creating Layer res2c_res2c_relu_0_split
I0706 14:05:43.416734 27831 net.cpp:425] res2c_res2c_relu_0_split <- res2c
I0706 14:05:43.416741 27831 net.cpp:399] res2c_res2c_relu_0_split -> res2c_res2c_relu_0_split_0
I0706 14:05:43.416749 27831 net.cpp:399] res2c_res2c_relu_0_split -> res2c_res2c_relu_0_split_1
I0706 14:05:43.416787 27831 net.cpp:141] Setting up res2c_res2c_relu_0_split
I0706 14:05:43.416795 27831 net.cpp:148] Top shape: 1 256 120 120 (3686400)
I0706 14:05:43.416806 27831 net.cpp:148] Top shape: 1 256 120 120 (3686400)
I0706 14:05:43.416810 27831 net.cpp:156] Memory required for data: 516096000
I0706 14:05:43.416813 27831 layer_factory.hpp:77] Creating layer res3a_branch1
I0706 14:05:43.416826 27831 net.cpp:91] Creating Layer res3a_branch1
I0706 14:05:43.416831 27831 net.cpp:425] res3a_branch1 <- res2c_res2c_relu_0_split_0
I0706 14:05:43.416838 27831 net.cpp:399] res3a_branch1 -> res3a_branch1
I0706 14:05:43.417723 27831 net.cpp:141] Setting up res3a_branch1
I0706 14:05:43.417738 27831 net.cpp:148] Top shape: 1 512 60 60 (1843200)
I0706 14:05:43.417744 27831 net.cpp:156] Memory required for data: 523468800
I0706 14:05:43.417750 27831 layer_factory.hpp:77] Creating layer bn3a_branch1
I0706 14:05:43.417762 27831 net.cpp:91] Creating Layer bn3a_branch1
I0706 14:05:43.417768 27831 net.cpp:425] bn3a_branch1 <- res3a_branch1
I0706 14:05:43.417775 27831 net.cpp:386] bn3a_branch1 -> res3a_branch1 (in-place)
I0706 14:05:43.418582 27831 net.cpp:141] Setting up bn3a_branch1
I0706 14:05:43.418596 27831 net.cpp:148] Top shape: 1 512 60 60 (1843200)
I0706 14:05:43.418602 27831 net.cpp:156] Memory required for data: 530841600
I0706 14:05:43.418612 27831 layer_factory.hpp:77] Creating layer scale3a_branch1
I0706 14:05:43.418622 27831 net.cpp:91] Creating Layer scale3a_branch1
I0706 14:05:43.418627 27831 net.cpp:425] scale3a_branch1 <- res3a_branch1
I0706 14:05:43.418635 27831 net.cpp:386] scale3a_branch1 -> res3a_branch1 (in-place)
I0706 14:05:43.418673 27831 layer_factory.hpp:77] Creating layer scale3a_branch1
I0706 14:05:43.418795 27831 net.cpp:141] Setting up scale3a_branch1
I0706 14:05:43.418807 27831 net.cpp:148] Top shape: 1 512 60 60 (1843200)
I0706 14:05:43.418826 27831 net.cpp:156] Memory required for data: 538214400
I0706 14:05:43.418835 27831 layer_factory.hpp:77] Creating layer res3a_branch2a
I0706 14:05:43.418848 27831 net.cpp:91] Creating Layer res3a_branch2a
I0706 14:05:43.418853 27831 net.cpp:425] res3a_branch2a <- res2c_res2c_relu_0_split_1
I0706 14:05:43.418859 27831 net.cpp:399] res3a_branch2a -> res3a_branch2a
I0706 14:05:43.419044 27831 net.cpp:141] Setting up res3a_branch2a
I0706 14:05:43.419054 27831 net.cpp:148] Top shape: 1 128 60 60 (460800)
I0706 14:05:43.419059 27831 net.cpp:156] Memory required for data: 540057600
I0706 14:05:43.419064 27831 layer_factory.hpp:77] Creating layer bn3a_branch2a
I0706 14:05:43.419075 27831 net.cpp:91] Creating Layer bn3a_branch2a
I0706 14:05:43.419080 27831 net.cpp:425] bn3a_branch2a <- res3a_branch2a
I0706 14:05:43.419087 27831 net.cpp:386] bn3a_branch2a -> res3a_branch2a (in-place)
I0706 14:05:43.419266 27831 net.cpp:141] Setting up bn3a_branch2a
I0706 14:05:43.419275 27831 net.cpp:148] Top shape: 1 128 60 60 (460800)
I0706 14:05:43.419280 27831 net.cpp:156] Memory required for data: 541900800
I0706 14:05:43.419288 27831 layer_factory.hpp:77] Creating layer scale3a_branch2a
I0706 14:05:43.419296 27831 net.cpp:91] Creating Layer scale3a_branch2a
I0706 14:05:43.419301 27831 net.cpp:425] scale3a_branch2a <- res3a_branch2a
I0706 14:05:43.419307 27831 net.cpp:386] scale3a_branch2a -> res3a_branch2a (in-place)
I0706 14:05:43.419347 27831 layer_factory.hpp:77] Creating layer scale3a_branch2a
I0706 14:05:43.419489 27831 net.cpp:141] Setting up scale3a_branch2a
I0706 14:05:43.419500 27831 net.cpp:148] Top shape: 1 128 60 60 (460800)
I0706 14:05:43.419504 27831 net.cpp:156] Memory required for data: 543744000
I0706 14:05:43.419512 27831 layer_factory.hpp:77] Creating layer res3a_branch2a_relu
I0706 14:05:43.419519 27831 net.cpp:91] Creating Layer res3a_branch2a_relu
I0706 14:05:43.419525 27831 net.cpp:425] res3a_branch2a_relu <- res3a_branch2a
I0706 14:05:43.419531 27831 net.cpp:386] res3a_branch2a_relu -> res3a_branch2a (in-place)
I0706 14:05:43.419538 27831 net.cpp:141] Setting up res3a_branch2a_relu
I0706 14:05:43.419544 27831 net.cpp:148] Top shape: 1 128 60 60 (460800)
I0706 14:05:43.419548 27831 net.cpp:156] Memory required for data: 545587200
I0706 14:05:43.419551 27831 layer_factory.hpp:77] Creating layer res3a_branch2b
I0706 14:05:43.419561 27831 net.cpp:91] Creating Layer res3a_branch2b
I0706 14:05:43.419566 27831 net.cpp:425] res3a_branch2b <- res3a_branch2a
I0706 14:05:43.419579 27831 net.cpp:399] res3a_branch2b -> res3a_branch2b
I0706 14:05:43.420467 27831 net.cpp:141] Setting up res3a_branch2b
I0706 14:05:43.420482 27831 net.cpp:148] Top shape: 1 128 60 60 (460800)
I0706 14:05:43.420488 27831 net.cpp:156] Memory required for data: 547430400
I0706 14:05:43.420495 27831 layer_factory.hpp:77] Creating layer bn3a_branch2b
I0706 14:05:43.420514 27831 net.cpp:91] Creating Layer bn3a_branch2b
I0706 14:05:43.420521 27831 net.cpp:425] bn3a_branch2b <- res3a_branch2b
I0706 14:05:43.420527 27831 net.cpp:386] bn3a_branch2b -> res3a_branch2b (in-place)
I0706 14:05:43.420711 27831 net.cpp:141] Setting up bn3a_branch2b
I0706 14:05:43.420720 27831 net.cpp:148] Top shape: 1 128 60 60 (460800)
I0706 14:05:43.420724 27831 net.cpp:156] Memory required for data: 549273600
I0706 14:05:43.420732 27831 layer_factory.hpp:77] Creating layer scale3a_branch2b
I0706 14:05:43.420742 27831 net.cpp:91] Creating Layer scale3a_branch2b
I0706 14:05:43.420747 27831 net.cpp:425] scale3a_branch2b <- res3a_branch2b
I0706 14:05:43.420753 27831 net.cpp:386] scale3a_branch2b -> res3a_branch2b (in-place)
I0706 14:05:43.420791 27831 layer_factory.hpp:77] Creating layer scale3a_branch2b
I0706 14:05:43.420985 27831 net.cpp:141] Setting up scale3a_branch2b
I0706 14:05:43.421002 27831 net.cpp:148] Top shape: 1 128 60 60 (460800)
I0706 14:05:43.421011 27831 net.cpp:156] Memory required for data: 551116800
I0706 14:05:43.421027 27831 layer_factory.hpp:77] Creating layer res3a_branch2b_relu
I0706 14:05:43.421044 27831 net.cpp:91] Creating Layer res3a_branch2b_relu
I0706 14:05:43.421075 27831 net.cpp:425] res3a_branch2b_relu <- res3a_branch2b
I0706 14:05:43.421089 27831 net.cpp:386] res3a_branch2b_relu -> res3a_branch2b (in-place)
I0706 14:05:43.421106 27831 net.cpp:141] Setting up res3a_branch2b_relu
I0706 14:05:43.421118 27831 net.cpp:148] Top shape: 1 128 60 60 (460800)
I0706 14:05:43.421128 27831 net.cpp:156] Memory required for data: 552960000
I0706 14:05:43.421139 27831 layer_factory.hpp:77] Creating layer res3a_branch2c
I0706 14:05:43.421154 27831 net.cpp:91] Creating Layer res3a_branch2c
I0706 14:05:43.421167 27831 net.cpp:425] res3a_branch2c <- res3a_branch2b
I0706 14:05:43.421181 27831 net.cpp:399] res3a_branch2c -> res3a_branch2c
I0706 14:05:43.421605 27831 net.cpp:141] Setting up res3a_branch2c
I0706 14:05:43.421623 27831 net.cpp:148] Top shape: 1 512 60 60 (1843200)
I0706 14:05:43.421634 27831 net.cpp:156] Memory required for data: 560332800
I0706 14:05:43.421648 27831 layer_factory.hpp:77] Creating layer bn3a_branch2c
I0706 14:05:43.421677 27831 net.cpp:91] Creating Layer bn3a_branch2c
I0706 14:05:43.421689 27831 net.cpp:425] bn3a_branch2c <- res3a_branch2c
I0706 14:05:43.421705 27831 net.cpp:386] bn3a_branch2c -> res3a_branch2c (in-place)
I0706 14:05:43.422107 27831 net.cpp:141] Setting up bn3a_branch2c
I0706 14:05:43.422127 27831 net.cpp:148] Top shape: 1 512 60 60 (1843200)
I0706 14:05:43.422137 27831 net.cpp:156] Memory required for data: 567705600
I0706 14:05:43.422157 27831 layer_factory.hpp:77] Creating layer scale3a_branch2c
I0706 14:05:43.422171 27831 net.cpp:91] Creating Layer scale3a_branch2c
I0706 14:05:43.422181 27831 net.cpp:425] scale3a_branch2c <- res3a_branch2c
I0706 14:05:43.422194 27831 net.cpp:386] scale3a_branch2c -> res3a_branch2c (in-place)
I0706 14:05:43.422271 27831 layer_factory.hpp:77] Creating layer scale3a_branch2c
I0706 14:05:43.422510 27831 net.cpp:141] Setting up scale3a_branch2c
I0706 14:05:43.422528 27831 net.cpp:148] Top shape: 1 512 60 60 (1843200)
I0706 14:05:43.422538 27831 net.cpp:156] Memory required for data: 575078400
I0706 14:05:43.422552 27831 layer_factory.hpp:77] Creating layer res3a
I0706 14:05:43.422569 27831 net.cpp:91] Creating Layer res3a
I0706 14:05:43.422580 27831 net.cpp:425] res3a <- res3a_branch1
I0706 14:05:43.422592 27831 net.cpp:425] res3a <- res3a_branch2c
I0706 14:05:43.422607 27831 net.cpp:399] res3a -> res3a
I0706 14:05:43.422657 27831 net.cpp:141] Setting up res3a
I0706 14:05:43.422672 27831 net.cpp:148] Top shape: 1 512 60 60 (1843200)
I0706 14:05:43.422682 27831 net.cpp:156] Memory required for data: 582451200
I0706 14:05:43.422691 27831 layer_factory.hpp:77] Creating layer res3a_relu
I0706 14:05:43.422703 27831 net.cpp:91] Creating Layer res3a_relu
I0706 14:05:43.422713 27831 net.cpp:425] res3a_relu <- res3a
I0706 14:05:43.422727 27831 net.cpp:386] res3a_relu -> res3a (in-place)
I0706 14:05:43.422741 27831 net.cpp:141] Setting up res3a_relu
I0706 14:05:43.422754 27831 net.cpp:148] Top shape: 1 512 60 60 (1843200)
I0706 14:05:43.422762 27831 net.cpp:156] Memory required for data: 589824000
I0706 14:05:43.422772 27831 layer_factory.hpp:77] Creating layer res3a_res3a_relu_0_split
I0706 14:05:43.422785 27831 net.cpp:91] Creating Layer res3a_res3a_relu_0_split
I0706 14:05:43.422794 27831 net.cpp:425] res3a_res3a_relu_0_split <- res3a
I0706 14:05:43.422811 27831 net.cpp:399] res3a_res3a_relu_0_split -> res3a_res3a_relu_0_split_0
I0706 14:05:43.422828 27831 net.cpp:399] res3a_res3a_relu_0_split -> res3a_res3a_relu_0_split_1
I0706 14:05:43.422901 27831 net.cpp:141] Setting up res3a_res3a_relu_0_split
I0706 14:05:43.422915 27831 net.cpp:148] Top shape: 1 512 60 60 (1843200)
I0706 14:05:43.422927 27831 net.cpp:148] Top shape: 1 512 60 60 (1843200)
I0706 14:05:43.422936 27831 net.cpp:156] Memory required for data: 604569600
I0706 14:05:43.422945 27831 layer_factory.hpp:77] Creating layer res3b1_branch2a
I0706 14:05:43.422966 27831 net.cpp:91] Creating Layer res3b1_branch2a
I0706 14:05:43.422976 27831 net.cpp:425] res3b1_branch2a <- res3a_res3a_relu_0_split_0
I0706 14:05:43.422991 27831 net.cpp:399] res3b1_branch2a -> res3b1_branch2a
I0706 14:05:43.423454 27831 net.cpp:141] Setting up res3b1_branch2a
I0706 14:05:43.423475 27831 net.cpp:148] Top shape: 1 128 60 60 (460800)
I0706 14:05:43.423485 27831 net.cpp:156] Memory required for data: 606412800
I0706 14:05:43.423499 27831 layer_factory.hpp:77] Creating layer bn3b1_branch2a
I0706 14:05:43.423518 27831 net.cpp:91] Creating Layer bn3b1_branch2a
I0706 14:05:43.423529 27831 net.cpp:425] bn3b1_branch2a <- res3b1_branch2a
I0706 14:05:43.423543 27831 net.cpp:386] bn3b1_branch2a -> res3b1_branch2a (in-place)
I0706 14:05:43.423907 27831 net.cpp:141] Setting up bn3b1_branch2a
I0706 14:05:43.423923 27831 net.cpp:148] Top shape: 1 128 60 60 (460800)
I0706 14:05:43.423931 27831 net.cpp:156] Memory required for data: 608256000
I0706 14:05:43.423949 27831 layer_factory.hpp:77] Creating layer scale3b1_branch2a
I0706 14:05:43.423964 27831 net.cpp:91] Creating Layer scale3b1_branch2a
I0706 14:05:43.423974 27831 net.cpp:425] scale3b1_branch2a <- res3b1_branch2a
I0706 14:05:43.423987 27831 net.cpp:386] scale3b1_branch2a -> res3b1_branch2a (in-place)
I0706 14:05:43.424064 27831 layer_factory.hpp:77] Creating layer scale3b1_branch2a
I0706 14:05:43.424293 27831 net.cpp:141] Setting up scale3b1_branch2a
I0706 14:05:43.424309 27831 net.cpp:148] Top shape: 1 128 60 60 (460800)
I0706 14:05:43.424319 27831 net.cpp:156] Memory required for data: 610099200
I0706 14:05:43.424335 27831 layer_factory.hpp:77] Creating layer res3b1_branch2a_relu
I0706 14:05:43.424348 27831 net.cpp:91] Creating Layer res3b1_branch2a_relu
I0706 14:05:43.424358 27831 net.cpp:425] res3b1_branch2a_relu <- res3b1_branch2a
I0706 14:05:43.424377 27831 net.cpp:386] res3b1_branch2a_relu -> res3b1_branch2a (in-place)
I0706 14:05:43.424393 27831 net.cpp:141] Setting up res3b1_branch2a_relu
I0706 14:05:43.424406 27831 net.cpp:148] Top shape: 1 128 60 60 (460800)
I0706 14:05:43.424415 27831 net.cpp:156] Memory required for data: 611942400
I0706 14:05:43.424424 27831 layer_factory.hpp:77] Creating layer res3b1_branch2b
I0706 14:05:43.424440 27831 net.cpp:91] Creating Layer res3b1_branch2b
I0706 14:05:43.424450 27831 net.cpp:425] res3b1_branch2b <- res3b1_branch2a
I0706 14:05:43.424479 27831 net.cpp:399] res3b1_branch2b -> res3b1_branch2b
I0706 14:05:43.426080 27831 net.cpp:141] Setting up res3b1_branch2b
I0706 14:05:43.426115 27831 net.cpp:148] Top shape: 1 128 60 60 (460800)
I0706 14:05:43.426136 27831 net.cpp:156] Memory required for data: 613785600
I0706 14:05:43.426153 27831 layer_factory.hpp:77] Creating layer bn3b1_branch2b
I0706 14:05:43.426209 27831 net.cpp:91] Creating Layer bn3b1_branch2b
I0706 14:05:43.426229 27831 net.cpp:425] bn3b1_branch2b <- res3b1_branch2b
I0706 14:05:43.426246 27831 net.cpp:386] bn3b1_branch2b -> res3b1_branch2b (in-place)
I0706 14:05:43.426873 27831 net.cpp:141] Setting up bn3b1_branch2b
I0706 14:05:43.426899 27831 net.cpp:148] Top shape: 1 128 60 60 (460800)
I0706 14:05:43.426910 27831 net.cpp:156] Memory required for data: 615628800
I0706 14:05:43.426934 27831 layer_factory.hpp:77] Creating layer scale3b1_branch2b
I0706 14:05:43.426956 27831 net.cpp:91] Creating Layer scale3b1_branch2b
I0706 14:05:43.426972 27831 net.cpp:425] scale3b1_branch2b <- res3b1_branch2b
I0706 14:05:43.426988 27831 net.cpp:386] scale3b1_branch2b -> res3b1_branch2b (in-place)
I0706 14:05:43.427104 27831 layer_factory.hpp:77] Creating layer scale3b1_branch2b
I0706 14:05:43.427458 27831 net.cpp:141] Setting up scale3b1_branch2b
I0706 14:05:43.427481 27831 net.cpp:148] Top shape: 1 128 60 60 (460800)
I0706 14:05:43.427494 27831 net.cpp:156] Memory required for data: 617472000
I0706 14:05:43.427513 27831 layer_factory.hpp:77] Creating layer res3b1_branch2b_relu
I0706 14:05:43.427539 27831 net.cpp:91] Creating Layer res3b1_branch2b_relu
I0706 14:05:43.427552 27831 net.cpp:425] res3b1_branch2b_relu <- res3b1_branch2b
I0706 14:05:43.427568 27831 net.cpp:386] res3b1_branch2b_relu -> res3b1_branch2b (in-place)
I0706 14:05:43.427590 27831 net.cpp:141] Setting up res3b1_branch2b_relu
I0706 14:05:43.427604 27831 net.cpp:148] Top shape: 1 128 60 60 (460800)
I0706 14:05:43.427644 27831 net.cpp:156] Memory required for data: 619315200
I0706 14:05:43.427656 27831 layer_factory.hpp:77] Creating layer res3b1_branch2c
I0706 14:05:43.427708 27831 net.cpp:91] Creating Layer res3b1_branch2c
I0706 14:05:43.427726 27831 net.cpp:425] res3b1_branch2c <- res3b1_branch2b
I0706 14:05:43.427743 27831 net.cpp:399] res3b1_branch2c -> res3b1_branch2c
I0706 14:05:43.429332 27831 net.cpp:141] Setting up res3b1_branch2c
I0706 14:05:43.429368 27831 net.cpp:148] Top shape: 1 512 60 60 (1843200)
I0706 14:05:43.429391 27831 net.cpp:156] Memory required for data: 626688000
I0706 14:05:43.429410 27831 layer_factory.hpp:77] Creating layer bn3b1_branch2c
I0706 14:05:43.429430 27831 net.cpp:91] Creating Layer bn3b1_branch2c
I0706 14:05:43.429447 27831 net.cpp:425] bn3b1_branch2c <- res3b1_branch2c
I0706 14:05:43.429466 27831 net.cpp:386] bn3b1_branch2c -> res3b1_branch2c (in-place)
I0706 14:05:43.430073 27831 net.cpp:141] Setting up bn3b1_branch2c
I0706 14:05:43.430099 27831 net.cpp:148] Top shape: 1 512 60 60 (1843200)
I0706 14:05:43.430110 27831 net.cpp:156] Memory required for data: 634060800
I0706 14:05:43.430133 27831 layer_factory.hpp:77] Creating layer scale3b1_branch2c
I0706 14:05:43.430155 27831 net.cpp:91] Creating Layer scale3b1_branch2c
I0706 14:05:43.430167 27831 net.cpp:425] scale3b1_branch2c <- res3b1_branch2c
I0706 14:05:43.430214 27831 net.cpp:386] scale3b1_branch2c -> res3b1_branch2c (in-place)
I0706 14:05:43.430317 27831 layer_factory.hpp:77] Creating layer scale3b1_branch2c
I0706 14:05:43.430781 27831 net.cpp:141] Setting up scale3b1_branch2c
I0706 14:05:43.430807 27831 net.cpp:148] Top shape: 1 512 60 60 (1843200)
I0706 14:05:43.430819 27831 net.cpp:156] Memory required for data: 641433600
I0706 14:05:43.430840 27831 layer_factory.hpp:77] Creating layer res3b1
I0706 14:05:43.430860 27831 net.cpp:91] Creating Layer res3b1
I0706 14:05:43.430872 27831 net.cpp:425] res3b1 <- res3a_res3a_relu_0_split_1
I0706 14:05:43.430887 27831 net.cpp:425] res3b1 <- res3b1_branch2c
I0706 14:05:43.430927 27831 net.cpp:399] res3b1 -> res3b1
I0706 14:05:43.430995 27831 net.cpp:141] Setting up res3b1
I0706 14:05:43.431017 27831 net.cpp:148] Top shape: 1 512 60 60 (1843200)
I0706 14:05:43.431027 27831 net.cpp:156] Memory required for data: 648806400
I0706 14:05:43.431041 27831 layer_factory.hpp:77] Creating layer res3b1_relu
I0706 14:05:43.431053 27831 net.cpp:91] Creating Layer res3b1_relu
I0706 14:05:43.431069 27831 net.cpp:425] res3b1_relu <- res3b1
I0706 14:05:43.431107 27831 net.cpp:386] res3b1_relu -> res3b1 (in-place)
I0706 14:05:43.431133 27831 net.cpp:141] Setting up res3b1_relu
I0706 14:05:43.431148 27831 net.cpp:148] Top shape: 1 512 60 60 (1843200)
I0706 14:05:43.431157 27831 net.cpp:156] Memory required for data: 656179200
I0706 14:05:43.431170 27831 layer_factory.hpp:77] Creating layer res3b1_res3b1_relu_0_split
I0706 14:05:43.431181 27831 net.cpp:91] Creating Layer res3b1_res3b1_relu_0_split
I0706 14:05:43.431197 27831 net.cpp:425] res3b1_res3b1_relu_0_split <- res3b1
I0706 14:05:43.431212 27831 net.cpp:399] res3b1_res3b1_relu_0_split -> res3b1_res3b1_relu_0_split_0
I0706 14:05:43.431234 27831 net.cpp:399] res3b1_res3b1_relu_0_split -> res3b1_res3b1_relu_0_split_1
I0706 14:05:43.431350 27831 net.cpp:141] Setting up res3b1_res3b1_relu_0_split
I0706 14:05:43.431368 27831 net.cpp:148] Top shape: 1 512 60 60 (1843200)
I0706 14:05:43.431386 27831 net.cpp:148] Top shape: 1 512 60 60 (1843200)
I0706 14:05:43.431393 27831 net.cpp:156] Memory required for data: 670924800
I0706 14:05:43.431406 27831 layer_factory.hpp:77] Creating layer res3b2_branch2a
I0706 14:05:43.431428 27831 net.cpp:91] Creating Layer res3b2_branch2a
I0706 14:05:43.431442 27831 net.cpp:425] res3b2_branch2a <- res3b1_res3b1_relu_0_split_0
I0706 14:05:43.431460 27831 net.cpp:399] res3b2_branch2a -> res3b2_branch2a
I0706 14:05:43.432042 27831 net.cpp:141] Setting up res3b2_branch2a
I0706 14:05:43.432068 27831 net.cpp:148] Top shape: 1 128 60 60 (460800)
I0706 14:05:43.432077 27831 net.cpp:156] Memory required for data: 672768000
I0706 14:05:43.432116 27831 layer_factory.hpp:77] Creating layer bn3b2_branch2a
I0706 14:05:43.432173 27831 net.cpp:91] Creating Layer bn3b2_branch2a
I0706 14:05:43.432186 27831 net.cpp:425] bn3b2_branch2a <- res3b2_branch2a
I0706 14:05:43.432205 27831 net.cpp:386] bn3b2_branch2a -> res3b2_branch2a (in-place)
I0706 14:05:43.432848 27831 net.cpp:141] Setting up bn3b2_branch2a
I0706 14:05:43.432874 27831 net.cpp:148] Top shape: 1 128 60 60 (460800)
I0706 14:05:43.432884 27831 net.cpp:156] Memory required for data: 674611200
I0706 14:05:43.432909 27831 layer_factory.hpp:77] Creating layer scale3b2_branch2a
I0706 14:05:43.432929 27831 net.cpp:91] Creating Layer scale3b2_branch2a
I0706 14:05:43.432940 27831 net.cpp:425] scale3b2_branch2a <- res3b2_branch2a
I0706 14:05:43.432955 27831 net.cpp:386] scale3b2_branch2a -> res3b2_branch2a (in-place)
I0706 14:05:43.433078 27831 layer_factory.hpp:77] Creating layer scale3b2_branch2a
I0706 14:05:43.433439 27831 net.cpp:141] Setting up scale3b2_branch2a
I0706 14:05:43.433456 27831 net.cpp:148] Top shape: 1 128 60 60 (460800)
I0706 14:05:43.433471 27831 net.cpp:156] Memory required for data: 676454400
I0706 14:05:43.433490 27831 layer_factory.hpp:77] Creating layer res3b2_branch2a_relu
I0706 14:05:43.433504 27831 net.cpp:91] Creating Layer res3b2_branch2a_relu
I0706 14:05:43.433512 27831 net.cpp:425] res3b2_branch2a_relu <- res3b2_branch2a
I0706 14:05:43.433531 27831 net.cpp:386] res3b2_branch2a_relu -> res3b2_branch2a (in-place)
I0706 14:05:43.433550 27831 net.cpp:141] Setting up res3b2_branch2a_relu
I0706 14:05:43.433563 27831 net.cpp:148] Top shape: 1 128 60 60 (460800)
I0706 14:05:43.433570 27831 net.cpp:156] Memory required for data: 678297600
I0706 14:05:43.433583 27831 layer_factory.hpp:77] Creating layer res3b2_branch2b
I0706 14:05:43.433615 27831 net.cpp:91] Creating Layer res3b2_branch2b
I0706 14:05:43.433629 27831 net.cpp:425] res3b2_branch2b <- res3b2_branch2a
I0706 14:05:43.433679 27831 net.cpp:399] res3b2_branch2b -> res3b2_branch2b
I0706 14:05:43.435261 27831 net.cpp:141] Setting up res3b2_branch2b
I0706 14:05:43.435292 27831 net.cpp:148] Top shape: 1 128 60 60 (460800)
I0706 14:05:43.435307 27831 net.cpp:156] Memory required for data: 680140800
I0706 14:05:43.435326 27831 layer_factory.hpp:77] Creating layer bn3b2_branch2b
I0706 14:05:43.435346 27831 net.cpp:91] Creating Layer bn3b2_branch2b
I0706 14:05:43.435358 27831 net.cpp:425] bn3b2_branch2b <- res3b2_branch2b
I0706 14:05:43.435369 27831 net.cpp:386] bn3b2_branch2b -> res3b2_branch2b (in-place)
I0706 14:05:43.435725 27831 net.cpp:141] Setting up bn3b2_branch2b
I0706 14:05:43.435744 27831 net.cpp:148] Top shape: 1 128 60 60 (460800)
I0706 14:05:43.435750 27831 net.cpp:156] Memory required for data: 681984000
I0706 14:05:43.435766 27831 layer_factory.hpp:77] Creating layer scale3b2_branch2b
I0706 14:05:43.435781 27831 net.cpp:91] Creating Layer scale3b2_branch2b
I0706 14:05:43.435789 27831 net.cpp:425] scale3b2_branch2b <- res3b2_branch2b
I0706 14:05:43.435799 27831 net.cpp:386] scale3b2_branch2b -> res3b2_branch2b (in-place)
I0706 14:05:43.435885 27831 layer_factory.hpp:77] Creating layer scale3b2_branch2b
I0706 14:05:43.436179 27831 net.cpp:141] Setting up scale3b2_branch2b
I0706 14:05:43.436203 27831 net.cpp:148] Top shape: 1 128 60 60 (460800)
I0706 14:05:43.436215 27831 net.cpp:156] Memory required for data: 683827200
I0706 14:05:43.436230 27831 layer_factory.hpp:77] Creating layer res3b2_branch2b_relu
I0706 14:05:43.436244 27831 net.cpp:91] Creating Layer res3b2_branch2b_relu
I0706 14:05:43.436252 27831 net.cpp:425] res3b2_branch2b_relu <- res3b2_branch2b
I0706 14:05:43.436290 27831 net.cpp:386] res3b2_branch2b_relu -> res3b2_branch2b (in-place)
I0706 14:05:43.436311 27831 net.cpp:141] Setting up res3b2_branch2b_relu
I0706 14:05:43.436323 27831 net.cpp:148] Top shape: 1 128 60 60 (460800)
I0706 14:05:43.436331 27831 net.cpp:156] Memory required for data: 685670400
I0706 14:05:43.436338 27831 layer_factory.hpp:77] Creating layer res3b2_branch2c
I0706 14:05:43.436353 27831 net.cpp:91] Creating Layer res3b2_branch2c
I0706 14:05:43.436381 27831 net.cpp:425] res3b2_branch2c <- res3b2_branch2b
I0706 14:05:43.436887 27831 net.cpp:399] res3b2_branch2c -> res3b2_branch2c
I0706 14:05:43.438673 27831 net.cpp:141] Setting up res3b2_branch2c
I0706 14:05:43.438701 27831 net.cpp:148] Top shape: 1 512 60 60 (1843200)
I0706 14:05:43.438709 27831 net.cpp:156] Memory required for data: 693043200
I0706 14:05:43.438721 27831 layer_factory.hpp:77] Creating layer bn3b2_branch2c
I0706 14:05:43.438735 27831 net.cpp:91] Creating Layer bn3b2_branch2c
I0706 14:05:43.438745 27831 net.cpp:425] bn3b2_branch2c <- res3b2_branch2c
I0706 14:05:43.439285 27831 net.cpp:386] bn3b2_branch2c -> res3b2_branch2c (in-place)
I0706 14:05:43.440187 27831 net.cpp:141] Setting up bn3b2_branch2c
I0706 14:05:43.440207 27831 net.cpp:148] Top shape: 1 512 60 60 (1843200)
I0706 14:05:43.440222 27831 net.cpp:156] Memory required for data: 700416000
I0706 14:05:43.440238 27831 layer_factory.hpp:77] Creating layer scale3b2_branch2c
I0706 14:05:43.440261 27831 net.cpp:91] Creating Layer scale3b2_branch2c
I0706 14:05:43.440271 27831 net.cpp:425] scale3b2_branch2c <- res3b2_branch2c
I0706 14:05:43.440284 27831 net.cpp:386] scale3b2_branch2c -> res3b2_branch2c (in-place)
I0706 14:05:43.440357 27831 layer_factory.hpp:77] Creating layer scale3b2_branch2c
I0706 14:05:43.440608 27831 net.cpp:141] Setting up scale3b2_branch2c
I0706 14:05:43.440626 27831 net.cpp:148] Top shape: 1 512 60 60 (1843200)
I0706 14:05:43.440634 27831 net.cpp:156] Memory required for data: 707788800
I0706 14:05:43.440647 27831 layer_factory.hpp:77] Creating layer res3b2
I0706 14:05:43.440659 27831 net.cpp:91] Creating Layer res3b2
I0706 14:05:43.440667 27831 net.cpp:425] res3b2 <- res3b1_res3b1_relu_0_split_1
I0706 14:05:43.440676 27831 net.cpp:425] res3b2 <- res3b2_branch2c
I0706 14:05:43.440688 27831 net.cpp:399] res3b2 -> res3b2
I0706 14:05:43.440733 27831 net.cpp:141] Setting up res3b2
I0706 14:05:43.440748 27831 net.cpp:148] Top shape: 1 512 60 60 (1843200)
I0706 14:05:43.440755 27831 net.cpp:156] Memory required for data: 715161600
I0706 14:05:43.440763 27831 layer_factory.hpp:77] Creating layer res3b2_relu
I0706 14:05:43.440773 27831 net.cpp:91] Creating Layer res3b2_relu
I0706 14:05:43.440781 27831 net.cpp:425] res3b2_relu <- res3b2
I0706 14:05:43.440793 27831 net.cpp:386] res3b2_relu -> res3b2 (in-place)
I0706 14:05:43.440805 27831 net.cpp:141] Setting up res3b2_relu
I0706 14:05:43.440816 27831 net.cpp:148] Top shape: 1 512 60 60 (1843200)
I0706 14:05:43.440824 27831 net.cpp:156] Memory required for data: 722534400
I0706 14:05:43.440830 27831 layer_factory.hpp:77] Creating layer res3b2_res3b2_relu_0_split
I0706 14:05:43.440841 27831 net.cpp:91] Creating Layer res3b2_res3b2_relu_0_split
I0706 14:05:43.440848 27831 net.cpp:425] res3b2_res3b2_relu_0_split <- res3b2
I0706 14:05:43.440858 27831 net.cpp:399] res3b2_res3b2_relu_0_split -> res3b2_res3b2_relu_0_split_0
I0706 14:05:43.440872 27831 net.cpp:399] res3b2_res3b2_relu_0_split -> res3b2_res3b2_relu_0_split_1
I0706 14:05:43.440938 27831 net.cpp:141] Setting up res3b2_res3b2_relu_0_split
I0706 14:05:43.440953 27831 net.cpp:148] Top shape: 1 512 60 60 (1843200)
I0706 14:05:43.440963 27831 net.cpp:148] Top shape: 1 512 60 60 (1843200)
I0706 14:05:43.440969 27831 net.cpp:156] Memory required for data: 737280000
I0706 14:05:43.440976 27831 layer_factory.hpp:77] Creating layer res3b3_branch2a
I0706 14:05:43.440990 27831 net.cpp:91] Creating Layer res3b3_branch2a
I0706 14:05:43.440999 27831 net.cpp:425] res3b3_branch2a <- res3b2_res3b2_relu_0_split_0
I0706 14:05:43.441012 27831 net.cpp:399] res3b3_branch2a -> res3b3_branch2a
I0706 14:05:43.442579 27831 net.cpp:141] Setting up res3b3_branch2a
I0706 14:05:43.442590 27831 net.cpp:148] Top shape: 1 128 60 60 (460800)
I0706 14:05:43.442595 27831 net.cpp:156] Memory required for data: 739123200
I0706 14:05:43.442606 27831 layer_factory.hpp:77] Creating layer bn3b3_branch2a
I0706 14:05:43.442708 27831 net.cpp:91] Creating Layer bn3b3_branch2a
I0706 14:05:43.442716 27831 net.cpp:425] bn3b3_branch2a <- res3b3_branch2a
I0706 14:05:43.442764 27831 net.cpp:386] bn3b3_branch2a -> res3b3_branch2a (in-place)
I0706 14:05:43.443142 27831 net.cpp:141] Setting up bn3b3_branch2a
I0706 14:05:43.443157 27831 net.cpp:148] Top shape: 1 128 60 60 (460800)
I0706 14:05:43.443168 27831 net.cpp:156] Memory required for data: 740966400
I0706 14:05:43.443214 27831 layer_factory.hpp:77] Creating layer scale3b3_branch2a
I0706 14:05:43.443229 27831 net.cpp:91] Creating Layer scale3b3_branch2a
I0706 14:05:43.443238 27831 net.cpp:425] scale3b3_branch2a <- res3b3_branch2a
I0706 14:05:43.443249 27831 net.cpp:386] scale3b3_branch2a -> res3b3_branch2a (in-place)
I0706 14:05:43.443322 27831 layer_factory.hpp:77] Creating layer scale3b3_branch2a
I0706 14:05:43.443545 27831 net.cpp:141] Setting up scale3b3_branch2a
I0706 14:05:43.443562 27831 net.cpp:148] Top shape: 1 128 60 60 (460800)
I0706 14:05:43.443568 27831 net.cpp:156] Memory required for data: 742809600
I0706 14:05:43.443583 27831 layer_factory.hpp:77] Creating layer res3b3_branch2a_relu
I0706 14:05:43.443593 27831 net.cpp:91] Creating Layer res3b3_branch2a_relu
I0706 14:05:43.443600 27831 net.cpp:425] res3b3_branch2a_relu <- res3b3_branch2a
I0706 14:05:43.443614 27831 net.cpp:386] res3b3_branch2a_relu -> res3b3_branch2a (in-place)
I0706 14:05:43.443626 27831 net.cpp:141] Setting up res3b3_branch2a_relu
I0706 14:05:43.443637 27831 net.cpp:148] Top shape: 1 128 60 60 (460800)
I0706 14:05:43.443645 27831 net.cpp:156] Memory required for data: 744652800
I0706 14:05:43.443651 27831 layer_factory.hpp:77] Creating layer res3b3_branch2b
I0706 14:05:43.443665 27831 net.cpp:91] Creating Layer res3b3_branch2b
I0706 14:05:43.443673 27831 net.cpp:425] res3b3_branch2b <- res3b3_branch2a
I0706 14:05:43.443684 27831 net.cpp:399] res3b3_branch2b -> res3b3_branch2b
I0706 14:05:43.445258 27831 net.cpp:141] Setting up res3b3_branch2b
I0706 14:05:43.445289 27831 net.cpp:148] Top shape: 1 128 60 60 (460800)
I0706 14:05:43.445297 27831 net.cpp:156] Memory required for data: 746496000
I0706 14:05:43.445307 27831 layer_factory.hpp:77] Creating layer bn3b3_branch2b
I0706 14:05:43.445330 27831 net.cpp:91] Creating Layer bn3b3_branch2b
I0706 14:05:43.445340 27831 net.cpp:425] bn3b3_branch2b <- res3b3_branch2b
I0706 14:05:43.445353 27831 net.cpp:386] bn3b3_branch2b -> res3b3_branch2b (in-place)
I0706 14:05:43.445672 27831 net.cpp:141] Setting up bn3b3_branch2b
I0706 14:05:43.445685 27831 net.cpp:148] Top shape: 1 128 60 60 (460800)
I0706 14:05:43.445696 27831 net.cpp:156] Memory required for data: 748339200
I0706 14:05:43.445711 27831 layer_factory.hpp:77] Creating layer scale3b3_branch2b
I0706 14:05:43.445722 27831 net.cpp:91] Creating Layer scale3b3_branch2b
I0706 14:05:43.445729 27831 net.cpp:425] scale3b3_branch2b <- res3b3_branch2b
I0706 14:05:43.445739 27831 net.cpp:386] scale3b3_branch2b -> res3b3_branch2b (in-place)
I0706 14:05:43.445803 27831 layer_factory.hpp:77] Creating layer scale3b3_branch2b
I0706 14:05:43.445996 27831 net.cpp:141] Setting up scale3b3_branch2b
I0706 14:05:43.446009 27831 net.cpp:148] Top shape: 1 128 60 60 (460800)
I0706 14:05:43.446015 27831 net.cpp:156] Memory required for data: 750182400
I0706 14:05:43.446027 27831 layer_factory.hpp:77] Creating layer res3b3_branch2b_relu
I0706 14:05:43.446044 27831 net.cpp:91] Creating Layer res3b3_branch2b_relu
I0706 14:05:43.446053 27831 net.cpp:425] res3b3_branch2b_relu <- res3b3_branch2b
I0706 14:05:43.446064 27831 net.cpp:386] res3b3_branch2b_relu -> res3b3_branch2b (in-place)
I0706 14:05:43.446076 27831 net.cpp:141] Setting up res3b3_branch2b_relu
I0706 14:05:43.446085 27831 net.cpp:148] Top shape: 1 128 60 60 (460800)
I0706 14:05:43.446092 27831 net.cpp:156] Memory required for data: 752025600
I0706 14:05:43.446099 27831 layer_factory.hpp:77] Creating layer res3b3_branch2c
I0706 14:05:43.446115 27831 net.cpp:91] Creating Layer res3b3_branch2c
I0706 14:05:43.446122 27831 net.cpp:425] res3b3_branch2c <- res3b3_branch2b
I0706 14:05:43.446132 27831 net.cpp:399] res3b3_branch2c -> res3b3_branch2c
I0706 14:05:43.447330 27831 net.cpp:141] Setting up res3b3_branch2c
I0706 14:05:43.447378 27831 net.cpp:148] Top shape: 1 512 60 60 (1843200)
I0706 14:05:43.447387 27831 net.cpp:156] Memory required for data: 759398400
I0706 14:05:43.447399 27831 layer_factory.hpp:77] Creating layer bn3b3_branch2c
I0706 14:05:43.447412 27831 net.cpp:91] Creating Layer bn3b3_branch2c
I0706 14:05:43.447419 27831 net.cpp:425] bn3b3_branch2c <- res3b3_branch2c
I0706 14:05:43.447430 27831 net.cpp:386] bn3b3_branch2c -> res3b3_branch2c (in-place)
I0706 14:05:43.447751 27831 net.cpp:141] Setting up bn3b3_branch2c
I0706 14:05:43.447764 27831 net.cpp:148] Top shape: 1 512 60 60 (1843200)
I0706 14:05:43.447774 27831 net.cpp:156] Memory required for data: 766771200
I0706 14:05:43.447788 27831 layer_factory.hpp:77] Creating layer scale3b3_branch2c
I0706 14:05:43.447800 27831 net.cpp:91] Creating Layer scale3b3_branch2c
I0706 14:05:43.447806 27831 net.cpp:425] scale3b3_branch2c <- res3b3_branch2c
I0706 14:05:43.447816 27831 net.cpp:386] scale3b3_branch2c -> res3b3_branch2c (in-place)
I0706 14:05:43.447880 27831 layer_factory.hpp:77] Creating layer scale3b3_branch2c
I0706 14:05:43.448079 27831 net.cpp:141] Setting up scale3b3_branch2c
I0706 14:05:43.448093 27831 net.cpp:148] Top shape: 1 512 60 60 (1843200)
I0706 14:05:43.448101 27831 net.cpp:156] Memory required for data: 774144000
I0706 14:05:43.448114 27831 layer_factory.hpp:77] Creating layer res3b3
I0706 14:05:43.448125 27831 net.cpp:91] Creating Layer res3b3
I0706 14:05:43.448134 27831 net.cpp:425] res3b3 <- res3b2_res3b2_relu_0_split_1
I0706 14:05:43.448143 27831 net.cpp:425] res3b3 <- res3b3_branch2c
I0706 14:05:43.448155 27831 net.cpp:399] res3b3 -> res3b3
I0706 14:05:43.448196 27831 net.cpp:141] Setting up res3b3
I0706 14:05:43.448209 27831 net.cpp:148] Top shape: 1 512 60 60 (1843200)
I0706 14:05:43.448216 27831 net.cpp:156] Memory required for data: 781516800
I0706 14:05:43.448225 27831 layer_factory.hpp:77] Creating layer res3b3_relu
I0706 14:05:43.448235 27831 net.cpp:91] Creating Layer res3b3_relu
I0706 14:05:43.448243 27831 net.cpp:425] res3b3_relu <- res3b3
I0706 14:05:43.448261 27831 net.cpp:386] res3b3_relu -> res3b3 (in-place)
I0706 14:05:43.448272 27831 net.cpp:141] Setting up res3b3_relu
I0706 14:05:43.448282 27831 net.cpp:148] Top shape: 1 512 60 60 (1843200)
I0706 14:05:43.448287 27831 net.cpp:156] Memory required for data: 788889600
I0706 14:05:43.448293 27831 layer_factory.hpp:77] Creating layer res3b3_res3b3_relu_0_split
I0706 14:05:43.448303 27831 net.cpp:91] Creating Layer res3b3_res3b3_relu_0_split
I0706 14:05:43.448309 27831 net.cpp:425] res3b3_res3b3_relu_0_split <- res3b3
I0706 14:05:43.448318 27831 net.cpp:399] res3b3_res3b3_relu_0_split -> res3b3_res3b3_relu_0_split_0
I0706 14:05:43.448330 27831 net.cpp:399] res3b3_res3b3_relu_0_split -> res3b3_res3b3_relu_0_split_1
I0706 14:05:43.448390 27831 net.cpp:141] Setting up res3b3_res3b3_relu_0_split
I0706 14:05:43.448401 27831 net.cpp:148] Top shape: 1 512 60 60 (1843200)
I0706 14:05:43.448410 27831 net.cpp:148] Top shape: 1 512 60 60 (1843200)
I0706 14:05:43.448415 27831 net.cpp:156] Memory required for data: 803635200
I0706 14:05:43.448421 27831 layer_factory.hpp:77] Creating layer res4a_branch1
I0706 14:05:43.448434 27831 net.cpp:91] Creating Layer res4a_branch1
I0706 14:05:43.448441 27831 net.cpp:425] res4a_branch1 <- res3b3_res3b3_relu_0_split_0
I0706 14:05:43.448451 27831 net.cpp:399] res4a_branch1 -> res4a_branch1
I0706 14:05:43.450742 27831 net.cpp:141] Setting up res4a_branch1
I0706 14:05:43.450765 27831 net.cpp:148] Top shape: 1 1024 60 60 (3686400)
I0706 14:05:43.450773 27831 net.cpp:156] Memory required for data: 818380800
I0706 14:05:43.450784 27831 layer_factory.hpp:77] Creating layer bn4a_branch1
I0706 14:05:43.450799 27831 net.cpp:91] Creating Layer bn4a_branch1
I0706 14:05:43.450808 27831 net.cpp:425] bn4a_branch1 <- res4a_branch1
I0706 14:05:43.450817 27831 net.cpp:386] bn4a_branch1 -> res4a_branch1 (in-place)
I0706 14:05:43.451140 27831 net.cpp:141] Setting up bn4a_branch1
I0706 14:05:43.451155 27831 net.cpp:148] Top shape: 1 1024 60 60 (3686400)
I0706 14:05:43.451180 27831 net.cpp:156] Memory required for data: 833126400
I0706 14:05:43.451196 27831 layer_factory.hpp:77] Creating layer scale4a_branch1
I0706 14:05:43.451207 27831 net.cpp:91] Creating Layer scale4a_branch1
I0706 14:05:43.451216 27831 net.cpp:425] scale4a_branch1 <- res4a_branch1
I0706 14:05:43.451226 27831 net.cpp:386] scale4a_branch1 -> res4a_branch1 (in-place)
I0706 14:05:43.451294 27831 layer_factory.hpp:77] Creating layer scale4a_branch1
I0706 14:05:43.451493 27831 net.cpp:141] Setting up scale4a_branch1
I0706 14:05:43.451506 27831 net.cpp:148] Top shape: 1 1024 60 60 (3686400)
I0706 14:05:43.451513 27831 net.cpp:156] Memory required for data: 847872000
I0706 14:05:43.451524 27831 layer_factory.hpp:77] Creating layer res4a_branch2a
I0706 14:05:43.451541 27831 net.cpp:91] Creating Layer res4a_branch2a
I0706 14:05:43.451551 27831 net.cpp:425] res4a_branch2a <- res3b3_res3b3_relu_0_split_1
I0706 14:05:43.451563 27831 net.cpp:399] res4a_branch2a -> res4a_branch2a
I0706 14:05:43.452010 27831 net.cpp:141] Setting up res4a_branch2a
I0706 14:05:43.452028 27831 net.cpp:148] Top shape: 1 256 60 60 (921600)
I0706 14:05:43.452038 27831 net.cpp:156] Memory required for data: 851558400
I0706 14:05:43.452047 27831 layer_factory.hpp:77] Creating layer bn4a_branch2a
I0706 14:05:43.452059 27831 net.cpp:91] Creating Layer bn4a_branch2a
I0706 14:05:43.452065 27831 net.cpp:425] bn4a_branch2a <- res4a_branch2a
I0706 14:05:43.452080 27831 net.cpp:386] bn4a_branch2a -> res4a_branch2a (in-place)
I0706 14:05:43.452386 27831 net.cpp:141] Setting up bn4a_branch2a
I0706 14:05:43.452399 27831 net.cpp:148] Top shape: 1 256 60 60 (921600)
I0706 14:05:43.452410 27831 net.cpp:156] Memory required for data: 855244800
I0706 14:05:43.452425 27831 layer_factory.hpp:77] Creating layer scale4a_branch2a
I0706 14:05:43.452440 27831 net.cpp:91] Creating Layer scale4a_branch2a
I0706 14:05:43.452448 27831 net.cpp:425] scale4a_branch2a <- res4a_branch2a
I0706 14:05:43.452476 27831 net.cpp:386] scale4a_branch2a -> res4a_branch2a (in-place)
I0706 14:05:43.452548 27831 layer_factory.hpp:77] Creating layer scale4a_branch2a
I0706 14:05:43.452742 27831 net.cpp:141] Setting up scale4a_branch2a
I0706 14:05:43.452759 27831 net.cpp:148] Top shape: 1 256 60 60 (921600)
I0706 14:05:43.452770 27831 net.cpp:156] Memory required for data: 858931200
I0706 14:05:43.452788 27831 layer_factory.hpp:77] Creating layer res4a_branch2a_relu
I0706 14:05:43.452801 27831 net.cpp:91] Creating Layer res4a_branch2a_relu
I0706 14:05:43.452808 27831 net.cpp:425] res4a_branch2a_relu <- res4a_branch2a
I0706 14:05:43.452817 27831 net.cpp:386] res4a_branch2a_relu -> res4a_branch2a (in-place)
I0706 14:05:43.452831 27831 net.cpp:141] Setting up res4a_branch2a_relu
I0706 14:05:43.452841 27831 net.cpp:148] Top shape: 1 256 60 60 (921600)
I0706 14:05:43.452847 27831 net.cpp:156] Memory required for data: 862617600
I0706 14:05:43.452852 27831 layer_factory.hpp:77] Creating layer res4a_branch2b
I0706 14:05:43.452864 27831 net.cpp:91] Creating Layer res4a_branch2b
I0706 14:05:43.452872 27831 net.cpp:425] res4a_branch2b <- res4a_branch2a
I0706 14:05:43.452883 27831 net.cpp:399] res4a_branch2b -> res4a_branch2b
I0706 14:05:43.455302 27831 net.cpp:141] Setting up res4a_branch2b
I0706 14:05:43.455332 27831 net.cpp:148] Top shape: 1 256 60 60 (921600)
I0706 14:05:43.455341 27831 net.cpp:156] Memory required for data: 866304000
I0706 14:05:43.455353 27831 layer_factory.hpp:77] Creating layer bn4a_branch2b
I0706 14:05:43.455365 27831 net.cpp:91] Creating Layer bn4a_branch2b
I0706 14:05:43.455374 27831 net.cpp:425] bn4a_branch2b <- res4a_branch2b
I0706 14:05:43.455386 27831 net.cpp:386] bn4a_branch2b -> res4a_branch2b (in-place)
I0706 14:05:43.455762 27831 net.cpp:141] Setting up bn4a_branch2b
I0706 14:05:43.455780 27831 net.cpp:148] Top shape: 1 256 60 60 (921600)
I0706 14:05:43.455793 27831 net.cpp:156] Memory required for data: 869990400
I0706 14:05:43.455809 27831 layer_factory.hpp:77] Creating layer scale4a_branch2b
I0706 14:05:43.455823 27831 net.cpp:91] Creating Layer scale4a_branch2b
I0706 14:05:43.455850 27831 net.cpp:425] scale4a_branch2b <- res4a_branch2b
I0706 14:05:43.455862 27831 net.cpp:386] scale4a_branch2b -> res4a_branch2b (in-place)
I0706 14:05:43.455935 27831 layer_factory.hpp:77] Creating layer scale4a_branch2b
I0706 14:05:43.456640 27831 net.cpp:141] Setting up scale4a_branch2b
I0706 14:05:43.456665 27831 net.cpp:148] Top shape: 1 256 60 60 (921600)
I0706 14:05:43.456672 27831 net.cpp:156] Memory required for data: 873676800
I0706 14:05:43.456686 27831 layer_factory.hpp:77] Creating layer res4a_branch2b_relu
I0706 14:05:43.456698 27831 net.cpp:91] Creating Layer res4a_branch2b_relu
I0706 14:05:43.456707 27831 net.cpp:425] res4a_branch2b_relu <- res4a_branch2b
I0706 14:05:43.456717 27831 net.cpp:386] res4a_branch2b_relu -> res4a_branch2b (in-place)
I0706 14:05:43.456729 27831 net.cpp:141] Setting up res4a_branch2b_relu
I0706 14:05:43.456739 27831 net.cpp:148] Top shape: 1 256 60 60 (921600)
I0706 14:05:43.456748 27831 net.cpp:156] Memory required for data: 877363200
I0706 14:05:43.456753 27831 layer_factory.hpp:77] Creating layer res4a_branch2c
I0706 14:05:43.456773 27831 net.cpp:91] Creating Layer res4a_branch2c
I0706 14:05:43.456781 27831 net.cpp:425] res4a_branch2c <- res4a_branch2b
I0706 14:05:43.456797 27831 net.cpp:399] res4a_branch2c -> res4a_branch2c
I0706 14:05:43.458093 27831 net.cpp:141] Setting up res4a_branch2c
I0706 14:05:43.458119 27831 net.cpp:148] Top shape: 1 1024 60 60 (3686400)
I0706 14:05:43.458128 27831 net.cpp:156] Memory required for data: 892108800
I0706 14:05:43.458139 27831 layer_factory.hpp:77] Creating layer bn4a_branch2c
I0706 14:05:43.458153 27831 net.cpp:91] Creating Layer bn4a_branch2c
I0706 14:05:43.458163 27831 net.cpp:425] bn4a_branch2c <- res4a_branch2c
I0706 14:05:43.458175 27831 net.cpp:386] bn4a_branch2c -> res4a_branch2c (in-place)
I0706 14:05:43.458504 27831 net.cpp:141] Setting up bn4a_branch2c
I0706 14:05:43.458523 27831 net.cpp:148] Top shape: 1 1024 60 60 (3686400)
I0706 14:05:43.458530 27831 net.cpp:156] Memory required for data: 906854400
I0706 14:05:43.458545 27831 layer_factory.hpp:77] Creating layer scale4a_branch2c
I0706 14:05:43.458560 27831 net.cpp:91] Creating Layer scale4a_branch2c
I0706 14:05:43.458570 27831 net.cpp:425] scale4a_branch2c <- res4a_branch2c
I0706 14:05:43.458578 27831 net.cpp:386] scale4a_branch2c -> res4a_branch2c (in-place)
I0706 14:05:43.458637 27831 layer_factory.hpp:77] Creating layer scale4a_branch2c
I0706 14:05:43.458842 27831 net.cpp:141] Setting up scale4a_branch2c
I0706 14:05:43.458856 27831 net.cpp:148] Top shape: 1 1024 60 60 (3686400)
I0706 14:05:43.458863 27831 net.cpp:156] Memory required for data: 921600000
I0706 14:05:43.458875 27831 layer_factory.hpp:77] Creating layer res4a
I0706 14:05:43.458889 27831 net.cpp:91] Creating Layer res4a
I0706 14:05:43.458899 27831 net.cpp:425] res4a <- res4a_branch1
I0706 14:05:43.458906 27831 net.cpp:425] res4a <- res4a_branch2c
I0706 14:05:43.458916 27831 net.cpp:399] res4a -> res4a
I0706 14:05:43.458956 27831 net.cpp:141] Setting up res4a
I0706 14:05:43.458967 27831 net.cpp:148] Top shape: 1 1024 60 60 (3686400)
I0706 14:05:43.458974 27831 net.cpp:156] Memory required for data: 936345600
I0706 14:05:43.458981 27831 layer_factory.hpp:77] Creating layer res4a_relu
I0706 14:05:43.458992 27831 net.cpp:91] Creating Layer res4a_relu
I0706 14:05:43.459000 27831 net.cpp:425] res4a_relu <- res4a
I0706 14:05:43.459009 27831 net.cpp:386] res4a_relu -> res4a (in-place)
I0706 14:05:43.459020 27831 net.cpp:141] Setting up res4a_relu
I0706 14:05:43.459029 27831 net.cpp:148] Top shape: 1 1024 60 60 (3686400)
I0706 14:05:43.459036 27831 net.cpp:156] Memory required for data: 951091200
I0706 14:05:43.459043 27831 layer_factory.hpp:77] Creating layer res4a_res4a_relu_0_split
I0706 14:05:43.459053 27831 net.cpp:91] Creating Layer res4a_res4a_relu_0_split
I0706 14:05:43.459060 27831 net.cpp:425] res4a_res4a_relu_0_split <- res4a
I0706 14:05:43.459070 27831 net.cpp:399] res4a_res4a_relu_0_split -> res4a_res4a_relu_0_split_0
I0706 14:05:43.459082 27831 net.cpp:399] res4a_res4a_relu_0_split -> res4a_res4a_relu_0_split_1
I0706 14:05:43.459161 27831 net.cpp:141] Setting up res4a_res4a_relu_0_split
I0706 14:05:43.459174 27831 net.cpp:148] Top shape: 1 1024 60 60 (3686400)
I0706 14:05:43.459183 27831 net.cpp:148] Top shape: 1 1024 60 60 (3686400)
I0706 14:05:43.459192 27831 net.cpp:156] Memory required for data: 980582400
I0706 14:05:43.459198 27831 layer_factory.hpp:77] Creating layer res4b1_branch2a
I0706 14:05:43.459234 27831 net.cpp:91] Creating Layer res4b1_branch2a
I0706 14:05:43.459244 27831 net.cpp:425] res4b1_branch2a <- res4a_res4a_relu_0_split_0
I0706 14:05:43.459255 27831 net.cpp:399] res4b1_branch2a -> res4b1_branch2a
I0706 14:05:43.460587 27831 net.cpp:141] Setting up res4b1_branch2a
I0706 14:05:43.460611 27831 net.cpp:148] Top shape: 1 256 60 60 (921600)
I0706 14:05:43.460620 27831 net.cpp:156] Memory required for data: 984268800
I0706 14:05:43.460633 27831 layer_factory.hpp:77] Creating layer bn4b1_branch2a
I0706 14:05:43.460650 27831 net.cpp:91] Creating Layer bn4b1_branch2a
I0706 14:05:43.460659 27831 net.cpp:425] bn4b1_branch2a <- res4b1_branch2a
I0706 14:05:43.460670 27831 net.cpp:386] bn4b1_branch2a -> res4b1_branch2a (in-place)
I0706 14:05:43.460994 27831 net.cpp:141] Setting up bn4b1_branch2a
I0706 14:05:43.461007 27831 net.cpp:148] Top shape: 1 256 60 60 (921600)
I0706 14:05:43.461015 27831 net.cpp:156] Memory required for data: 987955200
I0706 14:05:43.461030 27831 layer_factory.hpp:77] Creating layer scale4b1_branch2a
I0706 14:05:43.461043 27831 net.cpp:91] Creating Layer scale4b1_branch2a
I0706 14:05:43.461051 27831 net.cpp:425] scale4b1_branch2a <- res4b1_branch2a
I0706 14:05:43.461061 27831 net.cpp:386] scale4b1_branch2a -> res4b1_branch2a (in-place)
I0706 14:05:43.461127 27831 layer_factory.hpp:77] Creating layer scale4b1_branch2a
I0706 14:05:43.461324 27831 net.cpp:141] Setting up scale4b1_branch2a
I0706 14:05:43.461338 27831 net.cpp:148] Top shape: 1 256 60 60 (921600)
I0706 14:05:43.461344 27831 net.cpp:156] Memory required for data: 991641600
I0706 14:05:43.461357 27831 layer_factory.hpp:77] Creating layer res4b1_branch2a_relu
I0706 14:05:43.461370 27831 net.cpp:91] Creating Layer res4b1_branch2a_relu
I0706 14:05:43.461380 27831 net.cpp:425] res4b1_branch2a_relu <- res4b1_branch2a
I0706 14:05:43.461388 27831 net.cpp:386] res4b1_branch2a_relu -> res4b1_branch2a (in-place)
I0706 14:05:43.461400 27831 net.cpp:141] Setting up res4b1_branch2a_relu
I0706 14:05:43.461410 27831 net.cpp:148] Top shape: 1 256 60 60 (921600)
I0706 14:05:43.461416 27831 net.cpp:156] Memory required for data: 995328000
I0706 14:05:43.461422 27831 layer_factory.hpp:77] Creating layer res4b1_branch2b
I0706 14:05:43.461437 27831 net.cpp:91] Creating Layer res4b1_branch2b
I0706 14:05:43.461446 27831 net.cpp:425] res4b1_branch2b <- res4b1_branch2a
I0706 14:05:43.461455 27831 net.cpp:399] res4b1_branch2b -> res4b1_branch2b
I0706 14:05:43.464174 27831 net.cpp:141] Setting up res4b1_branch2b
I0706 14:05:43.464198 27831 net.cpp:148] Top shape: 1 256 60 60 (921600)
I0706 14:05:43.464205 27831 net.cpp:156] Memory required for data: 999014400
I0706 14:05:43.464216 27831 layer_factory.hpp:77] Creating layer bn4b1_branch2b
I0706 14:05:43.464233 27831 net.cpp:91] Creating Layer bn4b1_branch2b
I0706 14:05:43.464242 27831 net.cpp:425] bn4b1_branch2b <- res4b1_branch2b
I0706 14:05:43.464253 27831 net.cpp:386] bn4b1_branch2b -> res4b1_branch2b (in-place)
I0706 14:05:43.464610 27831 net.cpp:141] Setting up bn4b1_branch2b
I0706 14:05:43.464627 27831 net.cpp:148] Top shape: 1 256 60 60 (921600)
I0706 14:05:43.464634 27831 net.cpp:156] Memory required for data: 1002700800
I0706 14:05:43.464649 27831 layer_factory.hpp:77] Creating layer scale4b1_branch2b
I0706 14:05:43.464664 27831 net.cpp:91] Creating Layer scale4b1_branch2b
I0706 14:05:43.464673 27831 net.cpp:425] scale4b1_branch2b <- res4b1_branch2b
I0706 14:05:43.464682 27831 net.cpp:386] scale4b1_branch2b -> res4b1_branch2b (in-place)
I0706 14:05:43.464750 27831 layer_factory.hpp:77] Creating layer scale4b1_branch2b
I0706 14:05:43.464967 27831 net.cpp:141] Setting up scale4b1_branch2b
I0706 14:05:43.464998 27831 net.cpp:148] Top shape: 1 256 60 60 (921600)
I0706 14:05:43.465005 27831 net.cpp:156] Memory required for data: 1006387200
I0706 14:05:43.465018 27831 layer_factory.hpp:77] Creating layer res4b1_branch2b_relu
I0706 14:05:43.465031 27831 net.cpp:91] Creating Layer res4b1_branch2b_relu
I0706 14:05:43.465041 27831 net.cpp:425] res4b1_branch2b_relu <- res4b1_branch2b
I0706 14:05:43.465050 27831 net.cpp:386] res4b1_branch2b_relu -> res4b1_branch2b (in-place)
I0706 14:05:43.465061 27831 net.cpp:141] Setting up res4b1_branch2b_relu
I0706 14:05:43.465071 27831 net.cpp:148] Top shape: 1 256 60 60 (921600)
I0706 14:05:43.465078 27831 net.cpp:156] Memory required for data: 1010073600
I0706 14:05:43.465085 27831 layer_factory.hpp:77] Creating layer res4b1_branch2c
I0706 14:05:43.465100 27831 net.cpp:91] Creating Layer res4b1_branch2c
I0706 14:05:43.465107 27831 net.cpp:425] res4b1_branch2c <- res4b1_branch2b
I0706 14:05:43.465117 27831 net.cpp:399] res4b1_branch2c -> res4b1_branch2c
I0706 14:05:43.466542 27831 net.cpp:141] Setting up res4b1_branch2c
I0706 14:05:43.466567 27831 net.cpp:148] Top shape: 1 1024 60 60 (3686400)
I0706 14:05:43.466574 27831 net.cpp:156] Memory required for data: 1024819200
I0706 14:05:43.466586 27831 layer_factory.hpp:77] Creating layer bn4b1_branch2c
I0706 14:05:43.466603 27831 net.cpp:91] Creating Layer bn4b1_branch2c
I0706 14:05:43.466614 27831 net.cpp:425] bn4b1_branch2c <- res4b1_branch2c
I0706 14:05:43.466624 27831 net.cpp:386] bn4b1_branch2c -> res4b1_branch2c (in-place)
I0706 14:05:43.466951 27831 net.cpp:141] Setting up bn4b1_branch2c
I0706 14:05:43.466966 27831 net.cpp:148] Top shape: 1 1024 60 60 (3686400)
I0706 14:05:43.466974 27831 net.cpp:156] Memory required for data: 1039564800
I0706 14:05:43.466989 27831 layer_factory.hpp:77] Creating layer scale4b1_branch2c
I0706 14:05:43.467002 27831 net.cpp:91] Creating Layer scale4b1_branch2c
I0706 14:05:43.467011 27831 net.cpp:425] scale4b1_branch2c <- res4b1_branch2c
I0706 14:05:43.467020 27831 net.cpp:386] scale4b1_branch2c -> res4b1_branch2c (in-place)
I0706 14:05:43.467083 27831 layer_factory.hpp:77] Creating layer scale4b1_branch2c
I0706 14:05:43.467293 27831 net.cpp:141] Setting up scale4b1_branch2c
I0706 14:05:43.467306 27831 net.cpp:148] Top shape: 1 1024 60 60 (3686400)
I0706 14:05:43.467314 27831 net.cpp:156] Memory required for data: 1054310400
I0706 14:05:43.467325 27831 layer_factory.hpp:77] Creating layer res4b1
I0706 14:05:43.467339 27831 net.cpp:91] Creating Layer res4b1
I0706 14:05:43.467349 27831 net.cpp:425] res4b1 <- res4a_res4a_relu_0_split_1
I0706 14:05:43.467356 27831 net.cpp:425] res4b1 <- res4b1_branch2c
I0706 14:05:43.467366 27831 net.cpp:399] res4b1 -> res4b1
I0706 14:05:43.467409 27831 net.cpp:141] Setting up res4b1
I0706 14:05:43.467422 27831 net.cpp:148] Top shape: 1 1024 60 60 (3686400)
I0706 14:05:43.467428 27831 net.cpp:156] Memory required for data: 1069056000
I0706 14:05:43.467434 27831 layer_factory.hpp:77] Creating layer res4b1_relu
I0706 14:05:43.467444 27831 net.cpp:91] Creating Layer res4b1_relu
I0706 14:05:43.467450 27831 net.cpp:425] res4b1_relu <- res4b1
I0706 14:05:43.467459 27831 net.cpp:386] res4b1_relu -> res4b1 (in-place)
I0706 14:05:43.467470 27831 net.cpp:141] Setting up res4b1_relu
I0706 14:05:43.467480 27831 net.cpp:148] Top shape: 1 1024 60 60 (3686400)
I0706 14:05:43.467486 27831 net.cpp:156] Memory required for data: 1083801600
I0706 14:05:43.467492 27831 layer_factory.hpp:77] Creating layer res4b1_res4b1_relu_0_split
I0706 14:05:43.467501 27831 net.cpp:91] Creating Layer res4b1_res4b1_relu_0_split
I0706 14:05:43.467509 27831 net.cpp:425] res4b1_res4b1_relu_0_split <- res4b1
I0706 14:05:43.467519 27831 net.cpp:399] res4b1_res4b1_relu_0_split -> res4b1_res4b1_relu_0_split_0
I0706 14:05:43.467532 27831 net.cpp:399] res4b1_res4b1_relu_0_split -> res4b1_res4b1_relu_0_split_1
I0706 14:05:43.467592 27831 net.cpp:141] Setting up res4b1_res4b1_relu_0_split
I0706 14:05:43.467604 27831 net.cpp:148] Top shape: 1 1024 60 60 (3686400)
I0706 14:05:43.467612 27831 net.cpp:148] Top shape: 1 1024 60 60 (3686400)
I0706 14:05:43.467635 27831 net.cpp:156] Memory required for data: 1113292800
I0706 14:05:43.467643 27831 layer_factory.hpp:77] Creating layer res4b2_branch2a
I0706 14:05:43.467658 27831 net.cpp:91] Creating Layer res4b2_branch2a
I0706 14:05:43.467667 27831 net.cpp:425] res4b2_branch2a <- res4b1_res4b1_relu_0_split_0
I0706 14:05:43.467677 27831 net.cpp:399] res4b2_branch2a -> res4b2_branch2a
I0706 14:05:43.469079 27831 net.cpp:141] Setting up res4b2_branch2a
I0706 14:05:43.469102 27831 net.cpp:148] Top shape: 1 256 60 60 (921600)
I0706 14:05:43.469111 27831 net.cpp:156] Memory required for data: 1116979200
I0706 14:05:43.469121 27831 layer_factory.hpp:77] Creating layer bn4b2_branch2a
I0706 14:05:43.469138 27831 net.cpp:91] Creating Layer bn4b2_branch2a
I0706 14:05:43.469147 27831 net.cpp:425] bn4b2_branch2a <- res4b2_branch2a
I0706 14:05:43.469157 27831 net.cpp:386] bn4b2_branch2a -> res4b2_branch2a (in-place)
I0706 14:05:43.469462 27831 net.cpp:141] Setting up bn4b2_branch2a
I0706 14:05:43.469476 27831 net.cpp:148] Top shape: 1 256 60 60 (921600)
I0706 14:05:43.469482 27831 net.cpp:156] Memory required for data: 1120665600
I0706 14:05:43.469496 27831 layer_factory.hpp:77] Creating layer scale4b2_branch2a
I0706 14:05:43.469508 27831 net.cpp:91] Creating Layer scale4b2_branch2a
I0706 14:05:43.469516 27831 net.cpp:425] scale4b2_branch2a <- res4b2_branch2a
I0706 14:05:43.469526 27831 net.cpp:386] scale4b2_branch2a -> res4b2_branch2a (in-place)
I0706 14:05:43.469588 27831 layer_factory.hpp:77] Creating layer scale4b2_branch2a
I0706 14:05:43.469779 27831 net.cpp:141] Setting up scale4b2_branch2a
I0706 14:05:43.469792 27831 net.cpp:148] Top shape: 1 256 60 60 (921600)
I0706 14:05:43.469797 27831 net.cpp:156] Memory required for data: 1124352000
I0706 14:05:43.469810 27831 layer_factory.hpp:77] Creating layer res4b2_branch2a_relu
I0706 14:05:43.469820 27831 net.cpp:91] Creating Layer res4b2_branch2a_relu
I0706 14:05:43.469826 27831 net.cpp:425] res4b2_branch2a_relu <- res4b2_branch2a
I0706 14:05:43.469837 27831 net.cpp:386] res4b2_branch2a_relu -> res4b2_branch2a (in-place)
I0706 14:05:43.469849 27831 net.cpp:141] Setting up res4b2_branch2a_relu
I0706 14:05:43.469858 27831 net.cpp:148] Top shape: 1 256 60 60 (921600)
I0706 14:05:43.469864 27831 net.cpp:156] Memory required for data: 1128038400
I0706 14:05:43.469871 27831 layer_factory.hpp:77] Creating layer res4b2_branch2b
I0706 14:05:43.469882 27831 net.cpp:91] Creating Layer res4b2_branch2b
I0706 14:05:43.469888 27831 net.cpp:425] res4b2_branch2b <- res4b2_branch2a
I0706 14:05:43.469899 27831 net.cpp:399] res4b2_branch2b -> res4b2_branch2b
I0706 14:05:43.472291 27831 net.cpp:141] Setting up res4b2_branch2b
I0706 14:05:43.472314 27831 net.cpp:148] Top shape: 1 256 60 60 (921600)
I0706 14:05:43.472321 27831 net.cpp:156] Memory required for data: 1131724800
I0706 14:05:43.472332 27831 layer_factory.hpp:77] Creating layer bn4b2_branch2b
I0706 14:05:43.472344 27831 net.cpp:91] Creating Layer bn4b2_branch2b
I0706 14:05:43.472353 27831 net.cpp:425] bn4b2_branch2b <- res4b2_branch2b
I0706 14:05:43.472362 27831 net.cpp:386] bn4b2_branch2b -> res4b2_branch2b (in-place)
I0706 14:05:43.472715 27831 net.cpp:141] Setting up bn4b2_branch2b
I0706 14:05:43.472731 27831 net.cpp:148] Top shape: 1 256 60 60 (921600)
I0706 14:05:43.472738 27831 net.cpp:156] Memory required for data: 1135411200
I0706 14:05:43.472753 27831 layer_factory.hpp:77] Creating layer scale4b2_branch2b
I0706 14:05:43.472766 27831 net.cpp:91] Creating Layer scale4b2_branch2b
I0706 14:05:43.472774 27831 net.cpp:425] scale4b2_branch2b <- res4b2_branch2b
I0706 14:05:43.472785 27831 net.cpp:386] scale4b2_branch2b -> res4b2_branch2b (in-place)
I0706 14:05:43.472856 27831 layer_factory.hpp:77] Creating layer scale4b2_branch2b
I0706 14:05:43.473045 27831 net.cpp:141] Setting up scale4b2_branch2b
I0706 14:05:43.473058 27831 net.cpp:148] Top shape: 1 256 60 60 (921600)
I0706 14:05:43.473065 27831 net.cpp:156] Memory required for data: 1139097600
I0706 14:05:43.473076 27831 layer_factory.hpp:77] Creating layer res4b2_branch2b_relu
I0706 14:05:43.473104 27831 net.cpp:91] Creating Layer res4b2_branch2b_relu
I0706 14:05:43.473111 27831 net.cpp:425] res4b2_branch2b_relu <- res4b2_branch2b
I0706 14:05:43.473122 27831 net.cpp:386] res4b2_branch2b_relu -> res4b2_branch2b (in-place)
I0706 14:05:43.473134 27831 net.cpp:141] Setting up res4b2_branch2b_relu
I0706 14:05:43.473145 27831 net.cpp:148] Top shape: 1 256 60 60 (921600)
I0706 14:05:43.473150 27831 net.cpp:156] Memory required for data: 1142784000
I0706 14:05:43.473156 27831 layer_factory.hpp:77] Creating layer res4b2_branch2c
I0706 14:05:43.473167 27831 net.cpp:91] Creating Layer res4b2_branch2c
I0706 14:05:43.473173 27831 net.cpp:425] res4b2_branch2c <- res4b2_branch2b
I0706 14:05:43.473182 27831 net.cpp:399] res4b2_branch2c -> res4b2_branch2c
I0706 14:05:43.474529 27831 net.cpp:141] Setting up res4b2_branch2c
I0706 14:05:43.474551 27831 net.cpp:148] Top shape: 1 1024 60 60 (3686400)
I0706 14:05:43.474560 27831 net.cpp:156] Memory required for data: 1157529600
I0706 14:05:43.474570 27831 layer_factory.hpp:77] Creating layer bn4b2_branch2c
I0706 14:05:43.474586 27831 net.cpp:91] Creating Layer bn4b2_branch2c
I0706 14:05:43.474596 27831 net.cpp:425] bn4b2_branch2c <- res4b2_branch2c
I0706 14:05:43.474606 27831 net.cpp:386] bn4b2_branch2c -> res4b2_branch2c (in-place)
I0706 14:05:43.474917 27831 net.cpp:141] Setting up bn4b2_branch2c
I0706 14:05:43.474931 27831 net.cpp:148] Top shape: 1 1024 60 60 (3686400)
I0706 14:05:43.474937 27831 net.cpp:156] Memory required for data: 1172275200
I0706 14:05:43.474951 27831 layer_factory.hpp:77] Creating layer scale4b2_branch2c
I0706 14:05:43.474962 27831 net.cpp:91] Creating Layer scale4b2_branch2c
I0706 14:05:43.474968 27831 net.cpp:425] scale4b2_branch2c <- res4b2_branch2c
I0706 14:05:43.474979 27831 net.cpp:386] scale4b2_branch2c -> res4b2_branch2c (in-place)
I0706 14:05:43.475038 27831 layer_factory.hpp:77] Creating layer scale4b2_branch2c
I0706 14:05:43.475239 27831 net.cpp:141] Setting up scale4b2_branch2c
I0706 14:05:43.475253 27831 net.cpp:148] Top shape: 1 1024 60 60 (3686400)
I0706 14:05:43.475260 27831 net.cpp:156] Memory required for data: 1187020800
I0706 14:05:43.475271 27831 layer_factory.hpp:77] Creating layer res4b2
I0706 14:05:43.475281 27831 net.cpp:91] Creating Layer res4b2
I0706 14:05:43.475289 27831 net.cpp:425] res4b2 <- res4b1_res4b1_relu_0_split_1
I0706 14:05:43.475296 27831 net.cpp:425] res4b2 <- res4b2_branch2c
I0706 14:05:43.475308 27831 net.cpp:399] res4b2 -> res4b2
I0706 14:05:43.475347 27831 net.cpp:141] Setting up res4b2
I0706 14:05:43.475358 27831 net.cpp:148] Top shape: 1 1024 60 60 (3686400)
I0706 14:05:43.475363 27831 net.cpp:156] Memory required for data: 1201766400
I0706 14:05:43.475369 27831 layer_factory.hpp:77] Creating layer res4b2_relu
I0706 14:05:43.475381 27831 net.cpp:91] Creating Layer res4b2_relu
I0706 14:05:43.475389 27831 net.cpp:425] res4b2_relu <- res4b2
I0706 14:05:43.475396 27831 net.cpp:386] res4b2_relu -> res4b2 (in-place)
I0706 14:05:43.475405 27831 net.cpp:141] Setting up res4b2_relu
I0706 14:05:43.475415 27831 net.cpp:148] Top shape: 1 1024 60 60 (3686400)
I0706 14:05:43.475421 27831 net.cpp:156] Memory required for data: 1216512000
I0706 14:05:43.475427 27831 layer_factory.hpp:77] Creating layer res4b2_res4b2_relu_0_split
I0706 14:05:43.475436 27831 net.cpp:91] Creating Layer res4b2_res4b2_relu_0_split
I0706 14:05:43.475442 27831 net.cpp:425] res4b2_res4b2_relu_0_split <- res4b2
I0706 14:05:43.475450 27831 net.cpp:399] res4b2_res4b2_relu_0_split -> res4b2_res4b2_relu_0_split_0
I0706 14:05:43.475463 27831 net.cpp:399] res4b2_res4b2_relu_0_split -> res4b2_res4b2_relu_0_split_1
I0706 14:05:43.475518 27831 net.cpp:141] Setting up res4b2_res4b2_relu_0_split
I0706 14:05:43.475529 27831 net.cpp:148] Top shape: 1 1024 60 60 (3686400)
I0706 14:05:43.475536 27831 net.cpp:148] Top shape: 1 1024 60 60 (3686400)
I0706 14:05:43.475543 27831 net.cpp:156] Memory required for data: 1246003200
I0706 14:05:43.475548 27831 layer_factory.hpp:77] Creating layer res4b3_branch2a
I0706 14:05:43.475560 27831 net.cpp:91] Creating Layer res4b3_branch2a
I0706 14:05:43.475584 27831 net.cpp:425] res4b3_branch2a <- res4b2_res4b2_relu_0_split_0
I0706 14:05:43.475595 27831 net.cpp:399] res4b3_branch2a -> res4b3_branch2a
I0706 14:05:43.477341 27831 net.cpp:141] Setting up res4b3_branch2a
I0706 14:05:43.477365 27831 net.cpp:148] Top shape: 1 256 60 60 (921600)
I0706 14:05:43.477372 27831 net.cpp:156] Memory required for data: 1249689600
I0706 14:05:43.477383 27831 layer_factory.hpp:77] Creating layer bn4b3_branch2a
I0706 14:05:43.477397 27831 net.cpp:91] Creating Layer bn4b3_branch2a
I0706 14:05:43.477406 27831 net.cpp:425] bn4b3_branch2a <- res4b3_branch2a
I0706 14:05:43.477416 27831 net.cpp:386] bn4b3_branch2a -> res4b3_branch2a (in-place)
I0706 14:05:43.478487 27831 net.cpp:141] Setting up bn4b3_branch2a
I0706 14:05:43.478507 27831 net.cpp:148] Top shape: 1 256 60 60 (921600)
I0706 14:05:43.478520 27831 net.cpp:156] Memory required for data: 1253376000
I0706 14:05:43.478536 27831 layer_factory.hpp:77] Creating layer scale4b3_branch2a
I0706 14:05:43.478549 27831 net.cpp:91] Creating Layer scale4b3_branch2a
I0706 14:05:43.478556 27831 net.cpp:425] scale4b3_branch2a <- res4b3_branch2a
I0706 14:05:43.478572 27831 net.cpp:386] scale4b3_branch2a -> res4b3_branch2a (in-place)
I0706 14:05:43.478639 27831 layer_factory.hpp:77] Creating layer scale4b3_branch2a
I0706 14:05:43.478828 27831 net.cpp:141] Setting up scale4b3_branch2a
I0706 14:05:43.478842 27831 net.cpp:148] Top shape: 1 256 60 60 (921600)
I0706 14:05:43.478848 27831 net.cpp:156] Memory required for data: 1257062400
I0706 14:05:43.478860 27831 layer_factory.hpp:77] Creating layer res4b3_branch2a_relu
I0706 14:05:43.478871 27831 net.cpp:91] Creating Layer res4b3_branch2a_relu
I0706 14:05:43.478878 27831 net.cpp:425] res4b3_branch2a_relu <- res4b3_branch2a
I0706 14:05:43.478888 27831 net.cpp:386] res4b3_branch2a_relu -> res4b3_branch2a (in-place)
I0706 14:05:43.478901 27831 net.cpp:141] Setting up res4b3_branch2a_relu
I0706 14:05:43.478911 27831 net.cpp:148] Top shape: 1 256 60 60 (921600)
I0706 14:05:43.478917 27831 net.cpp:156] Memory required for data: 1260748800
I0706 14:05:43.478924 27831 layer_factory.hpp:77] Creating layer res4b3_branch2b
I0706 14:05:43.478935 27831 net.cpp:91] Creating Layer res4b3_branch2b
I0706 14:05:43.478941 27831 net.cpp:425] res4b3_branch2b <- res4b3_branch2a
I0706 14:05:43.478950 27831 net.cpp:399] res4b3_branch2b -> res4b3_branch2b
I0706 14:05:43.481281 27831 net.cpp:141] Setting up res4b3_branch2b
I0706 14:05:43.481313 27831 net.cpp:148] Top shape: 1 256 60 60 (921600)
I0706 14:05:43.481319 27831 net.cpp:156] Memory required for data: 1264435200
I0706 14:05:43.481330 27831 layer_factory.hpp:77] Creating layer bn4b3_branch2b
I0706 14:05:43.481343 27831 net.cpp:91] Creating Layer bn4b3_branch2b
I0706 14:05:43.481348 27831 net.cpp:425] bn4b3_branch2b <- res4b3_branch2b
I0706 14:05:43.481359 27831 net.cpp:386] bn4b3_branch2b -> res4b3_branch2b (in-place)
I0706 14:05:43.481688 27831 net.cpp:141] Setting up bn4b3_branch2b
I0706 14:05:43.481701 27831 net.cpp:148] Top shape: 1 256 60 60 (921600)
I0706 14:05:43.481711 27831 net.cpp:156] Memory required for data: 1268121600
I0706 14:05:43.481725 27831 layer_factory.hpp:77] Creating layer scale4b3_branch2b
I0706 14:05:43.481739 27831 net.cpp:91] Creating Layer scale4b3_branch2b
I0706 14:05:43.481745 27831 net.cpp:425] scale4b3_branch2b <- res4b3_branch2b
I0706 14:05:43.481752 27831 net.cpp:386] scale4b3_branch2b -> res4b3_branch2b (in-place)
I0706 14:05:43.481814 27831 layer_factory.hpp:77] Creating layer scale4b3_branch2b
I0706 14:05:43.481997 27831 net.cpp:141] Setting up scale4b3_branch2b
I0706 14:05:43.482008 27831 net.cpp:148] Top shape: 1 256 60 60 (921600)
I0706 14:05:43.482014 27831 net.cpp:156] Memory required for data: 1271808000
I0706 14:05:43.482025 27831 layer_factory.hpp:77] Creating layer res4b3_branch2b_relu
I0706 14:05:43.482038 27831 net.cpp:91] Creating Layer res4b3_branch2b_relu
I0706 14:05:43.482044 27831 net.cpp:425] res4b3_branch2b_relu <- res4b3_branch2b
I0706 14:05:43.482053 27831 net.cpp:386] res4b3_branch2b_relu -> res4b3_branch2b (in-place)
I0706 14:05:43.482082 27831 net.cpp:141] Setting up res4b3_branch2b_relu
I0706 14:05:43.482094 27831 net.cpp:148] Top shape: 1 256 60 60 (921600)
I0706 14:05:43.482100 27831 net.cpp:156] Memory required for data: 1275494400
I0706 14:05:43.482105 27831 layer_factory.hpp:77] Creating layer res4b3_branch2c
I0706 14:05:43.482116 27831 net.cpp:91] Creating Layer res4b3_branch2c
I0706 14:05:43.482122 27831 net.cpp:425] res4b3_branch2c <- res4b3_branch2b
I0706 14:05:43.482133 27831 net.cpp:399] res4b3_branch2c -> res4b3_branch2c
I0706 14:05:43.483834 27831 net.cpp:141] Setting up res4b3_branch2c
I0706 14:05:43.483871 27831 net.cpp:148] Top shape: 1 1024 60 60 (3686400)
I0706 14:05:43.483878 27831 net.cpp:156] Memory required for data: 1290240000
I0706 14:05:43.483889 27831 layer_factory.hpp:77] Creating layer bn4b3_branch2c
I0706 14:05:43.483904 27831 net.cpp:91] Creating Layer bn4b3_branch2c
I0706 14:05:43.483913 27831 net.cpp:425] bn4b3_branch2c <- res4b3_branch2c
I0706 14:05:43.483923 27831 net.cpp:386] bn4b3_branch2c -> res4b3_branch2c (in-place)
I0706 14:05:43.484235 27831 net.cpp:141] Setting up bn4b3_branch2c
I0706 14:05:43.484248 27831 net.cpp:148] Top shape: 1 1024 60 60 (3686400)
I0706 14:05:43.484256 27831 net.cpp:156] Memory required for data: 1304985600
I0706 14:05:43.484271 27831 layer_factory.hpp:77] Creating layer scale4b3_branch2c
I0706 14:05:43.484290 27831 net.cpp:91] Creating Layer scale4b3_branch2c
I0706 14:05:43.484297 27831 net.cpp:425] scale4b3_branch2c <- res4b3_branch2c
I0706 14:05:43.484307 27831 net.cpp:386] scale4b3_branch2c -> res4b3_branch2c (in-place)
I0706 14:05:43.484364 27831 layer_factory.hpp:77] Creating layer scale4b3_branch2c
I0706 14:05:43.484596 27831 net.cpp:141] Setting up scale4b3_branch2c
I0706 14:05:43.484611 27831 net.cpp:148] Top shape: 1 1024 60 60 (3686400)
I0706 14:05:43.484616 27831 net.cpp:156] Memory required for data: 1319731200
I0706 14:05:43.484627 27831 layer_factory.hpp:77] Creating layer res4b3
I0706 14:05:43.484642 27831 net.cpp:91] Creating Layer res4b3
I0706 14:05:43.484649 27831 net.cpp:425] res4b3 <- res4b2_res4b2_relu_0_split_1
I0706 14:05:43.484658 27831 net.cpp:425] res4b3 <- res4b3_branch2c
I0706 14:05:43.484666 27831 net.cpp:399] res4b3 -> res4b3
I0706 14:05:43.484704 27831 net.cpp:141] Setting up res4b3
I0706 14:05:43.484714 27831 net.cpp:148] Top shape: 1 1024 60 60 (3686400)
I0706 14:05:43.484720 27831 net.cpp:156] Memory required for data: 1334476800
I0706 14:05:43.484726 27831 layer_factory.hpp:77] Creating layer res4b3_relu
I0706 14:05:43.484737 27831 net.cpp:91] Creating Layer res4b3_relu
I0706 14:05:43.484743 27831 net.cpp:425] res4b3_relu <- res4b3
I0706 14:05:43.484751 27831 net.cpp:386] res4b3_relu -> res4b3 (in-place)
I0706 14:05:43.484767 27831 net.cpp:141] Setting up res4b3_relu
I0706 14:05:43.484776 27831 net.cpp:148] Top shape: 1 1024 60 60 (3686400)
I0706 14:05:43.484781 27831 net.cpp:156] Memory required for data: 1349222400
I0706 14:05:43.484793 27831 layer_factory.hpp:77] Creating layer res4b3_res4b3_relu_0_split
I0706 14:05:43.484804 27831 net.cpp:91] Creating Layer res4b3_res4b3_relu_0_split
I0706 14:05:43.484810 27831 net.cpp:425] res4b3_res4b3_relu_0_split <- res4b3
I0706 14:05:43.484818 27831 net.cpp:399] res4b3_res4b3_relu_0_split -> res4b3_res4b3_relu_0_split_0
I0706 14:05:43.484828 27831 net.cpp:399] res4b3_res4b3_relu_0_split -> res4b3_res4b3_relu_0_split_1
I0706 14:05:43.484884 27831 net.cpp:141] Setting up res4b3_res4b3_relu_0_split
I0706 14:05:43.484894 27831 net.cpp:148] Top shape: 1 1024 60 60 (3686400)
I0706 14:05:43.484901 27831 net.cpp:148] Top shape: 1 1024 60 60 (3686400)
I0706 14:05:43.484906 27831 net.cpp:156] Memory required for data: 1378713600
I0706 14:05:43.484912 27831 layer_factory.hpp:77] Creating layer res4b4_branch2a
I0706 14:05:43.484925 27831 net.cpp:91] Creating Layer res4b4_branch2a
I0706 14:05:43.484930 27831 net.cpp:425] res4b4_branch2a <- res4b3_res4b3_relu_0_split_0
I0706 14:05:43.484940 27831 net.cpp:399] res4b4_branch2a -> res4b4_branch2a
I0706 14:05:43.486179 27831 net.cpp:141] Setting up res4b4_branch2a
I0706 14:05:43.486202 27831 net.cpp:148] Top shape: 1 256 60 60 (921600)
I0706 14:05:43.486209 27831 net.cpp:156] Memory required for data: 1382400000
I0706 14:05:43.486219 27831 layer_factory.hpp:77] Creating layer bn4b4_branch2a
I0706 14:05:43.486233 27831 net.cpp:91] Creating Layer bn4b4_branch2a
I0706 14:05:43.486241 27831 net.cpp:425] bn4b4_branch2a <- res4b4_branch2a
I0706 14:05:43.486250 27831 net.cpp:386] bn4b4_branch2a -> res4b4_branch2a (in-place)
I0706 14:05:43.486552 27831 net.cpp:141] Setting up bn4b4_branch2a
I0706 14:05:43.486564 27831 net.cpp:148] Top shape: 1 256 60 60 (921600)
I0706 14:05:43.486570 27831 net.cpp:156] Memory required for data: 1386086400
I0706 14:05:43.486583 27831 layer_factory.hpp:77] Creating layer scale4b4_branch2a
I0706 14:05:43.486596 27831 net.cpp:91] Creating Layer scale4b4_branch2a
I0706 14:05:43.486604 27831 net.cpp:425] scale4b4_branch2a <- res4b4_branch2a
I0706 14:05:43.486615 27831 net.cpp:386] scale4b4_branch2a -> res4b4_branch2a (in-place)
I0706 14:05:43.486675 27831 layer_factory.hpp:77] Creating layer scale4b4_branch2a
I0706 14:05:43.486858 27831 net.cpp:141] Setting up scale4b4_branch2a
I0706 14:05:43.486873 27831 net.cpp:148] Top shape: 1 256 60 60 (921600)
I0706 14:05:43.486879 27831 net.cpp:156] Memory required for data: 1389772800
I0706 14:05:43.486891 27831 layer_factory.hpp:77] Creating layer res4b4_branch2a_relu
I0706 14:05:43.486901 27831 net.cpp:91] Creating Layer res4b4_branch2a_relu
I0706 14:05:43.486907 27831 net.cpp:425] res4b4_branch2a_relu <- res4b4_branch2a
I0706 14:05:43.486917 27831 net.cpp:386] res4b4_branch2a_relu -> res4b4_branch2a (in-place)
I0706 14:05:43.486927 27831 net.cpp:141] Setting up res4b4_branch2a_relu
I0706 14:05:43.486937 27831 net.cpp:148] Top shape: 1 256 60 60 (921600)
I0706 14:05:43.486943 27831 net.cpp:156] Memory required for data: 1393459200
I0706 14:05:43.486948 27831 layer_factory.hpp:77] Creating layer res4b4_branch2b
I0706 14:05:43.486958 27831 net.cpp:91] Creating Layer res4b4_branch2b
I0706 14:05:43.486964 27831 net.cpp:425] res4b4_branch2b <- res4b4_branch2a
I0706 14:05:43.486974 27831 net.cpp:399] res4b4_branch2b -> res4b4_branch2b
I0706 14:05:43.489073 27831 net.cpp:141] Setting up res4b4_branch2b
I0706 14:05:43.489095 27831 net.cpp:148] Top shape: 1 256 60 60 (921600)
I0706 14:05:43.489105 27831 net.cpp:156] Memory required for data: 1397145600
I0706 14:05:43.489115 27831 layer_factory.hpp:77] Creating layer bn4b4_branch2b
I0706 14:05:43.489126 27831 net.cpp:91] Creating Layer bn4b4_branch2b
I0706 14:05:43.489135 27831 net.cpp:425] bn4b4_branch2b <- res4b4_branch2b
I0706 14:05:43.489151 27831 net.cpp:386] bn4b4_branch2b -> res4b4_branch2b (in-place)
I0706 14:05:43.489457 27831 net.cpp:141] Setting up bn4b4_branch2b
I0706 14:05:43.489470 27831 net.cpp:148] Top shape: 1 256 60 60 (921600)
I0706 14:05:43.489481 27831 net.cpp:156] Memory required for data: 1400832000
I0706 14:05:43.489495 27831 layer_factory.hpp:77] Creating layer scale4b4_branch2b
I0706 14:05:43.489505 27831 net.cpp:91] Creating Layer scale4b4_branch2b
I0706 14:05:43.489511 27831 net.cpp:425] scale4b4_branch2b <- res4b4_branch2b
I0706 14:05:43.489521 27831 net.cpp:386] scale4b4_branch2b -> res4b4_branch2b (in-place)
I0706 14:05:43.489580 27831 layer_factory.hpp:77] Creating layer scale4b4_branch2b
I0706 14:05:43.489768 27831 net.cpp:141] Setting up scale4b4_branch2b
I0706 14:05:43.489781 27831 net.cpp:148] Top shape: 1 256 60 60 (921600)
I0706 14:05:43.489787 27831 net.cpp:156] Memory required for data: 1404518400
I0706 14:05:43.489799 27831 layer_factory.hpp:77] Creating layer res4b4_branch2b_relu
I0706 14:05:43.489809 27831 net.cpp:91] Creating Layer res4b4_branch2b_relu
I0706 14:05:43.489814 27831 net.cpp:425] res4b4_branch2b_relu <- res4b4_branch2b
I0706 14:05:43.489825 27831 net.cpp:386] res4b4_branch2b_relu -> res4b4_branch2b (in-place)
I0706 14:05:43.489836 27831 net.cpp:141] Setting up res4b4_branch2b_relu
I0706 14:05:43.489845 27831 net.cpp:148] Top shape: 1 256 60 60 (921600)
I0706 14:05:43.489867 27831 net.cpp:156] Memory required for data: 1408204800
I0706 14:05:43.489874 27831 layer_factory.hpp:77] Creating layer res4b4_branch2c
I0706 14:05:43.489886 27831 net.cpp:91] Creating Layer res4b4_branch2c
I0706 14:05:43.489892 27831 net.cpp:425] res4b4_branch2c <- res4b4_branch2b
I0706 14:05:43.489902 27831 net.cpp:399] res4b4_branch2c -> res4b4_branch2c
I0706 14:05:43.491137 27831 net.cpp:141] Setting up res4b4_branch2c
I0706 14:05:43.491159 27831 net.cpp:148] Top shape: 1 1024 60 60 (3686400)
I0706 14:05:43.491171 27831 net.cpp:156] Memory required for data: 1422950400
I0706 14:05:43.491181 27831 layer_factory.hpp:77] Creating layer bn4b4_branch2c
I0706 14:05:43.491194 27831 net.cpp:91] Creating Layer bn4b4_branch2c
I0706 14:05:43.491199 27831 net.cpp:425] bn4b4_branch2c <- res4b4_branch2c
I0706 14:05:43.491210 27831 net.cpp:386] bn4b4_branch2c -> res4b4_branch2c (in-place)
I0706 14:05:43.491515 27831 net.cpp:141] Setting up bn4b4_branch2c
I0706 14:05:43.491528 27831 net.cpp:148] Top shape: 1 1024 60 60 (3686400)
I0706 14:05:43.491539 27831 net.cpp:156] Memory required for data: 1437696000
I0706 14:05:43.491554 27831 layer_factory.hpp:77] Creating layer scale4b4_branch2c
I0706 14:05:43.491564 27831 net.cpp:91] Creating Layer scale4b4_branch2c
I0706 14:05:43.491569 27831 net.cpp:425] scale4b4_branch2c <- res4b4_branch2c
I0706 14:05:43.491580 27831 net.cpp:386] scale4b4_branch2c -> res4b4_branch2c (in-place)
I0706 14:05:43.491636 27831 layer_factory.hpp:77] Creating layer scale4b4_branch2c
I0706 14:05:43.491830 27831 net.cpp:141] Setting up scale4b4_branch2c
I0706 14:05:43.491845 27831 net.cpp:148] Top shape: 1 1024 60 60 (3686400)
I0706 14:05:43.491852 27831 net.cpp:156] Memory required for data: 1452441600
I0706 14:05:43.491861 27831 layer_factory.hpp:77] Creating layer res4b4
I0706 14:05:43.491873 27831 net.cpp:91] Creating Layer res4b4
I0706 14:05:43.491880 27831 net.cpp:425] res4b4 <- res4b3_res4b3_relu_0_split_1
I0706 14:05:43.491888 27831 net.cpp:425] res4b4 <- res4b4_branch2c
I0706 14:05:43.491899 27831 net.cpp:399] res4b4 -> res4b4
I0706 14:05:43.491936 27831 net.cpp:141] Setting up res4b4
I0706 14:05:43.491947 27831 net.cpp:148] Top shape: 1 1024 60 60 (3686400)
I0706 14:05:43.491953 27831 net.cpp:156] Memory required for data: 1467187200
I0706 14:05:43.491958 27831 layer_factory.hpp:77] Creating layer res4b4_relu
I0706 14:05:43.491967 27831 net.cpp:91] Creating Layer res4b4_relu
I0706 14:05:43.491973 27831 net.cpp:425] res4b4_relu <- res4b4
I0706 14:05:43.491984 27831 net.cpp:386] res4b4_relu -> res4b4 (in-place)
I0706 14:05:43.491994 27831 net.cpp:141] Setting up res4b4_relu
I0706 14:05:43.492003 27831 net.cpp:148] Top shape: 1 1024 60 60 (3686400)
I0706 14:05:43.492008 27831 net.cpp:156] Memory required for data: 1481932800
I0706 14:05:43.492014 27831 layer_factory.hpp:77] Creating layer res4b4_res4b4_relu_0_split
I0706 14:05:43.492022 27831 net.cpp:91] Creating Layer res4b4_res4b4_relu_0_split
I0706 14:05:43.492028 27831 net.cpp:425] res4b4_res4b4_relu_0_split <- res4b4
I0706 14:05:43.492036 27831 net.cpp:399] res4b4_res4b4_relu_0_split -> res4b4_res4b4_relu_0_split_0
I0706 14:05:43.492046 27831 net.cpp:399] res4b4_res4b4_relu_0_split -> res4b4_res4b4_relu_0_split_1
I0706 14:05:43.492101 27831 net.cpp:141] Setting up res4b4_res4b4_relu_0_split
I0706 14:05:43.492112 27831 net.cpp:148] Top shape: 1 1024 60 60 (3686400)
I0706 14:05:43.492120 27831 net.cpp:148] Top shape: 1 1024 60 60 (3686400)
I0706 14:05:43.492125 27831 net.cpp:156] Memory required for data: 1511424000
I0706 14:05:43.492130 27831 layer_factory.hpp:77] Creating layer res4b5_branch2a
I0706 14:05:43.492141 27831 net.cpp:91] Creating Layer res4b5_branch2a
I0706 14:05:43.492148 27831 net.cpp:425] res4b5_branch2a <- res4b4_res4b4_relu_0_split_0
I0706 14:05:43.492157 27831 net.cpp:399] res4b5_branch2a -> res4b5_branch2a
I0706 14:05:43.493441 27831 net.cpp:141] Setting up res4b5_branch2a
I0706 14:05:43.493463 27831 net.cpp:148] Top shape: 1 256 60 60 (921600)
I0706 14:05:43.493474 27831 net.cpp:156] Memory required for data: 1515110400
I0706 14:05:43.493497 27831 layer_factory.hpp:77] Creating layer bn4b5_branch2a
I0706 14:05:43.493510 27831 net.cpp:91] Creating Layer bn4b5_branch2a
I0706 14:05:43.493518 27831 net.cpp:425] bn4b5_branch2a <- res4b5_branch2a
I0706 14:05:43.493527 27831 net.cpp:386] bn4b5_branch2a -> res4b5_branch2a (in-place)
I0706 14:05:43.493818 27831 net.cpp:141] Setting up bn4b5_branch2a
I0706 14:05:43.493831 27831 net.cpp:148] Top shape: 1 256 60 60 (921600)
I0706 14:05:43.493839 27831 net.cpp:156] Memory required for data: 1518796800
I0706 14:05:43.493851 27831 layer_factory.hpp:77] Creating layer scale4b5_branch2a
I0706 14:05:43.493863 27831 net.cpp:91] Creating Layer scale4b5_branch2a
I0706 14:05:43.493870 27831 net.cpp:425] scale4b5_branch2a <- res4b5_branch2a
I0706 14:05:43.493878 27831 net.cpp:386] scale4b5_branch2a -> res4b5_branch2a (in-place)
I0706 14:05:43.493938 27831 layer_factory.hpp:77] Creating layer scale4b5_branch2a
I0706 14:05:43.494118 27831 net.cpp:141] Setting up scale4b5_branch2a
I0706 14:05:43.494130 27831 net.cpp:148] Top shape: 1 256 60 60 (921600)
I0706 14:05:43.494135 27831 net.cpp:156] Memory required for data: 1522483200
I0706 14:05:43.494146 27831 layer_factory.hpp:77] Creating layer res4b5_branch2a_relu
I0706 14:05:43.494156 27831 net.cpp:91] Creating Layer res4b5_branch2a_relu
I0706 14:05:43.494164 27831 net.cpp:425] res4b5_branch2a_relu <- res4b5_branch2a
I0706 14:05:43.494171 27831 net.cpp:386] res4b5_branch2a_relu -> res4b5_branch2a (in-place)
I0706 14:05:43.494181 27831 net.cpp:141] Setting up res4b5_branch2a_relu
I0706 14:05:43.494189 27831 net.cpp:148] Top shape: 1 256 60 60 (921600)
I0706 14:05:43.494194 27831 net.cpp:156] Memory required for data: 1526169600
I0706 14:05:43.494199 27831 layer_factory.hpp:77] Creating layer res4b5_branch2b
I0706 14:05:43.494215 27831 net.cpp:91] Creating Layer res4b5_branch2b
I0706 14:05:43.494221 27831 net.cpp:425] res4b5_branch2b <- res4b5_branch2a
I0706 14:05:43.494230 27831 net.cpp:399] res4b5_branch2b -> res4b5_branch2b
I0706 14:05:43.496343 27831 net.cpp:141] Setting up res4b5_branch2b
I0706 14:05:43.496363 27831 net.cpp:148] Top shape: 1 256 60 60 (921600)
I0706 14:05:43.496369 27831 net.cpp:156] Memory required for data: 1529856000
I0706 14:05:43.496379 27831 layer_factory.hpp:77] Creating layer bn4b5_branch2b
I0706 14:05:43.496392 27831 net.cpp:91] Creating Layer bn4b5_branch2b
I0706 14:05:43.496400 27831 net.cpp:425] bn4b5_branch2b <- res4b5_branch2b
I0706 14:05:43.496409 27831 net.cpp:386] bn4b5_branch2b -> res4b5_branch2b (in-place)
I0706 14:05:43.496713 27831 net.cpp:141] Setting up bn4b5_branch2b
I0706 14:05:43.496726 27831 net.cpp:148] Top shape: 1 256 60 60 (921600)
I0706 14:05:43.496732 27831 net.cpp:156] Memory required for data: 1533542400
I0706 14:05:43.496744 27831 layer_factory.hpp:77] Creating layer scale4b5_branch2b
I0706 14:05:43.496757 27831 net.cpp:91] Creating Layer scale4b5_branch2b
I0706 14:05:43.496772 27831 net.cpp:425] scale4b5_branch2b <- res4b5_branch2b
I0706 14:05:43.496779 27831 net.cpp:386] scale4b5_branch2b -> res4b5_branch2b (in-place)
I0706 14:05:43.496845 27831 layer_factory.hpp:77] Creating layer scale4b5_branch2b
I0706 14:05:43.497025 27831 net.cpp:141] Setting up scale4b5_branch2b
I0706 14:05:43.497037 27831 net.cpp:148] Top shape: 1 256 60 60 (921600)
I0706 14:05:43.497042 27831 net.cpp:156] Memory required for data: 1537228800
I0706 14:05:43.497053 27831 layer_factory.hpp:77] Creating layer res4b5_branch2b_relu
I0706 14:05:43.497063 27831 net.cpp:91] Creating Layer res4b5_branch2b_relu
I0706 14:05:43.497071 27831 net.cpp:425] res4b5_branch2b_relu <- res4b5_branch2b
I0706 14:05:43.497078 27831 net.cpp:386] res4b5_branch2b_relu -> res4b5_branch2b (in-place)
I0706 14:05:43.497087 27831 net.cpp:141] Setting up res4b5_branch2b_relu
I0706 14:05:43.497095 27831 net.cpp:148] Top shape: 1 256 60 60 (921600)
I0706 14:05:43.497100 27831 net.cpp:156] Memory required for data: 1540915200
I0706 14:05:43.497105 27831 layer_factory.hpp:77] Creating layer res4b5_branch2c
I0706 14:05:43.497118 27831 net.cpp:91] Creating Layer res4b5_branch2c
I0706 14:05:43.497139 27831 net.cpp:425] res4b5_branch2c <- res4b5_branch2b
I0706 14:05:43.497150 27831 net.cpp:399] res4b5_branch2c -> res4b5_branch2c
I0706 14:05:43.498394 27831 net.cpp:141] Setting up res4b5_branch2c
I0706 14:05:43.498414 27831 net.cpp:148] Top shape: 1 1024 60 60 (3686400)
I0706 14:05:43.498426 27831 net.cpp:156] Memory required for data: 1555660800
I0706 14:05:43.498435 27831 layer_factory.hpp:77] Creating layer bn4b5_branch2c
I0706 14:05:43.498450 27831 net.cpp:91] Creating Layer bn4b5_branch2c
I0706 14:05:43.498456 27831 net.cpp:425] bn4b5_branch2c <- res4b5_branch2c
I0706 14:05:43.498466 27831 net.cpp:386] bn4b5_branch2c -> res4b5_branch2c (in-place)
I0706 14:05:43.498760 27831 net.cpp:141] Setting up bn4b5_branch2c
I0706 14:05:43.498774 27831 net.cpp:148] Top shape: 1 1024 60 60 (3686400)
I0706 14:05:43.498780 27831 net.cpp:156] Memory required for data: 1570406400
I0706 14:05:43.498792 27831 layer_factory.hpp:77] Creating layer scale4b5_branch2c
I0706 14:05:43.498803 27831 net.cpp:91] Creating Layer scale4b5_branch2c
I0706 14:05:43.498809 27831 net.cpp:425] scale4b5_branch2c <- res4b5_branch2c
I0706 14:05:43.498817 27831 net.cpp:386] scale4b5_branch2c -> res4b5_branch2c (in-place)
I0706 14:05:43.498874 27831 layer_factory.hpp:77] Creating layer scale4b5_branch2c
I0706 14:05:43.499059 27831 net.cpp:141] Setting up scale4b5_branch2c
I0706 14:05:43.499073 27831 net.cpp:148] Top shape: 1 1024 60 60 (3686400)
I0706 14:05:43.499078 27831 net.cpp:156] Memory required for data: 1585152000
I0706 14:05:43.499138 27831 layer_factory.hpp:77] Creating layer res4b5
I0706 14:05:43.499150 27831 net.cpp:91] Creating Layer res4b5
I0706 14:05:43.499157 27831 net.cpp:425] res4b5 <- res4b4_res4b4_relu_0_split_1
I0706 14:05:43.499164 27831 net.cpp:425] res4b5 <- res4b5_branch2c
I0706 14:05:43.499173 27831 net.cpp:399] res4b5 -> res4b5
I0706 14:05:43.499213 27831 net.cpp:141] Setting up res4b5
I0706 14:05:43.499224 27831 net.cpp:148] Top shape: 1 1024 60 60 (3686400)
I0706 14:05:43.499229 27831 net.cpp:156] Memory required for data: 1599897600
I0706 14:05:43.499235 27831 layer_factory.hpp:77] Creating layer res4b5_relu
I0706 14:05:43.499243 27831 net.cpp:91] Creating Layer res4b5_relu
I0706 14:05:43.499248 27831 net.cpp:425] res4b5_relu <- res4b5
I0706 14:05:43.499258 27831 net.cpp:386] res4b5_relu -> res4b5 (in-place)
I0706 14:05:43.499267 27831 net.cpp:141] Setting up res4b5_relu
I0706 14:05:43.499274 27831 net.cpp:148] Top shape: 1 1024 60 60 (3686400)
I0706 14:05:43.499279 27831 net.cpp:156] Memory required for data: 1614643200
I0706 14:05:43.499284 27831 layer_factory.hpp:77] Creating layer res4b5_res4b5_relu_0_split
I0706 14:05:43.499292 27831 net.cpp:91] Creating Layer res4b5_res4b5_relu_0_split
I0706 14:05:43.499297 27831 net.cpp:425] res4b5_res4b5_relu_0_split <- res4b5
I0706 14:05:43.499305 27831 net.cpp:399] res4b5_res4b5_relu_0_split -> res4b5_res4b5_relu_0_split_0
I0706 14:05:43.499315 27831 net.cpp:399] res4b5_res4b5_relu_0_split -> res4b5_res4b5_relu_0_split_1
I0706 14:05:43.499369 27831 net.cpp:141] Setting up res4b5_res4b5_relu_0_split
I0706 14:05:43.499379 27831 net.cpp:148] Top shape: 1 1024 60 60 (3686400)
I0706 14:05:43.499387 27831 net.cpp:148] Top shape: 1 1024 60 60 (3686400)
I0706 14:05:43.499392 27831 net.cpp:156] Memory required for data: 1644134400
I0706 14:05:43.499397 27831 layer_factory.hpp:77] Creating layer res4b6_branch2a
I0706 14:05:43.499408 27831 net.cpp:91] Creating Layer res4b6_branch2a
I0706 14:05:43.499413 27831 net.cpp:425] res4b6_branch2a <- res4b5_res4b5_relu_0_split_0
I0706 14:05:43.499424 27831 net.cpp:399] res4b6_branch2a -> res4b6_branch2a
I0706 14:05:43.500689 27831 net.cpp:141] Setting up res4b6_branch2a
I0706 14:05:43.500710 27831 net.cpp:148] Top shape: 1 256 60 60 (921600)
I0706 14:05:43.500715 27831 net.cpp:156] Memory required for data: 1647820800
I0706 14:05:43.500725 27831 layer_factory.hpp:77] Creating layer bn4b6_branch2a
I0706 14:05:43.500744 27831 net.cpp:91] Creating Layer bn4b6_branch2a
I0706 14:05:43.500752 27831 net.cpp:425] bn4b6_branch2a <- res4b6_branch2a
I0706 14:05:43.500777 27831 net.cpp:386] bn4b6_branch2a -> res4b6_branch2a (in-place)
I0706 14:05:43.501065 27831 net.cpp:141] Setting up bn4b6_branch2a
I0706 14:05:43.501078 27831 net.cpp:148] Top shape: 1 256 60 60 (921600)
I0706 14:05:43.501083 27831 net.cpp:156] Memory required for data: 1651507200
I0706 14:05:43.501096 27831 layer_factory.hpp:77] Creating layer scale4b6_branch2a
I0706 14:05:43.501108 27831 net.cpp:91] Creating Layer scale4b6_branch2a
I0706 14:05:43.501114 27831 net.cpp:425] scale4b6_branch2a <- res4b6_branch2a
I0706 14:05:43.501122 27831 net.cpp:386] scale4b6_branch2a -> res4b6_branch2a (in-place)
I0706 14:05:43.501181 27831 layer_factory.hpp:77] Creating layer scale4b6_branch2a
I0706 14:05:43.501373 27831 net.cpp:141] Setting up scale4b6_branch2a
I0706 14:05:43.501386 27831 net.cpp:148] Top shape: 1 256 60 60 (921600)
I0706 14:05:43.501391 27831 net.cpp:156] Memory required for data: 1655193600
I0706 14:05:43.501402 27831 layer_factory.hpp:77] Creating layer res4b6_branch2a_relu
I0706 14:05:43.501412 27831 net.cpp:91] Creating Layer res4b6_branch2a_relu
I0706 14:05:43.501420 27831 net.cpp:425] res4b6_branch2a_relu <- res4b6_branch2a
I0706 14:05:43.501428 27831 net.cpp:386] res4b6_branch2a_relu -> res4b6_branch2a (in-place)
I0706 14:05:43.501437 27831 net.cpp:141] Setting up res4b6_branch2a_relu
I0706 14:05:43.501444 27831 net.cpp:148] Top shape: 1 256 60 60 (921600)
I0706 14:05:43.501449 27831 net.cpp:156] Memory required for data: 1658880000
I0706 14:05:43.501454 27831 layer_factory.hpp:77] Creating layer res4b6_branch2b
I0706 14:05:43.501466 27831 net.cpp:91] Creating Layer res4b6_branch2b
I0706 14:05:43.501471 27831 net.cpp:425] res4b6_branch2b <- res4b6_branch2a
I0706 14:05:43.501482 27831 net.cpp:399] res4b6_branch2b -> res4b6_branch2b
I0706 14:05:43.503666 27831 net.cpp:141] Setting up res4b6_branch2b
I0706 14:05:43.503696 27831 net.cpp:148] Top shape: 1 256 60 60 (921600)
I0706 14:05:43.503702 27831 net.cpp:156] Memory required for data: 1662566400
I0706 14:05:43.503713 27831 layer_factory.hpp:77] Creating layer bn4b6_branch2b
I0706 14:05:43.503726 27831 net.cpp:91] Creating Layer bn4b6_branch2b
I0706 14:05:43.503732 27831 net.cpp:425] bn4b6_branch2b <- res4b6_branch2b
I0706 14:05:43.503742 27831 net.cpp:386] bn4b6_branch2b -> res4b6_branch2b (in-place)
I0706 14:05:43.504034 27831 net.cpp:141] Setting up bn4b6_branch2b
I0706 14:05:43.504045 27831 net.cpp:148] Top shape: 1 256 60 60 (921600)
I0706 14:05:43.504055 27831 net.cpp:156] Memory required for data: 1666252800
I0706 14:05:43.504067 27831 layer_factory.hpp:77] Creating layer scale4b6_branch2b
I0706 14:05:43.504079 27831 net.cpp:91] Creating Layer scale4b6_branch2b
I0706 14:05:43.504086 27831 net.cpp:425] scale4b6_branch2b <- res4b6_branch2b
I0706 14:05:43.504093 27831 net.cpp:386] scale4b6_branch2b -> res4b6_branch2b (in-place)
I0706 14:05:43.504156 27831 layer_factory.hpp:77] Creating layer scale4b6_branch2b
I0706 14:05:43.504333 27831 net.cpp:141] Setting up scale4b6_branch2b
I0706 14:05:43.504345 27831 net.cpp:148] Top shape: 1 256 60 60 (921600)
I0706 14:05:43.504350 27831 net.cpp:156] Memory required for data: 1669939200
I0706 14:05:43.504360 27831 layer_factory.hpp:77] Creating layer res4b6_branch2b_relu
I0706 14:05:43.504371 27831 net.cpp:91] Creating Layer res4b6_branch2b_relu
I0706 14:05:43.504379 27831 net.cpp:425] res4b6_branch2b_relu <- res4b6_branch2b
I0706 14:05:43.504386 27831 net.cpp:386] res4b6_branch2b_relu -> res4b6_branch2b (in-place)
I0706 14:05:43.504395 27831 net.cpp:141] Setting up res4b6_branch2b_relu
I0706 14:05:43.504402 27831 net.cpp:148] Top shape: 1 256 60 60 (921600)
I0706 14:05:43.504407 27831 net.cpp:156] Memory required for data: 1673625600
I0706 14:05:43.504413 27831 layer_factory.hpp:77] Creating layer res4b6_branch2c
I0706 14:05:43.504423 27831 net.cpp:91] Creating Layer res4b6_branch2c
I0706 14:05:43.504429 27831 net.cpp:425] res4b6_branch2c <- res4b6_branch2b
I0706 14:05:43.504441 27831 net.cpp:399] res4b6_branch2c -> res4b6_branch2c
I0706 14:05:43.505714 27831 net.cpp:141] Setting up res4b6_branch2c
I0706 14:05:43.505750 27831 net.cpp:148] Top shape: 1 1024 60 60 (3686400)
I0706 14:05:43.505761 27831 net.cpp:156] Memory required for data: 1688371200
I0706 14:05:43.505771 27831 layer_factory.hpp:77] Creating layer bn4b6_branch2c
I0706 14:05:43.505781 27831 net.cpp:91] Creating Layer bn4b6_branch2c
I0706 14:05:43.505787 27831 net.cpp:425] bn4b6_branch2c <- res4b6_branch2c
I0706 14:05:43.505798 27831 net.cpp:386] bn4b6_branch2c -> res4b6_branch2c (in-place)
I0706 14:05:43.506085 27831 net.cpp:141] Setting up bn4b6_branch2c
I0706 14:05:43.506096 27831 net.cpp:148] Top shape: 1 1024 60 60 (3686400)
I0706 14:05:43.506101 27831 net.cpp:156] Memory required for data: 1703116800
I0706 14:05:43.506114 27831 layer_factory.hpp:77] Creating layer scale4b6_branch2c
I0706 14:05:43.506125 27831 net.cpp:91] Creating Layer scale4b6_branch2c
I0706 14:05:43.506131 27831 net.cpp:425] scale4b6_branch2c <- res4b6_branch2c
I0706 14:05:43.506141 27831 net.cpp:386] scale4b6_branch2c -> res4b6_branch2c (in-place)
I0706 14:05:43.506193 27831 layer_factory.hpp:77] Creating layer scale4b6_branch2c
I0706 14:05:43.506372 27831 net.cpp:141] Setting up scale4b6_branch2c
I0706 14:05:43.506386 27831 net.cpp:148] Top shape: 1 1024 60 60 (3686400)
I0706 14:05:43.506391 27831 net.cpp:156] Memory required for data: 1717862400
I0706 14:05:43.506400 27831 layer_factory.hpp:77] Creating layer res4b6
I0706 14:05:43.506410 27831 net.cpp:91] Creating Layer res4b6
I0706 14:05:43.506417 27831 net.cpp:425] res4b6 <- res4b5_res4b5_relu_0_split_1
I0706 14:05:43.506423 27831 net.cpp:425] res4b6 <- res4b6_branch2c
I0706 14:05:43.506430 27831 net.cpp:399] res4b6 -> res4b6
I0706 14:05:43.506464 27831 net.cpp:141] Setting up res4b6
I0706 14:05:43.506474 27831 net.cpp:148] Top shape: 1 1024 60 60 (3686400)
I0706 14:05:43.506479 27831 net.cpp:156] Memory required for data: 1732608000
I0706 14:05:43.506484 27831 layer_factory.hpp:77] Creating layer res4b6_relu
I0706 14:05:43.506494 27831 net.cpp:91] Creating Layer res4b6_relu
I0706 14:05:43.506500 27831 net.cpp:425] res4b6_relu <- res4b6
I0706 14:05:43.506507 27831 net.cpp:386] res4b6_relu -> res4b6 (in-place)
I0706 14:05:43.506515 27831 net.cpp:141] Setting up res4b6_relu
I0706 14:05:43.506522 27831 net.cpp:148] Top shape: 1 1024 60 60 (3686400)
I0706 14:05:43.506527 27831 net.cpp:156] Memory required for data: 1747353600
I0706 14:05:43.506532 27831 layer_factory.hpp:77] Creating layer res4b6_res4b6_relu_0_split
I0706 14:05:43.506542 27831 net.cpp:91] Creating Layer res4b6_res4b6_relu_0_split
I0706 14:05:43.506547 27831 net.cpp:425] res4b6_res4b6_relu_0_split <- res4b6
I0706 14:05:43.506554 27831 net.cpp:399] res4b6_res4b6_relu_0_split -> res4b6_res4b6_relu_0_split_0
I0706 14:05:43.506563 27831 net.cpp:399] res4b6_res4b6_relu_0_split -> res4b6_res4b6_relu_0_split_1
I0706 14:05:43.506613 27831 net.cpp:141] Setting up res4b6_res4b6_relu_0_split
…
I0706 14:05:43.593523 27831 net.cpp:91] Creating Layer res4b20_branch2b_relu
I0706 14:05:43.593528 27831 net.cpp:425] res4b20_branch2b_relu <- res4b20_branch2b
I0706 14:05:43.593533 27831 net.cpp:386] res4b20_branch2b_relu -> res4b20_branch2b (in-place)
I0706 14:05:43.593540 27831 net.cpp:141] Setting up res4b20_branch2b_relu
I0706 14:05:43.593546 27831 net.cpp:148] Top shape: 1 256 60 60 (921600)
I0706 14:05:43.593549 27831 net.cpp:156] Memory required for data: 3531571200
I0706 14:05:43.593554 27831 layer_factory.hpp:77] Creating layer res4b20_branch2c
I0706 14:05:43.593561 27831 net.cpp:91] Creating Layer res4b20_branch2c
I0706 14:05:43.593566 27831 net.cpp:425] res4b20_branch2c <- res4b20_branch2b
I0706 14:05:43.593575 27831 net.cpp:399] res4b20_branch2c -> res4b20_branch2c
I0706 14:05:43.594574 27831 net.cpp:141] Setting up res4b20_branch2c
I0706 14:05:43.594589 27831 net.cpp:148] Top shape: 1 1024 60 60 (3686400)
I0706 14:05:43.594594 27831 net.cpp:156] Memory required for data: 3546316800
I0706 14:05:43.594604 27831 layer_factory.hpp:77] Creating layer bn4b20_branch2c
I0706 14:05:43.594614 27831 net.cpp:91] Creating Layer bn4b20_branch2c
I0706 14:05:43.594619 27831 net.cpp:425] bn4b20_branch2c <- res4b20_branch2c
I0706 14:05:43.594626 27831 net.cpp:386] bn4b20_branch2c -> res4b20_branch2c (in-place)
I0706 14:05:43.594846 27831 net.cpp:141] Setting up bn4b20_branch2c
I0706 14:05:43.594856 27831 net.cpp:148] Top shape: 1 1024 60 60 (3686400)
I0706 14:05:43.594859 27831 net.cpp:156] Memory required for data: 3561062400
I0706 14:05:43.594869 27831 layer_factory.hpp:77] Creating layer scale4b20_branch2c
I0706 14:05:43.594877 27831 net.cpp:91] Creating Layer scale4b20_branch2c
I0706 14:05:43.594880 27831 net.cpp:425] scale4b20_branch2c <- res4b20_branch2c
I0706 14:05:43.594892 27831 net.cpp:386] scale4b20_branch2c -> res4b20_branch2c (in-place)
I0706 14:05:43.594935 27831 layer_factory.hpp:77] Creating layer scale4b20_branch2c
I0706 14:05:43.595077 27831 net.cpp:141] Setting up scale4b20_branch2c
I0706 14:05:43.595088 27831 net.cpp:148] Top shape: 1 1024 60 60 (3686400)
I0706 14:05:43.595091 27831 net.cpp:156] Memory required for data: 3575808000
I0706 14:05:43.595099 27831 layer_factory.hpp:77] Creating layer res4b20
I0706 14:05:43.595108 27831 net.cpp:91] Creating Layer res4b20
I0706 14:05:43.595113 27831 net.cpp:425] res4b20 <- res4b19_res4b19_relu_0_split_1
I0706 14:05:43.595118 27831 net.cpp:425] res4b20 <- res4b20_branch2c
I0706 14:05:43.595124 27831 net.cpp:399] res4b20 -> res4b20
I0706 14:05:43.595163 27831 net.cpp:141] Setting up res4b20
I0706 14:05:43.595172 27831 net.cpp:148] Top shape: 1 1024 60 60 (3686400)
I0706 14:05:43.595176 27831 net.cpp:156] Memory required for data: 3590553600
I0706 14:05:43.595180 27831 layer_factory.hpp:77] Creating layer res4b20_relu
I0706 14:05:43.595188 27831 net.cpp:91] Creating Layer res4b20_relu
I0706 14:05:43.595193 27831 net.cpp:425] res4b20_relu <- res4b20
I0706 14:05:43.595199 27831 net.cpp:386] res4b20_relu -> res4b20 (in-place)
I0706 14:05:43.595206 27831 net.cpp:141] Setting up res4b20_relu
I0706 14:05:43.595211 27831 net.cpp:148] Top shape: 1 1024 60 60 (3686400)
I0706 14:05:43.595214 27831 net.cpp:156] Memory required for data: 3605299200
I0706 14:05:43.595218 27831 layer_factory.hpp:77] Creating layer res4b20_res4b20_relu_0_split
I0706 14:05:43.595224 27831 net.cpp:91] Creating Layer res4b20_res4b20_relu_0_split
I0706 14:05:43.595230 27831 net.cpp:425] res4b20_res4b20_relu_0_split <- res4b20
I0706 14:05:43.595237 27831 net.cpp:399] res4b20_res4b20_relu_0_split -> res4b20_res4b20_relu_0_split_0
I0706 14:05:43.595243 27831 net.cpp:399] res4b20_res4b20_relu_0_split -> res4b20_res4b20_relu_0_split_1
I0706 14:05:43.595283 27831 net.cpp:141] Setting up res4b20_res4b20_relu_0_split
I0706 14:05:43.595290 27831 net.cpp:148] Top shape: 1 1024 60 60 (3686400)
I0706 14:05:43.595295 27831 net.cpp:148] Top shape: 1 1024 60 60 (3686400)
I0706 14:05:43.595299 27831 net.cpp:156] Memory required for data: 3634790400
I0706 14:05:43.595304 27831 layer_factory.hpp:77] Creating layer res4b21_branch2a
I0706 14:05:43.595312 27831 net.cpp:91] Creating Layer res4b21_branch2a
I0706 14:05:43.595316 27831 net.cpp:425] res4b21_branch2a <- res4b20_res4b20_relu_0_split_0
I0706 14:05:43.595324 27831 net.cpp:399] res4b21_branch2a -> res4b21_branch2a
I0706 14:05:43.596319 27831 net.cpp:141] Setting up res4b21_branch2a
I0706 14:05:43.596334 27831 net.cpp:148] Top shape: 1 256 60 60 (921600)
I0706 14:05:43.596338 27831 net.cpp:156] Memory required for data: 3638476800
I0706 14:05:43.596349 27831 layer_factory.hpp:77] Creating layer bn4b21_branch2a
I0706 14:05:43.596359 27831 net.cpp:91] Creating Layer bn4b21_branch2a
I0706 14:05:43.596364 27831 net.cpp:425] bn4b21_branch2a <- res4b21_branch2a
I0706 14:05:43.596370 27831 net.cpp:386] bn4b21_branch2a -> res4b21_branch2a (in-place)
I0706 14:05:43.596590 27831 net.cpp:141] Setting up bn4b21_branch2a
I0706 14:05:43.596599 27831 net.cpp:148] Top shape: 1 256 60 60 (921600)
I0706 14:05:43.596603 27831 net.cpp:156] Memory required for data: 3642163200
I0706 14:05:43.596613 27831 layer_factory.hpp:77] Creating layer scale4b21_branch2a
I0706 14:05:43.596621 27831 net.cpp:91] Creating Layer scale4b21_branch2a
I0706 14:05:43.596626 27831 net.cpp:425] scale4b21_branch2a <- res4b21_branch2a
I0706 14:05:43.596633 27831 net.cpp:386] scale4b21_branch2a -> res4b21_branch2a (in-place)
I0706 14:05:43.596674 27831 layer_factory.hpp:77] Creating layer scale4b21_branch2a
I0706 14:05:43.596808 27831 net.cpp:141] Setting up scale4b21_branch2a
I0706 14:05:43.596818 27831 net.cpp:148] Top shape: 1 256 60 60 (921600)
I0706 14:05:43.596822 27831 net.cpp:156] Memory required for data: 3645849600
I0706 14:05:43.596830 27831 layer_factory.hpp:77] Creating layer res4b21_branch2a_relu
I0706 14:05:43.596837 27831 net.cpp:91] Creating Layer res4b21_branch2a_relu
I0706 14:05:43.596842 27831 net.cpp:425] res4b21_branch2a_relu <- res4b21_branch2a
I0706 14:05:43.596846 27831 net.cpp:386] res4b21_branch2a_relu -> res4b21_branch2a (in-place)
I0706 14:05:43.596855 27831 net.cpp:141] Setting up res4b21_branch2a_relu
I0706 14:05:43.596860 27831 net.cpp:148] Top shape: 1 256 60 60 (921600)
I0706 14:05:43.596864 27831 net.cpp:156] Memory required for data: 3649536000
I0706 14:05:43.596868 27831 layer_factory.hpp:77] Creating layer res4b21_branch2b
I0706 14:05:43.596876 27831 net.cpp:91] Creating Layer res4b21_branch2b
I0706 14:05:43.596880 27831 net.cpp:425] res4b21_branch2b <- res4b21_branch2a
I0706 14:05:43.596887 27831 net.cpp:399] res4b21_branch2b -> res4b21_branch2b
I0706 14:05:43.598595 27831 net.cpp:141] Setting up res4b21_branch2b
I0706 14:05:43.598621 27831 net.cpp:148] Top shape: 1 256 60 60 (921600)
I0706 14:05:43.598626 27831 net.cpp:156] Memory required for data: 3653222400
I0706 14:05:43.598635 27831 layer_factory.hpp:77] Creating layer bn4b21_branch2b
I0706 14:05:43.598644 27831 net.cpp:91] Creating Layer bn4b21_branch2b
I0706 14:05:43.598649 27831 net.cpp:425] bn4b21_branch2b <- res4b21_branch2b
I0706 14:05:43.598655 27831 net.cpp:386] bn4b21_branch2b -> res4b21_branch2b (in-place)
I0706 14:05:43.598867 27831 net.cpp:141] Setting up bn4b21_branch2b
I0706 14:05:43.598878 27831 net.cpp:148] Top shape: 1 256 60 60 (921600)
I0706 14:05:43.598882 27831 net.cpp:156] Memory required for data: 3656908800
I0706 14:05:43.598891 27831 layer_factory.hpp:77] Creating layer scale4b21_branch2b
I0706 14:05:43.598901 27831 net.cpp:91] Creating Layer scale4b21_branch2b
I0706 14:05:43.598906 27831 net.cpp:425] scale4b21_branch2b <- res4b21_branch2b
I0706 14:05:43.598914 27831 net.cpp:386] scale4b21_branch2b -> res4b21_branch2b (in-place)
I0706 14:05:43.598958 27831 layer_factory.hpp:77] Creating layer scale4b21_branch2b
I0706 14:05:43.599089 27831 net.cpp:141] Setting up scale4b21_branch2b
I0706 14:05:43.599098 27831 net.cpp:148] Top shape: 1 256 60 60 (921600)
I0706 14:05:43.599109 27831 net.cpp:156] Memory required for data: 3660595200
I0706 14:05:43.599117 27831 layer_factory.hpp:77] Creating layer res4b21_branch2b_relu
I0706 14:05:43.599123 27831 net.cpp:91] Creating Layer res4b21_branch2b_relu
I0706 14:05:43.599128 27831 net.cpp:425] res4b21_branch2b_relu <- res4b21_branch2b
I0706 14:05:43.599133 27831 net.cpp:386] res4b21_branch2b_relu -> res4b21_branch2b (in-place)
I0706 14:05:43.599143 27831 net.cpp:141] Setting up res4b21_branch2b_relu
I0706 14:05:43.599148 27831 net.cpp:148] Top shape: 1 256 60 60 (921600)
I0706 14:05:43.599151 27831 net.cpp:156] Memory required for data: 3664281600
I0706 14:05:43.599155 27831 layer_factory.hpp:77] Creating layer res4b21_branch2c
I0706 14:05:43.599164 27831 net.cpp:91] Creating Layer res4b21_branch2c
I0706 14:05:43.599167 27831 net.cpp:425] res4b21_branch2c <- res4b21_branch2b
I0706 14:05:43.599174 27831 net.cpp:399] res4b21_branch2c -> res4b21_branch2c
I0706 14:05:43.600175 27831 net.cpp:141] Setting up res4b21_branch2c
I0706 14:05:43.600190 27831 net.cpp:148] Top shape: 1 1024 60 60 (3686400)
I0706 14:05:43.600201 27831 net.cpp:156] Memory required for data: 3679027200
I0706 14:05:43.600209 27831 layer_factory.hpp:77] Creating layer bn4b21_branch2c
I0706 14:05:43.600217 27831 net.cpp:91] Creating Layer bn4b21_branch2c
I0706 14:05:43.600222 27831 net.cpp:425] bn4b21_branch2c <- res4b21_branch2c
I0706 14:05:43.600229 27831 net.cpp:386] bn4b21_branch2c -> res4b21_branch2c (in-place)
I0706 14:05:43.600451 27831 net.cpp:141] Setting up bn4b21_branch2c
I0706 14:05:43.600469 27831 net.cpp:148] Top shape: 1 1024 60 60 (3686400)
I0706 14:05:43.600473 27831 net.cpp:156] Memory required for data: 3693772800
I0706 14:05:43.600483 27831 layer_factory.hpp:77] Creating layer scale4b21_branch2c
I0706 14:05:43.600492 27831 net.cpp:91] Creating Layer scale4b21_branch2c
I0706 14:05:43.600497 27831 net.cpp:425] scale4b21_branch2c <- res4b21_branch2c
I0706 14:05:43.600505 27831 net.cpp:386] scale4b21_branch2c -> res4b21_branch2c (in-place)
I0706 14:05:43.600553 27831 layer_factory.hpp:77] Creating layer scale4b21_branch2c
I0706 14:05:43.600705 27831 net.cpp:141] Setting up scale4b21_branch2c
I0706 14:05:43.600715 27831 net.cpp:148] Top shape: 1 1024 60 60 (3686400)
I0706 14:05:43.600719 27831 net.cpp:156] Memory required for data: 3708518400
I0706 14:05:43.600728 27831 layer_factory.hpp:77] Creating layer res4b21
I0706 14:05:43.600733 27831 net.cpp:91] Creating Layer res4b21
I0706 14:05:43.600739 27831 net.cpp:425] res4b21 <- res4b20_res4b20_relu_0_split_1
I0706 14:05:43.600744 27831 net.cpp:425] res4b21 <- res4b21_branch2c
I0706 14:05:43.600751 27831 net.cpp:399] res4b21 -> res4b21
I0706 14:05:43.600775 27831 net.cpp:141] Setting up res4b21
I0706 14:05:43.600783 27831 net.cpp:148] Top shape: 1 1024 60 60 (3686400)
I0706 14:05:43.600797 27831 net.cpp:156] Memory required for data: 3723264000
I0706 14:05:43.600802 27831 layer_factory.hpp:77] Creating layer res4b21_relu
I0706 14:05:43.600808 27831 net.cpp:91] Creating Layer res4b21_relu
I0706 14:05:43.600812 27831 net.cpp:425] res4b21_relu <- res4b21
I0706 14:05:43.600821 27831 net.cpp:386] res4b21_relu -> res4b21 (in-place)
I0706 14:05:43.600827 27831 net.cpp:141] Setting up res4b21_relu
I0706 14:05:43.600832 27831 net.cpp:148] Top shape: 1 1024 60 60 (3686400)
I0706 14:05:43.600836 27831 net.cpp:156] Memory required for data: 3738009600
I0706 14:05:43.600839 27831 layer_factory.hpp:77] Creating layer res4b21_res4b21_relu_0_split
I0706 14:05:43.600847 27831 net.cpp:91] Creating Layer res4b21_res4b21_relu_0_split
I0706 14:05:43.600850 27831 net.cpp:425] res4b21_res4b21_relu_0_split <- res4b21
I0706 14:05:43.600855 27831 net.cpp:399] res4b21_res4b21_relu_0_split -> res4b21_res4b21_relu_0_split_0
I0706 14:05:43.600862 27831 net.cpp:399] res4b21_res4b21_relu_0_split -> res4b21_res4b21_relu_0_split_1
I0706 14:05:43.600904 27831 net.cpp:141] Setting up res4b21_res4b21_relu_0_split
I0706 14:05:43.600913 27831 net.cpp:148] Top shape: 1 1024 60 60 (3686400)
I0706 14:05:43.600917 27831 net.cpp:148] Top shape: 1 1024 60 60 (3686400)
I0706 14:05:43.600920 27831 net.cpp:156] Memory required for data: 3767500800
I0706 14:05:43.600924 27831 layer_factory.hpp:77] Creating layer res4b22_branch2a
I0706 14:05:43.600934 27831 net.cpp:91] Creating Layer res4b22_branch2a
I0706 14:05:43.600937 27831 net.cpp:425] res4b22_branch2a <- res4b21_res4b21_relu_0_split_0
I0706 14:05:43.600944 27831 net.cpp:399] res4b22_branch2a -> res4b22_branch2a
I0706 14:05:43.601917 27831 net.cpp:141] Setting up res4b22_branch2a
I0706 14:05:43.601933 27831 net.cpp:148] Top shape: 1 256 60 60 (921600)
I0706 14:05:43.601936 27831 net.cpp:156] Memory required for data: 3771187200
I0706 14:05:43.601945 27831 layer_factory.hpp:77] Creating layer bn4b22_branch2a
I0706 14:05:43.601955 27831 net.cpp:91] Creating Layer bn4b22_branch2a
I0706 14:05:43.601960 27831 net.cpp:425] bn4b22_branch2a <- res4b22_branch2a
I0706 14:05:43.601968 27831 net.cpp:386] bn4b22_branch2a -> res4b22_branch2a (in-place)
I0706 14:05:43.602174 27831 net.cpp:141] Setting up bn4b22_branch2a
I0706 14:05:43.602183 27831 net.cpp:148] Top shape: 1 256 60 60 (921600)
I0706 14:05:43.602187 27831 net.cpp:156] Memory required for data: 3774873600
I0706 14:05:43.602196 27831 layer_factory.hpp:77] Creating layer scale4b22_branch2a
I0706 14:05:43.602205 27831 net.cpp:91] Creating Layer scale4b22_branch2a
I0706 14:05:43.602210 27831 net.cpp:425] scale4b22_branch2a <- res4b22_branch2a
I0706 14:05:43.602216 27831 net.cpp:386] scale4b22_branch2a -> res4b22_branch2a (in-place)
I0706 14:05:43.602267 27831 layer_factory.hpp:77] Creating layer scale4b22_branch2a
I0706 14:05:43.602394 27831 net.cpp:141] Setting up scale4b22_branch2a
I0706 14:05:43.602404 27831 net.cpp:148] Top shape: 1 256 60 60 (921600)
I0706 14:05:43.602407 27831 net.cpp:156] Memory required for data: 3778560000
I0706 14:05:43.602416 27831 layer_factory.hpp:77] Creating layer res4b22_branch2a_relu
I0706 14:05:43.602423 27831 net.cpp:91] Creating Layer res4b22_branch2a_relu
I0706 14:05:43.602427 27831 net.cpp:425] res4b22_branch2a_relu <- res4b22_branch2a
I0706 14:05:43.602433 27831 net.cpp:386] res4b22_branch2a_relu -> res4b22_branch2a (in-place)
I0706 14:05:43.602440 27831 net.cpp:141] Setting up res4b22_branch2a_relu
I0706 14:05:43.602445 27831 net.cpp:148] Top shape: 1 256 60 60 (921600)
I0706 14:05:43.602449 27831 net.cpp:156] Memory required for data: 3782246400
I0706 14:05:43.602452 27831 layer_factory.hpp:77] Creating layer res4b22_branch2b
I0706 14:05:43.602463 27831 net.cpp:91] Creating Layer res4b22_branch2b
I0706 14:05:43.602468 27831 net.cpp:425] res4b22_branch2b <- res4b22_branch2a
I0706 14:05:43.602473 27831 net.cpp:399] res4b22_branch2b -> res4b22_branch2b
I0706 14:05:43.604142 27831 net.cpp:141] Setting up res4b22_branch2b
I0706 14:05:43.604157 27831 net.cpp:148] Top shape: 1 256 60 60 (921600)
I0706 14:05:43.604171 27831 net.cpp:156] Memory required for data: 3785932800
I0706 14:05:43.604178 27831 layer_factory.hpp:77] Creating layer bn4b22_branch2b
I0706 14:05:43.604189 27831 net.cpp:91] Creating Layer bn4b22_branch2b
I0706 14:05:43.604194 27831 net.cpp:425] bn4b22_branch2b <- res4b22_branch2b
I0706 14:05:43.604202 27831 net.cpp:386] bn4b22_branch2b -> res4b22_branch2b (in-place)
I0706 14:05:43.604405 27831 net.cpp:141] Setting up bn4b22_branch2b
I0706 14:05:43.604414 27831 net.cpp:148] Top shape: 1 256 60 60 (921600)
I0706 14:05:43.604418 27831 net.cpp:156] Memory required for data: 3789619200
I0706 14:05:43.604429 27831 layer_factory.hpp:77] Creating layer scale4b22_branch2b
I0706 14:05:43.604435 27831 net.cpp:91] Creating Layer scale4b22_branch2b
I0706 14:05:43.604439 27831 net.cpp:425] scale4b22_branch2b <- res4b22_branch2b
I0706 14:05:43.604445 27831 net.cpp:386] scale4b22_branch2b -> res4b22_branch2b (in-place)
I0706 14:05:43.604495 27831 layer_factory.hpp:77] Creating layer scale4b22_branch2b
I0706 14:05:43.604622 27831 net.cpp:141] Setting up scale4b22_branch2b
I0706 14:05:43.604631 27831 net.cpp:148] Top shape: 1 256 60 60 (921600)
I0706 14:05:43.604635 27831 net.cpp:156] Memory required for data: 3793305600
I0706 14:05:43.604643 27831 layer_factory.hpp:77] Creating layer res4b22_branch2b_relu
I0706 14:05:43.604651 27831 net.cpp:91] Creating Layer res4b22_branch2b_relu
I0706 14:05:43.604655 27831 net.cpp:425] res4b22_branch2b_relu <- res4b22_branch2b
I0706 14:05:43.604661 27831 net.cpp:386] res4b22_branch2b_relu -> res4b22_branch2b (in-place)
I0706 14:05:43.604668 27831 net.cpp:141] Setting up res4b22_branch2b_relu
I0706 14:05:43.604672 27831 net.cpp:148] Top shape: 1 256 60 60 (921600)
I0706 14:05:43.604676 27831 net.cpp:156] Memory required for data: 3796992000
I0706 14:05:43.604681 27831 layer_factory.hpp:77] Creating layer res4b22_branch2c
I0706 14:05:43.604689 27831 net.cpp:91] Creating Layer res4b22_branch2c
I0706 14:05:43.604693 27831 net.cpp:425] res4b22_branch2c <- res4b22_branch2b
I0706 14:05:43.604699 27831 net.cpp:399] res4b22_branch2c -> res4b22_branch2c
I0706 14:05:43.605669 27831 net.cpp:141] Setting up res4b22_branch2c
I0706 14:05:43.605684 27831 net.cpp:148] Top shape: 1 1024 60 60 (3686400)
I0706 14:05:43.605695 27831 net.cpp:156] Memory required for data: 3811737600
I0706 14:05:43.605701 27831 layer_factory.hpp:77] Creating layer bn4b22_branch2c
I0706 14:05:43.605713 27831 net.cpp:91] Creating Layer bn4b22_branch2c
I0706 14:05:43.605718 27831 net.cpp:425] bn4b22_branch2c <- res4b22_branch2c
I0706 14:05:43.605725 27831 net.cpp:386] bn4b22_branch2c -> res4b22_branch2c (in-place)
I0706 14:05:43.605944 27831 net.cpp:141] Setting up bn4b22_branch2c
I0706 14:05:43.605953 27831 net.cpp:148] Top shape: 1 1024 60 60 (3686400)
I0706 14:05:43.605957 27831 net.cpp:156] Memory required for data: 3826483200
I0706 14:05:43.605967 27831 layer_factory.hpp:77] Creating layer scale4b22_branch2c
I0706 14:05:43.605974 27831 net.cpp:91] Creating Layer scale4b22_branch2c
I0706 14:05:43.605980 27831 net.cpp:425] scale4b22_branch2c <- res4b22_branch2c
I0706 14:05:43.605986 27831 net.cpp:386] scale4b22_branch2c -> res4b22_branch2c (in-place)
I0706 14:05:43.606031 27831 layer_factory.hpp:77] Creating layer scale4b22_branch2c
I0706 14:05:43.606170 27831 net.cpp:141] Setting up scale4b22_branch2c
I0706 14:05:43.606179 27831 net.cpp:148] Top shape: 1 1024 60 60 (3686400)
I0706 14:05:43.606184 27831 net.cpp:156] Memory required for data: 3841228800
I0706 14:05:43.606191 27831 layer_factory.hpp:77] Creating layer res4b22
I0706 14:05:43.606199 27831 net.cpp:91] Creating Layer res4b22
I0706 14:05:43.606204 27831 net.cpp:425] res4b22 <- res4b21_res4b21_relu_0_split_1
I0706 14:05:43.606209 27831 net.cpp:425] res4b22 <- res4b22_branch2c
I0706 14:05:43.606215 27831 net.cpp:399] res4b22 -> res4b22
I0706 14:05:43.606243 27831 net.cpp:141] Setting up res4b22
I0706 14:05:43.606251 27831 net.cpp:148] Top shape: 1 1024 60 60 (3686400)
I0706 14:05:43.606256 27831 net.cpp:156] Memory required for data: 3855974400
I0706 14:05:43.606271 27831 layer_factory.hpp:77] Creating layer res4b22_relu
I0706 14:05:43.606276 27831 net.cpp:91] Creating Layer res4b22_relu
I0706 14:05:43.606281 27831 net.cpp:425] res4b22_relu <- res4b22
I0706 14:05:43.606287 27831 net.cpp:386] res4b22_relu -> res4b22 (in-place)
I0706 14:05:43.606293 27831 net.cpp:141] Setting up res4b22_relu
I0706 14:05:43.606298 27831 net.cpp:148] Top shape: 1 1024 60 60 (3686400)
I0706 14:05:43.606302 27831 net.cpp:156] Memory required for data: 3870720000
I0706 14:05:43.606305 27831 layer_factory.hpp:77] Creating layer res4b22_res4b22_relu_0_split
I0706 14:05:43.606312 27831 net.cpp:91] Creating Layer res4b22_res4b22_relu_0_split
I0706 14:05:43.606315 27831 net.cpp:425] res4b22_res4b22_relu_0_split <- res4b22
I0706 14:05:43.606324 27831 net.cpp:399] res4b22_res4b22_relu_0_split -> res4b22_res4b22_relu_0_split_0
I0706 14:05:43.606331 27831 net.cpp:399] res4b22_res4b22_relu_0_split -> res4b22_res4b22_relu_0_split_1
I0706 14:05:43.606371 27831 net.cpp:141] Setting up res4b22_res4b22_relu_0_split
I0706 14:05:43.606379 27831 net.cpp:148] Top shape: 1 1024 60 60 (3686400)
I0706 14:05:43.606384 27831 net.cpp:148] Top shape: 1 1024 60 60 (3686400)
I0706 14:05:43.606387 27831 net.cpp:156] Memory required for data: 3900211200
I0706 14:05:43.606391 27831 layer_factory.hpp:77] Creating layer res5a_branch1
I0706 14:05:43.606401 27831 net.cpp:91] Creating Layer res5a_branch1
I0706 14:05:43.606406 27831 net.cpp:425] res5a_branch1 <- res4b22_res4b22_relu_0_split_0
I0706 14:05:43.606413 27831 net.cpp:399] res5a_branch1 -> res5a_branch1
I0706 14:05:43.611300 27831 net.cpp:141] Setting up res5a_branch1
I0706 14:05:43.611320 27831 net.cpp:148] Top shape: 1 2048 60 60 (7372800)
I0706 14:05:43.611330 27831 net.cpp:156] Memory required for data: 3929702400
I0706 14:05:43.611338 27831 layer_factory.hpp:77] Creating layer bn5a_branch1
I0706 14:05:43.611349 27831 net.cpp:91] Creating Layer bn5a_branch1
I0706 14:05:43.611354 27831 net.cpp:425] bn5a_branch1 <- res5a_branch1
I0706 14:05:43.611361 27831 net.cpp:386] bn5a_branch1 -> res5a_branch1 (in-place)
I0706 14:05:43.611578 27831 net.cpp:141] Setting up bn5a_branch1
I0706 14:05:43.611588 27831 net.cpp:148] Top shape: 1 2048 60 60 (7372800)
I0706 14:05:43.611591 27831 net.cpp:156] Memory required for data: 3959193600
I0706 14:05:43.611601 27831 layer_factory.hpp:77] Creating layer scale5a_branch1
I0706 14:05:43.611608 27831 net.cpp:91] Creating Layer scale5a_branch1
I0706 14:05:43.611613 27831 net.cpp:425] scale5a_branch1 <- res5a_branch1
I0706 14:05:43.611618 27831 net.cpp:386] scale5a_branch1 -> res5a_branch1 (in-place)
I0706 14:05:43.611665 27831 layer_factory.hpp:77] Creating layer scale5a_branch1
I0706 14:05:43.611795 27831 net.cpp:141] Setting up scale5a_branch1
I0706 14:05:43.611804 27831 net.cpp:148] Top shape: 1 2048 60 60 (7372800)
I0706 14:05:43.611809 27831 net.cpp:156] Memory required for data: 3988684800
I0706 14:05:43.611816 27831 layer_factory.hpp:77] Creating layer res5a_branch2a
I0706 14:05:43.611827 27831 net.cpp:91] Creating Layer res5a_branch2a
I0706 14:05:43.611832 27831 net.cpp:425] res5a_branch2a <- res4b22_res4b22_relu_0_split_1
I0706 14:05:43.611840 27831 net.cpp:399] res5a_branch2a -> res5a_branch2a
I0706 14:05:43.613378 27831 net.cpp:141] Setting up res5a_branch2a
I0706 14:05:43.613392 27831 net.cpp:148] Top shape: 1 512 60 60 (1843200)
I0706 14:05:43.613396 27831 net.cpp:156] Memory required for data: 3996057600
I0706 14:05:43.613406 27831 layer_factory.hpp:77] Creating layer bn5a_branch2a
I0706 14:05:43.613415 27831 net.cpp:91] Creating Layer bn5a_branch2a
I0706 14:05:43.613418 27831 net.cpp:425] bn5a_branch2a <- res5a_branch2a
I0706 14:05:43.613426 27831 net.cpp:386] bn5a_branch2a -> res5a_branch2a (in-place)
I0706 14:05:43.613647 27831 net.cpp:141] Setting up bn5a_branch2a
I0706 14:05:43.613657 27831 net.cpp:148] Top shape: 1 512 60 60 (1843200)
I0706 14:05:43.613662 27831 net.cpp:156] Memory required for data: 4003430400
I0706 14:05:43.613670 27831 layer_factory.hpp:77] Creating layer scale5a_branch2a
I0706 14:05:43.613701 27831 net.cpp:91] Creating Layer scale5a_branch2a
I0706 14:05:43.613706 27831 net.cpp:425] scale5a_branch2a <- res5a_branch2a
I0706 14:05:43.613713 27831 net.cpp:386] scale5a_branch2a -> res5a_branch2a (in-place)
I0706 14:05:43.613759 27831 layer_factory.hpp:77] Creating layer scale5a_branch2a
I0706 14:05:43.613896 27831 net.cpp:141] Setting up scale5a_branch2a
I0706 14:05:43.613906 27831 net.cpp:148] Top shape: 1 512 60 60 (1843200)
I0706 14:05:43.613910 27831 net.cpp:156] Memory required for data: 4010803200
I0706 14:05:43.613919 27831 layer_factory.hpp:77] Creating layer res5a_branch2a_relu
I0706 14:05:43.613924 27831 net.cpp:91] Creating Layer res5a_branch2a_relu
I0706 14:05:43.613929 27831 net.cpp:425] res5a_branch2a_relu <- res5a_branch2a
I0706 14:05:43.613934 27831 net.cpp:386] res5a_branch2a_relu -> res5a_branch2a (in-place)
I0706 14:05:43.613941 27831 net.cpp:141] Setting up res5a_branch2a_relu
I0706 14:05:43.613946 27831 net.cpp:148] Top shape: 1 512 60 60 (1843200)
I0706 14:05:43.613950 27831 net.cpp:156] Memory required for data: 4018176000
I0706 14:05:43.613953 27831 layer_factory.hpp:77] Creating layer res5a_branch2b
I0706 14:05:43.613965 27831 net.cpp:91] Creating Layer res5a_branch2b
I0706 14:05:43.613968 27831 net.cpp:425] res5a_branch2b <- res5a_branch2a
I0706 14:05:43.613975 27831 net.cpp:399] res5a_branch2b -> res5a_branch2b
I0706 14:05:43.619457 27831 net.cpp:141] Setting up res5a_branch2b
I0706 14:05:43.619475 27831 net.cpp:148] Top shape: 1 512 60 60 (1843200)
I0706 14:05:43.619480 27831 net.cpp:156] Memory required for data: 4025548800
I0706 14:05:43.619493 27831 layer_factory.hpp:77] Creating layer bn5a_branch2b
I0706 14:05:43.619503 27831 net.cpp:91] Creating Layer bn5a_branch2b
I0706 14:05:43.619508 27831 net.cpp:425] bn5a_branch2b <- res5a_branch2b
I0706 14:05:43.619516 27831 net.cpp:386] bn5a_branch2b -> res5a_branch2b (in-place)
I0706 14:05:43.619742 27831 net.cpp:141] Setting up bn5a_branch2b
I0706 14:05:43.619752 27831 net.cpp:148] Top shape: 1 512 60 60 (1843200)
I0706 14:05:43.619756 27831 net.cpp:156] Memory required for data: 4032921600
I0706 14:05:43.619766 27831 layer_factory.hpp:77] Creating layer scale5a_branch2b
I0706 14:05:43.619776 27831 net.cpp:91] Creating Layer scale5a_branch2b
I0706 14:05:43.619781 27831 net.cpp:425] scale5a_branch2b <- res5a_branch2b
I0706 14:05:43.619786 27831 net.cpp:386] scale5a_branch2b -> res5a_branch2b (in-place)
I0706 14:05:43.619832 27831 layer_factory.hpp:77] Creating layer scale5a_branch2b
I0706 14:05:43.619974 27831 net.cpp:141] Setting up scale5a_branch2b
I0706 14:05:43.619983 27831 net.cpp:148] Top shape: 1 512 60 60 (1843200)
I0706 14:05:43.619987 27831 net.cpp:156] Memory required for data: 4040294400
I0706 14:05:43.619995 27831 layer_factory.hpp:77] Creating layer res5a_branch2b_relu
I0706 14:05:43.620002 27831 net.cpp:91] Creating Layer res5a_branch2b_relu
I0706 14:05:43.620007 27831 net.cpp:425] res5a_branch2b_relu <- res5a_branch2b
I0706 14:05:43.620012 27831 net.cpp:386] res5a_branch2b_relu -> res5a_branch2b (in-place)
I0706 14:05:43.620018 27831 net.cpp:141] Setting up res5a_branch2b_relu
I0706 14:05:43.620023 27831 net.cpp:148] Top shape: 1 512 60 60 (1843200)
I0706 14:05:43.620026 27831 net.cpp:156] Memory required for data: 4047667200
I0706 14:05:43.620029 27831 layer_factory.hpp:77] Creating layer res5a_branch2c
I0706 14:05:43.620040 27831 net.cpp:91] Creating Layer res5a_branch2c
I0706 14:05:43.620044 27831 net.cpp:425] res5a_branch2c <- res5a_branch2b
I0706 14:05:43.620050 27831 net.cpp:399] res5a_branch2c -> res5a_branch2c
I0706 14:05:43.622705 27831 net.cpp:141] Setting up res5a_branch2c
I0706 14:05:43.622722 27831 net.cpp:148] Top shape: 1 2048 60 60 (7372800)
I0706 14:05:43.622726 27831 net.cpp:156] Memory required for data: 4077158400
I0706 14:05:43.622737 27831 layer_factory.hpp:77] Creating layer bn5a_branch2c
I0706 14:05:43.622746 27831 net.cpp:91] Creating Layer bn5a_branch2c
I0706 14:05:43.622750 27831 net.cpp:425] bn5a_branch2c <- res5a_branch2c
I0706 14:05:43.622759 27831 net.cpp:386] bn5a_branch2c -> res5a_branch2c (in-place)
I0706 14:05:43.622990 27831 net.cpp:141] Setting up bn5a_branch2c
I0706 14:05:43.623000 27831 net.cpp:148] Top shape: 1 2048 60 60 (7372800)
I0706 14:05:43.623004 27831 net.cpp:156] Memory required for data: 4106649600
I0706 14:05:43.623014 27831 layer_factory.hpp:77] Creating layer scale5a_branch2c
I0706 14:05:43.623026 27831 net.cpp:91] Creating Layer scale5a_branch2c
I0706 14:05:43.623033 27831 net.cpp:425] scale5a_branch2c <- res5a_branch2c
I0706 14:05:43.623039 27831 net.cpp:386] scale5a_branch2c -> res5a_branch2c (in-place)
I0706 14:05:43.623087 27831 layer_factory.hpp:77] Creating layer scale5a_branch2c
I0706 14:05:43.623226 27831 net.cpp:141] Setting up scale5a_branch2c
I0706 14:05:43.623235 27831 net.cpp:148] Top shape: 1 2048 60 60 (7372800)
I0706 14:05:43.623239 27831 net.cpp:156] Memory required for data: 4136140800
I0706 14:05:43.623247 27831 layer_factory.hpp:77] Creating layer res5a
I0706 14:05:43.623255 27831 net.cpp:91] Creating Layer res5a
I0706 14:05:43.623260 27831 net.cpp:425] res5a <- res5a_branch1
I0706 14:05:43.623265 27831 net.cpp:425] res5a <- res5a_branch2c
I0706 14:05:43.623270 27831 net.cpp:399] res5a -> res5a
I0706 14:05:43.623299 27831 net.cpp:141] Setting up res5a
I0706 14:05:43.623307 27831 net.cpp:148] Top shape: 1 2048 60 60 (7372800)
I0706 14:05:43.623311 27831 net.cpp:156] Memory required for data: 4165632000
I0706 14:05:43.623316 27831 layer_factory.hpp:77] Creating layer res5a_relu
I0706 14:05:43.623322 27831 net.cpp:91] Creating Layer res5a_relu
I0706 14:05:43.623325 27831 net.cpp:425] res5a_relu <- res5a
I0706 14:05:43.623332 27831 net.cpp:386] res5a_relu -> res5a (in-place)
I0706 14:05:43.623339 27831 net.cpp:141] Setting up res5a_relu
I0706 14:05:43.623344 27831 net.cpp:148] Top shape: 1 2048 60 60 (7372800)
I0706 14:05:43.623347 27831 net.cpp:156] Memory required for data: 4195123200
I0706 14:05:43.623352 27831 layer_factory.hpp:77] Creating layer res5a_res5a_relu_0_split
I0706 14:05:43.623358 27831 net.cpp:91] Creating Layer res5a_res5a_relu_0_split
I0706 14:05:43.623361 27831 net.cpp:425] res5a_res5a_relu_0_split <- res5a
I0706 14:05:43.623368 27831 net.cpp:399] res5a_res5a_relu_0_split -> res5a_res5a_relu_0_split_0
I0706 14:05:43.623373 27831 net.cpp:399] res5a_res5a_relu_0_split -> res5a_res5a_relu_0_split_1
I0706 14:05:43.623411 27831 net.cpp:141] Setting up res5a_res5a_relu_0_split
I0706 14:05:43.623420 27831 net.cpp:148] Top shape: 1 2048 60 60 (7372800)
I0706 14:05:43.623425 27831 net.cpp:148] Top shape: 1 2048 60 60 (7372800)
I0706 14:05:43.623427 27831 net.cpp:156] Memory required for data: 4254105600
I0706 14:05:43.623431 27831 layer_factory.hpp:77] Creating layer res5b_branch2a
I0706 14:05:43.623440 27831 net.cpp:91] Creating Layer res5b_branch2a
I0706 14:05:43.623445 27831 net.cpp:425] res5b_branch2a <- res5a_res5a_relu_0_split_0
I0706 14:05:43.623452 27831 net.cpp:399] res5b_branch2a -> res5b_branch2a
I0706 14:05:43.629065 27831 net.cpp:141] Setting up res5b_branch2a
I0706 14:05:43.629108 27831 net.cpp:148] Top shape: 1 512 60 60 (1843200)
I0706 14:05:43.629117 27831 net.cpp:156] Memory required for data: 4261478400
I0706 14:05:43.629155 27831 layer_factory.hpp:77] Creating layer bn5b_branch2a
I0706 14:05:43.629184 27831 net.cpp:91] Creating Layer bn5b_branch2a
I0706 14:05:43.629196 27831 net.cpp:425] bn5b_branch2a <- res5b_branch2a
I0706 14:05:43.629207 27831 net.cpp:386] bn5b_branch2a -> res5b_branch2a (in-place)
I0706 14:05:43.629557 27831 net.cpp:141] Setting up bn5b_branch2a
I0706 14:05:43.629567 27831 net.cpp:148] Top shape: 1 512 60 60 (1843200)
I0706 14:05:43.629570 27831 net.cpp:156] Memory required for data: 4268851200
I0706 14:05:43.629601 27831 layer_factory.hpp:77] Creating layer scale5b_branch2a
I0706 14:05:43.629611 27831 net.cpp:91] Creating Layer scale5b_branch2a
I0706 14:05:43.629616 27831 net.cpp:425] scale5b_branch2a <- res5b_branch2a
I0706 14:05:43.629623 27831 net.cpp:386] scale5b_branch2a -> res5b_branch2a (in-place)
I0706 14:05:43.629667 27831 layer_factory.hpp:77] Creating layer scale5b_branch2a
I0706 14:05:43.629812 27831 net.cpp:141] Setting up scale5b_branch2a
I0706 14:05:43.629835 27831 net.cpp:148] Top shape: 1 512 60 60 (1843200)
I0706 14:05:43.629839 27831 net.cpp:156] Memory required for data: 4276224000
I0706 14:05:43.629855 27831 layer_factory.hpp:77] Creating layer res5b_branch2a_relu
I0706 14:05:43.629870 27831 net.cpp:91] Creating Layer res5b_branch2a_relu
I0706 14:05:43.629876 27831 net.cpp:425] res5b_branch2a_relu <- res5b_branch2a
I0706 14:05:43.629884 27831 net.cpp:386] res5b_branch2a_relu -> res5b_branch2a (in-place)
I0706 14:05:43.629890 27831 net.cpp:141] Setting up res5b_branch2a_relu
I0706 14:05:43.629895 27831 net.cpp:148] Top shape: 1 512 60 60 (1843200)
I0706 14:05:43.629899 27831 net.cpp:156] Memory required for data: 4283596800
I0706 14:05:43.629902 27831 layer_factory.hpp:77] Creating layer res5b_branch2b
I0706 14:05:43.629914 27831 net.cpp:91] Creating Layer res5b_branch2b
I0706 14:05:43.629917 27831 net.cpp:425] res5b_branch2b <- res5b_branch2a
I0706 14:05:43.629926 27831 net.cpp:399] res5b_branch2b -> res5b_branch2b
I0706 14:05:43.635490 27831 net.cpp:141] Setting up res5b_branch2b
I0706 14:05:43.635512 27831 net.cpp:148] Top shape: 1 512 60 60 (1843200)
I0706 14:05:43.635517 27831 net.cpp:156] Memory required for data: 4290969600
I0706 14:05:43.635531 27831 layer_factory.hpp:77] Creating layer bn5b_branch2b
I0706 14:05:43.635540 27831 net.cpp:91] Creating Layer bn5b_branch2b
I0706 14:05:43.635545 27831 net.cpp:425] bn5b_branch2b <- res5b_branch2b
I0706 14:05:43.635553 27831 net.cpp:386] bn5b_branch2b -> res5b_branch2b (in-place)
I0706 14:05:43.635782 27831 net.cpp:141] Setting up bn5b_branch2b
I0706 14:05:43.635792 27831 net.cpp:148] Top shape: 1 512 60 60 (1843200)
I0706 14:05:43.635795 27831 net.cpp:156] Memory required for data: 4298342400
I0706 14:05:43.635805 27831 layer_factory.hpp:77] Creating layer scale5b_branch2b
I0706 14:05:43.635817 27831 net.cpp:91] Creating Layer scale5b_branch2b
I0706 14:05:43.635821 27831 net.cpp:425] scale5b_branch2b <- res5b_branch2b
I0706 14:05:43.635828 27831 net.cpp:386] scale5b_branch2b -> res5b_branch2b (in-place)
I0706 14:05:43.635872 27831 layer_factory.hpp:77] Creating layer scale5b_branch2b
I0706 14:05:43.636013 27831 net.cpp:141] Setting up scale5b_branch2b
I0706 14:05:43.636024 27831 net.cpp:148] Top shape: 1 512 60 60 (1843200)
I0706 14:05:43.636029 27831 net.cpp:156] Memory required for data: 4305715200
I0706 14:05:43.636039 27831 layer_factory.hpp:77] Creating layer res5b_branch2b_relu
I0706 14:05:43.636045 27831 net.cpp:91] Creating Layer res5b_branch2b_relu
I0706 14:05:43.636049 27831 net.cpp:425] res5b_branch2b_relu <- res5b_branch2b
I0706 14:05:43.636055 27831 net.cpp:386] res5b_branch2b_relu -> res5b_branch2b (in-place)
I0706 14:05:43.636061 27831 net.cpp:141] Setting up res5b_branch2b_relu
I0706 14:05:43.636066 27831 net.cpp:148] Top shape: 1 512 60 60 (1843200)
I0706 14:05:43.636070 27831 net.cpp:156] Memory required for data: 4313088000
I0706 14:05:43.636073 27831 layer_factory.hpp:77] Creating layer res5b_branch2c
I0706 14:05:43.636082 27831 net.cpp:91] Creating Layer res5b_branch2c
I0706 14:05:43.636087 27831 net.cpp:425] res5b_branch2c <- res5b_branch2b
I0706 14:05:43.636097 27831 net.cpp:399] res5b_branch2c -> res5b_branch2c
I0706 14:05:43.638757 27831 net.cpp:141] Setting up res5b_branch2c
I0706 14:05:43.638775 27831 net.cpp:148] Top shape: 1 2048 60 60 (7372800)
I0706 14:05:43.638780 27831 net.cpp:156] Memory required for data: 4342579200
I0706 14:05:43.638792 27831 layer_factory.hpp:77] Creating layer bn5b_branch2c
I0706 14:05:43.638803 27831 net.cpp:91] Creating Layer bn5b_branch2c
I0706 14:05:43.638808 27831 net.cpp:425] bn5b_branch2c <- res5b_branch2c
I0706 14:05:43.638815 27831 net.cpp:386] bn5b_branch2c -> res5b_branch2c (in-place)
I0706 14:05:43.639040 27831 net.cpp:141] Setting up bn5b_branch2c
I0706 14:05:43.639050 27831 net.cpp:148] Top shape: 1 2048 60 60 (7372800)
I0706 14:05:43.639055 27831 net.cpp:156] Memory required for data: 4372070400
I0706 14:05:43.639065 27831 layer_factory.hpp:77] Creating layer scale5b_branch2c
I0706 14:05:43.639092 27831 net.cpp:91] Creating Layer scale5b_branch2c
I0706 14:05:43.639098 27831 net.cpp:425] scale5b_branch2c <- res5b_branch2c
I0706 14:05:43.639104 27831 net.cpp:386] scale5b_branch2c -> res5b_branch2c (in-place)
I0706 14:05:43.639155 27831 layer_factory.hpp:77] Creating layer scale5b_branch2c
I0706 14:05:43.639286 27831 net.cpp:141] Setting up scale5b_branch2c
I0706 14:05:43.639297 27831 net.cpp:148] Top shape: 1 2048 60 60 (7372800)
I0706 14:05:43.639300 27831 net.cpp:156] Memory required for data: 4401561600
I0706 14:05:43.639309 27831 layer_factory.hpp:77] Creating layer res5b
I0706 14:05:43.639317 27831 net.cpp:91] Creating Layer res5b
I0706 14:05:43.639328 27831 net.cpp:425] res5b <- res5a_res5a_relu_0_split_1
I0706 14:05:43.639334 27831 net.cpp:425] res5b <- res5b_branch2c
I0706 14:05:43.639340 27831 net.cpp:399] res5b -> res5b
I0706 14:05:43.639369 27831 net.cpp:141] Setting up res5b
I0706 14:05:43.639379 27831 net.cpp:148] Top shape: 1 2048 60 60 (7372800)
I0706 14:05:43.639382 27831 net.cpp:156] Memory required for data: 4431052800
I0706 14:05:43.639386 27831 layer_factory.hpp:77] Creating layer res5b_relu
I0706 14:05:43.639392 27831 net.cpp:91] Creating Layer res5b_relu
I0706 14:05:43.639396 27831 net.cpp:425] res5b_relu <- res5b
I0706 14:05:43.639402 27831 net.cpp:386] res5b_relu -> res5b (in-place)
I0706 14:05:43.639408 27831 net.cpp:141] Setting up res5b_relu
I0706 14:05:43.639413 27831 net.cpp:148] Top shape: 1 2048 60 60 (7372800)
I0706 14:05:43.639417 27831 net.cpp:156] Memory required for data: 4460544000
I0706 14:05:43.639422 27831 layer_factory.hpp:77] Creating layer res5b_res5b_relu_0_split
I0706 14:05:43.639434 27831 net.cpp:91] Creating Layer res5b_res5b_relu_0_split
I0706 14:05:43.639438 27831 net.cpp:425] res5b_res5b_relu_0_split <- res5b
I0706 14:05:43.639446 27831 net.cpp:399] res5b_res5b_relu_0_split -> res5b_res5b_relu_0_split_0
I0706 14:05:43.639451 27831 net.cpp:399] res5b_res5b_relu_0_split -> res5b_res5b_relu_0_split_1
I0706 14:05:43.639492 27831 net.cpp:141] Setting up res5b_res5b_relu_0_split
I0706 14:05:43.639499 27831 net.cpp:148] Top shape: 1 2048 60 60 (7372800)
I0706 14:05:43.639504 27831 net.cpp:148] Top shape: 1 2048 60 60 (7372800)
I0706 14:05:43.639508 27831 net.cpp:156] Memory required for data: 4519526400
I0706 14:05:43.639511 27831 layer_factory.hpp:77] Creating layer res5c_branch2a
I0706 14:05:43.639521 27831 net.cpp:91] Creating Layer res5c_branch2a
I0706 14:05:43.639525 27831 net.cpp:425] res5c_branch2a <- res5b_res5b_relu_0_split_0
I0706 14:05:43.639533 27831 net.cpp:399] res5c_branch2a -> res5c_branch2a
I0706 14:05:43.642184 27831 net.cpp:141] Setting up res5c_branch2a
I0706 14:05:43.642200 27831 net.cpp:148] Top shape: 1 512 60 60 (1843200)
I0706 14:05:43.642204 27831 net.cpp:156] Memory required for data: 4526899200
I0706 14:05:43.642216 27831 layer_factory.hpp:77] Creating layer bn5c_branch2a
I0706 14:05:43.642225 27831 net.cpp:91] Creating Layer bn5c_branch2a
I0706 14:05:43.642230 27831 net.cpp:425] bn5c_branch2a <- res5c_branch2a
I0706 14:05:43.642236 27831 net.cpp:386] bn5c_branch2a -> res5c_branch2a (in-place)
I0706 14:05:43.642475 27831 net.cpp:141] Setting up bn5c_branch2a
I0706 14:05:43.642487 27831 net.cpp:148] Top shape: 1 512 60 60 (1843200)
I0706 14:05:43.642490 27831 net.cpp:156] Memory required for data: 4534272000
I0706 14:05:43.642500 27831 layer_factory.hpp:77] Creating layer scale5c_branch2a
I0706 14:05:43.642510 27831 net.cpp:91] Creating Layer scale5c_branch2a
I0706 14:05:43.642516 27831 net.cpp:425] scale5c_branch2a <- res5c_branch2a
I0706 14:05:43.642525 27831 net.cpp:386] scale5c_branch2a -> res5c_branch2a (in-place)
I0706 14:05:43.642571 27831 layer_factory.hpp:77] Creating layer scale5c_branch2a
I0706 14:05:43.642714 27831 net.cpp:141] Setting up scale5c_branch2a
I0706 14:05:43.642724 27831 net.cpp:148] Top shape: 1 512 60 60 (1843200)
I0706 14:05:43.642727 27831 net.cpp:156] Memory required for data: 4541644800
I0706 14:05:43.642735 27831 layer_factory.hpp:77] Creating layer res5c_branch2a_relu
I0706 14:05:43.642742 27831 net.cpp:91] Creating Layer res5c_branch2a_relu
I0706 14:05:43.642757 27831 net.cpp:425] res5c_branch2a_relu <- res5c_branch2a
I0706 14:05:43.642765 27831 net.cpp:386] res5c_branch2a_relu -> res5c_branch2a (in-place)
I0706 14:05:43.642773 27831 net.cpp:141] Setting up res5c_branch2a_relu
I0706 14:05:43.642778 27831 net.cpp:148] Top shape: 1 512 60 60 (1843200)
I0706 14:05:43.642782 27831 net.cpp:156] Memory required for data: 4549017600
I0706 14:05:43.642786 27831 layer_factory.hpp:77] Creating layer res5c_branch2b
I0706 14:05:43.642796 27831 net.cpp:91] Creating Layer res5c_branch2b
I0706 14:05:43.642799 27831 net.cpp:425] res5c_branch2b <- res5c_branch2a
I0706 14:05:43.642807 27831 net.cpp:399] res5c_branch2b -> res5c_branch2b
I0706 14:05:43.648238 27831 net.cpp:141] Setting up res5c_branch2b
I0706 14:05:43.648257 27831 net.cpp:148] Top shape: 1 512 60 60 (1843200)
I0706 14:05:43.648267 27831 net.cpp:156] Memory required for data: 4556390400
I0706 14:05:43.648274 27831 layer_factory.hpp:77] Creating layer bn5c_branch2b
I0706 14:05:43.648286 27831 net.cpp:91] Creating Layer bn5c_branch2b
I0706 14:05:43.648291 27831 net.cpp:425] bn5c_branch2b <- res5c_branch2b
I0706 14:05:43.648298 27831 net.cpp:386] bn5c_branch2b -> res5c_branch2b (in-place)
I0706 14:05:43.649137 27831 net.cpp:141] Setting up bn5c_branch2b
I0706 14:05:43.649152 27831 net.cpp:148] Top shape: 1 512 60 60 (1843200)
I0706 14:05:43.649157 27831 net.cpp:156] Memory required for data: 4563763200
I0706 14:05:43.649171 27831 layer_factory.hpp:77] Creating layer scale5c_branch2b
I0706 14:05:43.649183 27831 net.cpp:91] Creating Layer scale5c_branch2b
I0706 14:05:43.649188 27831 net.cpp:425] scale5c_branch2b <- res5c_branch2b
I0706 14:05:43.649194 27831 net.cpp:386] scale5c_branch2b -> res5c_branch2b (in-place)
I0706 14:05:43.649250 27831 layer_factory.hpp:77] Creating layer scale5c_branch2b
I0706 14:05:43.649391 27831 net.cpp:141] Setting up scale5c_branch2b
I0706 14:05:43.649401 27831 net.cpp:148] Top shape: 1 512 60 60 (1843200)
I0706 14:05:43.649405 27831 net.cpp:156] Memory required for data: 4571136000
I0706 14:05:43.649415 27831 layer_factory.hpp:77] Creating layer res5c_branch2b_relu
I0706 14:05:43.649422 27831 net.cpp:91] Creating Layer res5c_branch2b_relu
I0706 14:05:43.649426 27831 net.cpp:425] res5c_branch2b_relu <- res5c_branch2b
I0706 14:05:43.649432 27831 net.cpp:386] res5c_branch2b_relu -> res5c_branch2b (in-place)
I0706 14:05:43.649440 27831 net.cpp:141] Setting up res5c_branch2b_relu
I0706 14:05:43.649444 27831 net.cpp:148] Top shape: 1 512 60 60 (1843200)
I0706 14:05:43.649448 27831 net.cpp:156] Memory required for data: 4578508800
I0706 14:05:43.649452 27831 layer_factory.hpp:77] Creating layer res5c_branch2c
I0706 14:05:43.649461 27831 net.cpp:91] Creating Layer res5c_branch2c
I0706 14:05:43.649466 27831 net.cpp:425] res5c_branch2c <- res5c_branch2b
I0706 14:05:43.649473 27831 net.cpp:399] res5c_branch2c -> res5c_branch2c
I0706 14:05:43.652138 27831 net.cpp:141] Setting up res5c_branch2c
I0706 14:05:43.652155 27831 net.cpp:148] Top shape: 1 2048 60 60 (7372800)
I0706 14:05:43.652159 27831 net.cpp:156] Memory required for data: 4608000000
I0706 14:05:43.652173 27831 layer_factory.hpp:77] Creating layer bn5c_branch2c
I0706 14:05:43.652184 27831 net.cpp:91] Creating Layer bn5c_branch2c
I0706 14:05:43.652189 27831 net.cpp:425] bn5c_branch2c <- res5c_branch2c
I0706 14:05:43.652196 27831 net.cpp:386] bn5c_branch2c -> res5c_branch2c (in-place)
I0706 14:05:43.652410 27831 net.cpp:141] Setting up bn5c_branch2c
I0706 14:05:43.652420 27831 net.cpp:148] Top shape: 1 2048 60 60 (7372800)
I0706 14:05:43.652423 27831 net.cpp:156] Memory required for data: 4637491200
I0706 14:05:43.652434 27831 layer_factory.hpp:77] Creating layer scale5c_branch2c
I0706 14:05:43.652446 27831 net.cpp:91] Creating Layer scale5c_branch2c
I0706 14:05:43.652452 27831 net.cpp:425] scale5c_branch2c <- res5c_branch2c
I0706 14:05:43.652463 27831 net.cpp:386] scale5c_branch2c -> res5c_branch2c (in-place)
I0706 14:05:43.652523 27831 layer_factory.hpp:77] Creating layer scale5c_branch2c
I0706 14:05:43.652673 27831 net.cpp:141] Setting up scale5c_branch2c
I0706 14:05:43.652683 27831 net.cpp:148] Top shape: 1 2048 60 60 (7372800)
I0706 14:05:43.652686 27831 net.cpp:156] Memory required for data: 4666982400
I0706 14:05:43.652694 27831 layer_factory.hpp:77] Creating layer res5c
I0706 14:05:43.652704 27831 net.cpp:91] Creating Layer res5c
I0706 14:05:43.652707 27831 net.cpp:425] res5c <- res5b_res5b_relu_0_split_1
I0706 14:05:43.652714 27831 net.cpp:425] res5c <- res5c_branch2c
I0706 14:05:43.652719 27831 net.cpp:399] res5c -> res5c
I0706 14:05:43.652748 27831 net.cpp:141] Setting up res5c
I0706 14:05:43.652756 27831 net.cpp:148] Top shape: 1 2048 60 60 (7372800)
I0706 14:05:43.652760 27831 net.cpp:156] Memory required for data: 4696473600
I0706 14:05:43.652763 27831 layer_factory.hpp:77] Creating layer res5c_relu
I0706 14:05:43.652770 27831 net.cpp:91] Creating Layer res5c_relu
I0706 14:05:43.652775 27831 net.cpp:425] res5c_relu <- res5c
I0706 14:05:43.652781 27831 net.cpp:386] res5c_relu -> res5c (in-place)
I0706 14:05:43.652788 27831 net.cpp:141] Setting up res5c_relu
I0706 14:05:43.652793 27831 net.cpp:148] Top shape: 1 2048 60 60 (7372800)
I0706 14:05:43.652797 27831 net.cpp:156] Memory required for data: 4725964800
I0706 14:05:43.652801 27831 layer_factory.hpp:77] Creating layer res5c_res5c_relu_0_split
I0706 14:05:43.652808 27831 net.cpp:91] Creating Layer res5c_res5c_relu_0_split
I0706 14:05:43.652812 27831 net.cpp:425] res5c_res5c_relu_0_split <- res5c
I0706 14:05:43.652818 27831 net.cpp:399] res5c_res5c_relu_0_split -> res5c_res5c_relu_0_split_0
I0706 14:05:43.652825 27831 net.cpp:399] res5c_res5c_relu_0_split -> res5c_res5c_relu_0_split_1
I0706 14:05:43.652835 27831 net.cpp:399] res5c_res5c_relu_0_split -> res5c_res5c_relu_0_split_2
I0706 14:05:43.652842 27831 net.cpp:399] res5c_res5c_relu_0_split -> res5c_res5c_relu_0_split_3
I0706 14:05:43.652848 27831 net.cpp:399] res5c_res5c_relu_0_split -> res5c_res5c_relu_0_split_4
I0706 14:05:43.652925 27831 net.cpp:141] Setting up res5c_res5c_relu_0_split
I0706 14:05:43.652933 27831 net.cpp:148] Top shape: 1 2048 60 60 (7372800)
I0706 14:05:43.652938 27831 net.cpp:148] Top shape: 1 2048 60 60 (7372800)
I0706 14:05:43.652942 27831 net.cpp:148] Top shape: 1 2048 60 60 (7372800)
I0706 14:05:43.652947 27831 net.cpp:148] Top shape: 1 2048 60 60 (7372800)
I0706 14:05:43.652951 27831 net.cpp:148] Top shape: 1 2048 60 60 (7372800)
I0706 14:05:43.652954 27831 net.cpp:156] Memory required for data: 4873420800
I0706 14:05:43.652958 27831 layer_factory.hpp:77] Creating layer fc1_VOC_c0
I0706 14:05:43.652972 27831 net.cpp:91] Creating Layer fc1_VOC_c0
I0706 14:05:43.652976 27831 net.cpp:425] fc1_VOC_c0 <- res5c_res5c_relu_0_split_0
I0706 14:05:43.652987 27831 net.cpp:399] fc1_VOC_c0 -> fc1_VOC_c0
I0706 14:05:43.667120 27831 net.cpp:141] Setting up fc1_VOC_c0
I0706 14:05:43.667138 27831 net.cpp:148] Top shape: 1 21 60 60 (75600)
I0706 14:05:43.667142 27831 net.cpp:156] Memory required for data: 4873723200
I0706 14:05:43.667162 27831 layer_factory.hpp:77] Creating layer fc1_VOC_c1
I0706 14:05:43.667177 27831 net.cpp:91] Creating Layer fc1_VOC_c1
I0706 14:05:43.667182 27831 net.cpp:425] fc1_VOC_c1 <- res5c_res5c_relu_0_split_1
I0706 14:05:43.667192 27831 net.cpp:399] fc1_VOC_c1 -> fc1_VOC_c1
I0706 14:05:43.681074 27831 net.cpp:141] Setting up fc1_VOC_c1
I0706 14:05:43.681092 27831 net.cpp:148] Top shape: 1 21 60 60 (75600)
I0706 14:05:43.681095 27831 net.cpp:156] Memory required for data: 4874025600
I0706 14:05:43.681104 27831 layer_factory.hpp:77] Creating layer fc1_VOC_c2
I0706 14:05:43.681118 27831 net.cpp:91] Creating Layer fc1_VOC_c2
I0706 14:05:43.681123 27831 net.cpp:425] fc1_VOC_c2 <- res5c_res5c_relu_0_split_2
I0706 14:05:43.681130 27831 net.cpp:399] fc1_VOC_c2 -> fc1_VOC_c2
I0706 14:05:43.694993 27831 net.cpp:141] Setting up fc1_VOC_c2
I0706 14:05:43.695009 27831 net.cpp:148] Top shape: 1 21 60 60 (75600)
I0706 14:05:43.695013 27831 net.cpp:156] Memory required for data: 4874328000
I0706 14:05:43.695021 27831 layer_factory.hpp:77] Creating layer fc1_VOC_c3
I0706 14:05:43.695050 27831 net.cpp:91] Creating Layer fc1_VOC_c3
I0706 14:05:43.695056 27831 net.cpp:425] fc1_VOC_c3 <- res5c_res5c_relu_0_split_3
I0706 14:05:43.695065 27831 net.cpp:399] fc1_VOC_c3 -> fc1_VOC_c3
I0706 14:05:43.708925 27831 net.cpp:141] Setting up fc1_VOC_c3
I0706 14:05:43.708941 27831 net.cpp:148] Top shape: 1 21 60 60 (75600)
I0706 14:05:43.708945 27831 net.cpp:156] Memory required for data: 4874630400
I0706 14:05:43.708953 27831 layer_factory.hpp:77] Creating layer fc1_VOC_c4
I0706 14:05:43.708968 27831 net.cpp:91] Creating Layer fc1_VOC_c4
I0706 14:05:43.708973 27831 net.cpp:425] fc1_VOC_c4 <- res5c_res5c_relu_0_split_4
I0706 14:05:43.708982 27831 net.cpp:399] fc1_VOC_c4 -> fc1_VOC_c4
I0706 14:05:43.722831 27831 net.cpp:141] Setting up fc1_VOC_c4
I0706 14:05:43.722846 27831 net.cpp:148] Top shape: 1 21 60 60 (75600)
I0706 14:05:43.722851 27831 net.cpp:156] Memory required for data: 4874932800
I0706 14:05:43.722859 27831 layer_factory.hpp:77] Creating layer fc1_VOC
I0706 14:05:43.722869 27831 net.cpp:91] Creating Layer fc1_VOC
I0706 14:05:43.722874 27831 net.cpp:425] fc1_VOC <- fc1_VOC_c0
I0706 14:05:43.722880 27831 net.cpp:425] fc1_VOC <- fc1_VOC_c1
I0706 14:05:43.722885 27831 net.cpp:425] fc1_VOC <- fc1_VOC_c2
I0706 14:05:43.722889 27831 net.cpp:425] fc1_VOC <- fc1_VOC_c3
I0706 14:05:43.722893 27831 net.cpp:425] fc1_VOC <- fc1_VOC_c4
I0706 14:05:43.722899 27831 net.cpp:399] fc1_VOC -> fc1_VOC
I0706 14:05:43.722944 27831 net.cpp:141] Setting up fc1_VOC
I0706 14:05:43.722951 27831 net.cpp:148] Top shape: 1 21 60 60 (75600)
I0706 14:05:43.722955 27831 net.cpp:156] Memory required for data: 4875235200
I0706 14:05:43.722959 27831 layer_factory.hpp:77] Creating layer upscore
I0706 14:05:43.722978 27831 net.cpp:91] Creating Layer upscore
I0706 14:05:43.722983 27831 net.cpp:425] upscore <- fc1_VOC
I0706 14:05:43.722990 27831 net.cpp:399] upscore -> upscore
I0706 14:05:43.723476 27831 net.cpp:141] Setting up upscore
I0706 14:05:43.723485 27831 net.cpp:148] Top shape: 1 21 480 480 (4838400)
I0706 14:05:43.723489 27831 net.cpp:156] Memory required for data: 4894588800
I0706 14:05:43.723501 27831 layer_factory.hpp:77] Creating layer loss
I0706 14:05:43.723511 27831 net.cpp:91] Creating Layer loss
I0706 14:05:43.723515 27831 net.cpp:425] loss <- upscore
I0706 14:05:43.723522 27831 net.cpp:425] loss <- label
I0706 14:05:43.723529 27831 net.cpp:399] loss -> loss
I0706 14:05:43.723542 27831 layer_factory.hpp:77] Creating layer loss
…
