…
I0714 23:55:47.677081 19500 solver.cpp:91] Creating training net from train_net file: examples/DPN_VOC/DPN_VOC2.prototxt
I0714 23:55:47.678875 19500 net.cpp:58] Initializing net from parameters: 
name: "DPN"
state {
  phase: TRAIN
  level: 0
  stage: ""
}
layer {
  name: "data"
  type: "ImageSegData"
  top: "data"
  top: "label"
  include {
    phase: TRAIN
  }
  transform_param {
    mirror: true
    crop_size: 256
    mean_value: 104.00699
    mean_value: 116.66877
    mean_value: 122.67892
  }
  image_data_param {
    source: "data/carotidmri/train1"
    batch_size: 1
    root_folder: "data/carotidmri/"
    label_type: PIXEL
  }
}
layer {
  name: "conv1_1"
  type: "Convolution"
  bottom: "data"
  top: "conv1_1"
  param {
    lr_mult: 1
    decay_mult: 1
  }
  param {
    lr_mult: 2
    decay_mult: 0
  }
  convolution_param {
    num_output: 64
    pad: 1
    kernel_size: 3
  }
}
layer {
  name: "relu1_1"
  type: "ReLU"
  bottom: "conv1_1"
  top: "conv1_1"
}
layer {
  name: "conv1_2"
  type: "Convolution"
  bottom: "conv1_1"
  top: "conv1_2"
  param {
    lr_mult: 1
    decay_mult: 1
  }
  param {
    lr_mult: 2
    decay_mult: 0
  }
  convolution_param {
    num_output: 64
    pad: 1
    kernel_size: 3
  }
}
layer {
  name: "relu1_2"
  type: "ReLU"
  bottom: "conv1_2"
  top: "conv1_2"
}
layer {
  name: "pool1"
  type: "Pooling"
  bottom: "conv1_2"
  top: "pool1"
  pooling_param {
    pool: MAX
    kernel_size: 2
    stride: 2
  }
}
layer {
  name: "conv2_1"
  type: "Convolution"
  bottom: "pool1"
  top: "conv2_1"
  param {
    lr_mult: 1
    decay_mult: 1
  }
  param {
    lr_mult: 2
    decay_mult: 0
  }
  convolution_param {
    num_output: 128
    pad: 1
    kernel_size: 3
  }
}
layer {
  name: "relu2_1"
  type: "ReLU"
  bottom: "conv2_1"
  top: "conv2_1"
}
layer {
  name: "conv2_2"
  type: "Convolution"
  bottom: "conv2_1"
  top: "conv2_2"
  param {
    lr_mult: 1
    decay_mult: 1
  }
  param {
    lr_mult: 2
    decay_mult: 0
  }
  convolution_param {
    num_output: 128
    pad: 1
    kernel_size: 3
  }
}
layer {
  name: "relu2_2"
  type: "ReLU"
  bottom: "conv2_2"
  top: "conv2_2"
}
layer {
  name: "pool2"
  type: "Pooling"
  bottom: "conv2_2"
  top: "pool2"
  pooling_param {
    pool: MAX
    kernel_size: 2
    stride: 2
  }
}
layer {
  name: "conv3_1"
  type: "Convolution"
  bottom: "pool2"
  top: "conv3_1"
  param {
    lr_mult: 1
    decay_mult: 1
  }
  param {
    lr_mult: 2
    decay_mult: 0
  }
  convolution_param {
    num_output: 256
    pad: 1
    kernel_size: 3
  }
}
layer {
  name: "relu3_1"
  type: "ReLU"
  bottom: "conv3_1"
  top: "conv3_1"
}
layer {
  name: "conv3_2"
  type: "Convolution"
  bottom: "conv3_1"
  top: "conv3_2"
  param {
    lr_mult: 1
    decay_mult: 1
  }
  param {
    lr_mult: 2
    decay_mult: 0
  }
  convolution_param {
    num_output: 256
    pad: 1
    kernel_size: 3
  }
}
layer {
  name: "relu3_2"
  type: "ReLU"
  bottom: "conv3_2"
  top: "conv3_2"
}
layer {
  name: "conv3_3"
  type: "Convolution"
  bottom: "conv3_2"
  top: "conv3_3"
  param {
    lr_mult: 1
    decay_mult: 1
  }
  param {
    lr_mult: 2
    decay_mult: 0
  }
  convolution_param {
    num_output: 256
    pad: 1
    kernel_size: 3
  }
}
layer {
  name: "relu3_3"
  type: "ReLU"
  bottom: "conv3_3"
  top: "conv3_3"
}
layer {
  name: "pool3"
  type: "Pooling"
  bottom: "conv3_3"
  top: "pool3"
  pooling_param {
    pool: MAX
    kernel_size: 2
    stride: 2
  }
}
layer {
  name: "conv4_1"
  type: "Convolution"
  bottom: "pool3"
  top: "conv4_1"
  param {
    lr_mult: 1
    decay_mult: 1
  }
  param {
    lr_mult: 2
    decay_mult: 0
  }
  convolution_param {
    num_output: 512
    pad: 1
    kernel_size: 3
  }
}
layer {
  name: "relu4_1"
  type: "ReLU"
  bottom: "conv4_1"
  top: "conv4_1"
}
layer {
  name: "conv4_2"
  type: "Convolution"
  bottom: "conv4_1"
  top: "conv4_2"
  param {
    lr_mult: 1
    decay_mult: 1
  }
  param {
    lr_mult: 2
    decay_mult: 0
  }
  convolution_param {
    num_output: 512
    pad: 1
    kernel_size: 3
  }
}
layer {
  name: "relu4_2"
  type: "ReLU"
  bottom: "conv4_2"
  top: "conv4_2"
}
layer {
  name: "conv4_3"
  type: "Convolution"
  bottom: "conv4_2"
  top: "conv4_3"
  param {
    lr_mult: 1
    decay_mult: 1
  }
  param {
    lr_mult: 2
    decay_mult: 0
  }
  convolution_param {
    num_output: 512
    pad: 1
    kernel_size: 3
  }
}
layer {
  name: "relu4_3"
  type: "ReLU"
  bottom: "conv4_3"
  top: "conv4_3"
}
layer {
  name: "pool4"
  type: "Pooling"
  bottom: "conv4_3"
  top: "pool4"
  pooling_param {
    pool: MAX
    kernel_size: 3
    stride: 1
    pad: 1
  }
}
layer {
  name: "conv5_1"
  type: "Convolution"
  bottom: "pool4"
  top: "conv5_1"
  param {
    lr_mult: 1
    decay_mult: 1
  }
  param {
    lr_mult: 2
    decay_mult: 0
  }
  convolution_param {
    num_output: 512
    pad: 2
    kernel_size: 3
    dilation: 2
  }
}
layer {
  name: "relu5_1"
  type: "ReLU"
  bottom: "conv5_1"
  top: "conv5_1"
}
layer {
  name: "conv5_2"
  type: "Convolution"
  bottom: "conv5_1"
  top: "conv5_2"
  param {
    lr_mult: 1
    decay_mult: 1
  }
  param {
    lr_mult: 2
    decay_mult: 0
  }
  convolution_param {
    num_output: 512
    pad: 2
    kernel_size: 3
    dilation: 2
  }
}
layer {
  name: "relu5_2"
  type: "ReLU"
  bottom: "conv5_2"
  top: "conv5_2"
}
layer {
  name: "conv5_3"
  type: "Convolution"
  bottom: "conv5_2"
  top: "conv5_3"
  param {
    lr_mult: 1
    decay_mult: 1
  }
  param {
    lr_mult: 2
    decay_mult: 0
  }
  convolution_param {
    num_output: 512
    pad: 2
    kernel_size: 3
    dilation: 2
  }
}
layer {
  name: "relu5_3"
  type: "ReLU"
  bottom: "conv5_3"
  top: "conv5_3"
}
layer {
  name: "pool5"
  type: "Pooling"
  bottom: "conv5_3"
  top: "pool5"
  pooling_param {
    pool: MAX
    kernel_size: 3
    stride: 1
    pad: 1
  }
}
layer {
  name: "pool5a"
  type: "Pooling"
  bottom: "pool5"
  top: "pool5a"
  pooling_param {
    pool: AVE
    kernel_size: 3
    stride: 1
    pad: 1
  }
}
layer {
  name: "fc6-conv"
  type: "Convolution"
  bottom: "pool5a"
  top: "fc6-conv"
  param {
    lr_mult: 1
    decay_mult: 1
  }
  param {
    lr_mult: 2
    decay_mult: 0
  }
  convolution_param {
    num_output: 4096
    pad: 12
    kernel_size: 7
    dilation: 4
  }
}
layer {
  name: "relu6"
  type: "ReLU"
  bottom: "fc6-conv"
  top: "fc6-conv"
}
layer {
  name: "drop6"
  type: "Dropout"
  bottom: "fc6-conv"
  top: "fc6-conv"
  dropout_param {
    dropout_ratio: 0.5
  }
}
layer {
  name: "fc7-conv"
  type: "Convolution"
  bottom: "fc6-conv"
  top: "fc7-conv"
  param {
    lr_mult: 1
    decay_mult: 1
  }
  param {
    lr_mult: 2
    decay_mult: 0
  }
  convolution_param {
    num_output: 4096
    kernel_size: 1
  }
}
layer {
  name: "relu7"
  type: "ReLU"
  bottom: "fc7-conv"
  top: "fc7-conv"
}
layer {
  name: "drop7"
  type: "Dropout"
  bottom: "fc7-conv"
  top: "fc7-conv"
  dropout_param {
    dropout_ratio: 0.5
  }
}
layer {
  name: "fc8-VOC"
  type: "Convolution"
  bottom: "fc7-conv"
  top: "fc8-VOC"
  param {
    lr_mult: 1
    decay_mult: 1
  }
  param {
    lr_mult: 2
    decay_mult: 0
  }
  convolution_param {
    num_output: 2
    kernel_size: 1
    weight_filler {
      type: "gaussian"
      std: 0.01
    }
    bias_filler {
      type: "constant"
      value: 0
    }
  }
}
layer {
  name: "upscore2"
  type: "Deconvolution"
  bottom: "fc8-VOC"
  top: "upscore"
  param {
    lr_mult: 0
  }
  convolution_param {
    num_output: 2
    bias_term: false
    pad: 4
    kernel_size: 16
    group: 2
    stride: 8
    weight_filler {
      type: "bilinear"
    }
  }
}
layer {
  name: "loss"
  type: "SoftmaxWithLoss"
  bottom: "upscore"
  bottom: "label"
  top: "loss"
  loss_param {
    ignore_label: 255
    hm_ratio: 0.2
  }
}
layer {
  name: "accuracy"
  type: "Accuracy"
  bottom: "upscore"
  bottom: "label"
  top: "accuracy"
  top: "per_class_accuracy"
}
I0714 23:55:47.679234 19500 layer_factory.hpp:77] Creating layer data
I0714 23:55:47.679311 19500 net.cpp:100] Creating Layer data
I0714 23:55:47.679330 19500 net.cpp:418] data -> data
I0714 23:55:47.679381 19500 net.cpp:418] data -> label
I0714 23:55:47.679850 19500 image_seg_data_layer.cpp:45] Opening file data/carotidmri/train1
I0714 23:55:47.679927 19500 image_seg_data_layer.cpp:106] A total of 1 images.
I0714 23:55:47.695534 19500 image_seg_data_layer.cpp:179] output data size: 1,3,256,256
I0714 23:55:47.695580 19500 image_seg_data_layer.cpp:183] output label size: 1,1,256,256
I0714 23:55:47.700371 19500 net.cpp:150] Setting up data
I0714 23:55:47.700428 19500 net.cpp:157] Top shape: 1 3 256 256 (196608)
I0714 23:55:47.700449 19500 net.cpp:157] Top shape: 1 1 256 256 (65536)
I0714 23:55:47.700459 19500 net.cpp:165] Memory required for data: 1048576
I0714 23:55:47.700479 19500 layer_factory.hpp:77] Creating layer label_data_1_split
I0714 23:55:47.700513 19500 net.cpp:100] Creating Layer label_data_1_split
I0714 23:55:47.700528 19500 net.cpp:444] label_data_1_split <- label
I0714 23:55:47.700552 19500 net.cpp:418] label_data_1_split -> label_data_1_split_0
I0714 23:55:47.700575 19500 net.cpp:418] label_data_1_split -> label_data_1_split_1
I0714 23:55:47.700778 19500 net.cpp:150] Setting up label_data_1_split
I0714 23:55:47.700827 19500 net.cpp:157] Top shape: 1 1 256 256 (65536)
I0714 23:55:47.700839 19500 net.cpp:157] Top shape: 1 1 256 256 (65536)
I0714 23:55:47.700845 19500 net.cpp:165] Memory required for data: 1572864
I0714 23:55:47.700856 19500 layer_factory.hpp:77] Creating layer conv1_1
I0714 23:55:47.700894 19500 net.cpp:100] Creating Layer conv1_1
I0714 23:55:47.700906 19500 net.cpp:444] conv1_1 <- data
I0714 23:55:47.700922 19500 net.cpp:418] conv1_1 -> conv1_1
I0714 23:55:47.702154 19500 net.cpp:150] Setting up conv1_1
I0714 23:55:47.702177 19500 net.cpp:157] Top shape: 1 64 256 256 (4194304)
I0714 23:55:47.702183 19500 net.cpp:165] Memory required for data: 18350080
I0714 23:55:47.702208 19500 layer_factory.hpp:77] Creating layer relu1_1
I0714 23:55:47.702224 19500 net.cpp:100] Creating Layer relu1_1
I0714 23:55:47.702234 19500 net.cpp:444] relu1_1 <- conv1_1
I0714 23:55:47.702252 19500 net.cpp:405] relu1_1 -> conv1_1 (in-place)
I0714 23:55:47.702267 19500 net.cpp:150] Setting up relu1_1
I0714 23:55:47.702280 19500 net.cpp:157] Top shape: 1 64 256 256 (4194304)
I0714 23:55:47.702286 19500 net.cpp:165] Memory required for data: 35127296
I0714 23:55:47.702293 19500 layer_factory.hpp:77] Creating layer conv1_2
I0714 23:55:47.702308 19500 net.cpp:100] Creating Layer conv1_2
I0714 23:55:47.702316 19500 net.cpp:444] conv1_2 <- conv1_1
I0714 23:55:47.702329 19500 net.cpp:418] conv1_2 -> conv1_2
I0714 23:55:47.703564 19500 net.cpp:150] Setting up conv1_2
I0714 23:55:47.703590 19500 net.cpp:157] Top shape: 1 64 256 256 (4194304)
I0714 23:55:47.703599 19500 net.cpp:165] Memory required for data: 51904512
I0714 23:55:47.703615 19500 layer_factory.hpp:77] Creating layer relu1_2
I0714 23:55:47.703629 19500 net.cpp:100] Creating Layer relu1_2
I0714 23:55:47.703637 19500 net.cpp:444] relu1_2 <- conv1_2
I0714 23:55:47.703649 19500 net.cpp:405] relu1_2 -> conv1_2 (in-place)
I0714 23:55:47.703662 19500 net.cpp:150] Setting up relu1_2
I0714 23:55:47.703672 19500 net.cpp:157] Top shape: 1 64 256 256 (4194304)
I0714 23:55:47.703680 19500 net.cpp:165] Memory required for data: 68681728
I0714 23:55:47.703688 19500 layer_factory.hpp:77] Creating layer pool1
I0714 23:55:47.703701 19500 net.cpp:100] Creating Layer pool1
I0714 23:55:47.703714 19500 net.cpp:444] pool1 <- conv1_2
I0714 23:55:47.703724 19500 net.cpp:418] pool1 -> pool1
I0714 23:55:47.703791 19500 net.cpp:150] Setting up pool1
I0714 23:55:47.703806 19500 net.cpp:157] Top shape: 1 64 128 128 (1048576)
I0714 23:55:47.703850 19500 net.cpp:165] Memory required for data: 72876032
I0714 23:55:47.703860 19500 layer_factory.hpp:77] Creating layer conv2_1
I0714 23:55:47.703876 19500 net.cpp:100] Creating Layer conv2_1
I0714 23:55:47.703882 19500 net.cpp:444] conv2_1 <- pool1
I0714 23:55:47.703896 19500 net.cpp:418] conv2_1 -> conv2_1
I0714 23:55:47.705814 19500 net.cpp:150] Setting up conv2_1
I0714 23:55:47.705837 19500 net.cpp:157] Top shape: 1 128 128 128 (2097152)
I0714 23:55:47.705845 19500 net.cpp:165] Memory required for data: 81264640
I0714 23:55:47.705862 19500 layer_factory.hpp:77] Creating layer relu2_1
I0714 23:55:47.705878 19500 net.cpp:100] Creating Layer relu2_1
I0714 23:55:47.705885 19500 net.cpp:444] relu2_1 <- conv2_1
I0714 23:55:47.705896 19500 net.cpp:405] relu2_1 -> conv2_1 (in-place)
I0714 23:55:47.705909 19500 net.cpp:150] Setting up relu2_1
I0714 23:55:47.705917 19500 net.cpp:157] Top shape: 1 128 128 128 (2097152)
I0714 23:55:47.705924 19500 net.cpp:165] Memory required for data: 89653248
I0714 23:55:47.705931 19500 layer_factory.hpp:77] Creating layer conv2_2
I0714 23:55:47.705945 19500 net.cpp:100] Creating Layer conv2_2
I0714 23:55:47.705951 19500 net.cpp:444] conv2_2 <- conv2_1
I0714 23:55:47.705963 19500 net.cpp:418] conv2_2 -> conv2_2
I0714 23:55:47.706331 19500 net.cpp:150] Setting up conv2_2
I0714 23:55:47.706349 19500 net.cpp:157] Top shape: 1 128 128 128 (2097152)
I0714 23:55:47.706357 19500 net.cpp:165] Memory required for data: 98041856
I0714 23:55:47.706368 19500 layer_factory.hpp:77] Creating layer relu2_2
I0714 23:55:47.706379 19500 net.cpp:100] Creating Layer relu2_2
I0714 23:55:47.706387 19500 net.cpp:444] relu2_2 <- conv2_2
I0714 23:55:47.706396 19500 net.cpp:405] relu2_2 -> conv2_2 (in-place)
I0714 23:55:47.706408 19500 net.cpp:150] Setting up relu2_2
I0714 23:55:47.706416 19500 net.cpp:157] Top shape: 1 128 128 128 (2097152)
I0714 23:55:47.706423 19500 net.cpp:165] Memory required for data: 106430464
I0714 23:55:47.706429 19500 layer_factory.hpp:77] Creating layer pool2
I0714 23:55:47.706439 19500 net.cpp:100] Creating Layer pool2
I0714 23:55:47.706445 19500 net.cpp:444] pool2 <- conv2_2
I0714 23:55:47.706455 19500 net.cpp:418] pool2 -> pool2
I0714 23:55:47.706504 19500 net.cpp:150] Setting up pool2
I0714 23:55:47.706517 19500 net.cpp:157] Top shape: 1 128 64 64 (524288)
I0714 23:55:47.706524 19500 net.cpp:165] Memory required for data: 108527616
I0714 23:55:47.706532 19500 layer_factory.hpp:77] Creating layer conv3_1
I0714 23:55:47.706545 19500 net.cpp:100] Creating Layer conv3_1
I0714 23:55:47.706552 19500 net.cpp:444] conv3_1 <- pool2
I0714 23:55:47.706563 19500 net.cpp:418] conv3_1 -> conv3_1
I0714 23:55:47.707823 19500 net.cpp:150] Setting up conv3_1
I0714 23:55:47.707842 19500 net.cpp:157] Top shape: 1 256 64 64 (1048576)
I0714 23:55:47.707850 19500 net.cpp:165] Memory required for data: 112721920
I0714 23:55:47.707865 19500 layer_factory.hpp:77] Creating layer relu3_1
I0714 23:55:47.707877 19500 net.cpp:100] Creating Layer relu3_1
I0714 23:55:47.707885 19500 net.cpp:444] relu3_1 <- conv3_1
I0714 23:55:47.707895 19500 net.cpp:405] relu3_1 -> conv3_1 (in-place)
I0714 23:55:47.707906 19500 net.cpp:150] Setting up relu3_1
I0714 23:55:47.707916 19500 net.cpp:157] Top shape: 1 256 64 64 (1048576)
I0714 23:55:47.707922 19500 net.cpp:165] Memory required for data: 116916224
I0714 23:55:47.707929 19500 layer_factory.hpp:77] Creating layer conv3_2
I0714 23:55:47.707944 19500 net.cpp:100] Creating Layer conv3_2
I0714 23:55:47.707958 19500 net.cpp:444] conv3_2 <- conv3_1
I0714 23:55:47.707970 19500 net.cpp:418] conv3_2 -> conv3_2
I0714 23:55:47.710021 19500 net.cpp:150] Setting up conv3_2
I0714 23:55:47.710047 19500 net.cpp:157] Top shape: 1 256 64 64 (1048576)
I0714 23:55:47.710054 19500 net.cpp:165] Memory required for data: 121110528
I0714 23:55:47.710067 19500 layer_factory.hpp:77] Creating layer relu3_2
I0714 23:55:47.710079 19500 net.cpp:100] Creating Layer relu3_2
I0714 23:55:47.710088 19500 net.cpp:444] relu3_2 <- conv3_2
I0714 23:55:47.710100 19500 net.cpp:405] relu3_2 -> conv3_2 (in-place)
I0714 23:55:47.710153 19500 net.cpp:150] Setting up relu3_2
I0714 23:55:47.710165 19500 net.cpp:157] Top shape: 1 256 64 64 (1048576)
I0714 23:55:47.710171 19500 net.cpp:165] Memory required for data: 125304832
I0714 23:55:47.710178 19500 layer_factory.hpp:77] Creating layer conv3_3
I0714 23:55:47.710202 19500 net.cpp:100] Creating Layer conv3_3
I0714 23:55:47.710211 19500 net.cpp:444] conv3_3 <- conv3_2
I0714 23:55:47.710222 19500 net.cpp:418] conv3_3 -> conv3_3
I0714 23:55:47.712507 19500 net.cpp:150] Setting up conv3_3
I0714 23:55:47.712535 19500 net.cpp:157] Top shape: 1 256 64 64 (1048576)
I0714 23:55:47.712543 19500 net.cpp:165] Memory required for data: 129499136
I0714 23:55:47.712556 19500 layer_factory.hpp:77] Creating layer relu3_3
I0714 23:55:47.712569 19500 net.cpp:100] Creating Layer relu3_3
I0714 23:55:47.712576 19500 net.cpp:444] relu3_3 <- conv3_3
I0714 23:55:47.712590 19500 net.cpp:405] relu3_3 -> conv3_3 (in-place)
I0714 23:55:47.712604 19500 net.cpp:150] Setting up relu3_3
I0714 23:55:47.712612 19500 net.cpp:157] Top shape: 1 256 64 64 (1048576)
I0714 23:55:47.712618 19500 net.cpp:165] Memory required for data: 133693440
I0714 23:55:47.712625 19500 layer_factory.hpp:77] Creating layer pool3
I0714 23:55:47.712636 19500 net.cpp:100] Creating Layer pool3
I0714 23:55:47.712643 19500 net.cpp:444] pool3 <- conv3_3
I0714 23:55:47.712656 19500 net.cpp:418] pool3 -> pool3
I0714 23:55:47.712725 19500 net.cpp:150] Setting up pool3
I0714 23:55:47.712743 19500 net.cpp:157] Top shape: 1 256 32 32 (262144)
I0714 23:55:47.712750 19500 net.cpp:165] Memory required for data: 134742016
I0714 23:55:47.712757 19500 layer_factory.hpp:77] Creating layer conv4_1
I0714 23:55:47.712770 19500 net.cpp:100] Creating Layer conv4_1
I0714 23:55:47.712779 19500 net.cpp:444] conv4_1 <- pool3
I0714 23:55:47.712790 19500 net.cpp:418] conv4_1 -> conv4_1
I0714 23:55:47.718336 19500 net.cpp:150] Setting up conv4_1
I0714 23:55:47.718379 19500 net.cpp:157] Top shape: 1 512 32 32 (524288)
I0714 23:55:47.718389 19500 net.cpp:165] Memory required for data: 136839168
I0714 23:55:47.718405 19500 layer_factory.hpp:77] Creating layer relu4_1
I0714 23:55:47.718421 19500 net.cpp:100] Creating Layer relu4_1
I0714 23:55:47.718433 19500 net.cpp:444] relu4_1 <- conv4_1
I0714 23:55:47.718446 19500 net.cpp:405] relu4_1 -> conv4_1 (in-place)
I0714 23:55:47.718462 19500 net.cpp:150] Setting up relu4_1
I0714 23:55:47.718473 19500 net.cpp:157] Top shape: 1 512 32 32 (524288)
I0714 23:55:47.718479 19500 net.cpp:165] Memory required for data: 138936320
I0714 23:55:47.718487 19500 layer_factory.hpp:77] Creating layer conv4_2
I0714 23:55:47.718508 19500 net.cpp:100] Creating Layer conv4_2
I0714 23:55:47.718518 19500 net.cpp:444] conv4_2 <- conv4_1
I0714 23:55:47.718531 19500 net.cpp:418] conv4_2 -> conv4_2
I0714 23:55:47.726135 19500 net.cpp:150] Setting up conv4_2
I0714 23:55:47.726187 19500 net.cpp:157] Top shape: 1 512 32 32 (524288)
I0714 23:55:47.726196 19500 net.cpp:165] Memory required for data: 141033472
I0714 23:55:47.726224 19500 layer_factory.hpp:77] Creating layer relu4_2
I0714 23:55:47.726243 19500 net.cpp:100] Creating Layer relu4_2
I0714 23:55:47.726253 19500 net.cpp:444] relu4_2 <- conv4_2
I0714 23:55:47.726265 19500 net.cpp:405] relu4_2 -> conv4_2 (in-place)
I0714 23:55:47.726281 19500 net.cpp:150] Setting up relu4_2
I0714 23:55:47.726290 19500 net.cpp:157] Top shape: 1 512 32 32 (524288)
I0714 23:55:47.726297 19500 net.cpp:165] Memory required for data: 143130624
I0714 23:55:47.726305 19500 layer_factory.hpp:77] Creating layer conv4_3
I0714 23:55:47.726323 19500 net.cpp:100] Creating Layer conv4_3
I0714 23:55:47.726333 19500 net.cpp:444] conv4_3 <- conv4_2
I0714 23:55:47.726343 19500 net.cpp:418] conv4_3 -> conv4_3
I0714 23:55:47.733984 19500 net.cpp:150] Setting up conv4_3
I0714 23:55:47.734045 19500 net.cpp:157] Top shape: 1 512 32 32 (524288)
I0714 23:55:47.734053 19500 net.cpp:165] Memory required for data: 145227776
I0714 23:55:47.734069 19500 layer_factory.hpp:77] Creating layer relu4_3
I0714 23:55:47.734087 19500 net.cpp:100] Creating Layer relu4_3
I0714 23:55:47.734138 19500 net.cpp:444] relu4_3 <- conv4_3
I0714 23:55:47.734159 19500 net.cpp:405] relu4_3 -> conv4_3 (in-place)
I0714 23:55:47.734177 19500 net.cpp:150] Setting up relu4_3
I0714 23:55:47.734189 19500 net.cpp:157] Top shape: 1 512 32 32 (524288)
I0714 23:55:47.734195 19500 net.cpp:165] Memory required for data: 147324928
I0714 23:55:47.734202 19500 layer_factory.hpp:77] Creating layer pool4
I0714 23:55:47.734215 19500 net.cpp:100] Creating Layer pool4
I0714 23:55:47.734221 19500 net.cpp:444] pool4 <- conv4_3
I0714 23:55:47.734231 19500 net.cpp:418] pool4 -> pool4
I0714 23:55:47.734289 19500 net.cpp:150] Setting up pool4
I0714 23:55:47.734303 19500 net.cpp:157] Top shape: 1 512 32 32 (524288)
I0714 23:55:47.734309 19500 net.cpp:165] Memory required for data: 149422080
I0714 23:55:47.734318 19500 layer_factory.hpp:77] Creating layer conv5_1
I0714 23:55:47.734341 19500 net.cpp:100] Creating Layer conv5_1
I0714 23:55:47.734350 19500 net.cpp:444] conv5_1 <- pool4
I0714 23:55:47.734364 19500 net.cpp:418] conv5_1 -> conv5_1
I0714 23:55:47.741953 19500 net.cpp:150] Setting up conv5_1
I0714 23:55:47.742002 19500 net.cpp:157] Top shape: 1 512 32 32 (524288)
I0714 23:55:47.742010 19500 net.cpp:165] Memory required for data: 151519232
I0714 23:55:47.742024 19500 layer_factory.hpp:77] Creating layer relu5_1
I0714 23:55:47.742041 19500 net.cpp:100] Creating Layer relu5_1
I0714 23:55:47.742050 19500 net.cpp:444] relu5_1 <- conv5_1
I0714 23:55:47.742063 19500 net.cpp:405] relu5_1 -> conv5_1 (in-place)
I0714 23:55:47.742077 19500 net.cpp:150] Setting up relu5_1
I0714 23:55:47.742086 19500 net.cpp:157] Top shape: 1 512 32 32 (524288)
I0714 23:55:47.742092 19500 net.cpp:165] Memory required for data: 153616384
I0714 23:55:47.742100 19500 layer_factory.hpp:77] Creating layer conv5_2
I0714 23:55:47.742123 19500 net.cpp:100] Creating Layer conv5_2
I0714 23:55:47.742130 19500 net.cpp:444] conv5_2 <- conv5_1
I0714 23:55:47.742143 19500 net.cpp:418] conv5_2 -> conv5_2
I0714 23:55:47.749624 19500 net.cpp:150] Setting up conv5_2
I0714 23:55:47.749671 19500 net.cpp:157] Top shape: 1 512 32 32 (524288)
I0714 23:55:47.749680 19500 net.cpp:165] Memory required for data: 155713536
I0714 23:55:47.749694 19500 layer_factory.hpp:77] Creating layer relu5_2
I0714 23:55:47.749711 19500 net.cpp:100] Creating Layer relu5_2
I0714 23:55:47.749722 19500 net.cpp:444] relu5_2 <- conv5_2
I0714 23:55:47.749737 19500 net.cpp:405] relu5_2 -> conv5_2 (in-place)
I0714 23:55:47.749752 19500 net.cpp:150] Setting up relu5_2
I0714 23:55:47.749763 19500 net.cpp:157] Top shape: 1 512 32 32 (524288)
I0714 23:55:47.749769 19500 net.cpp:165] Memory required for data: 157810688
I0714 23:55:47.749776 19500 layer_factory.hpp:77] Creating layer conv5_3
I0714 23:55:47.749799 19500 net.cpp:100] Creating Layer conv5_3
I0714 23:55:47.749809 19500 net.cpp:444] conv5_3 <- conv5_2
I0714 23:55:47.749822 19500 net.cpp:418] conv5_3 -> conv5_3
I0714 23:55:47.757576 19500 net.cpp:150] Setting up conv5_3
I0714 23:55:47.757622 19500 net.cpp:157] Top shape: 1 512 32 32 (524288)
I0714 23:55:47.757632 19500 net.cpp:165] Memory required for data: 159907840
I0714 23:55:47.757645 19500 layer_factory.hpp:77] Creating layer relu5_3
I0714 23:55:47.757663 19500 net.cpp:100] Creating Layer relu5_3
I0714 23:55:47.757673 19500 net.cpp:444] relu5_3 <- conv5_3
I0714 23:55:47.757688 19500 net.cpp:405] relu5_3 -> conv5_3 (in-place)
I0714 23:55:47.757704 19500 net.cpp:150] Setting up relu5_3
I0714 23:55:47.757714 19500 net.cpp:157] Top shape: 1 512 32 32 (524288)
I0714 23:55:47.757721 19500 net.cpp:165] Memory required for data: 162004992
I0714 23:55:47.757728 19500 layer_factory.hpp:77] Creating layer pool5
I0714 23:55:47.757755 19500 net.cpp:100] Creating Layer pool5
I0714 23:55:47.757762 19500 net.cpp:444] pool5 <- conv5_3
I0714 23:55:47.757773 19500 net.cpp:418] pool5 -> pool5
I0714 23:55:47.757829 19500 net.cpp:150] Setting up pool5
I0714 23:55:47.757845 19500 net.cpp:157] Top shape: 1 512 32 32 (524288)
I0714 23:55:47.757853 19500 net.cpp:165] Memory required for data: 164102144
I0714 23:55:47.757899 19500 layer_factory.hpp:77] Creating layer pool5a
I0714 23:55:47.757913 19500 net.cpp:100] Creating Layer pool5a
I0714 23:55:47.757922 19500 net.cpp:444] pool5a <- pool5
I0714 23:55:47.757931 19500 net.cpp:418] pool5a -> pool5a
I0714 23:55:47.757968 19500 net.cpp:150] Setting up pool5a
I0714 23:55:47.757982 19500 net.cpp:157] Top shape: 1 512 32 32 (524288)
I0714 23:55:47.757988 19500 net.cpp:165] Memory required for data: 166199296
I0714 23:55:47.757998 19500 layer_factory.hpp:77] Creating layer fc6-conv
I0714 23:55:47.758016 19500 net.cpp:100] Creating Layer fc6-conv
I0714 23:55:47.758023 19500 net.cpp:444] fc6-conv <- pool5a
I0714 23:55:47.758038 19500 net.cpp:418] fc6-conv -> fc6-conv
I0714 23:55:48.057601 19500 net.cpp:150] Setting up fc6-conv
I0714 23:55:48.057660 19500 net.cpp:157] Top shape: 1 4096 32 32 (4194304)
I0714 23:55:48.057669 19500 net.cpp:165] Memory required for data: 182976512
I0714 23:55:48.057687 19500 layer_factory.hpp:77] Creating layer relu6
I0714 23:55:48.057705 19500 net.cpp:100] Creating Layer relu6
I0714 23:55:48.057725 19500 net.cpp:444] relu6 <- fc6-conv
I0714 23:55:48.057739 19500 net.cpp:405] relu6 -> fc6-conv (in-place)
I0714 23:55:48.057755 19500 net.cpp:150] Setting up relu6
I0714 23:55:48.057763 19500 net.cpp:157] Top shape: 1 4096 32 32 (4194304)
I0714 23:55:48.057770 19500 net.cpp:165] Memory required for data: 199753728
I0714 23:55:48.057777 19500 layer_factory.hpp:77] Creating layer drop6
I0714 23:55:48.057797 19500 net.cpp:100] Creating Layer drop6
I0714 23:55:48.057806 19500 net.cpp:444] drop6 <- fc6-conv
I0714 23:55:48.057816 19500 net.cpp:405] drop6 -> fc6-conv (in-place)
I0714 23:55:48.057867 19500 net.cpp:150] Setting up drop6
I0714 23:55:48.057879 19500 net.cpp:157] Top shape: 1 4096 32 32 (4194304)
I0714 23:55:48.057889 19500 net.cpp:165] Memory required for data: 216530944
I0714 23:55:48.057896 19500 layer_factory.hpp:77] Creating layer fc7-conv
I0714 23:55:48.057914 19500 net.cpp:100] Creating Layer fc7-conv
I0714 23:55:48.057921 19500 net.cpp:444] fc7-conv <- fc6-conv
I0714 23:55:48.057934 19500 net.cpp:418] fc7-conv -> fc7-conv
I0714 23:55:48.106794 19500 net.cpp:150] Setting up fc7-conv
I0714 23:55:48.106858 19500 net.cpp:157] Top shape: 1 4096 32 32 (4194304)
I0714 23:55:48.106868 19500 net.cpp:165] Memory required for data: 233308160
I0714 23:55:48.106896 19500 layer_factory.hpp:77] Creating layer relu7
I0714 23:55:48.106917 19500 net.cpp:100] Creating Layer relu7
I0714 23:55:48.106928 19500 net.cpp:444] relu7 <- fc7-conv
I0714 23:55:48.106941 19500 net.cpp:405] relu7 -> fc7-conv (in-place)
I0714 23:55:48.106957 19500 net.cpp:150] Setting up relu7
I0714 23:55:48.106971 19500 net.cpp:157] Top shape: 1 4096 32 32 (4194304)
I0714 23:55:48.106977 19500 net.cpp:165] Memory required for data: 250085376
I0714 23:55:48.106983 19500 layer_factory.hpp:77] Creating layer drop7
I0714 23:55:48.107002 19500 net.cpp:100] Creating Layer drop7
I0714 23:55:48.107009 19500 net.cpp:444] drop7 <- fc7-conv
I0714 23:55:48.107018 19500 net.cpp:405] drop7 -> fc7-conv (in-place)
I0714 23:55:48.107053 19500 net.cpp:150] Setting up drop7
I0714 23:55:48.107065 19500 net.cpp:157] Top shape: 1 4096 32 32 (4194304)
I0714 23:55:48.107072 19500 net.cpp:165] Memory required for data: 266862592
I0714 23:55:48.107079 19500 layer_factory.hpp:77] Creating layer fc8-VOC
I0714 23:55:48.107102 19500 net.cpp:100] Creating Layer fc8-VOC
I0714 23:55:48.107110 19500 net.cpp:444] fc8-VOC <- fc7-conv
I0714 23:55:48.107121 19500 net.cpp:418] fc8-VOC -> fc8-VOC
I0714 23:55:48.107753 19500 net.cpp:150] Setting up fc8-VOC
I0714 23:55:48.107769 19500 net.cpp:157] Top shape: 1 2 32 32 (2048)
I0714 23:55:48.107776 19500 net.cpp:165] Memory required for data: 266870784
I0714 23:55:48.107786 19500 layer_factory.hpp:77] Creating layer upscore2
I0714 23:55:48.107807 19500 net.cpp:100] Creating Layer upscore2
I0714 23:55:48.107815 19500 net.cpp:444] upscore2 <- fc8-VOC
I0714 23:55:48.107828 19500 net.cpp:418] upscore2 -> upscore
I0714 23:55:48.108089 19500 net.cpp:150] Setting up upscore2
I0714 23:55:48.108147 19500 net.cpp:157] Top shape: 1 2 256 256 (131072)
I0714 23:55:48.108155 19500 net.cpp:165] Memory required for data: 267395072
I0714 23:55:48.108180 19500 layer_factory.hpp:77] Creating layer upscore_upscore2_0_split
I0714 23:55:48.108192 19500 net.cpp:100] Creating Layer upscore_upscore2_0_split
I0714 23:55:48.108199 19500 net.cpp:444] upscore_upscore2_0_split <- upscore
I0714 23:55:48.108211 19500 net.cpp:418] upscore_upscore2_0_split -> upscore_upscore2_0_split_0
I0714 23:55:48.108230 19500 net.cpp:418] upscore_upscore2_0_split -> upscore_upscore2_0_split_1
I0714 23:55:48.108279 19500 net.cpp:150] Setting up upscore_upscore2_0_split
I0714 23:55:48.108292 19500 net.cpp:157] Top shape: 1 2 256 256 (131072)
I0714 23:55:48.108300 19500 net.cpp:157] Top shape: 1 2 256 256 (131072)
I0714 23:55:48.108306 19500 net.cpp:165] Memory required for data: 268443648
I0714 23:55:48.108314 19500 layer_factory.hpp:77] Creating layer loss
I0714 23:55:48.108330 19500 net.cpp:100] Creating Layer loss
I0714 23:55:48.108336 19500 net.cpp:444] loss <- upscore_upscore2_0_split_0
I0714 23:55:48.108345 19500 net.cpp:444] loss <- label_data_1_split_0
I0714 23:55:48.108360 19500 net.cpp:418] loss -> loss
I0714 23:55:48.108384 19500 layer_factory.hpp:77] Creating layer loss
I0714 23:55:48.109571 19500 net.cpp:150] Setting up loss
I0714 23:55:48.109591 19500 net.cpp:157] Top shape: (1)
I0714 23:55:48.109598 19500 net.cpp:160]     with loss weight 1
I0714 23:55:48.109629 19500 net.cpp:165] Memory required for data: 268443652
I0714 23:55:48.109637 19500 layer_factory.hpp:77] Creating layer accuracy
I0714 23:55:48.109666 19500 net.cpp:100] Creating Layer accuracy
I0714 23:55:48.109674 19500 net.cpp:444] accuracy <- upscore_upscore2_0_split_1
I0714 23:55:48.109683 19500 net.cpp:444] accuracy <- label_data_1_split_1
I0714 23:55:48.109697 19500 net.cpp:418] accuracy -> accuracy
I0714 23:55:48.109709 19500 net.cpp:418] accuracy -> per_class_accuracy
I0714 23:55:48.109764 19500 net.cpp:150] Setting up accuracy
I0714 23:55:48.109783 19500 net.cpp:157] Top shape: (1)
I0714 23:55:48.109792 19500 net.cpp:157] Top shape: 2 (2)
I0714 23:55:48.109798 19500 net.cpp:165] Memory required for data: 268443664
I0714 23:55:48.109813 19500 net.cpp:228] accuracy does not need backward computation.
I0714 23:55:48.109820 19500 net.cpp:226] loss needs backward computation.
I0714 23:55:48.109827 19500 net.cpp:226] upscore_upscore2_0_split needs backward computation.
I0714 23:55:48.109833 19500 net.cpp:226] upscore2 needs backward computation.
…
