…
I0718 19:46:15.932199 20478 net.cpp:58] Initializing net from parameters: 
name: "DPN"
state {
  phase: TRAIN
  level: 0
  stage: ""
}
layer {
  name: "data"
  type: "ImageSegData"
  top: "data"
  top: "label"
  include {
    phase: TRAIN
  }
  transform_param {
    mirror: true
    crop_size: 480
    mean_value: 104.00699
    mean_value: 116.66877
    mean_value: 122.67892
    crop_resize: 0.8
    crop_resize: 1
  }
  image_data_param {
    source: "data/VOC_arg/train.txt"
    batch_size: 1
    shuffle: true
    root_folder: "data/VOC_arg"
    label_type: PIXEL
  }
}
layer {
  name: "conv1"
  type: "Convolution"
  bottom: "data"
  top: "conv1"
  param {
    name: "conv1_0"
    lr_mult: 1
    decay_mult: 1
  }
  convolution_param {
    num_output: 64
    bias_term: false
    pad: 3
    kernel_size: 7
    stride: 2
  }
}
layer {
  name: "bn_conv1"
  type: "BatchNorm"
  bottom: "conv1"
  top: "conv1"
  param {
    name: "bn_conv1_0"
    lr_mult: 0
  }
  param {
    name: "bn_conv1_1"
    lr_mult: 0
  }
  param {
    name: "bn_conv1_2"
    lr_mult: 0
  }
  batch_norm_param {
    use_global_stats: true
  }
}
layer {
  name: "scale_conv1"
  type: "Scale"
  bottom: "conv1"
  top: "conv1"
  param {
    name: "scale_conv1_0"
    lr_mult: 0
  }
  param {
    name: "scale_conv1_1"
    lr_mult: 0
  }
  scale_param {
    bias_term: true
  }
}
layer {
  name: "conv1_relu"
  type: "ReLU"
  bottom: "conv1"
  top: "conv1"
}
layer {
  name: "pool1"
  type: "Pooling"
  bottom: "conv1"
  top: "pool1"
  pooling_param {
    pool: MAX
    kernel_size: 3
    stride: 2
  }
}
layer {
  name: "res2a_branch1"
  type: "Convolution"
  bottom: "pool1"
  top: "res2a_branch1"
  param {
    name: "res2a_branch1_0"
    lr_mult: 1
    decay_mult: 1
  }
  convolution_param {
    num_output: 256
    bias_term: false
    pad: 0
    kernel_size: 1
    stride: 1
  }
}
layer {
  name: "bn2a_branch1"
  type: "BatchNorm"
  bottom: "res2a_branch1"
  top: "res2a_branch1"
  param {
    name: "bn2a_branch1_0"
    lr_mult: 0
  }
  param {
    name: "bn2a_branch1_1"
    lr_mult: 0
  }
  param {
    name: "bn2a_branch1_2"
    lr_mult: 0
  }
  batch_norm_param {
    use_global_stats: true
  }
}
layer {
  name: "scale2a_branch1"
  type: "Scale"
  bottom: "res2a_branch1"
  top: "res2a_branch1"
  param {
    name: "scale2a_branch1_0"
    lr_mult: 0
  }
  param {
    name: "scale2a_branch1_1"
    lr_mult: 0
  }
  scale_param {
    bias_term: true
  }
}
layer {
  name: "res2a_branch2a"
  type: "Convolution"
  bottom: "pool1"
  top: "res2a_branch2a"
  param {
    name: "res2a_branch2a_0"
    lr_mult: 1
    decay_mult: 1
  }
  convolution_param {
    num_output: 64
    bias_term: false
    pad: 0
    kernel_size: 1
    stride: 1
  }
}
layer {
  name: "bn2a_branch2a"
  type: "BatchNorm"
  bottom: "res2a_branch2a"
  top: "res2a_branch2a"
  param {
    name: "bn2a_branch2a_0"
    lr_mult: 0
  }
  param {
    name: "bn2a_branch2a_1"
    lr_mult: 0
  }
  param {
    name: "bn2a_branch2a_2"
    lr_mult: 0
  }
  batch_norm_param {
    use_global_stats: true
  }
}
layer {
  name: "scale2a_branch2a"
  type: "Scale"
  bottom: "res2a_branch2a"
  top: "res2a_branch2a"
  param {
    name: "scale2a_branch2a_0"
    lr_mult: 0
  }
  param {
    name: "scale2a_branch2a_1"
    lr_mult: 0
  }
  scale_param {
    bias_term: true
  }
}
layer {
  name: "res2a_branch2a_relu"
  type: "ReLU"
  bottom: "res2a_branch2a"
  top: "res2a_branch2a"
}
layer {
  name: "res2a_branch2b"
  type: "Convolution"
  bottom: "res2a_branch2a"
  top: "res2a_branch2b"
  param {
    name: "res2a_branch2b_0"
    lr_mult: 1
    decay_mult: 1
  }
  convolution_param {
    num_output: 64
    bias_term: false
    pad: 1
    kernel_size: 3
    stride: 1
  }
}
layer {
  name: "bn2a_branch2b"
  type: "BatchNorm"
  bottom: "res2a_branch2b"
  top: "res2a_branch2b"
  param {
    name: "bn2a_branch2b_0"
    lr_mult: 0
  }
  param {
    name: "bn2a_branch2b_1"
    lr_mult: 0
  }
  param {
    name: "bn2a_branch2b_2"
    lr_mult: 0
  }
  batch_norm_param {
    use_global_stats: true
  }
}
layer {
  name: "scale2a_branch2b"
  type: "Scale"
  bottom: "res2a_branch2b"
  top: "res2a_branch2b"
  param {
    name: "scale2a_branch2b_0"
    lr_mult: 0
  }
  param {
    name: "scale2a_branch2b_1"
    lr_mult: 0
  }
  scale_param {
    bias_term: true
  }
}
layer {
  name: "res2a_branch2b_relu"
  type: "ReLU"
  bottom: "res2a_branch2b"
  top: "res2a_branch2b"
}
layer {
  name: "res2a_branch2c"
  type: "Convolution"
  bottom: "res2a_branch2b"
  top: "res2a_branch2c"
  param {
    name: "res2a_branch2c_0"
    lr_mult: 1
    decay_mult: 1
  }
  convolution_param {
    num_output: 256
    bias_term: false
    pad: 0
    kernel_size: 1
    stride: 1
  }
}
layer {
  name: "bn2a_branch2c"
  type: "BatchNorm"
  bottom: "res2a_branch2c"
  top: "res2a_branch2c"
  param {
    name: "bn2a_branch2c_0"
    lr_mult: 0
  }
  param {
    name: "bn2a_branch2c_1"
    lr_mult: 0
  }
  param {
    name: "bn2a_branch2c_2"
    lr_mult: 0
  }
  batch_norm_param {
    use_global_stats: true
  }
}
layer {
  name: "scale2a_branch2c"
  type: "Scale"
  bottom: "res2a_branch2c"
  top: "res2a_branch2c"
  param {
    name: "scale2a_branch2c_0"
    lr_mult: 0
  }
  param {
    name: "scale2a_branch2c_1"
    lr_mult: 0
  }
  scale_param {
    bias_term: true
  }
}
layer {
  name: "res2a"
  type: "Eltwise"
  bottom: "res2a_branch1"
  bottom: "res2a_branch2c"
  top: "res2a"
}
layer {
  name: "res2a_relu"
  type: "ReLU"
  bottom: "res2a"
  top: "res2a"
}
layer {
  name: "res2b_branch2a"
  type: "Convolution"
  bottom: "res2a"
  top: "res2b_branch2a"
  param {
    name: "res2b_branch2a_0"
    lr_mult: 1
    decay_mult: 1
  }
  convolution_param {
    num_output: 64
    bias_term: false
    pad: 0
    kernel_size: 1
    stride: 1
  }
}
layer {
  name: "bn2b_branch2a"
  type: "BatchNorm"
  bottom: "res2b_branch2a"
  top: "res2b_branch2a"
  param {
    name: "bn2b_branch2a_0"
    lr_mult: 0
  }
  param {
    name: "bn2b_branch2a_1"
    lr_mult: 0
  }
  param {
    name: "bn2b_branch2a_2"
    lr_mult: 0
  }
  batch_norm_param {
    use_global_stats: true
  }
}
layer {
  name: "scale2b_branch2a"
  type: "Scale"
  bottom: "res2b_branch2a"
  top: "res2b_branch2a"
  param {
    name: "scale2b_branch2a_0"
    lr_mult: 0
  }
  param {
    name: "scale2b_branch2a_1"
    lr_mult: 0
  }
  scale_param {
    bias_term: true
  }
}
layer {
  name: "res2b_branch2a_relu"
  type: "ReLU"
  bottom: "res2b_branch2a"
  top: "res2b_branch2a"
}
layer {
  name: "res2b_branch2b"
  type: "Convolution"
  bottom: "res2b_branch2a"
  top: "res2b_branch2b"
  param {
    name: "res2b_branch2b_0"
    lr_mult: 1
    decay_mult: 1
  }
  convolution_param {
    num_output: 64
    bias_term: false
    pad: 1
    kernel_size: 3
    stride: 1
  }
}
layer {
  name: "bn2b_branch2b"
  type: "BatchNorm"
  bottom: "res2b_branch2b"
  top: "res2b_branch2b"
  param {
    name: "bn2b_branch2b_0"
    lr_mult: 0
  }
  param {
    name: "bn2b_branch2b_1"
    lr_mult: 0
  }
  param {
    name: "bn2b_branch2b_2"
    lr_mult: 0
  }
  batch_norm_param {
    use_global_stats: true
  }
}
layer {
  name: "scale2b_branch2b"
  type: "Scale"
  bottom: "res2b_branch2b"
  top: "res2b_branch2b"
  param {
    name: "scale2b_branch2b_0"
    lr_mult: 0
  }
  param {
    name: "scale2b_branch2b_1"
    lr_mult: 0
  }
  scale_param {
    bias_term: true
  }
}
layer {
  name: "res2b_branch2b_relu"
  type: "ReLU"
  bottom: "res2b_branch2b"
  top: "res2b_branch2b"
}
layer {
  name: "res2b_branch2c"
  type: "Convolution"
  bottom: "res2b_branch2b"
  top: "res2b_branch2c"
  param {
    name: "res2b_branch2c_0"
    lr_mult: 1
    decay_mult: 1
  }
  convolution_param {
    num_output: 256
    bias_term: false
    pad: 0
    kernel_size: 1
    stride: 1
  }
}
layer {
  name: "bn2b_branch2c"
  type: "BatchNorm"
  bottom: "res2b_branch2c"
  top: "res2b_branch2c"
  param {
    name: "bn2b_branch2c_0"
    lr_mult: 0
  }
  param {
    name: "bn2b_branch2c_1"
    lr_mult: 0
  }
  param {
    name: "bn2b_branch2c_2"
    lr_mult: 0
  }
  batch_norm_param {
    use_global_stats: true
  }
}
layer {
  name: "scale2b_branch2c"
  type: "Scale"
  bottom: "res2b_branch2c"
  top: "res2b_branch2c"
  param {
    name: "scale2b_branch2c_0"
    lr_mult: 0
  }
  param {
    name: "scale2b_branch2c_1"
    lr_mult: 0
  }
  scale_param {
    bias_term: true
  }
}
layer {
  name: "res2b"
  type: "Eltwise"
  bottom: "res2a"
  bottom: "res2b_branch2c"
  top: "res2b"
}
layer {
  name: "res2b_relu"
  type: "ReLU"
  bottom: "res2b"
  top: "res2b"
}
layer {
  name: "res2c_branch2a"
  type: "Convolution"
  bottom: "res2b"
  top: "res2c_branch2a"
  param {
    name: "res2c_branch2a_0"
    lr_mult: 1
    decay_mult: 1
  }
  convolution_param {
    num_output: 64
    bias_term: false
    pad: 0
    kernel_size: 1
    stride: 1
  }
}
layer {
  name: "bn2c_branch2a"
  type: "BatchNorm"
  bottom: "res2c_branch2a"
  top: "res2c_branch2a"
  param {
    name: "bn2c_branch2a_0"
    lr_mult: 0
  }
  param {
    name: "bn2c_branch2a_1"
    lr_mult: 0
  }
  param {
    name: "bn2c_branch2a_2"
    lr_mult: 0
  }
  batch_norm_param {
    use_global_stats: true
  }
}
layer {
  name: "scale2c_branch2a"
  type: "Scale"
  bottom: "res2c_branch2a"
  top: "res2c_branch2a"
  param {
    name: "scale2c_branch2a_0"
    lr_mult: 0
  }
  param {
    name: "scale2c_branch2a_1"
    lr_mult: 0
  }
  scale_param {
    bias_term: true
  }
}
layer {
  name: "res2c_branch2a_relu"
  type: "ReLU"
  bottom: "res2c_branch2a"
  top: "res2c_branch2a"
}
layer {
  name: "res2c_branch2b"
  type: "Convolution"
  bottom: "res2c_branch2a"
  top: "res2c_branch2b"
  param {
    name: "res2c_branch2b_0"
    lr_mult: 1
    decay_mult: 1
  }
  convolution_param {
    num_output: 64
    bias_term: false
    pad: 1
    kernel_size: 3
    stride: 1
  }
}
layer {
  name: "bn2c_branch2b"
  type: "BatchNorm"
  bottom: "res2c_branch2b"
  top: "res2c_branch2b"
  param {
    name: "bn2c_branch2b_0"
    lr_mult: 0
  }
  param {
    name: "bn2c_branch2b_1"
    lr_mult: 0
  }
  param {
    name: "bn2c_branch2b_2"
    lr_mult: 0
  }
  batch_norm_param {
    use_global_stats: true
  }
}
layer {
  name: "scale2c_branch2b"
  type: "Scale"
  bottom: "res2c_branch2b"
  top: "res2c_branch2b"
  param {
    name: "scale2c_branch2b_0"
    lr_mult: 0
  }
  param {
    name: "scale2c_branch2b_1"
    lr_mult: 0
  }
  scale_param {
    bias_term: true
  }
}
layer {
  name: "res2c_branch2b_relu"
  type: "ReLU"
  bottom: "res2c_branch2b"
  top: "res2c_branch2b"
}
layer {
  name: "res2c_branch2c"
  type: "Convolution"
  bottom: "res2c_branch2b"
  top: "res2c_branch2c"
  param {
    name: "res2c_branch2c_0"
    lr_mult: 1
    decay_mult: 1
  }
  convolution_param {
    num_output: 256
    bias_term: false
    pad: 0
    kernel_size: 1
    stride: 1
  }
}
layer {
  name: "bn2c_branch2c"
  type: "BatchNorm"
  bottom: "res2c_branch2c"
  top: "res2c_branch2c"
  param {
    name: "bn2c_branch2c_0"
    lr_mult: 0
  }
  param {
    name: "bn2c_branch2c_1"
    lr_mult: 0
  }
  param {
    name: "bn2c_branch2c_2"
    lr_mult: 0
  }
  batch_norm_param {
    use_global_stats: true
  }
}
layer {
  name: "scale2c_branch2c"
  type: "Scale"
  bottom: "res2c_branch2c"
  top: "res2c_branch2c"
  param {
    name: "scale2c_branch2c_0"
    lr_mult: 0
  }
  param {
    name: "scale2c_branch2c_1"
    lr_mult: 0
  }
  scale_param {
    bias_term: true
  }
}
layer {
  name: "res2c"
  type: "Eltwise"
  bottom: "res2b"
  bottom: "res2c_branch2c"
  top: "res2c"
}
layer {
  name: "res2c_relu"
  type: "ReLU"
  bottom: "res2c"
  top: "res2c"
}
layer {
  name: "res3a_branch1"
  type: "Convolution"
  bottom: "res2c"
  top: "res3a_branch1"
  param {
    name: "res3a_branch1_0"
    lr_mult: 1
    decay_mult: 1
  }
  convolution_param {
    num_output: 512
    bias_term: false
    pad: 0
    kernel_size: 1
    stride: 2
  }
}
layer {
  name: "bn3a_branch1"
  type: "BatchNorm"
  bottom: "res3a_branch1"
  top: "res3a_branch1"
  param {
    name: "bn3a_branch1_0"
    lr_mult: 0
  }
  param {
    name: "bn3a_branch1_1"
    lr_mult: 0
  }
  param {
    name: "bn3a_branch1_2"
    lr_mult: 0
  }
  batch_norm_param {
    use_global_stats: true
  }
}
layer {
  name: "scale3a_branch1"
  type: "Scale"
  bottom: "res3a_branch1"
  top: "res3a_branch1"
  param {
    name: "scale3a_branch1_0"
    lr_mult: 0
  }
  param {
    name: "scale3a_branch1_1"
    lr_mult: 0
  }
  scale_param {
    bias_term: true
  }
}
layer {
  name: "res3a_branch2a"
  type: "Convolution"
  bottom: "res2c"
  top: "res3a_branch2a"
  param {
    name: "res3a_branch2a_0"
    lr_mult: 1
    decay_mult: 1
  }
  convolution_param {
    num_output: 128
    bias_term: false
    pad: 0
    kernel_size: 1
    stride: 2
  }
}
layer {
  name: "bn3a_branch2a"
  type: "BatchNorm"
  bottom: "res3a_branch2a"
  top: "res3a_branch2a"
  param {
    name: "bn3a_branch2a_0"
    lr_mult: 0
  }
  param {
    name: "bn3a_branch2a_1"
    lr_mult: 0
  }
  param {
    name: "bn3a_branch2a_2"
    lr_mult: 0
  }
  batch_norm_param {
    use_global_stats: true
  }
}
layer {
  name: "scale3a_branch2a"
  type: "Scale"
  bottom: "res3a_branch2a"
  top: "res3a_branch2a"
  param {
    name: "scale3a_branch2a_0"
    lr_mult: 0
  }
  param {
    name: "scale3a_branch2a_1"
    lr_mult: 0
  }
  scale_param {
    bias_term: true
  }
}
layer {
  name: "res3a_branch2a_relu"
  type: "ReLU"
  bottom: "res3a_branch2a"
  top: "res3a_branch2a"
}
layer {
  name: "res3a_branch2b"
  type: "Convolution"
  bottom: "res3a_branch2a"
  top: "res3a_branch2b"
  param {
    name: "res3a_branch2b_0"
    lr_mult: 1
    decay_mult: 1
  }
  convolution_param {
    num_output: 128
    bias_term: false
    pad: 1
    kernel_size: 3
    stride: 1
  }
}
layer {
  name: "bn3a_branch2b"
  type: "BatchNorm"
  bottom: "res3a_branch2b"
  top: "res3a_branch2b"
  param {
    name: "bn3a_branch2b_0"
    lr_mult: 0
  }
  param {
    name: "bn3a_branch2b_1"
    lr_mult: 0
  }
  param {
    name: "bn3a_branch2b_2"
    lr_mult: 0
  }
  batch_norm_param {
    use_global_stats: true
  }
}
layer {
  name: "scale3a_branch2b"
  type: "Scale"
  bottom: "res3a_branch2b"
  top: "res3a_branch2b"
  param {
    name: "scale3a_branch2b_0"
    lr_mult: 0
  }
  param {
    name: "scale3a_branch2b_1"
    lr_mult: 0
  }
  scale_param {
    bias_term: true
  }
}
layer {
  name: "res3a_branch2b_relu"
  type: "ReLU"
  bottom: "res3a_branch2b"
  top: "res3a_branch2b"
}
layer {
  name: "res3a_branch2c"
  type: "Convolution"
  bottom: "res3a_branch2b"
  top: "res3a_branch2c"
  param {
    name: "res3a_branch2c_0"
    lr_mult: 1
    decay_mult: 1
  }
  convolution_param {
    num_output: 512
    bias_term: false
    pad: 0
    kernel_size: 1
    stride: 1
  }
}
layer {
  name: "bn3a_branch2c"
  type: "BatchNorm"
  bottom: "res3a_branch2c"
  top: "res3a_branch2c"
  param {
    name: "bn3a_branch2c_0"
    lr_mult: 0
  }
  param {
    name: "bn3a_branch2c_1"
    lr_mult: 0
  }
  param {
    name: "bn3a_branch2c_2"
    lr_mult: 0
  }
  batch_norm_param {
    use_global_stats: true
  }
}
layer {
  name: "scale3a_branch2c"
  type: "Scale"
  bottom: "res3a_branch2c"
  top: "res3a_branch2c"
  param {
    name: "scale3a_branch2c_0"
    lr_mult: 0
  }
  param {
    name: "scale3a_branch2c_1"
    lr_mult: 0
  }
  scale_param {
    bias_term: true
  }
}
layer {
  name: "res3a"
  type: "Eltwise"
  bottom: "res3a_branch1"
  bottom: "res3a_branch2c"
  top: "res3a"
}
layer {
  name: "res3a_relu"
  type: "ReLU"
  bottom: "res3a"
  top: "res3a"
}
layer {
  name: "res3b1_branch2a"
  type: "Convolution"
  bottom: "res3a"
  top: "res3b1_branch2a"
  param {
    name: "res3b1_branch2a_0"
    lr_mult: 1
    decay_mult: 1
  }
  convolution_param {
    num_output: 128
    bias_term: false
    pad: 0
    kernel_size: 1
    stride: 1
  }
}
layer {
  name: "bn3b1_branch2a"
  type: "BatchNorm"
  bottom: "res3b1_branch2a"
  top: "res3b1_branch2a"
  param {
    name: "bn3b1_branch2a_0"
    lr_mult: 0
  }
  param {
    name: "bn3b1_branch2a_1"
    lr_mult: 0
  }
  param {
    name: "bn3b1_branch2a_2"
    lr_mult: 0
  }
  batch_norm_param {
    use_global_stats: true
  }
}
layer {
  name: "scale3b1_branch2a"
  type: "Scale"
  bottom: "res3b1_branch2a"
  top: "res3b1_branch2a"
  param {
    name: "scale3b1_branch2a_0"
    lr_mult: 0
  }
  param {
    name: "scale3b1_branch2a_1"
    lr_mult: 0
  }
  scale_param {
    bias_term: true
  }
}
layer {
  name: "res3b1_branch2a_relu"
  type: "ReLU"
  bottom: "res3b1_branch2a"
  top: "res3b1_branch2a"
}
layer {
  name: "res3b1_branch2b"
  type: "Convolution"
  bottom: "res3b1_branch2a"
  top: "res3b1_branch2b"
  param {
    name: "res3b1_branch2b_0"
    lr_mult: 1
    decay_mult: 1
  }
  convolution_param {
    num_output: 128
    bias_term: false
    pad: 1
    kernel_size: 3
    stride: 1
  }
}
layer {
  name: "bn3b1_branch2b"
  type: "BatchNorm"
  bottom: "res3b1_branch2b"
  top: "res3b1_branch2b"
  param {
    name: "bn3b1_branch2b_0"
    lr_mult: 0
  }
  param {
    name: "bn3b1_branch2b_1"
    lr_mult: 0
  }
  param {
    name: "bn3b1_branch2b_2"
    lr_mult: 0
  }
  batch_norm_param {
    use_global_stats: true
  }
}
layer {
  name: "scale3b1_branch2b"
  type: "Scale"
  bottom: "res3b1_branch2b"
  top: "res3b1_branch2b"
  param {
    name: "scale3b1_branch2b_0"
    lr_mult: 0
  }
  param {
    name: "scale3b1_branch2b_1"
    lr_mult: 0
  }
  scale_param {
    bias_term: true
  }
}
layer {
  name: "res3b1_branch2b_relu"
  type: "ReLU"
  bottom: "res3b1_branch2b"
  top: "res3b1_branch2b"
}
layer {
  name: "res3b1_branch2c"
  type: "Convolution"
  bottom: "res3b1_branch2b"
  top: "res3b1_branch2c"
  param {
    name: "res3b1_branch2c_0"
    lr_mult: 1
    decay_mult: 1
  }
  convolution_param {
    num_output: 512
    bias_term: false
    pad: 0
    kernel_size: 1
    stride: 1
  }
}
layer {
  name: "bn3b1_branch2c"
  type: "BatchNorm"
  bottom: "res3b1_branch2c"
  top: "res3b1_branch2c"
  param {
    name: "bn3b1_branch2c_0"
    lr_mult: 0
  }
  param {
    name: "bn3b1_branch2c_1"
    lr_mult: 0
  }
  param {
    name: "bn3b1_branch2c_2"
    lr_mult: 0
  }
  batch_norm_param {
    use_global_stats: true
  }
}
layer {
  name: "scale3b1_branch2c"
  type: "Scale"
  bottom: "res3b1_branch2c"
  top: "res3b1_branch2c"
  param {
    name: "scale3b1_branch2c_0"
    lr_mult: 0
  }
  param {
    name: "scale3b1_branch2c_1"
    lr_mult: 0
  }
  scale_param {
    bias_term: true
  }
}
layer {
  name: "res3b1"
  type: "Eltwise"
  bottom: "res3a"
  bottom: "res3b1_branch2c"
  top: "res3b1"
}
layer {
  name: "res3b1_relu"
  type: "ReLU"
  bottom: "res3b1"
  top: "res3b1"
}
layer {
  name: "res3b2_branch2a"
  type: "Convolution"
  bottom: "res3b1"
  top: "res3b2_branch2a"
  param {
    name: "res3b2_branch2a_0"
    lr_mult: 1
    decay_mult: 1
  }
  convolution_param {
    num_output: 128
    bias_term: false
    pad: 0
    kernel_size: 1
    stride: 1
  }
}
layer {
  name: "bn3b2_branch2a"
  type: "BatchNorm"
  bottom: "res3b2_branch2a"
  top: "res3b2_branch2a"
  param {
    name: "bn3b2_branch2a_0"
    lr_mult: 0
  }
  param {
    name: "bn3b2_branch2a_1"
    lr_mult: 0
  }
  param {
    name: "bn3b2_branch2a_2"
    lr_mult: 0
  }
  batch_norm_param {
    use_global_stats: true
  }
}
layer {
  name: "scale3b2_branch2a"
  type: "Scale"
  bottom: "res3b2_branch2a"
  top: "res3b2_branch2a"
  param {
    name: "scale3b2_branch2a_0"
    lr_mult: 0
  }
  param {
    name: "scale3b2_branch2a_1"
    lr_mult: 0
  }
  scale_param {
    bias_term: true
  }
}
layer {
  name: "res3b2_branch2a_relu"
  type: "ReLU"
  bottom: "res3b2_branch2a"
  top: "res3b2_branch2a"
}
layer {
  name: "res3b2_branch2b"
  type: "Convolution"
  bottom: "res3b2_branch2a"
  top: "res3b2_branch2b"
  param {
    name: "res3b2_branch2b_0"
    lr_mult: 1
    decay_mult: 1
  }
  convolution_param {
    num_output: 128
    bias_term: false
    pad: 1
    kernel_size: 3
    stride: 1
  }
}
layer {
  name: "bn3b2_branch2b"
  type: "BatchNorm"
  bottom: "res3b2_branch2b"
  top: "res3b2_branch2b"
  param {
    name: "bn3b2_branch2b_0"
    lr_mult: 0
  }
  param {
    name: "bn3b2_branch2b_1"
    lr_mult: 0
  }
  param {
    name: "bn3b2_branch2b_2"
    lr_mult: 0
  }
  batch_norm_param {
    use_global_stats: true
  }
}
layer {
  name: "scale3b2_branch2b"
  type: "Scale"
  bottom: "res3b2_branch2b"
  top: "res3b2_branch2b"
  param {
    name: "scale3b2_branch2b_0"
    lr_mult: 0
  }
  param {
    name: "scale3b2_branch2b_1"
    lr_mult: 0
  }
  scale_param {
    bias_term: true
  }
}
layer {
  name: "res3b2_branch2b_relu"
  type: "ReLU"
  bottom: "res3b2_branch2b"
  top: "res3b2_branch2b"
}
layer {
  name: "res3b2_branch2c"
  type: "Convolution"
  bottom: "res3b2_branch2b"
  top: "res3b2_branch2c"
  param {
    name: "res3b2_branch2c_0"
    lr_mult: 1
    decay_mult: 1
  }
  convolution_param {
    num_output: 512
    bias_term: false
    pad: 0
    kernel_size: 1
    stride: 1
  }
}
layer {
  name: "bn3b2_branch2c"
  type: "BatchNorm"
  bottom: "res3b2_branch2c"
  top: "res3b2_branch2c"
  param {
    name: "bn3b2_branch2c_0"
    lr_mult: 0
  }
  param {
    name: "bn3b2_branch2c_1"
    lr_mult: 0
  }
  param {
    name: "bn3b2_branch2c_2"
    lr_mult: 0
  }
  batch_norm_param {
    use_global_stats: true
  }
}
layer {
  name: "scale3b2_branch2c"
  type: "Scale"
  bottom: "res3b2_branch2c"
  top: "res3b2_branch2c"
  param {
    name: "scale3b2_branch2c_0"
    lr_mult: 0
  }
  param {
    name: "scale3b2_branch2c_1"
    lr_mult: 0
  }
  scale_param {
    bias_term: true
  }
}
layer {
  name: "res3b2"
  type: "Eltwise"
  bottom: "res3b1"
  bottom: "res3b2_branch2c"
  top: "res3b2"
}
layer {
  name: "res3b2_relu"
  type: "ReLU"
  bottom: "res3b2"
  top: "res3b2"
}
layer {
  name: "res3b3_branch2a"
  type: "Convolution"
  bottom: "res3b2"
  top: "res3b3_branch2a"
  param {
    name: "res3b3_branch2a_0"
    lr_mult: 1
    decay_mult: 1
  }
  convolution_param {
    num_output: 128
    bias_term: false
    pad: 0
    kernel_size: 1
    stride: 1
  }
}
layer {
  name: "bn3b3_branch2a"
  type: "BatchNorm"
  bottom: "res3b3_branch2a"
  top: "res3b3_branch2a"
  param {
    name: "bn3b3_branch2a_0"
    lr_mult: 0
  }
  param {
    name: "bn3b3_branch2a_1"
    lr_mult: 0
  }
  param {
    name: "bn3b3_branch2a_2"
    lr_mult: 0
  }
  batch_norm_param {
    use_global_stats: true
  }
}
layer {
  name: "scale3b3_branch2a"
  type: "Scale"
  bottom: "res3b3_branch2a"
  top: "res3b3_branch2a"
  param {
    name: "scale3b3_branch2a_0"
    lr_mult: 0
  }
  param {
    name: "scale3b3_branch2a_1"
    lr_mult: 0
  }
  scale_param {
    bias_term: true
  }
}
layer {
  name: "res3b3_branch2a_relu"
  type: "ReLU"
  bottom: "res3b3_branch2a"
  top: "res3b3_branch2a"
}
layer {
  name: "res3b3_branch2b"
  type: "Convolution"
  bottom: "res3b3_branch2a"
  top: "res3b3_branch2b"
  param {
    name: "res3b3_branch2b_0"
    lr_mult: 1
    decay_mult: 1
  }
  convolution_param {
    num_output: 128
    bias_term: false
    pad: 1
    kernel_size: 3
    stride: 1
  }
}
layer {
  name: "bn3b3_branch2b"
  type: "BatchNorm"
  bottom: "res3b3_branch2b"
  top: "res3b3_branch2b"
  param {
    name: "bn3b3_branch2b_0"
    lr_mult: 0
  }
  param {
    name: "bn3b3_branch2b_1"
    lr_mult: 0
  }
  param {
    name: "bn3b3_branch2b_2"
    lr_mult: 0
  }
  batch_norm_param {
    use_global_stats: true
  }
}
layer {
  name: "scale3b3_branch2b"
  type: "Scale"
  bottom: "res3b3_branch2b"
  top: "res3b3_branch2b"
  param {
    name: "scale3b3_branch2b_0"
    lr_mult: 0
  }
  param {
    name: "scale3b3_branch2b_1"
    lr_mult: 0
  }
  scale_param {
    bias_term: true
  }
}
layer {
  name: "res3b3_branch2b_relu"
  type: "ReLU"
  bottom: "res3b3_branch2b"
  top: "res3b3_branch2b"
}
layer {
  name: "res3b3_branch2c"
  type: "Convolution"
  bottom: "res3b3_branch2b"
  top: "res3b3_branch2c"
  param {
    name: "res3b3_branch2c_0"
    lr_mult: 1
    decay_mult: 1
  }
  convolution_param {
    num_output: 512
    bias_term: false
    pad: 0
    kernel_size: 1
    stride: 1
  }
}
layer {
  name: "bn3b3_branch2c"
  type: "BatchNorm"
  bottom: "res3b3_branch2c"
  top: "res3b3_branch2c"
  param {
    name: "bn3b3_branch2c_0"
    lr_mult: 0
  }
  param {
    name: "bn3b3_branch2c_1"
    lr_mult: 0
  }
  param {
    name: "bn3b3_branch2c_2"
    lr_mult: 0
  }
  batch_norm_param {
    use_global_stats: true
  }
}
layer {
  name: "scale3b3_branch2c"
  type: "Scale"
  bottom: "res3b3_branch2c"
  top: "res3b3_branch2c"
  param {
    name: "scale3b3_branch2c_0"
    lr_mult: 0
  }
  param {
    name: "scale3b3_branch2c_1"
    lr_mult: 0
  }
  scale_param {
    bias_term: true
  }
}
layer {
  name: "res3b3"
  type: "Eltwise"
  bottom: "res3b2"
  bottom: "res3b3_branch2c"
  top: "res3b3"
}
layer {
  name: "res3b3_relu"
  type: "ReLU"
  bottom: "res3b3"
  top: "res3b3"
}
layer {
  name: "res4a_branch1"
  type: "Convolution"
  bottom: "res3b3"
  top: "res4a_branch1"
  param {
    name: "res4a_branch1_0"
    lr_mult: 1
    decay_mult: 1
  }
  convolution_param {
    num_output: 1024
    bias_term: false
    pad: 0
    kernel_size: 1
    stride: 1
  }
}
layer {
  name: "bn4a_branch1"
  type: "BatchNorm"
  bottom: "res4a_branch1"
  top: "res4a_branch1"
  param {
    name: "bn4a_branch1_0"
    lr_mult: 0
  }
  param {
    name: "bn4a_branch1_1"
    lr_mult: 0
  }
  param {
    name: "bn4a_branch1_2"
    lr_mult: 0
  }
  batch_norm_param {
    use_global_stats: true
  }
}
layer {
  name: "scale4a_branch1"
  type: "Scale"
  bottom: "res4a_branch1"
  top: "res4a_branch1"
  param {
    name: "scale4a_branch1_0"
    lr_mult: 0
  }
  param {
    name: "scale4a_branch1_1"
    lr_mult: 0
  }
  scale_param {
    bias_term: true
  }
}
layer {
  name: "res4a_branch2a"
  type: "Convolution"
  bottom: "res3b3"
  top: "res4a_branch2a"
  param {
    name: "res4a_branch2a_0"
    lr_mult: 1
    decay_mult: 1
  }
  convolution_param {
    num_output: 256
    bias_term: false
    pad: 0
    kernel_size: 1
    stride: 1
  }
}
layer {
  name: "bn4a_branch2a"
  type: "BatchNorm"
  bottom: "res4a_branch2a"
  top: "res4a_branch2a"
  param {
    name: "bn4a_branch2a_0"
    lr_mult: 0
  }
  param {
    name: "bn4a_branch2a_1"
    lr_mult: 0
  }
  param {
    name: "bn4a_branch2a_2"
    lr_mult: 0
  }
  batch_norm_param {
    use_global_stats: true
  }
}
layer {
  name: "scale4a_branch2a"
  type: "Scale"
  bottom: "res4a_branch2a"
  top: "res4a_branch2a"
  param {
    name: "scale4a_branch2a_0"
    lr_mult: 0
  }
  param {
    name: "scale4a_branch2a_1"
    lr_mult: 0
  }
  scale_param {
    bias_term: true
  }
}
layer {
  name: "res4a_branch2a_relu"
  type: "ReLU"
  bottom: "res4a_branch2a"
  top: "res4a_branch2a"
}
layer {
  name: "res4a_branch2b"
  type: "Convolution"
  bottom: "res4a_branch2a"
  top: "res4a_branch2b"
  param {
    name: "res4a_branch2b_0"
    lr_mult: 1
    decay_mult: 1
  }
  convolution_param {
    num_output: 256
    bias_term: false
    pad: 2
    kernel_size: 3
    stride: 1
    dilation: 2
  }
}
layer {
  name: "bn4a_branch2b"
  type: "BatchNorm"
  bottom: "res4a_branch2b"
  top: "res4a_branch2b"
  param {
    name: "bn4a_branch2b_0"
    lr_mult: 0
  }
  param {
    name: "bn4a_branch2b_1"
    lr_mult: 0
  }
  param {
    name: "bn4a_branch2b_2"
    lr_mult: 0
  }
  batch_norm_param {
    use_global_stats: true
  }
}
layer {
  name: "scale4a_branch2b"
  type: "Scale"
  bottom: "res4a_branch2b"
  top: "res4a_branch2b"
  param {
    name: "scale4a_branch2b_0"
    lr_mult: 0
  }
  param {
    name: "scale4a_branch2b_1"
    lr_mult: 0
  }
  scale_param {
    bias_term: true
  }
}
layer {
  name: "res4a_branch2b_relu"
  type: "ReLU"
  bottom: "res4a_branch2b"
  top: "res4a_branch2b"
}
layer {
  name: "res4a_branch2c"
  type: "Convolution"
  bottom: "res4a_branch2b"
  top: "res4a_branch2c"
  param {
    name: "res4a_branch2c_0"
    lr_mult: 1
    decay_mult: 1
  }
  convolution_param {
    num_output: 1024
    bias_term: false
    pad: 0
    kernel_size: 1
    stride: 1
  }
}
layer {
  name: "bn4a_branch2c"
  type: "BatchNorm"
  bottom: "res4a_branch2c"
  top: "res4a_branch2c"
  param {
    name: "bn4a_branch2c_0"
    lr_mult: 0
  }
  param {
    name: "bn4a_branch2c_1"
    lr_mult: 0
  }
  param {
    name: "bn4a_branch2c_2"
    lr_mult: 0
  }
  batch_norm_param {
    use_global_stats: true
  }
}
layer {
  name: "scale4a_branch2c"
  type: "Scale"
  bottom: "res4a_branch2c"
  top: "res4a_branch2c"
  param {
    name: "scale4a_branch2c_0"
    lr_mult: 0
  }
  param {
    name: "scale4a_branch2c_1"
    lr_mult: 0
  }
  scale_param {
    bias_term: true
  }
}
layer {
  name: "res4a"
  type: "Eltwise"
  bottom: "res4a_branch1"
  bottom: "res4a_branch2c"
  top: "res4a"
}
layer {
  name: "res4a_relu"
  type: "ReLU"
  bottom: "res4a"
  top: "res4a"
}
layer {
  name: "res4b1_branch2a"
  type: "Convolution"
  bottom: "res4a"
  top: "res4b1_branch2a"
  param {
    name: "res4b1_branch2a_0"
    lr_mult: 1
    decay_mult: 1
  }
  convolution_param {
    num_output: 256
    bias_term: false
    pad: 0
    kernel_size: 1
    stride: 1
  }
}
layer {
  name: "bn4b1_branch2a"
  type: "BatchNorm"
  bottom: "res4b1_branch2a"
  top: "res4b1_branch2a"
  param {
    name: "bn4b1_branch2a_0"
    lr_mult: 0
  }
  param {
    name: "bn4b1_branch2a_1"
    lr_mult: 0
  }
  param {
    name: "bn4b1_branch2a_2"
    lr_mult: 0
  }
  batch_norm_param {
    use_global_stats: true
  }
}
layer {
  name: "scale4b1_branch2a"
  type: "Scale"
  bottom: "res4b1_branch2a"
  top: "res4b1_branch2a"
  param {
    name: "scale4b1_branch2a_0"
    lr_mult: 0
  }
  param {
    name: "scale4b1_branch2a_1"
    lr_mult: 0
  }
  scale_param {
    bias_term: true
  }
}
layer {
  name: "res4b1_branch2a_relu"
  type: "ReLU"
  bottom: "res4b1_branch2a"
  top: "res4b1_branch2a"
}
layer {
  name: "res4b1_branch2b"
  type: "Convolution"
  bottom: "res4b1_branch2a"
  top: "res4b1_branch2b"
  param {
    name: "res4b1_branch2b_0"
    lr_mult: 1
    decay_mult: 1
  }
  convolution_param {
    num_output: 256
    bias_term
I0718 19:46:15.935008 20478 layer_factory.hpp:77] Creating layer data
I0718 19:46:15.935072 20478 net.cpp:100] Creating Layer data
I0718 19:46:15.935088 20478 net.cpp:418] data -> data
I0718 19:46:15.935127 20478 net.cpp:418] data -> label
I0718 19:46:15.935597 20478 image_seg_data_layer.cpp:45] Opening file data/VOC_arg/train.txt
I0718 19:46:15.956087 20478 image_seg_data_layer.cpp:101] Shuffling data
I0718 19:46:15.956362 20478 image_seg_data_layer.cpp:106] A total of 10582 images.
I0718 19:46:15.975311 20478 image_seg_data_layer.cpp:179] output data size: 1,3,480,480
I0718 19:46:15.975353 20478 image_seg_data_layer.cpp:183] output label size: 1,1,480,480
I0718 19:46:15.986038 20478 net.cpp:150] Setting up data
I0718 19:46:15.986222 20478 net.cpp:157] Top shape: 1 3 480 480 (691200)
I0718 19:46:15.986261 20478 net.cpp:157] Top shape: 1 1 480 480 (230400)
I0718 19:46:15.986269 20478 net.cpp:165] Memory required for data: 3686400
I0718 19:46:15.986287 20478 layer_factory.hpp:77] Creating layer conv1
I0718 19:46:15.986335 20478 net.cpp:100] Creating Layer conv1
I0718 19:46:15.986352 20478 net.cpp:444] conv1 <- data
I0718 19:46:15.986380 20478 net.cpp:418] conv1 -> conv1
I0718 19:46:15.987514 20478 net.cpp:150] Setting up conv1
I0718 19:46:15.987534 20478 net.cpp:157] Top shape: 1 64 240 240 (3686400)
I0718 19:46:15.987542 20478 net.cpp:165] Memory required for data: 18432000
I0718 19:46:15.987561 20478 layer_factory.hpp:77] Creating layer bn_conv1
I0718 19:46:15.987586 20478 net.cpp:100] Creating Layer bn_conv1
I0718 19:46:15.987594 20478 net.cpp:444] bn_conv1 <- conv1
I0718 19:46:15.987607 20478 net.cpp:405] bn_conv1 -> conv1 (in-place)
I0718 19:46:15.989480 20478 net.cpp:150] Setting up bn_conv1
I0718 19:46:15.989506 20478 net.cpp:157] Top shape: 1 64 240 240 (3686400)
I0718 19:46:15.989514 20478 net.cpp:165] Memory required for data: 33177600
I0718 19:46:15.989533 20478 layer_factory.hpp:77] Creating layer scale_conv1
I0718 19:46:15.989559 20478 net.cpp:100] Creating Layer scale_conv1
I0718 19:46:15.989567 20478 net.cpp:444] scale_conv1 <- conv1
I0718 19:46:15.989625 20478 net.cpp:405] scale_conv1 -> conv1 (in-place)
I0718 19:46:15.989696 20478 layer_factory.hpp:77] Creating layer scale_conv1
I0718 19:46:15.989938 20478 net.cpp:150] Setting up scale_conv1
I0718 19:46:15.989956 20478 net.cpp:157] Top shape: 1 64 240 240 (3686400)
I0718 19:46:15.989964 20478 net.cpp:165] Memory required for data: 47923200
I0718 19:46:15.989977 20478 layer_factory.hpp:77] Creating layer conv1_relu
I0718 19:46:15.989997 20478 net.cpp:100] Creating Layer conv1_relu
I0718 19:46:15.990005 20478 net.cpp:444] conv1_relu <- conv1
I0718 19:46:15.990015 20478 net.cpp:405] conv1_relu -> conv1 (in-place)
I0718 19:46:15.990031 20478 net.cpp:150] Setting up conv1_relu
I0718 19:46:15.990042 20478 net.cpp:157] Top shape: 1 64 240 240 (3686400)
I0718 19:46:15.990049 20478 net.cpp:165] Memory required for data: 62668800
I0718 19:46:15.990056 20478 layer_factory.hpp:77] Creating layer pool1
I0718 19:46:15.990070 20478 net.cpp:100] Creating Layer pool1
I0718 19:46:15.990079 20478 net.cpp:444] pool1 <- conv1
I0718 19:46:15.990092 20478 net.cpp:418] pool1 -> pool1
I0718 19:46:15.990162 20478 net.cpp:150] Setting up pool1
I0718 19:46:15.990177 20478 net.cpp:157] Top shape: 1 64 120 120 (921600)
I0718 19:46:15.990185 20478 net.cpp:165] Memory required for data: 66355200
I0718 19:46:15.990191 20478 layer_factory.hpp:77] Creating layer pool1_pool1_0_split
I0718 19:46:15.990206 20478 net.cpp:100] Creating Layer pool1_pool1_0_split
I0718 19:46:15.990213 20478 net.cpp:444] pool1_pool1_0_split <- pool1
I0718 19:46:15.990226 20478 net.cpp:418] pool1_pool1_0_split -> pool1_pool1_0_split_0
I0718 19:46:15.990239 20478 net.cpp:418] pool1_pool1_0_split -> pool1_pool1_0_split_1
I0718 19:46:15.990288 20478 net.cpp:150] Setting up pool1_pool1_0_split
I0718 19:46:15.990303 20478 net.cpp:157] Top shape: 1 64 120 120 (921600)
I0718 19:46:15.990311 20478 net.cpp:157] Top shape: 1 64 120 120 (921600)
I0718 19:46:15.990317 20478 net.cpp:165] Memory required for data: 73728000
I0718 19:46:15.990324 20478 layer_factory.hpp:77] Creating layer res2a_branch1
I0718 19:46:15.990342 20478 net.cpp:100] Creating Layer res2a_branch1
I0718 19:46:15.990351 20478 net.cpp:444] res2a_branch1 <- pool1_pool1_0_split_0
I0718 19:46:15.990365 20478 net.cpp:418] res2a_branch1 -> res2a_branch1
I0718 19:46:15.990578 20478 net.cpp:150] Setting up res2a_branch1
I0718 19:46:15.990594 20478 net.cpp:157] Top shape: 1 256 120 120 (3686400)
I0718 19:46:15.990602 20478 net.cpp:165] Memory required for data: 88473600
I0718 19:46:15.990610 20478 layer_factory.hpp:77] Creating layer bn2a_branch1
I0718 19:46:15.990628 20478 net.cpp:100] Creating Layer bn2a_branch1
I0718 19:46:15.990636 20478 net.cpp:444] bn2a_branch1 <- res2a_branch1
I0718 19:46:15.990648 20478 net.cpp:405] bn2a_branch1 -> res2a_branch1 (in-place)
I0718 19:46:15.990854 20478 net.cpp:150] Setting up bn2a_branch1
I0718 19:46:15.990869 20478 net.cpp:157] Top shape: 1 256 120 120 (3686400)
I0718 19:46:15.990875 20478 net.cpp:165] Memory required for data: 103219200
I0718 19:46:15.990892 20478 layer_factory.hpp:77] Creating layer scale2a_branch1
I0718 19:46:15.990911 20478 net.cpp:100] Creating Layer scale2a_branch1
I0718 19:46:15.990921 20478 net.cpp:444] scale2a_branch1 <- res2a_branch1
I0718 19:46:15.990933 20478 net.cpp:405] scale2a_branch1 -> res2a_branch1 (in-place)
I0718 19:46:15.990988 20478 layer_factory.hpp:77] Creating layer scale2a_branch1
I0718 19:46:15.991145 20478 net.cpp:150] Setting up scale2a_branch1
I0718 19:46:15.991161 20478 net.cpp:157] Top shape: 1 256 120 120 (3686400)
I0718 19:46:15.991168 20478 net.cpp:165] Memory required for data: 117964800
I0718 19:46:15.991180 20478 layer_factory.hpp:77] Creating layer res2a_branch2a
I0718 19:46:15.991199 20478 net.cpp:100] Creating Layer res2a_branch2a
I0718 19:46:15.991209 20478 net.cpp:444] res2a_branch2a <- pool1_pool1_0_split_1
I0718 19:46:15.991221 20478 net.cpp:418] res2a_branch2a -> res2a_branch2a
I0718 19:46:15.992136 20478 net.cpp:150] Setting up res2a_branch2a
I0718 19:46:15.992158 20478 net.cpp:157] Top shape: 1 64 120 120 (921600)
I0718 19:46:15.992182 20478 net.cpp:165] Memory required for data: 121651200
I0718 19:46:15.992194 20478 layer_factory.hpp:77] Creating layer bn2a_branch2a
I0718 19:46:15.992211 20478 net.cpp:100] Creating Layer bn2a_branch2a
I0718 19:46:15.992220 20478 net.cpp:444] bn2a_branch2a <- res2a_branch2a
I0718 19:46:15.992233 20478 net.cpp:405] bn2a_branch2a -> res2a_branch2a (in-place)
I0718 19:46:15.992451 20478 net.cpp:150] Setting up bn2a_branch2a
I0718 19:46:15.992466 20478 net.cpp:157] Top shape: 1 64 120 120 (921600)
I0718 19:46:15.992473 20478 net.cpp:165] Memory required for data: 125337600
I0718 19:46:15.992486 20478 layer_factory.hpp:77] Creating layer scale2a_branch2a
I0718 19:46:15.992501 20478 net.cpp:100] Creating Layer scale2a_branch2a
I0718 19:46:15.992509 20478 net.cpp:444] scale2a_branch2a <- res2a_branch2a
I0718 19:46:15.992521 20478 net.cpp:405] scale2a_branch2a -> res2a_branch2a (in-place)
I0718 19:46:15.992570 20478 layer_factory.hpp:77] Creating layer scale2a_branch2a
I0718 19:46:15.992750 20478 net.cpp:150] Setting up scale2a_branch2a
I0718 19:46:15.992768 20478 net.cpp:157] Top shape: 1 64 120 120 (921600)
I0718 19:46:15.992782 20478 net.cpp:165] Memory required for data: 129024000
I0718 19:46:15.992800 20478 layer_factory.hpp:77] Creating layer res2a_branch2a_relu
I0718 19:46:15.992815 20478 net.cpp:100] Creating Layer res2a_branch2a_relu
I0718 19:46:15.992821 20478 net.cpp:444] res2a_branch2a_relu <- res2a_branch2a
I0718 19:46:15.992832 20478 net.cpp:405] res2a_branch2a_relu -> res2a_branch2a (in-place)
I0718 19:46:15.992846 20478 net.cpp:150] Setting up res2a_branch2a_relu
I0718 19:46:15.992854 20478 net.cpp:157] Top shape: 1 64 120 120 (921600)
I0718 19:46:15.992861 20478 net.cpp:165] Memory required for data: 132710400
I0718 19:46:15.992867 20478 layer_factory.hpp:77] Creating layer res2a_branch2b
I0718 19:46:15.992882 20478 net.cpp:100] Creating Layer res2a_branch2b
I0718 19:46:15.992892 20478 net.cpp:444] res2a_branch2b <- res2a_branch2a
I0718 19:46:15.992904 20478 net.cpp:418] res2a_branch2b -> res2a_branch2b
I0718 19:46:15.993126 20478 net.cpp:150] Setting up res2a_branch2b
I0718 19:46:15.993144 20478 net.cpp:157] Top shape: 1 64 120 120 (921600)
I0718 19:46:15.993150 20478 net.cpp:165] Memory required for data: 136396800
I0718 19:46:15.993160 20478 layer_factory.hpp:77] Creating layer bn2a_branch2b
I0718 19:46:15.993176 20478 net.cpp:100] Creating Layer bn2a_branch2b
I0718 19:46:15.993185 20478 net.cpp:444] bn2a_branch2b <- res2a_branch2b
I0718 19:46:15.993196 20478 net.cpp:405] bn2a_branch2b -> res2a_branch2b (in-place)
I0718 19:46:15.993415 20478 net.cpp:150] Setting up bn2a_branch2b
I0718 19:46:15.993430 20478 net.cpp:157] Top shape: 1 64 120 120 (921600)
I0718 19:46:15.993438 20478 net.cpp:165] Memory required for data: 140083200
I0718 19:46:15.993449 20478 layer_factory.hpp:77] Creating layer scale2a_branch2b
I0718 19:46:15.993468 20478 net.cpp:100] Creating Layer scale2a_branch2b
I0718 19:46:15.993475 20478 net.cpp:444] scale2a_branch2b <- res2a_branch2b
I0718 19:46:15.993485 20478 net.cpp:405] scale2a_branch2b -> res2a_branch2b (in-place)
I0718 19:46:15.993537 20478 layer_factory.hpp:77] Creating layer scale2a_branch2b
I0718 19:46:15.993701 20478 net.cpp:150] Setting up scale2a_branch2b
I0718 19:46:15.993718 20478 net.cpp:157] Top shape: 1 64 120 120 (921600)
I0718 19:46:15.993724 20478 net.cpp:165] Memory required for data: 143769600
I0718 19:46:15.993736 20478 layer_factory.hpp:77] Creating layer res2a_branch2b_relu
I0718 19:46:15.993747 20478 net.cpp:100] Creating Layer res2a_branch2b_relu
I0718 19:46:15.993757 20478 net.cpp:444] res2a_branch2b_relu <- res2a_branch2b
I0718 19:46:15.993767 20478 net.cpp:405] res2a_branch2b_relu -> res2a_branch2b (in-place)
I0718 19:46:15.993777 20478 net.cpp:150] Setting up res2a_branch2b_relu
I0718 19:46:15.993787 20478 net.cpp:157] Top shape: 1 64 120 120 (921600)
I0718 19:46:15.993793 20478 net.cpp:165] Memory required for data: 147456000
I0718 19:46:15.993799 20478 layer_factory.hpp:77] Creating layer res2a_branch2c
I0718 19:46:15.993814 20478 net.cpp:100] Creating Layer res2a_branch2c
I0718 19:46:15.993839 20478 net.cpp:444] res2a_branch2c <- res2a_branch2b
I0718 19:46:15.993852 20478 net.cpp:418] res2a_branch2c -> res2a_branch2c
I0718 19:46:15.994062 20478 net.cpp:150] Setting up res2a_branch2c
I0718 19:46:15.994078 20478 net.cpp:157] Top shape: 1 256 120 120 (3686400)
I0718 19:46:15.994086 20478 net.cpp:165] Memory required for data: 162201600
I0718 19:46:15.994094 20478 layer_factory.hpp:77] Creating layer bn2a_branch2c
I0718 19:46:15.994109 20478 net.cpp:100] Creating Layer bn2a_branch2c
I0718 19:46:15.994117 20478 net.cpp:444] bn2a_branch2c <- res2a_branch2c
I0718 19:46:15.994127 20478 net.cpp:405] bn2a_branch2c -> res2a_branch2c (in-place)
I0718 19:46:15.994330 20478 net.cpp:150] Setting up bn2a_branch2c
I0718 19:46:15.994345 20478 net.cpp:157] Top shape: 1 256 120 120 (3686400)
I0718 19:46:15.994352 20478 net.cpp:165] Memory required for data: 176947200
I0718 19:46:15.994364 20478 layer_factory.hpp:77] Creating layer scale2a_branch2c
I0718 19:46:15.994380 20478 net.cpp:100] Creating Layer scale2a_branch2c
I0718 19:46:15.994387 20478 net.cpp:444] scale2a_branch2c <- res2a_branch2c
I0718 19:46:15.994397 20478 net.cpp:405] scale2a_branch2c -> res2a_branch2c (in-place)
I0718 19:46:15.994447 20478 layer_factory.hpp:77] Creating layer scale2a_branch2c
I0718 19:46:15.994606 20478 net.cpp:150] Setting up scale2a_branch2c
I0718 19:46:15.994622 20478 net.cpp:157] Top shape: 1 256 120 120 (3686400)
I0718 19:46:15.994628 20478 net.cpp:165] Memory required for data: 191692800
I0718 19:46:15.994639 20478 layer_factory.hpp:77] Creating layer res2a
I0718 19:46:15.994657 20478 net.cpp:100] Creating Layer res2a
I0718 19:46:15.994665 20478 net.cpp:444] res2a <- res2a_branch1
I0718 19:46:15.994673 20478 net.cpp:444] res2a <- res2a_branch2c
I0718 19:46:15.994683 20478 net.cpp:418] res2a -> res2a
I0718 19:46:15.994726 20478 net.cpp:150] Setting up res2a
I0718 19:46:15.994740 20478 net.cpp:157] Top shape: 1 256 120 120 (3686400)
I0718 19:46:15.994747 20478 net.cpp:165] Memory required for data: 206438400
I0718 19:46:15.994753 20478 layer_factory.hpp:77] Creating layer res2a_relu
I0718 19:46:15.994766 20478 net.cpp:100] Creating Layer res2a_relu
I0718 19:46:15.994773 20478 net.cpp:444] res2a_relu <- res2a
I0718 19:46:15.994783 20478 net.cpp:405] res2a_relu -> res2a (in-place)
I0718 19:46:15.994793 20478 net.cpp:150] Setting up res2a_relu
I0718 19:46:15.994802 20478 net.cpp:157] Top shape: 1 256 120 120 (3686400)
I0718 19:46:15.994809 20478 net.cpp:165] Memory required for data: 221184000
I0718 19:46:15.994815 20478 layer_factory.hpp:77] Creating layer res2a_res2a_relu_0_split
I0718 19:46:15.994825 20478 net.cpp:100] Creating Layer res2a_res2a_relu_0_split
I0718 19:46:15.994832 20478 net.cpp:444] res2a_res2a_relu_0_split <- res2a
I0718 19:46:15.994843 20478 net.cpp:418] res2a_res2a_relu_0_split -> res2a_res2a_relu_0_split_0
I0718 19:46:15.994854 20478 net.cpp:418] res2a_res2a_relu_0_split -> res2a_res2a_relu_0_split_1
I0718 19:46:15.994900 20478 net.cpp:150] Setting up res2a_res2a_relu_0_split
I0718 19:46:15.994913 20478 net.cpp:157] Top shape: 1 256 120 120 (3686400)
I0718 19:46:15.994921 20478 net.cpp:157] Top shape: 1 256 120 120 (3686400)
I0718 19:46:15.994928 20478 net.cpp:165] Memory required for data: 250675200
I0718 19:46:15.994935 20478 layer_factory.hpp:77] Creating layer res2b_branch2a
I0718 19:46:15.994949 20478 net.cpp:100] Creating Layer res2b_branch2a
I0718 19:46:15.994956 20478 net.cpp:444] res2b_branch2a <- res2a_res2a_relu_0_split_0
I0718 19:46:15.994967 20478 net.cpp:418] res2b_branch2a -> res2b_branch2a
I0718 19:46:15.995177 20478 net.cpp:150] Setting up res2b_branch2a
I0718 19:46:15.995192 20478 net.cpp:157] Top shape: 1 64 120 120 (921600)
I0718 19:46:15.995198 20478 net.cpp:165] Memory required for data: 254361600
I0718 19:46:15.995208 20478 layer_factory.hpp:77] Creating layer bn2b_branch2a
I0718 19:46:15.995220 20478 net.cpp:100] Creating Layer bn2b_branch2a
I0718 19:46:15.995228 20478 net.cpp:444] bn2b_branch2a <- res2b_branch2a
I0718 19:46:15.995255 20478 net.cpp:405] bn2b_branch2a -> res2b_branch2a (in-place)
I0718 19:46:15.995472 20478 net.cpp:150] Setting up bn2b_branch2a
I0718 19:46:15.995487 20478 net.cpp:157] Top shape: 1 64 120 120 (921600)
I0718 19:46:15.995494 20478 net.cpp:165] Memory required for data: 258048000
I0718 19:46:15.995513 20478 layer_factory.hpp:77] Creating layer scale2b_branch2a
I0718 19:46:15.995529 20478 net.cpp:100] Creating Layer scale2b_branch2a
I0718 19:46:15.995538 20478 net.cpp:444] scale2b_branch2a <- res2b_branch2a
I0718 19:46:15.995550 20478 net.cpp:405] scale2b_branch2a -> res2b_branch2a (in-place)
I0718 19:46:15.995604 20478 layer_factory.hpp:77] Creating layer scale2b_branch2a
I0718 19:46:15.996543 20478 net.cpp:150] Setting up scale2b_branch2a
I0718 19:46:15.996563 20478 net.cpp:157] Top shape: 1 64 120 120 (921600)
I0718 19:46:15.996570 20478 net.cpp:165] Memory required for data: 261734400
I0718 19:46:15.996582 20478 layer_factory.hpp:77] Creating layer res2b_branch2a_relu
I0718 19:46:15.996595 20478 net.cpp:100] Creating Layer res2b_branch2a_relu
I0718 19:46:15.996603 20478 net.cpp:444] res2b_branch2a_relu <- res2b_branch2a
I0718 19:46:15.996614 20478 net.cpp:405] res2b_branch2a_relu -> res2b_branch2a (in-place)
I0718 19:46:15.996625 20478 net.cpp:150] Setting up res2b_branch2a_relu
I0718 19:46:15.996634 20478 net.cpp:157] Top shape: 1 64 120 120 (921600)
I0718 19:46:15.996640 20478 net.cpp:165] Memory required for data: 265420800
I0718 19:46:15.996647 20478 layer_factory.hpp:77] Creating layer res2b_branch2b
I0718 19:46:15.996662 20478 net.cpp:100] Creating Layer res2b_branch2b
I0718 19:46:15.996670 20478 net.cpp:444] res2b_branch2b <- res2b_branch2a
I0718 19:46:15.996685 20478 net.cpp:418] res2b_branch2b -> res2b_branch2b
I0718 19:46:15.996953 20478 net.cpp:150] Setting up res2b_branch2b
I0718 19:46:15.996974 20478 net.cpp:157] Top shape: 1 64 120 120 (921600)
I0718 19:46:15.996981 20478 net.cpp:165] Memory required for data: 269107200
I0718 19:46:15.996991 20478 layer_factory.hpp:77] Creating layer bn2b_branch2b
I0718 19:46:15.997007 20478 net.cpp:100] Creating Layer bn2b_branch2b
I0718 19:46:15.997014 20478 net.cpp:444] bn2b_branch2b <- res2b_branch2b
I0718 19:46:15.997026 20478 net.cpp:405] bn2b_branch2b -> res2b_branch2b (in-place)
I0718 19:46:15.997267 20478 net.cpp:150] Setting up bn2b_branch2b
I0718 19:46:15.997282 20478 net.cpp:157] Top shape: 1 64 120 120 (921600)
I0718 19:46:15.997289 20478 net.cpp:165] Memory required for data: 272793600
I0718 19:46:15.997303 20478 layer_factory.hpp:77] Creating layer scale2b_branch2b
I0718 19:46:15.997316 20478 net.cpp:100] Creating Layer scale2b_branch2b
I0718 19:46:15.997328 20478 net.cpp:444] scale2b_branch2b <- res2b_branch2b
I0718 19:46:15.997339 20478 net.cpp:405] scale2b_branch2b -> res2b_branch2b (in-place)
I0718 19:46:15.997393 20478 layer_factory.hpp:77] Creating layer scale2b_branch2b
I0718 19:46:15.997582 20478 net.cpp:150] Setting up scale2b_branch2b
I0718 19:46:15.997601 20478 net.cpp:157] Top shape: 1 64 120 120 (921600)
I0718 19:46:15.997607 20478 net.cpp:165] Memory required for data: 276480000
I0718 19:46:15.997619 20478 layer_factory.hpp:77] Creating layer res2b_branch2b_relu
I0718 19:46:15.997630 20478 net.cpp:100] Creating Layer res2b_branch2b_relu
I0718 19:46:15.997637 20478 net.cpp:444] res2b_branch2b_relu <- res2b_branch2b
I0718 19:46:15.997647 20478 net.cpp:405] res2b_branch2b_relu -> res2b_branch2b (in-place)
I0718 19:46:15.997658 20478 net.cpp:150] Setting up res2b_branch2b_relu
I0718 19:46:15.997668 20478 net.cpp:157] Top shape: 1 64 120 120 (921600)
I0718 19:46:15.997673 20478 net.cpp:165] Memory required for data: 280166400
I0718 19:46:15.997684 20478 layer_factory.hpp:77] Creating layer res2b_branch2c
I0718 19:46:15.997709 20478 net.cpp:100] Creating Layer res2b_branch2c
I0718 19:46:15.997717 20478 net.cpp:444] res2b_branch2c <- res2b_branch2b
I0718 19:46:15.997728 20478 net.cpp:418] res2b_branch2c -> res2b_branch2c
I0718 19:46:15.997964 20478 net.cpp:150] Setting up res2b_branch2c
I0718 19:46:15.997980 20478 net.cpp:157] Top shape: 1 256 120 120 (3686400)
I0718 19:46:15.998005 20478 net.cpp:165] Memory required for data: 294912000
I0718 19:46:15.998016 20478 layer_factory.hpp:77] Creating layer bn2b_branch2c
I0718 19:46:15.998033 20478 net.cpp:100] Creating Layer bn2b_branch2c
I0718 19:46:15.998040 20478 net.cpp:444] bn2b_branch2c <- res2b_branch2c
I0718 19:46:15.998050 20478 net.cpp:405] bn2b_branch2c -> res2b_branch2c (in-place)
I0718 19:46:15.998301 20478 net.cpp:150] Setting up bn2b_branch2c
I0718 19:46:15.998317 20478 net.cpp:157] Top shape: 1 256 120 120 (3686400)
I0718 19:46:15.998323 20478 net.cpp:165] Memory required for data: 309657600
I0718 19:46:15.998337 20478 layer_factory.hpp:77] Creating layer scale2b_branch2c
I0718 19:46:15.998354 20478 net.cpp:100] Creating Layer scale2b_branch2c
I0718 19:46:15.998363 20478 net.cpp:444] scale2b_branch2c <- res2b_branch2c
I0718 19:46:15.998373 20478 net.cpp:405] scale2b_branch2c -> res2b_branch2c (in-place)
I0718 19:46:15.998426 20478 layer_factory.hpp:77] Creating layer scale2b_branch2c
I0718 19:46:15.998586 20478 net.cpp:150] Setting up scale2b_branch2c
I0718 19:46:15.998602 20478 net.cpp:157] Top shape: 1 256 120 120 (3686400)
I0718 19:46:15.998610 20478 net.cpp:165] Memory required for data: 324403200
I0718 19:46:15.998620 20478 layer_factory.hpp:77] Creating layer res2b
I0718 19:46:15.998636 20478 net.cpp:100] Creating Layer res2b
I0718 19:46:15.998644 20478 net.cpp:444] res2b <- res2a_res2a_relu_0_split_1
I0718 19:46:15.998653 20478 net.cpp:444] res2b <- res2b_branch2c
I0718 19:46:15.998662 20478 net.cpp:418] res2b -> res2b
I0718 19:46:15.998700 20478 net.cpp:150] Setting up res2b
I0718 19:46:15.998715 20478 net.cpp:157] Top shape: 1 256 120 120 (3686400)
I0718 19:46:15.998723 20478 net.cpp:165] Memory required for data: 339148800
I0718 19:46:15.998729 20478 layer_factory.hpp:77] Creating layer res2b_relu
I0718 19:46:15.998744 20478 net.cpp:100] Creating Layer res2b_relu
I0718 19:46:15.998752 20478 net.cpp:444] res2b_relu <- res2b
I0718 19:46:15.998761 20478 net.cpp:405] res2b_relu -> res2b (in-place)
I0718 19:46:15.998771 20478 net.cpp:150] Setting up res2b_relu
I0718 19:46:15.998780 20478 net.cpp:157] Top shape: 1 256 120 120 (3686400)
I0718 19:46:15.998787 20478 net.cpp:165] Memory required for data: 353894400
I0718 19:46:15.998793 20478 layer_factory.hpp:77] Creating layer res2b_res2b_relu_0_split
I0718 19:46:15.998805 20478 net.cpp:100] Creating Layer res2b_res2b_relu_0_split
I0718 19:46:15.998811 20478 net.cpp:444] res2b_res2b_relu_0_split <- res2b
I0718 19:46:15.998819 20478 net.cpp:418] res2b_res2b_relu_0_split -> res2b_res2b_relu_0_split_0
I0718 19:46:15.998829 20478 net.cpp:418] res2b_res2b_relu_0_split -> res2b_res2b_relu_0_split_1
I0718 19:46:15.998875 20478 net.cpp:150] Setting up res2b_res2b_relu_0_split
I0718 19:46:15.998888 20478 net.cpp:157] Top shape: 1 256 120 120 (3686400)
I0718 19:46:15.998898 20478 net.cpp:157] Top shape: 1 256 120 120 (3686400)
I0718 19:46:15.998903 20478 net.cpp:165] Memory required for data: 383385600
I0718 19:46:15.998910 20478 layer_factory.hpp:77] Creating layer res2c_branch2a
I0718 19:46:15.998924 20478 net.cpp:100] Creating Layer res2c_branch2a
I0718 19:46:15.998931 20478 net.cpp:444] res2c_branch2a <- res2b_res2b_relu_0_split_0
I0718 19:46:15.998944 20478 net.cpp:418] res2c_branch2a -> res2c_branch2a
I0718 19:46:15.999157 20478 net.cpp:150] Setting up res2c_branch2a
I0718 19:46:15.999173 20478 net.cpp:157] Top shape: 1 64 120 120 (921600)
I0718 19:46:15.999181 20478 net.cpp:165] Memory required for data: 387072000
I0718 19:46:15.999191 20478 layer_factory.hpp:77] Creating layer bn2c_branch2a
I0718 19:46:15.999207 20478 net.cpp:100] Creating Layer bn2c_branch2a
I0718 19:46:15.999214 20478 net.cpp:444] bn2c_branch2a <- res2c_branch2a
I0718 19:46:15.999224 20478 net.cpp:405] bn2c_branch2a -> res2c_branch2a (in-place)
I0718 19:46:15.999452 20478 net.cpp:150] Setting up bn2c_branch2a
I0718 19:46:15.999467 20478 net.cpp:157] Top shape: 1 64 120 120 (921600)
I0718 19:46:15.999474 20478 net.cpp:165] Memory required for data: 390758400
I0718 19:46:15.999485 20478 layer_factory.hpp:77] Creating layer scale2c_branch2a
I0718 19:46:15.999516 20478 net.cpp:100] Creating Layer scale2c_branch2a
I0718 19:46:15.999526 20478 net.cpp:444] scale2c_branch2a <- res2c_branch2a
I0718 19:46:15.999538 20478 net.cpp:405] scale2c_branch2a -> res2c_branch2a (in-place)
I0718 19:46:15.999594 20478 layer_factory.hpp:77] Creating layer scale2c_branch2a
I0718 19:46:15.999763 20478 net.cpp:150] Setting up scale2c_branch2a
I0718 19:46:15.999778 20478 net.cpp:157] Top shape: 1 64 120 120 (921600)
I0718 19:46:15.999785 20478 net.cpp:165] Memory required for data: 394444800
I0718 19:46:15.999796 20478 layer_factory.hpp:77] Creating layer res2c_branch2a_relu
I0718 19:46:15.999809 20478 net.cpp:100] Creating Layer res2c_branch2a_relu
I0718 19:46:15.999819 20478 net.cpp:444] res2c_branch2a_relu <- res2c_branch2a
I0718 19:46:15.999827 20478 net.cpp:405] res2c_branch2a_relu -> res2c_branch2a (in-place)
I0718 19:46:15.999838 20478 net.cpp:150] Setting up res2c_branch2a_relu
I0718 19:46:15.999847 20478 net.cpp:157] Top shape: 1 64 120 120 (921600)
I0718 19:46:15.999853 20478 net.cpp:165] Memory required for data: 398131200
I0718 19:46:15.999861 20478 layer_factory.hpp:77] Creating layer res2c_branch2b
I0718 19:46:15.999876 20478 net.cpp:100] Creating Layer res2c_branch2b
I0718 19:46:15.999884 20478 net.cpp:444] res2c_branch2b <- res2c_branch2a
I0718 19:46:15.999894 20478 net.cpp:418] res2c_branch2b -> res2c_branch2b
I0718 19:46:16.000915 20478 net.cpp:150] Setting up res2c_branch2b
I0718 19:46:16.000937 20478 net.cpp:157] Top shape: 1 64 120 120 (921600)
I0718 19:46:16.000946 20478 net.cpp:165] Memory required for data: 401817600
I0718 19:46:16.000957 20478 layer_factory.hpp:77] Creating layer bn2c_branch2b
I0718 19:46:16.000972 20478 net.cpp:100] Creating Layer bn2c_branch2b
I0718 19:46:16.000982 20478 net.cpp:444] bn2c_branch2b <- res2c_branch2b
I0718 19:46:16.000990 20478 net.cpp:405] bn2c_branch2b -> res2c_branch2b (in-place)
I0718 19:46:16.001438 20478 net.cpp:150] Setting up bn2c_branch2b
I0718 19:46:16.001464 20478 net.cpp:157] Top shape: 1 64 120 120 (921600)
I0718 19:46:16.001474 20478 net.cpp:165] Memory required for data: 405504000
I0718 19:46:16.001490 20478 layer_factory.hpp:77] Creating layer scale2c_branch2b
I0718 19:46:16.001507 20478 net.cpp:100] Creating Layer scale2c_branch2b
I0718 19:46:16.001515 20478 net.cpp:444] scale2c_branch2b <- res2c_branch2b
I0718 19:46:16.001528 20478 net.cpp:405] scale2c_branch2b -> res2c_branch2b (in-place)
I0718 19:46:16.001590 20478 layer_factory.hpp:77] Creating layer scale2c_branch2b
I0718 19:46:16.001775 20478 net.cpp:150] Setting up scale2c_branch2b
I0718 19:46:16.001791 20478 net.cpp:157] Top shape: 1 64 120 120 (921600)
I0718 19:46:16.001797 20478 net.cpp:165] Memory required for data: 409190400
I0718 19:46:16.001809 20478 layer_factory.hpp:77] Creating layer res2c_branch2b_relu
I0718 19:46:16.001821 20478 net.cpp:100] Creating Layer res2c_branch2b_relu
I0718 19:46:16.001827 20478 net.cpp:444] res2c_branch2b_relu <- res2c_branch2b
I0718 19:46:16.001852 20478 net.cpp:405] res2c_branch2b_relu -> res2c_branch2b (in-place)
I0718 19:46:16.001864 20478 net.cpp:150] Setting up res2c_branch2b_relu
I0718 19:46:16.001876 20478 net.cpp:157] Top shape: 1 64 120 120 (921600)
I0718 19:46:16.001883 20478 net.cpp:165] Memory required for data: 412876800
I0718 19:46:16.001890 20478 layer_factory.hpp:77] Creating layer res2c_branch2c
I0718 19:46:16.001906 20478 net.cpp:100] Creating Layer res2c_branch2c
I0718 19:46:16.002010 20478 net.cpp:444] res2c_branch2c <- res2c_branch2b
I0718 19:46:16.002061 20478 net.cpp:418] res2c_branch2c -> res2c_branch2c
I0718 19:46:16.003777 20478 net.cpp:150] Setting up res2c_branch2c
I0718 19:46:16.003832 20478 net.cpp:157] Top shape: 1 256 120 120 (3686400)
I0718 19:46:16.003841 20478 net.cpp:165] Memory required for data: 427622400
I0718 19:46:16.003856 20478 layer_factory.hpp:77] Creating layer bn2c_branch2c
I0718 19:46:16.003881 20478 net.cpp:100] Creating Layer bn2c_branch2c
I0718 19:46:16.003892 20478 net.cpp:444] bn2c_branch2c <- res2c_branch2c
I0718 19:46:16.003926 20478 net.cpp:405] bn2c_branch2c -> res2c_branch2c (in-place)
I0718 19:46:16.004228 20478 net.cpp:150] Setting up bn2c_branch2c
I0718 19:46:16.004245 20478 net.cpp:157] Top shape: 1 256 120 120 (3686400)
I0718 19:46:16.004252 20478 net.cpp:165] Memory required for data: 442368000
I0718 19:46:16.004267 20478 layer_factory.hpp:77] Creating layer scale2c_branch2c
I0718 19:46:16.004293 20478 net.cpp:100] Creating Layer scale2c_branch2c
I0718 19:46:16.004302 20478 net.cpp:444] scale2c_branch2c <- res2c_branch2c
I0718 19:46:16.004312 20478 net.cpp:405] scale2c_branch2c -> res2c_branch2c (in-place)
I0718 19:46:16.004367 20478 layer_factory.hpp:77] Creating layer scale2c_branch2c
I0718 19:46:16.005321 20478 net.cpp:150] Setting up scale2c_branch2c
I0718 19:46:16.005347 20478 net.cpp:157] Top shape: 1 256 120 120 (3686400)
I0718 19:46:16.005353 20478 net.cpp:165] Memory required for data: 457113600
I0718 19:46:16.005398 20478 layer_factory.hpp:77] Creating layer res2c
I0718 19:46:16.005411 20478 net.cpp:100] Creating Layer res2c
I0718 19:46:16.005421 20478 net.cpp:444] res2c <- res2b_res2b_relu_0_split_1
I0718 19:46:16.005430 20478 net.cpp:444] res2c <- res2c_branch2c
I0718 19:46:16.005439 20478 net.cpp:418] res2c -> res2c
I0718 19:46:16.005475 20478 net.cpp:150] Setting up res2c
I0718 19:46:16.005487 20478 net.cpp:157] Top shape: 1 256 120 120 (3686400)
I0718 19:46:16.005493 20478 net.cpp:165] Memory required for data: 471859200
I0718 19:46:16.005501 20478 layer_factory.hpp:77] Creating layer res2c_relu
I0718 19:46:16.005522 20478 net.cpp:100] Creating Layer res2c_relu
I0718 19:46:16.005529 20478 net.cpp:444] res2c_relu <- res2c
I0718 19:46:16.005538 20478 net.cpp:405] res2c_relu -> res2c (in-place)
I0718 19:46:16.005556 20478 net.cpp:150] Setting up res2c_relu
I0718 19:46:16.005566 20478 net.cpp:157] Top shape: 1 256 120 120 (3686400)
I0718 19:46:16.005573 20478 net.cpp:165] Memory required for data: 486604800
I0718 19:46:16.005578 20478 layer_factory.hpp:77] Creating layer res2c_res2c_relu_0_split
I0718 19:46:16.005589 20478 net.cpp:100] Creating Layer res2c_res2c_relu_0_split
I0718 19:46:16.005596 20478 net.cpp:444] res2c_res2c_relu_0_split <- res2c
I0718 19:46:16.005605 20478 net.cpp:418] res2c_res2c_relu_0_split -> res2c_res2c_relu_0_split_0
I0718 19:46:16.005615 20478 net.cpp:418] res2c_res2c_relu_0_split -> res2c_res2c_relu_0_split_1
I0718 19:46:16.005671 20478 net.cpp:150] Setting up res2c_res2c_relu_0_split
I0718 19:46:16.005686 20478 net.cpp:157] Top shape: 1 256 120 120 (3686400)
I0718 19:46:16.005693 20478 net.cpp:157] Top shape: 1 256 120 120 (3686400)
I0718 19:46:16.005702 20478 net.cpp:165] Memory required for data: 516096000
I0718 19:46:16.005708 20478 layer_factory.hpp:77] Creating layer res3a_branch1
I0718 19:46:16.005733 20478 net.cpp:100] Creating Layer res3a_branch1
I0718 19:46:16.005739 20478 net.cpp:444] res3a_branch1 <- res2c_res2c_relu_0_split_0
I0718 19:46:16.005751 20478 net.cpp:418] res3a_branch1 -> res3a_branch1
I0718 19:46:16.006803 20478 net.cpp:150] Setting up res3a_branch1
I0718 19:46:16.006829 20478 net.cpp:157] Top shape: 1 512 60 60 (1843200)
I0718 19:46:16.006836 20478 net.cpp:165] Memory required for data: 523468800
I0718 19:46:16.006849 20478 layer_factory.hpp:77] Creating layer bn3a_branch1
I0718 19:46:16.006875 20478 net.cpp:100] Creating Layer bn3a_branch1
I0718 19:46:16.006882 20478 net.cpp:444] bn3a_branch1 <- res3a_branch1
I0718 19:46:16.006893 20478 net.cpp:405] bn3a_branch1 -> res3a_branch1 (in-place)
I0718 19:46:16.007856 20478 net.cpp:150] Setting up bn3a_branch1
I0718 19:46:16.007881 20478 net.cpp:157] Top shape: 1 512 60 60 (1843200)
I0718 19:46:16.007889 20478 net.cpp:165] Memory required for data: 530841600
I0718 19:46:16.007905 20478 layer_factory.hpp:77] Creating layer scale3a_branch1
I0718 19:46:16.007928 20478 net.cpp:100] Creating Layer scale3a_branch1
I0718 19:46:16.007936 20478 net.cpp:444] scale3a_branch1 <- res3a_branch1
I0718 19:46:16.007946 20478 net.cpp:405] scale3a_branch1 -> res3a_branch1 (in-place)
I0718 19:46:16.008013 20478 layer_factory.hpp:77] Creating layer scale3a_branch1
I0718 19:46:16.008229 20478 net.cpp:150] Setting up scale3a_branch1
I0718 19:46:16.008246 20478 net.cpp:157] Top shape: 1 512 60 60 (1843200)
I0718 19:46:16.008254 20478 net.cpp:165] Memory required for data: 538214400
I0718 19:46:16.008266 20478 layer_factory.hpp:77] Creating layer res3a_branch2a
I0718 19:46:16.008294 20478 net.cpp:100] Creating Layer res3a_branch2a
I0718 19:46:16.008302 20478 net.cpp:444] res3a_branch2a <- res2c_res2c_relu_0_split_1
I0718 19:46:16.008313 20478 net.cpp:418] res3a_branch2a -> res3a_branch2a
I0718 19:46:16.008566 20478 net.cpp:150] Setting up res3a_branch2a
I0718 19:46:16.008584 20478 net.cpp:157] Top shape: 1 128 60 60 (460800)
I0718 19:46:16.008590 20478 net.cpp:165] Memory required for data: 540057600
I0718 19:46:16.008599 20478 layer_factory.hpp:77] Creating layer bn3a_branch2a
I0718 19:46:16.008616 20478 net.cpp:100] Creating Layer bn3a_branch2a
I0718 19:46:16.008631 20478 net.cpp:444] bn3a_branch2a <- res3a_branch2a
I0718 19:46:16.008641 20478 net.cpp:405] bn3a_branch2a -> res3a_branch2a (in-place)
I0718 19:46:16.009093 20478 net.cpp:150] Setting up bn3a_branch2a
I0718 19:46:16.009114 20478 net.cpp:157] Top shape: 1 128 60 60 (460800)
I0718 19:46:16.009119 20478 net.cpp:165] Memory required for data: 541900800
I0718 19:46:16.009133 20478 layer_factory.hpp:77] Creating layer scale3a_branch2a
I0718 19:46:16.009147 20478 net.cpp:100] Creating Layer scale3a_branch2a
I0718 19:46:16.009155 20478 net.cpp:444] scale3a_branch2a <- res3a_branch2a
I0718 19:46:16.009163 20478 net.cpp:405] scale3a_branch2a -> res3a_branch2a (in-place)
I0718 19:46:16.009230 20478 layer_factory.hpp:77] Creating layer scale3a_branch2a
I0718 19:46:16.009382 20478 net.cpp:150] Setting up scale3a_branch2a
I0718 19:46:16.009398 20478 net.cpp:157] Top shape: 1 128 60 60 (460800)
I0718 19:46:16.009405 20478 net.cpp:165] Memory required for data: 543744000
I0718 19:46:16.009416 20478 layer_factory.hpp:77] Creating layer res3a_branch2a_relu
I0718 19:46:16.009428 20478 net.cpp:100] Creating Layer res3a_branch2a_relu
I0718 19:46:16.009434 20478 net.cpp:444] res3a_branch2a_relu <- res3a_branch2a
I0718 19:46:16.009450 20478 net.cpp:405] res3a_branch2a_relu -> res3a_branch2a (in-place)
I0718 19:46:16.009462 20478 net.cpp:150] Setting up res3a_branch2a_relu
I0718 19:46:16.009470 20478 net.cpp:157] Top shape: 1 128 60 60 (460800)
I0718 19:46:16.009477 20478 net.cpp:165] Memory required for data: 545587200
I0718 19:46:16.009485 20478 layer_factory.hpp:77] Creating layer res3a_branch2b
I0718 19:46:16.009497 20478 net.cpp:100] Creating Layer res3a_branch2b
I0718 19:46:16.009508 20478 net.cpp:444] res3a_branch2b <- res3a_branch2a
I0718 19:46:16.009521 20478 net.cpp:418] res3a_branch2b -> res3a_branch2b
I0718 19:46:16.010856 20478 net.cpp:150] Setting up res3a_branch2b
I0718 19:46:16.010890 20478 net.cpp:157] Top shape: 1 128 60 60 (460800)
I0718 19:46:16.010898 20478 net.cpp:165] Memory required for data: 547430400
I0718 19:46:16.010921 20478 layer_factory.hpp:77] Creating layer bn3a_branch2b
I0718 19:46:16.010939 20478 net.cpp:100] Creating Layer bn3a_branch2b
I0718 19:46:16.010948 20478 net.cpp:444] bn3a_branch2b <- res3a_branch2b
I0718 19:46:16.010959 20478 net.cpp:405] bn3a_branch2b -> res3a_branch2b (in-place)
I0718 19:46:16.011188 20478 net.cpp:150] Setting up bn3a_branch2b
I0718 19:46:16.011203 20478 net.cpp:157] Top shape: 1 128 60 60 (460800)
I0718 19:46:16.011209 20478 net.cpp:165] Memory required for data: 549273600
I0718 19:46:16.011222 20478 layer_factory.hpp:77] Creating layer scale3a_branch2b
I0718 19:46:16.011239 20478 net.cpp:100] Creating Layer scale3a_branch2b
I0718 19:46:16.011246 20478 net.cpp:444] scale3a_branch2b <- res3a_branch2b
I0718 19:46:16.011255 20478 net.cpp:405] scale3a_branch2b -> res3a_branch2b (in-place)
I0718 19:46:16.011314 20478 layer_factory.hpp:77] Creating layer scale3a_branch2b
I0718 19:46:16.011464 20478 net.cpp:150] Setting up scale3a_branch2b
I0718 19:46:16.011479 20478 net.cpp:157] Top shape: 1 128 60 60 (460800)
I0718 19:46:16.011485 20478 net.cpp:165] Memory required for data: 551116800
I0718 19:46:16.011538 20478 layer_factory.hpp:77] Creating layer res3a_branch2b_relu
I0718 19:46:16.011553 20478 net.cpp:100] Creating Layer res3a_branch2b_relu
I0718 19:46:16.011559 20478 net.cpp:444] res3a_branch2b_relu <- res3a_branch2b
I0718 19:46:16.011580 20478 net.cpp:405] res3a_branch2b_relu -> res3a_branch2b (in-place)
I0718 19:46:16.011593 20478 net.cpp:150] Setting up res3a_branch2b_relu
I0718 19:46:16.011605 20478 net.cpp:157] Top shape: 1 128 60 60 (460800)
I0718 19:46:16.011611 20478 net.cpp:165] Memory required for data: 552960000
I0718 19:46:16.011617 20478 layer_factory.hpp:77] Creating layer res3a_branch2c
I0718 19:46:16.011634 20478 net.cpp:100] Creating Layer res3a_branch2c
I0718 19:46:16.011643 20478 net.cpp:444] res3a_branch2c <- res3a_branch2b
I0718 19:46:16.011654 20478 net.cpp:418] res3a_branch2c -> res3a_branch2c
I0718 19:46:16.011929 20478 net.cpp:150] Setting up res3a_branch2c
I0718 19:46:16.011945 20478 net.cpp:157] Top shape: 1 512 60 60 (1843200)
I0718 19:46:16.011950 20478 net.cpp:165] Memory required for data: 560332800
I0718 19:46:16.011960 20478 layer_factory.hpp:77] Creating layer bn3a_branch2c
I0718 19:46:16.011987 20478 net.cpp:100] Creating Layer bn3a_branch2c
I0718 19:46:16.011996 20478 net.cpp:444] bn3a_branch2c <- res3a_branch2c
I0718 19:46:16.012009 20478 net.cpp:405] bn3a_branch2c -> res3a_branch2c (in-place)
I0718 19:46:16.012243 20478 net.cpp:150] Setting up bn3a_branch2c
I0718 19:46:16.012259 20478 net.cpp:157] Top shape: 1 512 60 60 (1843200)
I0718 19:46:16.012264 20478 net.cpp:165] Memory required for data: 567705600
I0718 19:46:16.012279 20478 layer_factory.hpp:77] Creating layer scale3a_branch2c
I0718 19:46:16.012292 20478 net.cpp:100] Creating Layer scale3a_branch2c
I0718 19:46:16.012300 20478 net.cpp:444] scale3a_branch2c <- res3a_branch2c
I0718 19:46:16.012310 20478 net.cpp:405] scale3a_branch2c -> res3a_branch2c (in-place)
I0718 19:46:16.012361 20478 layer_factory.hpp:77] Creating layer scale3a_branch2c
I0718 19:46:16.012511 20478 net.cpp:150] Setting up scale3a_branch2c
I0718 19:46:16.012528 20478 net.cpp:157] Top shape: 1 512 60 60 (1843200)
I0718 19:46:16.012537 20478 net.cpp:165] Memory required for data: 575078400
I0718 19:46:16.012547 20478 layer_factory.hpp:77] Creating layer res3a
I0718 19:46:16.012560 20478 net.cpp:100] Creating Layer res3a
I0718 19:46:16.012569 20478 net.cpp:444] res3a <- res3a_branch1
I0718 19:46:16.012578 20478 net.cpp:444] res3a <- res3a_branch2c
I0718 19:46:16.012586 20478 net.cpp:418] res3a -> res3a
I0718 19:46:16.012624 20478 net.cpp:150] Setting up res3a
I0718 19:46:16.012637 20478 net.cpp:157] Top shape: 1 512 60 60 (1843200)
I0718 19:46:16.012644 20478 net.cpp:165] Memory required for data: 582451200
I0718 19:46:16.012650 20478 layer_factory.hpp:77] Creating layer res3a_relu
I0718 19:46:16.012661 20478 net.cpp:100] Creating Layer res3a_relu
I0718 19:46:16.012668 20478 net.cpp:444] res3a_relu <- res3a
I0718 19:46:16.012679 20478 net.cpp:405] res3a_relu -> res3a (in-place)
I0718 19:46:16.012691 20478 net.cpp:150] Setting up res3a_relu
I0718 19:46:16.012701 20478 net.cpp:157] Top shape: 1 512 60 60 (1843200)
I0718 19:46:16.012707 20478 net.cpp:165] Memory required for data: 589824000
I0718 19:46:16.012728 20478 layer_factory.hpp:77] Creating layer res3a_res3a_relu_0_split
I0718 19:46:16.012739 20478 net.cpp:100] Creating Layer res3a_res3a_relu_0_split
I0718 19:46:16.012747 20478 net.cpp:444] res3a_res3a_relu_0_split <- res3a
I0718 19:46:16.012755 20478 net.cpp:418] res3a_res3a_relu_0_split -> res3a_res3a_relu_0_split_0
I0718 19:46:16.012766 20478 net.cpp:418] res3a_res3a_relu_0_split -> res3a_res3a_relu_0_split_1
I0718 19:46:16.012816 20478 net.cpp:150] Setting up res3a_res3a_relu_0_split
I0718 19:46:16.012830 20478 net.cpp:157] Top shape: 1 512 60 60 (1843200)
I0718 19:46:16.012840 20478 net.cpp:157] Top shape: 1 512 60 60 (1843200)
I0718 19:46:16.012845 20478 net.cpp:165] Memory required for data: 604569600
I0718 19:46:16.012852 20478 layer_factory.hpp:77] Creating layer res3b1_branch2a
I0718 19:46:16.012886 20478 net.cpp:100] Creating Layer res3b1_branch2a
I0718 19:46:16.012897 20478 net.cpp:444] res3b1_branch2a <- res3a_res3a_relu_0_split_0
I0718 19:46:16.012907 20478 net.cpp:418] res3b1_branch2a -> res3b1_branch2a
I0718 19:46:16.013188 20478 net.cpp:150] Setting up res3b1_branch2a
I0718 19:46:16.013208 20478 net.cpp:157] Top shape: 1 128 60 60 (460800)
I0718 19:46:16.013216 20478 net.cpp:165] Memory required for data: 606412800
I0718 19:46:16.013226 20478 layer_factory.hpp:77] Creating layer bn3b1_branch2a
I0718 19:46:16.013239 20478 net.cpp:100] Creating Layer bn3b1_branch2a
I0718 19:46:16.013248 20478 net.cpp:444] bn3b1_branch2a <- res3b1_branch2a
I0718 19:46:16.013257 20478 net.cpp:405] bn3b1_branch2a -> res3b1_branch2a (in-place)
I0718 19:46:16.013479 20478 net.cpp:150] Setting up bn3b1_branch2a
I0718 19:46:16.013494 20478 net.cpp:157] Top shape: 1 128 60 60 (460800)
I0718 19:46:16.013500 20478 net.cpp:165] Memory required for data: 608256000
I0718 19:46:16.013514 20478 layer_factory.hpp:77] Creating layer scale3b1_branch2a
I0718 19:46:16.013530 20478 net.cpp:100] Creating Layer scale3b1_branch2a
I0718 19:46:16.013538 20478 net.cpp:444] scale3b1_branch2a <- res3b1_branch2a
I0718 19:46:16.013548 20478 net.cpp:405] scale3b1_branch2a -> res3b1_branch2a (in-place)
I0718 19:46:16.013604 20478 layer_factory.hpp:77] Creating layer scale3b1_branch2a
I0718 19:46:16.013752 20478 net.cpp:150] Setting up scale3b1_branch2a
I0718 19:46:16.013767 20478 net.cpp:157] Top shape: 1 128 60 60 (460800)
I0718 19:46:16.013773 20478 net.cpp:165] Memory required for data: 610099200
I0718 19:46:16.013784 20478 layer_factory.hpp:77] Creating layer res3b1_branch2a_relu
I0718 19:46:16.013798 20478 net.cpp:100] Creating Layer res3b1_branch2a_relu
I0718 19:46:16.013806 20478 net.cpp:444] res3b1_branch2a_relu <- res3b1_branch2a
I0718 19:46:16.013815 20478 net.cpp:405] res3b1_branch2a_relu -> res3b1_branch2a (in-place)
I0718 19:46:16.013826 20478 net.cpp:150] Setting up res3b1_branch2a_relu
I0718 19:46:16.013835 20478 net.cpp:157] Top shape: 1 128 60 60 (460800)
I0718 19:46:16.013841 20478 net.cpp:165] Memory required for data: 611942400
I0718 19:46:16.013849 20478 layer_factory.hpp:77] Creating layer res3b1_branch2b
I0718 19:46:16.013864 20478 net.cpp:100] Creating Layer res3b1_branch2b
I0718 19:46:16.013873 20478 net.cpp:444] res3b1_branch2b <- res3b1_branch2a
I0718 19:46:16.013883 20478 net.cpp:418] res3b1_branch2b -> res3b1_branch2b
I0718 19:46:16.015060 20478 net.cpp:150] Setting up res3b1_branch2b
I0718 19:46:16.015090 20478 net.cpp:157] Top shape: 1 128 60 60 (460800)
I0718 19:46:16.015097 20478 net.cpp:165] Memory required for data: 613785600
I0718 19:46:16.015110 20478 layer_factory.hpp:77] Creating layer bn3b1_branch2b
I0718 19:46:16.015305 20478 net.cpp:100] Creating Layer bn3b1_branch2b
I0718 19:46:16.015331 20478 net.cpp:444] bn3b1_branch2b <- res3b1_branch2b
I0718 19:46:16.015344 20478 net.cpp:405] bn3b1_branch2b -> res3b1_branch2b (in-place)
I0718 19:46:16.015599 20478 net.cpp:150] Setting up bn3b1_branch2b
I0718 19:46:16.015614 20478 net.cpp:157] Top shape: 1 128 60 60 (460800)
I0718 19:46:16.015621 20478 net.cpp:165] Memory required for data: 615628800
I0718 19:46:16.015636 20478 layer_factory.hpp:77] Creating layer scale3b1_branch2b
I0718 19:46:16.015650 20478 net.cpp:100] Creating Layer scale3b1_branch2b
I0718 19:46:16.015657 20478 net.cpp:444] scale3b1_branch2b <- res3b1_branch2b
I0718 19:46:16.015671 20478 net.cpp:405] scale3b1_branch2b -> res3b1_branch2b (in-place)
I0718 19:46:16.015729 20478 layer_factory.hpp:77] Creating layer scale3b1_branch2b
I0718 19:46:16.015910 20478 net.cpp:150] Setting up scale3b1_branch2b
I0718 19:46:16.015926 20478 net.cpp:157] Top shape: 1 128 60 60 (460800)
I0718 19:46:16.015933 20478 net.cpp:165] Memory required for data: 617472000
I0718 19:46:16.015944 20478 layer_factory.hpp:77] Creating layer res3b1_branch2b_relu
I0718 19:46:16.015956 20478 net.cpp:100] Creating Layer res3b1_branch2b_relu
I0718 19:46:16.015964 20478 net.cpp:444] res3b1_branch2b_relu <- res3b1_branch2b
I0718 19:46:16.016006 20478 net.cpp:405] res3b1_branch2b_relu -> res3b1_branch2b (in-place)
I0718 19:46:16.016021 20478 net.cpp:150] Setting up res3b1_branch2b_relu
I0718 19:46:16.016029 20478 net.cpp:157] Top shape: 1 128 60 60 (460800)
I0718 19:46:16.016036 20478 net.cpp:165] Memory required for data: 619315200
I0718 19:46:16.016042 20478 layer_factory.hpp:77] Creating layer res3b1_branch2c
I0718 19:46:16.016059 20478 net.cpp:100] Creating Layer res3b1_branch2c
I0718 19:46:16.016067 20478 net.cpp:444] res3b1_branch2c <- res3b1_branch2b
I0718 19:46:16.016079 20478 net.cpp:418] res3b1_branch2c -> res3b1_branch2c
I0718 19:46:16.017472 20478 net.cpp:150] Setting up res3b1_branch2c
I0718 19:46:16.017496 20478 net.cpp:157] Top shape: 1 512 60 60 (1843200)
I0718 19:46:16.017504 20478 net.cpp:165] Memory required for data: 626688000
I0718 19:46:16.017516 20478 layer_factory.hpp:77] Creating layer bn3b1_branch2c
I0718 19:46:16.017531 20478 net.cpp:100] Creating Layer bn3b1_branch2c
I0718 19:46:16.017539 20478 net.cpp:444] bn3b1_branch2c <- res3b1_branch2c
I0718 19:46:16.017551 20478 net.cpp:405] bn3b1_branch2c -> res3b1_branch2c (in-place)
I0718 19:46:16.017791 20478 net.cpp:150] Setting up bn3b1_branch2c
I0718 19:46:16.017807 20478 net.cpp:157] Top shape: 1 512 60 60 (1843200)
I0718 19:46:16.017813 20478 net.cpp:165] Memory required for data: 634060800
I0718 19:46:16.017827 20478 layer_factory.hpp:77] Creating layer scale3b1_branch2c
I0718 19:46:16.017839 20478 net.cpp:100] Creating Layer scale3b1_branch2c
I0718 19:46:16.017846 20478 net.cpp:444] scale3b1_branch2c <- res3b1_branch2c
I0718 19:46:16.017856 20478 net.cpp:405] scale3b1_branch2c -> res3b1_branch2c (in-place)
I0718 19:46:16.017909 20478 layer_factory.hpp:77] Creating layer scale3b1_branch2c
I0718 19:46:16.018066 20478 net.cpp:150] Setting up scale3b1_branch2c
I0718 19:46:16.018081 20478 net.cpp:157] Top shape: 1 512 60 60 (1843200)
I0718 19:46:16.018087 20478 net.cpp:165] Memory required for data: 641433600
I0718 19:46:16.018098 20478 layer_factory.hpp:77] Creating layer res3b1
I0718 19:46:16.018115 20478 net.cpp:100] Creating Layer res3b1
I0718 19:46:16.018122 20478 net.cpp:444] res3b1 <- res3a_res3a_relu_0_split_1
I0718 19:46:16.018131 20478 net.cpp:444] res3b1 <- res3b1_branch2c
I0718 19:46:16.018141 20478 net.cpp:418] res3b1 -> res3b1
I0718 19:46:16.018177 20478 net.cpp:150] Setting up res3b1
I0718 19:46:16.018190 20478 net.cpp:157] Top shape: 1 512 60 60 (1843200)
I0718 19:46:16.018198 20478 net.cpp:165] Memory required for data: 648806400
I0718 19:46:16.018204 20478 layer_factory.hpp:77] Creating layer res3b1_relu
I0718 19:46:16.018214 20478 net.cpp:100] Creating Layer res3b1_relu
I0718 19:46:16.018223 20478 net.cpp:444] res3b1_relu <- res3b1
I0718 19:46:16.018234 20478 net.cpp:405] res3b1_relu -> res3b1 (in-place)
I0718 19:46:16.018244 20478 net.cpp:150] Setting up res3b1_relu
I0718 19:46:16.018254 20478 net.cpp:157] Top shape: 1 512 60 60 (1843200)
I0718 19:46:16.018261 20478 net.cpp:165] Memory required for data: 656179200
I0718 19:46:16.018267 20478 layer_factory.hpp:77] Creating layer res3b1_res3b1_relu_0_split
I0718 19:46:16.018280 20478 net.cpp:100] Creating Layer res3b1_res3b1_relu_0_split
I0718 19:46:16.018286 20478 net.cpp:444] res3b1_res3b1_relu_0_split <- res3b1
I0718 19:46:16.018295 20478 net.cpp:418] res3b1_res3b1_relu_0_split -> res3b1_res3b1_relu_0_split_0
I0718 19:46:16.018306 20478 net.cpp:418] res3b1_res3b1_relu_0_split -> res3b1_res3b1_relu_0_split_1
I0718 19:46:16.018354 20478 net.cpp:150] Setting up res3b1_res3b1_relu_0_split
I0718 19:46:16.018368 20478 net.cpp:157] Top shape: 1 512 60 60 (1843200)
I0718 19:46:16.018375 20478 net.cpp:157] Top shape: 1 512 60 60 (1843200)
I0718 19:46:16.018383 20478 net.cpp:165] Memory required for data: 670924800
I0718 19:46:16.018388 20478 layer_factory.hpp:77] Creating layer res3b2_branch2a
I0718 19:46:16.018409 20478 net.cpp:100] Creating Layer res3b2_branch2a
I0718 19:46:16.018419 20478 net.cpp:444] res3b2_branch2a <- res3b1_res3b1_relu_0_split_0
I0718 19:46:16.018430 20478 net.cpp:418] res3b2_branch2a -> res3b2_branch2a
I0718 19:46:16.018699 20478 net.cpp:150] Setting up res3b2_branch2a
I0718 19:46:16.018715 20478 net.cpp:157] Top shape: 1 128 60 60 (460800)
I0718 19:46:16.018723 20478 net.cpp:165] Memory required for data: 672768000
I0718 19:46:16.018733 20478 layer_factory.hpp:77] Creating layer bn3b2_branch2a
I0718 19:46:16.018749 20478 net.cpp:100] Creating Layer bn3b2_branch2a
I0718 19:46:16.018759 20478 net.cpp:444] bn3b2_branch2a <- res3b2_branch2a
I0718 19:46:16.018767 20478 net.cpp:405] bn3b2_branch2a -> res3b2_branch2a (in-place)
I0718 19:46:16.018991 20478 net.cpp:150] Setting up bn3b2_branch2a
I0718 19:46:16.019006 20478 net.cpp:157] Top shape: 1 128 60 60 (460800)
I0718 19:46:16.019013 20478 net.cpp:165] Memory required for data: 674611200
I0718 19:46:16.019026 20478 layer_factory.hpp:77] Creating layer scale3b2_branch2a
I0718 19:46:16.019040 20478 net.cpp:100] Creating Layer scale3b2_branch2a
I0718 19:46:16.019047 20478 net.cpp:444] scale3b2_branch2a <- res3b2_branch2a
I0718 19:46:16.019059 20478 net.cpp:405] scale3b2_branch2a -> res3b2_branch2a (in-place)
I0718 19:46:16.019115 20478 layer_factory.hpp:77] Creating layer scale3b2_branch2a
I0718 19:46:16.019263 20478 net.cpp:150] Setting up scale3b2_branch2a
I0718 19:46:16.019278 20478 net.cpp:157] Top shape: 1 128 60 60 (460800)
I0718 19:46:16.019284 20478 net.cpp:165] Memory required for data: 676454400
I0718 19:46:16.019295 20478 layer_factory.hpp:77] Creating layer res3b2_branch2a_relu
I0718 19:46:16.019306 20478 net.cpp:100] Creating Layer res3b2_branch2a_relu
I0718 19:46:16.019315 20478 net.cpp:444] res3b2_branch2a_relu <- res3b2_branch2a
I0718 19:46:16.019327 20478 net.cpp:405] res3b2_branch2a_relu -> res3b2_branch2a (in-place)
I0718 19:46:16.019340 20478 net.cpp:150] Setting up res3b2_branch2a_relu
I0718 19:46:16.019350 20478 net.cpp:157] Top shape: 1 128 60 60 (460800)
I0718 19:46:16.019356 20478 net.cpp:165] Memory required for data: 678297600
I0718 19:46:16.019362 20478 layer_factory.hpp:77] Creating layer res3b2_branch2b
I0718 19:46:16.019376 20478 net.cpp:100] Creating Layer res3b2_branch2b
I0718 19:46:16.019382 20478 net.cpp:444] res3b2_branch2b <- res3b2_branch2a
I0718 19:46:16.019397 20478 net.cpp:418] res3b2_branch2b -> res3b2_branch2b
I0718 19:46:16.020416 20478 net.cpp:150] Setting up res3b2_branch2b
I0718 19:46:16.020434 20478 net.cpp:157] Top shape: 1 128 60 60 (460800)
I0718 19:46:16.020442 20478 net.cpp:165] Memory required for data: 680140800
I0718 19:46:16.020452 20478 layer_factory.hpp:77] Creating layer bn3b2_branch2b
I0718 19:46:16.020465 20478 net.cpp:100] Creating Layer bn3b2_branch2b
I0718 19:46:16.020474 20478 net.cpp:444] bn3b2_branch2b <- res3b2_branch2b
I0718 19:46:16.020486 20478 net.cpp:405] bn3b2_branch2b -> res3b2_branch2b (in-place)
I0718 19:46:16.020723 20478 net.cpp:150] Setting up bn3b2_branch2b
I0718 19:46:16.020738 20478 net.cpp:157] Top shape: 1 128 60 60 (460800)
I0718 19:46:16.020745 20478 net.cpp:165] Memory required for data: 681984000
I0718 19:46:16.020759 20478 layer_factory.hpp:77] Creating layer scale3b2_branch2b
I0718 19:46:16.020771 20478 net.cpp:100] Creating Layer scale3b2_branch2b
I0718 19:46:16.020781 20478 net.cpp:444] scale3b2_branch2b <- res3b2_branch2b
I0718 19:46:16.020789 20478 net.cpp:405] scale3b2_branch2b -> res3b2_branch2b (in-place)
I0718 19:46:16.020848 20478 layer_factory.hpp:77] Creating layer scale3b2_branch2b
I0718 19:46:16.021001 20478 net.cpp:150] Setting up scale3b2_branch2b
I0718 19:46:16.021018 20478 net.cpp:157] Top shape: 1 128 60 60 (460800)
I0718 19:46:16.021024 20478 net.cpp:165] Memory required for data: 683827200
I0718 19:46:16.021035 20478 layer_factory.hpp:77] Creating layer res3b2_branch2b_relu
I0718 19:46:16.021049 20478 net.cpp:100] Creating Layer res3b2_branch2b_relu
I0718 19:46:16.021056 20478 net.cpp:444] res3b2_branch2b_relu <- res3b2_branch2b
I0718 19:46:16.021065 20478 net.cpp:405] res3b2_branch2b_relu -> res3b2_branch2b (in-place)
I0718 19:46:16.021076 20478 net.cpp:150] Setting up res3b2_branch2b_relu
I0718 19:46:16.021085 20478 net.cpp:157] Top shape: 1 128 60 60 (460800)
I0718 19:46:16.021109 20478 net.cpp:165] Memory required for data: 685670400
I0718 19:46:16.021117 20478 layer_factory.hpp:77] Creating layer res3b2_branch2c
I0718 19:46:16.021133 20478 net.cpp:100] Creating Layer res3b2_branch2c
I0718 19:46:16.021144 20478 net.cpp:444] res3b2_branch2c <- res3b2_branch2b
I0718 19:46:16.021155 20478 net.cpp:418] res3b2_branch2c -> res3b2_branch2c
I0718 19:46:16.021419 20478 net.cpp:150] Setting up res3b2_branch2c
I0718 19:46:16.021433 20478 net.cpp:157] Top shape: 1 512 60 60 (1843200)
I0718 19:46:16.021440 20478 net.cpp:165] Memory required for data: 693043200
I0718 19:46:16.021450 20478 layer_factory.hpp:77] Creating layer bn3b2_branch2c
I0718 19:46:16.021466 20478 net.cpp:100] Creating Layer bn3b2_branch2c
I0718 19:46:16.021476 20478 net.cpp:444] bn3b2_branch2c <- res3b2_branch2c
I0718 19:46:16.021484 20478 net.cpp:405] bn3b2_branch2c -> res3b2_branch2c (in-place)
I0718 19:46:16.021733 20478 net.cpp:150] Setting up bn3b2_branch2c
I0718 19:46:16.021747 20478 net.cpp:157] Top shape: 1 512 60 60 (1843200)
I0718 19:46:16.021754 20478 net.cpp:165] Memory required for data: 700416000
I0718 19:46:16.021767 20478 layer_factory.hpp:77] Creating layer scale3b2_branch2c
I0718 19:46:16.021780 20478 net.cpp:100] Creating Layer scale3b2_branch2c
I0718 19:46:16.021788 20478 net.cpp:444] scale3b2_branch2c <- res3b2_branch2c
I0718 19:46:16.021801 20478 net.cpp:405] scale3b2_branch2c -> res3b2_branch2c (in-place)
I0718 19:46:16.021850 20478 layer_factory.hpp:77] Creating layer scale3b2_branch2c
I0718 19:46:16.022008 20478 net.cpp:150] Setting up scale3b2_branch2c
I0718 19:46:16.022022 20478 net.cpp:157] Top shape: 1 512 60 60 (1843200)
I0718 19:46:16.022029 20478 net.cpp:165] Memory required for data: 707788800
I0718 19:46:16.022040 20478 layer_factory.hpp:77] Creating layer res3b2
I0718 19:46:16.022052 20478 net.cpp:100] Creating Layer res3b2
I0718 19:46:16.022059 20478 net.cpp:444] res3b2 <- res3b1_res3b1_relu_0_split_1
I0718 19:46:16.022068 20478 net.cpp:444] res3b2 <- res3b2_branch2c
I0718 19:46:16.022078 20478 net.cpp:418] res3b2 -> res3b2
I0718 19:46:16.022114 20478 net.cpp:150] Setting up res3b2
I0718 19:46:16.022126 20478 net.cpp:157] Top shape: 1 512 60 60 (1843200)
I0718 19:46:16.022133 20478 net.cpp:165] Memory required for data: 715161600
I0718 19:46:16.022140 20478 layer_factory.hpp:77] Creating layer res3b2_relu
I0718 19:46:16.022153 20478 net.cpp:100] Creating Layer res3b2_relu
I0718 19:46:16.022161 20478 net.cpp:444] res3b2_relu <- res3b2
I0718 19:46:16.022171 20478 net.cpp:405] res3b2_relu -> res3b2 (in-place)
I0718 19:46:16.022181 20478 net.cpp:150] Setting up res3b2_relu
I0718 19:46:16.022191 20478 net.cpp:157] Top shape: 1 512 60 60 (1843200)
I0718 19:46:16.022197 20478 net.cpp:165] Memory required for data: 722534400
I0718 19:46:16.022204 20478 layer_factory.hpp:77] Creating layer res3b2_res3b2_relu_0_split
I0718 19:46:16.022213 20478 net.cpp:100] Creating Layer res3b2_res3b2_relu_0_split
I0718 19:46:16.022220 20478 net.cpp:444] res3b2_res3b2_relu_0_split <- res3b2
I0718 19:46:16.022233 20478 net.cpp:418] res3b2_res3b2_relu_0_split -> res3b2_res3b2_relu_0_split_0
I0718 19:46:16.022244 20478 net.cpp:418] res3b2_res3b2_relu_0_split -> res3b2_res3b2_relu_0_split_1
I0718 19:46:16.022290 20478 net.cpp:150] Setting up res3b2_res3b2_relu_0_split
I0718 19:46:16.022303 20478 net.cpp:157] Top shape: 1 512 60 60 (1843200)
I0718 19:46:16.022311 20478 net.cpp:157] Top shape: 1 512 60 60 (1843200)
I0718 19:46:16.022317 20478 net.cpp:165] Memory required for data: 737280000
I0718 19:46:16.022325 20478 layer_factory.hpp:77] Creating layer res3b3_branch2a
I0718 19:46:16.022343 20478 net.cpp:100] Creating Layer res3b3_branch2a
I0718 19:46:16.022353 20478 net.cpp:444] res3b3_branch2a <- res3b2_res3b2_relu_0_split_0
I0718 19:46:16.022363 20478 net.cpp:418] res3b3_branch2a -> res3b3_branch2a
I0718 19:46:16.022626 20478 net.cpp:150] Setting up res3b3_branch2a
I0718 19:46:16.022641 20478 net.cpp:157] Top shape: 1 128 60 60 (460800)
I0718 19:46:16.022649 20478 net.cpp:165] Memory required for data: 739123200
I0718 19:46:16.022673 20478 layer_factory.hpp:77] Creating layer bn3b3_branch2a
I0718 19:46:16.022691 20478 net.cpp:100] Creating Layer bn3b3_branch2a
I0718 19:46:16.022701 20478 net.cpp:444] bn3b3_branch2a <- res3b3_branch2a
I0718 19:46:16.022709 20478 net.cpp:405] bn3b3_branch2a -> res3b3_branch2a (in-place)
I0718 19:46:16.022958 20478 net.cpp:150] Setting up bn3b3_branch2a
I0718 19:46:16.022974 20478 net.cpp:157] Top shape: 1 128 60 60 (460800)
I0718 19:46:16.022980 20478 net.cpp:165] Memory required for data: 740966400
I0718 19:46:16.023033 20478 layer_factory.hpp:77] Creating layer scale3b3_branch2a
I0718 19:46:16.023051 20478 net.cpp:100] Creating Layer scale3b3_branch2a
I0718 19:46:16.023059 20478 net.cpp:444] scale3b3_branch2a <- res3b3_branch2a
I0718 19:46:16.023074 20478 net.cpp:405] scale3b3_branch2a -> res3b3_branch2a (in-place)
I0718 19:46:16.023134 20478 layer_factory.hpp:77] Creating layer scale3b3_branch2a
I0718 19:46:16.023299 20478 net.cpp:150] Setting up scale3b3_branch2a
I0718 19:46:16.023313 20478 net.cpp:157] Top shape: 1 128 60 60 (460800)
I0718 19:46:16.023320 20478 net.cpp:165] Memory required for data: 742809600
I0718 19:46:16.023331 20478 layer_factory.hpp:77] Creating layer res3b3_branch2a_relu
I0718 19:46:16.023344 20478 net.cpp:100] Creating Layer res3b3_branch2a_relu
I0718 19:46:16.023351 20478 net.cpp:444] res3b3_branch2a_relu <- res3b3_branch2a
I0718 19:46:16.023360 20478 net.cpp:405] res3b3_branch2a_relu -> res3b3_branch2a (in-place)
I0718 19:46:16.023370 20478 net.cpp:150] Setting up res3b3_branch2a_relu
I0718 19:46:16.023380 20478 net.cpp:157] Top shape: 1 128 60 60 (460800)
I0718 19:46:16.023386 20478 net.cpp:165] Memory required for data: 744652800
I0718 19:46:16.023393 20478 layer_factory.hpp:77] Creating layer res3b3_branch2b
I0718 19:46:16.023409 20478 net.cpp:100] Creating Layer res3b3_branch2b
I0718 19:46:16.023418 20478 net.cpp:444] res3b3_branch2b <- res3b3_branch2a
I0718 19:46:16.023432 20478 net.cpp:418] res3b3_branch2b -> res3b3_branch2b
I0718 19:46:16.024576 20478 net.cpp:150] Setting up res3b3_branch2b
I0718 19:46:16.024615 20478 net.cpp:157] Top shape: 1 128 60 60 (460800)
I0718 19:46:16.024621 20478 net.cpp:165] Memory required for data: 746496000
I0718 19:46:16.024636 20478 layer_factory.hpp:77] Creating layer bn3b3_branch2b
I0718 19:46:16.024653 20478 net.cpp:100] Creating Layer bn3b3_branch2b
I0718 19:46:16.024662 20478 net.cpp:444] bn3b3_branch2b <- res3b3_branch2b
I0718 19:46:16.024674 20478 net.cpp:405] bn3b3_branch2b -> res3b3_branch2b (in-place)
I0718 19:46:16.024929 20478 net.cpp:150] Setting up bn3b3_branch2b
I0718 19:46:16.024945 20478 net.cpp:157] Top shape: 1 128 60 60 (460800)
I0718 19:46:16.024951 20478 net.cpp:165] Memory required for data: 748339200
I0718 19:46:16.024966 20478 layer_factory.hpp:77] Creating layer scale3b3_branch2b
I0718 19:46:16.024979 20478 net.cpp:100] Creating Layer scale3b3_branch2b
I0718 19:46:16.024987 20478 net.cpp:444] scale3b3_branch2b <- res3b3_branch2b
I0718 19:46:16.024997 20478 net.cpp:405] scale3b3_branch2b -> res3b3_branch2b (in-place)
I0718 19:46:16.025059 20478 layer_factory.hpp:77] Creating layer scale3b3_branch2b
I0718 19:46:16.025219 20478 net.cpp:150] Setting up scale3b3_branch2b
I0718 19:46:16.025234 20478 net.cpp:157] Top shape: 1 128 60 60 (460800)
I0718 19:46:16.025241 20478 net.cpp:165] Memory required for data: 750182400
I0718 19:46:16.025254 20478 layer_factory.hpp:77] Creating layer res3b3_branch2b_relu
I0718 19:46:16.025265 20478 net.cpp:100] Creating Layer res3b3_branch2b_relu
I0718 19:46:16.025274 20478 net.cpp:444] res3b3_branch2b_relu <- res3b3_branch2b
I0718 19:46:16.025285 20478 net.cpp:405] res3b3_branch2b_relu -> res3b3_branch2b (in-place)
I0718 19:46:16.025296 20478 net.cpp:150] Setting up res3b3_branch2b_relu
I0718 19:46:16.025306 20478 net.cpp:157] Top shape: 1 128 60 60 (460800)
I0718 19:46:16.025315 20478 net.cpp:165] Memory required for data: 752025600
I0718 19:46:16.025322 20478 layer_factory.hpp:77] Creating layer res3b3_branch2c
I0718 19:46:16.025336 20478 net.cpp:100] Creating Layer res3b3_branch2c
I0718 19:46:16.025370 20478 net.cpp:444] res3b3_branch2c <- res3b3_branch2b
I0718 19:46:16.025387 20478 net.cpp:418] res3b3_branch2c -> res3b3_branch2c
I0718 19:46:16.026427 20478 net.cpp:150] Setting up res3b3_branch2c
I0718 19:46:16.026453 20478 net.cpp:157] Top shape: 1 512 60 60 (1843200)
I0718 19:46:16.026459 20478 net.cpp:165] Memory required for data: 759398400
I0718 19:46:16.026471 20478 layer_factory.hpp:77] Creating layer bn3b3_branch2c
I0718 19:46:16.026495 20478 net.cpp:100] Creating Layer bn3b3_branch2c
I0718 19:46:16.026505 20478 net.cpp:444] bn3b3_branch2c <- res3b3_branch2c
I0718 19:46:16.026515 20478 net.cpp:405] bn3b3_branch2c -> res3b3_branch2c (in-place)
I0718 19:46:16.026754 20478 net.cpp:150] Setting up bn3b3_branch2c
I0718 19:46:16.026769 20478 net.cpp:157] Top shape: 1 512 60 60 (1843200)
I0718 19:46:16.026775 20478 net.cpp:165] Memory required for data: 766771200
I0718 19:46:16.026790 20478 layer_factory.hpp:77] Creating layer scale3b3_branch2c
I0718 19:46:16.026808 20478 net.cpp:100] Creating Layer scale3b3_branch2c
I0718 19:46:16.026815 20478 net.cpp:444] scale3b3_branch2c <- res3b3_branch2c
I0718 19:46:16.026825 20478 net.cpp:405] scale3b3_branch2c -> res3b3_branch2c (in-place)
I0718 19:46:16.026880 20478 layer_factory.hpp:77] Creating layer scale3b3_branch2c
I0718 19:46:16.027040 20478 net.cpp:150] Setting up scale3b3_branch2c
I0718 19:46:16.027055 20478 net.cpp:157] Top shape: 1 512 60 60 (1843200)
I0718 19:46:16.027061 20478 net.cpp:165] Memory required for data: 774144000
I0718 19:46:16.027073 20478 layer_factory.hpp:77] Creating layer res3b3
I0718 19:46:16.027086 20478 net.cpp:100] Creating Layer res3b3
I0718 19:46:16.027094 20478 net.cpp:444] res3b3 <- res3b2_res3b2_relu_0_split_1
I0718 19:46:16.027103 20478 net.cpp:444] res3b3 <- res3b3_branch2c
I0718 19:46:16.027119 20478 net.cpp:418] res3b3 -> res3b3
I0718 19:46:16.027158 20478 net.cpp:150] Setting up res3b3
I0718 19:46:16.027173 20478 net.cpp:157] Top shape: 1 512 60 60 (1843200)
I0718 19:46:16.027179 20478 net.cpp:165] Memory required for data: 781516800
I0718 19:46:16.027186 20478 layer_factory.hpp:77] Creating layer res3b3_relu
I0718 19:46:16.027196 20478 net.cpp:100] Creating Layer res3b3_relu
I0718 19:46:16.027204 20478 net.cpp:444] res3b3_relu <- res3b3
I0718 19:46:16.027212 20478 net.cpp:405] res3b3_relu -> res3b3 (in-place)
I0718 19:46:16.027223 20478 net.cpp:150] Setting up res3b3_relu
I0718 19:46:16.027232 20478 net.cpp:157] Top shape: 1 512 60 60 (1843200)
I0718 19:46:16.027240 20478 net.cpp:165] Memory required for data: 788889600
I0718 19:46:16.027245 20478 layer_factory.hpp:77] Creating layer res3b3_res3b3_relu_0_split
I0718 19:46:16.027259 20478 net.cpp:100] Creating Layer res3b3_res3b3_relu_0_split
I0718 19:46:16.027267 20478 net.cpp:444] res3b3_res3b3_relu_0_split <- res3b3
I0718 19:46:16.027277 20478 net.cpp:418] res3b3_res3b3_relu_0_split -> res3b3_res3b3_relu_0_split_0
I0718 19:46:16.027287 20478 net.cpp:418] res3b3_res3b3_relu_0_split -> res3b3_res3b3_relu_0_split_1
I0718 19:46:16.027336 20478 net.cpp:150] Setting up res3b3_res3b3_relu_0_split
I0718 19:46:16.027349 20478 net.cpp:157] Top shape: 1 512 60 60 (1843200)
I0718 19:46:16.027359 20478 net.cpp:157] Top shape: 1 512 60 60 (1843200)
I0718 19:46:16.027364 20478 net.cpp:165] Memory required for data: 803635200
I0718 19:46:16.027371 20478 layer_factory.hpp:77] Creating layer res4a_branch1
I0718 19:46:16.027385 20478 net.cpp:100] Creating Layer res4a_branch1
I0718 19:46:16.027392 20478 net.cpp:444] res4a_branch1 <- res3b3_res3b3_relu_0_split_0
I0718 19:46:16.027403 20478 net.cpp:418] res4a_branch1 -> res4a_branch1
I0718 19:46:16.029373 20478 net.cpp:150] Setting up res4a_branch1
I0718 19:46:16.029417 20478 net.cpp:157] Top shape: 1 1024 60 60 (3686400)
I0718 19:46:16.029427 20478 net.cpp:165] Memory required for data: 818380800
I0718 19:46:16.029443 20478 layer_factory.hpp:77] Creating layer bn4a_branch1
I0718 19:46:16.029465 20478 net.cpp:100] Creating Layer bn4a_branch1
I0718 19:46:16.029476 20478 net.cpp:444] bn4a_branch1 <- res4a_branch1
I0718 19:46:16.029528 20478 net.cpp:405] bn4a_branch1 -> res4a_branch1 (in-place)
I0718 19:46:16.029804 20478 net.cpp:150] Setting up bn4a_branch1
I0718 19:46:16.029819 20478 net.cpp:157] Top shape: 1 1024 60 60 (3686400)
I0718 19:46:16.029826 20478 net.cpp:165] Memory required for data: 833126400
I0718 19:46:16.029840 20478 layer_factory.hpp:77] Creating layer scale4a_branch1
I0718 19:46:16.029857 20478 net.cpp:100] Creating Layer scale4a_branch1
I0718 19:46:16.029865 20478 net.cpp:444] scale4a_branch1 <- res4a_branch1
I0718 19:46:16.029881 20478 net.cpp:405] scale4a_branch1 -> res4a_branch1 (in-place)
I0718 19:46:16.029938 20478 layer_factory.hpp:77] Creating layer scale4a_branch1
I0718 19:46:16.030107 20478 net.cpp:150] Setting up scale4a_branch1
I0718 19:46:16.030122 20478 net.cpp:157] Top shape: 1 1024 60 60 (3686400)
I0718 19:46:16.030128 20478 net.cpp:165] Memory required for data: 847872000
I0718 19:46:16.030139 20478 layer_factory.hpp:77] Creating layer res4a_branch2a
I0718 19:46:16.030155 20478 net.cpp:100] Creating Layer res4a_branch2a
I0718 19:46:16.030164 20478 net.cpp:444] res4a_branch2a <- res3b3_res3b3_relu_0_split_1
I0718 19:46:16.030328 20478 net.cpp:418] res4a_branch2a -> res4a_branch2a
I0718 19:46:16.030714 20478 net.cpp:150] Setting up res4a_branch2a
I0718 19:46:16.030737 20478 net.cpp:157] Top shape: 1 256 60 60 (921600)
I0718 19:46:16.030746 20478 net.cpp:165] Memory required for data: 851558400
I0718 19:46:16.030757 20478 layer_factory.hpp:77] Creating layer bn4a_branch2a
I0718 19:46:16.030772 20478 net.cpp:100] Creating Layer bn4a_branch2a
I0718 19:46:16.030781 20478 net.cpp:444] bn4a_branch2a <- res4a_branch2a
I0718 19:46:16.030794 20478 net.cpp:405] bn4a_branch2a -> res4a_branch2a (in-place)
I0718 19:46:16.031697 20478 net.cpp:150] Setting up bn4a_branch2a
I0718 19:46:16.031720 20478 net.cpp:157] Top shape: 1 256 60 60 (921600)
I0718 19:46:16.031730 20478 net.cpp:165] Memory required for data: 855244800
I0718 19:46:16.031746 20478 layer_factory.hpp:77] Creating layer scale4a_branch2a
I0718 19:46:16.031761 20478 net.cpp:100] Creating Layer scale4a_branch2a
I0718 19:46:16.031770 20478 net.cpp:444] scale4a_branch2a <- res4a_branch2a
I0718 19:46:16.031780 20478 net.cpp:405] scale4a_branch2a -> res4a_branch2a (in-place)
I0718 19:46:16.031838 20478 layer_factory.hpp:77] Creating layer scale4a_branch2a
I0718 19:46:16.031992 20478 net.cpp:150] Setting up scale4a_branch2a
I0718 19:46:16.032007 20478 net.cpp:157] Top shape: 1 256 60 60 (921600)
I0718 19:46:16.032014 20478 net.cpp:165] Memory required for data: 858931200
I0718 19:46:16.032027 20478 layer_factory.hpp:77] Creating layer res4a_branch2a_relu
I0718 19:46:16.032042 20478 net.cpp:100] Creating Layer res4a_branch2a_relu
I0718 19:46:16.032050 20478 net.cpp:444] res4a_branch2a_relu <- res4a_branch2a
I0718 19:46:16.032059 20478 net.cpp:405] res4a_branch2a_relu -> res4a_branch2a (in-place)
I0718 19:46:16.032071 20478 net.cpp:150] Setting up res4a_branch2a_relu
I0718 19:46:16.032080 20478 net.cpp:157] Top shape: 1 256 60 60 (921600)
I0718 19:46:16.032086 20478 net.cpp:165] Memory required for data: 862617600
I0718 19:46:16.032094 20478 layer_factory.hpp:77] Creating layer res4a_branch2b
I0718 19:46:16.032110 20478 net.cpp:100] Creating Layer res4a_branch2b
I0718 19:46:16.032119 20478 net.cpp:444] res4a_branch2b <- res4a_branch2a
I0718 19:46:16.032130 20478 net.cpp:418] res4a_branch2b -> res4a_branch2b
I0718 19:46:16.034024 20478 net.cpp:150] Setting up res4a_branch2b
I0718 19:46:16.034047 20478 net.cpp:157] Top shape: 1 256 60 60 (921600)
I0718 19:46:16.034054 20478 net.cpp:165] Memory required for data: 866304000
I0718 19:46:16.034066 20478 layer_factory.hpp:77] Creating layer bn4a_branch2b
I0718 19:46:16.034085 20478 net.cpp:100] Creating Layer bn4a_branch2b
I0718 19:46:16.034095 20478 net.cpp:444] bn4a_branch2b <- res4a_branch2b
I0718 19:46:16.034106 20478 net.cpp:405] bn4a_branch2b -> res4a_branch2b (in-place)
I0718 19:46:16.034340 20478 net.cpp:150] Setting up bn4a_branch2b
I0718 19:46:16.034355 20478 net.cpp:157] Top shape: 1 256 60 60 (921600)
I0718 19:46:16.034384 20478 net.cpp:165] Memory required for data: 869990400
I0718 19:46:16.034399 20478 layer_factory.hpp:77] Creating layer scale4a_branch2b
I0718 19:46:16.034417 20478 net.cpp:100] Creating Layer scale4a_branch2b
I0718 19:46:16.034425 20478 net.cpp:444] scale4a_branch2b <- res4a_branch2b
I0718 19:46:16.034436 20478 net.cpp:405] scale4a_branch2b -> res4a_branch2b (in-place)
I0718 19:46:16.034495 20478 layer_factory.hpp:77] Creating layer scale4a_branch2b
I0718 19:46:16.034653 20478 net.cpp:150] Setting up scale4a_branch2b
I0718 19:46:16.034669 20478 net.cpp:157] Top shape: 1 256 60 60 (921600)
I0718 19:46:16.034675 20478 net.cpp:165] Memory required for data: 873676800
I0718 19:46:16.034687 20478 layer_factory.hpp:77] Creating layer res4a_branch2b_relu
I0718 19:46:16.034698 20478 net.cpp:100] Creating Layer res4a_branch2b_relu
I0718 19:46:16.034705 20478 net.cpp:444] res4a_branch2b_relu <- res4a_branch2b
I0718 19:46:16.034719 20478 net.cpp:405] res4a_branch2b_relu -> res4a_branch2b (in-place)
I0718 19:46:16.034730 20478 net.cpp:150] Setting up res4a_branch2b_relu
I0718 19:46:16.034739 20478 net.cpp:157] Top shape: 1 256 60 60 (921600)
I0718 19:46:16.034746 20478 net.cpp:165] Memory required for data: 877363200
I0718 19:46:16.034752 20478 layer_factory.hpp:77] Creating layer res4a_branch2c
I0718 19:46:16.034768 20478 net.cpp:100] Creating Layer res4a_branch2c
I0718 19:46:16.034777 20478 net.cpp:444] res4a_branch2c <- res4a_branch2b
I0718 19:46:16.034787 20478 net.cpp:418] res4a_branch2c -> res4a_branch2c
I0718 19:46:16.035902 20478 net.cpp:150] Setting up res4a_branch2c
I0718 19:46:16.035922 20478 net.cpp:157] Top shape: 1 1024 60 60 (3686400)
I0718 19:46:16.035928 20478 net.cpp:165] Memory required for data: 892108800
I0718 19:46:16.035940 20478 layer_factory.hpp:77] Creating layer bn4a_branch2c
I0718 19:46:16.035953 20478 net.cpp:100] Creating Layer bn4a_branch2c
I0718 19:46:16.035961 20478 net.cpp:444] bn4a_branch2c <- res4a_branch2c
I0718 19:46:16.035975 20478 net.cpp:405] bn4a_branch2c -> res4a_branch2c (in-place)
I0718 19:46:16.036237 20478 net.cpp:150] Setting up bn4a_branch2c
I0718 19:46:16.036252 20478 net.cpp:157] Top shape: 1 1024 60 60 (3686400)
I0718 19:46:16.036257 20478 net.cpp:165] Memory required for data: 906854400
I0718 19:46:16.036272 20478 layer_factory.hpp:77] Creating layer scale4a_branch2c
I0718 19:46:16.036284 20478 net.cpp:100] Creating Layer scale4a_branch2c
I0718 19:46:16.036293 20478 net.cpp:444] scale4a_branch2c <- res4a_branch2c
I0718 19:46:16.036301 20478 net.cpp:405] scale4a_branch2c -> res4a_branch2c (in-place)
I0718 19:46:16.036362 20478 layer_factory.hpp:77] Creating layer scale4a_branch2c
I0718 19:46:16.036527 20478 net.cpp:150] Setting up scale4a_branch2c
I0718 19:46:16.036543 20478 net.cpp:157] Top shape: 1 1024 60 60 (3686400)
I0718 19:46:16.036550 20478 net.cpp:165] Memory required for data: 921600000
I0718 19:46:16.036563 20478 layer_factory.hpp:77] Creating layer res4a
I0718 19:46:16.036587 20478 net.cpp:100] Creating Layer res4a
I0718 19:46:16.036595 20478 net.cpp:444] res4a <- res4a_branch1
I0718 19:46:16.036603 20478 net.cpp:444] res4a <- res4a_branch2c
I0718 19:46:16.036612 20478 net.cpp:418] res4a -> res4a
I0718 19:46:16.036650 20478 net.cpp:150] Setting up res4a
I0718 19:46:16.036664 20478 net.cpp:157] Top shape: 1 1024 60 60 (3686400)
I0718 19:46:16.036669 20478 net.cpp:165] Memory required for data: 936345600
I0718 19:46:16.036676 20478 layer_factory.hpp:77] Creating layer res4a_relu
I0718 19:46:16.036686 20478 net.cpp:100] Creating Layer res4a_relu
I0718 19:46:16.036694 20478 net.cpp:444] res4a_relu <- res4a
I0718 19:46:16.036705 20478 net.cpp:405] res4a_relu -> res4a (in-place)
I0718 19:46:16.036728 20478 net.cpp:150] Setting up res4a_relu
I0718 19:46:16.036738 20478 net.cpp:157] Top shape: 1 1024 60 60 (3686400)
I0718 19:46:16.036744 20478 net.cpp:165] Memory required for data: 951091200
I0718 19:46:16.036751 20478 layer_factory.hpp:77] Creating layer res4a_res4a_relu_0_split
I0718 19:46:16.036772 20478 net.cpp:100] Creating Layer res4a_res4a_relu_0_split
I0718 19:46:16.036803 20478 net.cpp:444] res4a_res4a_relu_0_split <- res4a
I0718 19:46:16.036814 20478 net.cpp:418] res4a_res4a_relu_0_split -> res4a_res4a_relu_0_split_0
I0718 19:46:16.036834 20478 net.cpp:418] res4a_res4a_relu_0_split -> res4a_res4a_relu_0_split_1
I0718 19:46:16.036886 20478 net.cpp:150] Setting up res4a_res4a_relu_0_split
I0718 19:46:16.036898 20478 net.cpp:157] Top shape: 1 1024 60 60 (3686400)
I0718 19:46:16.036906 20478 net.cpp:157] Top shape: 1 1024 60 60 (3686400)
I0718 19:46:16.036913 20478 net.cpp:165] Memory required for data: 980582400
I0718 19:46:16.036919 20478 layer_factory.hpp:77] Creating layer res4b1_branch2a
I0718 19:46:16.036969 20478 net.cpp:100] Creating Layer res4b1_branch2a
I0718 19:46:16.036978 20478 net.cpp:444] res4b1_branch2a <- res4a_res4a_relu_0_split_0
I0718 19:46:16.036989 20478 net.cpp:418] res4b1_branch2a -> res4b1_branch2a
I0718 19:46:16.038218 20478 net.cpp:150] Setting up res4b1_branch2a
I0718 19:46:16.038240 20478 net.cpp:157] Top shape: 1 256 60 60 (921600)
I0718 19:46:16.038247 20478 net.cpp:165] Memory required for data: 984268800
I0718 19:46:16.038260 20478 layer_factory.hpp:77] Creating layer bn4b1_branch2a
I0718 19:46:16.038280 20478 net.cpp:100] Creating Layer bn4b1_branch2a
I0718 19:46:16.038287 20478 net.cpp:444] bn4b1_branch2a <- res4b1_branch2a
I0718 19:46:16.038300 20478 net.cpp:405] bn4b1_branch2a -> res4b1_branch2a (in-place)
I0718 19:46:16.038565 20478 net.cpp:150] Setting up bn4b1_branch2a
I0718 19:46:16.038579 20478 net.cpp:157] Top shape: 1 256 60 60 (921600)
I0718 19:46:16.038586 20478 net.cpp:165] Memory required for data: 987955200
I0718 19:46:16.038599 20478 layer_factory.hpp:77] Creating layer scale4b1_branch2a
I0718 19:46:16.038614 20478 net.cpp:100] Creating Layer scale4b1_branch2a
I0718 19:46:16.038621 20478 net.cpp:444] scale4b1_branch2a <- res4b1_branch2a
I0718 19:46:16.038633 20478 net.cpp:405] scale4b1_branch2a -> res4b1_branch2a (in-place)
I0718 19:46:16.038694 20478 layer_factory.hpp:77] Creating layer scale4b1_branch2a
I0718 19:46:16.038857 20478 net.cpp:150] Setting up scale4b1_branch2a
I0718 19:46:16.038871 20478 net.cpp:157] Top shape: 1 256 60 60 (921600)
I0718 19:46:16.038877 20478 net.cpp:165] Memory required for data: 991641600
I0718 19:46:16.038888 20478 layer_factory.hpp:77] Creating layer res4b1_branch2a_relu
I0718 19:46:16.038899 20478 net.cpp:100] Creating Layer res4b1_branch2a_relu
I0718 19:46:16.038907 20478 net.cpp:444] res4b1_branch2a_relu <- res4b1_branch2a
I0718 19:46:16.038918 20478 net.cpp:405] res4b1_branch2a_relu -> res4b1_branch2a (in-place)
I0718 19:46:16.038930 20478 net.cpp:150] Setting up res4b1_branch2a_relu
I0718 19:46:16.038939 20478 net.cpp:157] Top shape: 1 256 60 60 (921600)
I0718 19:46:16.038945 20478 net.cpp:165] Memory required for data: 995328000
I0718 19:46:16.038951 20478 layer_factory.hpp:77] Creating layer res4b1_branch2b
I0718 19:46:16.038966 20478 net.cpp:100] Creating Layer res4b1_branch2b
I0718 19:46:16.038974 20478 net.cpp:444] res4b1_branch2b <- res4b1_branch2a
I0718 19:46:16.038986 20478 net.cpp:418] res4b1_branch2b -> res4b1_branch2b
I0718 19:46:16.041571 20478 net.cpp:150] Setting up res4b1_branch2b
I0718 19:46:16.041635 20478 net.cpp:157] Top shape: 1 256 60 60 (921600)
I0718 19:46:16.041643 20478 net.cpp:165] Memory required for data: 999014400
I0718 19:46:16.041663 20478 layer_factory.hpp:77] Creating layer bn4b1_branch2b
I0718 19:46:16.041687 20478 net.cpp:100] Creating Layer bn4b1_branch2b
I0718 19:46:16.041697 20478 net.cpp:444] bn4b1_branch2b <- res4b1_branch2b
I0718 19:46:16.041708 20478 net.cpp:405] bn4b1_branch2b -> res4b1_branch2b (in-place)
I0718 19:46:16.041981 20478 net.cpp:150] Setting up bn4b1_branch2b
I0718 19:46:16.041996 20478 net.cpp:157] Top shape: 1 256 60 60 (921600)
I0718 19:46:16.042001 20478 net.cpp:165] Memory required for data: 1002700800
I0718 19:46:16.042017 20478 layer_factory.hpp:77] Creating layer scale4b1_branch2b
I0718 19:46:16.042033 20478 net.cpp:100] Creating Layer scale4b1_branch2b
I0718 19:46:16.042040 20478 net.cpp:444] scale4b1_branch2b <- res4b1_branch2b
I0718 19:46:16.042096 20478 net.cpp:405] scale4b1_branch2b -> res4b1_branch2b (in-place)
I0718 19:46:16.042165 20478 layer_factory.hpp:77] Creating layer scale4b1_branch2b
I0718 19:46:16.042328 20478 net.cpp:150] Setting up scale4b1_branch2b
I0718 19:46:16.042342 20478 net.cpp:157] Top shape: 1 256 60 60 (921600)
I0718 19:46:16.042349 20478 net.cpp:165] Memory required for data: 1006387200
I0718 19:46:16.042362 20478 layer_factory.hpp:77] Creating layer res4b1_branch2b_relu
I0718 19:46:16.042374 20478 net.cpp:100] Creating Layer res4b1_branch2b_relu
I0718 19:46:16.042382 20478 net.cpp:444] res4b1_branch2b_relu <- res4b1_branch2b
I0718 19:46:16.042392 20478 net.cpp:405] res4b1_branch2b_relu -> res4b1_branch2b (in-place)
I0718 19:46:16.042404 20478 net.cpp:150] Setting up res4b1_branch2b_relu
I0718 19:46:16.042413 20478 net.cpp:157] Top shape: 1 256 60 60 (921600)
I0718 19:46:16.042419 20478 net.cpp:165] Memory required for data: 1010073600
I0718 19:46:16.042425 20478 layer_factory.hpp:77] Creating layer res4b1_branch2c
I0718 19:46:16.042441 20478 net.cpp:100] Creating Layer res4b1_branch2c
I0718 19:46:16.042448 20478 net.cpp:444] res4b1_branch2c <- res4b1_branch2b
I0718 19:46:16.042460 20478 net.cpp:418] res4b1_branch2c -> res4b1_branch2c
I0718 19:46:16.043596 20478 net.cpp:150] Setting up res4b1_branch2c
I0718 19:46:16.043619 20478 net.cpp:157] Top shape: 1 1024 60 60 (3686400)
I0718 19:46:16.043627 20478 net.cpp:165] Memory required for data: 1024819200
I0718 19:46:16.043638 20478 layer_factory.hpp:77] Creating layer bn4b1_branch2c
I0718 19:46:16.043655 20478 net.cpp:100] Creating Layer bn4b1_branch2c
I0718 19:46:16.043663 20478 net.cpp:444] bn4b1_branch2c <- res4b1_branch2c
I0718 19:46:16.043673 20478 net.cpp:405] bn4b1_branch2c -> res4b1_branch2c (in-place)
I0718 19:46:16.043931 20478 net.cpp:150] Setting up bn4b1_branch2c
I0718 19:46:16.043946 20478 net.cpp:157] Top shape: 1 1024 60 60 (3686400)
I0718 19:46:16.043951 20478 net.cpp:165] Memory required for data: 1039564800
I0718 19:46:16.043965 20478 layer_factory.hpp:77] Creating layer scale4b1_branch2c
I0718 19:46:16.043978 20478 net.cpp:100] Creating Layer scale4b1_branch2c
I0718 19:46:16.043985 20478 net.cpp:444] scale4b1_branch2c <- res4b1_branch2c
I0718 19:46:16.043998 20478 net.cpp:405] scale4b1_branch2c -> res4b1_branch2c (in-place)
I0718 19:46:16.044050 20478 layer_factory.hpp:77] Creating layer scale4b1_branch2c
I0718 19:46:16.044215 20478 net.cpp:150] Setting up scale4b1_branch2c
I0718 19:46:16.044229 20478 net.cpp:157] Top shape: 1 1024 60 60 (3686400)
I0718 19:46:16.044235 20478 net.cpp:165] Memory required for data: 1054310400
I0718 19:46:16.044246 20478 layer_factory.hpp:77] Creating layer res4b1
I0718 19:46:16.044258 20478 net.cpp:100] Creating Layer res4b1
I0718 19:46:16.044266 20478 net.cpp:444] res4b1 <- res4a_res4a_relu_0_split_1
I0718 19:46:16.044275 20478 net.cpp:444] res4b1 <- res4b1_branch2c
I0718 19:46:16.044286 20478 net.cpp:418] res4b1 -> res4b1
I0718 19:46:16.044324 20478 net.cpp:150] Setting up res4b1
I0718 19:46:16.044339 20478 net.cpp:157] Top shape: 1 1024 60 60 (3686400)
I0718 19:46:16.044345 20478 net.cpp:165] Memory required for data: 1069056000
I0718 19:46:16.044353 20478 layer_factory.hpp:77] Creating layer res4b1_relu
I0718 19:46:16.044363 20478 net.cpp:100] Creating Layer res4b1_relu
I0718 19:46:16.044370 20478 net.cpp:444] res4b1_relu <- res4b1
I0718 19:46:16.044379 20478 net.cpp:405] res4b1_relu -> res4b1 (in-place)
I0718 19:46:16.044389 20478 net.cpp:150] Setting up res4b1_relu
I0718 19:46:16.044399 20478 net.cpp:157] Top shape: 1 1024 60 60 (3686400)
I0718 19:46:16.044404 20478 net.cpp:165] Memory required for data: 1083801600
I0718 19:46:16.044410 20478 layer_factory.hpp:77] Creating layer res4b1_res4b1_relu_0_split
I0718 19:46:16.044422 20478 net.cpp:100] Creating Layer res4b1_res4b1_relu_0_split
I0718 19:46:16.044428 20478 net.cpp:444] res4b1_res4b1_relu_0_split <- res4b1
I0718 19:46:16.044440 20478 net.cpp:418] res4b1_res4b1_relu_0_split -> res4b1_res4b1_relu_0_split_0
I0718 19:46:16.044451 20478 net.cpp:418] res4b1_res4b1_relu_0_split -> res4b1_res4b1_relu_0_split_1
I0718 19:46:16.044534 20478 net.cpp:150] Setting up res4b1_res4b1_relu_0_split
I0718 19:46:16.044548 20478 net.cpp:157] Top shape: 1 1024 60 60 (3686400)
I0718 19:46:16.044555 20478 net.cpp:157] Top shape: 1 1024 60 60 (3686400)
I0718 19:46:16.044561 20478 net.cpp:165] Memory required for data: 1113292800
I0718 19:46:16.044569 20478 layer_factory.hpp:77] Creating layer res4b2_branch2a
I0718 19:46:16.044582 20478 net.cpp:100] Creating Layer res4b2_branch2a
I0718 19:46:16.044589 20478 net.cpp:444] res4b2_branch2a <- res4b1_res4b1_relu_0_split_0
I0718 19:46:16.044600 20478 net.cpp:418] res4b2_branch2a -> res4b2_branch2a
I0718 19:46:16.045773 20478 net.cpp:150] Setting up res4b2_branch2a
I0718 19:46:16.045794 20478 net.cpp:157] Top shape: 1 256 60 60 (921600)
I0718 19:46:16.045800 20478 net.cpp:165] Memory required for data: 1116979200
I0718 19:46:16.045815 20478 layer_factory.hpp:77] Creating layer bn4b2_branch2a
I0718 19:46:16.045831 20478 net.cpp:100] Creating Layer bn4b2_branch2a
I0718 19:46:16.045838 20478 net.cpp:444] bn4b2_branch2a <- res4b2_branch2a
I0718 19:46:16.045851 20478 net.cpp:405] bn4b2_branch2a -> res4b2_branch2a (in-place)
I0718 19:46:16.046201 20478 net.cpp:150] Setting up bn4b2_branch2a
I0718 19:46:16.046223 20478 net.cpp:157] Top shape: 1 256 60 60 (921600)
I0718 19:46:16.046231 20478 net.cpp:165] Memory required for data: 1120665600
I0718 19:46:16.046247 20478 layer_factory.hpp:77] Creating layer scale4b2_branch2a
I0718 19:46:16.046260 20478 net.cpp:100] Creating Layer scale4b2_branch2a
I0718 19:46:16.046268 20478 net.cpp:444] scale4b2_branch2a <- res4b2_branch2a
I0718 19:46:16.046278 20478 net.cpp:405] scale4b2_branch2a -> res4b2_branch2a (in-place)
I0718 19:46:16.046339 20478 layer_factory.hpp:77] Creating layer scale4b2_branch2a
I0718 19:46:16.046502 20478 net.cpp:150] Setting up scale4b2_branch2a
I0718 19:46:16.046515 20478 net.cpp:157] Top shape: 1 256 60 60 (921600)
I0718 19:46:16.046522 20478 net.cpp:165] Memory required for data: 1124352000
I0718 19:46:16.046535 20478 layer_factory.hpp:77] Creating layer res4b2_branch2a_relu
I0718 19:46:16.046548 20478 net.cpp:100] Creating Layer res4b2_branch2a_relu
I0718 19:46:16.046555 20478 net.cpp:444] res4b2_branch2a_relu <- res4b2_branch2a
I0718 19:46:16.046564 20478 net.cpp:405] res4b2_branch2a_relu -> res4b2_branch2a (in-place)
I0718 19:46:16.046576 20478 net.cpp:150] Setting up res4b2_branch2a_relu
I0718 19:46:16.046583 20478 net.cpp:157] Top shape: 1 256 60 60 (921600)
I0718 19:46:16.046591 20478 net.cpp:165] Memory required for data: 1128038400
I0718 19:46:16.046597 20478 layer_factory.hpp:77] Creating layer res4b2_branch2b
I0718 19:46:16.046612 20478 net.cpp:100] Creating Layer res4b2_branch2b
I0718 19:46:16.046620 20478 net.cpp:444] res4b2_branch2b <- res4b2_branch2a
I0718 19:46:16.046630 20478 net.cpp:418] res4b2_branch2b -> res4b2_branch2b
I0718 19:46:16.048427 20478 net.cpp:150] Setting up res4b2_branch2b
I0718 19:46:16.048449 20478 net.cpp:157] Top shape: 1 256 60 60 (921600)
I0718 19:46:16.048455 20478 net.cpp:165] Memory required for data: 1131724800
I0718 19:46:16.048467 20478 layer_factory.hpp:77] Creating layer bn4b2_branch2b
I0718 19:46:16.048480 20478 net.cpp:100] Creating Layer bn4b2_branch2b
I0718 19:46:16.048488 20478 net.cpp:444] bn4b2_branch2b <- res4b2_branch2b
I0718 19:46:16.048501 20478 net.cpp:405] bn4b2_branch2b -> res4b2_branch2b (in-place)
I0718 19:46:16.048768 20478 net.cpp:150] Setting up bn4b2_branch2b
I0718 19:46:16.048782 20478 net.cpp:157] Top shape: 1 256 60 60 (921600)
I0718 19:46:16.048789 20478 net.cpp:165] Memory required for data: 1135411200
I0718 19:46:16.048804 20478 layer_factory.hpp:77] Creating layer scale4b2_branch2b
I0718 19:46:16.048815 20478 net.cpp:100] Creating Layer scale4b2_branch2b
I0718 19:46:16.048822 20478 net.cpp:444] scale4b2_branch2b <- res4b2_branch2b
I0718 19:46:16.048831 20478 net.cpp:405] scale4b2_branch2b -> res4b2_branch2b (in-place)
I0718 19:46:16.048889 20478 layer_factory.hpp:77] Creating layer scale4b2_branch2b
I0718 19:46:16.049082 20478 net.cpp:150] Setting up scale4b2_branch2b
I0718 19:46:16.049096 20478 net.cpp:157] Top shape: 1 256 60 60 (921600)
I0718 19:46:16.049103 20478 net.cpp:165] Memory required for data: 1139097600
I0718 19:46:16.049114 20478 layer_factory.hpp:77] Creating layer res4b2_branch2b_relu
I0718 19:46:16.049125 20478 net.cpp:100] Creating Layer res4b2_branch2b_relu
I0718 19:46:16.049135 20478 net.cpp:444] res4b2_branch2b_relu <- res4b2_branch2b
I0718 19:46:16.049144 20478 net.cpp:405] res4b2_branch2b_relu -> res4b2_branch2b (in-place)
I0718 19:46:16.049155 20478 net.cpp:150] Setting up res4b2_branch2b_relu
I0718 19:46:16.049165 20478 net.cpp:157] Top shape: 1 256 60 60 (921600)
I0718 19:46:16.049170 20478 net.cpp:165] Memory required for data: 1142784000
I0718 19:46:16.049176 20478 layer_factory.hpp:77] Creating layer res4b2_branch2c
I0718 19:46:16.049191 20478 net.cpp:100] Creating Layer res4b2_branch2c
I0718 19:46:16.049197 20478 net.cpp:444] res4b2_branch2c <- res4b2_branch2b
I0718 19:46:16.049211 20478 net.cpp:418] res4b2_branch2c -> res4b2_branch2c
I0718 19:46:16.050307 20478 net.cpp:150] Setting up res4b2_branch2c
I0718 19:46:16.050324 20478 net.cpp:157] Top shape: 1 1024 60 60 (3686400)
I0718 19:46:16.050331 20478 net.cpp:165] Memory required for data: 1157529600
I0718 19:46:16.050341 20478 layer_factory.hpp:77] Creating layer bn4b2_branch2c
I0718 19:46:16.050357 20478 net.cpp:100] Creating Layer bn4b2_branch2c
I0718 19:46:16.050365 20478 net.cpp:444] bn4b2_branch2c <- res4b2_branch2c
I0718 19:46:16.050375 20478 net.cpp:405] bn4b2_branch2c -> res4b2_branch2c (in-place)
I0718 19:46:16.050623 20478 net.cpp:150] Setting up bn4b2_branch2c
I0718 19:46:16.050637 20478 net.cpp:157] Top shape: 1 1024 60 60 (3686400)
I0718 19:46:16.050642 20478 net.cpp:165] Memory required for data: 1172275200
I0718 19:46:16.050657 20478 layer_factory.hpp:77] Creating layer scale4b2_branch2c
I0718 19:46:16.050671 20478 net.cpp:100] Creating Layer scale4b2_branch2c
I0718 19:46:16.050678 20478 net.cpp:444] scale4b2_branch2c <- res4b2_branch2c
I0718 19:46:16.050688 20478 net.cpp:405] scale4b2_branch2c -> res4b2_branch2c (in-place)
I0718 19:46:16.050745 20478 layer_factory.hpp:77] Creating layer scale4b2_branch2c
I0718 19:46:16.050920 20478 net.cpp:150] Setting up scale4b2_branch2c
I0718 19:46:16.050933 20478 net.cpp:157] Top shape: 1 1024 60 60 (3686400)
I0718 19:46:16.050940 20478 net.cpp:165] Memory required for data: 1187020800
I0718 19:46:16.050951 20478 layer_factory.hpp:77] Creating layer res4b2
I0718 19:46:16.050962 20478 net.cpp:100] Creating Layer res4b2
I0718 19:46:16.050971 20478 net.cpp:444] res4b2 <- res4b1_res4b1_relu_0_split_1
I0718 19:46:16.050978 20478 net.cpp:444] res4b2 <- res4b2_branch2c
I0718 19:46:16.050992 20478 net.cpp:418] res4b2 -> res4b2
I0718 19:46:16.051033 20478 net.cpp:150] Setting up res4b2
I0718 19:46:16.051044 20478 net.cpp:157] Top shape: 1 1024 60 60 (3686400)
I0718 19:46:16.051051 20478 net.cpp:165] Memory required for data: 1201766400
I0718 19:46:16.051059 20478 layer_factory.hpp:77] Creating layer res4b2_relu
I0718 19:46:16.051069 20478 net.cpp:100] Creating Layer res4b2_relu
I0718 19:46:16.051075 20478 net.cpp:444] res4b2_relu <- res4b2
I0718 19:46:16.051084 20478 net.cpp:405] res4b2_relu -> res4b2 (in-place)
I0718 19:46:16.051095 20478 net.cpp:150] Setting up res4b2_relu
I0718 19:46:16.051102 20478 net.cpp:157] Top shape: 1 1024 60 60 (3686400)
I0718 19:46:16.051108 20478 net.cpp:165] Memory required for data: 1216512000
I0718 19:46:16.051115 20478 layer_factory.hpp:77] Creating layer res4b2_res4b2_relu_0_split
I0718 19:46:16.051128 20478 net.cpp:100] Creating Layer res4b2_res4b2_relu_0_split
I0718 19:46:16.051136 20478 net.cpp:444] res4b2_res4b2_relu_0_split <- res4b2
I0718 19:46:16.051144 20478 net.cpp:418] res4b2_res4b2_relu_0_split -> res4b2_res4b2_relu_0_split_0
I0718 19:46:16.051154 20478 net.cpp:418] res4b2_res4b2_relu_0_split -> res4b2_res4b2_relu_0_split_1
I0718 19:46:16.051210 20478 net.cpp:150] Setting up res4b2_res4b2_relu_0_split
I0718 19:46:16.051223 20478 net.cpp:157] Top shape: 1 1024 60 60 (3686400)
I0718 19:46:16.051246 20478 net.cpp:157] Top shape: 1 1024 60 60 (3686400)
I0718 19:46:16.051254 20478 net.cpp:165] Memory required for data: 1246003200
I0718 19:46:16.051260 20478 layer_factory.hpp:77] Creating layer res4b3_branch2a
I0718 19:46:16.051275 20478 net.cpp:100] Creating Layer res4b3_branch2a
I0718 19:46:16.051281 20478 net.cpp:444] res4b3_branch2a <- res4b2_res4b2_relu_0_split_0
I0718 19:46:16.051292 20478 net.cpp:418] res4b3_branch2a -> res4b3_branch2a
I0718 19:46:16.052371 20478 net.cpp:150] Setting up res4b3_branch2a
I0718 19:46:16.052387 20478 net.cpp:157] Top shape: 1 256 60 60 (921600)
I0718 19:46:16.052394 20478 net.cpp:165] Memory required for data: 1249689600
I0718 19:46:16.052405 20478 layer_factory.hpp:77] Creating layer bn4b3_branch2a
I0718 19:46:16.052419 20478 net.cpp:100] Creating Layer bn4b3_branch2a
I0718 19:46:16.052428 20478 net.cpp:444] bn4b3_branch2a <- res4b3_branch2a
I0718 19:46:16.052439 20478 net.cpp:405] bn4b3_branch2a -> res4b3_branch2a (in-place)
I0718 19:46:16.053382 20478 net.cpp:150] Setting up bn4b3_branch2a
I0718 19:46:16.053400 20478 net.cpp:157] Top shape: 1 256 60 60 (921600)
I0718 19:46:16.053406 20478 net.cpp:165] Memory required for data: 1253376000
I0718 19:46:16.053421 20478 layer_factory.hpp:77] Creating layer scale4b3_branch2a
I0718 19:46:16.053434 20478 net.cpp:100] Creating Layer scale4b3_branch2a
I0718 19:46:16.053442 20478 net.cpp:444] scale4b3_branch2a <- res4b3_branch2a
I0718 19:46:16.053457 20478 net.cpp:405] scale4b3_branch2a -> res4b3_branch2a (in-place)
I0718 19:46:16.053514 20478 layer_factory.hpp:77] Creating layer scale4b3_branch2a
I0718 19:46:16.053668 20478 net.cpp:150] Setting up scale4b3_branch2a
I0718 19:46:16.053680 20478 net.cpp:157] Top shape: 1 256 60 60 (921600)
I0718 19:46:16.053688 20478 net.cpp:165] Memory required for data: 1257062400
I0718 19:46:16.053699 20478 layer_factory.hpp:77] Creating layer res4b3_branch2a_relu
I0718 19:46:16.053709 20478 net.cpp:100] Creating Layer res4b3_branch2a_relu
I0718 19:46:16.053715 20478 net.cpp:444] res4b3_branch2a_relu <- res4b3_branch2a
I0718 19:46:16.053724 20478 net.cpp:405] res4b3_branch2a_relu -> res4b3_branch2a (in-place)
I0718 19:46:16.053735 20478 net.cpp:150] Setting up res4b3_branch2a_relu
I0718 19:46:16.053742 20478 net.cpp:157] Top shape: 1 256 60 60 (921600)
I0718 19:46:16.053750 20478 net.cpp:165] Memory required for data: 1260748800
I0718 19:46:16.053755 20478 layer_factory.hpp:77] Creating layer res4b3_branch2b
I0718 19:46:16.053771 20478 net.cpp:100] Creating Layer res4b3_branch2b
I0718 19:46:16.053779 20478 net.cpp:444] res4b3_branch2b <- res4b3_branch2a
I0718 19:46:16.053792 20478 net.cpp:418] res4b3_branch2b -> res4b3_branch2b
I0718 19:46:16.055811 20478 net.cpp:150] Setting up res4b3_branch2b
I0718 19:46:16.055830 20478 net.cpp:157] Top shape: 1 256 60 60 (921600)
I0718 19:46:16.055836 20478 net.cpp:165] Memory required for data: 1264435200
I0718 19:46:16.055847 20478 layer_factory.hpp:77] Creating layer bn4b3_branch2b
I0718 19:46:16.055861 20478 net.cpp:100] Creating Layer bn4b3_branch2b
I0718 19:46:16.055868 20478 net.cpp:444] bn4b3_branch2b <- res4b3_branch2b
I0718 19:46:16.055881 20478 net.cpp:405] bn4b3_branch2b -> res4b3_branch2b (in-place)
I0718 19:46:16.056128 20478 net.cpp:150] Setting up bn4b3_branch2b
I0718 19:46:16.056141 20478 net.cpp:157] Top shape: 1 256 60 60 (921600)
I0718 19:46:16.056148 20478 net.cpp:165] Memory required for data: 1268121600
I0718 19:46:16.056160 20478 layer_factory.hpp:77] Creating layer scale4b3_branch2b
I0718 19:46:16.056174 20478 net.cpp:100] Creating Layer scale4b3_branch2b
I0718 19:46:16.056180 20478 net.cpp:444] scale4b3_branch2b <- res4b3_branch2b
I0718 19:46:16.056190 20478 net.cpp:405] scale4b3_branch2b -> res4b3_branch2b (in-place)
I0718 19:46:16.056251 20478 layer_factory.hpp:77] Creating layer scale4b3_branch2b
I0718 19:46:16.056407 20478 net.cpp:150] Setting up scale4b3_branch2b
I0718 19:46:16.056421 20478 net.cpp:157] Top shape: 1 256 60 60 (921600)
I0718 19:46:16.056427 20478 net.cpp:165] Memory required for data: 1271808000
I0718 19:46:16.056463 20478 layer_factory.hpp:77] Creating layer res4b3_branch2b_relu
I0718 19:46:16.056474 20478 net.cpp:100] Creating Layer res4b3_branch2b_relu
I0718 19:46:16.056481 20478 net.cpp:444] res4b3_branch2b_relu <- res4b3_branch2b
I0718 19:46:16.056493 20478 net.cpp:405] res4b3_branch2b_relu -> res4b3_branch2b (in-place)
I0718 19:46:16.056504 20478 net.cpp:150] Setting up res4b3_branch2b_relu
I0718 19:46:16.056512 20478 net.cpp:157] Top shape: 1 256 60 60 (921600)
I0718 19:46:16.056519 20478 net.cpp:165] Memory required for data: 1275494400
I0718 19:46:16.056525 20478 layer_factory.hpp:77] Creating layer res4b3_branch2c
I0718 19:46:16.056538 20478 net.cpp:100] Creating Layer res4b3_branch2c
I0718 19:46:16.056545 20478 net.cpp:444] res4b3_branch2c <- res4b3_branch2b
I0718 19:46:16.056557 20478 net.cpp:418] res4b3_branch2c -> res4b3_branch2c
I0718 19:46:16.057674 20478 net.cpp:150] Setting up res4b3_branch2c
I0718 19:46:16.057693 20478 net.cpp:157] Top shape: 1 1024 60 60 (3686400)
I0718 19:46:16.057698 20478 net.cpp:165] Memory required for data: 1290240000
I0718 19:46:16.057709 20478 layer_factory.hpp:77] Creating layer bn4b3_branch2c
I0718 19:46:16.057725 20478 net.cpp:100] Creating Layer bn4b3_branch2c
I0718 19:46:16.057734 20478 net.cpp:444] bn4b3_branch2c <- res4b3_branch2c
I0718 19:46:16.057742 20478 net.cpp:405] bn4b3_branch2c -> res4b3_branch2c (in-place)
I0718 19:46:16.057993 20478 net.cpp:150] Setting up bn4b3_branch2c
I0718 19:46:16.058007 20478 net.cpp:157] Top shape: 1 1024 60 60 (3686400)
I0718 19:46:16.058013 20478 net.cpp:165] Memory required for data: 1304985600
I0718 19:46:16.058027 20478 layer_factory.hpp:77] Creating layer scale4b3_branch2c
I0718 19:46:16.058042 20478 net.cpp:100] Creating Layer scale4b3_branch2c
I0718 19:46:16.058049 20478 net.cpp:444] scale4b3_branch2c <- res4b3_branch2c
I0718 19:46:16.058058 20478 net.cpp:405] scale4b3_branch2c -> res4b3_branch2c (in-place)
I0718 19:46:16.058110 20478 layer_factory.hpp:77] Creating layer scale4b3_branch2c
I0718 19:46:16.058274 20478 net.cpp:150] Setting up scale4b3_branch2c
I0718 19:46:16.058287 20478 net.cpp:157] Top shape: 1 1024 60 60 (3686400)
I0718 19:46:16.058295 20478 net.cpp:165] Memory required for data: 1319731200
I0718 19:46:16.058305 20478 layer_factory.hpp:77] Creating layer res4b3
I0718 19:46:16.058316 20478 net.cpp:100] Creating Layer res4b3
I0718 19:46:16.058323 20478 net.cpp:444] res4b3 <- res4b2_res4b2_relu_0_split_1
I0718 19:46:16.058332 20478 net.cpp:444] res4b3 <- res4b3_branch2c
I0718 19:46:16.058343 20478 net.cpp:418] res4b3 -> res4b3
I0718 19:46:16.058382 20478 net.cpp:150] Setting up res4b3
I0718 19:46:16.058394 20478 net.cpp:157] Top shape: 1 1024 60 60 (3686400)
I0718 19:46:16.058401 20478 net.cpp:165] Memory required for data: 1334476800
I0718 19:46:16.058408 20478 layer_factory.hpp:77] Creating layer res4b3_relu
I0718 19:46:16.058418 20478 net.cpp:100] Creating Layer res4b3_relu
I0718 19:46:16.058425 20478 net.cpp:444] res4b3_relu <- res4b3
I0718 19:46:16.058434 20478 net.cpp:405] res4b3_relu -> res4b3 (in-place)
I0718 19:46:16.058444 20478 net.cpp:150] Setting up res4b3_relu
I0718 19:46:16.058452 20478 net.cpp:157] Top shape: 1 1024 60 60 (3686400)
I0718 19:46:16.058459 20478 net.cpp:165] Memory required for data: 1349222400
I0718 19:46:16.058465 20478 layer_factory.hpp:77] Creating layer res4b3_res4b3_relu_0_split
I0718 19:46:16.058476 20478 net.cpp:100] Creating Layer res4b3_res4b3_relu_0_split
I0718 19:46:16.058483 20478 net.cpp:444] res4b3_res4b3_relu_0_split <- res4b3
I0718 19:46:16.058492 20478 net.cpp:418] res4b3_res4b3_relu_0_split -> res4b3_res4b3_relu_0_split_0
I0718 19:46:16.058503 20478 net.cpp:418] res4b3_res4b3_relu_0_split -> res4b3_res4b3_relu_0_split_1
I0718 19:46:16.058554 20478 net.cpp:150] Setting up res4b3_res4b3_relu_0_split
I0718 19:46:16.058567 20478 net.cpp:157] Top shape: 1 1024 60 60 (3686400)
I0718 19:46:16.058574 20478 net.cpp:157] Top shape: 1 1024 60 60 (3686400)
I0718 19:46:16.058580 20478 net.cpp:165] Memory required for data: 1378713600
I0718 19:46:16.058604 20478 layer_factory.hpp:77] Creating layer res4b4_branch2a
I0718 19:46:16.058619 20478 net.cpp:100] Creating Layer res4b4_branch2a
I0718 19:46:16.058626 20478 net.cpp:444] res4b4_branch2a <- res4b3_res4b3_relu_0_split_0
I0718 19:46:16.058636 20478 net.cpp:418] res4b4_branch2a -> res4b4_branch2a
I0718 19:46:16.059742 20478 net.cpp:150] Setting up res4b4_branch2a
I0718 19:46:16.059759 20478 net.cpp:157] Top shape: 1 256 60 60 (921600)
I0718 19:46:16.059765 20478 net.cpp:165] Memory required for data: 1382400000
I0718 19:46:16.059777 20478 layer_factory.hpp:77] Creating layer bn4b4_branch2a
I0718 19:46:16.059789 20478 net.cpp:100] Creating Layer bn4b4_branch2a
I0718 19:46:16.059797 20478 net.cpp:444] bn4b4_branch2a <- res4b4_branch2a
I0718 19:46:16.059809 20478 net.cpp:405] bn4b4_branch2a -> res4b4_branch2a (in-place)
I0718 19:46:16.060060 20478 net.cpp:150] Setting up bn4b4_branch2a
I0718 19:46:16.060073 20478 net.cpp:157] Top shape: 1 256 60 60 (921600)
I0718 19:46:16.060081 20478 net.cpp:165] Memory required for data: 1386086400
I0718 19:46:16.060093 20478 layer_factory.hpp:77] Creating layer scale4b4_branch2a
I0718 19:46:16.060106 20478 net.cpp:100] Creating Layer scale4b4_branch2a
I0718 19:46:16.060112 20478 net.cpp:444] scale4b4_branch2a <- res4b4_branch2a
I0718 19:46:16.060122 20478 net.cpp:405] scale4b4_branch2a -> res4b4_branch2a (in-place)
I0718 19:46:16.060181 20478 layer_factory.hpp:77] Creating layer scale4b4_branch2a
I0718 19:46:16.060340 20478 net.cpp:150] Setting up scale4b4_branch2a
I0718 19:46:16.060353 20478 net.cpp:157] Top shape: 1 256 60 60 (921600)
I0718 19:46:16.060360 20478 net.cpp:165] Memory required for data: 1389772800
I0718 19:46:16.060371 20478 layer_factory.hpp:77] Creating layer res4b4_branch2a_relu
I0718 19:46:16.060384 20478 net.cpp:100] Creating Layer res4b4_branch2a_relu
I0718 19:46:16.060391 20478 net.cpp:444] res4b4_branch2a_relu <- res4b4_branch2a
I0718 19:46:16.060400 20478 net.cpp:405] res4b4_branch2a_relu -> res4b4_branch2a (in-place)
I0718 19:46:16.060410 20478 net.cpp:150] Setting up res4b4_branch2a_relu
I0718 19:46:16.060418 20478 net.cpp:157] Top shape: 1 256 60 60 (921600)
I0718 19:46:16.060425 20478 net.cpp:165] Memory required for data: 1393459200
I0718 19:46:16.060431 20478 layer_factory.hpp:77] Creating layer res4b4_branch2b
I0718 19:46:16.060447 20478 net.cpp:100] Creating Layer res4b4_branch2b
I0718 19:46:16.060454 20478 net.cpp:444] res4b4_branch2b <- res4b4_branch2a
I0718 19:46:16.060464 20478 net.cpp:418] res4b4_branch2b -> res4b4_branch2b
I0718 19:46:16.062479 20478 net.cpp:150] Setting up res4b4_branch2b
I0718 19:46:16.062496 20478 net.cpp:157] Top shape: 1 256 60 60 (921600)
I0718 19:46:16.062502 20478 net.cpp:165] Memory required for data: 1397145600
I0718 19:46:16.062513 20478 layer_factory.hpp:77] Creating layer bn4b4_branch2b
I0718 19:46:16.062535 20478 net.cpp:100] Creating Layer bn4b4_branch2b
I0718 19:46:16.062542 20478 net.cpp:444] bn4b4_branch2b <- res4b4_branch2b
I0718 19:46:16.062552 20478 net.cpp:405] bn4b4_branch2b -> res4b4_branch2b (in-place)
I0718 19:46:16.062796 20478 net.cpp:150] Setting up bn4b4_branch2b
I0718 19:46:16.062810 20478 net.cpp:157] Top shape: 1 256 60 60 (921600)
I0718 19:46:16.062816 20478 net.cpp:165] Memory required for data: 1400832000
I0718 19:46:16.062830 20478 layer_factory.hpp:77] Creating layer scale4b4_branch2b
I0718 19:46:16.062846 20478 net.cpp:100] Creating Layer scale4b4_branch2b
I0718 19:46:16.062854 20478 net.cpp:444] scale4b4_branch2b <- res4b4_branch2b
I0718 19:46:16.062863 20478 net.cpp:405] scale4b4_branch2b -> res4b4_branch2b (in-place)
I0718 19:46:16.062921 20478 layer_factory.hpp:77] Creating layer scale4b4_branch2b
I0718 19:46:16.063081 20478 net.cpp:150] Setting up scale4b4_branch2b
I0718 19:46:16.063094 20478 net.cpp:157] Top shape: 1 256 60 60 (921600)
I0718 19:46:16.063100 20478 net.cpp:165] Memory required for data: 1404518400
I0718 19:46:16.063112 20478 layer_factory.hpp:77] Creating layer res4b4_branch2b_relu
I0718 19:46:16.063125 20478 net.cpp:100] Creating Layer res4b4_branch2b_relu
I0718 19:46:16.063149 20478 net.cpp:444] res4b4_branch2b_relu <- res4b4_branch2b
I0718 19:46:16.063159 20478 net.cpp:405] res4b4_branch2b_relu -> res4b4_branch2b (in-place)
I0718 19:46:16.063170 20478 net.cpp:150] Setting up res4b4_branch2b_relu
I0718 19:46:16.063179 20478 net.cpp:157] Top shape: 1 256 60 60 (921600)
I0718 19:46:16.063185 20478 net.cpp:165] Memory required for data: 1408204800
I0718 19:46:16.063192 20478 layer_factory.hpp:77] Creating layer res4b4_branch2c
I0718 19:46:16.063208 20478 net.cpp:100] Creating Layer res4b4_branch2c
I0718 19:46:16.063216 20478 net.cpp:444] res4b4_branch2c <- res4b4_branch2b
I0718 19:46:16.063225 20478 net.cpp:418] res4b4_branch2c -> res4b4_branch2c
I0718 19:46:16.064374 20478 net.cpp:150] Setting up res4b4_branch2c
I0718 19:46:16.064391 20478 net.cpp:157] Top shape: 1 1024 60 60 (3686400)
I0718 19:46:16.064399 20478 net.cpp:165] Memory required for data: 1422950400
I0718 19:46:16.064409 20478 layer_factory.hpp:77] Creating layer bn4b4_branch2c
I0718 19:46:16.064421 20478 net.cpp:100] Creating Layer bn4b4_branch2c
I0718 19:46:16.064429 20478 net.cpp:444] bn4b4_branch2c <- res4b4_branch2c
I0718 19:46:16.064441 20478 net.cpp:405] bn4b4_branch2c -> res4b4_branch2c (in-place)
I0718 19:46:16.064697 20478 net.cpp:150] Setting up bn4b4_branch2c
I0718 19:46:16.064734 20478 net.cpp:157] Top shape: 1 1024 60 60 (3686400)
I0718 19:46:16.064743 20478 net.cpp:165] Memory required for data: 1437696000
I0718 19:46:16.064756 20478 layer_factory.hpp:77] Creating layer scale4b4_branch2c
I0718 19:46:16.064769 20478 net.cpp:100] Creating Layer scale4b4_branch2c
I0718 19:46:16.064777 20478 net.cpp:444] scale4b4_branch2c <- res4b4_branch2c
I0718 19:46:16.064786 20478 net.cpp:405] scale4b4_branch2c -> res4b4_branch2c (in-place)
I0718 19:46:16.064846 20478 layer_factory.hpp:77] Creating layer scale4b4_branch2c
I0718 19:46:16.065008 20478 net.cpp:150] Setting up scale4b4_branch2c
I0718 19:46:16.065021 20478 net.cpp:157] Top shape: 1 1024 60 60 (3686400)
I0718 19:46:16.065028 20478 net.cpp:165] Memory required for data: 1452441600
I0718 19:46:16.065039 20478 layer_factory.hpp:77] Creating layer res4b4
I0718 19:46:16.065053 20478 net.cpp:100] Creating Layer res4b4
I0718 19:46:16.065062 20478 net.cpp:444] res4b4 <- res4b3_res4b3_relu_0_split_1
I0718 19:46:16.065069 20478 net.cpp:444] res4b4 <- res4b4_branch2c
I0718 19:46:16.065078 20478 net.cpp:418] res4b4 -> res4b4
I0718 19:46:16.065116 20478 net.cpp:150] Setting up res4b4
I0718 19:46:16.065129 20478 net.cpp:157] Top shape: 1 1024 60 60 (3686400)
I0718 19:46:16.065135 20478 net.cpp:165] Memory required for data: 1467187200
I0718 19:46:16.065141 20478 layer_factory.hpp:77] Creating layer res4b4_relu
I0718 19:46:16.065151 20478 net.cpp:100] Creating Layer res4b4_relu
I0718 19:46:16.065158 20478 net.cpp:444] res4b4_relu <- res4b4
I0718 19:46:16.065171 20478 net.cpp:405] res4b4_relu -> res4b4 (in-place)
I0718 19:46:16.065181 20478 net.cpp:150] Setting up res4b4_relu
I0718 19:46:16.065189 20478 net.cpp:157] Top shape: 1 1024 60 60 (3686400)
I0718 19:46:16.065196 20478 net.cpp:165] Memory required for data: 1481932800
I0718 19:46:16.065202 20478 layer_factory.hpp:77] Creating layer res4b4_res4b4_relu_0_split
I0718 19:46:16.065212 20478 net.cpp:100] Creating Layer res4b4_res4b4_relu_0_split
I0718 19:46:16.065217 20478 net.cpp:444] res4b4_res4b4_relu_0_split <- res4b4
I0718 19:46:16.065227 20478 net.cpp:418] res4b4_res4b4_relu_0_split -> res4b4_res4b4_relu_0_split_0
I0718 19:46:16.065237 20478 net.cpp:418] res4b4_res4b4_relu_0_split -> res4b4_res4b4_relu_0_split_1
I0718 19:46:16.065289 20478 net.cpp:150] Setting up res4b4_res4b4_relu_0_split
I0718 19:46:16.065300 20478 net.cpp:157] Top shape: 1 1024 60 60 (3686400)
I0718 19:46:16.065309 20478 net.cpp:157] Top shape: 1 1024 60 60 (3686400)
I0718 19:46:16.065315 20478 net.cpp:165] Memory required for data: 1511424000
I0718 19:46:16.065320 20478 layer_factory.hpp:77] Creating layer res4b5_branch2a
I0718 19:46:16.065336 20478 net.cpp:100] Creating Layer res4b5_branch2a
I0718 19:46:16.065345 20478 net.cpp:444] res4b5_branch2a <- res4b4_res4b4_relu_0_split_0
I0718 19:46:16.065369 20478 net.cpp:418] res4b5_branch2a -> res4b5_branch2a
I0718 19:46:16.066478 20478 net.cpp:150] Setting up res4b5_branch2a
I0718 19:46:16.066495 20478 net.cpp:157] Top shape: 1 256 60 60 (921600)
I0718 19:46:16.066501 20478 net.cpp:165] Memory required for data: 1515110400
I0718 19:46:16.066512 20478 layer_factory.hpp:77] Creating layer bn4b5_branch2a
I0718 19:46:16.066526 20478 net.cpp:100] Creating Layer bn4b5_branch2a
I0718 19:46:16.066534 20478 net.cpp:444] bn4b5_branch2a <- res4b5_branch2a
I0718 19:46:16.066542 20478 net.cpp:405] bn4b5_branch2a -> res4b5_branch2a (in-place)
I0718 19:46:16.066797 20478 net.cpp:150] Setting up bn4b5_branch2a
I0718 19:46:16.066809 20478 net.cpp:157] Top shape: 1 256 60 60 (921600)
I0718 19:46:16.066817 20478 net.cpp:165] Memory required for data: 1518796800
I0718 19:46:16.066829 20478 layer_factory.hpp:77] Creating layer scale4b5_branch2a
I0718 19:46:16.066844 20478 net.cpp:100] Creating Layer scale4b5_branch2a
I0718 19:46:16.066853 20478 net.cpp:444] scale4b5_branch2a <- res4b5_branch2a
I0718 19:46:16.066861 20478 net.cpp:405] scale4b5_branch2a -> res4b5_branch2a (in-place)
I0718 19:46:16.066925 20478 layer_factory.hpp:77] Creating layer scale4b5_branch2a
I0718 19:46:16.067082 20478 net.cpp:150] Setting up scale4b5_branch2a
I0718 19:46:16.067095 20478 net.cpp:157] Top shape: 1 256 60 60 (921600)
I0718 19:46:16.067101 20478 net.cpp:165] Memory required for data: 1522483200
I0718 19:46:16.067112 20478 layer_factory.hpp:77] Creating layer res4b5_branch2a_relu
I0718 19:46:16.067126 20478 net.cpp:100] Creating Layer res4b5_branch2a_relu
I0718 19:46:16.067133 20478 net.cpp:444] res4b5_branch2a_relu <- res4b5_branch2a
I0718 19:46:16.067142 20478 net.cpp:405] res4b5_branch2a_relu -> res4b5_branch2a (in-place)
I0718 19:46:16.067152 20478 net.cpp:150] Setting up res4b5_branch2a_relu
I0718 19:46:16.067160 20478 net.cpp:157] Top shape: 1 256 60 60 (921600)
I0718 19:46:16.067167 20478 net.cpp:165] Memory required for data: 1526169600
I0718 19:46:16.067173 20478 layer_factory.hpp:77] Creating layer res4b5_branch2b
I0718 19:46:16.067188 20478 net.cpp:100] Creating Layer res4b5_branch2b
I0718 19:46:16.067196 20478 net.cpp:444] res4b5_branch2b <- res4b5_branch2a
I0718 19:46:16.067209 20478 net.cpp:418] res4b5_branch2b -> res4b5_branch2b
I0718 19:46:16.069211 20478 net.cpp:150] Setting up res4b5_branch2b
I0718 19:46:16.069229 20478 net.cpp:157] Top shape: 1 256 60 60 (921600)
I0718 19:46:16.069236 20478 net.cpp:165] Memory required for data: 1529856000
I0718 19:46:16.069247 20478 layer_factory.hpp:77] Creating layer bn4b5_branch2b
I0718 19:46:16.069267 20478 net.cpp:100] Creating Layer bn4b5_branch2b
I0718 19:46:16.069275 20478 net.cpp:444] bn4b5_branch2b <- res4b5_branch2b
I0718 19:46:16.069285 20478 net.cpp:405] bn4b5_branch2b -> res4b5_branch2b (in-place)
I0718 19:46:16.069532 20478 net.cpp:150] Setting up bn4b5_branch2b
I0718 19:46:16.069545 20478 net.cpp:157] Top shape: 1 256 60 60 (921600)
I0718 19:46:16.069552 20478 net.cpp:165] Memory required for data: 1533542400
I0718 19:46:16.069566 20478 layer_factory.hpp:77] Creating layer scale4b5_branch2b
I0718 19:46:16.069577 20478 net.cpp:100] Creating Layer scale4b5_branch2b
I0718 19:46:16.069584 20478 net.cpp:444] scale4b5_branch2b <- res4b5_branch2b
I0718 19:46:16.069597 20478 net.cpp:405] scale4b5_branch2b -> res4b5_branch2b (in-place)
I0718 19:46:16.069653 20478 layer_factory.hpp:77] Creating layer scale4b5_branch2b
I0718 19:46:16.069811 20478 net.cpp:150] Setting up scale4b5_branch2b
I0718 19:46:16.069825 20478 net.cpp:157] Top shape: 1 256 60 60 (921600)
I0718 19:46:16.069831 20478 net.cpp:165] Memory required for data: 1537228800
I0718 19:46:16.069842 20478 layer_factory.hpp:77] Creating layer res4b5_branch2b_relu
I0718 19:46:16.069854 20478 net.cpp:100] Creating Layer res4b5_branch2b_relu
I0718 19:46:16.069860 20478 net.cpp:444] res4b5_branch2b_relu <- res4b5_branch2b
I0718 19:46:16.069869 20478 net.cpp:405] res4b5_branch2b_relu -> res4b5_branch2b (in-place)
I0718 19:46:16.069880 20478 net.cpp:150] Setting up res4b5_branch2b_relu
I0718 19:46:16.069907 20478 net.cpp:157] Top shape: 1 256 60 60 (921600)
I0718 19:46:16.069914 20478 net.cpp:165] Memory required for data: 1540915200
I0718 19:46:16.069921 20478 layer_factory.hpp:77] Creating layer res4b5_branch2c
I0718 19:46:16.069938 20478 net.cpp:100] Creating Layer res4b5_branch2c
I0718 19:46:16.069946 20478 net.cpp:444] res4b5_branch2c <- res4b5_branch2b
I0718 19:46:16.069957 20478 net.cpp:418] res4b5_branch2c -> res4b5_branch2c
I0718 19:46:16.071055 20478 net.cpp:150] Setting up res4b5_branch2c
I0718 19:46:16.071074 20478 net.cpp:157] Top shape: 1 1024 60 60 (3686400)
I0718 19:46:16.071079 20478 net.cpp:165] Memory required for data: 1555660800
I0718 19:46:16.071090 20478 layer_factory.hpp:77] Creating layer bn4b5_branch2c
I0718 19:46:16.071104 20478 net.cpp:100] Creating Layer bn4b5_branch2c
I0718 19:46:16.071110 20478 net.cpp:444] bn4b5_branch2c <- res4b5_branch2c
I0718 19:46:16.071120 20478 net.cpp:405] bn4b5_branch2c -> res4b5_branch2c (in-place)
I0718 19:46:16.071377 20478 net.cpp:150] Setting up bn4b5_branch2c
I0718 19:46:16.071390 20478 net.cpp:157] Top shape: 1 1024 60 60 (3686400)
I0718 19:46:16.071398 20478 net.cpp:165] Memory required for data: 1570406400
I0718 19:46:16.071410 20478 layer_factory.hpp:77] Creating layer scale4b5_branch2c
I0718 19:46:16.071425 20478 net.cpp:100] Creating Layer scale4b5_branch2c
I0718 19:46:16.071434 20478 net.cpp:444] scale4b5_branch2c <- res4b5_branch2c
I0718 19:46:16.071442 20478 net.cpp:405] scale4b5_branch2c -> res4b5_branch2c (in-place)
I0718 19:46:16.071501 20478 layer_factory.hpp:77] Creating layer scale4b5_branch2c
I0718 19:46:16.071666 20478 net.cpp:150] Setting up scale4b5_branch2c
I0718 19:46:16.071679 20478 net.cpp:157] Top shape: 1 1024 60 60 (3686400)
I0718 19:46:16.071686 20478 net.cpp:165] Memory required for data: 1585152000
I0718 19:46:16.071754 20478 layer_factory.hpp:77] Creating layer res4b5
I0718 19:46:16.071768 20478 net.cpp:100] Creating Layer res4b5
I0718 19:46:16.071776 20478 net.cpp:444] res4b5 <- res4b4_res4b4_relu_0_split_1
I0718 19:46:16.071784 20478 net.cpp:444] res4b5 <- res4b5_branch2c
I0718 19:46:16.071794 20478 net.cpp:418] res4b5 -> res4b5
I0718 19:46:16.071835 20478 net.cpp:150] Setting up res4b5
I0718 19:46:16.071846 20478 net.cpp:157] Top shape: 1 1024 60 60 (3686400)
I0718 19:46:16.071853 20478 net.cpp:165] Memory required for data: 1599897600
I0718 19:46:16.071859 20478 layer_factory.hpp:77] Creating layer res4b5_relu
I0718 19:46:16.071872 20478 net.cpp:100] Creating Layer res4b5_relu
I0718 19:46:16.071880 20478 net.cpp:444] res4b5_relu <- res4b5
I0718 19:46:16.071889 20478 net.cpp:405] res4b5_relu -> res4b5 (in-place)
I0718 19:46:16.071899 20478 net.cpp:150] Setting up res4b5_relu
I0718 19:46:16.071908 20478 net.cpp:157] Top shape: 1 1024 60 60 (3686400)
I0718 19:46:16.071914 20478 net.cpp:165] Memory required for data: 1614643200
I0718 19:46:16.071920 20478 layer_factory.hpp:77] Creating layer res4b5_res4b5_relu_0_split
I0718 19:46:16.071930 20478 net.cpp:100] Creating Layer res4b5_res4b5_relu_0_split
I0718 19:46:16.071938 20478 net.cpp:444] res4b5_res4b5_relu_0_split <- res4b5
I0718 19:46:16.071949 20478 net.cpp:418] res4b5_res4b5_relu_0_split -> res4b5_res4b5_relu_0_split_0
I0718 19:46:16.071959 20478 net.cpp:418] res4b5_res4b5_relu_0_split -> res4b5_res4b5_relu_0_split_1
I0718 19:46:16.072011 20478 net.cpp:150] Setting up res4b5_res4b5_relu_0_split
I0718 19:46:16.072023 20478 net.cpp:157] Top shape: 1 1024 60 60 (3686400)
I0718 19:46:16.072031 20478 net.cpp:157] Top shape: 1 1024 60 60 (3686400)
I0718 19:46:16.072037 20478 net.cpp:165] Memory required for data: 1644134400
I0718 19:46:16.072044 20478 layer_factory.hpp:77] Creating layer res4b6_branch2a
I0718 19:46:16.072060 20478 net.cpp:100] Creating Layer res4b6_branch2a
I0718 19:46:16.072067 20478 net.cpp:444] res4b6_branch2a <- res4b5_res4b5_relu_0_split_0
I0718 19:46:16.072077 20478 net.cpp:418] res4b6_branch2a -> res4b6_branch2a
I0718 19:46:16.073179 20478 net.cpp:150] Setting up res4b6_branch2a
I0718 19:46:16.073197 20478 net.cpp:157] Top shape: 1 256 60 60 (921600)
I0718 19:46:16.073221 20478 net.cpp:165] Memory required for data: 1647820800
I0718 19:46:16.073233 20478 layer_factory.hpp:77] Creating layer bn4b6_branch2a
I0718 19:46:16.073246 20478 net.cpp:100] Creating Layer bn4b6_branch2a
I0718 19:46:16.073254 20478 net.cpp:444] bn4b6_branch2a <- res4b6_branch2a
I0718 19:46:16.073263 20478 net.cpp:405] bn4b6_branch2a -> res4b6_branch2a (in-place)
I0718 19:46:16.073516 20478 net.cpp:150] Setting up bn4b6_branch2a
I0718 19:46:16.073529 20478 net.cpp:157] Top shape: 1 256 60 60 (921600)
I0718 19:46:16.073536 20478 net.cpp:165] Memory required for data: 1651507200
I0718 19:46:16.073549 20478 layer_factory.hpp:77] Creating layer scale4b6_branch2a
I0718 19:46:16.073561 20478 net.cpp:100] Creating Layer scale4b6_branch2a
I0718 19:46:16.073568 20478 net.cpp:444] scale4b6_branch2a <- res4b6_branch2a
I0718 19:46:16.073577 20478 net.cpp:405] scale4b6_branch2a -> res4b6_branch2a (in-place)
I0718 19:46:16.073639 20478 layer_factory.hpp:77] Creating layer scale4b6_branch2a
I0718 19:46:16.073801 20478 net.cpp:150] Setting up scale4b6_branch2a
I0718 19:46:16.073814 20478 net.cpp:157] Top shape: 1 256 60 60 (921600)
I0718 19:46:16.073822 20478 net.cpp:165] Memory required for data: 1655193600
I0718 19:46:16.073832 20478 layer_factory.hpp:77] Creating layer res4b6_branch2a_relu
I0718 19:46:16.073843 20478 net.cpp:100] Creating Layer res4b6_branch2a_relu
I0718 19:46:16.073849 20478 net.cpp:444] res4b6_branch2a_relu <- res4b6_branch2a
I0718 19:46:16.073860 20478 net.cpp:405] res4b6_branch2a_relu -> res4b6_branch2a (in-place)
I0718 19:46:16.073871 20478 net.cpp:150] Setting up res4b6_branch2a_relu
I0718 19:46:16.073879 20478 net.cpp:157] Top shape: 1 256 60 60 (921600)
I0718 19:46:16.073886 20478 net.cpp:165] Memory required for data: 1658880000
I0718 19:46:16.073892 20478 layer_factory.hpp:77] Creating layer res4b6_branch2b
I0718 19:46:16.073905 20478 net.cpp:100] Creating Layer res4b6_branch2b
I0718 19:46:16.073912 20478 net.cpp:444] res4b6_branch2b <- res4b6_branch2a
I0718 19:46:16.073925 20478 net.cpp:418] res4b6_branch2b -> res4b6_branch2b
I0718 19:46:16.075989 20478 net.cpp:150] Setting up res4b6_branch2b
I0718 19:46:16.076010 20478 net.cpp:157] Top shape: 1 256 60 60 (921600)
I0718 19:46:16.076017 20478 net.cpp:165] Memory required for data: 1662566400
I0718 19:46:16.076028 20478 layer_factory.hpp:77] Creating layer bn4b6_branch2b
I0718 19:46:16.076045 20478 net.cpp:100] Creating Layer bn4b6_branch2b
I0718 19:46:16.076052 20478 net.cpp:444] bn4b6_branch2b <- res4b6_branch2b
I0718 19:46:16.076063 20478 net.cpp:405] bn4b6_branch2b -> res4b6_branch2b (in-place)
I0718 19:46:16.076324 20478 net.cpp:150] Setting up bn4b6_branch2b
I0718 19:46:16.076337 20478 net.cpp:157] Top shape: 1 256 60 60 (921600)
I0718 19:46:16.076344 20478 net.cpp:165] Memory required for data: 1666252800
I0718 19:46:16.076357 20478 layer_factory.hpp:77] Creating layer scale4b6_branch2b
I0718 19:46:16.076370 20478 net.cpp:100] Creating Layer scale4b6_branch2b
I0718 19:46:16.076377 20478 net.cpp:444] scale4b6_branch2b <- res4b6_branch2b
I0718 19:46:16.076388 20478 net.cpp:405] scale4b6_branch2b -> res4b6_branch2b (in-place)
I0718 19:46:16.076448 20478 layer_factory.hpp:77] Creating layer scale4b6_branch2b
I0718 19:46:16.076612 20478 net.cpp:150] Setting up scale4b6_branch2b
I0718 19:46:16.076625 20478 net.cpp:157] Top shape: 1 256 60 60 (921600)
I0718 19:46:16.076632 20478 net.cpp:165] Memory required for data: 1669939200
I0718 19:46:16.076643 20478 layer_factory.hpp:77] Creating layer res4b6_branch2b_relu
I0718 19:46:16.076653 20478 net.cpp:100] Creating Layer res4b6_branch2b_relu
I0718 19:46:16.076660 20478 net.cpp:444] res4b6_branch2b_relu <- res4b6_branch2b
I0718 19:46:16.076671 20478 net.cpp:405] res4b6_branch2b_relu -> res4b6_branch2b (in-place)
I0718 19:46:16.076683 20478 net.cpp:150] Setting up res4b6_branch2b_relu
I0718 19:46:16.076691 20478 net.cpp:157] Top shape: 1 256 60 60 (921600)
I0718 19:46:16.076697 20478 net.cpp:165] Memory required for data: 1673625600
I0718 19:46:16.076747 20478 layer_factory.hpp:77] Creating layer res4b6_branch2c
I0718 19:46:16.076764 20478 net.cpp:100] Creating Layer res4b6_branch2c
I0718 19:46:16.076771 20478 net.cpp:444] res4b6_branch2c <- res4b6_branch2b
I0718 19:46:16.076784 20478 net.cpp:418] res4b6_branch2c -> res4b6_branch2c
I0718 19:46:16.077906 20478 net.cpp:150] Setting up res4b6_branch2c
I0718 19:46:16.077922 20478 net.cpp:157] Top shape: 1 1024 60 60 (3686400)
I0718 19:46:16.077929 20478 net.cpp:165] Memory required for data: 1688371200
I0718 19:46:16.077940 20478 layer_factory.hpp:77] Creating layer bn4b6_branch2c
I0718 19:46:16.077953 20478 net.cpp:100] Creating Layer bn4b6_branch2c
I0718 19:46:16.077961 20478 net.cpp:444] bn4b6_branch2c <- res4b6_branch2c
I0718 19:46:16.077970 20478 net.cpp:405] bn4b6_branch2c -> res4b6_branch2c (in-place)
I0718 19:46:16.078230 20478 net.cpp:150] Setting up bn4b6_branch2c
I0718 19:46:16.078244 20478 net.cpp:157] Top shape: 1 1024 60 60 (3686400)
I0718 19:46:16.078250 20478 net.cpp:165] Memory required for data: 1703116800
I0718 19:46:16.078263 20478 layer_factory.hpp:77] Creating layer scale4b6_branch2c
I0718 19:46:16.078276 20478 net.cpp:100] Creating Layer scale4b6_branch2c
I0718 19:46:16.078284 20478 net.cpp:444] scale4b6_branch2c <- res4b6_branch2c
I0718 19:46:16.078292 20478 net.cpp:405] scale4b6_branch2c -> res4b6_branch2c (in-place)
I0718 19:46:16.078352 20478 layer_factory.hpp:77] Creating layer scale4b6_branch2c
I0718 19:46:16.078518 20478 net.cpp:150] Setting up scale4b6_branch2c
I0718 19:46:16.078532 20478 net.cpp:157] Top shape: 1 1024 60 60 (3686400)
I0718 19:46:16.078538 20478 net.cpp:165] Memory required for data: 1717862400
I0718 19:46:16.078550 20478 layer_factory.hpp:77] Creating layer res4b6
I0718 19:46:16.078562 20478 net.cpp:100] Creating Layer res4b6
I0718 19:46:16.078569 20478 net.cpp:444] res4b6 <- res4b5_res4b5_relu_0_split_1
I0718 19:46:16.078577 20478 net.cpp:444] res4b6 <- res4b6_branch2c
I0718 19:46:16.078589 20478 net.cpp:418] res4b6 -> res4b6
I0718 19:46:16.078626 20478 net.cpp:150] Setting up res4b6
I0718 19:46:16.078639 20478 net.cpp:157] Top shape: 1 1024 60 60 (3686400)
I0718 19:46:16.078644 20478 net.cpp:165] Memory required for data: 1732608000
I0718 19:46:16.078651 20478 layer_factory.hpp:77] Creating layer res4b6_relu
I0718 19:46:16.078665 20478 net.cpp:100] Creating Layer res4b6_relu
I0718 19:46:16.078671 20478 net.cpp:444] res4b6_relu <- res4b6
I0718 19:46:16.078680 20478 net.cpp:405] res4b6_relu -> res4b6 (in-place)
I0718 19:46:16.078694 20478 net.cpp:150] Setting up res4b6_relu
I0718 19:46:16.078703 20478 net.cpp:157] Top shape: 1 1024 60 60 (3686400)
I0718 19:46:16.078709 20478 net.cpp:165] Memory required for data: 1747353600
I0718 19:46:16.078716 20478 layer_factory.hpp:77] Creating layer res4b6_res4b6_relu_0_split
I0718 19:46:16.078725 20478 net.cpp:100] Creating Layer res4b6_res4b6_relu_0_split
I0718 19:46:16.078732 20478 net.cpp:444] res4b6_res4b6_relu_0_split <- res4b6
I0718 19:46:16.078740 20478 net.cpp:418] res4b6_res4b6_relu_0_split -> res4b6_res4b6_relu_0_split_0
I0718 19:46:16.078750 20478 net.cpp:418] res4b6_res4b6_relu_0_split -> res4b6_res4b6_relu_0_split_1
…
I0718 19:46:16.365092 20478 net.cpp:444] res4b20_branch2a <- res4b19_res4b19_relu_0_split_0
I0718 19:46:16.365103 20478 net.cpp:418] res4b20_branch2a -> res4b20_branch2a
I0718 19:46:16.366258 20478 net.cpp:150] Setting up res4b20_branch2a
I0718 19:46:16.366277 20478 net.cpp:157] Top shape: 1 256 60 60 (921600)
I0718 19:46:16.366284 20478 net.cpp:165] Memory required for data: 3505766400
I0718 19:46:16.366295 20478 layer_factory.hpp:77] Creating layer bn4b20_branch2a
I0718 19:46:16.366308 20478 net.cpp:100] Creating Layer bn4b20_branch2a
I0718 19:46:16.366315 20478 net.cpp:444] bn4b20_branch2a <- res4b20_branch2a
I0718 19:46:16.366328 20478 net.cpp:405] bn4b20_branch2a -> res4b20_branch2a (in-place)
I0718 19:46:16.366583 20478 net.cpp:150] Setting up bn4b20_branch2a
I0718 19:46:16.366596 20478 net.cpp:157] Top shape: 1 256 60 60 (921600)
I0718 19:46:16.366602 20478 net.cpp:165] Memory required for data: 3509452800
I0718 19:46:16.366734 20478 layer_factory.hpp:77] Creating layer scale4b20_branch2a
I0718 19:46:16.366750 20478 net.cpp:100] Creating Layer scale4b20_branch2a
I0718 19:46:16.366758 20478 net.cpp:444] scale4b20_branch2a <- res4b20_branch2a
I0718 19:46:16.366767 20478 net.cpp:405] scale4b20_branch2a -> res4b20_branch2a (in-place)
I0718 19:46:16.366829 20478 layer_factory.hpp:77] Creating layer scale4b20_branch2a
I0718 19:46:16.366993 20478 net.cpp:150] Setting up scale4b20_branch2a
I0718 19:46:16.367007 20478 net.cpp:157] Top shape: 1 256 60 60 (921600)
I0718 19:46:16.367013 20478 net.cpp:165] Memory required for data: 3513139200
I0718 19:46:16.367025 20478 layer_factory.hpp:77] Creating layer res4b20_branch2a_relu
I0718 19:46:16.367035 20478 net.cpp:100] Creating Layer res4b20_branch2a_relu
I0718 19:46:16.367043 20478 net.cpp:444] res4b20_branch2a_relu <- res4b20_branch2a
I0718 19:46:16.367051 20478 net.cpp:405] res4b20_branch2a_relu -> res4b20_branch2a (in-place)
I0718 19:46:16.367082 20478 net.cpp:150] Setting up res4b20_branch2a_relu
I0718 19:46:16.367092 20478 net.cpp:157] Top shape: 1 256 60 60 (921600)
I0718 19:46:16.367100 20478 net.cpp:165] Memory required for data: 3516825600
I0718 19:46:16.367105 20478 layer_factory.hpp:77] Creating layer res4b20_branch2b
I0718 19:46:16.367121 20478 net.cpp:100] Creating Layer res4b20_branch2b
I0718 19:46:16.367128 20478 net.cpp:444] res4b20_branch2b <- res4b20_branch2a
I0718 19:46:16.367142 20478 net.cpp:418] res4b20_branch2b -> res4b20_branch2b
I0718 19:46:16.369719 20478 net.cpp:150] Setting up res4b20_branch2b
I0718 19:46:16.369766 20478 net.cpp:157] Top shape: 1 256 60 60 (921600)
I0718 19:46:16.369773 20478 net.cpp:165] Memory required for data: 3520512000
I0718 19:46:16.369794 20478 layer_factory.hpp:77] Creating layer bn4b20_branch2b
I0718 19:46:16.369814 20478 net.cpp:100] Creating Layer bn4b20_branch2b
I0718 19:46:16.369825 20478 net.cpp:444] bn4b20_branch2b <- res4b20_branch2b
I0718 19:46:16.369838 20478 net.cpp:405] bn4b20_branch2b -> res4b20_branch2b (in-place)
I0718 19:46:16.370136 20478 net.cpp:150] Setting up bn4b20_branch2b
I0718 19:46:16.370149 20478 net.cpp:157] Top shape: 1 256 60 60 (921600)
I0718 19:46:16.370157 20478 net.cpp:165] Memory required for data: 3524198400
I0718 19:46:16.370173 20478 layer_factory.hpp:77] Creating layer scale4b20_branch2b
I0718 19:46:16.370192 20478 net.cpp:100] Creating Layer scale4b20_branch2b
I0718 19:46:16.370199 20478 net.cpp:444] scale4b20_branch2b <- res4b20_branch2b
I0718 19:46:16.370209 20478 net.cpp:405] scale4b20_branch2b -> res4b20_branch2b (in-place)
I0718 19:46:16.370273 20478 layer_factory.hpp:77] Creating layer scale4b20_branch2b
I0718 19:46:16.370445 20478 net.cpp:150] Setting up scale4b20_branch2b
I0718 19:46:16.370460 20478 net.cpp:157] Top shape: 1 256 60 60 (921600)
I0718 19:46:16.370465 20478 net.cpp:165] Memory required for data: 3527884800
I0718 19:46:16.370481 20478 layer_factory.hpp:77] Creating layer res4b20_branch2b_relu
I0718 19:46:16.370494 20478 net.cpp:100] Creating Layer res4b20_branch2b_relu
I0718 19:46:16.370501 20478 net.cpp:444] res4b20_branch2b_relu <- res4b20_branch2b
I0718 19:46:16.370510 20478 net.cpp:405] res4b20_branch2b_relu -> res4b20_branch2b (in-place)
I0718 19:46:16.370522 20478 net.cpp:150] Setting up res4b20_branch2b_relu
I0718 19:46:16.370530 20478 net.cpp:157] Top shape: 1 256 60 60 (921600)
I0718 19:46:16.370537 20478 net.cpp:165] Memory required for data: 3531571200
I0718 19:46:16.370543 20478 layer_factory.hpp:77] Creating layer res4b20_branch2c
I0718 19:46:16.370559 20478 net.cpp:100] Creating Layer res4b20_branch2c
I0718 19:46:16.370568 20478 net.cpp:444] res4b20_branch2c <- res4b20_branch2b
I0718 19:46:16.370578 20478 net.cpp:418] res4b20_branch2c -> res4b20_branch2c
I0718 19:46:16.371870 20478 net.cpp:150] Setting up res4b20_branch2c
I0718 19:46:16.371886 20478 net.cpp:157] Top shape: 1 1024 60 60 (3686400)
I0718 19:46:16.371892 20478 net.cpp:165] Memory required for data: 3546316800
I0718 19:46:16.371903 20478 layer_factory.hpp:77] Creating layer bn4b20_branch2c
I0718 19:46:16.371917 20478 net.cpp:100] Creating Layer bn4b20_branch2c
I0718 19:46:16.371923 20478 net.cpp:444] bn4b20_branch2c <- res4b20_branch2c
I0718 19:46:16.371937 20478 net.cpp:405] bn4b20_branch2c -> res4b20_branch2c (in-place)
I0718 19:46:16.372222 20478 net.cpp:150] Setting up bn4b20_branch2c
I0718 19:46:16.372236 20478 net.cpp:157] Top shape: 1 1024 60 60 (3686400)
I0718 19:46:16.372243 20478 net.cpp:165] Memory required for data: 3561062400
I0718 19:46:16.372256 20478 layer_factory.hpp:77] Creating layer scale4b20_branch2c
I0718 19:46:16.372268 20478 net.cpp:100] Creating Layer scale4b20_branch2c
I0718 19:46:16.372277 20478 net.cpp:444] scale4b20_branch2c <- res4b20_branch2c
I0718 19:46:16.372288 20478 net.cpp:405] scale4b20_branch2c -> res4b20_branch2c (in-place)
I0718 19:46:16.372349 20478 layer_factory.hpp:77] Creating layer scale4b20_branch2c
I0718 19:46:16.372526 20478 net.cpp:150] Setting up scale4b20_branch2c
I0718 19:46:16.372575 20478 net.cpp:157] Top shape: 1 1024 60 60 (3686400)
I0718 19:46:16.372582 20478 net.cpp:165] Memory required for data: 3575808000
I0718 19:46:16.372594 20478 layer_factory.hpp:77] Creating layer res4b20
I0718 19:46:16.372606 20478 net.cpp:100] Creating Layer res4b20
I0718 19:46:16.372613 20478 net.cpp:444] res4b20 <- res4b19_res4b19_relu_0_split_1
I0718 19:46:16.372622 20478 net.cpp:444] res4b20 <- res4b20_branch2c
I0718 19:46:16.372632 20478 net.cpp:418] res4b20 -> res4b20
I0718 19:46:16.372673 20478 net.cpp:150] Setting up res4b20
I0718 19:46:16.372685 20478 net.cpp:157] Top shape: 1 1024 60 60 (3686400)
I0718 19:46:16.372691 20478 net.cpp:165] Memory required for data: 3590553600
I0718 19:46:16.372699 20478 layer_factory.hpp:77] Creating layer res4b20_relu
I0718 19:46:16.372750 20478 net.cpp:100] Creating Layer res4b20_relu
I0718 19:46:16.372761 20478 net.cpp:444] res4b20_relu <- res4b20
I0718 19:46:16.372771 20478 net.cpp:405] res4b20_relu -> res4b20 (in-place)
I0718 19:46:16.372781 20478 net.cpp:150] Setting up res4b20_relu
I0718 19:46:16.372791 20478 net.cpp:157] Top shape: 1 1024 60 60 (3686400)
I0718 19:46:16.372797 20478 net.cpp:165] Memory required for data: 3605299200
I0718 19:46:16.372803 20478 layer_factory.hpp:77] Creating layer res4b20_res4b20_relu_0_split
I0718 19:46:16.372813 20478 net.cpp:100] Creating Layer res4b20_res4b20_relu_0_split
I0718 19:46:16.432569 20478 net.cpp:444] res4b20_res4b20_relu_0_split <- res4b20
I0718 19:46:16.432632 20478 net.cpp:418] res4b20_res4b20_relu_0_split -> res4b20_res4b20_relu_0_split_0
I0718 19:46:16.432667 20478 net.cpp:418] res4b20_res4b20_relu_0_split -> res4b20_res4b20_relu_0_split_1
I0718 19:46:16.432829 20478 net.cpp:150] Setting up res4b20_res4b20_relu_0_split
I0718 19:46:16.432849 20478 net.cpp:157] Top shape: 1 1024 60 60 (3686400)
I0718 19:46:16.432858 20478 net.cpp:157] Top shape: 1 1024 60 60 (3686400)
I0718 19:46:16.432865 20478 net.cpp:165] Memory required for data: 3634790400
I0718 19:46:16.432874 20478 layer_factory.hpp:77] Creating layer res4b21_branch2a
I0718 19:46:16.432898 20478 net.cpp:100] Creating Layer res4b21_branch2a
I0718 19:46:16.432906 20478 net.cpp:444] res4b21_branch2a <- res4b20_res4b20_relu_0_split_0
I0718 19:46:16.432919 20478 net.cpp:418] res4b21_branch2a -> res4b21_branch2a
I0718 19:46:16.434484 20478 net.cpp:150] Setting up res4b21_branch2a
I0718 19:46:16.434520 20478 net.cpp:157] Top shape: 1 256 60 60 (921600)
I0718 19:46:16.434528 20478 net.cpp:165] Memory required for data: 3638476800
I0718 19:46:16.434546 20478 layer_factory.hpp:77] Creating layer bn4b21_branch2a
I0718 19:46:16.434572 20478 net.cpp:100] Creating Layer bn4b21_branch2a
I0718 19:46:16.434582 20478 net.cpp:444] bn4b21_branch2a <- res4b21_branch2a
I0718 19:46:16.434594 20478 net.cpp:405] bn4b21_branch2a -> res4b21_branch2a (in-place)
I0718 19:46:16.434885 20478 net.cpp:150] Setting up bn4b21_branch2a
I0718 19:46:16.434897 20478 net.cpp:157] Top shape: 1 256 60 60 (921600)
I0718 19:46:16.434905 20478 net.cpp:165] Memory required for data: 3642163200
I0718 19:46:16.434922 20478 layer_factory.hpp:77] Creating layer scale4b21_branch2a
I0718 19:46:16.434937 20478 net.cpp:100] Creating Layer scale4b21_branch2a
I0718 19:46:16.434943 20478 net.cpp:444] scale4b21_branch2a <- res4b21_branch2a
I0718 19:46:16.434953 20478 net.cpp:405] scale4b21_branch2a -> res4b21_branch2a (in-place)
I0718 19:46:16.435026 20478 layer_factory.hpp:77] Creating layer scale4b21_branch2a
I0718 19:46:16.435207 20478 net.cpp:150] Setting up scale4b21_branch2a
I0718 19:46:16.435220 20478 net.cpp:157] Top shape: 1 256 60 60 (921600)
I0718 19:46:16.435227 20478 net.cpp:165] Memory required for data: 3645849600
I0718 19:46:16.435242 20478 layer_factory.hpp:77] Creating layer res4b21_branch2a_relu
I0718 19:46:16.435253 20478 net.cpp:100] Creating Layer res4b21_branch2a_relu
I0718 19:46:16.435261 20478 net.cpp:444] res4b21_branch2a_relu <- res4b21_branch2a
I0718 19:46:16.435272 20478 net.cpp:405] res4b21_branch2a_relu -> res4b21_branch2a (in-place)
I0718 19:46:16.435284 20478 net.cpp:150] Setting up res4b21_branch2a_relu
I0718 19:46:16.435338 20478 net.cpp:157] Top shape: 1 256 60 60 (921600)
I0718 19:46:16.435345 20478 net.cpp:165] Memory required for data: 3649536000
I0718 19:46:16.435353 20478 layer_factory.hpp:77] Creating layer res4b21_branch2b
I0718 19:46:16.435367 20478 net.cpp:100] Creating Layer res4b21_branch2b
I0718 19:46:16.435374 20478 net.cpp:444] res4b21_branch2b <- res4b21_branch2a
I0718 19:46:16.435389 20478 net.cpp:418] res4b21_branch2b -> res4b21_branch2b
I0718 19:46:16.437917 20478 net.cpp:150] Setting up res4b21_branch2b
I0718 19:46:16.437963 20478 net.cpp:157] Top shape: 1 256 60 60 (921600)
I0718 19:46:16.437971 20478 net.cpp:165] Memory required for data: 3653222400
I0718 19:46:16.437991 20478 layer_factory.hpp:77] Creating layer bn4b21_branch2b
I0718 19:46:16.438024 20478 net.cpp:100] Creating Layer bn4b21_branch2b
I0718 19:46:16.438033 20478 net.cpp:444] bn4b21_branch2b <- res4b21_branch2b
I0718 19:46:16.438047 20478 net.cpp:405] bn4b21_branch2b -> res4b21_branch2b (in-place)
I0718 19:46:16.438340 20478 net.cpp:150] Setting up bn4b21_branch2b
I0718 19:46:16.438354 20478 net.cpp:157] Top shape: 1 256 60 60 (921600)
I0718 19:46:16.438359 20478 net.cpp:165] Memory required for data: 3656908800
I0718 19:46:16.438377 20478 layer_factory.hpp:77] Creating layer scale4b21_branch2b
I0718 19:46:16.438392 20478 net.cpp:100] Creating Layer scale4b21_branch2b
I0718 19:46:16.438400 20478 net.cpp:444] scale4b21_branch2b <- res4b21_branch2b
I0718 19:46:16.438412 20478 net.cpp:405] scale4b21_branch2b -> res4b21_branch2b (in-place)
I0718 19:46:16.438477 20478 layer_factory.hpp:77] Creating layer scale4b21_branch2b
I0718 19:46:16.438647 20478 net.cpp:150] Setting up scale4b21_branch2b
I0718 19:46:16.438659 20478 net.cpp:157] Top shape: 1 256 60 60 (921600)
I0718 19:46:16.438665 20478 net.cpp:165] Memory required for data: 3660595200
I0718 19:46:16.438679 20478 layer_factory.hpp:77] Creating layer res4b21_branch2b_relu
I0718 19:46:16.438690 20478 net.cpp:100] Creating Layer res4b21_branch2b_relu
I0718 19:46:16.438697 20478 net.cpp:444] res4b21_branch2b_relu <- res4b21_branch2b
I0718 19:46:16.438706 20478 net.cpp:405] res4b21_branch2b_relu -> res4b21_branch2b (in-place)
I0718 19:46:16.438717 20478 net.cpp:150] Setting up res4b21_branch2b_relu
I0718 19:46:16.438726 20478 net.cpp:157] Top shape: 1 256 60 60 (921600)
I0718 19:46:16.438732 20478 net.cpp:165] Memory required for data: 3664281600
I0718 19:46:16.438738 20478 layer_factory.hpp:77] Creating layer res4b21_branch2c
I0718 19:46:16.438755 20478 net.cpp:100] Creating Layer res4b21_branch2c
I0718 19:46:16.438762 20478 net.cpp:444] res4b21_branch2c <- res4b21_branch2b
I0718 19:46:16.438776 20478 net.cpp:418] res4b21_branch2c -> res4b21_branch2c
I0718 19:46:16.440033 20478 net.cpp:150] Setting up res4b21_branch2c
I0718 19:46:16.440049 20478 net.cpp:157] Top shape: 1 1024 60 60 (3686400)
I0718 19:46:16.440057 20478 net.cpp:165] Memory required for data: 3679027200
I0718 19:46:16.440068 20478 layer_factory.hpp:77] Creating layer bn4b21_branch2c
I0718 19:46:16.440079 20478 net.cpp:100] Creating Layer bn4b21_branch2c
I0718 19:46:16.440086 20478 net.cpp:444] bn4b21_branch2c <- res4b21_branch2c
I0718 19:46:16.440096 20478 net.cpp:405] bn4b21_branch2c -> res4b21_branch2c (in-place)
I0718 19:46:16.440377 20478 net.cpp:150] Setting up bn4b21_branch2c
I0718 19:46:16.440392 20478 net.cpp:157] Top shape: 1 1024 60 60 (3686400)
I0718 19:46:16.440398 20478 net.cpp:165] Memory required for data: 3693772800
I0718 19:46:16.440414 20478 layer_factory.hpp:77] Creating layer scale4b21_branch2c
I0718 19:46:16.440426 20478 net.cpp:100] Creating Layer scale4b21_branch2c
I0718 19:46:16.440434 20478 net.cpp:444] scale4b21_branch2c <- res4b21_branch2c
I0718 19:46:16.440443 20478 net.cpp:405] scale4b21_branch2c -> res4b21_branch2c (in-place)
I0718 19:46:16.440507 20478 layer_factory.hpp:77] Creating layer scale4b21_branch2c
I0718 19:46:16.440701 20478 net.cpp:150] Setting up scale4b21_branch2c
I0718 19:46:16.442503 20478 net.cpp:157] Top shape: 1 1024 60 60 (3686400)
I0718 19:46:16.442569 20478 net.cpp:165] Memory required for data: 3708518400
I0718 19:46:16.442697 20478 layer_factory.hpp:77] Creating layer res4b21
I0718 19:46:16.442735 20478 net.cpp:100] Creating Layer res4b21
I0718 19:46:16.442780 20478 net.cpp:444] res4b21 <- res4b20_res4b20_relu_0_split_1
I0718 19:46:16.442803 20478 net.cpp:444] res4b21 <- res4b21_branch2c
I0718 19:46:16.442831 20478 net.cpp:418] res4b21 -> res4b21
I0718 19:46:16.443402 20478 net.cpp:150] Setting up res4b21
I0718 19:46:16.443418 20478 net.cpp:157] Top shape: 1 1024 60 60 (3686400)
I0718 19:46:16.443423 20478 net.cpp:165] Memory required for data: 3723264000
I0718 19:46:16.443430 20478 layer_factory.hpp:77] Creating layer res4b21_relu
I0718 19:46:16.443452 20478 net.cpp:100] Creating Layer res4b21_relu
I0718 19:46:16.443460 20478 net.cpp:444] res4b21_relu <- res4b21
I0718 19:46:16.443470 20478 net.cpp:405] res4b21_relu -> res4b21 (in-place)
I0718 19:46:16.443482 20478 net.cpp:150] Setting up res4b21_relu
I0718 19:46:16.443491 20478 net.cpp:157] Top shape: 1 1024 60 60 (3686400)
I0718 19:46:16.443497 20478 net.cpp:165] Memory required for data: 3738009600
I0718 19:46:16.443506 20478 layer_factory.hpp:77] Creating layer res4b21_res4b21_relu_0_split
I0718 19:46:16.443517 20478 net.cpp:100] Creating Layer res4b21_res4b21_relu_0_split
I0718 19:46:16.465059 20478 net.cpp:444] res4b21_res4b21_relu_0_split <- res4b21
I0718 19:46:16.465124 20478 net.cpp:418] res4b21_res4b21_relu_0_split -> res4b21_res4b21_relu_0_split_0
I0718 19:46:16.465148 20478 net.cpp:418] res4b21_res4b21_relu_0_split -> res4b21_res4b21_relu_0_split_1
I0718 19:46:16.465451 20478 net.cpp:150] Setting up res4b21_res4b21_relu_0_split
I0718 19:46:16.465471 20478 net.cpp:157] Top shape: 1 1024 60 60 (3686400)
I0718 19:46:16.465481 20478 net.cpp:157] Top shape: 1 1024 60 60 (3686400)
I0718 19:46:16.465488 20478 net.cpp:165] Memory required for data: 3767500800
I0718 19:46:16.465497 20478 layer_factory.hpp:77] Creating layer res4b22_branch2a
I0718 19:46:16.465519 20478 net.cpp:100] Creating Layer res4b22_branch2a
I0718 19:46:16.465528 20478 net.cpp:444] res4b22_branch2a <- res4b21_res4b21_relu_0_split_0
I0718 19:46:16.465555 20478 net.cpp:418] res4b22_branch2a -> res4b22_branch2a
I0718 19:46:16.467617 20478 net.cpp:150] Setting up res4b22_branch2a
I0718 19:46:16.467659 20478 net.cpp:157] Top shape: 1 256 60 60 (921600)
I0718 19:46:16.467667 20478 net.cpp:165] Memory required for data: 3771187200
I0718 19:46:16.467717 20478 layer_factory.hpp:77] Creating layer bn4b22_branch2a
I0718 19:46:16.467747 20478 net.cpp:100] Creating Layer bn4b22_branch2a
I0718 19:46:16.467758 20478 net.cpp:444] bn4b22_branch2a <- res4b22_branch2a
I0718 19:46:16.467772 20478 net.cpp:405] bn4b22_branch2a -> res4b22_branch2a (in-place)
I0718 19:46:16.468191 20478 net.cpp:150] Setting up bn4b22_branch2a
I0718 19:46:16.468206 20478 net.cpp:157] Top shape: 1 256 60 60 (921600)
I0718 19:46:16.468212 20478 net.cpp:165] Memory required for data: 3774873600
I0718 19:46:16.468260 20478 layer_factory.hpp:77] Creating layer scale4b22_branch2a
I0718 19:46:16.468278 20478 net.cpp:100] Creating Layer scale4b22_branch2a
I0718 19:46:16.468286 20478 net.cpp:444] scale4b22_branch2a <- res4b22_branch2a
I0718 19:46:16.468297 20478 net.cpp:405] scale4b22_branch2a -> res4b22_branch2a (in-place)
I0718 19:46:16.468364 20478 layer_factory.hpp:77] Creating layer scale4b22_branch2a
I0718 19:46:16.468538 20478 net.cpp:150] Setting up scale4b22_branch2a
I0718 19:46:16.468552 20478 net.cpp:157] Top shape: 1 256 60 60 (921600)
I0718 19:46:16.468559 20478 net.cpp:165] Memory required for data: 3778560000
I0718 19:46:16.468575 20478 layer_factory.hpp:77] Creating layer res4b22_branch2a_relu
I0718 19:46:16.468585 20478 net.cpp:100] Creating Layer res4b22_branch2a_relu
I0718 19:46:16.468593 20478 net.cpp:444] res4b22_branch2a_relu <- res4b22_branch2a
I0718 19:46:16.468605 20478 net.cpp:405] res4b22_branch2a_relu -> res4b22_branch2a (in-place)
I0718 19:46:16.468617 20478 net.cpp:150] Setting up res4b22_branch2a_relu
I0718 19:46:16.468626 20478 net.cpp:157] Top shape: 1 256 60 60 (921600)
I0718 19:46:16.468673 20478 net.cpp:165] Memory required for data: 3782246400
I0718 19:46:16.468682 20478 layer_factory.hpp:77] Creating layer res4b22_branch2b
I0718 19:46:16.468703 20478 net.cpp:100] Creating Layer res4b22_branch2b
I0718 19:46:16.468745 20478 net.cpp:444] res4b22_branch2b <- res4b22_branch2a
I0718 19:46:16.468760 20478 net.cpp:418] res4b22_branch2b -> res4b22_branch2b
I0718 19:46:16.471122 20478 net.cpp:150] Setting up res4b22_branch2b
I0718 19:46:16.471158 20478 net.cpp:157] Top shape: 1 256 60 60 (921600)
I0718 19:46:16.471165 20478 net.cpp:165] Memory required for data: 3785932800
I0718 19:46:16.471182 20478 layer_factory.hpp:77] Creating layer bn4b22_branch2b
I0718 19:46:16.471202 20478 net.cpp:100] Creating Layer bn4b22_branch2b
I0718 19:46:16.471213 20478 net.cpp:444] bn4b22_branch2b <- res4b22_branch2b
I0718 19:46:16.471227 20478 net.cpp:405] bn4b22_branch2b -> res4b22_branch2b (in-place)
I0718 19:46:16.471516 20478 net.cpp:150] Setting up bn4b22_branch2b
I0718 19:46:16.471529 20478 net.cpp:157] Top shape: 1 256 60 60 (921600)
I0718 19:46:16.471536 20478 net.cpp:165] Memory required for data: 3789619200
I0718 19:46:16.471554 20478 layer_factory.hpp:77] Creating layer scale4b22_branch2b
I0718 19:46:16.471570 20478 net.cpp:100] Creating Layer scale4b22_branch2b
I0718 19:46:16.471577 20478 net.cpp:444] scale4b22_branch2b <- res4b22_branch2b
I0718 19:46:16.471587 20478 net.cpp:405] scale4b22_branch2b -> res4b22_branch2b (in-place)
I0718 19:46:16.471652 20478 layer_factory.hpp:77] Creating layer scale4b22_branch2b
I0718 19:46:16.471832 20478 net.cpp:150] Setting up scale4b22_branch2b
I0718 19:46:16.471845 20478 net.cpp:157] Top shape: 1 256 60 60 (921600)
I0718 19:46:16.471851 20478 net.cpp:165] Memory required for data: 3793305600
I0718 19:46:16.471881 20478 layer_factory.hpp:77] Creating layer res4b22_branch2b_relu
I0718 19:46:16.471894 20478 net.cpp:100] Creating Layer res4b22_branch2b_relu
I0718 19:46:16.471904 20478 net.cpp:444] res4b22_branch2b_relu <- res4b22_branch2b
I0718 19:46:16.471913 20478 net.cpp:405] res4b22_branch2b_relu -> res4b22_branch2b (in-place)
I0718 19:46:16.471925 20478 net.cpp:150] Setting up res4b22_branch2b_relu
I0718 19:46:16.471933 20478 net.cpp:157] Top shape: 1 256 60 60 (921600)
I0718 19:46:16.471940 20478 net.cpp:165] Memory required for data: 3796992000
I0718 19:46:16.471946 20478 layer_factory.hpp:77] Creating layer res4b22_branch2c
I0718 19:46:16.471961 20478 net.cpp:100] Creating Layer res4b22_branch2c
I0718 19:46:16.471967 20478 net.cpp:444] res4b22_branch2c <- res4b22_branch2b
I0718 19:46:16.471982 20478 net.cpp:418] res4b22_branch2c -> res4b22_branch2c
I0718 19:46:16.473243 20478 net.cpp:150] Setting up res4b22_branch2c
I0718 19:46:16.473263 20478 net.cpp:157] Top shape: 1 1024 60 60 (3686400)
I0718 19:46:16.473269 20478 net.cpp:165] Memory required for data: 3811737600
I0718 19:46:16.473287 20478 layer_factory.hpp:77] Creating layer bn4b22_branch2c
I0718 19:46:16.473304 20478 net.cpp:100] Creating Layer bn4b22_branch2c
I0718 19:46:16.473312 20478 net.cpp:444] bn4b22_branch2c <- res4b22_branch2c
I0718 19:46:16.473330 20478 net.cpp:405] bn4b22_branch2c -> res4b22_branch2c (in-place)
I0718 19:46:16.473748 20478 net.cpp:150] Setting up bn4b22_branch2c
I0718 19:46:16.473762 20478 net.cpp:157] Top shape: 1 1024 60 60 (3686400)
I0718 19:46:16.473769 20478 net.cpp:165] Memory required for data: 3826483200
I0718 19:46:16.473784 20478 layer_factory.hpp:77] Creating layer scale4b22_branch2c
I0718 19:46:16.473800 20478 net.cpp:100] Creating Layer scale4b22_branch2c
I0718 19:46:16.473809 20478 net.cpp:444] scale4b22_branch2c <- res4b22_branch2c
I0718 19:46:16.473817 20478 net.cpp:405] scale4b22_branch2c -> res4b22_branch2c (in-place)
I0718 19:46:16.473882 20478 layer_factory.hpp:77] Creating layer scale4b22_branch2c
I0718 19:46:16.474066 20478 net.cpp:150] Setting up scale4b22_branch2c
I0718 19:46:16.474081 20478 net.cpp:157] Top shape: 1 1024 60 60 (3686400)
I0718 19:46:16.474086 20478 net.cpp:165] Memory required for data: 3841228800
I0718 19:46:16.474133 20478 layer_factory.hpp:77] Creating layer res4b22
I0718 19:46:16.474145 20478 net.cpp:100] Creating Layer res4b22
I0718 19:46:16.474153 20478 net.cpp:444] res4b22 <- res4b21_res4b21_relu_0_split_1
I0718 19:46:16.474161 20478 net.cpp:444] res4b22 <- res4b22_branch2c
I0718 19:46:16.474174 20478 net.cpp:418] res4b22 -> res4b22
I0718 19:46:16.474216 20478 net.cpp:150] Setting up res4b22
I0718 19:46:16.474228 20478 net.cpp:157] Top shape: 1 1024 60 60 (3686400)
I0718 19:46:16.474234 20478 net.cpp:165] Memory required for data: 3855974400
I0718 19:46:16.474241 20478 layer_factory.hpp:77] Creating layer res4b22_relu
I0718 19:46:16.474251 20478 net.cpp:100] Creating Layer res4b22_relu
I0718 19:46:16.474257 20478 net.cpp:444] res4b22_relu <- res4b22
I0718 19:46:16.474267 20478 net.cpp:405] res4b22_relu -> res4b22 (in-place)
I0718 19:46:16.474277 20478 net.cpp:150] Setting up res4b22_relu
I0718 19:46:16.474285 20478 net.cpp:157] Top shape: 1 1024 60 60 (3686400)
I0718 19:46:16.474292 20478 net.cpp:165] Memory required for data: 3870720000
I0718 19:46:16.474298 20478 layer_factory.hpp:77] Creating layer res4b22_res4b22_relu_0_split
I0718 19:46:16.474314 20478 net.cpp:100] Creating Layer res4b22_res4b22_relu_0_split
I0718 19:46:16.497917 20478 net.cpp:444] res4b22_res4b22_relu_0_split <- res4b22
I0718 19:46:16.497980 20478 net.cpp:418] res4b22_res4b22_relu_0_split -> res4b22_res4b22_relu_0_split_0
I0718 19:46:16.498029 20478 net.cpp:418] res4b22_res4b22_relu_0_split -> res4b22_res4b22_relu_0_split_1
I0718 19:46:16.498179 20478 net.cpp:150] Setting up res4b22_res4b22_relu_0_split
I0718 19:46:16.498199 20478 net.cpp:157] Top shape: 1 1024 60 60 (3686400)
I0718 19:46:16.498208 20478 net.cpp:157] Top shape: 1 1024 60 60 (3686400)
I0718 19:46:16.498214 20478 net.cpp:165] Memory required for data: 3900211200
I0718 19:46:16.498225 20478 layer_factory.hpp:77] Creating layer res5a_branch1
I0718 19:46:16.498247 20478 net.cpp:100] Creating Layer res5a_branch1
I0718 19:46:16.498256 20478 net.cpp:444] res5a_branch1 <- res4b22_res4b22_relu_0_split_0
I0718 19:46:16.498317 20478 net.cpp:418] res5a_branch1 -> res5a_branch1
I0718 19:46:16.505861 20478 net.cpp:150] Setting up res5a_branch1
I0718 19:46:16.505913 20478 net.cpp:157] Top shape: 1 2048 60 60 (7372800)
I0718 19:46:16.505919 20478 net.cpp:165] Memory required for data: 3929702400
I0718 19:46:16.505967 20478 layer_factory.hpp:77] Creating layer bn5a_branch1
I0718 19:46:16.505990 20478 net.cpp:100] Creating Layer bn5a_branch1
I0718 19:46:16.506000 20478 net.cpp:444] bn5a_branch1 <- res5a_branch1
I0718 19:46:16.506016 20478 net.cpp:405] bn5a_branch1 -> res5a_branch1 (in-place)
I0718 19:46:16.506331 20478 net.cpp:150] Setting up bn5a_branch1
I0718 19:46:16.506345 20478 net.cpp:157] Top shape: 1 2048 60 60 (7372800)
I0718 19:46:16.506351 20478 net.cpp:165] Memory required for data: 3959193600
I0718 19:46:16.506464 20478 layer_factory.hpp:77] Creating layer scale5a_branch1
I0718 19:46:16.506479 20478 net.cpp:100] Creating Layer scale5a_branch1
I0718 19:46:16.506487 20478 net.cpp:444] scale5a_branch1 <- res5a_branch1
I0718 19:46:16.506503 20478 net.cpp:405] scale5a_branch1 -> res5a_branch1 (in-place)
I0718 19:46:16.506573 20478 layer_factory.hpp:77] Creating layer scale5a_branch1
I0718 19:46:16.506748 20478 net.cpp:150] Setting up scale5a_branch1
I0718 19:46:16.506764 20478 net.cpp:157] Top shape: 1 2048 60 60 (7372800)
I0718 19:46:16.506772 20478 net.cpp:165] Memory required for data: 3988684800
I0718 19:46:16.506826 20478 layer_factory.hpp:77] Creating layer res5a_branch2a
I0718 19:46:16.506844 20478 net.cpp:100] Creating Layer res5a_branch2a
I0718 19:46:16.506853 20478 net.cpp:444] res5a_branch2a <- res4b22_res4b22_relu_0_split_1
I0718 19:46:16.506867 20478 net.cpp:418] res5a_branch2a -> res5a_branch2a
I0718 19:46:16.509100 20478 net.cpp:150] Setting up res5a_branch2a
I0718 19:46:16.509140 20478 net.cpp:157] Top shape: 1 512 60 60 (1843200)
I0718 19:46:16.509148 20478 net.cpp:165] Memory required for data: 3996057600
I0718 19:46:16.509196 20478 layer_factory.hpp:77] Creating layer bn5a_branch2a
I0718 19:46:16.509261 20478 net.cpp:100] Creating Layer bn5a_branch2a
I0718 19:46:16.509273 20478 net.cpp:444] bn5a_branch2a <- res5a_branch2a
I0718 19:46:16.509285 20478 net.cpp:405] bn5a_branch2a -> res5a_branch2a (in-place)
I0718 19:46:16.509610 20478 net.cpp:150] Setting up bn5a_branch2a
I0718 19:46:16.509624 20478 net.cpp:157] Top shape: 1 512 60 60 (1843200)
I0718 19:46:16.509630 20478 net.cpp:165] Memory required for data: 4003430400
I0718 19:46:16.509649 20478 layer_factory.hpp:77] Creating layer scale5a_branch2a
I0718 19:46:16.509666 20478 net.cpp:100] Creating Layer scale5a_branch2a
I0718 19:46:16.509673 20478 net.cpp:444] scale5a_branch2a <- res5a_branch2a
I0718 19:46:16.509685 20478 net.cpp:405] scale5a_branch2a -> res5a_branch2a (in-place)
I0718 19:46:16.509752 20478 layer_factory.hpp:77] Creating layer scale5a_branch2a
I0718 19:46:16.509939 20478 net.cpp:150] Setting up scale5a_branch2a
I0718 19:46:16.509953 20478 net.cpp:157] Top shape: 1 512 60 60 (1843200)
I0718 19:46:16.509959 20478 net.cpp:165] Memory required for data: 4010803200
I0718 19:46:16.509974 20478 layer_factory.hpp:77] Creating layer res5a_branch2a_relu
I0718 19:46:16.509986 20478 net.cpp:100] Creating Layer res5a_branch2a_relu
I0718 19:46:16.509994 20478 net.cpp:444] res5a_branch2a_relu <- res5a_branch2a
I0718 19:46:16.510002 20478 net.cpp:405] res5a_branch2a_relu -> res5a_branch2a (in-place)
I0718 19:46:16.510013 20478 net.cpp:150] Setting up res5a_branch2a_relu
I0718 19:46:16.510022 20478 net.cpp:157] Top shape: 1 512 60 60 (1843200)
I0718 19:46:16.510028 20478 net.cpp:165] Memory required for data: 4018176000
I0718 19:46:16.510035 20478 layer_factory.hpp:77] Creating layer res5a_branch2b
I0718 19:46:16.510054 20478 net.cpp:100] Creating Layer res5a_branch2b
I0718 19:46:16.510061 20478 net.cpp:444] res5a_branch2b <- res5a_branch2a
I0718 19:46:16.510074 20478 net.cpp:418] res5a_branch2b -> res5a_branch2b
I0718 19:46:16.518141 20478 net.cpp:150] Setting up res5a_branch2b
I0718 19:46:16.518187 20478 net.cpp:157] Top shape: 1 512 60 60 (1843200)
I0718 19:46:16.518195 20478 net.cpp:165] Memory required for data: 4025548800
I0718 19:46:16.518218 20478 layer_factory.hpp:77] Creating layer bn5a_branch2b
I0718 19:46:16.518239 20478 net.cpp:100] Creating Layer bn5a_branch2b
I0718 19:46:16.518250 20478 net.cpp:444] bn5a_branch2b <- res5a_branch2b
I0718 19:46:16.518263 20478 net.cpp:405] bn5a_branch2b -> res5a_branch2b (in-place)
I0718 19:46:16.518606 20478 net.cpp:150] Setting up bn5a_branch2b
I0718 19:46:16.518620 20478 net.cpp:157] Top shape: 1 512 60 60 (1843200)
I0718 19:46:16.518627 20478 net.cpp:165] Memory required for data: 4032921600
I0718 19:46:16.518661 20478 layer_factory.hpp:77] Creating layer scale5a_branch2b
I0718 19:46:16.518676 20478 net.cpp:100] Creating Layer scale5a_branch2b
I0718 19:46:16.518683 20478 net.cpp:444] scale5a_branch2b <- res5a_branch2b
I0718 19:46:16.518693 20478 net.cpp:405] scale5a_branch2b -> res5a_branch2b (in-place)
I0718 19:46:16.518762 20478 layer_factory.hpp:77] Creating layer scale5a_branch2b
I0718 19:46:16.518949 20478 net.cpp:150] Setting up scale5a_branch2b
I0718 19:46:16.518962 20478 net.cpp:157] Top shape: 1 512 60 60 (1843200)
I0718 19:46:16.518970 20478 net.cpp:165] Memory required for data: 4040294400
I0718 19:46:16.518990 20478 layer_factory.hpp:77] Creating layer res5a_branch2b_relu
I0718 19:46:16.519002 20478 net.cpp:100] Creating Layer res5a_branch2b_relu
I0718 19:46:16.519009 20478 net.cpp:444] res5a_branch2b_relu <- res5a_branch2b
I0718 19:46:16.519024 20478 net.cpp:405] res5a_branch2b_relu -> res5a_branch2b (in-place)
I0718 19:46:16.519035 20478 net.cpp:150] Setting up res5a_branch2b_relu
I0718 19:46:16.519044 20478 net.cpp:157] Top shape: 1 512 60 60 (1843200)
I0718 19:46:16.519052 20478 net.cpp:165] Memory required for data: 4047667200
I0718 19:46:16.519057 20478 layer_factory.hpp:77] Creating layer res5a_branch2c
I0718 19:46:16.519073 20478 net.cpp:100] Creating Layer res5a_branch2c
I0718 19:46:16.519079 20478 net.cpp:444] res5a_branch2c <- res5a_branch2b
I0718 19:46:16.519130 20478 net.cpp:418] res5a_branch2c -> res5a_branch2c
I0718 19:46:16.522825 20478 net.cpp:150] Setting up res5a_branch2c
I0718 19:46:16.522862 20478 net.cpp:157] Top shape: 1 2048 60 60 (7372800)
I0718 19:46:16.522871 20478 net.cpp:165] Memory required for data: 4077158400
I0718 19:46:16.522903 20478 layer_factory.hpp:77] Creating layer bn5a_branch2c
I0718 19:46:16.522927 20478 net.cpp:100] Creating Layer bn5a_branch2c
I0718 19:46:16.522938 20478 net.cpp:444] bn5a_branch2c <- res5a_branch2c
I0718 19:46:16.522949 20478 net.cpp:405] bn5a_branch2c -> res5a_branch2c (in-place)
I0718 19:46:16.523239 20478 net.cpp:150] Setting up bn5a_branch2c
I0718 19:46:16.523252 20478 net.cpp:157] Top shape: 1 2048 60 60 (7372800)
I0718 19:46:16.523259 20478 net.cpp:165] Memory required for data: 4106649600
I0718 19:46:16.523291 20478 layer_factory.hpp:77] Creating layer scale5a_branch2c
I0718 19:46:16.523306 20478 net.cpp:100] Creating Layer scale5a_branch2c
I0718 19:46:16.523314 20478 net.cpp:444] scale5a_branch2c <- res5a_branch2c
I0718 19:46:16.523326 20478 net.cpp:405] scale5a_branch2c -> res5a_branch2c (in-place)
I0718 19:46:16.531772 20478 layer_factory.hpp:77] Creating layer scale5a_branch2c
I0718 19:46:16.531997 20478 net.cpp:150] Setting up scale5a_branch2c
I0718 19:46:16.532017 20478 net.cpp:157] Top shape: 1 2048 60 60 (7372800)
I0718 19:46:16.532024 20478 net.cpp:165] Memory required for data: 4136140800
I0718 19:46:16.532043 20478 layer_factory.hpp:77] Creating layer res5a
I0718 19:46:16.532058 20478 net.cpp:100] Creating Layer res5a
I0718 19:46:16.532065 20478 net.cpp:444] res5a <- res5a_branch1
I0718 19:46:16.532076 20478 net.cpp:444] res5a <- res5a_branch2c
I0718 19:46:16.532088 20478 net.cpp:418] res5a -> res5a
I0718 19:46:16.532130 20478 net.cpp:150] Setting up res5a
I0718 19:46:16.532146 20478 net.cpp:157] Top shape: 1 2048 60 60 (7372800)
I0718 19:46:16.532153 20478 net.cpp:165] Memory required for data: 4165632000
I0718 19:46:16.532161 20478 layer_factory.hpp:77] Creating layer res5a_relu
I0718 19:46:16.532173 20478 net.cpp:100] Creating Layer res5a_relu
I0718 19:46:16.532181 20478 net.cpp:444] res5a_relu <- res5a
I0718 19:46:16.532189 20478 net.cpp:405] res5a_relu -> res5a (in-place)
I0718 19:46:16.532202 20478 net.cpp:150] Setting up res5a_relu
I0718 19:46:16.532210 20478 net.cpp:157] Top shape: 1 2048 60 60 (7372800)
I0718 19:46:16.532217 20478 net.cpp:165] Memory required for data: 4195123200
I0718 19:46:16.532223 20478 layer_factory.hpp:77] Creating layer res5a_res5a_relu_0_split
I0718 19:46:16.532235 20478 net.cpp:100] Creating Layer res5a_res5a_relu_0_split
I0718 19:46:16.532243 20478 net.cpp:444] res5a_res5a_relu_0_split <- res5a
I0718 19:46:16.532254 20478 net.cpp:418] res5a_res5a_relu_0_split -> res5a_res5a_relu_0_split_0
I0718 19:46:16.532265 20478 net.cpp:418] res5a_res5a_relu_0_split -> res5a_res5a_relu_0_split_1
I0718 19:46:16.532320 20478 net.cpp:150] Setting up res5a_res5a_relu_0_split
I0718 19:46:16.532333 20478 net.cpp:157] Top shape: 1 2048 60 60 (7372800)
I0718 19:46:16.532341 20478 net.cpp:157] Top shape: 1 2048 60 60 (7372800)
I0718 19:46:16.532347 20478 net.cpp:165] Memory required for data: 4254105600
I0718 19:46:16.532354 20478 layer_factory.hpp:77] Creating layer res5b_branch2a
I0718 19:46:16.532383 20478 net.cpp:100] Creating Layer res5b_branch2a
I0718 19:46:16.532392 20478 net.cpp:444] res5b_branch2a <- res5a_res5a_relu_0_split_0
I0718 19:46:16.532403 20478 net.cpp:418] res5b_branch2a -> res5b_branch2a
I0718 19:46:16.536594 20478 net.cpp:150] Setting up res5b_branch2a
I0718 19:46:16.536643 20478 net.cpp:157] Top shape: 1 512 60 60 (1843200)
I0718 19:46:16.536649 20478 net.cpp:165] Memory required for data: 4261478400
I0718 19:46:16.536671 20478 layer_factory.hpp:77] Creating layer bn5b_branch2a
I0718 19:46:16.536696 20478 net.cpp:100] Creating Layer bn5b_branch2a
I0718 19:46:16.536706 20478 net.cpp:444] bn5b_branch2a <- res5b_branch2a
I0718 19:46:16.536736 20478 net.cpp:405] bn5b_branch2a -> res5b_branch2a (in-place)
I0718 19:46:16.537070 20478 net.cpp:150] Setting up bn5b_branch2a
I0718 19:46:16.537123 20478 net.cpp:157] Top shape: 1 512 60 60 (1843200)
I0718 19:46:16.537132 20478 net.cpp:165] Memory required for data: 4268851200
I0718 19:46:16.537147 20478 layer_factory.hpp:77] Creating layer scale5b_branch2a
I0718 19:46:16.537161 20478 net.cpp:100] Creating Layer scale5b_branch2a
I0718 19:46:16.537169 20478 net.cpp:444] scale5b_branch2a <- res5b_branch2a
I0718 19:46:16.537178 20478 net.cpp:405] scale5b_branch2a -> res5b_branch2a (in-place)
I0718 19:46:16.537248 20478 layer_factory.hpp:77] Creating layer scale5b_branch2a
I0718 19:46:16.537436 20478 net.cpp:150] Setting up scale5b_branch2a
I0718 19:46:16.537449 20478 net.cpp:157] Top shape: 1 512 60 60 (1843200)
I0718 19:46:16.537456 20478 net.cpp:165] Memory required for data: 4276224000
I0718 19:46:16.537468 20478 layer_factory.hpp:77] Creating layer res5b_branch2a_relu
I0718 19:46:16.537480 20478 net.cpp:100] Creating Layer res5b_branch2a_relu
I0718 19:46:16.537487 20478 net.cpp:444] res5b_branch2a_relu <- res5b_branch2a
I0718 19:46:16.537498 20478 net.cpp:405] res5b_branch2a_relu -> res5b_branch2a (in-place)
I0718 19:46:16.537511 20478 net.cpp:150] Setting up res5b_branch2a_relu
I0718 19:46:16.537520 20478 net.cpp:157] Top shape: 1 512 60 60 (1843200)
I0718 19:46:16.537526 20478 net.cpp:165] Memory required for data: 4283596800
I0718 19:46:16.537533 20478 layer_factory.hpp:77] Creating layer res5b_branch2b
I0718 19:46:16.537549 20478 net.cpp:100] Creating Layer res5b_branch2b
I0718 19:46:16.537556 20478 net.cpp:444] res5b_branch2b <- res5b_branch2a
I0718 19:46:16.537569 20478 net.cpp:418] res5b_branch2b -> res5b_branch2b
I0718 19:46:16.545531 20478 net.cpp:150] Setting up res5b_branch2b
I0718 19:46:16.545578 20478 net.cpp:157] Top shape: 1 512 60 60 (1843200)
I0718 19:46:16.545586 20478 net.cpp:165] Memory required for data: 4290969600
I0718 19:46:16.545610 20478 layer_factory.hpp:77] Creating layer bn5b_branch2b
I0718 19:46:16.545635 20478 net.cpp:100] Creating Layer bn5b_branch2b
I0718 19:46:16.545645 20478 net.cpp:444] bn5b_branch2b <- res5b_branch2b
I0718 19:46:16.545660 20478 net.cpp:405] bn5b_branch2b -> res5b_branch2b (in-place)
I0718 19:46:16.546005 20478 net.cpp:150] Setting up bn5b_branch2b
I0718 19:46:16.546020 20478 net.cpp:157] Top shape: 1 512 60 60 (1843200)
I0718 19:46:16.546025 20478 net.cpp:165] Memory required for data: 4298342400
I0718 19:46:16.546041 20478 layer_factory.hpp:77] Creating layer scale5b_branch2b
I0718 19:46:16.546064 20478 net.cpp:100] Creating Layer scale5b_branch2b
I0718 19:46:16.546072 20478 net.cpp:444] scale5b_branch2b <- res5b_branch2b
I0718 19:46:16.546082 20478 net.cpp:405] scale5b_branch2b -> res5b_branch2b (in-place)
I0718 19:46:16.546150 20478 layer_factory.hpp:77] Creating layer scale5b_branch2b
I0718 19:46:16.546349 20478 net.cpp:150] Setting up scale5b_branch2b
I0718 19:46:16.546361 20478 net.cpp:157] Top shape: 1 512 60 60 (1843200)
I0718 19:46:16.546368 20478 net.cpp:165] Memory required for data: 4305715200
I0718 19:46:16.546381 20478 layer_factory.hpp:77] Creating layer res5b_branch2b_relu
I0718 19:46:16.546396 20478 net.cpp:100] Creating Layer res5b_branch2b_relu
I0718 19:46:16.546402 20478 net.cpp:444] res5b_branch2b_relu <- res5b_branch2b
I0718 19:46:16.546414 20478 net.cpp:405] res5b_branch2b_relu -> res5b_branch2b (in-place)
I0718 19:46:16.546425 20478 net.cpp:150] Setting up res5b_branch2b_relu
I0718 19:46:16.546434 20478 net.cpp:157] Top shape: 1 512 60 60 (1843200)
I0718 19:46:16.546442 20478 net.cpp:165] Memory required for data: 4313088000
I0718 19:46:16.546447 20478 layer_factory.hpp:77] Creating layer res5b_branch2c
I0718 19:46:16.546463 20478 net.cpp:100] Creating Layer res5b_branch2c
I0718 19:46:16.546470 20478 net.cpp:444] res5b_branch2c <- res5b_branch2b
I0718 19:46:16.546480 20478 net.cpp:418] res5b_branch2c -> res5b_branch2c
I0718 19:46:16.550101 20478 net.cpp:150] Setting up res5b_branch2c
I0718 19:46:16.550146 20478 net.cpp:157] Top shape: 1 2048 60 60 (7372800)
I0718 19:46:16.550154 20478 net.cpp:165] Memory required for data: 4342579200
I0718 19:46:16.550175 20478 layer_factory.hpp:77] Creating layer bn5b_branch2c
I0718 19:46:16.550228 20478 net.cpp:100] Creating Layer bn5b_branch2c
I0718 19:46:16.550240 20478 net.cpp:444] bn5b_branch2c <- res5b_branch2c
I0718 19:46:16.550256 20478 net.cpp:405] bn5b_branch2c -> res5b_branch2c (in-place)
I0718 19:46:16.550580 20478 net.cpp:150] Setting up bn5b_branch2c
I0718 19:46:16.550593 20478 net.cpp:157] Top shape: 1 2048 60 60 (7372800)
I0718 19:46:16.550600 20478 net.cpp:165] Memory required for data: 4372070400
I0718 19:46:16.550616 20478 layer_factory.hpp:77] Creating layer scale5b_branch2c
I0718 19:46:16.550634 20478 net.cpp:100] Creating Layer scale5b_branch2c
I0718 19:46:16.550642 20478 net.cpp:444] scale5b_branch2c <- res5b_branch2c
I0718 19:46:16.550650 20478 net.cpp:405] scale5b_branch2c -> res5b_branch2c (in-place)
I0718 19:46:16.550725 20478 layer_factory.hpp:77] Creating layer scale5b_branch2c
I0718 19:46:16.550907 20478 net.cpp:150] Setting up scale5b_branch2c
I0718 19:46:16.550922 20478 net.cpp:157] Top shape: 1 2048 60 60 (7372800)
I0718 19:46:16.550930 20478 net.cpp:165] Memory required for data: 4401561600
I0718 19:46:16.550961 20478 layer_factory.hpp:77] Creating layer res5b
I0718 19:46:16.550976 20478 net.cpp:100] Creating Layer res5b
I0718 19:46:16.550986 20478 net.cpp:444] res5b <- res5a_res5a_relu_0_split_1
I0718 19:46:16.550994 20478 net.cpp:444] res5b <- res5b_branch2c
I0718 19:46:16.551003 20478 net.cpp:418] res5b -> res5b
I0718 19:46:16.551048 20478 net.cpp:150] Setting up res5b
I0718 19:46:16.551060 20478 net.cpp:157] Top shape: 1 2048 60 60 (7372800)
I0718 19:46:16.551067 20478 net.cpp:165] Memory required for data: 4431052800
I0718 19:46:16.551074 20478 layer_factory.hpp:77] Creating layer res5b_relu
I0718 19:46:16.551093 20478 net.cpp:100] Creating Layer res5b_relu
I0718 19:46:16.551102 20478 net.cpp:444] res5b_relu <- res5b
I0718 19:46:16.551113 20478 net.cpp:405] res5b_relu -> res5b (in-place)
I0718 19:46:16.551126 20478 net.cpp:150] Setting up res5b_relu
I0718 19:46:16.551134 20478 net.cpp:157] Top shape: 1 2048 60 60 (7372800)
I0718 19:46:16.551141 20478 net.cpp:165] Memory required for data: 4460544000
I0718 19:46:16.551147 20478 layer_factory.hpp:77] Creating layer res5b_res5b_relu_0_split
I0718 19:46:16.551156 20478 net.cpp:100] Creating Layer res5b_res5b_relu_0_split
I0718 19:46:16.551163 20478 net.cpp:444] res5b_res5b_relu_0_split <- res5b
I0718 19:46:16.551172 20478 net.cpp:418] res5b_res5b_relu_0_split -> res5b_res5b_relu_0_split_0
I0718 19:46:16.551183 20478 net.cpp:418] res5b_res5b_relu_0_split -> res5b_res5b_relu_0_split_1
I0718 19:46:16.551239 20478 net.cpp:150] Setting up res5b_res5b_relu_0_split
I0718 19:46:16.551251 20478 net.cpp:157] Top shape: 1 2048 60 60 (7372800)
I0718 19:46:16.551259 20478 net.cpp:157] Top shape: 1 2048 60 60 (7372800)
I0718 19:46:16.551265 20478 net.cpp:165] Memory required for data: 4519526400
I0718 19:46:16.551272 20478 layer_factory.hpp:77] Creating layer res5c_branch2a
I0718 19:46:16.551291 20478 net.cpp:100] Creating Layer res5c_branch2a
I0718 19:46:16.551300 20478 net.cpp:444] res5c_branch2a <- res5b_res5b_relu_0_split_0
I0718 19:46:16.551309 20478 net.cpp:418] res5c_branch2a -> res5c_branch2a
I0718 19:46:16.554829 20478 net.cpp:150] Setting up res5c_branch2a
I0718 19:46:16.554862 20478 net.cpp:157] Top shape: 1 512 60 60 (1843200)
I0718 19:46:16.554868 20478 net.cpp:165] Memory required for data: 4526899200
I0718 19:46:16.554883 20478 layer_factory.hpp:77] Creating layer bn5c_branch2a
I0718 19:46:16.554900 20478 net.cpp:100] Creating Layer bn5c_branch2a
I0718 19:46:16.554908 20478 net.cpp:444] bn5c_branch2a <- res5c_branch2a
I0718 19:46:16.554919 20478 net.cpp:405] bn5c_branch2a -> res5c_branch2a (in-place)
I0718 19:46:16.555222 20478 net.cpp:150] Setting up bn5c_branch2a
I0718 19:46:16.555235 20478 net.cpp:157] Top shape: 1 512 60 60 (1843200)
I0718 19:46:16.555243 20478 net.cpp:165] Memory required for data: 4534272000
I0718 19:46:16.555256 20478 layer_factory.hpp:77] Creating layer scale5c_branch2a
I0718 19:46:16.555272 20478 net.cpp:100] Creating Layer scale5c_branch2a
I0718 19:46:16.555310 20478 net.cpp:444] scale5c_branch2a <- res5c_branch2a
I0718 19:46:16.555321 20478 net.cpp:405] scale5c_branch2a -> res5c_branch2a (in-place)
I0718 19:46:16.555389 20478 layer_factory.hpp:77] Creating layer scale5c_branch2a
I0718 19:46:16.555577 20478 net.cpp:150] Setting up scale5c_branch2a
I0718 19:46:16.555590 20478 net.cpp:157] Top shape: 1 512 60 60 (1843200)
I0718 19:46:16.555596 20478 net.cpp:165] Memory required for data: 4541644800
I0718 19:46:16.555608 20478 layer_factory.hpp:77] Creating layer res5c_branch2a_relu
I0718 19:46:16.555621 20478 net.cpp:100] Creating Layer res5c_branch2a_relu
I0718 19:46:16.555629 20478 net.cpp:444] res5c_branch2a_relu <- res5c_branch2a
I0718 19:46:16.555645 20478 net.cpp:405] res5c_branch2a_relu -> res5c_branch2a (in-place)
I0718 19:46:16.555656 20478 net.cpp:150] Setting up res5c_branch2a_relu
I0718 19:46:16.555665 20478 net.cpp:157] Top shape: 1 512 60 60 (1843200)
I0718 19:46:16.555671 20478 net.cpp:165] Memory required for data: 4549017600
I0718 19:46:16.555680 20478 layer_factory.hpp:77] Creating layer res5c_branch2b
I0718 19:46:16.555696 20478 net.cpp:100] Creating Layer res5c_branch2b
I0718 19:46:16.555702 20478 net.cpp:444] res5c_branch2b <- res5c_branch2a
I0718 19:46:16.555712 20478 net.cpp:418] res5c_branch2b -> res5c_branch2b
I0718 19:46:16.563247 20478 net.cpp:150] Setting up res5c_branch2b
I0718 19:46:16.563289 20478 net.cpp:157] Top shape: 1 512 60 60 (1843200)
I0718 19:46:16.563297 20478 net.cpp:165] Memory required for data: 4556390400
I0718 19:46:16.563316 20478 layer_factory.hpp:77] Creating layer bn5c_branch2b
I0718 19:46:16.563335 20478 net.cpp:100] Creating Layer bn5c_branch2b
I0718 19:46:16.563346 20478 net.cpp:444] bn5c_branch2b <- res5c_branch2b
I0718 19:46:16.563360 20478 net.cpp:405] bn5c_branch2b -> res5c_branch2b (in-place)
I0718 19:46:16.564462 20478 net.cpp:150] Setting up bn5c_branch2b
I0718 19:46:16.564479 20478 net.cpp:157] Top shape: 1 512 60 60 (1843200)
I0718 19:46:16.564486 20478 net.cpp:165] Memory required for data: 4563763200
I0718 19:46:16.564518 20478 layer_factory.hpp:77] Creating layer scale5c_branch2b
I0718 19:46:16.564534 20478 net.cpp:100] Creating Layer scale5c_branch2b
I0718 19:46:16.564543 20478 net.cpp:444] scale5c_branch2b <- res5c_branch2b
I0718 19:46:16.564555 20478 net.cpp:405] scale5c_branch2b -> res5c_branch2b (in-place)
I0718 19:46:16.564630 20478 layer_factory.hpp:77] Creating layer scale5c_branch2b
I0718 19:46:16.564844 20478 net.cpp:150] Setting up scale5c_branch2b
I0718 19:46:16.564859 20478 net.cpp:157] Top shape: 1 512 60 60 (1843200)
I0718 19:46:16.564867 20478 net.cpp:165] Memory required for data: 4571136000
I0718 19:46:16.564880 20478 layer_factory.hpp:77] Creating layer res5c_branch2b_relu
I0718 19:46:16.564893 20478 net.cpp:100] Creating Layer res5c_branch2b_relu
I0718 19:46:16.564899 20478 net.cpp:444] res5c_branch2b_relu <- res5c_branch2b
I0718 19:46:16.564908 20478 net.cpp:405] res5c_branch2b_relu -> res5c_branch2b (in-place)
I0718 19:46:16.564919 20478 net.cpp:150] Setting up res5c_branch2b_relu
I0718 19:46:16.564929 20478 net.cpp:157] Top shape: 1 512 60 60 (1843200)
I0718 19:46:16.564934 20478 net.cpp:165] Memory required for data: 4578508800
I0718 19:46:16.564940 20478 layer_factory.hpp:77] Creating layer res5c_branch2c
I0718 19:46:16.564960 20478 net.cpp:100] Creating Layer res5c_branch2c
I0718 19:46:16.564967 20478 net.cpp:444] res5c_branch2c <- res5c_branch2b
I0718 19:46:16.564980 20478 net.cpp:418] res5c_branch2c -> res5c_branch2c
I0718 19:46:16.568874 20478 net.cpp:150] Setting up res5c_branch2c
I0718 19:46:16.568922 20478 net.cpp:157] Top shape: 1 2048 60 60 (7372800)
I0718 19:46:16.568930 20478 net.cpp:165] Memory required for data: 4608000000
I0718 19:46:16.568951 20478 layer_factory.hpp:77] Creating layer bn5c_branch2c
I0718 19:46:16.568974 20478 net.cpp:100] Creating Layer bn5c_branch2c
I0718 19:46:16.568984 20478 net.cpp:444] bn5c_branch2c <- res5c_branch2c
I0718 19:46:16.568999 20478 net.cpp:405] bn5c_branch2c -> res5c_branch2c (in-place)
I0718 19:46:16.569296 20478 net.cpp:150] Setting up bn5c_branch2c
I0718 19:46:16.569345 20478 net.cpp:157] Top shape: 1 2048 60 60 (7372800)
I0718 19:46:16.569353 20478 net.cpp:165] Memory required for data: 4637491200
I0718 19:46:16.569370 20478 layer_factory.hpp:77] Creating layer scale5c_branch2c
I0718 19:46:16.569385 20478 net.cpp:100] Creating Layer scale5c_branch2c
I0718 19:46:16.569391 20478 net.cpp:444] scale5c_branch2c <- res5c_branch2c
I0718 19:46:16.569401 20478 net.cpp:405] scale5c_branch2c -> res5c_branch2c (in-place)
I0718 19:46:16.569485 20478 layer_factory.hpp:77] Creating layer scale5c_branch2c
I0718 19:46:16.569658 20478 net.cpp:150] Setting up scale5c_branch2c
I0718 19:46:16.569672 20478 net.cpp:157] Top shape: 1 2048 60 60 (7372800)
I0718 19:46:16.569679 20478 net.cpp:165] Memory required for data: 4666982400
I0718 19:46:16.569692 20478 layer_factory.hpp:77] Creating layer res5c
I0718 19:46:16.569705 20478 net.cpp:100] Creating Layer res5c
I0718 19:46:16.569711 20478 net.cpp:444] res5c <- res5b_res5b_relu_0_split_1
I0718 19:46:16.569721 20478 net.cpp:444] res5c <- res5c_branch2c
I0718 19:46:16.569737 20478 net.cpp:418] res5c -> res5c
I0718 19:46:16.569777 20478 net.cpp:150] Setting up res5c
I0718 19:46:16.569788 20478 net.cpp:157] Top shape: 1 2048 60 60 (7372800)
I0718 19:46:16.569795 20478 net.cpp:165] Memory required for data: 4696473600
I0718 19:46:16.569802 20478 layer_factory.hpp:77] Creating layer res5c_relu
I0718 19:46:16.569818 20478 net.cpp:100] Creating Layer res5c_relu
I0718 19:46:16.569825 20478 net.cpp:444] res5c_relu <- res5c
I0718 19:46:16.569833 20478 net.cpp:405] res5c_relu -> res5c (in-place)
I0718 19:46:16.569844 20478 net.cpp:150] Setting up res5c_relu
I0718 19:46:16.569854 20478 net.cpp:157] Top shape: 1 2048 60 60 (7372800)
I0718 19:46:16.569860 20478 net.cpp:165] Memory required for data: 4725964800
I0718 19:46:16.569866 20478 layer_factory.hpp:77] Creating layer fc_VOC
I0718 19:46:16.569882 20478 net.cpp:100] Creating Layer fc_VOC
I0718 19:46:16.569890 20478 net.cpp:444] fc_VOC <- res5c
I0718 19:46:16.569919 20478 net.cpp:418] fc_VOC -> fc_VOC
I0718 19:46:16.587057 20478 net.cpp:150] Setting up fc_VOC
I0718 19:46:16.587105 20478 net.cpp:157] Top shape: 1 21 60 60 (75600)
I0718 19:46:16.587112 20478 net.cpp:165] Memory required for data: 4726267200
I0718 19:46:16.587127 20478 layer_factory.hpp:77] Creating layer upscore
I0718 19:46:16.587155 20478 net.cpp:100] Creating Layer upscore
I0718 19:46:16.587165 20478 net.cpp:444] upscore <- fc_VOC
I0718 19:46:16.587189 20478 net.cpp:418] upscore -> upscore
I0718 19:46:16.587860 20478 net.cpp:150] Setting up upscore
I0718 19:46:16.587875 20478 net.cpp:157] Top shape: 1 21 480 480 (4838400)
I0718 19:46:16.587882 20478 net.cpp:165] Memory required for data: 4745620800
I0718 19:46:16.587891 20478 layer_factory.hpp:77] Creating layer loss
I0718 19:46:16.587908 20478 net.cpp:100] Creating Layer loss
I0718 19:46:16.587915 20478 net.cpp:444] loss <- upscore
I0718 19:46:16.587924 20478 net.cpp:444] loss <- label
I0718 19:46:16.587937 20478 net.cpp:418] loss -> loss
I0718 19:46:16.587962 20478 layer_factory.hpp:77] Creating layer loss
…
