name: "IRes"

input: "data"
input_dim: 1
input_dim: 3
input_dim: 480
input_dim: 480

input: "rois1"
input_dim: 1 # to be changed on-the-fly to num ROIs
input_dim: 5 # [batch ind, x1, y1, x2, y2] zero-based indexing
input_dim: 1
input_dim: 1

input: "label"
input_dim: 1
input_dim: 1
input_dim: 480
input_dim: 480

input: "label_p"
input_dim: 1
input_dim: 2
input_dim: 7
input_dim: 7

input: "v2_data"
input_dim: 1
input_dim: 3
input_dim: 480
input_dim: 480

input: "rois2"
input_dim: 1 # to be changed on-the-fly to num ROIs
input_dim: 5 # [batch ind, x1, y1, x2, y2] zero-based indexing
input_dim: 1
input_dim: 1

input: "v2_label"
input_dim: 1
input_dim: 1
input_dim: 480
input_dim: 480

input: "v2_label_p"
input_dim: 1
input_dim: 1
input_dim: 7
input_dim: 7

################################ image 1 ################################


layer {
  name: "conv1"
  type: "Convolution"
  bottom: "data"
  top: "conv1"
  param {
    name: "0"
    lr_mult: 1.0
    decay_mult: 1.0
  }
  convolution_param {
    num_output: 32
    bias_term: false
    weight_filler {
      type: "xavier"
    }
    bias_filler {
      type: "constant"
      value: 0.0
    }
    pad_h: 1
    pad_w: 1
    kernel_h: 3
    kernel_w: 3
    stride_h: 2
    stride_w: 2
  }
}
layer {
  name: "conv1_bn"
  type: "BN"
  bottom: "conv1"
  top: "conv1_bn"
  param {
    name: "1"
    lr_mult: 1.0
    decay_mult: 0.0
  }
  param {
    name: "2"
    lr_mult: 1.0
    decay_mult: 0.0
  }
  param {
    name: "3"
  }
  param {
    name: "4"
  }
  bn_param {
    frozen: true
    slope_filler {
      type: "constant"
      value: 1.0
    }
    bias_filler {
      type: "constant"
      value: 0.0
    }
  }
}
layer {
  name: "conv1_relu"
  type: "ReLU"
  bottom: "conv1_bn"
  top: "conv1_bn"
}
layer {
  name: "conv1_2"
  type: "Convolution"
  bottom: "conv1_bn"
  top: "conv1_2"
  param {
    name: "5"
    lr_mult: 1.0
    decay_mult: 1.0
  }
  convolution_param {
    num_output: 32
    bias_term: false
    weight_filler {
      type: "xavier"
    }
    bias_filler {
      type: "constant"
      value: 0.0
    }
    pad_h: 1
    pad_w: 1
    kernel_h: 3
    kernel_w: 3
    stride_h: 1
    stride_w: 1
  }
}
layer {
  name: "conv1_2_bn"
  type: "BN"
  bottom: "conv1_2"
  top: "conv1_2_bn"
  param {
    name: "6"
    lr_mult: 1.0
    decay_mult: 0.0
  }
  param {
    name: "7"
    lr_mult: 1.0
    decay_mult: 0.0
  }
  param {
    name: "8"
  }
  param {
    name: "9"
  }
  bn_param {
    frozen: true
    slope_filler {
      type: "constant"
      value: 1.0
    }
    bias_filler {
      type: "constant"
      value: 0.0
    }
  }
}
layer {
  name: "conv1_2_relu"
  type: "ReLU"
  bottom: "conv1_2_bn"
  top: "conv1_2_bn"
}
layer {
  name: "conv1_3"
  type: "Convolution"
  bottom: "conv1_2_bn"
  top: "conv1_3"
  param {
    name: "10"
    lr_mult: 1.0
    decay_mult: 1.0
  }
  convolution_param {
    num_output: 64
    bias_term: false
    weight_filler {
      type: "xavier"
    }
    bias_filler {
      type: "constant"
      value: 0.0
    }
    pad_h: 1
    pad_w: 1
    kernel_h: 3
    kernel_w: 3
    stride_h: 1
    stride_w: 1
  }
}
layer {
  name: "conv1_3_bn"
  type: "BN"
  bottom: "conv1_3"
  top: "conv1_3_bn"
  param {
    name: "11"
    lr_mult: 1.0
    decay_mult: 0.0
  }
  param {
    name: "12"
    lr_mult: 1.0
    decay_mult: 0.0
  }
  param {
    name: "13"
  }
  param {
    name: "14"
  }
  bn_param {
    frozen: true
    slope_filler {
      type: "constant"
      value: 1.0
    }
    bias_filler {
      type: "constant"
      value: 0.0
    }
  }
}
layer {
  name: "conv1_3_relu"
  type: "ReLU"
  bottom: "conv1_3_bn"
  top: "conv1_3_bn"
}
layer {
  name: "conv1_pool_branch"
  type: "Pooling"
  bottom: "conv1_3_bn"
  top: "conv1_pool_branch"
  pooling_param {
    pool: MAX
    kernel_h: 3
    kernel_w: 3
    stride_h: 2
    stride_w: 2
    pad_h: 0
    pad_w: 0
  }
}
layer {
  name: "conv1_branch"
  type: "Convolution"
  bottom: "conv1_3_bn"
  top: "conv1_branch"
  param {
    name: "15"
    lr_mult: 1.0
    decay_mult: 1.0
  }
  convolution_param {
    num_output: 96
    bias_term: false
    weight_filler {
      type: "xavier"
    }
    bias_filler {
      type: "constant"
      value: 0.0
    }
    pad_h: 1
    pad_w: 1
    kernel_h: 3
    kernel_w: 3
    stride_h: 2
    stride_w: 2
  }
}
layer {
  name: "conv1_branch_bn"
  type: "BN"
  bottom: "conv1_branch"
  top: "conv1_branch_bn"
  param {
    name: "16"
    lr_mult: 1.0
    decay_mult: 0.0
  }
  param {
    name: "17"
    lr_mult: 1.0
    decay_mult: 0.0
  }
  param {
    name: "18"
  }
  param {
    name: "19"
  }
  bn_param {
    frozen: true
    slope_filler {
      type: "constant"
      value: 1.0
    }
    bias_filler {
      type: "constant"
      value: 0.0
    }
  }
}
layer {
  name: "conv1_branch_relu"
  type: "ReLU"
  bottom: "conv1_branch_bn"
  top: "conv1_branch_bn"
}
layer {
  name: "conv1_concat"
  type: "Concat"
  bottom: "conv1_pool_branch"
  bottom: "conv1_branch_bn"
  top: "conv1_concat"
}
layer {
  name: "conv2_short_1x1"
  type: "Convolution"
  bottom: "conv1_concat"
  top: "conv2_short_1x1"
  param {
    name: "20"
    lr_mult: 1.0
    decay_mult: 1.0
  }
  convolution_param {
    num_output: 64
    bias_term: false
    weight_filler {
      type: "xavier"
    }
    bias_filler {
      type: "constant"
      value: 0.0
    }
    pad_h: 0
    pad_w: 0
    kernel_h: 1
    kernel_w: 1
    stride_h: 1
    stride_w: 1
  }
}
layer {
  name: "conv2_short_1x1_bn"
  type: "BN"
  bottom: "conv2_short_1x1"
  top: "conv2_short_1x1_bn"
  param {
    name: "21"
    lr_mult: 1.0
    decay_mult: 0.0
  }
  param {
    name: "22"
    lr_mult: 1.0
    decay_mult: 0.0
  }
  param {
    name: "23"
  }
  param {
    name: "24"
  }
  bn_param {
    frozen: true
    slope_filler {
      type: "constant"
      value: 1.0
    }
    bias_filler {
      type: "constant"
      value: 0.0
    }
  }
}
layer {
  name: "conv2_short_1x1_relu"
  type: "ReLU"
  bottom: "conv2_short_1x1_bn"
  top: "conv2_short_1x1_bn"
}
layer {
  name: "conv2_short_3x3"
  type: "Convolution"
  bottom: "conv2_short_1x1_bn"
  top: "conv2_short_3x3"
  param {
    name: "25"
    lr_mult: 1.0
    decay_mult: 1.0
  }
  convolution_param {
    num_output: 96
    bias_term: false
    weight_filler {
      type: "xavier"
    }
    bias_filler {
      type: "constant"
      value: 0.0
    }
    pad_h: 1
    pad_w: 1
    kernel_h: 3
    kernel_w: 3
    stride_h: 1
    stride_w: 1
  }
}
layer {
  name: "conv2_short_3x3_bn"
  type: "BN"
  bottom: "conv2_short_3x3"
  top: "conv2_short_3x3_bn"
  param {
    name: "26"
    lr_mult: 1.0
    decay_mult: 0.0
  }
  param {
    name: "27"
    lr_mult: 1.0
    decay_mult: 0.0
  }
  param {
    name: "28"
  }
  param {
    name: "29"
  }
  bn_param {
    frozen: true
    slope_filler {
      type: "constant"
      value: 1.0
    }
    bias_filler {
      type: "constant"
      value: 0.0
    }
  }
}
layer {
  name: "conv2_short_3x3_relu"
  type: "ReLU"
  bottom: "conv2_short_3x3_bn"
  top: "conv2_short_3x3_bn"
}
layer {
  name: "conv2_long_1x1"
  type: "Convolution"
  bottom: "conv1_concat"
  top: "conv2_long_1x1"
  param {
    name: "30"
    lr_mult: 1.0
    decay_mult: 1.0
  }
  convolution_param {
    num_output: 64
    bias_term: false
    weight_filler {
      type: "xavier"
    }
    bias_filler {
      type: "constant"
      value: 0.0
    }
    pad_h: 0
    pad_w: 0
    kernel_h: 1
    kernel_w: 1
    stride_h: 1
    stride_w: 1
  }
}
layer {
  name: "conv2_long_1x1_bn"
  type: "BN"
  bottom: "conv2_long_1x1"
  top: "conv2_long_1x1_bn"
  param {
    name: "31"
    lr_mult: 1.0
    decay_mult: 0.0
  }
  param {
    name: "32"
    lr_mult: 1.0
    decay_mult: 0.0
  }
  param {
    name: "33"
  }
  param {
    name: "34"
  }
  bn_param {
    frozen: true
    slope_filler {
      type: "constant"
      value: 1.0
    }
    bias_filler {
      type: "constant"
      value: 0.0
    }
  }
}
layer {
  name: "conv2_long_1x1_relu"
  type: "ReLU"
  bottom: "conv2_long_1x1_bn"
  top: "conv2_long_1x1_bn"
}
layer {
  name: "conv2_long_7x1"
  type: "Convolution"
  bottom: "conv2_long_1x1_bn"
  top: "conv2_long_7x1"
  param {
    name: "35"
    lr_mult: 1.0
    decay_mult: 1.0
  }
  convolution_param {
    num_output: 64
    bias_term: false
    weight_filler {
      type: "xavier"
    }
    bias_filler {
      type: "constant"
      value: 0.0
    }
    pad_h: 3
    pad_w: 0
    kernel_h: 7
    kernel_w: 1
    stride_h: 1
    stride_w: 1
  }
}
layer {
  name: "conv2_long_7x1_bn"
  type: "BN"
  bottom: "conv2_long_7x1"
  top: "conv2_long_7x1_bn"
  param {
    name: "36"
    lr_mult: 1.0
    decay_mult: 0.0
  }
  param {
    name: "37"
    lr_mult: 1.0
    decay_mult: 0.0
  }
  param {
    name: "38"
  }
  param {
    name: "39"
  }
  bn_param {
    frozen: true
    slope_filler {
      type: "constant"
      value: 1.0
    }
    bias_filler {
      type: "constant"
      value: 0.0
    }
  }
}
layer {
  name: "conv2_long_7x1_relu"
  type: "ReLU"
  bottom: "conv2_long_7x1_bn"
  top: "conv2_long_7x1_bn"
}
layer {
  name: "conv2_long_1x7"
  type: "Convolution"
  bottom: "conv2_long_7x1_bn"
  top: "conv2_long_1x7"
  param {
    name: "40"
    lr_mult: 1.0
    decay_mult: 1.0
  }
  convolution_param {
    num_output: 64
    bias_term: false
    weight_filler {
      type: "xavier"
    }
    bias_filler {
      type: "constant"
      value: 0.0
    }
    pad_h: 0
    pad_w: 3
    kernel_h: 1
    kernel_w: 7
    stride_h: 1
    stride_w: 1
  }
}
layer {
  name: "conv2_long_1x7_bn"
  type: "BN"
  bottom: "conv2_long_1x7"
  top: "conv2_long_1x7_bn"
  param {
    name: "41"
    lr_mult: 1.0
    decay_mult: 0.0
  }
  param {
    name: "42"
    lr_mult: 1.0
    decay_mult: 0.0
  }
  param {
    name: "43"
  }
  param {
    name: "44"
  }
  bn_param {
    frozen: true
    slope_filler {
      type: "constant"
      value: 1.0
    }
    bias_filler {
      type: "constant"
      value: 0.0
    }
  }
}
layer {
  name: "conv2_long_1x7_relu"
  type: "ReLU"
  bottom: "conv2_long_1x7_bn"
  top: "conv2_long_1x7_bn"
}
layer {
  name: "conv2_long_3x3"
  type: "Convolution"
  bottom: "conv2_long_1x7_bn"
  top: "conv2_long_3x3"
  param {
    name: "45"
    lr_mult: 1.0
    decay_mult: 1.0
  }
  convolution_param {
    num_output: 96
    bias_term: false
    weight_filler {
      type: "xavier"
    }
    bias_filler {
      type: "constant"
      value: 0.0
    }
    pad_h: 1
    pad_w: 1
    kernel_h: 3
    kernel_w: 3
    stride_h: 1
    stride_w: 1
  }
}
layer {
  name: "conv2_long_3x3_bn"
  type: "BN"
  bottom: "conv2_long_3x3"
  top: "conv2_long_3x3_bn"
  param {
    name: "46"
    lr_mult: 1.0
    decay_mult: 0.0
  }
  param {
    name: "47"
    lr_mult: 1.0
    decay_mult: 0.0
  }
  param {
    name: "48"
  }
  param {
    name: "49"
  }
  bn_param {
    frozen: true
    slope_filler {
      type: "constant"
      value: 1.0
    }
    bias_filler {
      type: "constant"
      value: 0.0
    }
  }
}
layer {
  name: "conv2_long_3x3_relu"
  type: "ReLU"
  bottom: "conv2_long_3x3_bn"
  top: "conv2_long_3x3_bn"
}
layer {
  name: "conv2_concat"
  type: "Concat"
  bottom: "conv2_short_3x3_bn"
  bottom: "conv2_long_3x3_bn"
  top: "conv2_concat"
}
layer {
  name: "conv2_pool_branch"
  type: "Pooling"
  bottom: "conv2_concat"
  top: "conv2_pool_branch"
  pooling_param {
    pool: MAX
    kernel_h: 3
    kernel_w: 3
    stride_h: 2
    stride_w: 2
    pad_h: 0
    pad_w: 0
  }
}
layer {
  name: "conv2_branch"
  type: "Convolution"
  bottom: "conv2_concat"
  top: "conv2_branch"
  param {
    name: "50"
    lr_mult: 1.0
    decay_mult: 1.0
  }
  convolution_param {
    num_output: 192
    bias_term: false
    weight_filler {
      type: "xavier"
    }
    bias_filler {
      type: "constant"
      value: 0.0
    }
    pad_h: 1
    pad_w: 1
    kernel_h: 3
    kernel_w: 3
    stride_h: 2
    stride_w: 2
  }
}
layer {
  name: "conv2_branch_bn"
  type: "BN"
  bottom: "conv2_branch"
  top: "conv2_branch_bn"
  param {
    name: "51"
    lr_mult: 1.0
    decay_mult: 0.0
  }
  param {
    name: "52"
    lr_mult: 1.0
    decay_mult: 0.0
  }
  param {
    name: "53"
  }
  param {
    name: "54"
  }
  bn_param {
    frozen: true
    slope_filler {
      type: "constant"
      value: 1.0
    }
    bias_filler {
      type: "constant"
      value: 0.0
    }
  }
}
layer {
  name: "conv2_branch_relu"
  type: "ReLU"
  bottom: "conv2_branch_bn"
  top: "conv2_branch_bn"
}
layer {
  name: "stem_concat"
  type: "Concat"
  bottom: "conv2_pool_branch"
  bottom: "conv2_branch_bn"
  top: "stem_concat"
}
layer {
  name: "inception_resnet_a_1_path1_1x1"
  type: "Convolution"
  bottom: "stem_concat"
  top: "inception_resnet_a_1_path1_1x1"
  param {
    name: "55"
    lr_mult: 1.0
    decay_mult: 1.0
  }
  convolution_param {
    num_output: 32
    bias_term: false
    weight_filler {
      type: "xavier"
    }
    bias_filler {
      type: "constant"
      value: 0.0
    }
    pad_h: 0
    pad_w: 0
    kernel_h: 1
    kernel_w: 1
    stride_h: 1
    stride_w: 1
  }
}
layer {
  name: "inception_resnet_a_1_path1_1x1_bn"
  type: "BN"
  bottom: "inception_resnet_a_1_path1_1x1"
  top: "inception_resnet_a_1_path1_1x1_bn"
  param {
    name: "56"
    lr_mult: 1.0
    decay_mult: 0.0
  }
  param {
    name: "57"
    lr_mult: 1.0
    decay_mult: 0.0
  }
  param {
    name: "58"
  }
  param {
    name: "59"
  }
  bn_param {
    frozen: true
    slope_filler {
      type: "constant"
      value: 1.0
    }
    bias_filler {
      type: "constant"
      value: 0.0
    }
  }
}
layer {
  name: "inception_resnet_a_1_path1_1x1_relu"
  type: "ReLU"
  bottom: "inception_resnet_a_1_path1_1x1_bn"
  top: "inception_resnet_a_1_path1_1x1_bn"
}
layer {
  name: "inception_resnet_a_1_path1_3x3_1"
  type: "Convolution"
  bottom: "inception_resnet_a_1_path1_1x1_bn"
  top: "inception_resnet_a_1_path1_3x3_1"
  param {
    name: "60"
    lr_mult: 1.0
    decay_mult: 1.0
  }
  convolution_param {
    num_output: 48
    bias_term: false
    weight_filler {
      type: "xavier"
    }
    bias_filler {
      type: "constant"
      value: 0.0
    }
    pad_h: 1
    pad_w: 1
    kernel_h: 3
    kernel_w: 3
    stride_h: 1
    stride_w: 1
  }
}
layer {
  name: "inception_resnet_a_1_path1_3x3_1_bn"
  type: "BN"
  bottom: "inception_resnet_a_1_path1_3x3_1"
  top: "inception_resnet_a_1_path1_3x3_1_bn"
  param {
    name: "61"
    lr_mult: 1.0
    decay_mult: 0.0
  }
  param {
    name: "62"
    lr_mult: 1.0
    decay_mult: 0.0
  }
  param {
    name: "63"
  }
  param {
    name: "64"
  }
  bn_param {
    frozen: true
    slope_filler {
      type: "constant"
      value: 1.0
    }
    bias_filler {
      type: "constant"
      value: 0.0
    }
  }
}
layer {
  name: "inception_resnet_a_1_path1_3x3_1_relu"
  type: "ReLU"
  bottom: "inception_resnet_a_1_path1_3x3_1_bn"
  top: "inception_resnet_a_1_path1_3x3_1_bn"
}
layer {
  name: "inception_resnet_a_1_path1_3x3_2"
  type: "Convolution"
  bottom: "inception_resnet_a_1_path1_3x3_1_bn"
  top: "inception_resnet_a_1_path1_3x3_2"
  param {
    name: "65"
    lr_mult: 1.0
    decay_mult: 1.0
  }
  convolution_param {
    num_output: 64
    bias_term: false
    weight_filler {
      type: "xavier"
    }
    bias_filler {
      type: "constant"
      value: 0.0
    }
    pad_h: 1
    pad_w: 1
    kernel_h: 3
    kernel_w: 3
    stride_h: 1
    stride_w: 1
  }
}
layer {
  name: "inception_resnet_a_1_path1_3x3_2_bn"
  type: "BN"
  bottom: "inception_resnet_a_1_path1_3x3_2"
  top: "inception_resnet_a_1_path1_3x3_2_bn"
  param {
    name: "66"
    lr_mult: 1.0
    decay_mult: 0.0
  }
  param {
    name: "67"
    lr_mult: 1.0
    decay_mult: 0.0
  }
  param {
    name: "68"
  }
  param {
    name: "69"
  }
  bn_param {
    frozen: true
    slope_filler {
      type: "constant"
      value: 1.0
    }
    bias_filler {
      type: "constant"
      value: 0.0
    }
  }
}
layer {
  name: "inception_resnet_a_1_path1_3x3_2_relu"
  type: "ReLU"
  bottom: "inception_resnet_a_1_path1_3x3_2_bn"
  top: "inception_resnet_a_1_path1_3x3_2_bn"
}
layer {
  name: "inception_resnet_a_1_path2_1x1"
  type: "Convolution"
  bottom: "stem_concat"
  top: "inception_resnet_a_1_path2_1x1"
  param {
    name: "70"
    lr_mult: 1.0
    decay_mult: 1.0
  }
  convolution_param {
    num_output: 32
    bias_term: false
    weight_filler {
      type: "xavier"
    }
    bias_filler {
      type: "constant"
      value: 0.0
    }
    pad_h: 0
    pad_w: 0
    kernel_h: 1
    kernel_w: 1
    stride_h: 1
    stride_w: 1
  }
}
layer {
  name: "inception_resnet_a_1_path2_1x1_bn"
  type: "BN"
  bottom: "inception_resnet_a_1_path2_1x1"
  top: "inception_resnet_a_1_path2_1x1_bn"
  param {
    name: "71"
    lr_mult: 1.0
    decay_mult: 0.0
  }
  param {
    name: "72"
    lr_mult: 1.0
    decay_mult: 0.0
  }
  param {
    name: "73"
  }
  param {
    name: "74"
  }
  bn_param {
    frozen: true
    slope_filler {
      type: "constant"
      value: 1.0
    }
    bias_filler {
      type: "constant"
      value: 0.0
    }
  }
}
layer {
  name: "inception_resnet_a_1_path2_1x1_relu"
  type: "ReLU"
  bottom: "inception_resnet_a_1_path2_1x1_bn"
  top: "inception_resnet_a_1_path2_1x1_bn"
}
layer {
  name: "inception_resnet_a_1_path2_3x3"
  type: "Convolution"
  bottom: "inception_resnet_a_1_path2_1x1_bn"
  top: "inception_resnet_a_1_path2_3x3"
  param {
    name: "75"
    lr_mult: 1.0
    decay_mult: 1.0
  }
  convolution_param {
    num_output: 32
    bias_term: false
    weight_filler {
      type: "xavier"
    }
    bias_filler {
      type: "constant"
      value: 0.0
    }
    pad_h: 1
    pad_w: 1
    kernel_h: 3
    kernel_w: 3
    stride_h: 1
    stride_w: 1
  }
}
layer {
  name: "inception_resnet_a_1_path2_3x3_bn"
  type: "BN"
  bottom: "inception_resnet_a_1_path2_3x3"
  top: "inception_resnet_a_1_path2_3x3_bn"
  param {
    name: "76"
    lr_mult: 1.0
    decay_mult: 0.0
  }
  param {
    name: "77"
    lr_mult: 1.0
    decay_mult: 0.0
  }
  param {
    name: "78"
  }
  param {
    name: "79"
  }
  bn_param {
    frozen: true
    slope_filler {
      type: "constant"
      value: 1.0
    }
    bias_filler {
      type: "constant"
      value: 0.0
    }
  }
}
layer {
  name: "inception_resnet_a_1_path2_3x3_relu"
  type: "ReLU"
  bottom: "inception_resnet_a_1_path2_3x3_bn"
  top: "inception_resnet_a_1_path2_3x3_bn"
}
layer {
  name: "inception_resnet_a_1_path3_1x1"
  type: "Convolution"
  bottom: "stem_concat"
  top: "inception_resnet_a_1_path3_1x1"
  param {
    name: "80"
    lr_mult: 1.0
    decay_mult: 1.0
  }
  convolution_param {
    num_output: 32
    bias_term: false
    weight_filler {
      type: "xavier"
    }
    bias_filler {
      type: "constant"
      value: 0.0
    }
    pad_h: 0
    pad_w: 0
    kernel_h: 1
    kernel_w: 1
    stride_h: 1
    stride_w: 1
  }
}
layer {
  name: "inception_resnet_a_1_path3_1x1_bn"
  type: "BN"
  bottom: "inception_resnet_a_1_path3_1x1"
  top: "inception_resnet_a_1_path3_1x1_bn"
  param {
    name: "81"
    lr_mult: 1.0
    decay_mult: 0.0
  }
  param {
    name: "82"
    lr_mult: 1.0
    decay_mult: 0.0
  }
  param {
    name: "83"
  }
  param {
    name: "84"
  }
  bn_param {
    frozen: true
    slope_filler {
      type: "constant"
      value: 1.0
    }
    bias_filler {
      type: "constant"
      value: 0.0
    }
  }
}
layer {
  name: "inception_resnet_a_1_path3_1x1_relu"
  type: "ReLU"
  bottom: "inception_resnet_a_1_path3_1x1_bn"
  top: "inception_resnet_a_1_path3_1x1_bn"
}
layer {
  name: "inception_resnet_a_1_concat"
  type: "Concat"
  bottom: "inception_resnet_a_1_path1_3x3_2_bn"
  bottom: "inception_resnet_a_1_path2_3x3_bn"
  bottom: "inception_resnet_a_1_path3_1x1_bn"
  top: "inception_resnet_a_1_concat"
}
layer {
  name: "inception_resnet_a_1_conv_1x1"
  type: "Convolution"
  bottom: "inception_resnet_a_1_concat"
  top: "inception_resnet_a_1_conv_1x1"
  param {
    name: "85"
    lr_mult: 1.0
    decay_mult: 1.0
  }
  convolution_param {
    num_output: 384
    bias_term: false
    weight_filler {
      type: "xavier"
    }
    bias_filler {
      type: "constant"
      value: 0.0
    }
    pad_h: 0
    pad_w: 0
    kernel_h: 1
    kernel_w: 1
    stride_h: 1
    stride_w: 1
  }
}
layer {
  name: "inception_resnet_a_1_conv_1x1_bn"
  type: "BN"
  bottom: "inception_resnet_a_1_conv_1x1"
  top: "inception_resnet_a_1_conv_1x1_bn"
  param {
    name: "86"
    lr_mult: 1.0
    decay_mult: 0.0
  }
  param {
    name: "87"
    lr_mult: 1.0
    decay_mult: 0.0
  }
  param {
    name: "88"
  }
  param {
    name: "89"
  }
  bn_param {
    frozen: true
    slope_filler {
      type: "constant"
      value: 1.0
    }
    bias_filler {
      type: "constant"
      value: 0.0
    }
  }
}
layer {
  name: "inception_resnet_a_1_elt"
  type: "Eltwise"
  bottom: "stem_concat"
  bottom: "inception_resnet_a_1_conv_1x1_bn"
  top: "inception_resnet_a_1_elt"
  eltwise_param {
    operation: SUM
    coeff: 1
    coeff: 0.3
  }
}
layer {
  name: "inception_resnet_a_1_relu"
  type: "ReLU"
  bottom: "inception_resnet_a_1_elt"
  top: "inception_resnet_a_1_elt"
}
layer {
  name: "inception_resnet_a_2_path1_1x1"
  type: "Convolution"
  bottom: "inception_resnet_a_1_elt"
  top: "inception_resnet_a_2_path1_1x1"
  param {
    name: "90"
    lr_mult: 1.0
    decay_mult: 1.0
  }
  convolution_param {
    num_output: 32
    bias_term: false
    weight_filler {
      type: "xavier"
    }
    bias_filler {
      type: "constant"
      value: 0.0
    }
    pad_h: 0
    pad_w: 0
    kernel_h: 1
    kernel_w: 1
    stride_h: 1
    stride_w: 1
  }
}
layer {
  name: "inception_resnet_a_2_path1_1x1_bn"
  type: "BN"
  bottom: "inception_resnet_a_2_path1_1x1"
  top: "inception_resnet_a_2_path1_1x1_bn"
  param {
    name: "91"
    lr_mult: 1.0
    decay_mult: 0.0
  }
  param {
    name: "92"
    lr_mult: 1.0
    decay_mult: 0.0
  }
  param {
    name: "93"
  }
  param {
    name: "94"
  }
  bn_param {
    frozen: true
    slope_filler {
      type: "constant"
      value: 1.0
    }
    bias_filler {
      type: "constant"
      value: 0.0
    }
  }
}
layer {
  name: "inception_resnet_a_2_path1_1x1_relu"
  type: "ReLU"
  bottom: "inception_resnet_a_2_path1_1x1_bn"
  top: "inception_resnet_a_2_path1_1x1_bn"
}
layer {
  name: "inception_resnet_a_2_path1_3x3_1"
  type: "Convolution"
  bottom: "inception_resnet_a_2_path1_1x1_bn"
  top: "inception_resnet_a_2_path1_3x3_1"
  param {
    name: "95"
    lr_mult: 1.0
    decay_mult: 1.0
  }
  convolution_param {
    num_output: 48
    bias_term: false
    weight_filler {
      type: "xavier"
    }
    bias_filler {
      type: "constant"
      value: 0.0
    }
    pad_h: 1
    pad_w: 1
    kernel_h: 3
    kernel_w: 3
    stride_h: 1
    stride_w: 1
  }
}
layer {
  name: "inception_resnet_a_2_path1_3x3_1_bn"
  type: "BN"
  bottom: "inception_resnet_a_2_path1_3x3_1"
  top: "inception_resnet_a_2_path1_3x3_1_bn"
  param {
    name: "96"
    lr_mult: 1.0
    decay_mult: 0.0
  }
  param {
    name: "97"
    lr_mult: 1.0
    decay_mult: 0.0
  }
  param {
    name: "98"
  }
  param {
    name: "99"
  }
  bn_param {
    frozen: true
    slope_filler {
      type: "constant"
      value: 1.0
    }
    bias_filler {
      type: "constant"
      value: 0.0
    }
  }
}
layer {
  name: "inception_resnet_a_2_path1_3x3_1_relu"
  type: "ReLU"
  bottom: "inception_resnet_a_2_path1_3x3_1_bn"
  top: "inception_resnet_a_2_path1_3x3_1_bn"
}
layer {
  name: "inception_resnet_a_2_path1_3x3_2"
  type: "Convolution"
  bottom: "inception_resnet_a_2_path1_3x3_1_bn"
  top: "inception_resnet_a_2_path1_3x3_2"
  param {
    name: "100"
    lr_mult: 1.0
    decay_mult: 1.0
  }
  convolution_param {
    num_output: 64
    bias_term: false
    weight_filler {
      type: "xavier"
    }
    bias_filler {
      type: "constant"
      value: 0.0
    }
    pad_h: 1
    pad_w: 1
    kernel_h: 3
    kernel_w: 3
    stride_h: 1
    stride_w: 1
  }
}
layer {
  name: "inception_resnet_a_2_path1_3x3_2_bn"
  type: "BN"
  bottom: "inception_resnet_a_2_path1_3x3_2"
  top: "inception_resnet_a_2_path1_3x3_2_bn"
  param {
    name: "101"
    lr_mult: 1.0
    decay_mult: 0.0
  }
  param {
    name: "102"
    lr_mult: 1.0
    decay_mult: 0.0
  }
  param {
    name: "103"
  }
  param {
    name: "104"
  }
  bn_param {
    frozen: true
    slope_filler {
      type: "constant"
      value: 1.0
    }
    bias_filler {
      type: "constant"
      value: 0.0
    }
  }
}
layer {
  name: "inception_resnet_a_2_path1_3x3_2_relu"
  type: "ReLU"
  bottom: "inception_resnet_a_2_path1_3x3_2_bn"
  top: "inception_resnet_a_2_path1_3x3_2_bn"
}
layer {
  name: "inception_resnet_a_2_path2_1x1"
  type: "Convolution"
  bottom: "inception_resnet_a_1_elt"
  top: "inception_resnet_a_2_path2_1x1"
  param {
    name: "105"
    lr_mult: 1.0
    decay_mult: 1.0
  }
  convolution_param {
    num_output: 32
    bias_term: false
    weight_filler {
      type: "xavier"
    }
    bias_filler {
      type: "constant"
      value: 0.0
    }
    pad_h: 0
    pad_w: 0
    kernel_h: 1
    kernel_w: 1
    stride_h: 1
    stride_w: 1
  }
}
layer {
  name: "inception_resnet_a_2_path2_1x1_bn"
  type: "BN"
  bottom: "inception_resnet_a_2_path2_1x1"
  top: "inception_resnet_a_2_path2_1x1_bn"
  param {
    name: "106"
    lr_mult: 1.0
    decay_mult: 0.0
  }
  param {
    name: "107"
    lr_mult: 1.0
    decay_mult: 0.0
  }
  param {
    name: "108"
  }
  param {
    name: "109"
  }
  bn_param {
    frozen: true
    slope_filler {
      type: "constant"
      value: 1.0
    }
    bias_filler {
      type: "constant"
      value: 0.0
    }
  }
}
layer {
  name: "inception_resnet_a_2_path2_1x1_relu"
  type: "ReLU"
  bottom: "inception_resnet_a_2_path2_1x1_bn"
  top: "inception_resnet_a_2_path2_1x1_bn"
}
layer {
  name: "inception_resnet_a_2_path2_3x3"
  type: "Convolution"
  bottom: "inception_resnet_a_2_path2_1x1_bn"
  top: "inception_resnet_a_2_path2_3x3"
  param {
    name: "110"
    lr_mult: 1.0
    decay_mult: 1.0
  }
  convolution_param {
    num_output: 32
    bias_term: false
    weight_filler {
      type: "xavier"
    }
    bias_filler {
      type: "constant"
      value: 0.0
    }
    pad_h: 1
    pad_w: 1
    kernel_h: 3
    kernel_w: 3
    stride_h: 1
    stride_w: 1
  }
}
layer {
  name: "inception_resnet_a_2_path2_3x3_bn"
  type: "BN"
  bottom: "inception_resnet_a_2_path2_3x3"
  top: "inception_resnet_a_2_path2_3x3_bn"
  param {
    name: "111"
    lr_mult: 1.0
    decay_mult: 0.0
  }
  param {
    name: "112"
    lr_mult: 1.0
    decay_mult: 0.0
  }
  param {
    name: "113"
  }
  param {
    name: "114"
  }
  bn_param {
    frozen: true
    slope_filler {
      type: "constant"
      value: 1.0
    }
    bias_filler {
      type: "constant"
      value: 0.0
    }
  }
}
layer {
  name: "inception_resnet_a_2_path2_3x3_relu"
  type: "ReLU"
  bottom: "inception_resnet_a_2_path2_3x3_bn"
  top: "inception_resnet_a_2_path2_3x3_bn"
}
layer {
  name: "inception_resnet_a_2_path3_1x1"
  type: "Convolution"
  bottom: "inception_resnet_a_1_elt"
  top: "inception_resnet_a_2_path3_1x1"
  param {
    name: "115"
    lr_mult: 1.0
    decay_mult: 1.0
  }
  convolution_param {
    num_output: 32
    bias_term: false
    weight_filler {
      type: "xavier"
    }
    bias_filler {
      type: "constant"
      value: 0.0
    }
    pad_h: 0
    pad_w: 0
    kernel_h: 1
    kernel_w: 1
    stride_h: 1
    stride_w: 1
  }
}
layer {
  name: "inception_resnet_a_2_path3_1x1_bn"
  type: "BN"
  bottom: "inception_resnet_a_2_path3_1x1"
  top: "inception_resnet_a_2_path3_1x1_bn"
  param {
    name: "116"
    lr_mult: 1.0
    decay_mult: 0.0
  }
  param {
    name: "117"
    lr_mult: 1.0
    decay_mult: 0.0
  }
  param {
    name: "118"
  }
  param {
    name: "119"
  }
  bn_param {
    frozen: true
    slope_filler {
      type: "constant"
      value: 1.0
    }
    bias_filler {
      type: "constant"
      value: 0.0
    }
  }
}
layer {
  name: "inception_resnet_a_2_path3_1x1_relu"
  type: "ReLU"
  bottom: "inception_resnet_a_2_path3_1x1_bn"
  top: "inception_resnet_a_2_path3_1x1_bn"
}
layer {
  name: "inception_resnet_a_2_concat"
  type: "Concat"
  bottom: "inception_resnet_a_2_path1_3x3_2_bn"
  bottom: "inception_resnet_a_2_path2_3x3_bn"
  bottom: "inception_resnet_a_2_path3_1x1_bn"
  top: "inception_resnet_a_2_concat"
}
layer {
  name: "inception_resnet_a_2_conv_1x1"
  type: "Convolution"
  bottom: "inception_resnet_a_2_concat"
  top: "inception_resnet_a_2_conv_1x1"
  param {
    name: "120"
    lr_mult: 1.0
    decay_mult: 1.0
  }
  convolution_param {
    num_output: 384
    bias_term: false
    weight_filler {
      type: "xavier"
    }
    bias_filler {
      type: "constant"
      value: 0.0
    }
    pad_h: 0
    pad_w: 0
    kernel_h: 1
    kernel_w: 1
    stride_h: 1
    stride_w: 1
  }
}
layer {
  name: "inception_resnet_a_2_conv_1x1_bn"
  type: "BN"
  bottom: "inception_resnet_a_2_conv_1x1"
  top: "inception_resnet_a_2_conv_1x1_bn"
  param {
    name: "121"
    lr_mult: 1.0
    decay_mult: 0.0
  }
  param {
    name: "122"
    lr_mult: 1.0
    decay_mult: 0.0
  }
  param {
    name: "123"
  }
  param {
    name: "124"
  }
  bn_param {
    frozen: true
    slope_filler {
      type: "constant"
      value: 1.0
    }
    bias_filler {
      type: "constant"
      value: 0.0
    }
  }
}
layer {
  name: "inception_resnet_a_2_elt"
  type: "Eltwise"
  bottom: "inception_resnet_a_1_elt"
  bottom: "inception_resnet_a_2_conv_1x1_bn"
  top: "inception_resnet_a_2_elt"
  eltwise_param {
    operation: SUM
    coeff: 1
    coeff: 0.3
  }
}
layer {
  name: "inception_resnet_a_2_relu"
  type: "ReLU"
  bottom: "inception_resnet_a_2_elt"
  top: "inception_resnet_a_2_elt"
}
layer {
  name: "inception_resnet_a_3_path1_1x1"
  type: "Convolution"
  bottom: "inception_resnet_a_2_elt"
  top: "inception_resnet_a_3_path1_1x1"
  param {
    name: "125"
    lr_mult: 1.0
    decay_mult: 1.0
  }
  convolution_param {
    num_output: 32
    bias_term: false
    weight_filler {
      type: "xavier"
    }
    bias_filler {
      type: "constant"
      value: 0.0
    }
    pad_h: 0
    pad_w: 0
    kernel_h: 1
    kernel_w: 1
    stride_h: 1
    stride_w: 1
  }
}
layer {
  name: "inception_resnet_a_3_path1_1x1_bn"
  type: "BN"
  bottom: "inception_resnet_a_3_path1_1x1"
  top: "inception_resnet_a_3_path1_1x1_bn"
  param {
    name: "126"
    lr_mult: 1.0
    decay_mult: 0.0
  }
  param {
    name: "127"
    lr_mult: 1.0
    decay_mult: 0.0
  }
  param {
    name: "128"
  }
  param {
    name: "129"
  }
  bn_param {
    frozen: true
    slope_filler {
      type: "constant"
      value: 1.0
    }
    bias_filler {
      type: "constant"
      value: 0.0
    }
  }
}
layer {
  name: "inception_resnet_a_3_path1_1x1_relu"
  type: "ReLU"
  bottom: "inception_resnet_a_3_path1_1x1_bn"
  top: "inception_resnet_a_3_path1_1x1_bn"
}
layer {
  name: "inception_resnet_a_3_path1_3x3_1"
  type: "Convolution"
  bottom: "inception_resnet_a_3_path1_1x1_bn"
  top: "inception_resnet_a_3_path1_3x3_1"
  param {
    name: "130"
    lr_mult: 1.0
    decay_mult: 1.0
  }
  convolution_param {
    num_output: 48
    bias_term: false
    weight_filler {
      type: "xavier"
    }
    bias_filler {
      type: "constant"
      value: 0.0
    }
    pad_h: 1
    pad_w: 1
    kernel_h: 3
    kernel_w: 3
    stride_h: 1
    stride_w: 1
  }
}
layer {
  name: "inception_resnet_a_3_path1_3x3_1_bn"
  type: "BN"
  bottom: "inception_resnet_a_3_path1_3x3_1"
  top: "inception_resnet_a_3_path1_3x3_1_bn"
  param {
    name: "131"
    lr_mult: 1.0
    decay_mult: 0.0
  }
  param {
    name: "132"
    lr_mult: 1.0
    decay_mult: 0.0
  }
  param {
    name: "133"
  }
  param {
    name: "134"
  }
  bn_param {
    frozen: true
    slope_filler {
      type: "constant"
      value: 1.0
    }
    bias_filler {
      type: "constant"
      value: 0.0
    }
  }
}
layer {
  name: "inception_resnet_a_3_path1_3x3_1_relu"
  type: "ReLU"
  bottom: "inception_resnet_a_3_path1_3x3_1_bn"
  top: "inception_resnet_a_3_path1_3x3_1_bn"
}
layer {
  name: "inception_resnet_a_3_path1_3x3_2"
  type: "Convolution"
  bottom: "inception_resnet_a_3_path1_3x3_1_bn"
  top: "inception_resnet_a_3_path1_3x3_2"
  param {
    name: "135"
    lr_mult: 1.0
    decay_mult: 1.0
  }
  convolution_param {
    num_output: 64
    bias_term: false
    weight_filler {
      type: "xavier"
    }
    bias_filler {
      type: "constant"
      value: 0.0
    }
    pad_h: 1
    pad_w: 1
    kernel_h: 3
    kernel_w: 3
    stride_h: 1
    stride_w: 1
  }
}
layer {
  name: "inception_resnet_a_3_path1_3x3_2_bn"
  type: "BN"
  bottom: "inception_resnet_a_3_path1_3x3_2"
  top: "inception_resnet_a_3_path1_3x3_2_bn"
  param {
    name: "136"
    lr_mult: 1.0
    decay_mult: 0.0
  }
  param {
    name: "137"
    lr_mult: 1.0
    decay_mult: 0.0
  }
  param {
    name: "138"
  }
  param {
    name: "139"
  }
  bn_param {
    frozen: true
    slope_filler {
      type: "constant"
      value: 1.0
    }
    bias_filler {
      type: "constant"
      value: 0.0
    }
  }
}
layer {
  name: "inception_resnet_a_3_path1_3x3_2_relu"
  type: "ReLU"
  bottom: "inception_resnet_a_3_path1_3x3_2_bn"
  top: "inception_resnet_a_3_path1_3x3_2_bn"
}
layer {
  name: "inception_resnet_a_3_path2_1x1"
  type: "Convolution"
  bottom: "inception_resnet_a_2_elt"
  top: "inception_resnet_a_3_path2_1x1"
  param {
    name: "140"
    lr_mult: 1.0
    decay_mult: 1.0
  }
  convolution_param {
    num_output: 32
    bias_term: false
    weight_filler {
      type: "xavier"
    }
    bias_filler {
      type: "constant"
      value: 0.0
    }
    pad_h: 0
    pad_w: 0
    kernel_h: 1
    kernel_w: 1
    stride_h: 1
    stride_w: 1
  }
}
layer {
  name: "inception_resnet_a_3_path2_1x1_bn"
  type: "BN"
  bottom: "inception_resnet_a_3_path2_1x1"
  top: "inception_resnet_a_3_path2_1x1_bn"
  param {
    name: "141"
    lr_mult: 1.0
    decay_mult: 0.0
  }
  param {
    name: "142"
    lr_mult: 1.0
    decay_mult: 0.0
  }
  param {
    name: "143"
  }
  param {
    name: "144"
  }
  bn_param {
    frozen: true
    slope_filler {
      type: "constant"
      value: 1.0
    }
    bias_filler {
      type: "constant"
      value: 0.0
    }
  }
}
layer {
  name: "inception_resnet_a_3_path2_1x1_relu"
  type: "ReLU"
  bottom: "inception_resnet_a_3_path2_1x1_bn"
  top: "inception_resnet_a_3_path2_1x1_bn"
}
layer {
  name: "inception_resnet_a_3_path2_3x3"
  type: "Convolution"
  bottom: "inception_resnet_a_3_path2_1x1_bn"
  top: "inception_resnet_a_3_path2_3x3"
  param {
    name: "145"
    lr_mult: 1.0
    decay_mult: 1.0
  }
  convolution_param {
    num_output: 32
    bias_term: false
    weight_filler {
      type: "xavier"
    }
    bias_filler {
      type: "constant"
      value: 0.0
    }
    pad_h: 1
    pad_w: 1
    kernel_h: 3
    kernel_w: 3
    stride_h: 1
    stride_w: 1
  }
}
layer {
  name: "inception_resnet_a_3_path2_3x3_bn"
  type: "BN"
  bottom: "inception_resnet_a_3_path2_3x3"
  top: "inception_resnet_a_3_path2_3x3_bn"
  param {
    name: "146"
    lr_mult: 1.0
    decay_mult: 0.0
  }
  param {
    name: "147"
    lr_mult: 1.0
    decay_mult: 0.0
  }
  param {
    name: "148"
  }
  param {
    name: "149"
  }
  bn_param {
    frozen: true
    slope_filler {
      type: "constant"
      value: 1.0
    }
    bias_filler {
      type: "constant"
      value: 0.0
    }
  }
}
layer {
  name: "inception_resnet_a_3_path2_3x3_relu"
  type: "ReLU"
  bottom: "inception_resnet_a_3_path2_3x3_bn"
  top: "inception_resnet_a_3_path2_3x3_bn"
}
layer {
  name: "inception_resnet_a_3_path3_1x1"
  type: "Convolution"
  bottom: "inception_resnet_a_2_elt"
  top: "inception_resnet_a_3_path3_1x1"
  param {
    name: "150"
    lr_mult: 1.0
    decay_mult: 1.0
  }
  convolution_param {
    num_output: 32
    bias_term: false
    weight_filler {
      type: "xavier"
    }
    bias_filler {
      type: "constant"
      value: 0.0
    }
    pad_h: 0
    pad_w: 0
    kernel_h: 1
    kernel_w: 1
    stride_h: 1
    stride_w: 1
  }
}
layer {
  name: "inception_resnet_a_3_path3_1x1_bn"
  type: "BN"
  bottom: "inception_resnet_a_3_path3_1x1"
  top: "inception_resnet_a_3_path3_1x1_bn"
  param {
    name: "151"
    lr_mult: 1.0
    decay_mult: 0.0
  }
  param {
    name: "152"
    lr_mult: 1.0
    decay_mult: 0.0
  }
  param {
    name: "153"
  }
  param {
    name: "154"
  }
  bn_param {
    frozen: true
    slope_filler {
      type: "constant"
      value: 1.0
    }
    bias_filler {
      type: "constant"
      value: 0.0
    }
  }
}
layer {
  name: "inception_resnet_a_3_path3_1x1_relu"
  type: "ReLU"
  bottom: "inception_resnet_a_3_path3_1x1_bn"
  top: "inception_resnet_a_3_path3_1x1_bn"
}
layer {
  name: "inception_resnet_a_3_concat"
  type: "Concat"
  bottom: "inception_resnet_a_3_path1_3x3_2_bn"
  bottom: "inception_resnet_a_3_path2_3x3_bn"
  bottom: "inception_resnet_a_3_path3_1x1_bn"
  top: "inception_resnet_a_3_concat"
}
layer {
  name: "inception_resnet_a_3_conv_1x1"
  type: "Convolution"
  bottom: "inception_resnet_a_3_concat"
  top: "inception_resnet_a_3_conv_1x1"
  param {
    name: "155"
    lr_mult: 1.0
    decay_mult: 1.0
  }
  convolution_param {
    num_output: 384
    bias_term: false
    weight_filler {
      type: "xavier"
    }
    bias_filler {
      type: "constant"
      value: 0.0
    }
    pad_h: 0
    pad_w: 0
    kernel_h: 1
    kernel_w: 1
    stride_h: 1
    stride_w: 1
  }
}
layer {
  name: "inception_resnet_a_3_conv_1x1_bn"
  type: "BN"
  bottom: "inception_resnet_a_3_conv_1x1"
  top: "inception_resnet_a_3_conv_1x1_bn"
  param {
    name: "156"
    lr_mult: 1.0
    decay_mult: 0.0
  }
  param {
    name: "157"
    lr_mult: 1.0
    decay_mult: 0.0
  }
  param {
    name: "158"
  }
  param {
    name: "159"
  }
  bn_param {
    frozen: true
    slope_filler {
      type: "constant"
      value: 1.0
    }
    bias_filler {
      type: "constant"
      value: 0.0
    }
  }
}
layer {
  name: "inception_resnet_a_3_elt"
  type: "Eltwise"
  bottom: "inception_resnet_a_2_elt"
  bottom: "inception_resnet_a_3_conv_1x1_bn"
  top: "inception_resnet_a_3_elt"
  eltwise_param {
    operation: SUM
    coeff: 1
    coeff: 0.3
  }
}
layer {
  name: "inception_resnet_a_3_relu"
  type: "ReLU"
  bottom: "inception_resnet_a_3_elt"
  top: "inception_resnet_a_3_elt"
}
layer {
  name: "inception_resnet_a_4_path1_1x1"
  type: "Convolution"
  bottom: "inception_resnet_a_3_elt"
  top: "inception_resnet_a_4_path1_1x1"
  param {
    name: "160"
    lr_mult: 1.0
    decay_mult: 1.0
  }
  convolution_param {
    num_output: 32
    bias_term: false
    weight_filler {
      type: "xavier"
    }
    bias_filler {
      type: "constant"
      value: 0.0
    }
    pad_h: 0
    pad_w: 0
    kernel_h: 1
    kernel_w: 1
    stride_h: 1
    stride_w: 1
  }
}
layer {
  name: "inception_resnet_a_4_path1_1x1_bn"
  type: "BN"
  bottom: "inception_resnet_a_4_path1_1x1"
  top: "inception_resnet_a_4_path1_1x1_bn"
  param {
    name: "161"
    lr_mult: 1.0
    decay_mult: 0.0
  }
  param {
    name: "162"
    lr_mult: 1.0
    decay_mult: 0.0
  }
  param {
    name: "163"
  }
  param {
    name: "164"
  }
  bn_param {
    frozen: true
    slope_filler {
      type: "constant"
      value: 1.0
    }
    bias_filler {
      type: "constant"
      value: 0.0
    }
  }
}
layer {
  name: "inception_resnet_a_4_path1_1x1_relu"
  type: "ReLU"
  bottom: "inception_resnet_a_4_path1_1x1_bn"
  top: "inception_resnet_a_4_path1_1x1_bn"
}
layer {
  name: "inception_resnet_a_4_path1_3x3_1"
  type: "Convolution"
  bottom: "inception_resnet_a_4_path1_1x1_bn"
  top: "inception_resnet_a_4_path1_3x3_1"
  param {
    name: "165"
    lr_mult: 1.0
    decay_mult: 1.0
  }
  convolution_param {
    num_output: 48
    bias_term: false
    weight_filler {
      type: "xavier"
    }
    bias_filler {
      type: "constant"
      value: 0.0
    }
    pad_h: 1
    pad_w: 1
    kernel_h: 3
    kernel_w: 3
    stride_h: 1
    stride_w: 1
  }
}
layer {
  name: "inception_resnet_a_4_path1_3x3_1_bn"
  type: "BN"
  bottom: "inception_resnet_a_4_path1_3x3_1"
  top: "inception_resnet_a_4_path1_3x3_1_bn"
  param {
    name: "166"
    lr_mult: 1.0
    decay_mult: 0.0
  }
  param {
    name: "167"
    lr_mult: 1.0
    decay_mult: 0.0
  }
  param {
    name: "168"
  }
  param {
    name: "169"
  }
  bn_param {
    frozen: true
    slope_filler {
      type: "constant"
      value: 1.0
    }
    bias_filler {
      type: "constant"
      value: 0.0
    }
  }
}
layer {
  name: "inception_resnet_a_4_path1_3x3_1_relu"
  type: "ReLU"
  bottom: "inception_resnet_a_4_path1_3x3_1_bn"
  top: "inception_resnet_a_4_path1_3x3_1_bn"
}
layer {
  name: "inception_resnet_a_4_path1_3x3_2"
  type: "Convolution"
  bottom: "inception_resnet_a_4_path1_3x3_1_bn"
  top: "inception_resnet_a_4_path1_3x3_2"
  param {
    name: "170"
    lr_mult: 1.0
    decay_mult: 1.0
  }
  convolution_param {
    num_output: 64
    bias_term: false
    weight_filler {
      type: "xavier"
    }
    bias_filler {
      type: "constant"
      value: 0.0
    }
    pad_h: 1
    pad_w: 1
    kernel_h: 3
    kernel_w: 3
    stride_h: 1
    stride_w: 1
  }
}
layer {
  name: "inception_resnet_a_4_path1_3x3_2_bn"
  type: "BN"
  bottom: "inception_resnet_a_4_path1_3x3_2"
  top: "inception_resnet_a_4_path1_3x3_2_bn"
  param {
    name: "171"
    lr_mult: 1.0
    decay_mult: 0.0
  }
  param {
    name: "172"
    lr_mult: 1.0
    decay_mult: 0.0
  }
  param {
    name: "173"
  }
  param {
    name: "174"
  }
  bn_param {
    frozen: true
    slope_filler {
      type: "constant"
      value: 1.0
    }
    bias_filler {
      type: "constant"
      value: 0.0
    }
  }
}
layer {
  name: "inception_resnet_a_4_path1_3x3_2_relu"
  type: "ReLU"
  bottom: "inception_resnet_a_4_path1_3x3_2_bn"
  top: "inception_resnet_a_4_path1_3x3_2_bn"
}
layer {
  name: "inception_resnet_a_4_path2_1x1"
  type: "Convolution"
  bottom: "inception_resnet_a_3_elt"
  top: "inception_resnet_a_4_path2_1x1"
  param {
    name: "175"
    lr_mult: 1.0
    decay_mult: 1.0
  }
  convolution_param {
    num_output: 32
    bias_term: false
    weight_filler {
      type: "xavier"
    }
    bias_filler {
      type: "constant"
      value: 0.0
    }
    pad_h: 0
    pad_w: 0
    kernel_h: 1
    kernel_w: 1
    stride_h: 1
    stride_w: 1
  }
}
layer {
  name: "inception_resnet_a_4_path2_1x1_bn"
  type: "BN"
  bottom: "inception_resnet_a_4_path2_1x1"
  top: "inception_resnet_a_4_path2_1x1_bn"
  param {
    name: "176"
    lr_mult: 1.0
    decay_mult: 0.0
  }
  param {
    name: "177"
    lr_mult: 1.0
    decay_mult: 0.0
  }
  param {
    name: "178"
  }
  param {
    name: "179"
  }
  bn_param {
    frozen: true
    slope_filler {
      type: "constant"
      value: 1.0
    }
    bias_filler {
      type: "constant"
      value: 0.0
    }
  }
}
layer {
  name: "inception_resnet_a_4_path2_1x1_relu"
  type: "ReLU"
  bottom: "inception_resnet_a_4_path2_1x1_bn"
  top: "inception_resnet_a_4_path2_1x1_bn"
}
layer {
  name: "inception_resnet_a_4_path2_3x3"
  type: "Convolution"
  bottom: "inception_resnet_a_4_path2_1x1_bn"
  top: "inception_resnet_a_4_path2_3x3"
  param {
    name: "180"
    lr_mult: 1.0
    decay_mult: 1.0
  }
  convolution_param {
    num_output: 32
    bias_term: false
    weight_filler {
      type: "xavier"
    }
    bias_filler {
      type: "constant"
      value: 0.0
    }
    pad_h: 1
    pad_w: 1
    kernel_h: 3
    kernel_w: 3
    stride_h: 1
    stride_w: 1
  }
}
layer {
  name: "inception_resnet_a_4_path2_3x3_bn"
  type: "BN"
  bottom: "inception_resnet_a_4_path2_3x3"
  top: "inception_resnet_a_4_path2_3x3_bn"
  param {
    name: "181"
    lr_mult: 1.0
    decay_mult: 0.0
  }
  param {
    name: "182"
    lr_mult: 1.0
    decay_mult: 0.0
  }
  param {
    name: "183"
  }
  param {
    name: "184"
  }
  bn_param {
    frozen: true
    slope_filler {
      type: "constant"
      value: 1.0
    }
    bias_filler {
      type: "constant"
      value: 0.0
    }
  }
}
layer {
  name: "inception_resnet_a_4_path2_3x3_relu"
  type: "ReLU"
  bottom: "inception_resnet_a_4_path2_3x3_bn"
  top: "inception_resnet_a_4_path2_3x3_bn"
}
layer {
  name: "inception_resnet_a_4_path3_1x1"
  type: "Convolution"
  bottom: "inception_resnet_a_3_elt"
  top: "inception_resnet_a_4_path3_1x1"
  param {
    name: "185"
    lr_mult: 1.0
    decay_mult: 1.0
  }
  convolution_param {
    num_output: 32
    bias_term: false
    weight_filler {
      type: "xavier"
    }
    bias_filler {
      type: "constant"
      value: 0.0
    }
    pad_h: 0
    pad_w: 0
    kernel_h: 1
    kernel_w: 1
    stride_h: 1
    stride_w: 1
  }
}
layer {
  name: "inception_resnet_a_4_path3_1x1_bn"
  type: "BN"
  bottom: "inception_resnet_a_4_path3_1x1"
  top: "inception_resnet_a_4_path3_1x1_bn"
  param {
    name: "186"
    lr_mult: 1.0
    decay_mult: 0.0
  }
  param {
    name: "187"
    lr_mult: 1.0
    decay_mult: 0.0
  }
  param {
    name: "188"
  }
  param {
    name: "189"
  }
  bn_param {
    frozen: true
    slope_filler {
      type: "constant"
      value: 1.0
    }
    bias_filler {
      type: "constant"
      value: 0.0
    }
  }
}
layer {
  name: "inception_resnet_a_4_path3_1x1_relu"
  type: "ReLU"
  bottom: "inception_resnet_a_4_path3_1x1_bn"
  top: "inception_resnet_a_4_path3_1x1_bn"
}
layer {
  name: "inception_resnet_a_4_concat"
  type: "Concat"
  bottom: "inception_resnet_a_4_path1_3x3_2_bn"
  bottom: "inception_resnet_a_4_path2_3x3_bn"
  bottom: "inception_resnet_a_4_path3_1x1_bn"
  top: "inception_resnet_a_4_concat"
}
layer {
  name: "inception_resnet_a_4_conv_1x1"
  type: "Convolution"
  bottom: "inception_resnet_a_4_concat"
  top: "inception_resnet_a_4_conv_1x1"
  param {
    name: "190"
    lr_mult: 1.0
    decay_mult: 1.0
  }
  convolution_param {
    num_output: 384
    bias_term: false
    weight_filler {
      type: "xavier"
    }
    bias_filler {
      type: "constant"
      value: 0.0
    }
    pad_h: 0
    pad_w: 0
    kernel_h: 1
    kernel_w: 1
    stride_h: 1
    stride_w: 1
  }
}
layer {
  name: "inception_resnet_a_4_conv_1x1_bn"
  type: "BN"
  bottom: "inception_resnet_a_4_conv_1x1"
  top: "inception_resnet_a_4_conv_1x1_bn"
  param {
    name: "191"
    lr_mult: 1.0
    decay_mult: 0.0
  }
  param {
    name: "192"
    lr_mult: 1.0
    decay_mult: 0.0
  }
  param {
    name: "193"
  }
  param {
    name: "194"
  }
  bn_param {
    frozen: true
    slope_filler {
      type: "constant"
      value: 1.0
    }
    bias_filler {
      type: "constant"
      value: 0.0
    }
  }
}
layer {
  name: "inception_resnet_a_4_elt"
  type: "Eltwise"
  bottom: "inception_resnet_a_3_elt"
  bottom: "inception_resnet_a_4_conv_1x1_bn"
  top: "inception_resnet_a_4_elt"
  eltwise_param {
    operation: SUM
    coeff: 1
    coeff: 0.3
  }
}
layer {
  name: "inception_resnet_a_4_relu"
  type: "ReLU"
  bottom: "inception_resnet_a_4_elt"
  top: "inception_resnet_a_4_elt"
}
layer {
  name: "inception_resnet_a_5_path1_1x1"
  type: "Convolution"
  bottom: "inception_resnet_a_4_elt"
  top: "inception_resnet_a_5_path1_1x1"
  param {
    name: "195"
    lr_mult: 1.0
    decay_mult: 1.0
  }
  convolution_param {
    num_output: 32
    bias_term: false
    weight_filler {
      type: "xavier"
    }
    bias_filler {
      type: "constant"
      value: 0.0
    }
    pad_h: 0
    pad_w: 0
    kernel_h: 1
    kernel_w: 1
    stride_h: 1
    stride_w: 1
  }
}
layer {
  name: "inception_resnet_a_5_path1_1x1_bn"
  type: "BN"
  bottom: "inception_resnet_a_5_path1_1x1"
  top: "inception_resnet_a_5_path1_1x1_bn"
  param {
    name: "196"
    lr_mult: 1.0
    decay_mult: 0.0
  }
  param {
    name: "197"
    lr_mult: 1.0
    decay_mult: 0.0
  }
  param {
    name: "198"
  }
  param {
    name: "199"
  }
  bn_param {
    frozen: true
    slope_filler {
      type: "constant"
      value: 1.0
    }
    bias_filler {
      type: "constant"
      value: 0.0
    }
  }
}
layer {
  name: "inception_resnet_a_5_path1_1x1_relu"
  type: "ReLU"
  bottom: "inception_resnet_a_5_path1_1x1_bn"
  top: "inception_resnet_a_5_path1_1x1_bn"
}
layer {
  name: "inception_resnet_a_5_path1_3x3_1"
  type: "Convolution"
  bottom: "inception_resnet_a_5_path1_1x1_bn"
  top: "inception_resnet_a_5_path1_3x3_1"
  param {
    name: "200"
    lr_mult: 1.0
    decay_mult: 1.0
  }
  convolution_param {
    num_output: 48
    bias_term: false
    weight_filler {
      type: "xavier"
    }
    bias_filler {
      type: "constant"
      value: 0.0
    }
    pad_h: 1
    pad_w: 1
    kernel_h: 3
    kernel_w: 3
    stride_h: 1
    stride_w: 1
  }
}
layer {
  name: "inception_resnet_a_5_path1_3x3_1_bn"
  type: "BN"
  bottom: "inception_resnet_a_5_path1_3x3_1"
  top: "inception_resnet_a_5_path1_3x3_1_bn"
  param {
    name: "201"
    lr_mult: 1.0
    decay_mult: 0.0
  }
  param {
    name: "202"
    lr_mult: 1.0
    decay_mult: 0.0
  }
  param {
    name: "203"
  }
  param {
    name: "204"
  }
  bn_param {
    frozen: true
    slope_filler {
      type: "constant"
      value: 1.0
    }
    bias_filler {
      type: "constant"
      value: 0.0
    }
  }
}
layer {
  name: "inception_resnet_a_5_path1_3x3_1_relu"
  type: "ReLU"
  bottom: "inception_resnet_a_5_path1_3x3_1_bn"
  top: "inception_resnet_a_5_path1_3x3_1_bn"
}
layer {
  name: "inception_resnet_a_5_path1_3x3_2"
  type: "Convolution"
  bottom: "inception_resnet_a_5_path1_3x3_1_bn"
  top: "inception_resnet_a_5_path1_3x3_2"
  param {
    name: "205"
    lr_mult: 1.0
    decay_mult: 1.0
  }
  convolution_param {
    num_output: 64
    bias_term: false
    weight_filler {
      type: "xavier"
    }
    bias_filler {
      type: "constant"
      value: 0.0
    }
    pad_h: 1
    pad_w: 1
    kernel_h: 3
    kernel_w: 3
    stride_h: 1
    stride_w: 1
  }
}
layer {
  name: "inception_resnet_a_5_path1_3x3_2_bn"
  type: "BN"
  bottom: "inception_resnet_a_5_path1_3x3_2"
  top: "inception_resnet_a_5_path1_3x3_2_bn"
  param {
    name: "206"
    lr_mult: 1.0
    decay_mult: 0.0
  }
  param {
    name: "207"
    lr_mult: 1.0
    decay_mult: 0.0
  }
  param {
    name: "208"
  }
  param {
    name: "209"
  }
  bn_param {
    frozen: true
    slope_filler {
      type: "constant"
      value: 1.0
    }
    bias_filler {
      type: "constant"
      value: 0.0
    }
  }
}
layer {
  name: "inception_resnet_a_5_path1_3x3_2_relu"
  type: "ReLU"
  bottom: "inception_resnet_a_5_path1_3x3_2_bn"
  top: "inception_resnet_a_5_path1_3x3_2_bn"
}
layer {
  name: "inception_resnet_a_5_path2_1x1"
  type: "Convolution"
  bottom: "inception_resnet_a_4_elt"
  top: "inception_resnet_a_5_path2_1x1"
  param {
    name: "210"
    lr_mult: 1.0
    decay_mult: 1.0
  }
  convolution_param {
    num_output: 32
    bias_term: false
    weight_filler {
      type: "xavier"
    }
    bias_filler {
      type: "constant"
      value: 0.0
    }
    pad_h: 0
    pad_w: 0
    kernel_h: 1
    kernel_w: 1
    stride_h: 1
    stride_w: 1
  }
}
layer {
  name: "inception_resnet_a_5_path2_1x1_bn"
  type: "BN"
  bottom: "inception_resnet_a_5_path2_1x1"
  top: "inception_resnet_a_5_path2_1x1_bn"
  param {
    name: "211"
    lr_mult: 1.0
    decay_mult: 0.0
  }
  param {
    name: "212"
    lr_mult: 1.0
    decay_mult: 0.0
  }
  param {
    name: "213"
  }
  param {
    name: "214"
  }
  bn_param {
    frozen: true
    slope_filler {
      type: "constant"
      value: 1.0
    }
    bias_filler {
      type: "constant"
      value: 0.0
    }
  }
}
layer {
  name: "inception_resnet_a_5_path2_1x1_relu"
  type: "ReLU"
  bottom: "inception_resnet_a_5_path2_1x1_bn"
  top: "inception_resnet_a_5_path2_1x1_bn"
}
layer {
  name: "inception_resnet_a_5_path2_3x3"
  type: "Convolution"
  bottom: "inception_resnet_a_5_path2_1x1_bn"
  top: "inception_resnet_a_5_path2_3x3"
  param {
    name: "215"
    lr_mult: 1.0
    decay_mult: 1.0
  }
  convolution_param {
    num_output: 32
    bias_term: false
    weight_filler {
      type: "xavier"
    }
    bias_filler {
      type: "constant"
      value: 0.0
    }
    pad_h: 1
    pad_w: 1
    kernel_h: 3
    kernel_w: 3
    stride_h: 1
    stride_w: 1
  }
}
layer {
  name: "inception_resnet_a_5_path2_3x3_bn"
  type: "BN"
  bottom: "inception_resnet_a_5_path2_3x3"
  top: "inception_resnet_a_5_path2_3x3_bn"
  param {
    name: "216"
    lr_mult: 1.0
    decay_mult: 0.0
  }
  param {
    name: "217"
    lr_mult: 1.0
    decay_mult: 0.0
  }
  param {
    name: "218"
  }
  param {
    name: "219"
  }
  bn_param {
    frozen: true
    slope_filler {
      type: "constant"
      value: 1.0
    }
    bias_filler {
      type: "constant"
      value: 0.0
    }
  }
}
layer {
  name: "inception_resnet_a_5_path2_3x3_relu"
  type: "ReLU"
  bottom: "inception_resnet_a_5_path2_3x3_bn"
  top: "inception_resnet_a_5_path2_3x3_bn"
}
layer {
  name: "inception_resnet_a_5_path3_1x1"
  type: "Convolution"
  bottom: "inception_resnet_a_4_elt"
  top: "inception_resnet_a_5_path3_1x1"
  param {
    name: "220"
    lr_mult: 1.0
    decay_mult: 1.0
  }
  convolution_param {
    num_output: 32
    bias_term: false
    weight_filler {
      type: "xavier"
    }
    bias_filler {
      type: "constant"
      value: 0.0
    }
    pad_h: 0
    pad_w: 0
    kernel_h: 1
    kernel_w: 1
    stride_h: 1
    stride_w: 1
  }
}
layer {
  name: "inception_resnet_a_5_path3_1x1_bn"
  type: "BN"
  bottom: "inception_resnet_a_5_path3_1x1"
  top: "inception_resnet_a_5_path3_1x1_bn"
  param {
    name: "221"
    lr_mult: 1.0
    decay_mult: 0.0
  }
  param {
    name: "222"
    lr_mult: 1.0
    decay_mult: 0.0
  }
  param {
    name: "223"
  }
  param {
    name: "224"
  }
  bn_param {
    frozen: true
    slope_filler {
      type: "constant"
      value: 1.0
    }
    bias_filler {
      type: "constant"
      value: 0.0
    }
  }
}
layer {
  name: "inception_resnet_a_5_path3_1x1_relu"
  type: "ReLU"
  bottom: "inception_resnet_a_5_path3_1x1_bn"
  top: "inception_resnet_a_5_path3_1x1_bn"
}
layer {
  name: "inception_resnet_a_5_concat"
  type: "Concat"
  bottom: "inception_resnet_a_5_path1_3x3_2_bn"
  bottom: "inception_resnet_a_5_path2_3x3_bn"
  bottom: "inception_resnet_a_5_path3_1x1_bn"
  top: "inception_resnet_a_5_concat"
}
layer {
  name: "inception_resnet_a_5_conv_1x1"
  type: "Convolution"
  bottom: "inception_resnet_a_5_concat"
  top: "inception_resnet_a_5_conv_1x1"
  param {
    name: "225"
    lr_mult: 1.0
    decay_mult: 1.0
  }
  convolution_param {
    num_output: 384
    bias_term: false
    weight_filler {
      type: "xavier"
    }
    bias_filler {
      type: "constant"
      value: 0.0
    }
    pad_h: 0
    pad_w: 0
    kernel_h: 1
    kernel_w: 1
    stride_h: 1
    stride_w: 1
  }
}
layer {
  name: "inception_resnet_a_5_conv_1x1_bn"
  type: "BN"
  bottom: "inception_resnet_a_5_conv_1x1"
  top: "inception_resnet_a_5_conv_1x1_bn"
  param {
    name: "226"
    lr_mult: 1.0
    decay_mult: 0.0
  }
  param {
    name: "227"
    lr_mult: 1.0
    decay_mult: 0.0
  }
  param {
    name: "228"
  }
  param {
    name: "229"
  }
  bn_param {
    frozen: true
    slope_filler {
      type: "constant"
      value: 1.0
    }
    bias_filler {
      type: "constant"
      value: 0.0
    }
  }
}
layer {
  name: "inception_resnet_a_5_elt"
  type: "Eltwise"
  bottom: "inception_resnet_a_4_elt"
  bottom: "inception_resnet_a_5_conv_1x1_bn"
  top: "inception_resnet_a_5_elt"
  eltwise_param {
    operation: SUM
    coeff: 1
    coeff: 0.3
  }
}
layer {
  name: "inception_resnet_a_5_relu"
  type: "ReLU"
  bottom: "inception_resnet_a_5_elt"
  top: "inception_resnet_a_5_elt"
}
layer {
  name: "reduction_a_path1_1x1"
  type: "Convolution"
  bottom: "inception_resnet_a_5_elt"
  top: "reduction_a_path1_1x1"
  param {
    name: "230"
    lr_mult: 1.0
    decay_mult: 1.0
  }
  convolution_param {
    num_output: 256
    bias_term: false
    weight_filler {
      type: "xavier"
    }
    bias_filler {
      type: "constant"
      value: 0.0
    }
    pad_h: 0
    pad_w: 0
    kernel_h: 1
    kernel_w: 1
    stride_h: 1
    stride_w: 1
  }
}
layer {
  name: "reduction_a_path1_1x1_bn"
  type: "BN"
  bottom: "reduction_a_path1_1x1"
  top: "reduction_a_path1_1x1_bn"
  param {
    name: "231"
    lr_mult: 1.0
    decay_mult: 0.0
  }
  param {
    name: "232"
    lr_mult: 1.0
    decay_mult: 0.0
  }
  param {
    name: "233"
  }
  param {
    name: "234"
  }
  bn_param {
    frozen: true
    slope_filler {
      type: "constant"
      value: 1.0
    }
    bias_filler {
      type: "constant"
      value: 0.0
    }
  }
}
layer {
  name: "reduction_a_path1_1x1_relu"
  type: "ReLU"
  bottom: "reduction_a_path1_1x1_bn"
  top: "reduction_a_path1_1x1_bn"
}
layer {
  name: "reduction_a_path1_3x3_1"
  type: "Convolution"
  bottom: "reduction_a_path1_1x1_bn"
  top: "reduction_a_path1_3x3_1"
  param {
    name: "235"
    lr_mult: 1.0
    decay_mult: 1.0
  }
  convolution_param {
    num_output: 256
    bias_term: false
    weight_filler {
      type: "xavier"
    }
    bias_filler {
      type: "constant"
      value: 0.0
    }
    pad_h: 1
    pad_w: 1
    kernel_h: 3
    kernel_w: 3
    stride_h: 1
    stride_w: 1
  }
}
layer {
  name: "reduction_a_path1_3x3_1_bn"
  type: "BN"
  bottom: "reduction_a_path1_3x3_1"
  top: "reduction_a_path1_3x3_1_bn"
  param {
    name: "236"
    lr_mult: 1.0
    decay_mult: 0.0
  }
  param {
    name: "237"
    lr_mult: 1.0
    decay_mult: 0.0
  }
  param {
    name: "238"
  }
  param {
    name: "239"
  }
  bn_param {
    frozen: true
    slope_filler {
      type: "constant"
      value: 1.0
    }
    bias_filler {
      type: "constant"
      value: 0.0
    }
  }
}
layer {
  name: "reduction_a_path1_3x3_1_relu"
  type: "ReLU"
  bottom: "reduction_a_path1_3x3_1_bn"
  top: "reduction_a_path1_3x3_1_bn"
}
layer {
  name: "reduction_a_path1_3x3_2"
  type: "Convolution"
  bottom: "reduction_a_path1_3x3_1_bn"
  top: "reduction_a_path1_3x3_2"
  param {
    name: "240"
    lr_mult: 1.0
    decay_mult: 1.0
  }
  convolution_param {
    num_output: 384
    bias_term: false
    weight_filler {
      type: "xavier"
    }
    bias_filler {
      type: "constant"
      value: 0.0
    }
    pad_h: 1
    pad_w: 1
    kernel_h: 3
    kernel_w: 3
    stride_h: 1
    stride_w: 1
  }
}
layer {
  name: "reduction_a_path1_3x3_2_bn"
  type: "BN"
  bottom: "reduction_a_path1_3x3_2"
  top: "reduction_a_path1_3x3_2_bn"
  param {
    name: "241"
    lr_mult: 1.0
    decay_mult: 0.0
  }
  param {
    name: "242"
    lr_mult: 1.0
    decay_mult: 0.0
  }
  param {
    name: "243"
  }
  param {
    name: "244"
  }
  bn_param {
    frozen: true
    slope_filler {
      type: "constant"
      value: 1.0
    }
    bias_filler {
      type: "constant"
      value: 0.0
    }
  }
}
layer {
  name: "reduction_a_path1_3x3_2_relu"
  type: "ReLU"
  bottom: "reduction_a_path1_3x3_2_bn"
  top: "reduction_a_path1_3x3_2_bn"
}
layer {
  name: "reduction_a_path2_3x3"
  type: "Convolution"
  bottom: "inception_resnet_a_5_elt"
  top: "reduction_a_path2_3x3"
  param {
    name: "245"
    lr_mult: 1.0
    decay_mult: 1.0
  }
  convolution_param {
    num_output: 384
    bias_term: false
    weight_filler {
      type: "xavier"
    }
    bias_filler {
      type: "constant"
      value: 0.0
    }
    pad_h: 1
    pad_w: 1
    kernel_h: 3
    kernel_w: 3
    stride_h: 1
    stride_w: 1
  }
}
layer {
  name: "reduction_a_path2_3x3_bn"
  type: "BN"
  bottom: "reduction_a_path2_3x3"
  top: "reduction_a_path2_3x3_bn"
  param {
    name: "246"
    lr_mult: 1.0
    decay_mult: 0.0
  }
  param {
    name: "247"
    lr_mult: 1.0
    decay_mult: 0.0
  }
  param {
    name: "248"
  }
  param {
    name: "249"
  }
  bn_param {
    frozen: true
    slope_filler {
      type: "constant"
      value: 1.0
    }
    bias_filler {
      type: "constant"
      value: 0.0
    }
  }
}
layer {
  name: "reduction_a_path2_3x3_relu"
  type: "ReLU"
  bottom: "reduction_a_path2_3x3_bn"
  top: "reduction_a_path2_3x3_bn"
}
layer {
  name: "reduction_a_path3_max"
  type: "Pooling"
  bottom: "inception_resnet_a_5_elt"
  top: "reduction_a_path3_max"
  pooling_param {
    pool: MAX
    kernel_h: 1
    kernel_w: 1
    stride_h: 1
    stride_w: 1
    pad_h: 0
    pad_w: 0
  }
}
layer {
  name: "reduction_a_concat"
  type: "Concat"
  bottom: "reduction_a_path1_3x3_2_bn"
  bottom: "reduction_a_path2_3x3_bn"
  bottom: "reduction_a_path3_max"
  top: "reduction_a_concat"
}


############# remove a pooling ####################

layer {
  name: "inception_resnet_b_1_path1_1x1"
  type: "Convolution"
  bottom: "reduction_a_concat"
  top: "inception_resnet_b_1_path1_1x1"
  param {
    name: "250"
    lr_mult: 1.0
    decay_mult: 1.0
  }
  convolution_param {
    num_output: 128
    bias_term: false
    weight_filler {
      type: "xavier"
    }
    bias_filler {
      type: "constant"
      value: 0.0
    }
    pad_h: 0
    pad_w: 0
    kernel_h: 1
    kernel_w: 1
    stride_h: 1
    stride_w: 1
  }
}
layer {
  name: "inception_resnet_b_1_path1_1x1_bn"
  type: "BN"
  bottom: "inception_resnet_b_1_path1_1x1"
  top: "inception_resnet_b_1_path1_1x1_bn"
  param {
    name: "251"
    lr_mult: 1.0
    decay_mult: 0.0
  }
  param {
    name: "252"
    lr_mult: 1.0
    decay_mult: 0.0
  }
  param {
    name: "253"
  }
  param {
    name: "254"
  }
  bn_param {
    frozen: true
    slope_filler {
      type: "constant"
      value: 1.0
    }
    bias_filler {
      type: "constant"
      value: 0.0
    }
  }
}
layer {
  name: "inception_resnet_b_1_path1_1x1_relu"
  type: "ReLU"
  bottom: "inception_resnet_b_1_path1_1x1_bn"
  top: "inception_resnet_b_1_path1_1x1_bn"
}
layer {
  name: "inception_resnet_b_1_path1_1x7"
  type: "Convolution"
  bottom: "inception_resnet_b_1_path1_1x1_bn"
  top: "inception_resnet_b_1_path1_1x7"
  param {
    name: "255"
    lr_mult: 1.0
    decay_mult: 1.0
  }
  convolution_param {
    num_output: 160
    bias_term: false
    weight_filler {
      type: "xavier"
    }
    bias_filler {
      type: "constant"
      value: 0.0
    }
    pad_h: 0
    pad_w: 6
    kernel_h: 1
    kernel_w: 7
    dilation: 2
    stride_h: 1
    stride_w: 1
  }
}
layer {
  name: "inception_resnet_b_1_path1_1x7_bn"
  type: "BN"
  bottom: "inception_resnet_b_1_path1_1x7"
  top: "inception_resnet_b_1_path1_1x7_bn"
  param {
    name: "256"
    lr_mult: 1.0
    decay_mult: 0.0
  }
  param {
    name: "257"
    lr_mult: 1.0
    decay_mult: 0.0
  }
  param {
    name: "258"
  }
  param {
    name: "259"
  }
  bn_param {
    frozen: true
    slope_filler {
      type: "constant"
      value: 1.0
    }
    bias_filler {
      type: "constant"
      value: 0.0
    }
  }
}
layer {
  name: "inception_resnet_b_1_path1_1x7_relu"
  type: "ReLU"
  bottom: "inception_resnet_b_1_path1_1x7_bn"
  top: "inception_resnet_b_1_path1_1x7_bn"
}
layer {
  name: "inception_resnet_b_1_path1_7x1"
  type: "Convolution"
  bottom: "inception_resnet_b_1_path1_1x7_bn"
  top: "inception_resnet_b_1_path1_7x1"
  param {
    name: "260"
    lr_mult: 1.0
    decay_mult: 1.0
  }
  convolution_param {
    num_output: 192
    bias_term: false
    weight_filler {
      type: "xavier"
    }
    bias_filler {
      type: "constant"
      value: 0.0
    }
    pad_h: 6
    pad_w: 0
    kernel_h: 7
    kernel_w: 1
    dilation: 2
    stride_h: 1
    stride_w: 1
  }
}
layer {
  name: "inception_resnet_b_1_path1_7x1_bn"
  type: "BN"
  bottom: "inception_resnet_b_1_path1_7x1"
  top: "inception_resnet_b_1_path1_7x1_bn"
  param {
    name: "261"
    lr_mult: 1.0
    decay_mult: 0.0
  }
  param {
    name: "262"
    lr_mult: 1.0
    decay_mult: 0.0
  }
  param {
    name: "263"
  }
  param {
    name: "264"
  }
  bn_param {
    frozen: true
    slope_filler {
      type: "constant"
      value: 1.0
    }
    bias_filler {
      type: "constant"
      value: 0.0
    }
  }
}
layer {
  name: "inception_resnet_b_1_path1_7x1_relu"
  type: "ReLU"
  bottom: "inception_resnet_b_1_path1_7x1_bn"
  top: "inception_resnet_b_1_path1_7x1_bn"
}
layer {
  name: "inception_resnet_b_1_path2_1x1"
  type: "Convolution"
  bottom: "reduction_a_concat"
  top: "inception_resnet_b_1_path2_1x1"
  param {
    name: "265"
    lr_mult: 1.0
    decay_mult: 1.0
  }
  convolution_param {
    num_output: 192
    bias_term: false
    weight_filler {
      type: "xavier"
    }
    bias_filler {
      type: "constant"
      value: 0.0
    }
    pad_h: 0
    pad_w: 0
    kernel_h: 1
    kernel_w: 1
    stride_h: 1
    stride_w: 1
  }
}
layer {
  name: "inception_resnet_b_1_path2_1x1_bn"
  type: "BN"
  bottom: "inception_resnet_b_1_path2_1x1"
  top: "inception_resnet_b_1_path2_1x1_bn"
  param {
    name: "266"
    lr_mult: 1.0
    decay_mult: 0.0
  }
  param {
    name: "267"
    lr_mult: 1.0
    decay_mult: 0.0
  }
  param {
    name: "268"
  }
  param {
    name: "269"
  }
  bn_param {
    frozen: true
    slope_filler {
      type: "constant"
      value: 1.0
    }
    bias_filler {
      type: "constant"
      value: 0.0
    }
  }
}
layer {
  name: "inception_resnet_b_1_path2_1x1_relu"
  type: "ReLU"
  bottom: "inception_resnet_b_1_path2_1x1_bn"
  top: "inception_resnet_b_1_path2_1x1_bn"
}
layer {
  name: "inception_resnet_b_1_concat"
  type: "Concat"
  bottom: "inception_resnet_b_1_path1_7x1_bn"
  bottom: "inception_resnet_b_1_path2_1x1_bn"
  top: "inception_resnet_b_1_concat"
}
layer {
  name: "inception_resnet_b_1_conv_1x1"
  type: "Convolution"
  bottom: "inception_resnet_b_1_concat"
  top: "inception_resnet_b_1_conv_1x1"
  param {
    name: "270"
    lr_mult: 1.0
    decay_mult: 1.0
  }
  convolution_param {
    num_output: 1152
    bias_term: false
    weight_filler {
      type: "xavier"
    }
    bias_filler {
      type: "constant"
      value: 0.0
    }
    pad_h: 0
    pad_w: 0
    kernel_h: 1
    kernel_w: 1
    stride_h: 1
    stride_w: 1
  }
}
layer {
  name: "inception_resnet_b_1_conv_1x1_bn"
  type: "BN"
  bottom: "inception_resnet_b_1_conv_1x1"
  top: "inception_resnet_b_1_conv_1x1_bn"
  param {
    name: "271"
    lr_mult: 1.0
    decay_mult: 0.0
  }
  param {
    name: "272"
    lr_mult: 1.0
    decay_mult: 0.0
  }
  param {
    name: "273"
  }
  param {
    name: "274"
  }
  bn_param {
    frozen: true
    slope_filler {
      type: "constant"
      value: 1.0
    }
    bias_filler {
      type: "constant"
      value: 0.0
    }
  }
}
layer {
  name: "inception_resnet_b_1_elt"
  type: "Eltwise"
  bottom: "reduction_a_concat"
  bottom: "inception_resnet_b_1_conv_1x1_bn"
  top: "inception_resnet_b_1_elt"
  eltwise_param {
    operation: SUM
    coeff: 1
    coeff: 0.3
  }
}
layer {
  name: "inception_resnet_b_1_relu"
  type: "ReLU"
  bottom: "inception_resnet_b_1_elt"
  top: "inception_resnet_b_1_elt"
}
layer {
  name: "inception_resnet_b_2_path1_1x1"
  type: "Convolution"
  bottom: "inception_resnet_b_1_elt"
  top: "inception_resnet_b_2_path1_1x1"
  param {
    name: "275"
    lr_mult: 1.0
    decay_mult: 1.0
  }
  convolution_param {
    num_output: 128
    bias_term: false
    weight_filler {
      type: "xavier"
    }
    bias_filler {
      type: "constant"
      value: 0.0
    }
    pad_h: 0
    pad_w: 0
    kernel_h: 1
    kernel_w: 1
    stride_h: 1
    stride_w: 1
  }
}
layer {
  name: "inception_resnet_b_2_path1_1x1_bn"
  type: "BN"
  bottom: "inception_resnet_b_2_path1_1x1"
  top: "inception_resnet_b_2_path1_1x1_bn"
  param {
    name: "276"
    lr_mult: 1.0
    decay_mult: 0.0
  }
  param {
    name: "277"
    lr_mult: 1.0
    decay_mult: 0.0
  }
  param {
    name: "278"
  }
  param {
    name: "279"
  }
  bn_param {
    frozen: true
    slope_filler {
      type: "constant"
      value: 1.0
    }
    bias_filler {
      type: "constant"
      value: 0.0
    }
  }
}
layer {
  name: "inception_resnet_b_2_path1_1x1_relu"
  type: "ReLU"
  bottom: "inception_resnet_b_2_path1_1x1_bn"
  top: "inception_resnet_b_2_path1_1x1_bn"
}
layer {
  name: "inception_resnet_b_2_path1_1x7"
  type: "Convolution"
  bottom: "inception_resnet_b_2_path1_1x1_bn"
  top: "inception_resnet_b_2_path1_1x7"
  param {
    name: "280"
    lr_mult: 1.0
    decay_mult: 1.0
  }
  convolution_param {
    num_output: 160
    bias_term: false
    weight_filler {
      type: "xavier"
    }
    bias_filler {
      type: "constant"
      value: 0.0
    }
    pad_h: 0
    pad_w: 6
    kernel_h: 1
    kernel_w: 7
    dilation: 2
    stride_h: 1
    stride_w: 1
  }
}
layer {
  name: "inception_resnet_b_2_path1_1x7_bn"
  type: "BN"
  bottom: "inception_resnet_b_2_path1_1x7"
  top: "inception_resnet_b_2_path1_1x7_bn"
  param {
    name: "281"
    lr_mult: 1.0
    decay_mult: 0.0
  }
  param {
    name: "282"
    lr_mult: 1.0
    decay_mult: 0.0
  }
  param {
    name: "283"
  }
  param {
    name: "284"
  }
  bn_param {
    frozen: true
    slope_filler {
      type: "constant"
      value: 1.0
    }
    bias_filler {
      type: "constant"
      value: 0.0
    }
  }
}
layer {
  name: "inception_resnet_b_2_path1_1x7_relu"
  type: "ReLU"
  bottom: "inception_resnet_b_2_path1_1x7_bn"
  top: "inception_resnet_b_2_path1_1x7_bn"
}
layer {
  name: "inception_resnet_b_2_path1_7x1"
  type: "Convolution"
  bottom: "inception_resnet_b_2_path1_1x7_bn"
  top: "inception_resnet_b_2_path1_7x1"
  param {
    name: "285"
    lr_mult: 1.0
    decay_mult: 1.0
  }
  convolution_param {
    num_output: 192
    bias_term: false
    weight_filler {
      type: "xavier"
    }
    bias_filler {
      type: "constant"
      value: 0.0
    }
    pad_h: 6
    pad_w: 0
    kernel_h: 7
    kernel_w: 1
    dilation: 2
    stride_h: 1
    stride_w: 1
  }
}
layer {
  name: "inception_resnet_b_2_path1_7x1_bn"
  type: "BN"
  bottom: "inception_resnet_b_2_path1_7x1"
  top: "inception_resnet_b_2_path1_7x1_bn"
  param {
    name: "286"
    lr_mult: 1.0
    decay_mult: 0.0
  }
  param {
    name: "287"
    lr_mult: 1.0
    decay_mult: 0.0
  }
  param {
    name: "288"
  }
  param {
    name: "289"
  }
  bn_param {
    frozen: true
    slope_filler {
      type: "constant"
      value: 1.0
    }
    bias_filler {
      type: "constant"
      value: 0.0
    }
  }
}
layer {
  name: "inception_resnet_b_2_path1_7x1_relu"
  type: "ReLU"
  bottom: "inception_resnet_b_2_path1_7x1_bn"
  top: "inception_resnet_b_2_path1_7x1_bn"
}
layer {
  name: "inception_resnet_b_2_path2_1x1"
  type: "Convolution"
  bottom: "inception_resnet_b_1_elt"
  top: "inception_resnet_b_2_path2_1x1"
  param {
    name: "290"
    lr_mult: 1.0
    decay_mult: 1.0
  }
  convolution_param {
    num_output: 192
    bias_term: false
    weight_filler {
      type: "xavier"
    }
    bias_filler {
      type: "constant"
      value: 0.0
    }
    pad_h: 0
    pad_w: 0
    kernel_h: 1
    kernel_w: 1
    stride_h: 1
    stride_w: 1
  }
}
layer {
  name: "inception_resnet_b_2_path2_1x1_bn"
  type: "BN"
  bottom: "inception_resnet_b_2_path2_1x1"
  top: "inception_resnet_b_2_path2_1x1_bn"
  param {
    name: "291"
    lr_mult: 1.0
    decay_mult: 0.0
  }
  param {
    name: "292"
    lr_mult: 1.0
    decay_mult: 0.0
  }
  param {
    name: "293"
  }
  param {
    name: "294"
  }
  bn_param {
    frozen: true
    slope_filler {
      type: "constant"
      value: 1.0
    }
    bias_filler {
      type: "constant"
      value: 0.0
    }
  }
}
layer {
  name: "inception_resnet_b_2_path2_1x1_relu"
  type: "ReLU"
  bottom: "inception_resnet_b_2_path2_1x1_bn"
  top: "inception_resnet_b_2_path2_1x1_bn"
}
layer {
  name: "inception_resnet_b_2_concat"
  type: "Concat"
  bottom: "inception_resnet_b_2_path1_7x1_bn"
  bottom: "inception_resnet_b_2_path2_1x1_bn"
  top: "inception_resnet_b_2_concat"
}
layer {
  name: "inception_resnet_b_2_conv_1x1"
  type: "Convolution"
  bottom: "inception_resnet_b_2_concat"
  top: "inception_resnet_b_2_conv_1x1"
  param {
    name: "295"
    lr_mult: 1.0
    decay_mult: 1.0
  }
  convolution_param {
    num_output: 1152
    bias_term: false
    weight_filler {
      type: "xavier"
    }
    bias_filler {
      type: "constant"
      value: 0.0
    }
    pad_h: 0
    pad_w: 0
    kernel_h: 1
    kernel_w: 1
    stride_h: 1
    stride_w: 1
  }
}
layer {
  name: "inception_resnet_b_2_conv_1x1_bn"
  type: "BN"
  bottom: "inception_resnet_b_2_conv_1x1"
  top: "inception_resnet_b_2_conv_1x1_bn"
  param {
    name: "296"
    lr_mult: 1.0
    decay_mult: 0.0
  }
  param {
    name: "297"
    lr_mult: 1.0
    decay_mult: 0.0
  }
  param {
    name: "298"
  }
  param {
    name: "299"
  }
  bn_param {
    frozen: true
    slope_filler {
      type: "constant"
      value: 1.0
    }
    bias_filler {
      type: "constant"
      value: 0.0
    }
  }
}
layer {
  name: "inception_resnet_b_2_elt"
  type: "Eltwise"
  bottom: "inception_resnet_b_1_elt"
  bottom: "inception_resnet_b_2_conv_1x1_bn"
  top: "inception_resnet_b_2_elt"
  eltwise_param {
    operation: SUM
    coeff: 1
    coeff: 0.3
  }
}
layer {
  name: "inception_resnet_b_2_relu"
  type: "ReLU"
  bottom: "inception_resnet_b_2_elt"
  top: "inception_resnet_b_2_elt"
}
layer {
  name: "inception_resnet_b_3_path1_1x1"
  type: "Convolution"
  bottom: "inception_resnet_b_2_elt"
  top: "inception_resnet_b_3_path1_1x1"
  param {
    name: "300"
    lr_mult: 1.0
    decay_mult: 1.0
  }
  convolution_param {
    num_output: 128
    bias_term: false
    weight_filler {
      type: "xavier"
    }
    bias_filler {
      type: "constant"
      value: 0.0
    }
    pad_h: 0
    pad_w: 0
    kernel_h: 1
    kernel_w: 1
    stride_h: 1
    stride_w: 1
  }
}
layer {
  name: "inception_resnet_b_3_path1_1x1_bn"
  type: "BN"
  bottom: "inception_resnet_b_3_path1_1x1"
  top: "inception_resnet_b_3_path1_1x1_bn"
  param {
    name: "301"
    lr_mult: 1.0
    decay_mult: 0.0
  }
  param {
    name: "302"
    lr_mult: 1.0
    decay_mult: 0.0
  }
  param {
    name: "303"
  }
  param {
    name: "304"
  }
  bn_param {
    frozen: true
    slope_filler {
      type: "constant"
      value: 1.0
    }
    bias_filler {
      type: "constant"
      value: 0.0
    }
  }
}
layer {
  name: "inception_resnet_b_3_path1_1x1_relu"
  type: "ReLU"
  bottom: "inception_resnet_b_3_path1_1x1_bn"
  top: "inception_resnet_b_3_path1_1x1_bn"
}
layer {
  name: "inception_resnet_b_3_path1_1x7"
  type: "Convolution"
  bottom: "inception_resnet_b_3_path1_1x1_bn"
  top: "inception_resnet_b_3_path1_1x7"
  param {
    name: "305"
    lr_mult: 1.0
    decay_mult: 1.0
  }
  convolution_param {
    num_output: 160
    bias_term: false
    weight_filler {
      type: "xavier"
    }
    bias_filler {
      type: "constant"
      value: 0.0
    }
    pad_h: 0
    pad_w: 6
    kernel_h: 1
    kernel_w: 7
    dilation: 2
    stride_h: 1
    stride_w: 1
  }
}
layer {
  name: "inception_resnet_b_3_path1_1x7_bn"
  type: "BN"
  bottom: "inception_resnet_b_3_path1_1x7"
  top: "inception_resnet_b_3_path1_1x7_bn"
  param {
    name: "306"
    lr_mult: 1.0
    decay_mult: 0.0
  }
  param {
    name: "307"
    lr_mult: 1.0
    decay_mult: 0.0
  }
  param {
    name: "308"
  }
  param {
    name: "309"
  }
  bn_param {
    frozen: true
    slope_filler {
      type: "constant"
      value: 1.0
    }
    bias_filler {
      type: "constant"
      value: 0.0
    }
  }
}
layer {
  name: "inception_resnet_b_3_path1_1x7_relu"
  type: "ReLU"
  bottom: "inception_resnet_b_3_path1_1x7_bn"
  top: "inception_resnet_b_3_path1_1x7_bn"
}
layer {
  name: "inception_resnet_b_3_path1_7x1"
  type: "Convolution"
  bottom: "inception_resnet_b_3_path1_1x7_bn"
  top: "inception_resnet_b_3_path1_7x1"
  param {
    name: "310"
    lr_mult: 1.0
    decay_mult: 1.0
  }
  convolution_param {
    num_output: 192
    bias_term: false
    weight_filler {
      type: "xavier"
    }
    bias_filler {
      type: "constant"
      value: 0.0
    }
    pad_h: 6
    pad_w: 0
    kernel_h: 7
    kernel_w: 1
    dilation: 2
    stride_h: 1
    stride_w: 1
  }
}
layer {
  name: "inception_resnet_b_3_path1_7x1_bn"
  type: "BN"
  bottom: "inception_resnet_b_3_path1_7x1"
  top: "inception_resnet_b_3_path1_7x1_bn"
  param {
    name: "311"
    lr_mult: 1.0
    decay_mult: 0.0
  }
  param {
    name: "312"
    lr_mult: 1.0
    decay_mult: 0.0
  }
  param {
    name: "313"
  }
  param {
    name: "314"
  }
  bn_param {
    frozen: true
    slope_filler {
      type: "constant"
      value: 1.0
    }
    bias_filler {
      type: "constant"
      value: 0.0
    }
  }
}
layer {
  name: "inception_resnet_b_3_path1_7x1_relu"
  type: "ReLU"
  bottom: "inception_resnet_b_3_path1_7x1_bn"
  top: "inception_resnet_b_3_path1_7x1_bn"
}
layer {
  name: "inception_resnet_b_3_path2_1x1"
  type: "Convolution"
  bottom: "inception_resnet_b_2_elt"
  top: "inception_resnet_b_3_path2_1x1"
  param {
    name: "315"
    lr_mult: 1.0
    decay_mult: 1.0
  }
  convolution_param {
    num_output: 192
    bias_term: false
    weight_filler {
      type: "xavier"
    }
    bias_filler {
      type: "constant"
      value: 0.0
    }
    pad_h: 0
    pad_w: 0
    kernel_h: 1
    kernel_w: 1
    stride_h: 1
    stride_w: 1
  }
}
layer {
  name: "inception_resnet_b_3_path2_1x1_bn"
  type: "BN"
  bottom: "inception_resnet_b_3_path2_1x1"
  top: "inception_resnet_b_3_path2_1x1_bn"
  param {
    name: "316"
    lr_mult: 1.0
    decay_mult: 0.0
  }
  param {
    name: "317"
    lr_mult: 1.0
    decay_mult: 0.0
  }
  param {
    name: "318"
  }
  param {
    name: "319"
  }
  bn_param {
    frozen: true
    slope_filler {
      type: "constant"
      value: 1.0
    }
    bias_filler {
      type: "constant"
      value: 0.0
    }
  }
}
layer {
  name: "inception_resnet_b_3_path2_1x1_relu"
  type: "ReLU"
  bottom: "inception_resnet_b_3_path2_1x1_bn"
  top: "inception_resnet_b_3_path2_1x1_bn"
}
layer {
  name: "inception_resnet_b_3_concat"
  type: "Concat"
  bottom: "inception_resnet_b_3_path1_7x1_bn"
  bottom: "inception_resnet_b_3_path2_1x1_bn"
  top: "inception_resnet_b_3_concat"
}
layer {
  name: "inception_resnet_b_3_conv_1x1"
  type: "Convolution"
  bottom: "inception_resnet_b_3_concat"
  top: "inception_resnet_b_3_conv_1x1"
  param {
    name: "320"
    lr_mult: 1.0
    decay_mult: 1.0
  }
  convolution_param {
    num_output: 1152
    bias_term: false
    weight_filler {
      type: "xavier"
    }
    bias_filler {
      type: "constant"
      value: 0.0
    }
    pad_h: 0
    pad_w: 0
    kernel_h: 1
    kernel_w: 1
    stride_h: 1
    stride_w: 1
  }
}
layer {
  name: "inception_resnet_b_3_conv_1x1_bn"
  type: "BN"
  bottom: "inception_resnet_b_3_conv_1x1"
  top: "inception_resnet_b_3_conv_1x1_bn"
  param {
    name: "321"
    lr_mult: 1.0
    decay_mult: 0.0
  }
  param {
    name: "322"
    lr_mult: 1.0
    decay_mult: 0.0
  }
  param {
    name: "323"
  }
  param {
    name: "324"
  }
  bn_param {
    frozen: true
    slope_filler {
      type: "constant"
      value: 1.0
    }
    bias_filler {
      type: "constant"
      value: 0.0
    }
  }
}
layer {
  name: "inception_resnet_b_3_elt"
  type: "Eltwise"
  bottom: "inception_resnet_b_2_elt"
  bottom: "inception_resnet_b_3_conv_1x1_bn"
  top: "inception_resnet_b_3_elt"
  eltwise_param {
    operation: SUM
    coeff: 1
    coeff: 0.3
  }
}
layer {
  name: "inception_resnet_b_3_relu"
  type: "ReLU"
  bottom: "inception_resnet_b_3_elt"
  top: "inception_resnet_b_3_elt"
}
layer {
  name: "inception_resnet_b_4_path1_1x1"
  type: "Convolution"
  bottom: "inception_resnet_b_3_elt"
  top: "inception_resnet_b_4_path1_1x1"
  param {
    name: "325"
    lr_mult: 1.0
    decay_mult: 1.0
  }
  convolution_param {
    num_output: 128
    bias_term: false
    weight_filler {
      type: "xavier"
    }
    bias_filler {
      type: "constant"
      value: 0.0
    }
    pad_h: 0
    pad_w: 0
    kernel_h: 1
    kernel_w: 1
    stride_h: 1
    stride_w: 1
  }
}
layer {
  name: "inception_resnet_b_4_path1_1x1_bn"
  type: "BN"
  bottom: "inception_resnet_b_4_path1_1x1"
  top: "inception_resnet_b_4_path1_1x1_bn"
  param {
    name: "326"
    lr_mult: 1.0
    decay_mult: 0.0
  }
  param {
    name: "327"
    lr_mult: 1.0
    decay_mult: 0.0
  }
  param {
    name: "328"
  }
  param {
    name: "329"
  }
  bn_param {
    frozen: true
    slope_filler {
      type: "constant"
      value: 1.0
    }
    bias_filler {
      type: "constant"
      value: 0.0
    }
  }
}
layer {
  name: "inception_resnet_b_4_path1_1x1_relu"
  type: "ReLU"
  bottom: "inception_resnet_b_4_path1_1x1_bn"
  top: "inception_resnet_b_4_path1_1x1_bn"
}
layer {
  name: "inception_resnet_b_4_path1_1x7"
  type: "Convolution"
  bottom: "inception_resnet_b_4_path1_1x1_bn"
  top: "inception_resnet_b_4_path1_1x7"
  param {
    name: "330"
    lr_mult: 1.0
    decay_mult: 1.0
  }
  convolution_param {
    num_output: 160
    bias_term: false
    weight_filler {
      type: "xavier"
    }
    bias_filler {
      type: "constant"
      value: 0.0
    }
    pad_h: 0
    pad_w: 6
    kernel_h: 1
    kernel_w: 7
    dilation: 2
    stride_h: 1
    stride_w: 1
  }
}
layer {
  name: "inception_resnet_b_4_path1_1x7_bn"
  type: "BN"
  bottom: "inception_resnet_b_4_path1_1x7"
  top: "inception_resnet_b_4_path1_1x7_bn"
  param {
    name: "331"
    lr_mult: 1.0
    decay_mult: 0.0
  }
  param {
    name: "332"
    lr_mult: 1.0
    decay_mult: 0.0
  }
  param {
    name: "333"
  }
  param {
    name: "334"
  }
  bn_param {
    frozen: true
    slope_filler {
      type: "constant"
      value: 1.0
    }
    bias_filler {
      type: "constant"
      value: 0.0
    }
  }
}
layer {
  name: "inception_resnet_b_4_path1_1x7_relu"
  type: "ReLU"
  bottom: "inception_resnet_b_4_path1_1x7_bn"
  top: "inception_resnet_b_4_path1_1x7_bn"
}
layer {
  name: "inception_resnet_b_4_path1_7x1"
  type: "Convolution"
  bottom: "inception_resnet_b_4_path1_1x7_bn"
  top: "inception_resnet_b_4_path1_7x1"
  param {
    name: "335"
    lr_mult: 1.0
    decay_mult: 1.0
  }
  convolution_param {
    num_output: 192
    bias_term: false
    weight_filler {
      type: "xavier"
    }
    bias_filler {
      type: "constant"
      value: 0.0
    }
    pad_h: 6
    pad_w: 0
    kernel_h: 7
    kernel_w: 1
    dilation: 2
    stride_h: 1
    stride_w: 1
  }
}
layer {
  name: "inception_resnet_b_4_path1_7x1_bn"
  type: "BN"
  bottom: "inception_resnet_b_4_path1_7x1"
  top: "inception_resnet_b_4_path1_7x1_bn"
  param {
    name: "336"
    lr_mult: 1.0
    decay_mult: 0.0
  }
  param {
    name: "337"
    lr_mult: 1.0
    decay_mult: 0.0
  }
  param {
    name: "338"
  }
  param {
    name: "339"
  }
  bn_param {
    frozen: true
    slope_filler {
      type: "constant"
      value: 1.0
    }
    bias_filler {
      type: "constant"
      value: 0.0
    }
  }
}
layer {
  name: "inception_resnet_b_4_path1_7x1_relu"
  type: "ReLU"
  bottom: "inception_resnet_b_4_path1_7x1_bn"
  top: "inception_resnet_b_4_path1_7x1_bn"
}
layer {
  name: "inception_resnet_b_4_path2_1x1"
  type: "Convolution"
  bottom: "inception_resnet_b_3_elt"
  top: "inception_resnet_b_4_path2_1x1"
  param {
    name: "340"
    lr_mult: 1.0
    decay_mult: 1.0
  }
  convolution_param {
    num_output: 192
    bias_term: false
    weight_filler {
      type: "xavier"
    }
    bias_filler {
      type: "constant"
      value: 0.0
    }
    pad_h: 0
    pad_w: 0
    kernel_h: 1
    kernel_w: 1
    stride_h: 1
    stride_w: 1
  }
}
layer {
  name: "inception_resnet_b_4_path2_1x1_bn"
  type: "BN"
  bottom: "inception_resnet_b_4_path2_1x1"
  top: "inception_resnet_b_4_path2_1x1_bn"
  param {
    name: "341"
    lr_mult: 1.0
    decay_mult: 0.0
  }
  param {
    name: "342"
    lr_mult: 1.0
    decay_mult: 0.0
  }
  param {
    name: "343"
  }
  param {
    name: "344"
  }
  bn_param {
    frozen: true
    slope_filler {
      type: "constant"
      value: 1.0
    }
    bias_filler {
      type: "constant"
      value: 0.0
    }
  }
}
layer {
  name: "inception_resnet_b_4_path2_1x1_relu"
  type: "ReLU"
  bottom: "inception_resnet_b_4_path2_1x1_bn"
  top: "inception_resnet_b_4_path2_1x1_bn"
}
layer {
  name: "inception_resnet_b_4_concat"
  type: "Concat"
  bottom: "inception_resnet_b_4_path1_7x1_bn"
  bottom: "inception_resnet_b_4_path2_1x1_bn"
  top: "inception_resnet_b_4_concat"
}
layer {
  name: "inception_resnet_b_4_conv_1x1"
  type: "Convolution"
  bottom: "inception_resnet_b_4_concat"
  top: "inception_resnet_b_4_conv_1x1"
  param {
    name: "345"
    lr_mult: 1.0
    decay_mult: 1.0
  }
  convolution_param {
    num_output: 1152
    bias_term: false
    weight_filler {
      type: "xavier"
    }
    bias_filler {
      type: "constant"
      value: 0.0
    }
    pad_h: 0
    pad_w: 0
    kernel_h: 1
    kernel_w: 1
    stride_h: 1
    stride_w: 1
  }
}
layer {
  name: "inception_resnet_b_4_conv_1x1_bn"
  type: "BN"
  bottom: "inception_resnet_b_4_conv_1x1"
  top: "inception_resnet_b_4_conv_1x1_bn"
  param {
    name: "346"
    lr_mult: 1.0
    decay_mult: 0.0
  }
  param {
    name: "347"
    lr_mult: 1.0
    decay_mult: 0.0
  }
  param {
    name: "348"
  }
  param {
    name: "349"
  }
  bn_param {
    frozen: true
    slope_filler {
      type: "constant"
      value: 1.0
    }
    bias_filler {
      type: "constant"
      value: 0.0
    }
  }
}
layer {
  name: "inception_resnet_b_4_elt"
  type: "Eltwise"
  bottom: "inception_resnet_b_3_elt"
  bottom: "inception_resnet_b_4_conv_1x1_bn"
  top: "inception_resnet_b_4_elt"
  eltwise_param {
    operation: SUM
    coeff: 1
    coeff: 0.3
  }
}
layer {
  name: "inception_resnet_b_4_relu"
  type: "ReLU"
  bottom: "inception_resnet_b_4_elt"
  top: "inception_resnet_b_4_elt"
}
layer {
  name: "inception_resnet_b_5_path1_1x1"
  type: "Convolution"
  bottom: "inception_resnet_b_4_elt"
  top: "inception_resnet_b_5_path1_1x1"
  param {
    name: "350"
    lr_mult: 1.0
    decay_mult: 1.0
  }
  convolution_param {
    num_output: 128
    bias_term: false
    weight_filler {
      type: "xavier"
    }
    bias_filler {
      type: "constant"
      value: 0.0
    }
    pad_h: 0
    pad_w: 0
    kernel_h: 1
    kernel_w: 1
    stride_h: 1
    stride_w: 1
  }
}
layer {
  name: "inception_resnet_b_5_path1_1x1_bn"
  type: "BN"
  bottom: "inception_resnet_b_5_path1_1x1"
  top: "inception_resnet_b_5_path1_1x1_bn"
  param {
    name: "351"
    lr_mult: 1.0
    decay_mult: 0.0
  }
  param {
    name: "352"
    lr_mult: 1.0
    decay_mult: 0.0
  }
  param {
    name: "353"
  }
  param {
    name: "354"
  }
  bn_param {
    frozen: true
    slope_filler {
      type: "constant"
      value: 1.0
    }
    bias_filler {
      type: "constant"
      value: 0.0
    }
  }
}
layer {
  name: "inception_resnet_b_5_path1_1x1_relu"
  type: "ReLU"
  bottom: "inception_resnet_b_5_path1_1x1_bn"
  top: "inception_resnet_b_5_path1_1x1_bn"
}
layer {
  name: "inception_resnet_b_5_path1_1x7"
  type: "Convolution"
  bottom: "inception_resnet_b_5_path1_1x1_bn"
  top: "inception_resnet_b_5_path1_1x7"
  param {
    name: "355"
    lr_mult: 1.0
    decay_mult: 1.0
  }
  convolution_param {
    num_output: 160
    bias_term: false
    weight_filler {
      type: "xavier"
    }
    bias_filler {
      type: "constant"
      value: 0.0
    }
    pad_h: 0
    pad_w: 6
    kernel_h: 1
    kernel_w: 7
    dilation: 2
    stride_h: 1
    stride_w: 1
  }
}
layer {
  name: "inception_resnet_b_5_path1_1x7_bn"
  type: "BN"
  bottom: "inception_resnet_b_5_path1_1x7"
  top: "inception_resnet_b_5_path1_1x7_bn"
  param {
    name: "356"
    lr_mult: 1.0
    decay_mult: 0.0
  }
  param {
    name: "357"
    lr_mult: 1.0
    decay_mult: 0.0
  }
  param {
    name: "358"
  }
  param {
    name: "359"
  }
  bn_param {
    frozen: true
    slope_filler {
      type: "constant"
      value: 1.0
    }
    bias_filler {
      type: "constant"
      value: 0.0
    }
  }
}
layer {
  name: "inception_resnet_b_5_path1_1x7_relu"
  type: "ReLU"
  bottom: "inception_resnet_b_5_path1_1x7_bn"
  top: "inception_resnet_b_5_path1_1x7_bn"
}
layer {
  name: "inception_resnet_b_5_path1_7x1"
  type: "Convolution"
  bottom: "inception_resnet_b_5_path1_1x7_bn"
  top: "inception_resnet_b_5_path1_7x1"
  param {
    name: "360"
    lr_mult: 1.0
    decay_mult: 1.0
  }
  convolution_param {
    num_output: 192
    bias_term: false
    weight_filler {
      type: "xavier"
    }
    bias_filler {
      type: "constant"
      value: 0.0
    }
    pad_h: 6
    pad_w: 0
    kernel_h: 7
    kernel_w: 1
    dilation: 2
    stride_h: 1
    stride_w: 1
  }
}
layer {
  name: "inception_resnet_b_5_path1_7x1_bn"
  type: "BN"
  bottom: "inception_resnet_b_5_path1_7x1"
  top: "inception_resnet_b_5_path1_7x1_bn"
  param {
    name: "361"
    lr_mult: 1.0
    decay_mult: 0.0
  }
  param {
    name: "362"
    lr_mult: 1.0
    decay_mult: 0.0
  }
  param {
    name: "363"
  }
  param {
    name: "364"
  }
  bn_param {
    frozen: true
    slope_filler {
      type: "constant"
      value: 1.0
    }
    bias_filler {
      type: "constant"
      value: 0.0
    }
  }
}
layer {
  name: "inception_resnet_b_5_path1_7x1_relu"
  type: "ReLU"
  bottom: "inception_resnet_b_5_path1_7x1_bn"
  top: "inception_resnet_b_5_path1_7x1_bn"
}
layer {
  name: "inception_resnet_b_5_path2_1x1"
  type: "Convolution"
  bottom: "inception_resnet_b_4_elt"
  top: "inception_resnet_b_5_path2_1x1"
  param {
    name: "365"
    lr_mult: 1.0
    decay_mult: 1.0
  }
  convolution_param {
    num_output: 192
    bias_term: false
    weight_filler {
      type: "xavier"
    }
    bias_filler {
      type: "constant"
      value: 0.0
    }
    pad_h: 0
    pad_w: 0
    kernel_h: 1
    kernel_w: 1
    stride_h: 1
    stride_w: 1
  }
}
layer {
  name: "inception_resnet_b_5_path2_1x1_bn"
  type: "BN"
  bottom: "inception_resnet_b_5_path2_1x1"
  top: "inception_resnet_b_5_path2_1x1_bn"
  param {
    name: "366"
    lr_mult: 1.0
    decay_mult: 0.0
  }
  param {
    name: "367"
    lr_mult: 1.0
    decay_mult: 0.0
  }
  param {
    name: "368"
  }
  param {
    name: "369"
  }
  bn_param {
    frozen: true
    slope_filler {
      type: "constant"
      value: 1.0
    }
    bias_filler {
      type: "constant"
      value: 0.0
    }
  }
}
layer {
  name: "inception_resnet_b_5_path2_1x1_relu"
  type: "ReLU"
  bottom: "inception_resnet_b_5_path2_1x1_bn"
  top: "inception_resnet_b_5_path2_1x1_bn"
}
layer {
  name: "inception_resnet_b_5_concat"
  type: "Concat"
  bottom: "inception_resnet_b_5_path1_7x1_bn"
  bottom: "inception_resnet_b_5_path2_1x1_bn"
  top: "inception_resnet_b_5_concat"
}
layer {
  name: "inception_resnet_b_5_conv_1x1"
  type: "Convolution"
  bottom: "inception_resnet_b_5_concat"
  top: "inception_resnet_b_5_conv_1x1"
  param {
    name: "370"
    lr_mult: 1.0
    decay_mult: 1.0
  }
  convolution_param {
    num_output: 1152
    bias_term: false
    weight_filler {
      type: "xavier"
    }
    bias_filler {
      type: "constant"
      value: 0.0
    }
    pad_h: 0
    pad_w: 0
    kernel_h: 1
    kernel_w: 1
    stride_h: 1
    stride_w: 1
  }
}
layer {
  name: "inception_resnet_b_5_conv_1x1_bn"
  type: "BN"
  bottom: "inception_resnet_b_5_conv_1x1"
  top: "inception_resnet_b_5_conv_1x1_bn"
  param {
    name: "371"
    lr_mult: 1.0
    decay_mult: 0.0
  }
  param {
    name: "372"
    lr_mult: 1.0
    decay_mult: 0.0
  }
  param {
    name: "373"
  }
  param {
    name: "374"
  }
  bn_param {
    frozen: true
    slope_filler {
      type: "constant"
      value: 1.0
    }
    bias_filler {
      type: "constant"
      value: 0.0
    }
  }
}
layer {
  name: "inception_resnet_b_5_elt"
  type: "Eltwise"
  bottom: "inception_resnet_b_4_elt"
  bottom: "inception_resnet_b_5_conv_1x1_bn"
  top: "inception_resnet_b_5_elt"
  eltwise_param {
    operation: SUM
    coeff: 1
    coeff: 0.3
  }
}
layer {
  name: "inception_resnet_b_5_relu"
  type: "ReLU"
  bottom: "inception_resnet_b_5_elt"
  top: "inception_resnet_b_5_elt"
}
layer {
  name: "inception_resnet_b_6_path1_1x1"
  type: "Convolution"
  bottom: "inception_resnet_b_5_elt"
  top: "inception_resnet_b_6_path1_1x1"
  param {
    name: "375"
    lr_mult: 1.0
    decay_mult: 1.0
  }
  convolution_param {
    num_output: 128
    bias_term: false
    weight_filler {
      type: "xavier"
    }
    bias_filler {
      type: "constant"
      value: 0.0
    }
    pad_h: 0
    pad_w: 0
    kernel_h: 1
    kernel_w: 1
    stride_h: 1
    stride_w: 1
  }
}
layer {
  name: "inception_resnet_b_6_path1_1x1_bn"
  type: "BN"
  bottom: "inception_resnet_b_6_path1_1x1"
  top: "inception_resnet_b_6_path1_1x1_bn"
  param {
    name: "376"
    lr_mult: 1.0
    decay_mult: 0.0
  }
  param {
    name: "377"
    lr_mult: 1.0
    decay_mult: 0.0
  }
  param {
    name: "378"
  }
  param {
    name: "379"
  }
  bn_param {
    frozen: true
    slope_filler {
      type: "constant"
      value: 1.0
    }
    bias_filler {
      type: "constant"
      value: 0.0
    }
  }
}
layer {
  name: "inception_resnet_b_6_path1_1x1_relu"
  type: "ReLU"
  bottom: "inception_resnet_b_6_path1_1x1_bn"
  top: "inception_resnet_b_6_path1_1x1_bn"
}
layer {
  name: "inception_resnet_b_6_path1_1x7"
  type: "Convolution"
  bottom: "inception_resnet_b_6_path1_1x1_bn"
  top: "inception_resnet_b_6_path1_1x7"
  param {
    name: "380"
    lr_mult: 1.0
    decay_mult: 1.0
  }
  convolution_param {
    num_output: 160
    bias_term: false
    weight_filler {
      type: "xavier"
    }
    bias_filler {
      type: "constant"
      value: 0.0
    }
    pad_h: 0
    pad_w: 3
    kernel_h: 1
    kernel_w: 7
    stride_h: 1
    stride_w: 1
  }
}
layer {
  name: "inception_resnet_b_6_path1_1x7_bn"
  type: "BN"
  bottom: "inception_resnet_b_6_path1_1x7"
  top: "inception_resnet_b_6_path1_1x7_bn"
  param {
    name: "381"
    lr_mult: 1.0
    decay_mult: 0.0
  }
  param {
    name: "382"
    lr_mult: 1.0
    decay_mult: 0.0
  }
  param {
    name: "383"
  }
  param {
    name: "384"
  }
  bn_param {
    frozen: true
    slope_filler {
      type: "constant"
      value: 1.0
    }
    bias_filler {
      type: "constant"
      value: 0.0
    }
  }
}
layer {
  name: "inception_resnet_b_6_path1_1x7_relu"
  type: "ReLU"
  bottom: "inception_resnet_b_6_path1_1x7_bn"
  top: "inception_resnet_b_6_path1_1x7_bn"
}
layer {
  name: "inception_resnet_b_6_path1_7x1"
  type: "Convolution"
  bottom: "inception_resnet_b_6_path1_1x7_bn"
  top: "inception_resnet_b_6_path1_7x1"
  param {
    name: "385"
    lr_mult: 1.0
    decay_mult: 1.0
  }
  convolution_param {
    num_output: 192
    bias_term: false
    weight_filler {
      type: "xavier"
    }
    bias_filler {
      type: "constant"
      value: 0.0
    }
    pad_h: 6
    pad_w: 0
    kernel_h: 7
    kernel_w: 1
    dilation: 2
    stride_h: 1
    stride_w: 1
  }
}
layer {
  name: "inception_resnet_b_6_path1_7x1_bn"
  type: "BN"
  bottom: "inception_resnet_b_6_path1_7x1"
  top: "inception_resnet_b_6_path1_7x1_bn"
  param {
    name: "386"
    lr_mult: 1.0
    decay_mult: 0.0
  }
  param {
    name: "387"
    lr_mult: 1.0
    decay_mult: 0.0
  }
  param {
    name: "388"
  }
  param {
    name: "389"
  }
  bn_param {
    frozen: true
    slope_filler {
      type: "constant"
      value: 1.0
    }
    bias_filler {
      type: "constant"
      value: 0.0
    }
  }
}
layer {
  name: "inception_resnet_b_6_path1_7x1_relu"
  type: "ReLU"
  bottom: "inception_resnet_b_6_path1_7x1_bn"
  top: "inception_resnet_b_6_path1_7x1_bn"
}
layer {
  name: "inception_resnet_b_6_path2_1x1"
  type: "Convolution"
  bottom: "inception_resnet_b_5_elt"
  top: "inception_resnet_b_6_path2_1x1"
  param {
    name: "390"
    lr_mult: 1.0
    decay_mult: 1.0
  }
  convolution_param {
    num_output: 192
    bias_term: false
    weight_filler {
      type: "xavier"
    }
    bias_filler {
      type: "constant"
      value: 0.0
    }
    pad_h: 0
    pad_w: 0
    kernel_h: 1
    kernel_w: 1
    stride_h: 1
    stride_w: 1
  }
}
layer {
  name: "inception_resnet_b_6_path2_1x1_bn"
  type: "BN"
  bottom: "inception_resnet_b_6_path2_1x1"
  top: "inception_resnet_b_6_path2_1x1_bn"
  param {
    name: "391"
    lr_mult: 1.0
    decay_mult: 0.0
  }
  param {
    name: "392"
    lr_mult: 1.0
    decay_mult: 0.0
  }
  param {
    name: "393"
  }
  param {
    name: "394"
  }
  bn_param {
    frozen: true
    slope_filler {
      type: "constant"
      value: 1.0
    }
    bias_filler {
      type: "constant"
      value: 0.0
    }
  }
}
layer {
  name: "inception_resnet_b_6_path2_1x1_relu"
  type: "ReLU"
  bottom: "inception_resnet_b_6_path2_1x1_bn"
  top: "inception_resnet_b_6_path2_1x1_bn"
}
layer {
  name: "inception_resnet_b_6_concat"
  type: "Concat"
  bottom: "inception_resnet_b_6_path1_7x1_bn"
  bottom: "inception_resnet_b_6_path2_1x1_bn"
  top: "inception_resnet_b_6_concat"
}
layer {
  name: "inception_resnet_b_6_conv_1x1"
  type: "Convolution"
  bottom: "inception_resnet_b_6_concat"
  top: "inception_resnet_b_6_conv_1x1"
  param {
    name: "395"
    lr_mult: 1.0
    decay_mult: 1.0
  }
  convolution_param {
    num_output: 1152
    bias_term: false
    weight_filler {
      type: "xavier"
    }
    bias_filler {
      type: "constant"
      value: 0.0
    }
    pad_h: 0
    pad_w: 0
    kernel_h: 1
    kernel_w: 1
    stride_h: 1
    stride_w: 1
  }
}
layer {
  name: "inception_resnet_b_6_conv_1x1_bn"
  type: "BN"
  bottom: "inception_resnet_b_6_conv_1x1"
  top: "inception_resnet_b_6_conv_1x1_bn"
  param {
    name: "396"
    lr_mult: 1.0
    decay_mult: 0.0
  }
  param {
    name: "397"
    lr_mult: 1.0
    decay_mult: 0.0
  }
  param {
    name: "398"
  }
  param {
    name: "399"
  }
  bn_param {
    frozen: true
    slope_filler {
      type: "constant"
      value: 1.0
    }
    bias_filler {
      type: "constant"
      value: 0.0
    }
  }
}
layer {
  name: "inception_resnet_b_6_elt"
  type: "Eltwise"
  bottom: "inception_resnet_b_5_elt"
  bottom: "inception_resnet_b_6_conv_1x1_bn"
  top: "inception_resnet_b_6_elt"
  eltwise_param {
    operation: SUM
    coeff: 1
    coeff: 0.3
  }
}
layer {
  name: "inception_resnet_b_6_relu"
  type: "ReLU"
  bottom: "inception_resnet_b_6_elt"
  top: "inception_resnet_b_6_elt"
}
layer {
  name: "inception_resnet_b_7_path1_1x1"
  type: "Convolution"
  bottom: "inception_resnet_b_6_elt"
  top: "inception_resnet_b_7_path1_1x1"
  param {
    name: "400"
    lr_mult: 1.0
    decay_mult: 1.0
  }
  convolution_param {
    num_output: 128
    bias_term: false
    weight_filler {
      type: "xavier"
    }
    bias_filler {
      type: "constant"
      value: 0.0
    }
    pad_h: 0
    pad_w: 0
    kernel_h: 1
    kernel_w: 1
    stride_h: 1
    stride_w: 1
  }
}
layer {
  name: "inception_resnet_b_7_path1_1x1_bn"
  type: "BN"
  bottom: "inception_resnet_b_7_path1_1x1"
  top: "inception_resnet_b_7_path1_1x1_bn"
  param {
    name: "401"
    lr_mult: 1.0
    decay_mult: 0.0
  }
  param {
    name: "402"
    lr_mult: 1.0
    decay_mult: 0.0
  }
  param {
    name: "403"
  }
  param {
    name: "404"
  }
  bn_param {
    frozen: true
    slope_filler {
      type: "constant"
      value: 1.0
    }
    bias_filler {
      type: "constant"
      value: 0.0
    }
  }
}
layer {
  name: "inception_resnet_b_7_path1_1x1_relu"
  type: "ReLU"
  bottom: "inception_resnet_b_7_path1_1x1_bn"
  top: "inception_resnet_b_7_path1_1x1_bn"
}
layer {
  name: "inception_resnet_b_7_path1_1x7"
  type: "Convolution"
  bottom: "inception_resnet_b_7_path1_1x1_bn"
  top: "inception_resnet_b_7_path1_1x7"
  param {
    name: "405"
    lr_mult: 1.0
    decay_mult: 1.0
  }
  convolution_param {
    num_output: 160
    bias_term: false
    weight_filler {
      type: "xavier"
    }
    bias_filler {
      type: "constant"
      value: 0.0
    }
    pad_h: 0
    pad_w: 6
    kernel_h: 1
    kernel_w: 7
    dilation: 2
    stride_h: 1
    stride_w: 1
  }
}
layer {
  name: "inception_resnet_b_7_path1_1x7_bn"
  type: "BN"
  bottom: "inception_resnet_b_7_path1_1x7"
  top: "inception_resnet_b_7_path1_1x7_bn"
  param {
    name: "406"
    lr_mult: 1.0
    decay_mult: 0.0
  }
  param {
    name: "407"
    lr_mult: 1.0
    decay_mult: 0.0
  }
  param {
    name: "408"
  }
  param {
    name: "409"
  }
  bn_param {
    frozen: true
    slope_filler {
      type: "constant"
      value: 1.0
    }
    bias_filler {
      type: "constant"
      value: 0.0
    }
  }
}
layer {
  name: "inception_resnet_b_7_path1_1x7_relu"
  type: "ReLU"
  bottom: "inception_resnet_b_7_path1_1x7_bn"
  top: "inception_resnet_b_7_path1_1x7_bn"
}
layer {
  name: "inception_resnet_b_7_path1_7x1"
  type: "Convolution"
  bottom: "inception_resnet_b_7_path1_1x7_bn"
  top: "inception_resnet_b_7_path1_7x1"
  param {
    name: "410"
    lr_mult: 1.0
    decay_mult: 1.0
  }
  convolution_param {
    num_output: 192
    bias_term: false
    weight_filler {
      type: "xavier"
    }
    bias_filler {
      type: "constant"
      value: 0.0
    }
    pad_h: 6
    pad_w: 0
    kernel_h: 7
    kernel_w: 1
    dilation: 2
    stride_h: 1
    stride_w: 1
  }
}
layer {
  name: "inception_resnet_b_7_path1_7x1_bn"
  type: "BN"
  bottom: "inception_resnet_b_7_path1_7x1"
  top: "inception_resnet_b_7_path1_7x1_bn"
  param {
    name: "411"
    lr_mult: 1.0
    decay_mult: 0.0
  }
  param {
    name: "412"
    lr_mult: 1.0
    decay_mult: 0.0
  }
  param {
    name: "413"
  }
  param {
    name: "414"
  }
  bn_param {
    frozen: true
    slope_filler {
      type: "constant"
      value: 1.0
    }
    bias_filler {
      type: "constant"
      value: 0.0
    }
  }
}
layer {
  name: "inception_resnet_b_7_path1_7x1_relu"
  type: "ReLU"
  bottom: "inception_resnet_b_7_path1_7x1_bn"
  top: "inception_resnet_b_7_path1_7x1_bn"
}
layer {
  name: "inception_resnet_b_7_path2_1x1"
  type: "Convolution"
  bottom: "inception_resnet_b_6_elt"
  top: "inception_resnet_b_7_path2_1x1"
  param {
    name: "415"
    lr_mult: 1.0
    decay_mult: 1.0
  }
  convolution_param {
    num_output: 192
    bias_term: false
    weight_filler {
      type: "xavier"
    }
    bias_filler {
      type: "constant"
      value: 0.0
    }
    pad_h: 0
    pad_w: 0
    kernel_h: 1
    kernel_w: 1
    stride_h: 1
    stride_w: 1
  }
}
layer {
  name: "inception_resnet_b_7_path2_1x1_bn"
  type: "BN"
  bottom: "inception_resnet_b_7_path2_1x1"
  top: "inception_resnet_b_7_path2_1x1_bn"
  param {
    name: "416"
    lr_mult: 1.0
    decay_mult: 0.0
  }
  param {
    name: "417"
    lr_mult: 1.0
    decay_mult: 0.0
  }
  param {
    name: "418"
  }
  param {
    name: "419"
  }
  bn_param {
    frozen: true
    slope_filler {
      type: "constant"
      value: 1.0
    }
    bias_filler {
      type: "constant"
      value: 0.0
    }
  }
}
layer {
  name: "inception_resnet_b_7_path2_1x1_relu"
  type: "ReLU"
  bottom: "inception_resnet_b_7_path2_1x1_bn"
  top: "inception_resnet_b_7_path2_1x1_bn"
}
layer {
  name: "inception_resnet_b_7_concat"
  type: "Concat"
  bottom: "inception_resnet_b_7_path1_7x1_bn"
  bottom: "inception_resnet_b_7_path2_1x1_bn"
  top: "inception_resnet_b_7_concat"
}
layer {
  name: "inception_resnet_b_7_conv_1x1"
  type: "Convolution"
  bottom: "inception_resnet_b_7_concat"
  top: "inception_resnet_b_7_conv_1x1"
  param {
    name: "420"
    lr_mult: 1.0
    decay_mult: 1.0
  }
  convolution_param {
    num_output: 1152
    bias_term: false
    weight_filler {
      type: "xavier"
    }
    bias_filler {
      type: "constant"
      value: 0.0
    }
    pad_h: 0
    pad_w: 0
    kernel_h: 1
    kernel_w: 1
    stride_h: 1
    stride_w: 1
  }
}
layer {
  name: "inception_resnet_b_7_conv_1x1_bn"
  type: "BN"
  bottom: "inception_resnet_b_7_conv_1x1"
  top: "inception_resnet_b_7_conv_1x1_bn"
  param {
    name: "421"
    lr_mult: 1.0
    decay_mult: 0.0
  }
  param {
    name: "422"
    lr_mult: 1.0
    decay_mult: 0.0
  }
  param {
    name: "423"
  }
  param {
    name: "424"
  }
  bn_param {
    frozen: true
    slope_filler {
      type: "constant"
      value: 1.0
    }
    bias_filler {
      type: "constant"
      value: 0.0
    }
  }
}
layer {
  name: "inception_resnet_b_7_elt"
  type: "Eltwise"
  bottom: "inception_resnet_b_6_elt"
  bottom: "inception_resnet_b_7_conv_1x1_bn"
  top: "inception_resnet_b_7_elt"
  eltwise_param {
    operation: SUM
    coeff: 1
    coeff: 0.3
  }
}
layer {
  name: "inception_resnet_b_7_relu"
  type: "ReLU"
  bottom: "inception_resnet_b_7_elt"
  top: "inception_resnet_b_7_elt"
}
layer {
  name: "inception_resnet_b_8_path1_1x1"
  type: "Convolution"
  bottom: "inception_resnet_b_7_elt"
  top: "inception_resnet_b_8_path1_1x1"
  param {
    name: "425"
    lr_mult: 1.0
    decay_mult: 1.0
  }
  convolution_param {
    num_output: 128
    bias_term: false
    weight_filler {
      type: "xavier"
    }
    bias_filler {
      type: "constant"
      value: 0.0
    }
    pad_h: 0
    pad_w: 0
    kernel_h: 1
    kernel_w: 1
    stride_h: 1
    stride_w: 1
  }
}
layer {
  name: "inception_resnet_b_8_path1_1x1_bn"
  type: "BN"
  bottom: "inception_resnet_b_8_path1_1x1"
  top: "inception_resnet_b_8_path1_1x1_bn"
  param {
    name: "426"
    lr_mult: 1.0
    decay_mult: 0.0
  }
  param {
    name: "427"
    lr_mult: 1.0
    decay_mult: 0.0
  }
  param {
    name: "428"
  }
  param {
    name: "429"
  }
  bn_param {
    frozen: true
    slope_filler {
      type: "constant"
      value: 1.0
    }
    bias_filler {
      type: "constant"
      value: 0.0
    }
  }
}
layer {
  name: "inception_resnet_b_8_path1_1x1_relu"
  type: "ReLU"
  bottom: "inception_resnet_b_8_path1_1x1_bn"
  top: "inception_resnet_b_8_path1_1x1_bn"
}
layer {
  name: "inception_resnet_b_8_path1_1x7"
  type: "Convolution"
  bottom: "inception_resnet_b_8_path1_1x1_bn"
  top: "inception_resnet_b_8_path1_1x7"
  param {
    name: "430"
    lr_mult: 1.0
    decay_mult: 1.0
  }
  convolution_param {
    num_output: 160
    bias_term: false
    weight_filler {
      type: "xavier"
    }
    bias_filler {
      type: "constant"
      value: 0.0
    }
    pad_h: 0
    pad_w: 6
    kernel_h: 1
    kernel_w: 7
    dilation: 2
    stride_h: 1
    stride_w: 1
  }
}
layer {
  name: "inception_resnet_b_8_path1_1x7_bn"
  type: "BN"
  bottom: "inception_resnet_b_8_path1_1x7"
  top: "inception_resnet_b_8_path1_1x7_bn"
  param {
    name: "431"
    lr_mult: 1.0
    decay_mult: 0.0
  }
  param {
    name: "432"
    lr_mult: 1.0
    decay_mult: 0.0
  }
  param {
    name: "433"
  }
  param {
    name: "434"
  }
  bn_param {
    frozen: true
    slope_filler {
      type: "constant"
      value: 1.0
    }
    bias_filler {
      type: "constant"
      value: 0.0
    }
  }
}
layer {
  name: "inception_resnet_b_8_path1_1x7_relu"
  type: "ReLU"
  bottom: "inception_resnet_b_8_path1_1x7_bn"
  top: "inception_resnet_b_8_path1_1x7_bn"
}
layer {
  name: "inception_resnet_b_8_path1_7x1"
  type: "Convolution"
  bottom: "inception_resnet_b_8_path1_1x7_bn"
  top: "inception_resnet_b_8_path1_7x1"
  param {
    name: "435"
    lr_mult: 1.0
    decay_mult: 1.0
  }
  convolution_param {
    num_output: 192
    bias_term: false
    weight_filler {
      type: "xavier"
    }
    bias_filler {
      type: "constant"
      value: 0.0
    }
    pad_h: 6
    pad_w: 0
    kernel_h: 7
    kernel_w: 1
    dilation: 2
    stride_h: 1
    stride_w: 1
  }
}
layer {
  name: "inception_resnet_b_8_path1_7x1_bn"
  type: "BN"
  bottom: "inception_resnet_b_8_path1_7x1"
  top: "inception_resnet_b_8_path1_7x1_bn"
  param {
    name: "436"
    lr_mult: 1.0
    decay_mult: 0.0
  }
  param {
    name: "437"
    lr_mult: 1.0
    decay_mult: 0.0
  }
  param {
    name: "438"
  }
  param {
    name: "439"
  }
  bn_param {
    frozen: true
    slope_filler {
      type: "constant"
      value: 1.0
    }
    bias_filler {
      type: "constant"
      value: 0.0
    }
  }
}
layer {
  name: "inception_resnet_b_8_path1_7x1_relu"
  type: "ReLU"
  bottom: "inception_resnet_b_8_path1_7x1_bn"
  top: "inception_resnet_b_8_path1_7x1_bn"
}
layer {
  name: "inception_resnet_b_8_path2_1x1"
  type: "Convolution"
  bottom: "inception_resnet_b_7_elt"
  top: "inception_resnet_b_8_path2_1x1"
  param {
    name: "440"
    lr_mult: 1.0
    decay_mult: 1.0
  }
  convolution_param {
    num_output: 192
    bias_term: false
    weight_filler {
      type: "xavier"
    }
    bias_filler {
      type: "constant"
      value: 0.0
    }
    pad_h: 0
    pad_w: 0
    kernel_h: 1
    kernel_w: 1
    stride_h: 1
    stride_w: 1
  }
}
layer {
  name: "inception_resnet_b_8_path2_1x1_bn"
  type: "BN"
  bottom: "inception_resnet_b_8_path2_1x1"
  top: "inception_resnet_b_8_path2_1x1_bn"
  param {
    name: "441"
    lr_mult: 1.0
    decay_mult: 0.0
  }
  param {
    name: "442"
    lr_mult: 1.0
    decay_mult: 0.0
  }
  param {
    name: "443"
  }
  param {
    name: "444"
  }
  bn_param {
    frozen: true
    slope_filler {
      type: "constant"
      value: 1.0
    }
    bias_filler {
      type: "constant"
      value: 0.0
    }
  }
}
layer {
  name: "inception_resnet_b_8_path2_1x1_relu"
  type: "ReLU"
  bottom: "inception_resnet_b_8_path2_1x1_bn"
  top: "inception_resnet_b_8_path2_1x1_bn"
}
layer {
  name: "inception_resnet_b_8_concat"
  type: "Concat"
  bottom: "inception_resnet_b_8_path1_7x1_bn"
  bottom: "inception_resnet_b_8_path2_1x1_bn"
  top: "inception_resnet_b_8_concat"
}
layer {
  name: "inception_resnet_b_8_conv_1x1"
  type: "Convolution"
  bottom: "inception_resnet_b_8_concat"
  top: "inception_resnet_b_8_conv_1x1"
  param {
    name: "445"
    lr_mult: 1.0
    decay_mult: 1.0
  }
  convolution_param {
    num_output: 1152
    bias_term: false
    weight_filler {
      type: "xavier"
    }
    bias_filler {
      type: "constant"
      value: 0.0
    }
    pad_h: 0
    pad_w: 0
    kernel_h: 1
    kernel_w: 1
    stride_h: 1
    stride_w: 1
  }
}
layer {
  name: "inception_resnet_b_8_conv_1x1_bn"
  type: "BN"
  bottom: "inception_resnet_b_8_conv_1x1"
  top: "inception_resnet_b_8_conv_1x1_bn"
  param {
    name: "446"
    lr_mult: 1.0
    decay_mult: 0.0
  }
  param {
    name: "447"
    lr_mult: 1.0
    decay_mult: 0.0
  }
  param {
    name: "448"
  }
  param {
    name: "449"
  }
  bn_param {
    frozen: true
    slope_filler {
      type: "constant"
      value: 1.0
    }
    bias_filler {
      type: "constant"
      value: 0.0
    }
  }
}
layer {
  name: "inception_resnet_b_8_elt"
  type: "Eltwise"
  bottom: "inception_resnet_b_7_elt"
  bottom: "inception_resnet_b_8_conv_1x1_bn"
  top: "inception_resnet_b_8_elt"
  eltwise_param {
    operation: SUM
    coeff: 1
    coeff: 0.3
  }
}
layer {
  name: "inception_resnet_b_8_relu"
  type: "ReLU"
  bottom: "inception_resnet_b_8_elt"
  top: "inception_resnet_b_8_elt"
}
layer {
  name: "inception_resnet_b_9_path1_1x1"
  type: "Convolution"
  bottom: "inception_resnet_b_8_elt"
  top: "inception_resnet_b_9_path1_1x1"
  param {
    name: "450"
    lr_mult: 1.0
    decay_mult: 1.0
  }
  convolution_param {
    num_output: 128
    bias_term: false
    weight_filler {
      type: "xavier"
    }
    bias_filler {
      type: "constant"
      value: 0.0
    }
    pad_h: 0
    pad_w: 0
    kernel_h: 1
    kernel_w: 1
    stride_h: 1
    stride_w: 1
  }
}
layer {
  name: "inception_resnet_b_9_path1_1x1_bn"
  type: "BN"
  bottom: "inception_resnet_b_9_path1_1x1"
  top: "inception_resnet_b_9_path1_1x1_bn"
  param {
    name: "451"
    lr_mult: 1.0
    decay_mult: 0.0
  }
  param {
    name: "452"
    lr_mult: 1.0
    decay_mult: 0.0
  }
  param {
    name: "453"
  }
  param {
    name: "454"
  }
  bn_param {
    frozen: true
    slope_filler {
      type: "constant"
      value: 1.0
    }
    bias_filler {
      type: "constant"
      value: 0.0
    }
  }
}
layer {
  name: "inception_resnet_b_9_path1_1x1_relu"
  type: "ReLU"
  bottom: "inception_resnet_b_9_path1_1x1_bn"
  top: "inception_resnet_b_9_path1_1x1_bn"
}
layer {
  name: "inception_resnet_b_9_path1_1x7"
  type: "Convolution"
  bottom: "inception_resnet_b_9_path1_1x1_bn"
  top: "inception_resnet_b_9_path1_1x7"
  param {
    name: "455"
    lr_mult: 1.0
    decay_mult: 1.0
  }
  convolution_param {
    num_output: 160
    bias_term: false
    weight_filler {
      type: "xavier"
    }
    bias_filler {
      type: "constant"
      value: 0.0
    }
    pad_h: 0
    pad_w: 6
    kernel_h: 1
    kernel_w: 7
    dilation: 2
    stride_h: 1
    stride_w: 1
  }
}
layer {
  name: "inception_resnet_b_9_path1_1x7_bn"
  type: "BN"
  bottom: "inception_resnet_b_9_path1_1x7"
  top: "inception_resnet_b_9_path1_1x7_bn"
  param {
    name: "456"
    lr_mult: 1.0
    decay_mult: 0.0
  }
  param {
    name: "457"
    lr_mult: 1.0
    decay_mult: 0.0
  }
  param {
    name: "458"
  }
  param {
    name: "459"
  }
  bn_param {
    frozen: true
    slope_filler {
      type: "constant"
      value: 1.0
    }
    bias_filler {
      type: "constant"
      value: 0.0
    }
  }
}
layer {
  name: "inception_resnet_b_9_path1_1x7_relu"
  type: "ReLU"
  bottom: "inception_resnet_b_9_path1_1x7_bn"
  top: "inception_resnet_b_9_path1_1x7_bn"
}
layer {
  name: "inception_resnet_b_9_path1_7x1"
  type: "Convolution"
  bottom: "inception_resnet_b_9_path1_1x7_bn"
  top: "inception_resnet_b_9_path1_7x1"
  param {
    name: "460"
    lr_mult: 1.0
    decay_mult: 1.0
  }
  convolution_param {
    num_output: 192
    bias_term: false
    weight_filler {
      type: "xavier"
    }
    bias_filler {
      type: "constant"
      value: 0.0
    }
    pad_h: 6
    pad_w: 0
    kernel_h: 7
    kernel_w: 1
    dilation: 2
    stride_h: 1
    stride_w: 1
  }
}
layer {
  name: "inception_resnet_b_9_path1_7x1_bn"
  type: "BN"
  bottom: "inception_resnet_b_9_path1_7x1"
  top: "inception_resnet_b_9_path1_7x1_bn"
  param {
    name: "461"
    lr_mult: 1.0
    decay_mult: 0.0
  }
  param {
    name: "462"
    lr_mult: 1.0
    decay_mult: 0.0
  }
  param {
    name: "463"
  }
  param {
    name: "464"
  }
  bn_param {
    frozen: true
    slope_filler {
      type: "constant"
      value: 1.0
    }
    bias_filler {
      type: "constant"
      value: 0.0
    }
  }
}
layer {
  name: "inception_resnet_b_9_path1_7x1_relu"
  type: "ReLU"
  bottom: "inception_resnet_b_9_path1_7x1_bn"
  top: "inception_resnet_b_9_path1_7x1_bn"
}
layer {
  name: "inception_resnet_b_9_path2_1x1"
  type: "Convolution"
  bottom: "inception_resnet_b_8_elt"
  top: "inception_resnet_b_9_path2_1x1"
  param {
    name: "465"
    lr_mult: 1.0
    decay_mult: 1.0
  }
  convolution_param {
    num_output: 192
    bias_term: false
    weight_filler {
      type: "xavier"
    }
    bias_filler {
      type: "constant"
      value: 0.0
    }
    pad_h: 0
    pad_w: 0
    kernel_h: 1
    kernel_w: 1
    stride_h: 1
    stride_w: 1
  }
}
layer {
  name: "inception_resnet_b_9_path2_1x1_bn"
  type: "BN"
  bottom: "inception_resnet_b_9_path2_1x1"
  top: "inception_resnet_b_9_path2_1x1_bn"
  param {
    name: "466"
    lr_mult: 1.0
    decay_mult: 0.0
  }
  param {
    name: "467"
    lr_mult: 1.0
    decay_mult: 0.0
  }
  param {
    name: "468"
  }
  param {
    name: "469"
  }
  bn_param {
    frozen: true
    slope_filler {
      type: "constant"
      value: 1.0
    }
    bias_filler {
      type: "constant"
      value: 0.0
    }
  }
}
layer {
  name: "inception_resnet_b_9_path2_1x1_relu"
  type: "ReLU"
  bottom: "inception_resnet_b_9_path2_1x1_bn"
  top: "inception_resnet_b_9_path2_1x1_bn"
}
layer {
  name: "inception_resnet_b_9_concat"
  type: "Concat"
  bottom: "inception_resnet_b_9_path1_7x1_bn"
  bottom: "inception_resnet_b_9_path2_1x1_bn"
  top: "inception_resnet_b_9_concat"
}
layer {
  name: "inception_resnet_b_9_conv_1x1"
  type: "Convolution"
  bottom: "inception_resnet_b_9_concat"
  top: "inception_resnet_b_9_conv_1x1"
  param {
    name: "470"
    lr_mult: 1.0
    decay_mult: 1.0
  }
  convolution_param {
    num_output: 1152
    bias_term: false
    weight_filler {
      type: "xavier"
    }
    bias_filler {
      type: "constant"
      value: 0.0
    }
    pad_h: 0
    pad_w: 0
    kernel_h: 1
    kernel_w: 1
    stride_h: 1
    stride_w: 1
  }
}
layer {
  name: "inception_resnet_b_9_conv_1x1_bn"
  type: "BN"
  bottom: "inception_resnet_b_9_conv_1x1"
  top: "inception_resnet_b_9_conv_1x1_bn"
  param {
    name: "471"
    lr_mult: 1.0
    decay_mult: 0.0
  }
  param {
    name: "472"
    lr_mult: 1.0
    decay_mult: 0.0
  }
  param {
    name: "473"
  }
  param {
    name: "474"
  }
  bn_param {
    frozen: true
    slope_filler {
      type: "constant"
      value: 1.0
    }
    bias_filler {
      type: "constant"
      value: 0.0
    }
  }
}
layer {
  name: "inception_resnet_b_9_elt"
  type: "Eltwise"
  bottom: "inception_resnet_b_8_elt"
  bottom: "inception_resnet_b_9_conv_1x1_bn"
  top: "inception_resnet_b_9_elt"
  eltwise_param {
    operation: SUM
    coeff: 1
    coeff: 0.3
  }
}
layer {
  name: "inception_resnet_b_9_relu"
  type: "ReLU"
  bottom: "inception_resnet_b_9_elt"
  top: "inception_resnet_b_9_elt"
}
layer {
  name: "inception_resnet_b_10_path1_1x1"
  type: "Convolution"
  bottom: "inception_resnet_b_9_elt"
  top: "inception_resnet_b_10_path1_1x1"
  param {
    name: "475"
    lr_mult: 1.0
    decay_mult: 1.0
  }
  convolution_param {
    num_output: 128
    bias_term: false
    weight_filler {
      type: "xavier"
    }
    bias_filler {
      type: "constant"
      value: 0.0
    }
    pad_h: 0
    pad_w: 0
    kernel_h: 1
    kernel_w: 1
    stride_h: 1
    stride_w: 1
  }
}
layer {
  name: "inception_resnet_b_10_path1_1x1_bn"
  type: "BN"
  bottom: "inception_resnet_b_10_path1_1x1"
  top: "inception_resnet_b_10_path1_1x1_bn"
  param {
    name: "476"
    lr_mult: 1.0
    decay_mult: 0.0
  }
  param {
    name: "477"
    lr_mult: 1.0
    decay_mult: 0.0
  }
  param {
    name: "478"
  }
  param {
    name: "479"
  }
  bn_param {
    frozen: true
    slope_filler {
      type: "constant"
      value: 1.0
    }
    bias_filler {
      type: "constant"
      value: 0.0
    }
  }
}
layer {
  name: "inception_resnet_b_10_path1_1x1_relu"
  type: "ReLU"
  bottom: "inception_resnet_b_10_path1_1x1_bn"
  top: "inception_resnet_b_10_path1_1x1_bn"
}
layer {
  name: "inception_resnet_b_10_path1_1x7"
  type: "Convolution"
  bottom: "inception_resnet_b_10_path1_1x1_bn"
  top: "inception_resnet_b_10_path1_1x7"
  param {
    name: "480"
    lr_mult: 1.0
    decay_mult: 1.0
  }
  convolution_param {
    num_output: 160
    bias_term: false
    weight_filler {
      type: "xavier"
    }
    bias_filler {
      type: "constant"
      value: 0.0
    }
    pad_h: 0
    pad_w: 6
    kernel_h: 1
    kernel_w: 7
    dilation: 2
    stride_h: 1
    stride_w: 1
  }
}
layer {
  name: "inception_resnet_b_10_path1_1x7_bn"
  type: "BN"
  bottom: "inception_resnet_b_10_path1_1x7"
  top: "inception_resnet_b_10_path1_1x7_bn"
  param {
    name: "481"
    lr_mult: 1.0
    decay_mult: 0.0
  }
  param {
    name: "482"
    lr_mult: 1.0
    decay_mult: 0.0
  }
  param {
    name: "483"
  }
  param {
    name: "484"
  }
  bn_param {
    frozen: true
    slope_filler {
      type: "constant"
      value: 1.0
    }
    bias_filler {
      type: "constant"
      value: 0.0
    }
  }
}
layer {
  name: "inception_resnet_b_10_path1_1x7_relu"
  type: "ReLU"
  bottom: "inception_resnet_b_10_path1_1x7_bn"
  top: "inception_resnet_b_10_path1_1x7_bn"
}
layer {
  name: "inception_resnet_b_10_path1_7x1"
  type: "Convolution"
  bottom: "inception_resnet_b_10_path1_1x7_bn"
  top: "inception_resnet_b_10_path1_7x1"
  param {
    name: "485"
    lr_mult: 1.0
    decay_mult: 1.0
  }
  convolution_param {
    num_output: 192
    bias_term: false
    weight_filler {
      type: "xavier"
    }
    bias_filler {
      type: "constant"
      value: 0.0
    }
    pad_h: 6
    pad_w: 0
    kernel_h: 7
    kernel_w: 1
    dilation: 2
    stride_h: 1
    stride_w: 1
  }
}
layer {
  name: "inception_resnet_b_10_path1_7x1_bn"
  type: "BN"
  bottom: "inception_resnet_b_10_path1_7x1"
  top: "inception_resnet_b_10_path1_7x1_bn"
  param {
    name: "486"
    lr_mult: 1.0
    decay_mult: 0.0
  }
  param {
    name: "487"
    lr_mult: 1.0
    decay_mult: 0.0
  }
  param {
    name: "488"
  }
  param {
    name: "489"
  }
  bn_param {
    frozen: true
    slope_filler {
      type: "constant"
      value: 1.0
    }
    bias_filler {
      type: "constant"
      value: 0.0
    }
  }
}
layer {
  name: "inception_resnet_b_10_path1_7x1_relu"
  type: "ReLU"
  bottom: "inception_resnet_b_10_path1_7x1_bn"
  top: "inception_resnet_b_10_path1_7x1_bn"
}
layer {
  name: "inception_resnet_b_10_path2_1x1"
  type: "Convolution"
  bottom: "inception_resnet_b_9_elt"
  top: "inception_resnet_b_10_path2_1x1"
  param {
    name: "490"
    lr_mult: 1.0
    decay_mult: 1.0
  }
  convolution_param {
    num_output: 192
    bias_term: false
    weight_filler {
      type: "xavier"
    }
    bias_filler {
      type: "constant"
      value: 0.0
    }
    pad_h: 0
    pad_w: 0
    kernel_h: 1
    kernel_w: 1
    stride_h: 1
    stride_w: 1
  }
}
layer {
  name: "inception_resnet_b_10_path2_1x1_bn"
  type: "BN"
  bottom: "inception_resnet_b_10_path2_1x1"
  top: "inception_resnet_b_10_path2_1x1_bn"
  param {
    name: "491"
    lr_mult: 1.0
    decay_mult: 0.0
  }
  param {
    name: "492"
    lr_mult: 1.0
    decay_mult: 0.0
  }
  param {
    name: "493"
  }
  param {
    name: "494"
  }
  bn_param {
    frozen: true
    slope_filler {
      type: "constant"
      value: 1.0
    }
    bias_filler {
      type: "constant"
      value: 0.0
    }
  }
}
layer {
  name: "inception_resnet_b_10_path2_1x1_relu"
  type: "ReLU"
  bottom: "inception_resnet_b_10_path2_1x1_bn"
  top: "inception_resnet_b_10_path2_1x1_bn"
}
layer {
  name: "inception_resnet_b_10_concat"
  type: "Concat"
  bottom: "inception_resnet_b_10_path1_7x1_bn"
  bottom: "inception_resnet_b_10_path2_1x1_bn"
  top: "inception_resnet_b_10_concat"
}
layer {
  name: "inception_resnet_b_10_conv_1x1"
  type: "Convolution"
  bottom: "inception_resnet_b_10_concat"
  top: "inception_resnet_b_10_conv_1x1"
  param {
    name: "495"
    lr_mult: 1.0
    decay_mult: 1.0
  }
  convolution_param {
    num_output: 1152
    bias_term: false
    weight_filler {
      type: "xavier"
    }
    bias_filler {
      type: "constant"
      value: 0.0
    }
    pad_h: 0
    pad_w: 0
    kernel_h: 1
    kernel_w: 1
    stride_h: 1
    stride_w: 1
  }
}
layer {
  name: "inception_resnet_b_10_conv_1x1_bn"
  type: "BN"
  bottom: "inception_resnet_b_10_conv_1x1"
  top: "inception_resnet_b_10_conv_1x1_bn"
  param {
    name: "496"
    lr_mult: 1.0
    decay_mult: 0.0
  }
  param {
    name: "497"
    lr_mult: 1.0
    decay_mult: 0.0
  }
  param {
    name: "498"
  }
  param {
    name: "499"
  }
  bn_param {
    frozen: true
    slope_filler {
      type: "constant"
      value: 1.0
    }
    bias_filler {
      type: "constant"
      value: 0.0
    }
  }
}
layer {
  name: "inception_resnet_b_10_elt"
  type: "Eltwise"
  bottom: "inception_resnet_b_9_elt"
  bottom: "inception_resnet_b_10_conv_1x1_bn"
  top: "inception_resnet_b_10_elt"
  eltwise_param {
    operation: SUM
    coeff: 1
    coeff: 0.3
  }
}
layer {
  name: "inception_resnet_b_10_relu"
  type: "ReLU"
  bottom: "inception_resnet_b_10_elt"
  top: "inception_resnet_b_10_elt"
}
layer {
  name: "reduction_b_path1_1x1"
  type: "Convolution"
  bottom: "inception_resnet_b_10_elt"
  top: "reduction_b_path1_1x1"
  param {
    name: "500"
    lr_mult: 1.0
    decay_mult: 1.0
  }
  convolution_param {
    num_output: 256
    bias_term: false
    weight_filler {
      type: "xavier"
    }
    bias_filler {
      type: "constant"
      value: 0.0
    }
    pad_h: 0
    pad_w: 0
    kernel_h: 1
    kernel_w: 1
    stride_h: 1
    stride_w: 1
  }
}
layer {
  name: "reduction_b_path1_1x1_bn"
  type: "BN"
  bottom: "reduction_b_path1_1x1"
  top: "reduction_b_path1_1x1_bn"
  param {
    name: "501"
    lr_mult: 1.0
    decay_mult: 0.0
  }
  param {
    name: "502"
    lr_mult: 1.0
    decay_mult: 0.0
  }
  param {
    name: "503"
  }
  param {
    name: "504"
  }
  bn_param {
    frozen: true
    slope_filler {
      type: "constant"
      value: 1.0
    }
    bias_filler {
      type: "constant"
      value: 0.0
    }
  }
}
layer {
  name: "reduction_b_path1_1x1_relu"
  type: "ReLU"
  bottom: "reduction_b_path1_1x1_bn"
  top: "reduction_b_path1_1x1_bn"
}
layer {
  name: "reduction_b_path1_3x3_1"
  type: "Convolution"
  bottom: "reduction_b_path1_1x1_bn"
  top: "reduction_b_path1_3x3_1"
  param {
    name: "505"
    lr_mult: 1.0
    decay_mult: 1.0
  }
  convolution_param {
    num_output: 256
    bias_term: false
    weight_filler {
      type: "xavier"
    }
    bias_filler {
      type: "constant"
      value: 0.0
    }
    pad_h: 2
    pad_w: 2
    kernel_h: 3
    kernel_w: 3
    dilation: 2
    stride_h: 1
    stride_w: 1
  }
}
layer {
  name: "reduction_b_path1_3x3_1_bn"
  type: "BN"
  bottom: "reduction_b_path1_3x3_1"
  top: "reduction_b_path1_3x3_1_bn"
  param {
    name: "506"
    lr_mult: 1.0
    decay_mult: 0.0
  }
  param {
    name: "507"
    lr_mult: 1.0
    decay_mult: 0.0
  }
  param {
    name: "508"
  }
  param {
    name: "509"
  }
  bn_param {
    frozen: true
    slope_filler {
      type: "constant"
      value: 1.0
    }
    bias_filler {
      type: "constant"
      value: 0.0
    }
  }
}
layer {
  name: "reduction_b_path1_3x3_1_relu"
  type: "ReLU"
  bottom: "reduction_b_path1_3x3_1_bn"
  top: "reduction_b_path1_3x3_1_bn"
}
layer {
  name: "reduction_b_path1_3x3_2"
  type: "Convolution"
  bottom: "reduction_b_path1_3x3_1_bn"
  top: "reduction_b_path1_3x3_2"
  param {
    name: "510"
    lr_mult: 1.0
    decay_mult: 1.0
  }
  convolution_param {
    num_output: 256
    bias_term: false
    weight_filler {
      type: "xavier"
    }
    bias_filler {
      type: "constant"
      value: 0.0
    }
    pad_h: 2
    pad_w: 2
    kernel_h: 3
    kernel_w: 3
    dilation: 2
    stride_h: 1
    stride_w: 1
  }
}
layer {
  name: "reduction_b_path1_3x3_2_bn"
  type: "BN"
  bottom: "reduction_b_path1_3x3_2"
  top: "reduction_b_path1_3x3_2_bn"
  param {
    name: "511"
    lr_mult: 1.0
    decay_mult: 0.0
  }
  param {
    name: "512"
    lr_mult: 1.0
    decay_mult: 0.0
  }
  param {
    name: "513"
  }
  param {
    name: "514"
  }
  bn_param {
    frozen: true
    slope_filler {
      type: "constant"
      value: 1.0
    }
    bias_filler {
      type: "constant"
      value: 0.0
    }
  }
}
layer {
  name: "reduction_b_path1_3x3_2_relu"
  type: "ReLU"
  bottom: "reduction_b_path1_3x3_2_bn"
  top: "reduction_b_path1_3x3_2_bn"
}
layer {
  name: "reduction_b_path2_1x1"
  type: "Convolution"
  bottom: "inception_resnet_b_10_elt"
  top: "reduction_b_path2_1x1"
  param {
    name: "515"
    lr_mult: 1.0
    decay_mult: 1.0
  }
  convolution_param {
    num_output: 256
    bias_term: false
    weight_filler {
      type: "xavier"
    }
    bias_filler {
      type: "constant"
      value: 0.0
    }
    pad_h: 0
    pad_w: 0
    kernel_h: 1
    kernel_w: 1
    stride_h: 1
    stride_w: 1
  }
}
layer {
  name: "reduction_b_path2_1x1_bn"
  type: "BN"
  bottom: "reduction_b_path2_1x1"
  top: "reduction_b_path2_1x1_bn"
  param {
    name: "516"
    lr_mult: 1.0
    decay_mult: 0.0
  }
  param {
    name: "517"
    lr_mult: 1.0
    decay_mult: 0.0
  }
  param {
    name: "518"
  }
  param {
    name: "519"
  }
  bn_param {
    frozen: true
    slope_filler {
      type: "constant"
      value: 1.0
    }
    bias_filler {
      type: "constant"
      value: 0.0
    }
  }
}
layer {
  name: "reduction_b_path2_1x1_relu"
  type: "ReLU"
  bottom: "reduction_b_path2_1x1_bn"
  top: "reduction_b_path2_1x1_bn"
}
layer {
  name: "reduction_b_path2_3x3"
  type: "Convolution"
  bottom: "reduction_b_path2_1x1_bn"
  top: "reduction_b_path2_3x3"
  param {
    name: "520"
    lr_mult: 1.0
    decay_mult: 1.0
  }
  convolution_param {
    num_output: 256
    bias_term: false
    weight_filler {
      type: "xavier"
    }
    bias_filler {
      type: "constant"
      value: 0.0
    }
    pad_h: 2
    pad_w: 2
    kernel_h: 3
    kernel_w: 3
    dilation: 2
    stride_h: 1
    stride_w: 1
  }
}
layer {
  name: "reduction_b_path2_3x3_bn"
  type: "BN"
  bottom: "reduction_b_path2_3x3"
  top: "reduction_b_path2_3x3_bn"
  param {
    name: "521"
    lr_mult: 1.0
    decay_mult: 0.0
  }
  param {
    name: "522"
    lr_mult: 1.0
    decay_mult: 0.0
  }
  param {
    name: "523"
  }
  param {
    name: "524"
  }
  bn_param {
    frozen: true
    slope_filler {
      type: "constant"
      value: 1.0
    }
    bias_filler {
      type: "constant"
      value: 0.0
    }
  }
}
layer {
  name: "reduction_b_path2_3x3_relu"
  type: "ReLU"
  bottom: "reduction_b_path2_3x3_bn"
  top: "reduction_b_path2_3x3_bn"
}
layer {
  name: "reduction_b_path3_1x1"
  type: "Convolution"
  bottom: "inception_resnet_b_10_elt"
  top: "reduction_b_path3_1x1"
  param {
    name: "525"
    lr_mult: 1.0
    decay_mult: 1.0
  }
  convolution_param {
    num_output: 256
    bias_term: false
    weight_filler {
      type: "xavier"
    }
    bias_filler {
      type: "constant"
      value: 0.0
    }
    pad_h: 0
    pad_w: 0
    kernel_h: 1
    kernel_w: 1
    stride_h: 1
    stride_w: 1
  }
}
layer {
  name: "reduction_b_path3_1x1_bn"
  type: "BN"
  bottom: "reduction_b_path3_1x1"
  top: "reduction_b_path3_1x1_bn"
  param {
    name: "526"
    lr_mult: 1.0
    decay_mult: 0.0
  }
  param {
    name: "527"
    lr_mult: 1.0
    decay_mult: 0.0
  }
  param {
    name: "528"
  }
  param {
    name: "529"
  }
  bn_param {
    frozen: true
    slope_filler {
      type: "constant"
      value: 1.0
    }
    bias_filler {
      type: "constant"
      value: 0.0
    }
  }
}
layer {
  name: "reduction_b_path3_1x1_relu"
  type: "ReLU"
  bottom: "reduction_b_path3_1x1_bn"
  top: "reduction_b_path3_1x1_bn"
}
layer {
  name: "reduction_b_path3_3x3"
  type: "Convolution"
  bottom: "reduction_b_path3_1x1_bn"
  top: "reduction_b_path3_3x3"
  param {
    name: "530"
    lr_mult: 1.0
    decay_mult: 1.0
  }
  convolution_param {
    num_output: 384
    bias_term: false
    weight_filler {
      type: "xavier"
    }
    bias_filler {
      type: "constant"
      value: 0.0
    }
    pad_h: 2
    pad_w: 2
    kernel_h: 3
    kernel_w: 3
    dilation: 2
    stride_h: 1
    stride_w: 1
  }
}
layer {
  name: "reduction_b_path3_3x3_bn"
  type: "BN"
  bottom: "reduction_b_path3_3x3"
  top: "reduction_b_path3_3x3_bn"
  param {
    name: "531"
    lr_mult: 1.0
    decay_mult: 0.0
  }
  param {
    name: "532"
    lr_mult: 1.0
    decay_mult: 0.0
  }
  param {
    name: "533"
  }
  param {
    name: "534"
  }
  bn_param {
    frozen: true
    slope_filler {
      type: "constant"
      value: 1.0
    }
    bias_filler {
      type: "constant"
      value: 0.0
    }
  }
}
layer {
  name: "reduction_b_path3_3x3_relu"
  type: "ReLU"
  bottom: "reduction_b_path3_3x3_bn"
  top: "reduction_b_path3_3x3_bn"
}
layer {
  name: "reduction_b_path4_max"
  type: "Pooling"
  bottom: "inception_resnet_b_10_elt"
  top: "reduction_b_path4_max"
  pooling_param {
    pool: MAX
    kernel_h: 1
    kernel_w: 1
    stride_h: 1
    stride_w: 1
    pad_h: 0
    pad_w: 0
  }
}
layer {
  name: "reduction_b_concat"
  type: "Concat"
  bottom: "reduction_b_path1_3x3_2_bn"
  bottom: "reduction_b_path2_3x3_bn"
  bottom: "reduction_b_path3_3x3_bn"
  bottom: "reduction_b_path4_max"
  top: "reduction_b_concat"
}
layer {
  name: "inception_resnet_c_1_path1_1x1"
  type: "Convolution"
  bottom: "reduction_b_concat"
  top: "inception_resnet_c_1_path1_1x1"
  param {
    name: "535"
    lr_mult: 1.0
    decay_mult: 1.0
  }
  convolution_param {
    num_output: 192
    bias_term: false
    weight_filler {
      type: "xavier"
    }
    bias_filler {
      type: "constant"
      value: 0.0
    }
    pad_h: 0
    pad_w: 0
    kernel_h: 1
    kernel_w: 1
    stride_h: 1
    stride_w: 1
  }
}
layer {
  name: "inception_resnet_c_1_path1_1x1_bn"
  type: "BN"
  bottom: "inception_resnet_c_1_path1_1x1"
  top: "inception_resnet_c_1_path1_1x1_bn"
  param {
    name: "536"
    lr_mult: 1.0
    decay_mult: 0.0
  }
  param {
    name: "537"
    lr_mult: 1.0
    decay_mult: 0.0
  }
  param {
    name: "538"
  }
  param {
    name: "539"
  }
  bn_param {
    frozen: true
    slope_filler {
      type: "constant"
      value: 1.0
    }
    bias_filler {
      type: "constant"
      value: 0.0
    }
  }
}
layer {
  name: "inception_resnet_c_1_path1_1x1_relu"
  type: "ReLU"
  bottom: "inception_resnet_c_1_path1_1x1_bn"
  top: "inception_resnet_c_1_path1_1x1_bn"
}
layer {
  name: "inception_resnet_c_1_path1_1x3"
  type: "Convolution"
  bottom: "inception_resnet_c_1_path1_1x1_bn"
  top: "inception_resnet_c_1_path1_1x3"
  param {
    name: "540"
    lr_mult: 1.0
    decay_mult: 1.0
  }
  convolution_param {
    num_output: 224
    bias_term: false
    weight_filler {
      type: "xavier"
    }
    bias_filler {
      type: "constant"
      value: 0.0
    }
    pad_h: 0
    pad_w: 4
    kernel_h: 1
    kernel_w: 3
    dilation: 4
    stride_h: 1
    stride_w: 1
  }
}
layer {
  name: "inception_resnet_c_1_path1_1x3_bn"
  type: "BN"
  bottom: "inception_resnet_c_1_path1_1x3"
  top: "inception_resnet_c_1_path1_1x3_bn"
  param {
    name: "541"
    lr_mult: 1.0
    decay_mult: 0.0
  }
  param {
    name: "542"
    lr_mult: 1.0
    decay_mult: 0.0
  }
  param {
    name: "543"
  }
  param {
    name: "544"
  }
  bn_param {
    frozen: true
    slope_filler {
      type: "constant"
      value: 1.0
    }
    bias_filler {
      type: "constant"
      value: 0.0
    }
  }
}
layer {
  name: "inception_resnet_c_1_path1_1x3_relu"
  type: "ReLU"
  bottom: "inception_resnet_c_1_path1_1x3_bn"
  top: "inception_resnet_c_1_path1_1x3_bn"
}
layer {
  name: "inception_resnet_c_1_path1_3x1"
  type: "Convolution"
  bottom: "inception_resnet_c_1_path1_1x3_bn"
  top: "inception_resnet_c_1_path1_3x1"
  param {
    name: "545"
    lr_mult: 1.0
    decay_mult: 1.0
  }
  convolution_param {
    num_output: 256
    bias_term: false
    weight_filler {
      type: "xavier"
    }
    bias_filler {
      type: "constant"
      value: 0.0
    }
    pad_h: 4
    pad_w: 0
    kernel_h: 3
    kernel_w: 1
    dilation: 4
    stride_h: 1
    stride_w: 1
  }
}
layer {
  name: "inception_resnet_c_1_path1_3x1_bn"
  type: "BN"
  bottom: "inception_resnet_c_1_path1_3x1"
  top: "inception_resnet_c_1_path1_3x1_bn"
  param {
    name: "546"
    lr_mult: 1.0
    decay_mult: 0.0
  }
  param {
    name: "547"
    lr_mult: 1.0
    decay_mult: 0.0
  }
  param {
    name: "548"
  }
  param {
    name: "549"
  }
  bn_param {
    frozen: true
    slope_filler {
      type: "constant"
      value: 1.0
    }
    bias_filler {
      type: "constant"
      value: 0.0
    }
  }
}
layer {
  name: "inception_resnet_c_1_path1_3x1_relu"
  type: "ReLU"
  bottom: "inception_resnet_c_1_path1_3x1_bn"
  top: "inception_resnet_c_1_path1_3x1_bn"
}
layer {
  name: "inception_resnet_c_1_path2_1x1"
  type: "Convolution"
  bottom: "reduction_b_concat"
  top: "inception_resnet_c_1_path2_1x1"
  param {
    name: "550"
    lr_mult: 1.0
    decay_mult: 1.0
  }
  convolution_param {
    num_output: 192
    bias_term: false
    weight_filler {
      type: "xavier"
    }
    bias_filler {
      type: "constant"
      value: 0.0
    }
    pad_h: 0
    pad_w: 0
    kernel_h: 1
    kernel_w: 1
    stride_h: 1
    stride_w: 1
  }
}
layer {
  name: "inception_resnet_c_1_path2_1x1_bn"
  type: "BN"
  bottom: "inception_resnet_c_1_path2_1x1"
  top: "inception_resnet_c_1_path2_1x1_bn"
  param {
    name: "551"
    lr_mult: 1.0
    decay_mult: 0.0
  }
  param {
    name: "552"
    lr_mult: 1.0
    decay_mult: 0.0
  }
  param {
    name: "553"
  }
  param {
    name: "554"
  }
  bn_param {
    frozen: true
    slope_filler {
      type: "constant"
      value: 1.0
    }
    bias_filler {
      type: "constant"
      value: 0.0
    }
  }
}
layer {
  name: "inception_resnet_c_1_path2_1x1_relu"
  type: "ReLU"
  bottom: "inception_resnet_c_1_path2_1x1_bn"
  top: "inception_resnet_c_1_path2_1x1_bn"
}
layer {
  name: "inception_resnet_c_1_concat"
  type: "Concat"
  bottom: "inception_resnet_c_1_path1_3x1_bn"
  bottom: "inception_resnet_c_1_path2_1x1_bn"
  top: "inception_resnet_c_1_concat"
}
layer {
  name: "inception_resnet_c_1_conv_1x1"
  type: "Convolution"
  bottom: "inception_resnet_c_1_concat"
  top: "inception_resnet_c_1_conv_1x1"
  param {
    name: "555"
    lr_mult: 1.0
    decay_mult: 1.0
  }
  convolution_param {
    num_output: 2048
    bias_term: false
    weight_filler {
      type: "xavier"
    }
    bias_filler {
      type: "constant"
      value: 0.0
    }
    pad_h: 0
    pad_w: 0
    kernel_h: 1
    kernel_w: 1
    stride_h: 1
    stride_w: 1
  }
}
layer {
  name: "inception_resnet_c_1_conv_1x1_bn"
  type: "BN"
  bottom: "inception_resnet_c_1_conv_1x1"
  top: "inception_resnet_c_1_conv_1x1_bn"
  param {
    name: "556"
    lr_mult: 1.0
    decay_mult: 0.0
  }
  param {
    name: "557"
    lr_mult: 1.0
    decay_mult: 0.0
  }
  param {
    name: "558"
  }
  param {
    name: "559"
  }
  bn_param {
    frozen: true
    slope_filler {
      type: "constant"
      value: 1.0
    }
    bias_filler {
      type: "constant"
      value: 0.0
    }
  }
}
layer {
  name: "inception_resnet_c_1_elt"
  type: "Eltwise"
  bottom: "reduction_b_concat"
  bottom: "inception_resnet_c_1_conv_1x1_bn"
  top: "inception_resnet_c_1_elt"
  eltwise_param {
    operation: SUM
    coeff: 1
    coeff: 0.3
  }
}
layer {
  name: "inception_resnet_c_1_relu"
  type: "ReLU"
  bottom: "inception_resnet_c_1_elt"
  top: "inception_resnet_c_1_elt"
}
layer {
  name: "inception_resnet_c_2_path1_1x1"
  type: "Convolution"
  bottom: "inception_resnet_c_1_elt"
  top: "inception_resnet_c_2_path1_1x1"
  param {
    name: "560"
    lr_mult: 1.0
    decay_mult: 1.0
  }
  convolution_param {
    num_output: 192
    bias_term: false
    weight_filler {
      type: "xavier"
    }
    bias_filler {
      type: "constant"
      value: 0.0
    }
    pad_h: 0
    pad_w: 0
    kernel_h: 1
    kernel_w: 1
    stride_h: 1
    stride_w: 1
  }
}
layer {
  name: "inception_resnet_c_2_path1_1x1_bn"
  type: "BN"
  bottom: "inception_resnet_c_2_path1_1x1"
  top: "inception_resnet_c_2_path1_1x1_bn"
  param {
    name: "561"
    lr_mult: 1.0
    decay_mult: 0.0
  }
  param {
    name: "562"
    lr_mult: 1.0
    decay_mult: 0.0
  }
  param {
    name: "563"
  }
  param {
    name: "564"
  }
  bn_param {
    frozen: true
    slope_filler {
      type: "constant"
      value: 1.0
    }
    bias_filler {
      type: "constant"
      value: 0.0
    }
  }
}
layer {
  name: "inception_resnet_c_2_path1_1x1_relu"
  type: "ReLU"
  bottom: "inception_resnet_c_2_path1_1x1_bn"
  top: "inception_resnet_c_2_path1_1x1_bn"
}
layer {
  name: "inception_resnet_c_2_path1_1x3"
  type: "Convolution"
  bottom: "inception_resnet_c_2_path1_1x1_bn"
  top: "inception_resnet_c_2_path1_1x3"
  param {
    name: "565"
    lr_mult: 1.0
    decay_mult: 1.0
  }
  convolution_param {
    num_output: 224
    bias_term: false
    weight_filler {
      type: "xavier"
    }
    bias_filler {
      type: "constant"
      value: 0.0
    }
    pad_h: 0
    pad_w: 4
    kernel_h: 1
    kernel_w: 3
    dilation: 4
    stride_h: 1
    stride_w: 1
  }
}
layer {
  name: "inception_resnet_c_2_path1_1x3_bn"
  type: "BN"
  bottom: "inception_resnet_c_2_path1_1x3"
  top: "inception_resnet_c_2_path1_1x3_bn"
  param {
    name: "566"
    lr_mult: 1.0
    decay_mult: 0.0
  }
  param {
    name: "567"
    lr_mult: 1.0
    decay_mult: 0.0
  }
  param {
    name: "568"
  }
  param {
    name: "569"
  }
  bn_param {
    frozen: true
    slope_filler {
      type: "constant"
      value: 1.0
    }
    bias_filler {
      type: "constant"
      value: 0.0
    }
  }
}
layer {
  name: "inception_resnet_c_2_path1_1x3_relu"
  type: "ReLU"
  bottom: "inception_resnet_c_2_path1_1x3_bn"
  top: "inception_resnet_c_2_path1_1x3_bn"
}
layer {
  name: "inception_resnet_c_2_path1_3x1"
  type: "Convolution"
  bottom: "inception_resnet_c_2_path1_1x3_bn"
  top: "inception_resnet_c_2_path1_3x1"
  param {
    name: "570"
    lr_mult: 1.0
    decay_mult: 1.0
  }
  convolution_param {
    num_output: 256
    bias_term: false
    weight_filler {
      type: "xavier"
    }
    bias_filler {
      type: "constant"
      value: 0.0
    }
    pad_h: 4
    pad_w: 0
    kernel_h: 3
    kernel_w: 1
    dilation: 4
    stride_h: 1
    stride_w: 1
  }
}
layer {
  name: "inception_resnet_c_2_path1_3x1_bn"
  type: "BN"
  bottom: "inception_resnet_c_2_path1_3x1"
  top: "inception_resnet_c_2_path1_3x1_bn"
  param {
    name: "571"
    lr_mult: 1.0
    decay_mult: 0.0
  }
  param {
    name: "572"
    lr_mult: 1.0
    decay_mult: 0.0
  }
  param {
    name: "573"
  }
  param {
    name: "574"
  }
  bn_param {
    frozen: true
    slope_filler {
      type: "constant"
      value: 1.0
    }
    bias_filler {
      type: "constant"
      value: 0.0
    }
  }
}
layer {
  name: "inception_resnet_c_2_path1_3x1_relu"
  type: "ReLU"
  bottom: "inception_resnet_c_2_path1_3x1_bn"
  top: "inception_resnet_c_2_path1_3x1_bn"
}
layer {
  name: "inception_resnet_c_2_path2_1x1"
  type: "Convolution"
  bottom: "inception_resnet_c_1_elt"
  top: "inception_resnet_c_2_path2_1x1"
  param {
    name: "575"
    lr_mult: 1.0
    decay_mult: 1.0
  }
  convolution_param {
    num_output: 192
    bias_term: false
    weight_filler {
      type: "xavier"
    }
    bias_filler {
      type: "constant"
      value: 0.0
    }
    pad_h: 0
    pad_w: 0
    kernel_h: 1
    kernel_w: 1
    stride_h: 1
    stride_w: 1
  }
}
layer {
  name: "inception_resnet_c_2_path2_1x1_bn"
  type: "BN"
  bottom: "inception_resnet_c_2_path2_1x1"
  top: "inception_resnet_c_2_path2_1x1_bn"
  param {
    name: "576"
    lr_mult: 1.0
    decay_mult: 0.0
  }
  param {
    name: "577"
    lr_mult: 1.0
    decay_mult: 0.0
  }
  param {
    name: "578"
  }
  param {
    name: "579"
  }
  bn_param {
    frozen: true
    slope_filler {
      type: "constant"
      value: 1.0
    }
    bias_filler {
      type: "constant"
      value: 0.0
    }
  }
}
layer {
  name: "inception_resnet_c_2_path2_1x1_relu"
  type: "ReLU"
  bottom: "inception_resnet_c_2_path2_1x1_bn"
  top: "inception_resnet_c_2_path2_1x1_bn"
}
layer {
  name: "inception_resnet_c_2_concat"
  type: "Concat"
  bottom: "inception_resnet_c_2_path1_3x1_bn"
  bottom: "inception_resnet_c_2_path2_1x1_bn"
  top: "inception_resnet_c_2_concat"
}
layer {
  name: "inception_resnet_c_2_conv_1x1"
  type: "Convolution"
  bottom: "inception_resnet_c_2_concat"
  top: "inception_resnet_c_2_conv_1x1"
  param {
    name: "580"
    lr_mult: 1.0
    decay_mult: 1.0
  }
  convolution_param {
    num_output: 2048
    bias_term: false
    weight_filler {
      type: "xavier"
    }
    bias_filler {
      type: "constant"
      value: 0.0
    }
    pad_h: 0
    pad_w: 0
    kernel_h: 1
    kernel_w: 1
    stride_h: 1
    stride_w: 1
  }
}
layer {
  name: "inception_resnet_c_2_conv_1x1_bn"
  type: "BN"
  bottom: "inception_resnet_c_2_conv_1x1"
  top: "inception_resnet_c_2_conv_1x1_bn"
  param {
    name: "581"
    lr_mult: 1.0
    decay_mult: 0.0
  }
  param {
    name: "582"
    lr_mult: 1.0
    decay_mult: 0.0
  }
  param {
    name: "583"
  }
  param {
    name: "584"
  }
  bn_param {
    frozen: true
    slope_filler {
      type: "constant"
      value: 1.0
    }
    bias_filler {
      type: "constant"
      value: 0.0
    }
  }
}
layer {
  name: "inception_resnet_c_2_elt"
  type: "Eltwise"
  bottom: "inception_resnet_c_1_elt"
  bottom: "inception_resnet_c_2_conv_1x1_bn"
  top: "inception_resnet_c_2_elt"
  eltwise_param {
    operation: SUM
    coeff: 1
    coeff: 0.3
  }
}
layer {
  name: "inception_resnet_c_2_relu"
  type: "ReLU"
  bottom: "inception_resnet_c_2_elt"
  top: "inception_resnet_c_2_elt"
}
layer {
  name: "inception_resnet_c_3_path1_1x1"
  type: "Convolution"
  bottom: "inception_resnet_c_2_elt"
  top: "inception_resnet_c_3_path1_1x1"
  param {
    name: "585"
    lr_mult: 1.0
    decay_mult: 1.0
  }
  convolution_param {
    num_output: 192
    bias_term: false
    weight_filler {
      type: "xavier"
    }
    bias_filler {
      type: "constant"
      value: 0.0
    }
    pad_h: 0
    pad_w: 0
    kernel_h: 1
    kernel_w: 1
    stride_h: 1
    stride_w: 1
  }
}
layer {
  name: "inception_resnet_c_3_path1_1x1_bn"
  type: "BN"
  bottom: "inception_resnet_c_3_path1_1x1"
  top: "inception_resnet_c_3_path1_1x1_bn"
  param {
    name: "586"
    lr_mult: 1.0
    decay_mult: 0.0
  }
  param {
    name: "587"
    lr_mult: 1.0
    decay_mult: 0.0
  }
  param {
    name: "588"
  }
  param {
    name: "589"
  }
  bn_param {
    frozen: true
    slope_filler {
      type: "constant"
      value: 1.0
    }
    bias_filler {
      type: "constant"
      value: 0.0
    }
  }
}
layer {
  name: "inception_resnet_c_3_path1_1x1_relu"
  type: "ReLU"
  bottom: "inception_resnet_c_3_path1_1x1_bn"
  top: "inception_resnet_c_3_path1_1x1_bn"
}
layer {
  name: "inception_resnet_c_3_path1_1x3"
  type: "Convolution"
  bottom: "inception_resnet_c_3_path1_1x1_bn"
  top: "inception_resnet_c_3_path1_1x3"
  param {
    name: "590"
    lr_mult: 1.0
    decay_mult: 1.0
  }
  convolution_param {
    num_output: 224
    bias_term: false
    weight_filler {
      type: "xavier"
    }
    bias_filler {
      type: "constant"
      value: 0.0
    }
    pad_h: 0
    pad_w: 4
    kernel_h: 1
    kernel_w: 3
    dilation: 4
    stride_h: 1
    stride_w: 1
  }
}
layer {
  name: "inception_resnet_c_3_path1_1x3_bn"
  type: "BN"
  bottom: "inception_resnet_c_3_path1_1x3"
  top: "inception_resnet_c_3_path1_1x3_bn"
  param {
    name: "591"
    lr_mult: 1.0
    decay_mult: 0.0
  }
  param {
    name: "592"
    lr_mult: 1.0
    decay_mult: 0.0
  }
  param {
    name: "593"
  }
  param {
    name: "594"
  }
  bn_param {
    frozen: true
    slope_filler {
      type: "constant"
      value: 1.0
    }
    bias_filler {
      type: "constant"
      value: 0.0
    }
  }
}
layer {
  name: "inception_resnet_c_3_path1_1x3_relu"
  type: "ReLU"
  bottom: "inception_resnet_c_3_path1_1x3_bn"
  top: "inception_resnet_c_3_path1_1x3_bn"
}
layer {
  name: "inception_resnet_c_3_path1_3x1"
  type: "Convolution"
  bottom: "inception_resnet_c_3_path1_1x3_bn"
  top: "inception_resnet_c_3_path1_3x1"
  param {
    name: "595"
    lr_mult: 1.0
    decay_mult: 1.0
  }
  convolution_param {
    num_output: 256
    bias_term: false
    weight_filler {
      type: "xavier"
    }
    bias_filler {
      type: "constant"
      value: 0.0
    }
    pad_h: 4
    pad_w: 0
    kernel_h: 3
    kernel_w: 1
    dilation: 4
    stride_h: 1
    stride_w: 1
  }
}
layer {
  name: "inception_resnet_c_3_path1_3x1_bn"
  type: "BN"
  bottom: "inception_resnet_c_3_path1_3x1"
  top: "inception_resnet_c_3_path1_3x1_bn"
  param {
    name: "596"
    lr_mult: 1.0
    decay_mult: 0.0
  }
  param {
    name: "597"
    lr_mult: 1.0
    decay_mult: 0.0
  }
  param {
    name: "598"
  }
  param {
    name: "599"
  }
  bn_param {
    frozen: true
    slope_filler {
      type: "constant"
      value: 1.0
    }
    bias_filler {
      type: "constant"
      value: 0.0
    }
  }
}
layer {
  name: "inception_resnet_c_3_path1_3x1_relu"
  type: "ReLU"
  bottom: "inception_resnet_c_3_path1_3x1_bn"
  top: "inception_resnet_c_3_path1_3x1_bn"
}
layer {
  name: "inception_resnet_c_3_path2_1x1"
  type: "Convolution"
  bottom: "inception_resnet_c_2_elt"
  top: "inception_resnet_c_3_path2_1x1"
  param {
    name: "600"
    lr_mult: 1.0
    decay_mult: 1.0
  }
  convolution_param {
    num_output: 192
    bias_term: false
    weight_filler {
      type: "xavier"
    }
    bias_filler {
      type: "constant"
      value: 0.0
    }
    pad_h: 0
    pad_w: 0
    kernel_h: 1
    kernel_w: 1
    stride_h: 1
    stride_w: 1
  }
}
layer {
  name: "inception_resnet_c_3_path2_1x1_bn"
  type: "BN"
  bottom: "inception_resnet_c_3_path2_1x1"
  top: "inception_resnet_c_3_path2_1x1_bn"
  param {
    name: "601"
    lr_mult: 1.0
    decay_mult: 0.0
  }
  param {
    name: "602"
    lr_mult: 1.0
    decay_mult: 0.0
  }
  param {
    name: "603"
  }
  param {
    name: "604"
  }
  bn_param {
    frozen: true
    slope_filler {
      type: "constant"
      value: 1.0
    }
    bias_filler {
      type: "constant"
      value: 0.0
    }
  }
}
layer {
  name: "inception_resnet_c_3_path2_1x1_relu"
  type: "ReLU"
  bottom: "inception_resnet_c_3_path2_1x1_bn"
  top: "inception_resnet_c_3_path2_1x1_bn"
}
layer {
  name: "inception_resnet_c_3_concat"
  type: "Concat"
  bottom: "inception_resnet_c_3_path1_3x1_bn"
  bottom: "inception_resnet_c_3_path2_1x1_bn"
  top: "inception_resnet_c_3_concat"
}
layer {
  name: "inception_resnet_c_3_conv_1x1"
  type: "Convolution"
  bottom: "inception_resnet_c_3_concat"
  top: "inception_resnet_c_3_conv_1x1"
  param {
    name: "605"
    lr_mult: 1.0
    decay_mult: 1.0
  }
  convolution_param {
    num_output: 2048
    bias_term: false
    weight_filler {
      type: "xavier"
    }
    bias_filler {
      type: "constant"
      value: 0.0
    }
    pad_h: 0
    pad_w: 0
    kernel_h: 1
    kernel_w: 1
    stride_h: 1
    stride_w: 1
  }
}
layer {
  name: "inception_resnet_c_3_conv_1x1_bn"
  type: "BN"
  bottom: "inception_resnet_c_3_conv_1x1"
  top: "inception_resnet_c_3_conv_1x1_bn"
  param {
    name: "606"
    lr_mult: 1.0
    decay_mult: 0.0
  }
  param {
    name: "607"
    lr_mult: 1.0
    decay_mult: 0.0
  }
  param {
    name: "608"
  }
  param {
    name: "609"
  }
  bn_param {
    frozen: true
    slope_filler {
      type: "constant"
      value: 1.0
    }
    bias_filler {
      type: "constant"
      value: 0.0
    }
  }
}
layer {
  name: "inception_resnet_c_3_elt"
  type: "Eltwise"
  bottom: "inception_resnet_c_2_elt"
  bottom: "inception_resnet_c_3_conv_1x1_bn"
  top: "inception_resnet_c_3_elt"
  eltwise_param {
    operation: SUM
    coeff: 1
    coeff: 0.3
  }
}
layer {
  name: "inception_resnet_c_3_relu"
  type: "ReLU"
  bottom: "inception_resnet_c_3_elt"
  top: "inception_resnet_c_3_elt"
}
layer {
  name: "inception_resnet_c_4_path1_1x1"
  type: "Convolution"
  bottom: "inception_resnet_c_3_elt"
  top: "inception_resnet_c_4_path1_1x1"
  param {
    name: "610"
    lr_mult: 1.0
    decay_mult: 1.0
  }
  convolution_param {
    num_output: 192
    bias_term: false
    weight_filler {
      type: "xavier"
    }
    bias_filler {
      type: "constant"
…
  name: "v2_inception_resnet_b_10_path1_1x1_relu"
  type: "ReLU"
  bottom: "v2_inception_resnet_b_10_path1_1x1_bn"
  top: "v2_inception_resnet_b_10_path1_1x1_bn"
}
layer {
  name: "v2_inception_resnet_b_10_path1_1x7"
  type: "Convolution"
  bottom: "v2_inception_resnet_b_10_path1_1x1_bn"
  top: "v2_inception_resnet_b_10_path1_1x7"
  param {
    name: "480"
    lr_mult: 1.0
    decay_mult: 1.0
  }
  convolution_param {
    num_output: 160
    bias_term: false
    weight_filler {
      type: "xavier"
    }
    bias_filler {
      type: "constant"
      value: 0.0
    }
    pad_h: 0
    pad_w: 6
    kernel_h: 1
    kernel_w: 7
    dilation: 2
    stride_h: 1
    stride_w: 1
  }
}
layer {
  name: "v2_inception_resnet_b_10_path1_1x7_bn"
  type: "BN"
  bottom: "v2_inception_resnet_b_10_path1_1x7"
  top: "v2_inception_resnet_b_10_path1_1x7_bn"
  param {
    name: "481"
    lr_mult: 1.0
    decay_mult: 0.0
  }
  param {
    name: "482"
    lr_mult: 1.0
    decay_mult: 0.0
  }
  param {
    name: "483"
  }
  param {
    name: "484"
  }
  bn_param {
    frozen: true
    slope_filler {
      type: "constant"
      value: 1.0
    }
    bias_filler {
      type: "constant"
      value: 0.0
    }
  }
}
layer {
  name: "v2_inception_resnet_b_10_path1_1x7_relu"
  type: "ReLU"
  bottom: "v2_inception_resnet_b_10_path1_1x7_bn"
  top: "v2_inception_resnet_b_10_path1_1x7_bn"
}
layer {
  name: "v2_inception_resnet_b_10_path1_7x1"
  type: "Convolution"
  bottom: "v2_inception_resnet_b_10_path1_1x7_bn"
  top: "v2_inception_resnet_b_10_path1_7x1"
  param {
    name: "485"
    lr_mult: 1.0
    decay_mult: 1.0
  }
  convolution_param {
    num_output: 192
    bias_term: false
    weight_filler {
      type: "xavier"
    }
    bias_filler {
      type: "constant"
      value: 0.0
    }
    pad_h: 6
    pad_w: 0
    kernel_h: 7
    kernel_w: 1
    dilation: 2
    stride_h: 1
    stride_w: 1
  }
}
layer {
  name: "v2_inception_resnet_b_10_path1_7x1_bn"
  type: "BN"
  bottom: "v2_inception_resnet_b_10_path1_7x1"
  top: "v2_inception_resnet_b_10_path1_7x1_bn"
  param {
    name: "486"
    lr_mult: 1.0
    decay_mult: 0.0
  }
  param {
    name: "487"
    lr_mult: 1.0
    decay_mult: 0.0
  }
  param {
    name: "488"
  }
  param {
    name: "489"
  }
  bn_param {
    frozen: true
    slope_filler {
      type: "constant"
      value: 1.0
    }
    bias_filler {
      type: "constant"
      value: 0.0
    }
  }
}
layer {
  name: "v2_inception_resnet_b_10_path1_7x1_relu"
  type: "ReLU"
  bottom: "v2_inception_resnet_b_10_path1_7x1_bn"
  top: "v2_inception_resnet_b_10_path1_7x1_bn"
}
layer {
  name: "v2_inception_resnet_b_10_path2_1x1"
  type: "Convolution"
  bottom: "v2_inception_resnet_b_9_elt"
  top: "v2_inception_resnet_b_10_path2_1x1"
  param {
    name: "490"
    lr_mult: 1.0
    decay_mult: 1.0
  }
  convolution_param {
    num_output: 192
    bias_term: false
    weight_filler {
      type: "xavier"
    }
    bias_filler {
      type: "constant"
      value: 0.0
    }
    pad_h: 0
    pad_w: 0
    kernel_h: 1
    kernel_w: 1
    stride_h: 1
    stride_w: 1
  }
}
layer {
  name: "v2_inception_resnet_b_10_path2_1x1_bn"
  type: "BN"
  bottom: "v2_inception_resnet_b_10_path2_1x1"
  top: "v2_inception_resnet_b_10_path2_1x1_bn"
  param {
    name: "491"
    lr_mult: 1.0
    decay_mult: 0.0
  }
  param {
    name: "492"
    lr_mult: 1.0
    decay_mult: 0.0
  }
  param {
    name: "493"
  }
  param {
    name: "494"
  }
  bn_param {
    frozen: true
    slope_filler {
      type: "constant"
      value: 1.0
    }
    bias_filler {
      type: "constant"
      value: 0.0
    }
  }
}
layer {
  name: "v2_inception_resnet_b_10_path2_1x1_relu"
  type: "ReLU"
  bottom: "v2_inception_resnet_b_10_path2_1x1_bn"
  top: "v2_inception_resnet_b_10_path2_1x1_bn"
}
layer {
  name: "v2_inception_resnet_b_10_concat"
  type: "Concat"
  bottom: "v2_inception_resnet_b_10_path1_7x1_bn"
  bottom: "v2_inception_resnet_b_10_path2_1x1_bn"
  top: "v2_inception_resnet_b_10_concat"
}
layer {
  name: "v2_inception_resnet_b_10_conv_1x1"
  type: "Convolution"
  bottom: "v2_inception_resnet_b_10_concat"
  top: "v2_inception_resnet_b_10_conv_1x1"
  param {
    name: "495"
    lr_mult: 1.0
    decay_mult: 1.0
  }
  convolution_param {
    num_output: 1152
    bias_term: false
    weight_filler {
      type: "xavier"
    }
    bias_filler {
      type: "constant"
      value: 0.0
    }
    pad_h: 0
    pad_w: 0
    kernel_h: 1
    kernel_w: 1
    stride_h: 1
    stride_w: 1
  }
}
layer {
  name: "v2_inception_resnet_b_10_conv_1x1_bn"
  type: "BN"
  bottom: "v2_inception_resnet_b_10_conv_1x1"
  top: "v2_inception_resnet_b_10_conv_1x1_bn"
  param {
    name: "496"
    lr_mult: 1.0
    decay_mult: 0.0
  }
  param {
    name: "497"
    lr_mult: 1.0
    decay_mult: 0.0
  }
  param {
    name: "498"
  }
  param {
    name: "499"
  }
  bn_param {
    frozen: true
    slope_filler {
      type: "constant"
      value: 1.0
    }
    bias_filler {
      type: "constant"
      value: 0.0
    }
  }
}
layer {
  name: "v2_inception_resnet_b_10_elt"
  type: "Eltwise"
  bottom: "v2_inception_resnet_b_9_elt"
  bottom: "v2_inception_resnet_b_10_conv_1x1_bn"
  top: "v2_inception_resnet_b_10_elt"
  eltwise_param {
    operation: SUM
    coeff: 1
    coeff: 0.3
  }
}
layer {
  name: "v2_inception_resnet_b_10_relu"
  type: "ReLU"
  bottom: "v2_inception_resnet_b_10_elt"
  top: "v2_inception_resnet_b_10_elt"
}
layer {
  name: "v2_reduction_b_path1_1x1"
  type: "Convolution"
  bottom: "v2_inception_resnet_b_10_elt"
  top: "v2_reduction_b_path1_1x1"
  param {
    name: "500"
    lr_mult: 1.0
    decay_mult: 1.0
  }
  convolution_param {
    num_output: 256
    bias_term: false
    weight_filler {
      type: "xavier"
    }
    bias_filler {
      type: "constant"
      value: 0.0
    }
    pad_h: 0
    pad_w: 0
    kernel_h: 1
    kernel_w: 1
    stride_h: 1
    stride_w: 1
  }
}
layer {
  name: "v2_reduction_b_path1_1x1_bn"
  type: "BN"
  bottom: "v2_reduction_b_path1_1x1"
  top: "v2_reduction_b_path1_1x1_bn"
  param {
    name: "501"
    lr_mult: 1.0
    decay_mult: 0.0
  }
  param {
    name: "502"
    lr_mult: 1.0
    decay_mult: 0.0
  }
  param {
    name: "503"
  }
  param {
    name: "504"
  }
  bn_param {
    frozen: true
    slope_filler {
      type: "constant"
      value: 1.0
    }
    bias_filler {
      type: "constant"
      value: 0.0
    }
  }
}
layer {
  name: "v2_reduction_b_path1_1x1_relu"
  type: "ReLU"
  bottom: "v2_reduction_b_path1_1x1_bn"
  top: "v2_reduction_b_path1_1x1_bn"
}
layer {
  name: "v2_reduction_b_path1_3x3_1"
  type: "Convolution"
  bottom: "v2_reduction_b_path1_1x1_bn"
  top: "v2_reduction_b_path1_3x3_1"
  param {
    name: "505"
    lr_mult: 1.0
    decay_mult: 1.0
  }
  convolution_param {
    num_output: 256
    bias_term: false
    weight_filler {
      type: "xavier"
    }
    bias_filler {
      type: "constant"
      value: 0.0
    }
    pad_h: 2
    pad_w: 2
    kernel_h: 3
    kernel_w: 3
    dilation: 2
    stride_h: 1
    stride_w: 1
  }
}
layer {
  name: "v2_reduction_b_path1_3x3_1_bn"
  type: "BN"
  bottom: "v2_reduction_b_path1_3x3_1"
  top: "v2_reduction_b_path1_3x3_1_bn"
  param {
    name: "506"
    lr_mult: 1.0
    decay_mult: 0.0
  }
  param {
    name: "507"
    lr_mult: 1.0
    decay_mult: 0.0
  }
  param {
    name: "508"
  }
  param {
    name: "509"
  }
  bn_param {
    frozen: true
    slope_filler {
      type: "constant"
      value: 1.0
    }
    bias_filler {
      type: "constant"
      value: 0.0
    }
  }
}
layer {
  name: "v2_reduction_b_path1_3x3_1_relu"
  type: "ReLU"
  bottom: "v2_reduction_b_path1_3x3_1_bn"
  top: "v2_reduction_b_path1_3x3_1_bn"
}
layer {
  name: "v2_reduction_b_path1_3x3_2"
  type: "Convolution"
  bottom: "v2_reduction_b_path1_3x3_1_bn"
  top: "v2_reduction_b_path1_3x3_2"
  param {
    name: "510"
    lr_mult: 1.0
    decay_mult: 1.0
  }
  convolution_param {
    num_output: 256
    bias_term: false
    weight_filler {
      type: "xavier"
    }
    bias_filler {
      type: "constant"
      value: 0.0
    }
    pad_h: 2
    pad_w: 2
    kernel_h: 3
    kernel_w: 3
    dilation: 2
    stride_h: 1
    stride_w: 1
  }
}
layer {
  name: "v2_reduction_b_path1_3x3_2_bn"
  type: "BN"
  bottom: "v2_reduction_b_path1_3x3_2"
  top: "v2_reduction_b_path1_3x3_2_bn"
  param {
    name: "511"
    lr_mult: 1.0
    decay_mult: 0.0
  }
  param {
    name: "512"
    lr_mult: 1.0
    decay_mult: 0.0
  }
  param {
    name: "513"
  }
  param {
    name: "514"
  }
  bn_param {
    frozen: true
    slope_filler {
      type: "constant"
      value: 1.0
    }
    bias_filler {
      type: "constant"
      value: 0.0
    }
  }
}
layer {
  name: "v2_reduction_b_path1_3x3_2_relu"
  type: "ReLU"
  bottom: "v2_reduction_b_path1_3x3_2_bn"
  top: "v2_reduction_b_path1_3x3_2_bn"
}
layer {
  name: "v2_reduction_b_path2_1x1"
  type: "Convolution"
  bottom: "v2_inception_resnet_b_10_elt"
  top: "v2_reduction_b_path2_1x1"
  param {
    name: "515"
    lr_mult: 1.0
    decay_mult: 1.0
  }
  convolution_param {
    num_output: 256
    bias_term: false
    weight_filler {
      type: "xavier"
    }
    bias_filler {
      type: "constant"
      value: 0.0
    }
    pad_h: 0
    pad_w: 0
    kernel_h: 1
    kernel_w: 1
    stride_h: 1
    stride_w: 1
  }
}
layer {
  name: "v2_reduction_b_path2_1x1_bn"
  type: "BN"
  bottom: "v2_reduction_b_path2_1x1"
  top: "v2_reduction_b_path2_1x1_bn"
  param {
    name: "516"
    lr_mult: 1.0
    decay_mult: 0.0
  }
  param {
    name: "517"
    lr_mult: 1.0
    decay_mult: 0.0
  }
  param {
    name: "518"
  }
  param {
    name: "519"
  }
  bn_param {
    frozen: true
    slope_filler {
      type: "constant"
      value: 1.0
    }
    bias_filler {
      type: "constant"
      value: 0.0
    }
  }
}
layer {
  name: "v2_reduction_b_path2_1x1_relu"
  type: "ReLU"
  bottom: "v2_reduction_b_path2_1x1_bn"
  top: "v2_reduction_b_path2_1x1_bn"
}
layer {
  name: "v2_reduction_b_path2_3x3"
  type: "Convolution"
  bottom: "v2_reduction_b_path2_1x1_bn"
  top: "v2_reduction_b_path2_3x3"
  param {
    name: "520"
    lr_mult: 1.0
    decay_mult: 1.0
  }
  convolution_param {
    num_output: 256
    bias_term: false
    weight_filler {
      type: "xavier"
    }
    bias_filler {
      type: "constant"
      value: 0.0
    }
    pad_h: 2
    pad_w: 2
    kernel_h: 3
    kernel_w: 3
    dilation: 2
    stride_h: 1
    stride_w: 1
  }
}
layer {
  name: "v2_reduction_b_path2_3x3_bn"
  type: "BN"
  bottom: "v2_reduction_b_path2_3x3"
  top: "v2_reduction_b_path2_3x3_bn"
  param {
    name: "521"
    lr_mult: 1.0
    decay_mult: 0.0
  }
  param {
    name: "522"
    lr_mult: 1.0
    decay_mult: 0.0
  }
  param {
    name: "523"
  }
  param {
    name: "524"
  }
  bn_param {
    frozen: true
    slope_filler {
      type: "constant"
      value: 1.0
    }
    bias_filler {
      type: "constant"
      value: 0.0
    }
  }
}
layer {
  name: "v2_reduction_b_path2_3x3_relu"
  type: "ReLU"
  bottom: "v2_reduction_b_path2_3x3_bn"
  top: "v2_reduction_b_path2_3x3_bn"
}
layer {
  name: "v2_reduction_b_path3_1x1"
  type: "Convolution"
  bottom: "v2_inception_resnet_b_10_elt"
  top: "v2_reduction_b_path3_1x1"
  param {
    name: "525"
    lr_mult: 1.0
    decay_mult: 1.0
  }
  convolution_param {
    num_output: 256
    bias_term: false
    weight_filler {
      type: "xavier"
    }
    bias_filler {
      type: "constant"
      value: 0.0
    }
    pad_h: 0
    pad_w: 0
    kernel_h: 1
    kernel_w: 1
    stride_h: 1
    stride_w: 1
  }
}
layer {
  name: "v2_reduction_b_path3_1x1_bn"
  type: "BN"
  bottom: "v2_reduction_b_path3_1x1"
  top: "v2_reduction_b_path3_1x1_bn"
  param {
    name: "526"
    lr_mult: 1.0
    decay_mult: 0.0
  }
  param {
    name: "527"
    lr_mult: 1.0
    decay_mult: 0.0
  }
  param {
    name: "528"
  }
  param {
    name: "529"
  }
  bn_param {
    frozen: true
    slope_filler {
      type: "constant"
      value: 1.0
    }
    bias_filler {
      type: "constant"
      value: 0.0
    }
  }
}
layer {
  name: "v2_reduction_b_path3_1x1_relu"
  type: "ReLU"
  bottom: "v2_reduction_b_path3_1x1_bn"
  top: "v2_reduction_b_path3_1x1_bn"
}
layer {
  name: "v2_reduction_b_path3_3x3"
  type: "Convolution"
  bottom: "v2_reduction_b_path3_1x1_bn"
  top: "v2_reduction_b_path3_3x3"
  param {
    name: "530"
    lr_mult: 1.0
    decay_mult: 1.0
  }
  convolution_param {
    num_output: 384
    bias_term: false
    weight_filler {
      type: "xavier"
    }
    bias_filler {
      type: "constant"
      value: 0.0
    }
    pad_h: 2
    pad_w: 2
    kernel_h: 3
    kernel_w: 3
    dilation: 2
    stride_h: 1
    stride_w: 1
  }
}
layer {
  name: "v2_reduction_b_path3_3x3_bn"
  type: "BN"
  bottom: "v2_reduction_b_path3_3x3"
  top: "v2_reduction_b_path3_3x3_bn"
  param {
    name: "531"
    lr_mult: 1.0
    decay_mult: 0.0
  }
  param {
    name: "532"
    lr_mult: 1.0
    decay_mult: 0.0
  }
  param {
    name: "533"
  }
  param {
    name: "534"
  }
  bn_param {
    frozen: true
    slope_filler {
      type: "constant"
      value: 1.0
    }
    bias_filler {
      type: "constant"
      value: 0.0
    }
  }
}
layer {
  name: "v2_reduction_b_path3_3x3_relu"
  type: "ReLU"
  bottom: "v2_reduction_b_path3_3x3_bn"
  top: "v2_reduction_b_path3_3x3_bn"
}
layer {
  name: "v2_reduction_b_path4_max"
  type: "Pooling"
  bottom: "v2_inception_resnet_b_10_elt"
  top: "v2_reduction_b_path4_max"
  pooling_param {
    pool: MAX
    kernel_h: 1
    kernel_w: 1
    stride_h: 1
    stride_w: 1
    pad_h: 0
    pad_w: 0
  }
}
layer {
  name: "v2_reduction_b_concat"
  type: "Concat"
  bottom: "v2_reduction_b_path1_3x3_2_bn"
  bottom: "v2_reduction_b_path2_3x3_bn"
  bottom: "v2_reduction_b_path3_3x3_bn"
  bottom: "v2_reduction_b_path4_max"
  top: "v2_reduction_b_concat"
}
layer {
  name: "v2_inception_resnet_c_1_path1_1x1"
  type: "Convolution"
  bottom: "v2_reduction_b_concat"
  top: "v2_inception_resnet_c_1_path1_1x1"
  param {
    name: "535"
    lr_mult: 1.0
    decay_mult: 1.0
  }
  convolution_param {
    num_output: 192
    bias_term: false
    weight_filler {
      type: "xavier"
    }
    bias_filler {
      type: "constant"
      value: 0.0
    }
    pad_h: 0
    pad_w: 0
    kernel_h: 1
    kernel_w: 1
    stride_h: 1
    stride_w: 1
  }
}
layer {
  name: "v2_inception_resnet_c_1_path1_1x1_bn"
  type: "BN"
  bottom: "v2_inception_resnet_c_1_path1_1x1"
  top: "v2_inception_resnet_c_1_path1_1x1_bn"
  param {
    name: "536"
    lr_mult: 1.0
    decay_mult: 0.0
  }
  param {
    name: "537"
    lr_mult: 1.0
    decay_mult: 0.0
  }
  param {
    name: "538"
  }
  param {
    name: "539"
  }
  bn_param {
    frozen: true
    slope_filler {
      type: "constant"
      value: 1.0
    }
    bias_filler {
      type: "constant"
      value: 0.0
    }
  }
}
layer {
  name: "v2_inception_resnet_c_1_path1_1x1_relu"
  type: "ReLU"
  bottom: "v2_inception_resnet_c_1_path1_1x1_bn"
  top: "v2_inception_resnet_c_1_path1_1x1_bn"
}
layer {
  name: "v2_inception_resnet_c_1_path1_1x3"
  type: "Convolution"
  bottom: "v2_inception_resnet_c_1_path1_1x1_bn"
  top: "v2_inception_resnet_c_1_path1_1x3"
  param {
    name: "540"
    lr_mult: 1.0
    decay_mult: 1.0
  }
  convolution_param {
    num_output: 224
    bias_term: false
    weight_filler {
      type: "xavier"
    }
    bias_filler {
      type: "constant"
      value: 0.0
    }
    pad_h: 0
    pad_w: 4
    kernel_h: 1
    kernel_w: 3
    dilation: 4
    stride_h: 1
    stride_w: 1
  }
}
layer {
  name: "v2_inception_resnet_c_1_path1_1x3_bn"
  type: "BN"
  bottom: "v2_inception_resnet_c_1_path1_1x3"
  top: "v2_inception_resnet_c_1_path1_1x3_bn"
  param {
    name: "541"
    lr_mult: 1.0
    decay_mult: 0.0
  }
  param {
    name: "542"
    lr_mult: 1.0
    decay_mult: 0.0
  }
  param {
    name: "543"
  }
  param {
    name: "544"
  }
  bn_param {
    frozen: true
    slope_filler {
      type: "constant"
      value: 1.0
    }
    bias_filler {
      type: "constant"
      value: 0.0
    }
  }
}
layer {
  name: "v2_inception_resnet_c_1_path1_1x3_relu"
  type: "ReLU"
  bottom: "v2_inception_resnet_c_1_path1_1x3_bn"
  top: "v2_inception_resnet_c_1_path1_1x3_bn"
}
layer {
  name: "v2_inception_resnet_c_1_path1_3x1"
  type: "Convolution"
  bottom: "v2_inception_resnet_c_1_path1_1x3_bn"
  top: "v2_inception_resnet_c_1_path1_3x1"
  param {
    name: "545"
    lr_mult: 1.0
    decay_mult: 1.0
  }
  convolution_param {
    num_output: 256
    bias_term: false
    weight_filler {
      type: "xavier"
    }
    bias_filler {
      type: "constant"
      value: 0.0
    }
    pad_h: 4
    pad_w: 0
    kernel_h: 3
    kernel_w: 1
    dilation: 4
    stride_h: 1
    stride_w: 1
  }
}
layer {
  name: "v2_inception_resnet_c_1_path1_3x1_bn"
  type: "BN"
  bottom: "v2_inception_resnet_c_1_path1_3x1"
  top: "v2_inception_resnet_c_1_path1_3x1_bn"
  param {
    name: "546"
    lr_mult: 1.0
    decay_mult: 0.0
  }
  param {
    name: "547"
    lr_mult: 1.0
    decay_mult: 0.0
  }
  param {
    name: "548"
  }
  param {
    name: "549"
  }
  bn_param {
    frozen: true
    slope_filler {
      type: "constant"
      value: 1.0
    }
    bias_filler {
      type: "constant"
      value: 0.0
    }
  }
}
layer {
  name: "v2_inception_resnet_c_1_path1_3x1_relu"
  type: "ReLU"
  bottom: "v2_inception_resnet_c_1_path1_3x1_bn"
  top: "v2_inception_resnet_c_1_path1_3x1_bn"
}
layer {
  name: "v2_inception_resnet_c_1_path2_1x1"
  type: "Convolution"
  bottom: "v2_reduction_b_concat"
  top: "v2_inception_resnet_c_1_path2_1x1"
  param {
    name: "550"
    lr_mult: 1.0
    decay_mult: 1.0
  }
  convolution_param {
    num_output: 192
    bias_term: false
    weight_filler {
      type: "xavier"
    }
    bias_filler {
      type: "constant"
      value: 0.0
    }
    pad_h: 0
    pad_w: 0
    kernel_h: 1
    kernel_w: 1
    stride_h: 1
    stride_w: 1
  }
}
layer {
  name: "v2_inception_resnet_c_1_path2_1x1_bn"
  type: "BN"
  bottom: "v2_inception_resnet_c_1_path2_1x1"
  top: "v2_inception_resnet_c_1_path2_1x1_bn"
  param {
    name: "551"
    lr_mult: 1.0
    decay_mult: 0.0
  }
  param {
    name: "552"
    lr_mult: 1.0
    decay_mult: 0.0
  }
  param {
    name: "553"
  }
  param {
    name: "554"
  }
  bn_param {
    frozen: true
    slope_filler {
      type: "constant"
      value: 1.0
    }
    bias_filler {
      type: "constant"
      value: 0.0
    }
  }
}
layer {
  name: "v2_inception_resnet_c_1_path2_1x1_relu"
  type: "ReLU"
  bottom: "v2_inception_resnet_c_1_path2_1x1_bn"
  top: "v2_inception_resnet_c_1_path2_1x1_bn"
}
layer {
  name: "v2_inception_resnet_c_1_concat"
  type: "Concat"
  bottom: "v2_inception_resnet_c_1_path1_3x1_bn"
  bottom: "v2_inception_resnet_c_1_path2_1x1_bn"
  top: "v2_inception_resnet_c_1_concat"
}
layer {
  name: "v2_inception_resnet_c_1_conv_1x1"
  type: "Convolution"
  bottom: "v2_inception_resnet_c_1_concat"
  top: "v2_inception_resnet_c_1_conv_1x1"
  param {
    name: "555"
    lr_mult: 1.0
    decay_mult: 1.0
  }
  convolution_param {
    num_output: 2048
    bias_term: false
    weight_filler {
      type: "xavier"
    }
    bias_filler {
      type: "constant"
      value: 0.0
    }
    pad_h: 0
    pad_w: 0
    kernel_h: 1
    kernel_w: 1
    stride_h: 1
    stride_w: 1
  }
}
layer {
  name: "v2_inception_resnet_c_1_conv_1x1_bn"
  type: "BN"
  bottom: "v2_inception_resnet_c_1_conv_1x1"
  top: "v2_inception_resnet_c_1_conv_1x1_bn"
  param {
    name: "556"
    lr_mult: 1.0
    decay_mult: 0.0
  }
  param {
    name: "557"
    lr_mult: 1.0
    decay_mult: 0.0
  }
  param {
    name: "558"
  }
  param {
    name: "559"
  }
  bn_param {
    frozen: true
    slope_filler {
      type: "constant"
      value: 1.0
    }
    bias_filler {
      type: "constant"
      value: 0.0
    }
  }
}
layer {
  name: "v2_inception_resnet_c_1_elt"
  type: "Eltwise"
  bottom: "v2_reduction_b_concat"
  bottom: "v2_inception_resnet_c_1_conv_1x1_bn"
  top: "v2_inception_resnet_c_1_elt"
  eltwise_param {
    operation: SUM
    coeff: 1
    coeff: 0.3
  }
}
layer {
  name: "v2_inception_resnet_c_1_relu"
  type: "ReLU"
  bottom: "v2_inception_resnet_c_1_elt"
  top: "v2_inception_resnet_c_1_elt"
}
layer {
  name: "v2_inception_resnet_c_2_path1_1x1"
  type: "Convolution"
  bottom: "v2_inception_resnet_c_1_elt"
  top: "v2_inception_resnet_c_2_path1_1x1"
  param {
    name: "560"
    lr_mult: 1.0
    decay_mult: 1.0
  }
  convolution_param {
    num_output: 192
    bias_term: false
    weight_filler {
      type: "xavier"
    }
    bias_filler {
      type: "constant"
      value: 0.0
    }
    pad_h: 0
    pad_w: 0
    kernel_h: 1
    kernel_w: 1
    stride_h: 1
    stride_w: 1
  }
}
layer {
  name: "v2_inception_resnet_c_2_path1_1x1_bn"
  type: "BN"
  bottom: "v2_inception_resnet_c_2_path1_1x1"
  top: "v2_inception_resnet_c_2_path1_1x1_bn"
  param {
    name: "561"
    lr_mult: 1.0
    decay_mult: 0.0
  }
  param {
    name: "562"
    lr_mult: 1.0
    decay_mult: 0.0
  }
  param {
    name: "563"
  }
  param {
    name: "564"
  }
  bn_param {
    frozen: true
    slope_filler {
      type: "constant"
      value: 1.0
    }
    bias_filler {
      type: "constant"
      value: 0.0
    }
  }
}
layer {
  name: "v2_inception_resnet_c_2_path1_1x1_relu"
  type: "ReLU"
  bottom: "v2_inception_resnet_c_2_path1_1x1_bn"
  top: "v2_inception_resnet_c_2_path1_1x1_bn"
}
layer {
  name: "v2_inception_resnet_c_2_path1_1x3"
  type: "Convolution"
  bottom: "v2_inception_resnet_c_2_path1_1x1_bn"
  top: "v2_inception_resnet_c_2_path1_1x3"
  param {
    name: "565"
    lr_mult: 1.0
    decay_mult: 1.0
  }
  convolution_param {
    num_output: 224
    bias_term: false
    weight_filler {
      type: "xavier"
    }
    bias_filler {
      type: "constant"
      value: 0.0
    }
    pad_h: 0
    pad_w: 4
    kernel_h: 1
    kernel_w: 3
    dilation: 4
    stride_h: 1
    stride_w: 1
  }
}
layer {
  name: "v2_inception_resnet_c_2_path1_1x3_bn"
  type: "BN"
  bottom: "v2_inception_resnet_c_2_path1_1x3"
  top: "v2_inception_resnet_c_2_path1_1x3_bn"
  param {
    name: "566"
    lr_mult: 1.0
    decay_mult: 0.0
  }
  param {
    name: "567"
    lr_mult: 1.0
    decay_mult: 0.0
  }
  param {
    name: "568"
  }
  param {
    name: "569"
  }
  bn_param {
    frozen: true
    slope_filler {
      type: "constant"
      value: 1.0
    }
    bias_filler {
      type: "constant"
      value: 0.0
    }
  }
}
layer {
  name: "v2_inception_resnet_c_2_path1_1x3_relu"
  type: "ReLU"
  bottom: "v2_inception_resnet_c_2_path1_1x3_bn"
  top: "v2_inception_resnet_c_2_path1_1x3_bn"
}
layer {
  name: "v2_inception_resnet_c_2_path1_3x1"
  type: "Convolution"
  bottom: "v2_inception_resnet_c_2_path1_1x3_bn"
  top: "v2_inception_resnet_c_2_path1_3x1"
  param {
    name: "570"
    lr_mult: 1.0
    decay_mult: 1.0
  }
  convolution_param {
    num_output: 256
    bias_term: false
    weight_filler {
      type: "xavier"
    }
    bias_filler {
      type: "constant"
      value: 0.0
    }
    pad_h: 4
    pad_w: 0
    kernel_h: 3
    kernel_w: 1
    dilation: 4
    stride_h: 1
    stride_w: 1
  }
}
layer {
  name: "v2_inception_resnet_c_2_path1_3x1_bn"
  type: "BN"
  bottom: "v2_inception_resnet_c_2_path1_3x1"
  top: "v2_inception_resnet_c_2_path1_3x1_bn"
  param {
    name: "571"
    lr_mult: 1.0
    decay_mult: 0.0
  }
  param {
    name: "572"
    lr_mult: 1.0
    decay_mult: 0.0
  }
  param {
    name: "573"
  }
  param {
    name: "574"
  }
  bn_param {
    frozen: true
    slope_filler {
      type: "constant"
      value: 1.0
    }
    bias_filler {
      type: "constant"
      value: 0.0
    }
  }
}
layer {
  name: "v2_inception_resnet_c_2_path1_3x1_relu"
  type: "ReLU"
  bottom: "v2_inception_resnet_c_2_path1_3x1_bn"
  top: "v2_inception_resnet_c_2_path1_3x1_bn"
}
layer {
  name: "v2_inception_resnet_c_2_path2_1x1"
  type: "Convolution"
  bottom: "v2_inception_resnet_c_1_elt"
  top: "v2_inception_resnet_c_2_path2_1x1"
  param {
    name: "575"
    lr_mult: 1.0
    decay_mult: 1.0
  }
  convolution_param {
    num_output: 192
    bias_term: false
    weight_filler {
      type: "xavier"
    }
    bias_filler {
      type: "constant"
      value: 0.0
    }
    pad_h: 0
    pad_w: 0
    kernel_h: 1
    kernel_w: 1
    stride_h: 1
    stride_w: 1
  }
}
layer {
  name: "v2_inception_resnet_c_2_path2_1x1_bn"
  type: "BN"
  bottom: "v2_inception_resnet_c_2_path2_1x1"
  top: "v2_inception_resnet_c_2_path2_1x1_bn"
  param {
    name: "576"
    lr_mult: 1.0
    decay_mult: 0.0
  }
  param {
    name: "577"
    lr_mult: 1.0
    decay_mult: 0.0
  }
  param {
    name: "578"
  }
  param {
    name: "579"
  }
  bn_param {
    frozen: true
    slope_filler {
      type: "constant"
      value: 1.0
    }
    bias_filler {
      type: "constant"
      value: 0.0
    }
  }
}
layer {
  name: "v2_inception_resnet_c_2_path2_1x1_relu"
  type: "ReLU"
  bottom: "v2_inception_resnet_c_2_path2_1x1_bn"
  top: "v2_inception_resnet_c_2_path2_1x1_bn"
}
layer {
  name: "v2_inception_resnet_c_2_concat"
  type: "Concat"
  bottom: "v2_inception_resnet_c_2_path1_3x1_bn"
  bottom: "v2_inception_resnet_c_2_path2_1x1_bn"
  top: "v2_inception_resnet_c_2_concat"
}
layer {
  name: "v2_inception_resnet_c_2_conv_1x1"
  type: "Convolution"
  bottom: "v2_inception_resnet_c_2_concat"
  top: "v2_inception_resnet_c_2_conv_1x1"
  param {
    name: "580"
    lr_mult: 1.0
    decay_mult: 1.0
  }
  convolution_param {
    num_output: 2048
    bias_term: false
    weight_filler {
      type: "xavier"
    }
    bias_filler {
      type: "constant"
      value: 0.0
    }
    pad_h: 0
    pad_w: 0
    kernel_h: 1
    kernel_w: 1
    stride_h: 1
    stride_w: 1
  }
}
layer {
  name: "v2_inception_resnet_c_2_conv_1x1_bn"
  type: "BN"
  bottom: "v2_inception_resnet_c_2_conv_1x1"
  top: "v2_inception_resnet_c_2_conv_1x1_bn"
  param {
    name: "581"
    lr_mult: 1.0
    decay_mult: 0.0
  }
  param {
    name: "582"
    lr_mult: 1.0
    decay_mult: 0.0
  }
  param {
    name: "583"
  }
  param {
    name: "584"
  }
  bn_param {
    frozen: true
    slope_filler {
      type: "constant"
      value: 1.0
    }
    bias_filler {
      type: "constant"
      value: 0.0
    }
  }
}
layer {
  name: "v2_inception_resnet_c_2_elt"
  type: "Eltwise"
  bottom: "v2_inception_resnet_c_1_elt"
  bottom: "v2_inception_resnet_c_2_conv_1x1_bn"
  top: "v2_inception_resnet_c_2_elt"
  eltwise_param {
    operation: SUM
    coeff: 1
    coeff: 0.3
  }
}
layer {
  name: "v2_inception_resnet_c_2_relu"
  type: "ReLU"
  bottom: "v2_inception_resnet_c_2_elt"
  top: "v2_inception_resnet_c_2_elt"
}
layer {
  name: "v2_inception_resnet_c_3_path1_1x1"
  type: "Convolution"
  bottom: "v2_inception_resnet_c_2_elt"
  top: "v2_inception_resnet_c_3_path1_1x1"
  param {
    name: "585"
    lr_mult: 1.0
    decay_mult: 1.0
  }
  convolution_param {
    num_output: 192
    bias_term: false
    weight_filler {
      type: "xavier"
    }
    bias_filler {
      type: "constant"
      value: 0.0
    }
    pad_h: 0
    pad_w: 0
    kernel_h: 1
    kernel_w: 1
    stride_h: 1
    stride_w: 1
  }
}
layer {
  name: "v2_inception_resnet_c_3_path1_1x1_bn"
  type: "BN"
  bottom: "v2_inception_resnet_c_3_path1_1x1"
  top: "v2_inception_resnet_c_3_path1_1x1_bn"
  param {
    name: "586"
    lr_mult: 1.0
    decay_mult: 0.0
  }
  param {
    name: "587"
    lr_mult: 1.0
    decay_mult: 0.0
  }
  param {
    name: "588"
  }
  param {
    name: "589"
  }
  bn_param {
    frozen: true
    slope_filler {
      type: "constant"
      value: 1.0
    }
    bias_filler {
      type: "constant"
      value: 0.0
    }
  }
}
layer {
  name: "v2_inception_resnet_c_3_path1_1x1_relu"
  type: "ReLU"
  bottom: "v2_inception_resnet_c_3_path1_1x1_bn"
  top: "v2_inception_resnet_c_3_path1_1x1_bn"
}
layer {
  name: "v2_inception_resnet_c_3_path1_1x3"
  type: "Convolution"
  bottom: "v2_inception_resnet_c_3_path1_1x1_bn"
  top: "v2_inception_resnet_c_3_path1_1x3"
  param {
    name: "590"
    lr_mult: 1.0
    decay_mult: 1.0
  }
  convolution_param {
    num_output: 224
    bias_term: false
    weight_filler {
      type: "xavier"
    }
    bias_filler {
      type: "constant"
      value: 0.0
    }
    pad_h: 0
    pad_w: 4
    kernel_h: 1
    kernel_w: 3
    dilation: 4
    stride_h: 1
    stride_w: 1
  }
}
layer {
  name: "v2_inception_resnet_c_3_path1_1x3_bn"
  type: "BN"
  bottom: "v2_inception_resnet_c_3_path1_1x3"
  top: "v2_inception_resnet_c_3_path1_1x3_bn"
  param {
    name: "591"
    lr_mult: 1.0
    decay_mult: 0.0
  }
  param {
    name: "592"
    lr_mult: 1.0
    decay_mult: 0.0
  }
  param {
    name: "593"
  }
  param {
    name: "594"
  }
  bn_param {
    frozen: true
    slope_filler {
      type: "constant"
      value: 1.0
    }
    bias_filler {
      type: "constant"
      value: 0.0
    }
  }
}
layer {
  name: "v2_inception_resnet_c_3_path1_1x3_relu"
  type: "ReLU"
  bottom: "v2_inception_resnet_c_3_path1_1x3_bn"
  top: "v2_inception_resnet_c_3_path1_1x3_bn"
}
layer {
  name: "v2_inception_resnet_c_3_path1_3x1"
  type: "Convolution"
  bottom: "v2_inception_resnet_c_3_path1_1x3_bn"
  top: "v2_inception_resnet_c_3_path1_3x1"
  param {
    name: "595"
    lr_mult: 1.0
    decay_mult: 1.0
  }
  convolution_param {
    num_output: 256
    bias_term: false
    weight_filler {
      type: "xavier"
    }
    bias_filler {
      type: "constant"
      value: 0.0
    }
    pad_h: 4
    pad_w: 0
    kernel_h: 3
    kernel_w: 1
    dilation: 4
    stride_h: 1
    stride_w: 1
  }
}
layer {
  name: "v2_inception_resnet_c_3_path1_3x1_bn"
  type: "BN"
  bottom: "v2_inception_resnet_c_3_path1_3x1"
  top: "v2_inception_resnet_c_3_path1_3x1_bn"
  param {
    name: "596"
    lr_mult: 1.0
    decay_mult: 0.0
  }
  param {
    name: "597"
    lr_mult: 1.0
    decay_mult: 0.0
  }
  param {
    name: "598"
  }
  param {
    name: "599"
  }
  bn_param {
    frozen: true
    slope_filler {
      type: "constant"
      value: 1.0
    }
    bias_filler {
      type: "constant"
      value: 0.0
    }
  }
}
layer {
  name: "v2_inception_resnet_c_3_path1_3x1_relu"
  type: "ReLU"
  bottom: "v2_inception_resnet_c_3_path1_3x1_bn"
  top: "v2_inception_resnet_c_3_path1_3x1_bn"
}
layer {
  name: "v2_inception_resnet_c_3_path2_1x1"
  type: "Convolution"
  bottom: "v2_inception_resnet_c_2_elt"
  top: "v2_inception_resnet_c_3_path2_1x1"
  param {
    name: "600"
    lr_mult: 1.0
    decay_mult: 1.0
  }
  convolution_param {
    num_output: 192
    bias_term: false
    weight_filler {
      type: "xavier"
    }
    bias_filler {
      type: "constant"
      value: 0.0
    }
    pad_h: 0
    pad_w: 0
    kernel_h: 1
    kernel_w: 1
    stride_h: 1
    stride_w: 1
  }
}
layer {
  name: "v2_inception_resnet_c_3_path2_1x1_bn"
  type: "BN"
  bottom: "v2_inception_resnet_c_3_path2_1x1"
  top: "v2_inception_resnet_c_3_path2_1x1_bn"
  param {
    name: "601"
    lr_mult: 1.0
    decay_mult: 0.0
  }
  param {
    name: "602"
    lr_mult: 1.0
    decay_mult: 0.0
  }
  param {
    name: "603"
  }
  param {
    name: "604"
  }
  bn_param {
    frozen: true
    slope_filler {
      type: "constant"
      value: 1.0
    }
    bias_filler {
      type: "constant"
      value: 0.0
    }
  }
}
layer {
  name: "v2_inception_resnet_c_3_path2_1x1_relu"
  type: "ReLU"
  bottom: "v2_inception_resnet_c_3_path2_1x1_bn"
  top: "v2_inception_resnet_c_3_path2_1x1_bn"
}
layer {
  name: "v2_inception_resnet_c_3_concat"
  type: "Concat"
  bottom: "v2_inception_resnet_c_3_path1_3x1_bn"
  bottom: "v2_inception_resnet_c_3_path2_1x1_bn"
  top: "v2_inception_resnet_c_3_concat"
}
layer {
  name: "v2_inception_resnet_c_3_conv_1x1"
  type: "Convolution"
  bottom: "v2_inception_resnet_c_3_concat"
  top: "v2_inception_resnet_c_3_conv_1x1"
  param {
    name: "605"
    lr_mult: 1.0
    decay_mult: 1.0
  }
  convolution_param {
    num_output: 2048
    bias_term: false
    weight_filler {
      type: "xavier"
    }
    bias_filler {
      type: "constant"
      value: 0.0
    }
    pad_h: 0
    pad_w: 0
    kernel_h: 1
    kernel_w: 1
    stride_h: 1
    stride_w: 1
  }
}
layer {
  name: "v2_inception_resnet_c_3_conv_1x1_bn"
  type: "BN"
  bottom: "v2_inception_resnet_c_3_conv_1x1"
  top: "v2_inception_resnet_c_3_conv_1x1_bn"
  param {
    name: "606"
    lr_mult: 1.0
    decay_mult: 0.0
  }
  param {
    name: "607"
    lr_mult: 1.0
    decay_mult: 0.0
  }
  param {
    name: "608"
  }
  param {
    name: "609"
  }
  bn_param {
    frozen: true
    slope_filler {
      type: "constant"
      value: 1.0
    }
    bias_filler {
      type: "constant"
      value: 0.0
    }
  }
}
layer {
  name: "v2_inception_resnet_c_3_elt"
  type: "Eltwise"
  bottom: "v2_inception_resnet_c_2_elt"
  bottom: "v2_inception_resnet_c_3_conv_1x1_bn"
  top: "v2_inception_resnet_c_3_elt"
  eltwise_param {
    operation: SUM
    coeff: 1
    coeff: 0.3
  }
}
layer {
  name: "v2_inception_resnet_c_3_relu"
  type: "ReLU"
  bottom: "v2_inception_resnet_c_3_elt"
  top: "v2_inception_resnet_c_3_elt"
}
layer {
  name: "v2_inception_resnet_c_4_path1_1x1"
  type: "Convolution"
  bottom: "v2_inception_resnet_c_3_elt"
  top: "v2_inception_resnet_c_4_path1_1x1"
  param {
    name: "610"
    lr_mult: 1.0
    decay_mult: 1.0
  }
  convolution_param {
    num_output: 192
    bias_term: false
    weight_filler {
      type: "xavier"
    }
    bias_filler {
      type: "constant"
      value: 0.0
    }
    pad_h: 0
    pad_w: 0
    kernel_h: 1
    kernel_w: 1
    stride_h: 1
    stride_w: 1
  }
}
layer {
  name: "v2_inception_resnet_c_4_path1_1x1_bn"
  type: "BN"
  bottom: "v2_inception_resnet_c_4_path1_1x1"
  top: "v2_inception_resnet_c_4_path1_1x1_bn"
  param {
    name: "611"
    lr_mult: 1.0
    decay_mult: 0.0
  }
  param {
    name: "612"
    lr_mult: 1.0
    decay_mult: 0.0
  }
  param {
    name: "613"
  }
  param {
    name: "614"
  }
  bn_param {
    frozen: true
    slope_filler {
      type: "constant"
      value: 1.0
    }
    bias_filler {
      type: "constant"
      value: 0.0
    }
  }
}
layer {
  name: "v2_inception_resnet_c_4_path1_1x1_relu"
  type: "ReLU"
  bottom: "v2_inception_resnet_c_4_path1_1x1_bn"
  top: "v2_inception_resnet_c_4_path1_1x1_bn"
}
layer {
  name: "v2_inception_resnet_c_4_path1_1x3"
  type: "Convolution"
  bottom: "v2_inception_resnet_c_4_path1_1x1_bn"
  top: "v2_inception_resnet_c_4_path1_1x3"
  param {
    name: "615"
    lr_mult: 1.0
    decay_mult: 1.0
  }
  convolution_param {
    num_output: 224
    bias_term: false
    weight_filler {
      type: "xavier"
    }
    bias_filler {
      type: "constant"
      value: 0.0
    }
    pad_h: 0
    pad_w: 4
    kernel_h: 1
    kernel_w: 3
    dilation: 4
    stride_h: 1
    stride_w: 1
  }
}
layer {
  name: "v2_inception_resnet_c_4_path1_1x3_bn"
  type: "BN"
  bottom: "v2_inception_resnet_c_4_path1_1x3"
  top: "v2_inception_resnet_c_4_path1_1x3_bn"
  param {
    name: "616"
    lr_mult: 1.0
    decay_mult: 0.0
  }
  param {
    name: "617"
    lr_mult: 1.0
    decay_mult: 0.0
  }
  param {
    name: "618"
  }
  param {
    name: "619"
  }
  bn_param {
    frozen: true
    slope_filler {
      type: "constant"
      value: 1.0
    }
    bias_filler {
      type: "constant"
      value: 0.0
    }
  }
}
layer {
  name: "v2_inception_resnet_c_4_path1_1x3_relu"
  type: "ReLU"
  bottom: "v2_inception_resnet_c_4_path1_1x3_bn"
  top: "v2_inception_resnet_c_4_path1_1x3_bn"
}
layer {
  name: "v2_inception_resnet_c_4_path1_3x1"
  type: "Convolution"
  bottom: "v2_inception_resnet_c_4_path1_1x3_bn"
  top: "v2_inception_resnet_c_4_path1_3x1"
  param {
    name: "620"
    lr_mult: 1.0
    decay_mult: 1.0
  }
  convolution_param {
    num_output: 256
    bias_term: false
    weight_filler {
      type: "xavier"
    }
    bias_filler {
      type: "constant"
      value: 0.0
    }
    pad_h: 4
    pad_w: 0
    kernel_h: 3
    kernel_w: 1
    dilation: 4
    stride_h: 1
    stride_w: 1
  }
}
layer {
  name: "v2_inception_resnet_c_4_path1_3x1_bn"
  type: "BN"
  bottom: "v2_inception_resnet_c_4_path1_3x1"
  top: "v2_inception_resnet_c_4_path1_3x1_bn"
  param {
    name: "621"
    lr_mult: 1.0
    decay_mult: 0.0
  }
  param {
    name: "622"
    lr_mult: 1.0
    decay_mult: 0.0
  }
  param {
    name: "623"
  }
  param {
    name: "624"
  }
  bn_param {
    frozen: true
    slope_filler {
      type: "constant"
      value: 1.0
    }
    bias_filler {
      type: "constant"
      value: 0.0
    }
  }
}
layer {
  name: "v2_inception_resnet_c_4_path1_3x1_relu"
  type: "ReLU"
  bottom: "v2_inception_resnet_c_4_path1_3x1_bn"
  top: "v2_inception_resnet_c_4_path1_3x1_bn"
}
layer {
  name: "v2_inception_resnet_c_4_path2_1x1"
  type: "Convolution"
  bottom: "v2_inception_resnet_c_3_elt"
  top: "v2_inception_resnet_c_4_path2_1x1"
  param {
    name: "625"
    lr_mult: 1.0
    decay_mult: 1.0
  }
  convolution_param {
    num_output: 192
    bias_term: false
    weight_filler {
      type: "xavier"
    }
    bias_filler {
      type: "constant"
      value: 0.0
    }
    pad_h: 0
    pad_w: 0
    kernel_h: 1
    kernel_w: 1
    stride_h: 1
    stride_w: 1
  }
}
layer {
  name: "v2_inception_resnet_c_4_path2_1x1_bn"
  type: "BN"
  bottom: "v2_inception_resnet_c_4_path2_1x1"
  top: "v2_inception_resnet_c_4_path2_1x1_bn"
  param {
    name: "626"
    lr_mult: 1.0
    decay_mult: 0.0
  }
  param {
    name: "627"
    lr_mult: 1.0
    decay_mult: 0.0
  }
  param {
    name: "628"
  }
  param {
    name: "629"
  }
  bn_param {
    frozen: true
    slope_filler {
      type: "constant"
      value: 1.0
    }
    bias_filler {
      type: "constant"
      value: 0.0
    }
  }
}
layer {
  name: "v2_inception_resnet_c_4_path2_1x1_relu"
  type: "ReLU"
  bottom: "v2_inception_resnet_c_4_path2_1x1_bn"
  top: "v2_inception_resnet_c_4_path2_1x1_bn"
}
layer {
  name: "v2_inception_resnet_c_4_concat"
  type: "Concat"
  bottom: "v2_inception_resnet_c_4_path1_3x1_bn"
  bottom: "v2_inception_resnet_c_4_path2_1x1_bn"
  top: "v2_inception_resnet_c_4_concat"
}
layer {
  name: "v2_inception_resnet_c_4_conv_1x1"
  type: "Convolution"
  bottom: "v2_inception_resnet_c_4_concat"
  top: "v2_inception_resnet_c_4_conv_1x1"
  param {
    name: "630"
    lr_mult: 1.0
    decay_mult: 1.0
  }
  convolution_param {
    num_output: 2048
    bias_term: false
    weight_filler {
      type: "xavier"
    }
    bias_filler {
      type: "constant"
      value: 0.0
    }
    pad_h: 0
    pad_w: 0
    kernel_h: 1
    kernel_w: 1
    stride_h: 1
    stride_w: 1
  }
}
layer {
  name: "v2_inception_resnet_c_4_conv_1x1_bn"
  type: "BN"
  bottom: "v2_inception_resnet_c_4_conv_1x1"
  top: "v2_inception_resnet_c_4_conv_1x1_bn"
  param {
    name: "631"
    lr_mult: 1.0
    decay_mult: 0.0
  }
  param {
    name: "632"
    lr_mult: 1.0
    decay_mult: 0.0
  }
  param {
    name: "633"
  }
  param {
    name: "634"
  }
  bn_param {
    frozen: true
    slope_filler {
      type: "constant"
      value: 1.0
    }
    bias_filler {
      type: "constant"
      value: 0.0
    }
  }
}
layer {
  name: "v2_inception_resnet_c_4_elt"
  type: "Eltwise"
  bottom: "v2_inception_resnet_c_3_elt"
  bottom: "v2_inception_resnet_c_4_conv_1x1_bn"
  top: "v2_inception_resnet_c_4_elt"
  eltwise_param {
    operation: SUM
    coeff: 1
    coeff: 0.3
  }
}
layer {
  name: "v2_inception_resnet_c_4_relu"
  type: "ReLU"
  bottom: "v2_inception_resnet_c_4_elt"
  top: "v2_inception_resnet_c_4_elt"
}
layer {
  name: "v2_inception_resnet_c_5_path1_1x1"
  type: "Convolution"
  bottom: "v2_inception_resnet_c_4_elt"
  top: "v2_inception_resnet_c_5_path1_1x1"
  param {
    name: "635"
    lr_mult: 1.0
    decay_mult: 1.0
  }
  convolution_param {
    num_output: 192
    bias_term: false
    weight_filler {
      type: "xavier"
    }
    bias_filler {
      type: "constant"
      value: 0.0
    }
    pad_h: 0
    pad_w: 0
    kernel_h: 1
    kernel_w: 1
    stride_h: 1
    stride_w: 1
  }
}
layer {
  name: "v2_inception_resnet_c_5_path1_1x1_bn"
  type: "BN"
  bottom: "v2_inception_resnet_c_5_path1_1x1"
  top: "v2_inception_resnet_c_5_path1_1x1_bn"
  param {
    name: "636"
    lr_mult: 1.0
    decay_mult: 0.0
  }
  param {
    name: "637"
    lr_mult: 1.0
    decay_mult: 0.0
  }
  param {
    name: "638"
  }
  param {
    name: "639"
  }
  bn_param {
    frozen: true
    slope_filler {
      type: "constant"
      value: 1.0
    }
    bias_filler {
      type: "constant"
      value: 0.0
    }
  }
}
layer {
  name: "v2_inception_resnet_c_5_path1_1x1_relu"
  type: "ReLU"
  bottom: "v2_inception_resnet_c_5_path1_1x1_bn"
  top: "v2_inception_resnet_c_5_path1_1x1_bn"
}
layer {
  name: "v2_inception_resnet_c_5_path1_1x3"
  type: "Convolution"
  bottom: "v2_inception_resnet_c_5_path1_1x1_bn"
  top: "v2_inception_resnet_c_5_path1_1x3"
  param {
    name: "640"
    lr_mult: 1.0
    decay_mult: 1.0
  }
  convolution_param {
    num_output: 224
    bias_term: false
    weight_filler {
      type: "xavier"
    }
    bias_filler {
      type: "constant"
      value: 0.0
    }
    pad_h: 0
    pad_w: 4
    kernel_h: 1
    kernel_w: 3
    dilation: 4
    stride_h: 1
    stride_w: 1
  }
}
layer {
  name: "v2_inception_resnet_c_5_path1_1x3_bn"
  type: "BN"
  bottom: "v2_inception_resnet_c_5_path1_1x3"
  top: "v2_inception_resnet_c_5_path1_1x3_bn"
  param {
    name: "641"
    lr_mult: 1.0
    decay_mult: 0.0
  }
  param {
    name: "642"
    lr_mult: 1.0
    decay_mult: 0.0
  }
  param {
    name: "643"
  }
  param {
    name: "644"
  }
  bn_param {
    frozen: true
    slope_filler {
      type: "constant"
      value: 1.0
    }
    bias_filler {
      type: "constant"
      value: 0.0
    }
  }
}
layer {
  name: "v2_inception_resnet_c_5_path1_1x3_relu"
  type: "ReLU"
  bottom: "v2_inception_resnet_c_5_path1_1x3_bn"
  top: "v2_inception_resnet_c_5_path1_1x3_bn"
}
layer {
  name: "v2_inception_resnet_c_5_path1_3x1"
  type: "Convolution"
  bottom: "v2_inception_resnet_c_5_path1_1x3_bn"
  top: "v2_inception_resnet_c_5_path1_3x1"
  param {
    name: "645"
    lr_mult: 1.0
    decay_mult: 1.0
  }
  convolution_param {
    num_output: 256
    bias_term: false
    weight_filler {
      type: "xavier"
    }
    bias_filler {
      type: "constant"
      value: 0.0
    }
    pad_h: 4
    pad_w: 0
    kernel_h: 3
    kernel_w: 1
    dilation: 4
    stride_h: 1
    stride_w: 1
  }
}
layer {
  name: "v2_inception_resnet_c_5_path1_3x1_bn"
  type: "BN"
  bottom: "v2_inception_resnet_c_5_path1_3x1"
  top: "v2_inception_resnet_c_5_path1_3x1_bn"
  param {
    name: "646"
    lr_mult: 1.0
    decay_mult: 0.0
  }
  param {
    name: "647"
    lr_mult: 1.0
    decay_mult: 0.0
  }
  param {
    name: "648"
  }
  param {
    name: "649"
  }
  bn_param {
    frozen: true
    slope_filler {
      type: "constant"
      value: 1.0
    }
    bias_filler {
      type: "constant"
      value: 0.0
    }
  }
}
layer {
  name: "v2_inception_resnet_c_5_path1_3x1_relu"
  type: "ReLU"
  bottom: "v2_inception_resnet_c_5_path1_3x1_bn"
  top: "v2_inception_resnet_c_5_path1_3x1_bn"
}
layer {
  name: "v2_inception_resnet_c_5_path2_1x1"
  type: "Convolution"
  bottom: "v2_inception_resnet_c_4_elt"
  top: "v2_inception_resnet_c_5_path2_1x1"
  param {
    name: "650"
    lr_mult: 1.0
    decay_mult: 1.0
  }
  convolution_param {
    num_output: 192
    bias_term: false
    weight_filler {
      type: "xavier"
    }
    bias_filler {
      type: "constant"
      value: 0.0
    }
    pad_h: 0
    pad_w: 0
    kernel_h: 1
    kernel_w: 1
    stride_h: 1
    stride_w: 1
  }
}
layer {
  name: "v2_inception_resnet_c_5_path2_1x1_bn"
  type: "BN"
  bottom: "v2_inception_resnet_c_5_path2_1x1"
  top: "v2_inception_resnet_c_5_path2_1x1_bn"
  param {
    name: "651"
    lr_mult: 1.0
    decay_mult: 0.0
  }
  param {
    name: "652"
    lr_mult: 1.0
    decay_mult: 0.0
  }
  param {
    name: "653"
  }
  param {
    name: "654"
  }
  bn_param {
    frozen: true
    slope_filler {
      type: "constant"
      value: 1.0
    }
    bias_filler {
      type: "constant"
      value: 0.0
    }
  }
}
layer {
  name: "v2_inception_resnet_c_5_path2_1x1_relu"
  type: "ReLU"
  bottom: "v2_inception_resnet_c_5_path2_1x1_bn"
  top: "v2_inception_resnet_c_5_path2_1x1_bn"
}
layer {
  name: "v2_inception_resnet_c_5_concat"
  type: "Concat"
  bottom: "v2_inception_resnet_c_5_path1_3x1_bn"
  bottom: "v2_inception_resnet_c_5_path2_1x1_bn"
  top: "v2_inception_resnet_c_5_concat"
}
layer {
  name: "v2_inception_resnet_c_5_conv_1x1"
  type: "Convolution"
  bottom: "v2_inception_resnet_c_5_concat"
  top: "v2_inception_resnet_c_5_conv_1x1"
  param {
    name: "655"
    lr_mult: 1.0
    decay_mult: 1.0
  }
  convolution_param {
    num_output: 2048
    bias_term: false
    weight_filler {
      type: "xavier"
    }
    bias_filler {
      type: "constant"
      value: 0.0
    }
    pad_h: 0
    pad_w: 0
    kernel_h: 1
    kernel_w: 1
    stride_h: 1
    stride_w: 1
  }
}
layer {
  name: "v2_inception_resnet_c_5_conv_1x1_bn"
  type: "BN"
  bottom: "v2_inception_resnet_c_5_conv_1x1"
  top: "v2_inception_resnet_c_5_conv_1x1_bn"
  param {
    name: "656"
    lr_mult: 1.0
    decay_mult: 0.0
  }
  param {
    name: "657"
    lr_mult: 1.0
    decay_mult: 0.0
  }
  param {
    name: "658"
  }
  param {
    name: "659"
  }
  bn_param {
    frozen: true
    slope_filler {
      type: "constant"
      value: 1.0
    }
    bias_filler {
      type: "constant"
      value: 0.0
    }
  }
}
layer {
  name: "v2_inception_resnet_c_5_elt"
  type: "Eltwise"
  bottom: "v2_inception_resnet_c_4_elt"
  bottom: "v2_inception_resnet_c_5_conv_1x1_bn"
  top: "v2_inception_resnet_c_5_elt"
  eltwise_param {
    operation: SUM
    coeff: 1
    coeff: 0.3
  }
}
layer {
  name: "v2_inception_resnet_c_5_relu"
  type: "ReLU"
  bottom: "v2_inception_resnet_c_5_elt"
  top: "v2_inception_resnet_c_5_elt"
}
#################################

#################################

layer {
  name: "v2_fc_VOC"
  type: "Convolution"
  bottom: "v2_inception_resnet_c_5_elt"
  top: "v2_fc_VOC"
  param {
    name: "660"
    lr_mult: 10
    decay_mult: 10
  }
  param {
    name: "661"
    lr_mult: 20
    decay_mult: 0
  }
  convolution_param {
    num_output: 21
    kernel_size: 3
    pad: 1
    weight_filler {
      type: "xavier"
    }
    bias_filler {
      type: "constant"
      value: 0.0
    }
  }
}
layer {
  name: "v2_upscore"
  type: "Deconvolution"
  bottom: "v2_fc_VOC"
  top: "v2_upscore"
  param {
    name: "662"
    lr_mult: 0
  }
  convolution_param {
    num_output: 21
    bias_term: false
    pad: 4
    kernel_size: 16
    group: 21
    stride: 8
    weight_filler {
      type: "bilinear"
    }
  }
}

layer {
  name: "v2_loss"
  type: "SoftmaxWithLoss"
  bottom: "v2_upscore"
  bottom: "v2_label"
  top: "v2_loss"
  loss_param {
    ignore_label: 255
    hm_ratio: 0.5
  }
}


#################################

layer {
  bottom: "inception_resnet_c_5_elt"
  bottom: "rois1"
  top: "roi_pool1"
  name: "roi_pool1"
  type: "ROIPooling"
  roi_pooling_param {
    pooled_w: 7
    pooled_h: 7
    spatial_scale: 0.125  # (1/8)
  }
}

layer {
  bottom: "v2_inception_resnet_c_5_elt"
  bottom: "rois2"
  top: "roi_pool2"
  name: "roi_pool2"
  type: "ROIPooling"
  roi_pooling_param {
    pooled_w: 7
    pooled_h: 7
    spatial_scale: 0.125  # (1/8)
  }
}

layer {
  bottom: "roi_pool1"
  bottom: "roi_pool2"
  top: "roi_pool"
  name: "roi_pool"
  type: "Concat"
  concat_param {
    axis: 1
  }
}

layer {
  name: "conv_mapping_1"
  type: "Convolution"
  bottom: "roi_pool"
  top: "conv_mapping_1"
  param {
    lr_mult: 1.0
    decay_mult: 1.0
  }
  param {
    lr_mult: 2.0
    decay_mult: 0
  }
  convolution_param {
    num_output: 256
    weight_filler {
      type: "xavier"
    }
    bias_filler {
      type: "constant"
      value: 0.0
    }
    pad_h: 1
    pad_w: 1
    kernel_h: 3
    kernel_w: 3
  }
}

layer {
  name: "conv_mapping_1_relu"
  type: "ReLU"
  bottom: "conv_mapping_1"
  top: "conv_mapping_1"
}

layer {
  name: "conv_mapping_2"
  type: "Convolution"
  bottom: "conv_mapping_1"
  top: "conv_mapping_2"
  param {
    lr_mult: 1.0
    decay_mult: 1.0
  }
  param {
    lr_mult: 2.0
    decay_mult: 0
  }
  convolution_param {
    num_output: 128
    weight_filler {
      type: "xavier"
    }
    bias_filler {
      type: "constant"
      value: 0.0
    }
    pad_h: 2
    pad_w: 2
    kernel_h: 5
    kernel_w: 5
  }
}

layer {
  name: "conv_mapping_2_relu"
  type: "ReLU"
  bottom: "conv_mapping_2"
  top: "conv_mapping_2"
}

layer {
  name: "mapping_3"
  type: "InnerProduct"
  bottom: "conv_mapping_2"
  top: "mapping_3"
  param {
    lr_mult: 1.0
    decay_mult: 0
  }
  param {
    lr_mult: 2.0
    decay_mult: 0
  }
  inner_product_param {
    num_output: 2401
    weight_filler {
      type: "xavier"
    }
    bias_filler {
      type: "constant"
    }
  }
}

layer {
  name: "mapping_3_relu"
  type: "ReLU"
  bottom: "mapping_3"
  top: "mapping_3"
}

layer {
  name: "mapping_3_reshape"
  type: "Reshape"
  bottom: "mapping_3"
  top: "mapping_3_reshape"
  reshape_param { shape { dim: 1  dim:  49  dim: 7  dim:  7 } }
}

layer {
  name: "mapping_3_LRN"
  type: "LRN"
  bottom: "mapping_3_reshape"
  top: "mapping_3_LRN"
  lrn_param {
    norm_region: WITHIN_CHANNEL
    local_size: 13
    alpha: 169
    beta: 0.5
    k: 0.00001
  }
}

layer {
  name: "mapping_3_LRN_2"
  type: "Eltwise"
  bottom: "mapping_3_LRN"
  bottom: "mapping_3_LRN"
  top: "mapping_3_LRN_2"
  eltwise_param {
    operation: PROD
  }
}


layer {
  name: "mapping"
  type: "LearntMapping"
  bottom: "roi_pool1"
  bottom: "mapping_3_LRN_2"
  top: "mapping"
}

layer {
  name: "loss2"
  type: "EuclideanLoss"
  bottom: "mapping"
  bottom: "roi_pool2"
  top: "loss2"
  propagate_down: true
  propagate_down: false
  loss_weight: 0.000005
}


#################################

layer {
  name: "mapping_label_p"
  type: "LearntMapping"
  bottom: "label_p"
  bottom: "mapping_3_LRN_2"
  top: "mapping_label_p"
}

layer {
  name: "loss_label_p"
  type: "SoftmaxWithLoss"
  bottom: "mapping_label_p"
  bottom: "v2_label_p"
  top: "loss_label_p"
}