################################ image 1 ################################


layer {
  name: "v2_conv1"
  type: "Convolution"
  bottom: "v2_data1"
  top: "v2_conv1"
  param {
    name: "lxx_label"
    lr_mult: 1.0
    decay_mult: 1.0
  }
  convolution_param {
    num_output: 32
    bias_term: false
    weight_filler {
      type: "xavier"
    }
    bias_filler {
      type: "constant"
      value: 0.0
    }
    pad_h: 1
    pad_w: 1
    kernel_h: 3
    kernel_w: 3
    stride_h: 2
    stride_w: 2
  }
}
layer {
  name: "v2_conv1_bn"
  type: "BN"
  bottom: "v2_conv1"
  top: "v2_conv1_bn"
  param {
    name: "lxx_label"
    lr_mult: 1.0
    decay_mult: 0.0
  }
  param {
    name: "lxx_label"
    lr_mult: 1.0
    decay_mult: 0.0
  }
  param {
    name: "lxx_label"
  }
  param {
    name: "lxx_label"
  }
  bn_param {
    frozen: true
    slope_filler {
      type: "constant"
      value: 1.0
    }
    bias_filler {
      type: "constant"
      value: 0.0
    }
  }
}
layer {
  name: "v2_conv1_relu"
  type: "ReLU"
  bottom: "v2_conv1_bn"
  top: "v2_conv1_bn"
}
layer {
  name: "v2_conv1_2"
  type: "Convolution"
  bottom: "v2_conv1_bn"
  top: "v2_conv1_2"
  param {
    name: "lxx_label"
    lr_mult: 1.0
    decay_mult: 1.0
  }
  convolution_param {
    num_output: 32
    bias_term: false
    weight_filler {
      type: "xavier"
    }
    bias_filler {
      type: "constant"
      value: 0.0
    }
    pad_h: 1
    pad_w: 1
    kernel_h: 3
    kernel_w: 3
    stride_h: 1
    stride_w: 1
  }
}
layer {
  name: "v2_conv1_2_bn"
  type: "BN"
  bottom: "v2_conv1_2"
  top: "v2_conv1_2_bn"
  param {
    name: "lxx_label"
    lr_mult: 1.0
    decay_mult: 0.0
  }
  param {
    name: "lxx_label"
    lr_mult: 1.0
    decay_mult: 0.0
  }
  param {
    name: "lxx_label"
  }
  param {
    name: "lxx_label"
  }
  bn_param {
    frozen: true
    slope_filler {
      type: "constant"
      value: 1.0
    }
    bias_filler {
      type: "constant"
      value: 0.0
    }
  }
}
layer {
  name: "v2_conv1_2_relu"
  type: "ReLU"
  bottom: "v2_conv1_2_bn"
  top: "v2_conv1_2_bn"
}
layer {
  name: "v2_conv1_3"
  type: "Convolution"
  bottom: "v2_conv1_2_bn"
  top: "v2_conv1_3"
  param {
    name: "lxx_label"
    lr_mult: 1.0
    decay_mult: 1.0
  }
  convolution_param {
    num_output: 64
    bias_term: false
    weight_filler {
      type: "xavier"
    }
    bias_filler {
      type: "constant"
      value: 0.0
    }
    pad_h: 1
    pad_w: 1
    kernel_h: 3
    kernel_w: 3
    stride_h: 1
    stride_w: 1
  }
}
layer {
  name: "v2_conv1_3_bn"
  type: "BN"
  bottom: "v2_conv1_3"
  top: "v2_conv1_3_bn"
  param {
    name: "lxx_label"
    lr_mult: 1.0
    decay_mult: 0.0
  }
  param {
    name: "lxx_label"
    lr_mult: 1.0
    decay_mult: 0.0
  }
  param {
    name: "lxx_label"
  }
  param {
    name: "lxx_label"
  }
  bn_param {
    frozen: true
    slope_filler {
      type: "constant"
      value: 1.0
    }
    bias_filler {
      type: "constant"
      value: 0.0
    }
  }
}
layer {
  name: "v2_conv1_3_relu"
  type: "ReLU"
  bottom: "v2_conv1_3_bn"
  top: "v2_conv1_3_bn"
}
layer {
  name: "v2_conv1_pool_branch"
  type: "Pooling"
  bottom: "v2_conv1_3_bn"
  top: "v2_conv1_pool_branch"
  pooling_param {
    pool: MAX
    kernel_h: 3
    kernel_w: 3
    stride_h: 2
    stride_w: 2
    pad_h: 0
    pad_w: 0
  }
}
layer {
  name: "v2_conv1_branch"
  type: "Convolution"
  bottom: "v2_conv1_3_bn"
  top: "v2_conv1_branch"
  param {
    name: "lxx_label"
    lr_mult: 1.0
    decay_mult: 1.0
  }
  convolution_param {
    num_output: 96
    bias_term: false
    weight_filler {
      type: "xavier"
    }
    bias_filler {
      type: "constant"
      value: 0.0
    }
    pad_h: 1
    pad_w: 1
    kernel_h: 3
    kernel_w: 3
    stride_h: 2
    stride_w: 2
  }
}
layer {
  name: "v2_conv1_branch_bn"
  type: "BN"
  bottom: "v2_conv1_branch"
  top: "v2_conv1_branch_bn"
  param {
    name: "lxx_label"
    lr_mult: 1.0
    decay_mult: 0.0
  }
  param {
    name: "lxx_label"
    lr_mult: 1.0
    decay_mult: 0.0
  }
  param {
    name: "lxx_label"
  }
  param {
    name: "lxx_label"
  }
  bn_param {
    frozen: true
    slope_filler {
      type: "constant"
      value: 1.0
    }
    bias_filler {
      type: "constant"
      value: 0.0
    }
  }
}
layer {
  name: "v2_conv1_branch_relu"
  type: "ReLU"
  bottom: "v2_conv1_branch_bn"
  top: "v2_conv1_branch_bn"
}
layer {
  name: "v2_conv1_concat"
  type: "Concat"
  bottom: "v2_conv1_pool_branch"
  bottom: "v2_conv1_branch_bn"
  top: "v2_conv1_concat"
}
layer {
  name: "v2_conv2_short_1x1"
  type: "Convolution"
  bottom: "v2_conv1_concat"
  top: "v2_conv2_short_1x1"
  param {
    name: "lxx_label"
    lr_mult: 1.0
    decay_mult: 1.0
  }
  convolution_param {
    num_output: 64
    bias_term: false
    weight_filler {
      type: "xavier"
    }
    bias_filler {
      type: "constant"
      value: 0.0
    }
    pad_h: 0
    pad_w: 0
    kernel_h: 1
    kernel_w: 1
    stride_h: 1
    stride_w: 1
  }
}
layer {
  name: "v2_conv2_short_1x1_bn"
  type: "BN"
  bottom: "v2_conv2_short_1x1"
  top: "v2_conv2_short_1x1_bn"
  param {
    name: "lxx_label"
    lr_mult: 1.0
    decay_mult: 0.0
  }
  param {
    name: "lxx_label"
    lr_mult: 1.0
    decay_mult: 0.0
  }
  param {
    name: "lxx_label"
  }
  param {
    name: "lxx_label"
  }
  bn_param {
    frozen: true
    slope_filler {
      type: "constant"
      value: 1.0
    }
    bias_filler {
      type: "constant"
      value: 0.0
    }
  }
}
layer {
  name: "v2_conv2_short_1x1_relu"
  type: "ReLU"
  bottom: "v2_conv2_short_1x1_bn"
  top: "v2_conv2_short_1x1_bn"
}
layer {
  name: "v2_conv2_short_3x3"
  type: "Convolution"
  bottom: "v2_conv2_short_1x1_bn"
  top: "v2_conv2_short_3x3"
  param {
    name: "lxx_label"
    lr_mult: 1.0
    decay_mult: 1.0
  }
  convolution_param {
    num_output: 96
    bias_term: false
    weight_filler {
      type: "xavier"
    }
    bias_filler {
      type: "constant"
      value: 0.0
    }
    pad_h: 1
    pad_w: 1
    kernel_h: 3
    kernel_w: 3
    stride_h: 1
    stride_w: 1
  }
}
layer {
  name: "v2_conv2_short_3x3_bn"
  type: "BN"
  bottom: "v2_conv2_short_3x3"
  top: "v2_conv2_short_3x3_bn"
  param {
    name: "lxx_label"
    lr_mult: 1.0
    decay_mult: 0.0
  }
  param {
    name: "lxx_label"
    lr_mult: 1.0
    decay_mult: 0.0
  }
  param {
    name: "lxx_label"
  }
  param {
    name: "lxx_label"
  }
  bn_param {
    frozen: true
    slope_filler {
      type: "constant"
      value: 1.0
    }
    bias_filler {
      type: "constant"
      value: 0.0
    }
  }
}
layer {
  name: "v2_conv2_short_3x3_relu"
  type: "ReLU"
  bottom: "v2_conv2_short_3x3_bn"
  top: "v2_conv2_short_3x3_bn"
}
layer {
  name: "v2_conv2_long_1x1"
  type: "Convolution"
  bottom: "v2_conv1_concat"
  top: "v2_conv2_long_1x1"
  param {
    name: "lxx_label"
    lr_mult: 1.0
    decay_mult: 1.0
  }
  convolution_param {
    num_output: 64
    bias_term: false
    weight_filler {
      type: "xavier"
    }
    bias_filler {
      type: "constant"
      value: 0.0
    }
    pad_h: 0
    pad_w: 0
    kernel_h: 1
    kernel_w: 1
    stride_h: 1
    stride_w: 1
  }
}
layer {
  name: "v2_conv2_long_1x1_bn"
  type: "BN"
  bottom: "v2_conv2_long_1x1"
  top: "v2_conv2_long_1x1_bn"
  param {
    name: "lxx_label"
    lr_mult: 1.0
    decay_mult: 0.0
  }
  param {
    name: "lxx_label"
    lr_mult: 1.0
    decay_mult: 0.0
  }
  param {
    name: "lxx_label"
  }
  param {
    name: "lxx_label"
  }
  bn_param {
    frozen: true
    slope_filler {
      type: "constant"
      value: 1.0
    }
    bias_filler {
      type: "constant"
      value: 0.0
    }
  }
}
layer {
  name: "v2_conv2_long_1x1_relu"
  type: "ReLU"
  bottom: "v2_conv2_long_1x1_bn"
  top: "v2_conv2_long_1x1_bn"
}
layer {
  name: "v2_conv2_long_7x1"
  type: "Convolution"
  bottom: "v2_conv2_long_1x1_bn"
  top: "v2_conv2_long_7x1"
  param {
    name: "lxx_label"
    lr_mult: 1.0
    decay_mult: 1.0
  }
  convolution_param {
    num_output: 64
    bias_term: false
    weight_filler {
      type: "xavier"
    }
    bias_filler {
      type: "constant"
      value: 0.0
    }
    pad_h: 3
    pad_w: 0
    kernel_h: 7
    kernel_w: 1
    stride_h: 1
    stride_w: 1
  }
}
layer {
  name: "v2_conv2_long_7x1_bn"
  type: "BN"
  bottom: "v2_conv2_long_7x1"
  top: "v2_conv2_long_7x1_bn"
  param {
    name: "lxx_label"
    lr_mult: 1.0
    decay_mult: 0.0
  }
  param {
    name: "lxx_label"
    lr_mult: 1.0
    decay_mult: 0.0
  }
  param {
    name: "lxx_label"
  }
  param {
    name: "lxx_label"
  }
  bn_param {
    frozen: true
    slope_filler {
      type: "constant"
      value: 1.0
    }
    bias_filler {
      type: "constant"
      value: 0.0
    }
  }
}
layer {
  name: "v2_conv2_long_7x1_relu"
  type: "ReLU"
  bottom: "v2_conv2_long_7x1_bn"
  top: "v2_conv2_long_7x1_bn"
}
layer {
  name: "v2_conv2_long_1x7"
  type: "Convolution"
  bottom: "v2_conv2_long_7x1_bn"
  top: "v2_conv2_long_1x7"
  param {
    name: "lxx_label"
    lr_mult: 1.0
    decay_mult: 1.0
  }
  convolution_param {
    num_output: 64
    bias_term: false
    weight_filler {
      type: "xavier"
    }
    bias_filler {
      type: "constant"
      value: 0.0
    }
    pad_h: 0
    pad_w: 3
    kernel_h: 1
    kernel_w: 7
    stride_h: 1
    stride_w: 1
  }
}
layer {
  name: "v2_conv2_long_1x7_bn"
  type: "BN"
  bottom: "v2_conv2_long_1x7"
  top: "v2_conv2_long_1x7_bn"
  param {
    name: "lxx_label"
    lr_mult: 1.0
    decay_mult: 0.0
  }
  param {
    name: "lxx_label"
    lr_mult: 1.0
    decay_mult: 0.0
  }
  param {
    name: "lxx_label"
  }
  param {
    name: "lxx_label"
  }
  bn_param {
    frozen: true
    slope_filler {
      type: "constant"
      value: 1.0
    }
    bias_filler {
      type: "constant"
      value: 0.0
    }
  }
}
layer {
  name: "v2_conv2_long_1x7_relu"
  type: "ReLU"
  bottom: "v2_conv2_long_1x7_bn"
  top: "v2_conv2_long_1x7_bn"
}
layer {
  name: "v2_conv2_long_3x3"
  type: "Convolution"
  bottom: "v2_conv2_long_1x7_bn"
  top: "v2_conv2_long_3x3"
  param {
    name: "lxx_label"
    lr_mult: 1.0
    decay_mult: 1.0
  }
  convolution_param {
    num_output: 96
    bias_term: false
    weight_filler {
      type: "xavier"
    }
    bias_filler {
      type: "constant"
      value: 0.0
    }
    pad_h: 1
    pad_w: 1
    kernel_h: 3
    kernel_w: 3
    stride_h: 1
    stride_w: 1
  }
}
layer {
  name: "v2_conv2_long_3x3_bn"
  type: "BN"
  bottom: "v2_conv2_long_3x3"
  top: "v2_conv2_long_3x3_bn"
  param {
    name: "lxx_label"
    lr_mult: 1.0
    decay_mult: 0.0
  }
  param {
    name: "lxx_label"
    lr_mult: 1.0
    decay_mult: 0.0
  }
  param {
    name: "lxx_label"
  }
  param {
    name: "lxx_label"
  }
  bn_param {
    frozen: true
    slope_filler {
      type: "constant"
      value: 1.0
    }
    bias_filler {
      type: "constant"
      value: 0.0
    }
  }
}
layer {
  name: "v2_conv2_long_3x3_relu"
  type: "ReLU"
  bottom: "v2_conv2_long_3x3_bn"
  top: "v2_conv2_long_3x3_bn"
}
layer {
  name: "v2_conv2_concat"
  type: "Concat"
  bottom: "v2_conv2_short_3x3_bn"
  bottom: "v2_conv2_long_3x3_bn"
  top: "v2_conv2_concat"
}
layer {
  name: "v2_conv2_pool_branch"
  type: "Pooling"
  bottom: "v2_conv2_concat"
  top: "v2_conv2_pool_branch"
  pooling_param {
    pool: MAX
    kernel_h: 3
    kernel_w: 3
    stride_h: 2
    stride_w: 2
    pad_h: 0
    pad_w: 0
  }
}
layer {
  name: "v2_conv2_branch"
  type: "Convolution"
  bottom: "v2_conv2_concat"
  top: "v2_conv2_branch"
  param {
    name: "lxx_label"
    lr_mult: 1.0
    decay_mult: 1.0
  }
  convolution_param {
    num_output: 192
    bias_term: false
    weight_filler {
      type: "xavier"
    }
    bias_filler {
      type: "constant"
      value: 0.0
    }
    pad_h: 1
    pad_w: 1
    kernel_h: 3
    kernel_w: 3
    stride_h: 2
    stride_w: 2
  }
}
layer {
  name: "v2_conv2_branch_bn"
  type: "BN"
  bottom: "v2_conv2_branch"
  top: "v2_conv2_branch_bn"
  param {
    name: "lxx_label"
    lr_mult: 1.0
    decay_mult: 0.0
  }
  param {
    name: "lxx_label"
    lr_mult: 1.0
    decay_mult: 0.0
  }
  param {
    name: "lxx_label"
  }
  param {
    name: "lxx_label"
  }
  bn_param {
    frozen: true
    slope_filler {
      type: "constant"
      value: 1.0
    }
    bias_filler {
      type: "constant"
      value: 0.0
    }
  }
}
layer {
  name: "v2_conv2_branch_relu"
  type: "ReLU"
  bottom: "v2_conv2_branch_bn"
  top: "v2_conv2_branch_bn"
}
layer {
  name: "v2_stem_concat"
  type: "Concat"
  bottom: "v2_conv2_pool_branch"
  bottom: "v2_conv2_branch_bn"
  top: "v2_stem_concat"
}
layer {
  name: "v2_inception_resnet_a_1_path1_1x1"
  type: "Convolution"
  bottom: "v2_stem_concat"
  top: "v2_inception_resnet_a_1_path1_1x1"
  param {
    name: "lxx_label"
    lr_mult: 1.0
    decay_mult: 1.0
  }
  convolution_param {
    num_output: 32
    bias_term: false
    weight_filler {
      type: "xavier"
    }
    bias_filler {
      type: "constant"
      value: 0.0
    }
    pad_h: 0
    pad_w: 0
    kernel_h: 1
    kernel_w: 1
    stride_h: 1
    stride_w: 1
  }
}
layer {
  name: "v2_inception_resnet_a_1_path1_1x1_bn"
  type: "BN"
  bottom: "v2_inception_resnet_a_1_path1_1x1"
  top: "v2_inception_resnet_a_1_path1_1x1_bn"
  param {
    name: "lxx_label"
    lr_mult: 1.0
    decay_mult: 0.0
  }
  param {
    name: "lxx_label"
    lr_mult: 1.0
    decay_mult: 0.0
  }
  param {
    name: "lxx_label"
  }
  param {
    name: "lxx_label"
  }
  bn_param {
    frozen: true
    slope_filler {
      type: "constant"
      value: 1.0
    }
    bias_filler {
      type: "constant"
      value: 0.0
    }
  }
}
layer {
  name: "v2_inception_resnet_a_1_path1_1x1_relu"
  type: "ReLU"
  bottom: "v2_inception_resnet_a_1_path1_1x1_bn"
  top: "v2_inception_resnet_a_1_path1_1x1_bn"
}
layer {
  name: "v2_inception_resnet_a_1_path1_3x3_1"
  type: "Convolution"
  bottom: "v2_inception_resnet_a_1_path1_1x1_bn"
  top: "v2_inception_resnet_a_1_path1_3x3_1"
  param {
    name: "lxx_label"
    lr_mult: 1.0
    decay_mult: 1.0
  }
  convolution_param {
    num_output: 48
    bias_term: false
    weight_filler {
      type: "xavier"
    }
    bias_filler {
      type: "constant"
      value: 0.0
    }
    pad_h: 1
    pad_w: 1
    kernel_h: 3
    kernel_w: 3
    stride_h: 1
    stride_w: 1
  }
}
layer {
  name: "v2_inception_resnet_a_1_path1_3x3_1_bn"
  type: "BN"
  bottom: "v2_inception_resnet_a_1_path1_3x3_1"
  top: "v2_inception_resnet_a_1_path1_3x3_1_bn"
  param {
    name: "lxx_label"
    lr_mult: 1.0
    decay_mult: 0.0
  }
  param {
    name: "lxx_label"
    lr_mult: 1.0
    decay_mult: 0.0
  }
  param {
    name: "lxx_label"
  }
  param {
    name: "lxx_label"
  }
  bn_param {
    frozen: true
    slope_filler {
      type: "constant"
      value: 1.0
    }
    bias_filler {
      type: "constant"
      value: 0.0
    }
  }
}
layer {
  name: "v2_inception_resnet_a_1_path1_3x3_1_relu"
  type: "ReLU"
  bottom: "v2_inception_resnet_a_1_path1_3x3_1_bn"
  top: "v2_inception_resnet_a_1_path1_3x3_1_bn"
}
layer {
  name: "v2_inception_resnet_a_1_path1_3x3_2"
  type: "Convolution"
  bottom: "v2_inception_resnet_a_1_path1_3x3_1_bn"
  top: "v2_inception_resnet_a_1_path1_3x3_2"
  param {
    name: "lxx_label"
    lr_mult: 1.0
    decay_mult: 1.0
  }
  convolution_param {
    num_output: 64
    bias_term: false
    weight_filler {
      type: "xavier"
    }
    bias_filler {
      type: "constant"
      value: 0.0
    }
    pad_h: 1
    pad_w: 1
    kernel_h: 3
    kernel_w: 3
    stride_h: 1
    stride_w: 1
  }
}
layer {
  name: "v2_inception_resnet_a_1_path1_3x3_2_bn"
  type: "BN"
  bottom: "v2_inception_resnet_a_1_path1_3x3_2"
  top: "v2_inception_resnet_a_1_path1_3x3_2_bn"
  param {
    name: "lxx_label"
    lr_mult: 1.0
    decay_mult: 0.0
  }
  param {
    name: "lxx_label"
    lr_mult: 1.0
    decay_mult: 0.0
  }
  param {
    name: "lxx_label"
  }
  param {
    name: "lxx_label"
  }
  bn_param {
    frozen: true
    slope_filler {
      type: "constant"
      value: 1.0
    }
    bias_filler {
      type: "constant"
      value: 0.0
    }
  }
}
layer {
  name: "v2_inception_resnet_a_1_path1_3x3_2_relu"
  type: "ReLU"
  bottom: "v2_inception_resnet_a_1_path1_3x3_2_bn"
  top: "v2_inception_resnet_a_1_path1_3x3_2_bn"
}
layer {
  name: "v2_inception_resnet_a_1_path2_1x1"
  type: "Convolution"
  bottom: "v2_stem_concat"
  top: "v2_inception_resnet_a_1_path2_1x1"
  param {
    name: "lxx_label"
    lr_mult: 1.0
    decay_mult: 1.0
  }
  convolution_param {
    num_output: 32
    bias_term: false
    weight_filler {
      type: "xavier"
    }
    bias_filler {
      type: "constant"
      value: 0.0
    }
    pad_h: 0
    pad_w: 0
    kernel_h: 1
    kernel_w: 1
    stride_h: 1
    stride_w: 1
  }
}
layer {
  name: "v2_inception_resnet_a_1_path2_1x1_bn"
  type: "BN"
  bottom: "v2_inception_resnet_a_1_path2_1x1"
  top: "v2_inception_resnet_a_1_path2_1x1_bn"
  param {
    name: "lxx_label"
    lr_mult: 1.0
    decay_mult: 0.0
  }
  param {
    name: "lxx_label"
    lr_mult: 1.0
    decay_mult: 0.0
  }
  param {
    name: "lxx_label"
  }
  param {
    name: "lxx_label"
  }
  bn_param {
    frozen: true
    slope_filler {
      type: "constant"
      value: 1.0
    }
    bias_filler {
      type: "constant"
      value: 0.0
    }
  }
}
layer {
  name: "v2_inception_resnet_a_1_path2_1x1_relu"
  type: "ReLU"
  bottom: "v2_inception_resnet_a_1_path2_1x1_bn"
  top: "v2_inception_resnet_a_1_path2_1x1_bn"
}
layer {
  name: "v2_inception_resnet_a_1_path2_3x3"
  type: "Convolution"
  bottom: "v2_inception_resnet_a_1_path2_1x1_bn"
  top: "v2_inception_resnet_a_1_path2_3x3"
  param {
    name: "lxx_label"
    lr_mult: 1.0
    decay_mult: 1.0
  }
  convolution_param {
    num_output: 32
    bias_term: false
    weight_filler {
      type: "xavier"
    }
    bias_filler {
      type: "constant"
      value: 0.0
    }
    pad_h: 1
    pad_w: 1
    kernel_h: 3
    kernel_w: 3
    stride_h: 1
    stride_w: 1
  }
}
layer {
  name: "v2_inception_resnet_a_1_path2_3x3_bn"
  type: "BN"
  bottom: "v2_inception_resnet_a_1_path2_3x3"
  top: "v2_inception_resnet_a_1_path2_3x3_bn"
  param {
    name: "lxx_label"
    lr_mult: 1.0
    decay_mult: 0.0
  }
  param {
    name: "lxx_label"
    lr_mult: 1.0
    decay_mult: 0.0
  }
  param {
    name: "lxx_label"
  }
  param {
    name: "lxx_label"
  }
  bn_param {
    frozen: true
    slope_filler {
      type: "constant"
      value: 1.0
    }
    bias_filler {
      type: "constant"
      value: 0.0
    }
  }
}
layer {
  name: "v2_inception_resnet_a_1_path2_3x3_relu"
  type: "ReLU"
  bottom: "v2_inception_resnet_a_1_path2_3x3_bn"
  top: "v2_inception_resnet_a_1_path2_3x3_bn"
}
layer {
  name: "v2_inception_resnet_a_1_path3_1x1"
  type: "Convolution"
  bottom: "v2_stem_concat"
  top: "v2_inception_resnet_a_1_path3_1x1"
  param {
    name: "lxx_label"
    lr_mult: 1.0
    decay_mult: 1.0
  }
  convolution_param {
    num_output: 32
    bias_term: false
    weight_filler {
      type: "xavier"
    }
    bias_filler {
      type: "constant"
      value: 0.0
    }
    pad_h: 0
    pad_w: 0
    kernel_h: 1
    kernel_w: 1
    stride_h: 1
    stride_w: 1
  }
}
layer {
  name: "v2_inception_resnet_a_1_path3_1x1_bn"
  type: "BN"
  bottom: "v2_inception_resnet_a_1_path3_1x1"
  top: "v2_inception_resnet_a_1_path3_1x1_bn"
  param {
    name: "lxx_label"
    lr_mult: 1.0
    decay_mult: 0.0
  }
  param {
    name: "lxx_label"
    lr_mult: 1.0
    decay_mult: 0.0
  }
  param {
    name: "lxx_label"
  }
  param {
    name: "lxx_label"
  }
  bn_param {
    frozen: true
    slope_filler {
      type: "constant"
      value: 1.0
    }
    bias_filler {
      type: "constant"
      value: 0.0
    }
  }
}
layer {
  name: "v2_inception_resnet_a_1_path3_1x1_relu"
  type: "ReLU"
  bottom: "v2_inception_resnet_a_1_path3_1x1_bn"
  top: "v2_inception_resnet_a_1_path3_1x1_bn"
}
layer {
  name: "v2_inception_resnet_a_1_concat"
  type: "Concat"
  bottom: "v2_inception_resnet_a_1_path1_3x3_2_bn"
  bottom: "v2_inception_resnet_a_1_path2_3x3_bn"
  bottom: "v2_inception_resnet_a_1_path3_1x1_bn"
  top: "v2_inception_resnet_a_1_concat"
}
layer {
  name: "v2_inception_resnet_a_1_conv_1x1"
  type: "Convolution"
  bottom: "v2_inception_resnet_a_1_concat"
  top: "v2_inception_resnet_a_1_conv_1x1"
  param {
    name: "lxx_label"
    lr_mult: 1.0
    decay_mult: 1.0
  }
  convolution_param {
    num_output: 384
    bias_term: false
    weight_filler {
      type: "xavier"
    }
    bias_filler {
      type: "constant"
      value: 0.0
    }
    pad_h: 0
    pad_w: 0
    kernel_h: 1
    kernel_w: 1
    stride_h: 1
    stride_w: 1
  }
}
layer {
  name: "v2_inception_resnet_a_1_conv_1x1_bn"
  type: "BN"
  bottom: "v2_inception_resnet_a_1_conv_1x1"
  top: "v2_inception_resnet_a_1_conv_1x1_bn"
  param {
    name: "lxx_label"
    lr_mult: 1.0
    decay_mult: 0.0
  }
  param {
    name: "lxx_label"
    lr_mult: 1.0
    decay_mult: 0.0
  }
  param {
    name: "lxx_label"
  }
  param {
    name: "lxx_label"
  }
  bn_param {
    frozen: true
    slope_filler {
      type: "constant"
      value: 1.0
    }
    bias_filler {
      type: "constant"
      value: 0.0
    }
  }
}
layer {
  name: "v2_inception_resnet_a_1_elt"
  type: "Eltwise"
  bottom: "v2_stem_concat"
  bottom: "v2_inception_resnet_a_1_conv_1x1_bn"
  top: "v2_inception_resnet_a_1_elt"
  eltwise_param {
    operation: SUM
    coeff: 1
    coeff: 0.3
  }
}
layer {
  name: "v2_inception_resnet_a_1_relu"
  type: "ReLU"
  bottom: "v2_inception_resnet_a_1_elt"
  top: "v2_inception_resnet_a_1_elt"
}
layer {
  name: "v2_inception_resnet_a_2_path1_1x1"
  type: "Convolution"
  bottom: "v2_inception_resnet_a_1_elt"
  top: "v2_inception_resnet_a_2_path1_1x1"
  param {
    name: "lxx_label"
    lr_mult: 1.0
    decay_mult: 1.0
  }
  convolution_param {
    num_output: 32
    bias_term: false
    weight_filler {
      type: "xavier"
    }
    bias_filler {
      type: "constant"
      value: 0.0
    }
    pad_h: 0
    pad_w: 0
    kernel_h: 1
    kernel_w: 1
    stride_h: 1
    stride_w: 1
  }
}
layer {
  name: "v2_inception_resnet_a_2_path1_1x1_bn"
  type: "BN"
  bottom: "v2_inception_resnet_a_2_path1_1x1"
  top: "v2_inception_resnet_a_2_path1_1x1_bn"
  param {
    name: "lxx_label"
    lr_mult: 1.0
    decay_mult: 0.0
  }
  param {
    name: "lxx_label"
    lr_mult: 1.0
    decay_mult: 0.0
  }
  param {
    name: "lxx_label"
  }
  param {
    name: "lxx_label"
  }
  bn_param {
    frozen: true
    slope_filler {
      type: "constant"
      value: 1.0
    }
    bias_filler {
      type: "constant"
      value: 0.0
    }
  }
}
layer {
  name: "v2_inception_resnet_a_2_path1_1x1_relu"
  type: "ReLU"
  bottom: "v2_inception_resnet_a_2_path1_1x1_bn"
  top: "v2_inception_resnet_a_2_path1_1x1_bn"
}
layer {
  name: "v2_inception_resnet_a_2_path1_3x3_1"
  type: "Convolution"
  bottom: "v2_inception_resnet_a_2_path1_1x1_bn"
  top: "v2_inception_resnet_a_2_path1_3x3_1"
  param {
    name: "lxx_label"
    lr_mult: 1.0
    decay_mult: 1.0
  }
  convolution_param {
    num_output: 48
    bias_term: false
    weight_filler {
      type: "xavier"
    }
    bias_filler {
      type: "constant"
      value: 0.0
    }
    pad_h: 1
    pad_w: 1
    kernel_h: 3
    kernel_w: 3
    stride_h: 1
    stride_w: 1
  }
}
layer {
  name: "v2_inception_resnet_a_2_path1_3x3_1_bn"
  type: "BN"
  bottom: "v2_inception_resnet_a_2_path1_3x3_1"
  top: "v2_inception_resnet_a_2_path1_3x3_1_bn"
  param {
    name: "lxx_label"
    lr_mult: 1.0
    decay_mult: 0.0
  }
  param {
    name: "lxx_label"
    lr_mult: 1.0
    decay_mult: 0.0
  }
  param {
    name: "lxx_label"
  }
  param {
    name: "lxx_label"
  }
  bn_param {
    frozen: true
    slope_filler {
      type: "constant"
      value: 1.0
    }
    bias_filler {
      type: "constant"
      value: 0.0
    }
  }
}
layer {
  name: "v2_inception_resnet_a_2_path1_3x3_1_relu"
  type: "ReLU"
  bottom: "v2_inception_resnet_a_2_path1_3x3_1_bn"
  top: "v2_inception_resnet_a_2_path1_3x3_1_bn"
}
layer {
  name: "v2_inception_resnet_a_2_path1_3x3_2"
  type: "Convolution"
  bottom: "v2_inception_resnet_a_2_path1_3x3_1_bn"
  top: "v2_inception_resnet_a_2_path1_3x3_2"
  param {
    name: "lxx_label"
    lr_mult: 1.0
    decay_mult: 1.0
  }
  convolution_param {
    num_output: 64
    bias_term: false
    weight_filler {
      type: "xavier"
    }
    bias_filler {
      type: "constant"
      value: 0.0
    }
    pad_h: 1
    pad_w: 1
    kernel_h: 3
    kernel_w: 3
    stride_h: 1
    stride_w: 1
  }
}
layer {
  name: "v2_inception_resnet_a_2_path1_3x3_2_bn"
  type: "BN"
  bottom: "v2_inception_resnet_a_2_path1_3x3_2"
  top: "v2_inception_resnet_a_2_path1_3x3_2_bn"
  param {
    name: "lxx_label"
    lr_mult: 1.0
    decay_mult: 0.0
  }
  param {
    name: "lxx_label"
    lr_mult: 1.0
    decay_mult: 0.0
  }
  param {
    name: "lxx_label"
  }
  param {
    name: "lxx_label"
  }
  bn_param {
    frozen: true
    slope_filler {
      type: "constant"
      value: 1.0
    }
    bias_filler {
      type: "constant"
      value: 0.0
    }
  }
}
layer {
  name: "v2_inception_resnet_a_2_path1_3x3_2_relu"
  type: "ReLU"
  bottom: "v2_inception_resnet_a_2_path1_3x3_2_bn"
  top: "v2_inception_resnet_a_2_path1_3x3_2_bn"
}
layer {
  name: "v2_inception_resnet_a_2_path2_1x1"
  type: "Convolution"
  bottom: "v2_inception_resnet_a_1_elt"
  top: "v2_inception_resnet_a_2_path2_1x1"
  param {
    name: "lxx_label"
    lr_mult: 1.0
    decay_mult: 1.0
  }
  convolution_param {
    num_output: 32
    bias_term: false
    weight_filler {
      type: "xavier"
    }
    bias_filler {
      type: "constant"
      value: 0.0
    }
    pad_h: 0
    pad_w: 0
    kernel_h: 1
    kernel_w: 1
    stride_h: 1
    stride_w: 1
  }
}
layer {
  name: "v2_inception_resnet_a_2_path2_1x1_bn"
  type: "BN"
  bottom: "v2_inception_resnet_a_2_path2_1x1"
  top: "v2_inception_resnet_a_2_path2_1x1_bn"
  param {
    name: "lxx_label"
    lr_mult: 1.0
    decay_mult: 0.0
  }
  param {
    name: "lxx_label"
    lr_mult: 1.0
    decay_mult: 0.0
  }
  param {
    name: "lxx_label"
  }
  param {
    name: "lxx_label"
  }
  bn_param {
    frozen: true
    slope_filler {
      type: "constant"
      value: 1.0
    }
    bias_filler {
      type: "constant"
      value: 0.0
    }
  }
}
layer {
  name: "v2_inception_resnet_a_2_path2_1x1_relu"
  type: "ReLU"
  bottom: "v2_inception_resnet_a_2_path2_1x1_bn"
  top: "v2_inception_resnet_a_2_path2_1x1_bn"
}
layer {
  name: "v2_inception_resnet_a_2_path2_3x3"
  type: "Convolution"
  bottom: "v2_inception_resnet_a_2_path2_1x1_bn"
  top: "v2_inception_resnet_a_2_path2_3x3"
  param {
    name: "lxx_label"
    lr_mult: 1.0
    decay_mult: 1.0
  }
  convolution_param {
    num_output: 32
    bias_term: false
    weight_filler {
      type: "xavier"
    }
    bias_filler {
      type: "constant"
      value: 0.0
    }
    pad_h: 1
    pad_w: 1
    kernel_h: 3
    kernel_w: 3
    stride_h: 1
    stride_w: 1
  }
}
layer {
  name: "v2_inception_resnet_a_2_path2_3x3_bn"
  type: "BN"
  bottom: "v2_inception_resnet_a_2_path2_3x3"
  top: "v2_inception_resnet_a_2_path2_3x3_bn"
  param {
    name: "lxx_label"
    lr_mult: 1.0
    decay_mult: 0.0
  }
  param {
    name: "lxx_label"
    lr_mult: 1.0
    decay_mult: 0.0
  }
  param {
    name: "lxx_label"
  }
  param {
    name: "lxx_label"
  }
  bn_param {
    frozen: true
    slope_filler {
      type: "constant"
      value: 1.0
    }
    bias_filler {
      type: "constant"
      value: 0.0
    }
  }
}
layer {
  name: "v2_inception_resnet_a_2_path2_3x3_relu"
  type: "ReLU"
  bottom: "v2_inception_resnet_a_2_path2_3x3_bn"
  top: "v2_inception_resnet_a_2_path2_3x3_bn"
}
layer {
  name: "v2_inception_resnet_a_2_path3_1x1"
  type: "Convolution"
  bottom: "v2_inception_resnet_a_1_elt"
  top: "v2_inception_resnet_a_2_path3_1x1"
  param {
    name: "lxx_label"
    lr_mult: 1.0
    decay_mult: 1.0
  }
  convolution_param {
    num_output: 32
    bias_term: false
    weight_filler {
      type: "xavier"
    }
    bias_filler {
      type: "constant"
      value: 0.0
    }
    pad_h: 0
    pad_w: 0
    kernel_h: 1
    kernel_w: 1
    stride_h: 1
    stride_w: 1
  }
}
layer {
  name: "v2_inception_resnet_a_2_path3_1x1_bn"
  type: "BN"
  bottom: "v2_inception_resnet_a_2_path3_1x1"
  top: "v2_inception_resnet_a_2_path3_1x1_bn"
  param {
    name: "lxx_label"
    lr_mult: 1.0
    decay_mult: 0.0
  }
  param {
    name: "lxx_label"
    lr_mult: 1.0
    decay_mult: 0.0
  }
  param {
    name: "lxx_label"
  }
  param {
    name: "lxx_label"
  }
  bn_param {
    frozen: true
    slope_filler {
      type: "constant"
      value: 1.0
    }
    bias_filler {
      type: "constant"
      value: 0.0
    }
  }
}
layer {
  name: "v2_inception_resnet_a_2_path3_1x1_relu"
  type: "ReLU"
  bottom: "v2_inception_resnet_a_2_path3_1x1_bn"
  top: "v2_inception_resnet_a_2_path3_1x1_bn"
}
layer {
  name: "v2_inception_resnet_a_2_concat"
  type: "Concat"
  bottom: "v2_inception_resnet_a_2_path1_3x3_2_bn"
  bottom: "v2_inception_resnet_a_2_path2_3x3_bn"
  bottom: "v2_inception_resnet_a_2_path3_1x1_bn"
  top: "v2_inception_resnet_a_2_concat"
}
layer {
  name: "v2_inception_resnet_a_2_conv_1x1"
  type: "Convolution"
  bottom: "v2_inception_resnet_a_2_concat"
  top: "v2_inception_resnet_a_2_conv_1x1"
  param {
    name: "lxx_label"
    lr_mult: 1.0
    decay_mult: 1.0
  }
  convolution_param {
    num_output: 384
    bias_term: false
    weight_filler {
      type: "xavier"
    }
    bias_filler {
      type: "constant"
      value: 0.0
    }
    pad_h: 0
    pad_w: 0
    kernel_h: 1
    kernel_w: 1
    stride_h: 1
    stride_w: 1
  }
}
layer {
  name: "v2_inception_resnet_a_2_conv_1x1_bn"
  type: "BN"
  bottom: "v2_inception_resnet_a_2_conv_1x1"
  top: "v2_inception_resnet_a_2_conv_1x1_bn"
  param {
    name: "lxx_label"
    lr_mult: 1.0
    decay_mult: 0.0
  }
  param {
    name: "lxx_label"
    lr_mult: 1.0
    decay_mult: 0.0
  }
  param {
    name: "lxx_label"
  }
  param {
    name: "lxx_label"
  }
  bn_param {
    frozen: true
    slope_filler {
      type: "constant"
      value: 1.0
    }
    bias_filler {
      type: "constant"
      value: 0.0
    }
  }
}
layer {
  name: "v2_inception_resnet_a_2_elt"
  type: "Eltwise"
  bottom: "v2_inception_resnet_a_1_elt"
  bottom: "v2_inception_resnet_a_2_conv_1x1_bn"
  top: "v2_inception_resnet_a_2_elt"
  eltwise_param {
    operation: SUM
    coeff: 1
    coeff: 0.3
  }
}
layer {
  name: "v2_inception_resnet_a_2_relu"
  type: "ReLU"
  bottom: "v2_inception_resnet_a_2_elt"
  top: "v2_inception_resnet_a_2_elt"
}
layer {
  name: "v2_inception_resnet_a_3_path1_1x1"
  type: "Convolution"
  bottom: "v2_inception_resnet_a_2_elt"
  top: "v2_inception_resnet_a_3_path1_1x1"
  param {
    name: "lxx_label"
    lr_mult: 1.0
    decay_mult: 1.0
  }
  convolution_param {
    num_output: 32
    bias_term: false
    weight_filler {
      type: "xavier"
    }
    bias_filler {
      type: "constant"
      value: 0.0
    }
    pad_h: 0
    pad_w: 0
    kernel_h: 1
    kernel_w: 1
    stride_h: 1
    stride_w: 1
  }
}
layer {
  name: "v2_inception_resnet_a_3_path1_1x1_bn"
  type: "BN"
  bottom: "v2_inception_resnet_a_3_path1_1x1"
  top: "v2_inception_resnet_a_3_path1_1x1_bn"
  param {
    name: "lxx_label"
    lr_mult: 1.0
    decay_mult: 0.0
  }
  param {
    name: "lxx_label"
    lr_mult: 1.0
    decay_mult: 0.0
  }
  param {
    name: "lxx_label"
  }
  param {
    name: "lxx_label"
  }
  bn_param {
    frozen: true
    slope_filler {
      type: "constant"
      value: 1.0
    }
    bias_filler {
      type: "constant"
      value: 0.0
    }
  }
}
layer {
  name: "v2_inception_resnet_a_3_path1_1x1_relu"
  type: "ReLU"
  bottom: "v2_inception_resnet_a_3_path1_1x1_bn"
  top: "v2_inception_resnet_a_3_path1_1x1_bn"
}
layer {
  name: "v2_inception_resnet_a_3_path1_3x3_1"
  type: "Convolution"
  bottom: "v2_inception_resnet_a_3_path1_1x1_bn"
  top: "v2_inception_resnet_a_3_path1_3x3_1"
  param {
    name: "lxx_label"
    lr_mult: 1.0
    decay_mult: 1.0
  }
  convolution_param {
    num_output: 48
    bias_term: false
    weight_filler {
      type: "xavier"
    }
    bias_filler {
      type: "constant"
      value: 0.0
    }
    pad_h: 1
    pad_w: 1
    kernel_h: 3
    kernel_w: 3
    stride_h: 1
    stride_w: 1
  }
}
layer {
  name: "v2_inception_resnet_a_3_path1_3x3_1_bn"
  type: "BN"
  bottom: "v2_inception_resnet_a_3_path1_3x3_1"
  top: "v2_inception_resnet_a_3_path1_3x3_1_bn"
  param {
    name: "lxx_label"
    lr_mult: 1.0
    decay_mult: 0.0
  }
  param {
    name: "lxx_label"
    lr_mult: 1.0
    decay_mult: 0.0
  }
  param {
    name: "lxx_label"
  }
  param {
    name: "lxx_label"
  }
  bn_param {
    frozen: true
    slope_filler {
      type: "constant"
      value: 1.0
    }
    bias_filler {
      type: "constant"
      value: 0.0
    }
  }
}
layer {
  name: "v2_inception_resnet_a_3_path1_3x3_1_relu"
  type: "ReLU"
  bottom: "v2_inception_resnet_a_3_path1_3x3_1_bn"
  top: "v2_inception_resnet_a_3_path1_3x3_1_bn"
}
layer {
  name: "v2_inception_resnet_a_3_path1_3x3_2"
  type: "Convolution"
  bottom: "v2_inception_resnet_a_3_path1_3x3_1_bn"
  top: "v2_inception_resnet_a_3_path1_3x3_2"
  param {
    name: "lxx_label"
    lr_mult: 1.0
    decay_mult: 1.0
  }
  convolution_param {
    num_output: 64
    bias_term: false
    weight_filler {
      type: "xavier"
    }
    bias_filler {
      type: "constant"
      value: 0.0
    }
    pad_h: 1
    pad_w: 1
    kernel_h: 3
    kernel_w: 3
    stride_h: 1
    stride_w: 1
  }
}
layer {
  name: "v2_inception_resnet_a_3_path1_3x3_2_bn"
  type: "BN"
  bottom: "v2_inception_resnet_a_3_path1_3x3_2"
  top: "v2_inception_resnet_a_3_path1_3x3_2_bn"
  param {
    name: "lxx_label"
    lr_mult: 1.0
    decay_mult: 0.0
  }
  param {
    name: "lxx_label"
    lr_mult: 1.0
    decay_mult: 0.0
  }
  param {
    name: "lxx_label"
  }
  param {
    name: "lxx_label"
  }
  bn_param {
    frozen: true
    slope_filler {
      type: "constant"
      value: 1.0
    }
    bias_filler {
      type: "constant"
      value: 0.0
    }
  }
}
layer {
  name: "v2_inception_resnet_a_3_path1_3x3_2_relu"
  type: "ReLU"
  bottom: "v2_inception_resnet_a_3_path1_3x3_2_bn"
  top: "v2_inception_resnet_a_3_path1_3x3_2_bn"
}
layer {
  name: "v2_inception_resnet_a_3_path2_1x1"
  type: "Convolution"
  bottom: "v2_inception_resnet_a_2_elt"
  top: "v2_inception_resnet_a_3_path2_1x1"
  param {
    name: "lxx_label"
    lr_mult: 1.0
    decay_mult: 1.0
  }
  convolution_param {
    num_output: 32
    bias_term: false
    weight_filler {
      type: "xavier"
    }
    bias_filler {
      type: "constant"
      value: 0.0
    }
    pad_h: 0
    pad_w: 0
    kernel_h: 1
    kernel_w: 1
    stride_h: 1
    stride_w: 1
  }
}
layer {
  name: "v2_inception_resnet_a_3_path2_1x1_bn"
  type: "BN"
  bottom: "v2_inception_resnet_a_3_path2_1x1"
  top: "v2_inception_resnet_a_3_path2_1x1_bn"
  param {
    name: "lxx_label"
    lr_mult: 1.0
    decay_mult: 0.0
  }
  param {
    name: "lxx_label"
    lr_mult: 1.0
    decay_mult: 0.0
  }
  param {
    name: "lxx_label"
  }
  param {
    name: "lxx_label"
  }
  bn_param {
    frozen: true
    slope_filler {
      type: "constant"
      value: 1.0
    }
    bias_filler {
      type: "constant"
      value: 0.0
    }
  }
}
layer {
  name: "v2_inception_resnet_a_3_path2_1x1_relu"
  type: "ReLU"
  bottom: "v2_inception_resnet_a_3_path2_1x1_bn"
  top: "v2_inception_resnet_a_3_path2_1x1_bn"
}
layer {
  name: "v2_inception_resnet_a_3_path2_3x3"
  type: "Convolution"
  bottom: "v2_inception_resnet_a_3_path2_1x1_bn"
  top: "v2_inception_resnet_a_3_path2_3x3"
  param {
    name: "lxx_label"
    lr_mult: 1.0
    decay_mult: 1.0
  }
  convolution_param {
    num_output: 32
    bias_term: false
    weight_filler {
      type: "xavier"
    }
    bias_filler {
      type: "constant"
      value: 0.0
    }
    pad_h: 1
    pad_w: 1
    kernel_h: 3
    kernel_w: 3
    stride_h: 1
    stride_w: 1
  }
}
layer {
  name: "v2_inception_resnet_a_3_path2_3x3_bn"
  type: "BN"
  bottom: "v2_inception_resnet_a_3_path2_3x3"
  top: "v2_inception_resnet_a_3_path2_3x3_bn"
  param {
    name: "lxx_label"
    lr_mult: 1.0
    decay_mult: 0.0
  }
  param {
    name: "lxx_label"
    lr_mult: 1.0
    decay_mult: 0.0
  }
  param {
    name: "lxx_label"
  }
  param {
    name: "lxx_label"
  }
  bn_param {
    frozen: true
    slope_filler {
      type: "constant"
      value: 1.0
    }
    bias_filler {
      type: "constant"
      value: 0.0
    }
  }
}
layer {
  name: "v2_inception_resnet_a_3_path2_3x3_relu"
  type: "ReLU"
  bottom: "v2_inception_resnet_a_3_path2_3x3_bn"
  top: "v2_inception_resnet_a_3_path2_3x3_bn"
}
layer {
  name: "v2_inception_resnet_a_3_path3_1x1"
  type: "Convolution"
  bottom: "v2_inception_resnet_a_2_elt"
  top: "v2_inception_resnet_a_3_path3_1x1"
  param {
    name: "lxx_label"
    lr_mult: 1.0
    decay_mult: 1.0
  }
  convolution_param {
    num_output: 32
    bias_term: false
    weight_filler {
      type: "xavier"
    }
    bias_filler {
      type: "constant"
      value: 0.0
    }
    pad_h: 0
    pad_w: 0
    kernel_h: 1
    kernel_w: 1
    stride_h: 1
    stride_w: 1
  }
}
layer {
  name: "v2_inception_resnet_a_3_path3_1x1_bn"
  type: "BN"
  bottom: "v2_inception_resnet_a_3_path3_1x1"
  top: "v2_inception_resnet_a_3_path3_1x1_bn"
  param {
    name: "lxx_label"
    lr_mult: 1.0
    decay_mult: 0.0
  }
  param {
    name: "lxx_label"
    lr_mult: 1.0
    decay_mult: 0.0
  }
  param {
    name: "lxx_label"
  }
  param {
    name: "lxx_label"
  }
  bn_param {
    frozen: true
    slope_filler {
      type: "constant"
      value: 1.0
    }
    bias_filler {
      type: "constant"
      value: 0.0
    }
  }
}
layer {
  name: "v2_inception_resnet_a_3_path3_1x1_relu"
  type: "ReLU"
  bottom: "v2_inception_resnet_a_3_path3_1x1_bn"
  top: "v2_inception_resnet_a_3_path3_1x1_bn"
}
layer {
  name: "v2_inception_resnet_a_3_concat"
  type: "Concat"
  bottom: "v2_inception_resnet_a_3_path1_3x3_2_bn"
  bottom: "v2_inception_resnet_a_3_path2_3x3_bn"
  bottom: "v2_inception_resnet_a_3_path3_1x1_bn"
  top: "v2_inception_resnet_a_3_concat"
}
layer {
  name: "v2_inception_resnet_a_3_conv_1x1"
  type: "Convolution"
  bottom: "v2_inception_resnet_a_3_concat"
  top: "v2_inception_resnet_a_3_conv_1x1"
  param {
    name: "lxx_label"
    lr_mult: 1.0
    decay_mult: 1.0
  }
  convolution_param {
    num_output: 384
    bias_term: false
    weight_filler {
      type: "xavier"
    }
    bias_filler {
      type: "constant"
      value: 0.0
    }
    pad_h: 0
    pad_w: 0
    kernel_h: 1
    kernel_w: 1
    stride_h: 1
    stride_w: 1
  }
}
layer {
  name: "v2_inception_resnet_a_3_conv_1x1_bn"
  type: "BN"
  bottom: "v2_inception_resnet_a_3_conv_1x1"
  top: "v2_inception_resnet_a_3_conv_1x1_bn"
  param {
    name: "lxx_label"
    lr_mult: 1.0
    decay_mult: 0.0
  }
  param {
    name: "lxx_label"
    lr_mult: 1.0
    decay_mult: 0.0
  }
  param {
    name: "lxx_label"
  }
  param {
    name: "lxx_label"
  }
  bn_param {
    frozen: true
    slope_filler {
      type: "constant"
      value: 1.0
    }
    bias_filler {
      type: "constant"
      value: 0.0
    }
  }
}
layer {
  name: "v2_inception_resnet_a_3_elt"
  type: "Eltwise"
  bottom: "v2_inception_resnet_a_2_elt"
  bottom: "v2_inception_resnet_a_3_conv_1x1_bn"
  top: "v2_inception_resnet_a_3_elt"
  eltwise_param {
    operation: SUM
    coeff: 1
    coeff: 0.3
  }
}
layer {
  name: "v2_inception_resnet_a_3_relu"
  type: "ReLU"
  bottom: "v2_inception_resnet_a_3_elt"
  top: "v2_inception_resnet_a_3_elt"
}
layer {
  name: "v2_inception_resnet_a_4_path1_1x1"
  type: "Convolution"
  bottom: "v2_inception_resnet_a_3_elt"
  top: "v2_inception_resnet_a_4_path1_1x1"
  param {
    name: "lxx_label"
    lr_mult: 1.0
    decay_mult: 1.0
  }
  convolution_param {
    num_output: 32
    bias_term: false
    weight_filler {
      type: "xavier"
    }
    bias_filler {
      type: "constant"
      value: 0.0
    }
    pad_h: 0
    pad_w: 0
    kernel_h: 1
    kernel_w: 1
    stride_h: 1
    stride_w: 1
  }
}
layer {
  name: "v2_inception_resnet_a_4_path1_1x1_bn"
  type: "BN"
  bottom: "v2_inception_resnet_a_4_path1_1x1"
  top: "v2_inception_resnet_a_4_path1_1x1_bn"
  param {
    name: "lxx_label"
    lr_mult: 1.0
    decay_mult: 0.0
  }
  param {
    name: "lxx_label"
    lr_mult: 1.0
    decay_mult: 0.0
  }
  param {
    name: "lxx_label"
  }
  param {
    name: "lxx_label"
  }
  bn_param {
    frozen: true
    slope_filler {
      type: "constant"
      value: 1.0
    }
    bias_filler {
      type: "constant"
      value: 0.0
    }
  }
}
layer {
  name: "v2_inception_resnet_a_4_path1_1x1_relu"
  type: "ReLU"
  bottom: "v2_inception_resnet_a_4_path1_1x1_bn"
  top: "v2_inception_resnet_a_4_path1_1x1_bn"
}
layer {
  name: "v2_inception_resnet_a_4_path1_3x3_1"
  type: "Convolution"
  bottom: "v2_inception_resnet_a_4_path1_1x1_bn"
  top: "v2_inception_resnet_a_4_path1_3x3_1"
  param {
    name: "lxx_label"
    lr_mult: 1.0
    decay_mult: 1.0
  }
  convolution_param {
    num_output: 48
    bias_term: false
    weight_filler {
      type: "xavier"
    }
    bias_filler {
      type: "constant"
      value: 0.0
    }
    pad_h: 1
    pad_w: 1
    kernel_h: 3
    kernel_w: 3
    stride_h: 1
    stride_w: 1
  }
}
layer {
  name: "v2_inception_resnet_a_4_path1_3x3_1_bn"
  type: "BN"
  bottom: "v2_inception_resnet_a_4_path1_3x3_1"
  top: "v2_inception_resnet_a_4_path1_3x3_1_bn"
  param {
    name: "lxx_label"
    lr_mult: 1.0
    decay_mult: 0.0
  }
  param {
    name: "lxx_label"
    lr_mult: 1.0
    decay_mult: 0.0
  }
  param {
    name: "lxx_label"
  }
  param {
    name: "lxx_label"
  }
  bn_param {
    frozen: true
    slope_filler {
      type: "constant"
      value: 1.0
    }
    bias_filler {
      type: "constant"
      value: 0.0
    }
  }
}
layer {
  name: "v2_inception_resnet_a_4_path1_3x3_1_relu"
  type: "ReLU"
  bottom: "v2_inception_resnet_a_4_path1_3x3_1_bn"
  top: "v2_inception_resnet_a_4_path1_3x3_1_bn"
}
layer {
  name: "v2_inception_resnet_a_4_path1_3x3_2"
  type: "Convolution"
  bottom: "v2_inception_resnet_a_4_path1_3x3_1_bn"
  top: "v2_inception_resnet_a_4_path1_3x3_2"
  param {
    name: "lxx_label"
    lr_mult: 1.0
    decay_mult: 1.0
  }
  convolution_param {
    num_output: 64
    bias_term: false
    weight_filler {
      type: "xavier"
    }
    bias_filler {
      type: "constant"
      value: 0.0
    }
    pad_h: 1
    pad_w: 1
    kernel_h: 3
    kernel_w: 3
    stride_h: 1
    stride_w: 1
  }
}
layer {
  name: "v2_inception_resnet_a_4_path1_3x3_2_bn"
  type: "BN"
  bottom: "v2_inception_resnet_a_4_path1_3x3_2"
  top: "v2_inception_resnet_a_4_path1_3x3_2_bn"
  param {
    name: "lxx_label"
    lr_mult: 1.0
    decay_mult: 0.0
  }
  param {
    name: "lxx_label"
    lr_mult: 1.0
    decay_mult: 0.0
  }
  param {
    name: "lxx_label"
  }
  param {
    name: "lxx_label"
  }
  bn_param {
    frozen: true
    slope_filler {
      type: "constant"
      value: 1.0
    }
    bias_filler {
      type: "constant"
      value: 0.0
    }
  }
}
layer {
  name: "v2_inception_resnet_a_4_path1_3x3_2_relu"
  type: "ReLU"
  bottom: "v2_inception_resnet_a_4_path1_3x3_2_bn"
  top: "v2_inception_resnet_a_4_path1_3x3_2_bn"
}
layer {
  name: "v2_inception_resnet_a_4_path2_1x1"
  type: "Convolution"
  bottom: "v2_inception_resnet_a_3_elt"
  top: "v2_inception_resnet_a_4_path2_1x1"
  param {
    name: "lxx_label"
    lr_mult: 1.0
    decay_mult: 1.0
  }
  convolution_param {
    num_output: 32
    bias_term: false
    weight_filler {
      type: "xavier"
    }
    bias_filler {
      type: "constant"
      value: 0.0
    }
    pad_h: 0
    pad_w: 0
    kernel_h: 1
    kernel_w: 1
    stride_h: 1
    stride_w: 1
  }
}
layer {
  name: "v2_inception_resnet_a_4_path2_1x1_bn"
  type: "BN"
  bottom: "v2_inception_resnet_a_4_path2_1x1"
  top: "v2_inception_resnet_a_4_path2_1x1_bn"
  param {
    name: "lxx_label"
    lr_mult: 1.0
    decay_mult: 0.0
  }
  param {
    name: "lxx_label"
    lr_mult: 1.0
    decay_mult: 0.0
  }
  param {
    name: "lxx_label"
  }
  param {
    name: "lxx_label"
  }
  bn_param {
    frozen: true
    slope_filler {
      type: "constant"
      value: 1.0
    }
    bias_filler {
      type: "constant"
      value: 0.0
    }
  }
}
layer {
  name: "v2_inception_resnet_a_4_path2_1x1_relu"
  type: "ReLU"
  bottom: "v2_inception_resnet_a_4_path2_1x1_bn"
  top: "v2_inception_resnet_a_4_path2_1x1_bn"
}
layer {
  name: "v2_inception_resnet_a_4_path2_3x3"
  type: "Convolution"
  bottom: "v2_inception_resnet_a_4_path2_1x1_bn"
  top: "v2_inception_resnet_a_4_path2_3x3"
  param {
    name: "lxx_label"
    lr_mult: 1.0
    decay_mult: 1.0
  }
  convolution_param {
    num_output: 32
    bias_term: false
    weight_filler {
      type: "xavier"
    }
    bias_filler {
      type: "constant"
      value: 0.0
    }
    pad_h: 1
    pad_w: 1
    kernel_h: 3
    kernel_w: 3
    stride_h: 1
    stride_w: 1
  }
}
layer {
  name: "v2_inception_resnet_a_4_path2_3x3_bn"
  type: "BN"
  bottom: "v2_inception_resnet_a_4_path2_3x3"
  top: "v2_inception_resnet_a_4_path2_3x3_bn"
  param {
    name: "lxx_label"
    lr_mult: 1.0
    decay_mult: 0.0
  }
  param {
    name: "lxx_label"
    lr_mult: 1.0
    decay_mult: 0.0
  }
  param {
    name: "lxx_label"
  }
  param {
    name: "lxx_label"
  }
  bn_param {
    frozen: true
    slope_filler {
      type: "constant"
      value: 1.0
    }
    bias_filler {
      type: "constant"
      value: 0.0
    }
  }
}
layer {
  name: "v2_inception_resnet_a_4_path2_3x3_relu"
  type: "ReLU"
  bottom: "v2_inception_resnet_a_4_path2_3x3_bn"
  top: "v2_inception_resnet_a_4_path2_3x3_bn"
}
layer {
  name: "v2_inception_resnet_a_4_path3_1x1"
  type: "Convolution"
  bottom: "v2_inception_resnet_a_3_elt"
  top: "v2_inception_resnet_a_4_path3_1x1"
  param {
    name: "lxx_label"
    lr_mult: 1.0
    decay_mult: 1.0
  }
  convolution_param {
    num_output: 32
    bias_term: false
    weight_filler {
      type: "xavier"
    }
    bias_filler {
      type: "constant"
      value: 0.0
    }
    pad_h: 0
    pad_w: 0
    kernel_h: 1
    kernel_w: 1
    stride_h: 1
    stride_w: 1
  }
}
layer {
  name: "v2_inception_resnet_a_4_path3_1x1_bn"
  type: "BN"
  bottom: "v2_inception_resnet_a_4_path3_1x1"
  top: "v2_inception_resnet_a_4_path3_1x1_bn"
  param {
    name: "lxx_label"
    lr_mult: 1.0
    decay_mult: 0.0
  }
  param {
    name: "lxx_label"
    lr_mult: 1.0
    decay_mult: 0.0
  }
  param {
    name: "lxx_label"
  }
  param {
    name: "lxx_label"
  }
  bn_param {
    frozen: true
    slope_filler {
      type: "constant"
      value: 1.0
    }
    bias_filler {
      type: "constant"
      value: 0.0
    }
  }
}
layer {
  name: "v2_inception_resnet_a_4_path3_1x1_relu"
  type: "ReLU"
  bottom: "v2_inception_resnet_a_4_path3_1x1_bn"
  top: "v2_inception_resnet_a_4_path3_1x1_bn"
}
layer {
  name: "v2_inception_resnet_a_4_concat"
  type: "Concat"
  bottom: "v2_inception_resnet_a_4_path1_3x3_2_bn"
  bottom: "v2_inception_resnet_a_4_path2_3x3_bn"
  bottom: "v2_inception_resnet_a_4_path3_1x1_bn"
  top: "v2_inception_resnet_a_4_concat"
}
layer {
  name: "v2_inception_resnet_a_4_conv_1x1"
  type: "Convolution"
  bottom: "v2_inception_resnet_a_4_concat"
  top: "v2_inception_resnet_a_4_conv_1x1"
  param {
    name: "lxx_label"
    lr_mult: 1.0
    decay_mult: 1.0
  }
  convolution_param {
    num_output: 384
    bias_term: false
    weight_filler {
      type: "xavier"
    }
    bias_filler {
      type: "constant"
      value: 0.0
    }
    pad_h: 0
    pad_w: 0
    kernel_h: 1
    kernel_w: 1
    stride_h: 1
    stride_w: 1
  }
}
layer {
  name: "v2_inception_resnet_a_4_conv_1x1_bn"
  type: "BN"
  bottom: "v2_inception_resnet_a_4_conv_1x1"
  top: "v2_inception_resnet_a_4_conv_1x1_bn"
  param {
    name: "lxx_label"
    lr_mult: 1.0
    decay_mult: 0.0
  }
  param {
    name: "lxx_label"
    lr_mult: 1.0
    decay_mult: 0.0
  }
  param {
    name: "lxx_label"
  }
  param {
    name: "lxx_label"
  }
  bn_param {
    frozen: true
    slope_filler {
      type: "constant"
      value: 1.0
    }
    bias_filler {
      type: "constant"
      value: 0.0
    }
  }
}
layer {
  name: "v2_inception_resnet_a_4_elt"
  type: "Eltwise"
  bottom: "v2_inception_resnet_a_3_elt"
  bottom: "v2_inception_resnet_a_4_conv_1x1_bn"
  top: "v2_inception_resnet_a_4_elt"
  eltwise_param {
    operation: SUM
    coeff: 1
    coeff: 0.3
  }
}
layer {
  name: "v2_inception_resnet_a_4_relu"
  type: "ReLU"
  bottom: "v2_inception_resnet_a_4_elt"
  top: "v2_inception_resnet_a_4_elt"
}
layer {
  name: "v2_inception_resnet_a_5_path1_1x1"
  type: "Convolution"
  bottom: "v2_inception_resnet_a_4_elt"
  top: "v2_inception_resnet_a_5_path1_1x1"
  param {
    name: "lxx_label"
    lr_mult: 1.0
    decay_mult: 1.0
  }
  convolution_param {
    num_output: 32
    bias_term: false
    weight_filler {
      type: "xavier"
    }
    bias_filler {
      type: "constant"
      value: 0.0
    }
    pad_h: 0
    pad_w: 0
    kernel_h: 1
    kernel_w: 1
    stride_h: 1
    stride_w: 1
  }
}
layer {
  name: "v2_inception_resnet_a_5_path1_1x1_bn"
  type: "BN"
  bottom: "v2_inception_resnet_a_5_path1_1x1"
  top: "v2_inception_resnet_a_5_path1_1x1_bn"
  param {
    name: "lxx_label"
    lr_mult: 1.0
    decay_mult: 0.0
  }
  param {
    name: "lxx_label"
    lr_mult: 1.0
    decay_mult: 0.0
  }
  param {
    name: "lxx_label"
  }
  param {
    name: "lxx_label"
  }
  bn_param {
    frozen: true
    slope_filler {
      type: "constant"
      value: 1.0
    }
    bias_filler {
      type: "constant"
      value: 0.0
    }
  }
}
layer {
  name: "v2_inception_resnet_a_5_path1_1x1_relu"
  type: "ReLU"
  bottom: "v2_inception_resnet_a_5_path1_1x1_bn"
  top: "v2_inception_resnet_a_5_path1_1x1_bn"
}
layer {
  name: "v2_inception_resnet_a_5_path1_3x3_1"
  type: "Convolution"
  bottom: "v2_inception_resnet_a_5_path1_1x1_bn"
  top: "v2_inception_resnet_a_5_path1_3x3_1"
  param {
    name: "lxx_label"
    lr_mult: 1.0
    decay_mult: 1.0
  }
  convolution_param {
    num_output: 48
    bias_term: false
    weight_filler {
      type: "xavier"
    }
    bias_filler {
      type: "constant"
      value: 0.0
    }
    pad_h: 1
    pad_w: 1
    kernel_h: 3
    kernel_w: 3
    stride_h: 1
    stride_w: 1
  }
}
layer {
  name: "v2_inception_resnet_a_5_path1_3x3_1_bn"
  type: "BN"
  bottom: "v2_inception_resnet_a_5_path1_3x3_1"
  top: "v2_inception_resnet_a_5_path1_3x3_1_bn"
  param {
    name: "lxx_label"
    lr_mult: 1.0
    decay_mult: 0.0
  }
  param {
    name: "lxx_label"
    lr_mult: 1.0
    decay_mult: 0.0
  }
  param {
    name: "lxx_label"
  }
  param {
    name: "lxx_label"
  }
  bn_param {
    frozen: true
    slope_filler {
      type: "constant"
      value: 1.0
    }
    bias_filler {
      type: "constant"
      value: 0.0
    }
  }
}
layer {
  name: "v2_inception_resnet_a_5_path1_3x3_1_relu"
  type: "ReLU"
  bottom: "v2_inception_resnet_a_5_path1_3x3_1_bn"
  top: "v2_inception_resnet_a_5_path1_3x3_1_bn"
}
layer {
  name: "v2_inception_resnet_a_5_path1_3x3_2"
  type: "Convolution"
  bottom: "v2_inception_resnet_a_5_path1_3x3_1_bn"
  top: "v2_inception_resnet_a_5_path1_3x3_2"
  param {
    name: "lxx_label"
    lr_mult: 1.0
    decay_mult: 1.0
  }
  convolution_param {
    num_output: 64
    bias_term: false
    weight_filler {
      type: "xavier"
    }
    bias_filler {
      type: "constant"
      value: 0.0
    }
    pad_h: 1
    pad_w: 1
    kernel_h: 3
    kernel_w: 3
    stride_h: 1
    stride_w: 1
  }
}
layer {
  name: "v2_inception_resnet_a_5_path1_3x3_2_bn"
  type: "BN"
  bottom: "v2_inception_resnet_a_5_path1_3x3_2"
  top: "v2_inception_resnet_a_5_path1_3x3_2_bn"
  param {
    name: "lxx_label"
    lr_mult: 1.0
    decay_mult: 0.0
  }
  param {
    name: "lxx_label"
    lr_mult: 1.0
    decay_mult: 0.0
  }
  param {
    name: "lxx_label"
  }
  param {
    name: "lxx_label"
  }
  bn_param {
    frozen: true
    slope_filler {
      type: "constant"
      value: 1.0
    }
    bias_filler {
      type: "constant"
      value: 0.0
    }
  }
}
layer {
  name: "v2_inception_resnet_a_5_path1_3x3_2_relu"
  type: "ReLU"
  bottom: "v2_inception_resnet_a_5_path1_3x3_2_bn"
  top: "v2_inception_resnet_a_5_path1_3x3_2_bn"
}
layer {
  name: "v2_inception_resnet_a_5_path2_1x1"
  type: "Convolution"
  bottom: "v2_inception_resnet_a_4_elt"
  top: "v2_inception_resnet_a_5_path2_1x1"
  param {
    name: "lxx_label"
    lr_mult: 1.0
    decay_mult: 1.0
  }
  convolution_param {
    num_output: 32
    bias_term: false
    weight_filler {
      type: "xavier"
    }
    bias_filler {
      type: "constant"
      value: 0.0
    }
    pad_h: 0
    pad_w: 0
    kernel_h: 1
    kernel_w: 1
    stride_h: 1
    stride_w: 1
  }
}
layer {
  name: "v2_inception_resnet_a_5_path2_1x1_bn"
  type: "BN"
  bottom: "v2_inception_resnet_a_5_path2_1x1"
  top: "v2_inception_resnet_a_5_path2_1x1_bn"
  param {
    name: "lxx_label"
    lr_mult: 1.0
    decay_mult: 0.0
  }
  param {
    name: "lxx_label"
    lr_mult: 1.0
    decay_mult: 0.0
  }
  param {
    name: "lxx_label"
  }
  param {
    name: "lxx_label"
  }
  bn_param {
    frozen: true
    slope_filler {
      type: "constant"
      value: 1.0
    }
    bias_filler {
      type: "constant"
      value: 0.0
    }
  }
}
layer {
  name: "v2_inception_resnet_a_5_path2_1x1_relu"
  type: "ReLU"
  bottom: "v2_inception_resnet_a_5_path2_1x1_bn"
  top: "v2_inception_resnet_a_5_path2_1x1_bn"
}
layer {
  name: "v2_inception_resnet_a_5_path2_3x3"
  type: "Convolution"
  bottom: "v2_inception_resnet_a_5_path2_1x1_bn"
  top: "v2_inception_resnet_a_5_path2_3x3"
  param {
    name: "lxx_label"
    lr_mult: 1.0
    decay_mult: 1.0
  }
  convolution_param {
    num_output: 32
    bias_term: false
    weight_filler {
      type: "xavier"
    }
    bias_filler {
      type: "constant"
      value: 0.0
    }
    pad_h: 1
    pad_w: 1
    kernel_h: 3
    kernel_w: 3
    stride_h: 1
    stride_w: 1
  }
}
layer {
  name: "v2_inception_resnet_a_5_path2_3x3_bn"
  type: "BN"
  bottom: "v2_inception_resnet_a_5_path2_3x3"
  top: "v2_inception_resnet_a_5_path2_3x3_bn"
  param {
    name: "lxx_label"
    lr_mult: 1.0
    decay_mult: 0.0
  }
  param {
    name: "lxx_label"
    lr_mult: 1.0
    decay_mult: 0.0
  }
  param {
    name: "lxx_label"
  }
  param {
    name: "lxx_label"
  }
  bn_param {
    frozen: true
    slope_filler {
      type: "constant"
      value: 1.0
    }
    bias_filler {
      type: "constant"
      value: 0.0
    }
  }
}
layer {
  name: "v2_inception_resnet_a_5_path2_3x3_relu"
  type: "ReLU"
  bottom: "v2_inception_resnet_a_5_path2_3x3_bn"
  top: "v2_inception_resnet_a_5_path2_3x3_bn"
}
layer {
  name: "v2_inception_resnet_a_5_path3_1x1"
  type: "Convolution"
  bottom: "v2_inception_resnet_a_4_elt"
  top: "v2_inception_resnet_a_5_path3_1x1"
  param {
    name: "lxx_label"
    lr_mult: 1.0
    decay_mult: 1.0
  }
  convolution_param {
    num_output: 32
    bias_term: false
    weight_filler {
      type: "xavier"
    }
    bias_filler {
      type: "constant"
      value: 0.0
    }
    pad_h: 0
    pad_w: 0
    kernel_h: 1
    kernel_w: 1
    stride_h: 1
    stride_w: 1
  }
}
layer {
  name: "v2_inception_resnet_a_5_path3_1x1_bn"
  type: "BN"
  bottom: "v2_inception_resnet_a_5_path3_1x1"
  top: "v2_inception_resnet_a_5_path3_1x1_bn"
  param {
    name: "lxx_label"
    lr_mult: 1.0
    decay_mult: 0.0
  }
  param {
    name: "lxx_label"
    lr_mult: 1.0
    decay_mult: 0.0
  }
  param {
    name: "lxx_label"
  }
  param {
    name: "lxx_label"
  }
  bn_param {
    frozen: true
    slope_filler {
      type: "constant"
      value: 1.0
    }
    bias_filler {
      type: "constant"
      value: 0.0
    }
  }
}
layer {
  name: "v2_inception_resnet_a_5_path3_1x1_relu"
  type: "ReLU"
  bottom: "v2_inception_resnet_a_5_path3_1x1_bn"
  top: "v2_inception_resnet_a_5_path3_1x1_bn"
}
layer {
  name: "v2_inception_resnet_a_5_concat"
  type: "Concat"
  bottom: "v2_inception_resnet_a_5_path1_3x3_2_bn"
  bottom: "v2_inception_resnet_a_5_path2_3x3_bn"
  bottom: "v2_inception_resnet_a_5_path3_1x1_bn"
  top: "v2_inception_resnet_a_5_concat"
}
layer {
  name: "v2_inception_resnet_a_5_conv_1x1"
  type: "Convolution"
  bottom: "v2_inception_resnet_a_5_concat"
  top: "v2_inception_resnet_a_5_conv_1x1"
  param {
    name: "lxx_label"
    lr_mult: 1.0
    decay_mult: 1.0
  }
  convolution_param {
    num_output: 384
    bias_term: false
    weight_filler {
      type: "xavier"
    }
    bias_filler {
      type: "constant"
      value: 0.0
    }
    pad_h: 0
    pad_w: 0
    kernel_h: 1
    kernel_w: 1
    stride_h: 1
    stride_w: 1
  }
}
layer {
  name: "v2_inception_resnet_a_5_conv_1x1_bn"
  type: "BN"
  bottom: "v2_inception_resnet_a_5_conv_1x1"
  top: "v2_inception_resnet_a_5_conv_1x1_bn"
  param {
    name: "lxx_label"
    lr_mult: 1.0
    decay_mult: 0.0
  }
  param {
    name: "lxx_label"
    lr_mult: 1.0
    decay_mult: 0.0
  }
  param {
    name: "lxx_label"
  }
  param {
    name: "lxx_label"
  }
  bn_param {
    frozen: true
    slope_filler {
      type: "constant"
      value: 1.0
    }
    bias_filler {
      type: "constant"
      value: 0.0
    }
  }
}
layer {
  name: "v2_inception_resnet_a_5_elt"
  type: "Eltwise"
  bottom: "v2_inception_resnet_a_4_elt"
  bottom: "v2_inception_resnet_a_5_conv_1x1_bn"
  top: "v2_inception_resnet_a_5_elt"
  eltwise_param {
    operation: SUM
    coeff: 1
    coeff: 0.3
  }
}
layer {
  name: "v2_inception_resnet_a_5_relu"
  type: "ReLU"
  bottom: "v2_inception_resnet_a_5_elt"
  top: "v2_inception_resnet_a_5_elt"
}
layer {
  name: "v2_reduction_a_path1_1x1"
  type: "Convolution"
  bottom: "v2_inception_resnet_a_5_elt"
  top: "v2_reduction_a_path1_1x1"
  param {
    name: "lxx_label"
    lr_mult: 1.0
    decay_mult: 1.0
  }
  convolution_param {
    num_output: 256
    bias_term: false
    weight_filler {
      type: "xavier"
    }
    bias_filler {
      type: "constant"
      value: 0.0
    }
    pad_h: 0
    pad_w: 0
    kernel_h: 1
    kernel_w: 1
    stride_h: 1
    stride_w: 1
  }
}
layer {
  name: "v2_reduction_a_path1_1x1_bn"
  type: "BN"
  bottom: "v2_reduction_a_path1_1x1"
  top: "v2_reduction_a_path1_1x1_bn"
  param {
    name: "lxx_label"
    lr_mult: 1.0
    decay_mult: 0.0
  }
  param {
    name: "lxx_label"
    lr_mult: 1.0
    decay_mult: 0.0
  }
  param {
    name: "lxx_label"
  }
  param {
    name: "lxx_label"
  }
  bn_param {
    frozen: true
    slope_filler {
      type: "constant"
      value: 1.0
    }
    bias_filler {
      type: "constant"
      value: 0.0
    }
  }
}
layer {
  name: "v2_reduction_a_path1_1x1_relu"
  type: "ReLU"
  bottom: "v2_reduction_a_path1_1x1_bn"
  top: "v2_reduction_a_path1_1x1_bn"
}
layer {
  name: "v2_reduction_a_path1_3x3_1"
  type: "Convolution"
  bottom: "v2_reduction_a_path1_1x1_bn"
  top: "v2_reduction_a_path1_3x3_1"
  param {
    name: "lxx_label"
    lr_mult: 1.0
    decay_mult: 1.0
  }
  convolution_param {
    num_output: 256
    bias_term: false
    weight_filler {
      type: "xavier"
    }
    bias_filler {
      type: "constant"
      value: 0.0
    }
    pad_h: 1
    pad_w: 1
    kernel_h: 3
    kernel_w: 3
    stride_h: 1
    stride_w: 1
  }
}
layer {
  name: "v2_reduction_a_path1_3x3_1_bn"
  type: "BN"
  bottom: "v2_reduction_a_path1_3x3_1"
  top: "v2_reduction_a_path1_3x3_1_bn"
  param {
    name: "lxx_label"
    lr_mult: 1.0
    decay_mult: 0.0
  }
  param {
    name: "lxx_label"
    lr_mult: 1.0
    decay_mult: 0.0
  }
  param {
    name: "lxx_label"
  }
  param {
    name: "lxx_label"
  }
  bn_param {
    frozen: true
    slope_filler {
      type: "constant"
      value: 1.0
    }
    bias_filler {
      type: "constant"
      value: 0.0
    }
  }
}
layer {
  name: "v2_reduction_a_path1_3x3_1_relu"
  type: "ReLU"
  bottom: "v2_reduction_a_path1_3x3_1_bn"
  top: "v2_reduction_a_path1_3x3_1_bn"
}
layer {
  name: "v2_reduction_a_path1_3x3_2"
  type: "Convolution"
  bottom: "v2_reduction_a_path1_3x3_1_bn"
  top: "v2_reduction_a_path1_3x3_2"
  param {
    name: "lxx_label"
    lr_mult: 1.0
    decay_mult: 1.0
  }
  convolution_param {
    num_output: 384
    bias_term: false
    weight_filler {
      type: "xavier"
    }
    bias_filler {
      type: "constant"
      value: 0.0
    }
    pad_h: 1
    pad_w: 1
    kernel_h: 3
    kernel_w: 3
    stride_h: 1
    stride_w: 1
  }
}
layer {
  name: "v2_reduction_a_path1_3x3_2_bn"
  type: "BN"
  bottom: "v2_reduction_a_path1_3x3_2"
  top: "v2_reduction_a_path1_3x3_2_bn"
  param {
    name: "lxx_label"
    lr_mult: 1.0
    decay_mult: 0.0
  }
  param {
    name: "lxx_label"
    lr_mult: 1.0
    decay_mult: 0.0
  }
  param {
    name: "lxx_label"
  }
  param {
    name: "lxx_label"
  }
  bn_param {
    frozen: true
    slope_filler {
      type: "constant"
      value: 1.0
    }
    bias_filler {
      type: "constant"
      value: 0.0
    }
  }
}
layer {
  name: "v2_reduction_a_path1_3x3_2_relu"
  type: "ReLU"
  bottom: "v2_reduction_a_path1_3x3_2_bn"
  top: "v2_reduction_a_path1_3x3_2_bn"
}
layer {
  name: "v2_reduction_a_path2_3x3"
  type: "Convolution"
  bottom: "v2_inception_resnet_a_5_elt"
  top: "v2_reduction_a_path2_3x3"
  param {
    name: "lxx_label"
    lr_mult: 1.0
    decay_mult: 1.0
  }
  convolution_param {
    num_output: 384
    bias_term: false
    weight_filler {
      type: "xavier"
    }
    bias_filler {
      type: "constant"
      value: 0.0
    }
    pad_h: 1
    pad_w: 1
    kernel_h: 3
    kernel_w: 3
    stride_h: 1
    stride_w: 1
  }
}
layer {
  name: "v2_reduction_a_path2_3x3_bn"
  type: "BN"
  bottom: "v2_reduction_a_path2_3x3"
  top: "v2_reduction_a_path2_3x3_bn"
  param {
    name: "lxx_label"
    lr_mult: 1.0
    decay_mult: 0.0
  }
  param {
    name: "lxx_label"
    lr_mult: 1.0
    decay_mult: 0.0
  }
  param {
    name: "lxx_label"
  }
  param {
    name: "lxx_label"
  }
  bn_param {
    frozen: true
    slope_filler {
      type: "constant"
      value: 1.0
    }
    bias_filler {
      type: "constant"
      value: 0.0
    }
  }
}
layer {
  name: "v2_reduction_a_path2_3x3_relu"
  type: "ReLU"
  bottom: "v2_reduction_a_path2_3x3_bn"
  top: "v2_reduction_a_path2_3x3_bn"
}
layer {
  name: "v2_reduction_a_path3_max"
  type: "Pooling"
  bottom: "v2_inception_resnet_a_5_elt"
  top: "v2_reduction_a_path3_max"
  pooling_param {
    pool: MAX
    kernel_h: 1
    kernel_w: 1
    stride_h: 1
    stride_w: 1
    pad_h: 0
    pad_w: 0
  }
}
layer {
  name: "v2_reduction_a_concat"
  type: "Concat"
  bottom: "v2_reduction_a_path1_3x3_2_bn"
  bottom: "v2_reduction_a_path2_3x3_bn"
  bottom: "v2_reduction_a_path3_max"
  top: "v2_reduction_a_concat"
}


############# remove a pooling ####################

layer {
  name: "v2_inception_resnet_b_1_path1_1x1"
  type: "Convolution"
  bottom: "v2_reduction_a_concat"
  top: "v2_inception_resnet_b_1_path1_1x1"
  param {
    name: "lxx_label"
    lr_mult: 1.0
    decay_mult: 1.0
  }
  convolution_param {
    num_output: 128
    bias_term: false
    weight_filler {
      type: "xavier"
    }
    bias_filler {
      type: "constant"
      value: 0.0
    }
    pad_h: 0
    pad_w: 0
    kernel_h: 1
    kernel_w: 1
    stride_h: 1
    stride_w: 1
  }
}
layer {
  name: "v2_inception_resnet_b_1_path1_1x1_bn"
  type: "BN"
  bottom: "v2_inception_resnet_b_1_path1_1x1"
  top: "v2_inception_resnet_b_1_path1_1x1_bn"
  param {
    name: "lxx_label"
    lr_mult: 1.0
    decay_mult: 0.0
  }
  param {
    name: "lxx_label"
    lr_mult: 1.0
    decay_mult: 0.0
  }
  param {
    name: "lxx_label"
  }
  param {
    name: "lxx_label"
  }
  bn_param {
    frozen: true
    slope_filler {
      type: "constant"
      value: 1.0
    }
    bias_filler {
      type: "constant"
      value: 0.0
    }
  }
}
layer {
  name: "v2_inception_resnet_b_1_path1_1x1_relu"
  type: "ReLU"
  bottom: "v2_inception_resnet_b_1_path1_1x1_bn"
  top: "v2_inception_resnet_b_1_path1_1x1_bn"
}
layer {
  name: "v2_inception_resnet_b_1_path1_1x7"
  type: "Convolution"
  bottom: "v2_inception_resnet_b_1_path1_1x1_bn"
  top: "v2_inception_resnet_b_1_path1_1x7"
  param {
    name: "lxx_label"
    lr_mult: 1.0
    decay_mult: 1.0
  }
  convolution_param {
    num_output: 160
    bias_term: false
    weight_filler {
      type: "xavier"
    }
    bias_filler {
      type: "constant"
      value: 0.0
    }
    pad_h: 0
    pad_w: 6
    kernel_h: 1
    kernel_w: 7
    dilation: 2
    stride_h: 1
    stride_w: 1
  }
}
layer {
  name: "v2_inception_resnet_b_1_path1_1x7_bn"
  type: "BN"
  bottom: "v2_inception_resnet_b_1_path1_1x7"
  top: "v2_inception_resnet_b_1_path1_1x7_bn"
  param {
    name: "lxx_label"
    lr_mult: 1.0
    decay_mult: 0.0
  }
  param {
    name: "lxx_label"
    lr_mult: 1.0
    decay_mult: 0.0
  }
  param {
    name: "lxx_label"
  }
  param {
    name: "lxx_label"
  }
  bn_param {
    frozen: true
    slope_filler {
      type: "constant"
      value: 1.0
    }
    bias_filler {
      type: "constant"
      value: 0.0
    }
  }
}
layer {
  name: "v2_inception_resnet_b_1_path1_1x7_relu"
  type: "ReLU"
  bottom: "v2_inception_resnet_b_1_path1_1x7_bn"
  top: "v2_inception_resnet_b_1_path1_1x7_bn"
}
layer {
  name: "v2_inception_resnet_b_1_path1_7x1"
  type: "Convolution"
  bottom: "v2_inception_resnet_b_1_path1_1x7_bn"
  top: "v2_inception_resnet_b_1_path1_7x1"
  param {
    name: "lxx_label"
    lr_mult: 1.0
    decay_mult: 1.0
  }
  convolution_param {
    num_output: 192
    bias_term: false
    weight_filler {
      type: "xavier"
    }
    bias_filler {
      type: "constant"
      value: 0.0
    }
    pad_h: 6
    pad_w: 0
    kernel_h: 7
    kernel_w: 1
    dilation: 2
    stride_h: 1
    stride_w: 1
  }
}
layer {
  name: "v2_inception_resnet_b_1_path1_7x1_bn"
  type: "BN"
  bottom: "v2_inception_resnet_b_1_path1_7x1"
  top: "v2_inception_resnet_b_1_path1_7x1_bn"
  param {
    name: "lxx_label"
    lr_mult: 1.0
    decay_mult: 0.0
  }
  param {
    name: "lxx_label"
    lr_mult: 1.0
    decay_mult: 0.0
  }
  param {
    name: "lxx_label"
  }
  param {
    name: "lxx_label"
  }
  bn_param {
    frozen: true
    slope_filler {
      type: "constant"
      value: 1.0
    }
    bias_filler {
      type: "constant"
      value: 0.0
    }
  }
}
layer {
  name: "v2_inception_resnet_b_1_path1_7x1_relu"
  type: "ReLU"
  bottom: "v2_inception_resnet_b_1_path1_7x1_bn"
  top: "v2_inception_resnet_b_1_path1_7x1_bn"
}
layer {
  name: "v2_inception_resnet_b_1_path2_1x1"
  type: "Convolution"
  bottom: "v2_reduction_a_concat"
  top: "v2_inception_resnet_b_1_path2_1x1"
  param {
    name: "lxx_label"
    lr_mult: 1.0
    decay_mult: 1.0
  }
  convolution_param {
    num_output: 192
    bias_term: false
    weight_filler {
      type: "xavier"
    }
    bias_filler {
      type: "constant"
      value: 0.0
    }
    pad_h: 0
    pad_w: 0
    kernel_h: 1
    kernel_w: 1
    stride_h: 1
    stride_w: 1
  }
}
layer {
  name: "v2_inception_resnet_b_1_path2_1x1_bn"
  type: "BN"
  bottom: "v2_inception_resnet_b_1_path2_1x1"
  top: "v2_inception_resnet_b_1_path2_1x1_bn"
  param {
    name: "lxx_label"
    lr_mult: 1.0
    decay_mult: 0.0
  }
  param {
    name: "lxx_label"
    lr_mult: 1.0
    decay_mult: 0.0
  }
  param {
    name: "lxx_label"
  }
  param {
    name: "lxx_label"
  }
  bn_param {
    frozen: true
    slope_filler {
      type: "constant"
      value: 1.0
    }
    bias_filler {
      type: "constant"
      value: 0.0
    }
  }
}
layer {
  name: "v2_inception_resnet_b_1_path2_1x1_relu"
  type: "ReLU"
  bottom: "v2_inception_resnet_b_1_path2_1x1_bn"
  top: "v2_inception_resnet_b_1_path2_1x1_bn"
}
layer {
  name: "v2_inception_resnet_b_1_concat"
  type: "Concat"
  bottom: "v2_inception_resnet_b_1_path1_7x1_bn"
  bottom: "v2_inception_resnet_b_1_path2_1x1_bn"
  top: "v2_inception_resnet_b_1_concat"
}
layer {
  name: "v2_inception_resnet_b_1_conv_1x1"
  type: "Convolution"
  bottom: "v2_inception_resnet_b_1_concat"
  top: "v2_inception_resnet_b_1_conv_1x1"
  param {
    name: "lxx_label"
    lr_mult: 1.0
    decay_mult: 1.0
  }
  convolution_param {
    num_output: 1152
    bias_term: false
    weight_filler {
      type: "xavier"
    }
    bias_filler {
      type: "constant"
      value: 0.0
    }
    pad_h: 0
    pad_w: 0
    kernel_h: 1
    kernel_w: 1
    stride_h: 1
    stride_w: 1
  }
}
layer {
  name: "v2_inception_resnet_b_1_conv_1x1_bn"
  type: "BN"
  bottom: "v2_inception_resnet_b_1_conv_1x1"
  top: "v2_inception_resnet_b_1_conv_1x1_bn"
  param {
    name: "lxx_label"
    lr_mult: 1.0
    decay_mult: 0.0
  }
  param {
    name: "lxx_label"
    lr_mult: 1.0
    decay_mult: 0.0
  }
  param {
    name: "lxx_label"
  }
  param {
    name: "lxx_label"
  }
  bn_param {
    frozen: true
    slope_filler {
      type: "constant"
      value: 1.0
    }
    bias_filler {
      type: "constant"
      value: 0.0
    }
  }
}
layer {
  name: "v2_inception_resnet_b_1_elt"
  type: "Eltwise"
  bottom: "v2_reduction_a_concat"
  bottom: "v2_inception_resnet_b_1_conv_1x1_bn"
  top: "v2_inception_resnet_b_1_elt"
  eltwise_param {
    operation: SUM
    coeff: 1
    coeff: 0.3
  }
}
layer {
  name: "v2_inception_resnet_b_1_relu"
  type: "ReLU"
  bottom: "v2_inception_resnet_b_1_elt"
  top: "v2_inception_resnet_b_1_elt"
}
layer {
  name: "v2_inception_resnet_b_2_path1_1x1"
  type: "Convolution"
  bottom: "v2_inception_resnet_b_1_elt"
  top: "v2_inception_resnet_b_2_path1_1x1"
  param {
    name: "lxx_label"
    lr_mult: 1.0
    decay_mult: 1.0
  }
  convolution_param {
    num_output: 128
    bias_term: false
    weight_filler {
      type: "xavier"
    }
    bias_filler {
      type: "constant"
      value: 0.0
    }
    pad_h: 0
    pad_w: 0
    kernel_h: 1
    kernel_w: 1
    stride_h: 1
    stride_w: 1
  }
}
layer {
  name: "v2_inception_resnet_b_2_path1_1x1_bn"
  type: "BN"
  bottom: "v2_inception_resnet_b_2_path1_1x1"
  top: "v2_inception_resnet_b_2_path1_1x1_bn"
  param {
    name: "lxx_label"
    lr_mult: 1.0
    decay_mult: 0.0
  }
  param {
    name: "lxx_label"
    lr_mult: 1.0
    decay_mult: 0.0
  }
  param {
    name: "lxx_label"
  }
  param {
    name: "lxx_label"
  }
  bn_param {
    frozen: true
    slope_filler {
      type: "constant"
      value: 1.0
    }
    bias_filler {
      type: "constant"
      value: 0.0
    }
  }
}
layer {
  name: "v2_inception_resnet_b_2_path1_1x1_relu"
  type: "ReLU"
  bottom: "v2_inception_resnet_b_2_path1_1x1_bn"
  top: "v2_inception_resnet_b_2_path1_1x1_bn"
}
layer {
  name: "v2_inception_resnet_b_2_path1_1x7"
  type: "Convolution"
  bottom: "v2_inception_resnet_b_2_path1_1x1_bn"
  top: "v2_inception_resnet_b_2_path1_1x7"
  param {
    name: "lxx_label"
    lr_mult: 1.0
    decay_mult: 1.0
  }
  convolution_param {
    num_output: 160
    bias_term: false
    weight_filler {
      type: "xavier"
    }
    bias_filler {
      type: "constant"
      value: 0.0
    }
    pad_h: 0
    pad_w: 6
    kernel_h: 1
    kernel_w: 7
    dilation: 2
    stride_h: 1
    stride_w: 1
  }
}
layer {
  name: "v2_inception_resnet_b_2_path1_1x7_bn"
  type: "BN"
  bottom: "v2_inception_resnet_b_2_path1_1x7"
  top: "v2_inception_resnet_b_2_path1_1x7_bn"
  param {
    name: "lxx_label"
    lr_mult: 1.0
    decay_mult: 0.0
  }
  param {
    name: "lxx_label"
    lr_mult: 1.0
    decay_mult: 0.0
  }
  param {
    name: "lxx_label"
  }
  param {
    name: "lxx_label"
  }
  bn_param {
    frozen: true
    slope_filler {
      type: "constant"
      value: 1.0
    }
    bias_filler {
      type: "constant"
      value: 0.0
    }
  }
}
layer {
  name: "v2_inception_resnet_b_2_path1_1x7_relu"
  type: "ReLU"
  bottom: "v2_inception_resnet_b_2_path1_1x7_bn"
  top: "v2_inception_resnet_b_2_path1_1x7_bn"
}
layer {
  name: "v2_inception_resnet_b_2_path1_7x1"
  type: "Convolution"
  bottom: "v2_inception_resnet_b_2_path1_1x7_bn"
  top: "v2_inception_resnet_b_2_path1_7x1"
  param {
    name: "lxx_label"
    lr_mult: 1.0
    decay_mult: 1.0
  }
  convolution_param {
    num_output: 192
    bias_term: false
    weight_filler {
      type: "xavier"
    }
    bias_filler {
      type: "constant"
      value: 0.0
    }
    pad_h: 6
    pad_w: 0
    kernel_h: 7
    kernel_w: 1
    dilation: 2
    stride_h: 1
    stride_w: 1
  }
}
layer {
  name: "v2_inception_resnet_b_2_path1_7x1_bn"
  type: "BN"
  bottom: "v2_inception_resnet_b_2_path1_7x1"
  top: "v2_inception_resnet_b_2_path1_7x1_bn"
  param {
    name: "lxx_label"
    lr_mult: 1.0
    decay_mult: 0.0
  }
  param {
    name: "lxx_label"
    lr_mult: 1.0
    decay_mult: 0.0
  }
  param {
    name: "lxx_label"
  }
  param {
    name: "lxx_label"
  }
  bn_param {
    frozen: true
    slope_filler {
      type: "constant"
      value: 1.0
    }
    bias_filler {
      type: "constant"
      value: 0.0
    }
  }
}
layer {
  name: "v2_inception_resnet_b_2_path1_7x1_relu"
  type: "ReLU"
  bottom: "v2_inception_resnet_b_2_path1_7x1_bn"
  top: "v2_inception_resnet_b_2_path1_7x1_bn"
}
layer {
  name: "v2_inception_resnet_b_2_path2_1x1"
  type: "Convolution"
  bottom: "v2_inception_resnet_b_1_elt"
  top: "v2_inception_resnet_b_2_path2_1x1"
  param {
    name: "lxx_label"
    lr_mult: 1.0
    decay_mult: 1.0
  }
  convolution_param {
    num_output: 192
    bias_term: false
    weight_filler {
      type: "xavier"
    }
    bias_filler {
      type: "constant"
      value: 0.0
    }
    pad_h: 0
    pad_w: 0
    kernel_h: 1
    kernel_w: 1
    stride_h: 1
    stride_w: 1
  }
}
layer {
  name: "v2_inception_resnet_b_2_path2_1x1_bn"
  type: "BN"
  bottom: "v2_inception_resnet_b_2_path2_1x1"
  top: "v2_inception_resnet_b_2_path2_1x1_bn"
  param {
    name: "lxx_label"
    lr_mult: 1.0
    decay_mult: 0.0
  }
  param {
    name: "lxx_label"
    lr_mult: 1.0
    decay_mult: 0.0
  }
  param {
    name: "lxx_label"
  }
  param {
    name: "lxx_label"
  }
  bn_param {
    frozen: true
    slope_filler {
      type: "constant"
      value: 1.0
    }
    bias_filler {
      type: "constant"
      value: 0.0
    }
  }
}
layer {
  name: "v2_inception_resnet_b_2_path2_1x1_relu"
  type: "ReLU"
  bottom: "v2_inception_resnet_b_2_path2_1x1_bn"
  top: "v2_inception_resnet_b_2_path2_1x1_bn"
}
layer {
  name: "v2_inception_resnet_b_2_concat"
  type: "Concat"
  bottom: "v2_inception_resnet_b_2_path1_7x1_bn"
  bottom: "v2_inception_resnet_b_2_path2_1x1_bn"
  top: "v2_inception_resnet_b_2_concat"
}
layer {
  name: "v2_inception_resnet_b_2_conv_1x1"
  type: "Convolution"
  bottom: "v2_inception_resnet_b_2_concat"
  top: "v2_inception_resnet_b_2_conv_1x1"
  param {
    name: "lxx_label"
    lr_mult: 1.0
    decay_mult: 1.0
  }
  convolution_param {
    num_output: 1152
    bias_term: false
    weight_filler {
      type: "xavier"
    }
    bias_filler {
      type: "constant"
      value: 0.0
    }
    pad_h: 0
    pad_w: 0
    kernel_h: 1
    kernel_w: 1
    stride_h: 1
    stride_w: 1
  }
}
layer {
  name: "v2_inception_resnet_b_2_conv_1x1_bn"
  type: "BN"
  bottom: "v2_inception_resnet_b_2_conv_1x1"
  top: "v2_inception_resnet_b_2_conv_1x1_bn"
  param {
    name: "lxx_label"
    lr_mult: 1.0
    decay_mult: 0.0
  }
  param {
    name: "lxx_label"
    lr_mult: 1.0
    decay_mult: 0.0
  }
  param {
    name: "lxx_label"
  }
  param {
    name: "lxx_label"
  }
  bn_param {
    frozen: true
    slope_filler {
      type: "constant"
      value: 1.0
    }
    bias_filler {
      type: "constant"
      value: 0.0
    }
  }
}
layer {
  name: "v2_inception_resnet_b_2_elt"
  type: "Eltwise"
  bottom: "v2_inception_resnet_b_1_elt"
  bottom: "v2_inception_resnet_b_2_conv_1x1_bn"
  top: "v2_inception_resnet_b_2_elt"
  eltwise_param {
    operation: SUM
    coeff: 1
    coeff: 0.3
  }
}
layer {
  name: "v2_inception_resnet_b_2_relu"
  type: "ReLU"
  bottom: "v2_inception_resnet_b_2_elt"
  top: "v2_inception_resnet_b_2_elt"
}
layer {
  name: "v2_inception_resnet_b_3_path1_1x1"
  type: "Convolution"
  bottom: "v2_inception_resnet_b_2_elt"
  top: "v2_inception_resnet_b_3_path1_1x1"
  param {
    name: "lxx_label"
    lr_mult: 1.0
    decay_mult: 1.0
  }
  convolution_param {
    num_output: 128
    bias_term: false
    weight_filler {
      type: "xavier"
    }
    bias_filler {
      type: "constant"
      value: 0.0
    }
    pad_h: 0
    pad_w: 0
    kernel_h: 1
    kernel_w: 1
    stride_h: 1
    stride_w: 1
  }
}
layer {
  name: "v2_inception_resnet_b_3_path1_1x1_bn"
  type: "BN"
  bottom: "v2_inception_resnet_b_3_path1_1x1"
  top: "v2_inception_resnet_b_3_path1_1x1_bn"
  param {
    name: "lxx_label"
    lr_mult: 1.0
    decay_mult: 0.0
  }
  param {
    name: "lxx_label"
    lr_mult: 1.0
    decay_mult: 0.0
  }
  param {
    name: "lxx_label"
  }
  param {
    name: "lxx_label"
  }
  bn_param {
    frozen: true
    slope_filler {
      type: "constant"
      value: 1.0
    }
    bias_filler {
      type: "constant"
      value: 0.0
    }
  }
}
layer {
  name: "v2_inception_resnet_b_3_path1_1x1_relu"
  type: "ReLU"
  bottom: "v2_inception_resnet_b_3_path1_1x1_bn"
  top: "v2_inception_resnet_b_3_path1_1x1_bn"
}
layer {
  name: "v2_inception_resnet_b_3_path1_1x7"
  type: "Convolution"
  bottom: "v2_inception_resnet_b_3_path1_1x1_bn"
  top: "v2_inception_resnet_b_3_path1_1x7"
  param {
    name: "lxx_label"
    lr_mult: 1.0
    decay_mult: 1.0
  }
  convolution_param {
    num_output: 160
    bias_term: false
    weight_filler {
      type: "xavier"
    }
    bias_filler {
      type: "constant"
      value: 0.0
    }
    pad_h: 0
    pad_w: 6
    kernel_h: 1
    kernel_w: 7
    dilation: 2
    stride_h: 1
    stride_w: 1
  }
}
layer {
  name: "v2_inception_resnet_b_3_path1_1x7_bn"
  type: "BN"
  bottom: "v2_inception_resnet_b_3_path1_1x7"
  top: "v2_inception_resnet_b_3_path1_1x7_bn"
  param {
    name: "lxx_label"
    lr_mult: 1.0
    decay_mult: 0.0
  }
  param {
    name: "lxx_label"
    lr_mult: 1.0
    decay_mult: 0.0
  }
  param {
    name: "lxx_label"
  }
  param {
    name: "lxx_label"
  }
  bn_param {
    frozen: true
    slope_filler {
      type: "constant"
      value: 1.0
    }
    bias_filler {
      type: "constant"
      value: 0.0
    }
  }
}
layer {
  name: "v2_inception_resnet_b_3_path1_1x7_relu"
  type: "ReLU"
  bottom: "v2_inception_resnet_b_3_path1_1x7_bn"
  top: "v2_inception_resnet_b_3_path1_1x7_bn"
}
layer {
  name: "v2_inception_resnet_b_3_path1_7x1"
  type: "Convolution"
  bottom: "v2_inception_resnet_b_3_path1_1x7_bn"
  top: "v2_inception_resnet_b_3_path1_7x1"
  param {
    name: "lxx_label"
    lr_mult: 1.0
    decay_mult: 1.0
  }
  convolution_param {
    num_output: 192
    bias_term: false
    weight_filler {
      type: "xavier"
    }
    bias_filler {
      type: "constant"
      value: 0.0
    }
    pad_h: 6
    pad_w: 0
    kernel_h: 7
    kernel_w: 1
    dilation: 2
    stride_h: 1
    stride_w: 1
  }
}
layer {
  name: "v2_inception_resnet_b_3_path1_7x1_bn"
  type: "BN"
  bottom: "v2_inception_resnet_b_3_path1_7x1"
  top: "v2_inception_resnet_b_3_path1_7x1_bn"
  param {
    name: "lxx_label"
    lr_mult: 1.0
    decay_mult: 0.0
  }
  param {
    name: "lxx_label"
    lr_mult: 1.0
    decay_mult: 0.0
  }
  param {
    name: "lxx_label"
  }
  param {
    name: "lxx_label"
  }
  bn_param {
    frozen: true
    slope_filler {
      type: "constant"
      value: 1.0
    }
    bias_filler {
      type: "constant"
      value: 0.0
    }
  }
}
layer {
  name: "v2_inception_resnet_b_3_path1_7x1_relu"
  type: "ReLU"
  bottom: "v2_inception_resnet_b_3_path1_7x1_bn"
  top: "v2_inception_resnet_b_3_path1_7x1_bn"
}
layer {
  name: "v2_inception_resnet_b_3_path2_1x1"
  type: "Convolution"
  bottom: "v2_inception_resnet_b_2_elt"
  top: "v2_inception_resnet_b_3_path2_1x1"
  param {
    name: "lxx_label"
    lr_mult: 1.0
    decay_mult: 1.0
  }
  convolution_param {
    num_output: 192
    bias_term: false
    weight_filler {
      type: "xavier"
    }
    bias_filler {
      type: "constant"
      value: 0.0
    }
    pad_h: 0
    pad_w: 0
    kernel_h: 1
    kernel_w: 1
    stride_h: 1
    stride_w: 1
  }
}
layer {
  name: "v2_inception_resnet_b_3_path2_1x1_bn"
  type: "BN"
  bottom: "v2_inception_resnet_b_3_path2_1x1"
  top: "v2_inception_resnet_b_3_path2_1x1_bn"
  param {
    name: "lxx_label"
    lr_mult: 1.0
    decay_mult: 0.0
  }
  param {
    name: "lxx_label"
    lr_mult: 1.0
    decay_mult: 0.0
  }
  param {
    name: "lxx_label"
  }
  param {
    name: "lxx_label"
  }
  bn_param {
    frozen: true
    slope_filler {
      type: "constant"
      value: 1.0
    }
    bias_filler {
      type: "constant"
      value: 0.0
    }
  }
}
layer {
  name: "v2_inception_resnet_b_3_path2_1x1_relu"
  type: "ReLU"
  bottom: "v2_inception_resnet_b_3_path2_1x1_bn"
  top: "v2_inception_resnet_b_3_path2_1x1_bn"
}
layer {
  name: "v2_inception_resnet_b_3_concat"
  type: "Concat"
  bottom: "v2_inception_resnet_b_3_path1_7x1_bn"
  bottom: "v2_inception_resnet_b_3_path2_1x1_bn"
  top: "v2_inception_resnet_b_3_concat"
}
layer {
  name: "v2_inception_resnet_b_3_conv_1x1"
  type: "Convolution"
  bottom: "v2_inception_resnet_b_3_concat"
  top: "v2_inception_resnet_b_3_conv_1x1"
  param {
    name: "lxx_label"
    lr_mult: 1.0
    decay_mult: 1.0
  }
  convolution_param {
    num_output: 1152
    bias_term: false
    weight_filler {
      type: "xavier"
    }
    bias_filler {
      type: "constant"
      value: 0.0
    }
    pad_h: 0
    pad_w: 0
    kernel_h: 1
    kernel_w: 1
    stride_h: 1
    stride_w: 1
  }
}
layer {
  name: "v2_inception_resnet_b_3_conv_1x1_bn"
  type: "BN"
  bottom: "v2_inception_resnet_b_3_conv_1x1"
  top: "v2_inception_resnet_b_3_conv_1x1_bn"
  param {
    name: "lxx_label"
    lr_mult: 1.0
    decay_mult: 0.0
  }
  param {
    name: "lxx_label"
    lr_mult: 1.0
    decay_mult: 0.0
  }
  param {
    name: "lxx_label"
  }
  param {
    name: "lxx_label"
  }
  bn_param {
    frozen: true
    slope_filler {
      type: "constant"
      value: 1.0
    }
    bias_filler {
      type: "constant"
      value: 0.0
    }
  }
}
layer {
  name: "v2_inception_resnet_b_3_elt"
  type: "Eltwise"
  bottom: "v2_inception_resnet_b_2_elt"
  bottom: "v2_inception_resnet_b_3_conv_1x1_bn"
  top: "v2_inception_resnet_b_3_elt"
  eltwise_param {
    operation: SUM
    coeff: 1
    coeff: 0.3
  }
}
layer {
  name: "v2_inception_resnet_b_3_relu"
  type: "ReLU"
  bottom: "v2_inception_resnet_b_3_elt"
  top: "v2_inception_resnet_b_3_elt"
}
layer {
  name: "v2_inception_resnet_b_4_path1_1x1"
  type: "Convolution"
  bottom: "v2_inception_resnet_b_3_elt"
  top: "v2_inception_resnet_b_4_path1_1x1"
  param {
    name: "lxx_label"
    lr_mult: 1.0
    decay_mult: 1.0
  }
  convolution_param {
    num_output: 128
    bias_term: false
    weight_filler {
      type: "xavier"
    }
    bias_filler {
      type: "constant"
      value: 0.0
    }
    pad_h: 0
    pad_w: 0
    kernel_h: 1
    kernel_w: 1
    stride_h: 1
    stride_w: 1
  }
}
layer {
  name: "v2_inception_resnet_b_4_path1_1x1_bn"
  type: "BN"
  bottom: "v2_inception_resnet_b_4_path1_1x1"
  top: "v2_inception_resnet_b_4_path1_1x1_bn"
  param {
    name: "lxx_label"
    lr_mult: 1.0
    decay_mult: 0.0
  }
  param {
    name: "lxx_label"
    lr_mult: 1.0
    decay_mult: 0.0
  }
  param {
    name: "lxx_label"
  }
  param {
    name: "lxx_label"
  }
  bn_param {
    frozen: true
    slope_filler {
      type: "constant"
      value: 1.0
    }
    bias_filler {
      type: "constant"
      value: 0.0
    }
  }
}
layer {
  name: "v2_inception_resnet_b_4_path1_1x1_relu"
  type: "ReLU"
  bottom: "v2_inception_resnet_b_4_path1_1x1_bn"
  top: "v2_inception_resnet_b_4_path1_1x1_bn"
}
layer {
  name: "v2_inception_resnet_b_4_path1_1x7"
  type: "Convolution"
  bottom: "v2_inception_resnet_b_4_path1_1x1_bn"
  top: "v2_inception_resnet_b_4_path1_1x7"
  param {
    name: "lxx_label"
    lr_mult: 1.0
    decay_mult: 1.0
  }
  convolution_param {
    num_output: 160
    bias_term: false
    weight_filler {
      type: "xavier"
    }
    bias_filler {
      type: "constant"
      value: 0.0
    }
    pad_h: 0
    pad_w: 6
    kernel_h: 1
    kernel_w: 7
    dilation: 2
    stride_h: 1
    stride_w: 1
  }
}
layer {
  name: "v2_inception_resnet_b_4_path1_1x7_bn"
  type: "BN"
  bottom: "v2_inception_resnet_b_4_path1_1x7"
  top: "v2_inception_resnet_b_4_path1_1x7_bn"
  param {
    name: "lxx_label"
    lr_mult: 1.0
    decay_mult: 0.0
  }
  param {
    name: "lxx_label"
    lr_mult: 1.0
    decay_mult: 0.0
  }
  param {
    name: "lxx_label"
  }
  param {
    name: "lxx_label"
  }
  bn_param {
    frozen: true
    slope_filler {
      type: "constant"
      value: 1.0
    }
    bias_filler {
      type: "constant"
      value: 0.0
    }
  }
}
layer {
  name: "v2_inception_resnet_b_4_path1_1x7_relu"
  type: "ReLU"
  bottom: "v2_inception_resnet_b_4_path1_1x7_bn"
  top: "v2_inception_resnet_b_4_path1_1x7_bn"
}
layer {
  name: "v2_inception_resnet_b_4_path1_7x1"
  type: "Convolution"
  bottom: "v2_inception_resnet_b_4_path1_1x7_bn"
  top: "v2_inception_resnet_b_4_path1_7x1"
  param {
    name: "lxx_label"
    lr_mult: 1.0
    decay_mult: 1.0
  }
  convolution_param {
    num_output: 192
    bias_term: false
    weight_filler {
      type: "xavier"
    }
    bias_filler {
      type: "constant"
      value: 0.0
    }
    pad_h: 6
    pad_w: 0
    kernel_h: 7
    kernel_w: 1
    dilation: 2
    stride_h: 1
    stride_w: 1
  }
}
layer {
  name: "v2_inception_resnet_b_4_path1_7x1_bn"
  type: "BN"
  bottom: "v2_inception_resnet_b_4_path1_7x1"
  top: "v2_inception_resnet_b_4_path1_7x1_bn"
  param {
    name: "lxx_label"
    lr_mult: 1.0
    decay_mult: 0.0
  }
  param {
    name: "lxx_label"
    lr_mult: 1.0
    decay_mult: 0.0
  }
  param {
    name: "lxx_label"
  }
  param {
    name: "lxx_label"
  }
  bn_param {
    frozen: true
    slope_filler {
      type: "constant"
      value: 1.0
    }
    bias_filler {
      type: "constant"
      value: 0.0
    }
  }
}
layer {
  name: "v2_inception_resnet_b_4_path1_7x1_relu"
  type: "ReLU"
  bottom: "v2_inception_resnet_b_4_path1_7x1_bn"
  top: "v2_inception_resnet_b_4_path1_7x1_bn"
}
layer {
  name: "v2_inception_resnet_b_4_path2_1x1"
  type: "Convolution"
  bottom: "v2_inception_resnet_b_3_elt"
  top: "v2_inception_resnet_b_4_path2_1x1"
  param {
    name: "lxx_label"
    lr_mult: 1.0
    decay_mult: 1.0
  }
  convolution_param {
    num_output: 192
    bias_term: false
    weight_filler {
      type: "xavier"
    }
    bias_filler {
      type: "constant"
      value: 0.0
    }
    pad_h: 0
    pad_w: 0
    kernel_h: 1
    kernel_w: 1
    stride_h: 1
    stride_w: 1
  }
}
layer {
  name: "v2_inception_resnet_b_4_path2_1x1_bn"
  type: "BN"
  bottom: "v2_inception_resnet_b_4_path2_1x1"
  top: "v2_inception_resnet_b_4_path2_1x1_bn"
  param {
    name: "lxx_label"
    lr_mult: 1.0
    decay_mult: 0.0
  }
  param {
    name: "lxx_label"
    lr_mult: 1.0
    decay_mult: 0.0
  }
  param {
    name: "lxx_label"
  }
  param {
    name: "lxx_label"
  }
  bn_param {
    frozen: true
    slope_filler {
      type: "constant"
      value: 1.0
    }
    bias_filler {
      type: "constant"
      value: 0.0
    }
  }
}
layer {
  name: "v2_inception_resnet_b_4_path2_1x1_relu"
  type: "ReLU"
  bottom: "v2_inception_resnet_b_4_path2_1x1_bn"
  top: "v2_inception_resnet_b_4_path2_1x1_bn"
}
layer {
  name: "v2_inception_resnet_b_4_concat"
  type: "Concat"
  bottom: "v2_inception_resnet_b_4_path1_7x1_bn"
  bottom: "v2_inception_resnet_b_4_path2_1x1_bn"
  top: "v2_inception_resnet_b_4_concat"
}
layer {
  name: "v2_inception_resnet_b_4_conv_1x1"
  type: "Convolution"
  bottom: "v2_inception_resnet_b_4_concat"
  top: "v2_inception_resnet_b_4_conv_1x1"
  param {
    name: "lxx_label"
    lr_mult: 1.0
    decay_mult: 1.0
  }
  convolution_param {
    num_output: 1152
    bias_term: false
    weight_filler {
      type: "xavier"
    }
    bias_filler {
      type: "constant"
      value: 0.0
    }
    pad_h: 0
    pad_w: 0
    kernel_h: 1
    kernel_w: 1
    stride_h: 1
    stride_w: 1
  }
}
layer {
  name: "v2_inception_resnet_b_4_conv_1x1_bn"
  type: "BN"
  bottom: "v2_inception_resnet_b_4_conv_1x1"
  top: "v2_inception_resnet_b_4_conv_1x1_bn"
  param {
    name: "lxx_label"
    lr_mult: 1.0
    decay_mult: 0.0
  }
  param {
    name: "lxx_label"
    lr_mult: 1.0
    decay_mult: 0.0
  }
  param {
    name: "lxx_label"
  }
  param {
    name: "lxx_label"
  }
  bn_param {
    frozen: true
    slope_filler {
      type: "constant"
      value: 1.0
    }
    bias_filler {
      type: "constant"
      value: 0.0
    }
  }
}
layer {
  name: "v2_inception_resnet_b_4_elt"
  type: "Eltwise"
  bottom: "v2_inception_resnet_b_3_elt"
  bottom: "v2_inception_resnet_b_4_conv_1x1_bn"
  top: "v2_inception_resnet_b_4_elt"
  eltwise_param {
    operation: SUM
    coeff: 1
    coeff: 0.3
  }
}
layer {
  name: "v2_inception_resnet_b_4_relu"
  type: "ReLU"
  bottom: "v2_inception_resnet_b_4_elt"
  top: "v2_inception_resnet_b_4_elt"
}
layer {
  name: "v2_inception_resnet_b_5_path1_1x1"
  type: "Convolution"
  bottom: "v2_inception_resnet_b_4_elt"
  top: "v2_inception_resnet_b_5_path1_1x1"
  param {
    name: "lxx_label"
    lr_mult: 1.0
    decay_mult: 1.0
  }
  convolution_param {
    num_output: 128
    bias_term: false
    weight_filler {
      type: "xavier"
    }
    bias_filler {
      type: "constant"
      value: 0.0
    }
    pad_h: 0
    pad_w: 0
    kernel_h: 1
    kernel_w: 1
    stride_h: 1
    stride_w: 1
  }
}
layer {
  name: "v2_inception_resnet_b_5_path1_1x1_bn"
  type: "BN"
  bottom: "v2_inception_resnet_b_5_path1_1x1"
  top: "v2_inception_resnet_b_5_path1_1x1_bn"
  param {
    name: "lxx_label"
    lr_mult: 1.0
    decay_mult: 0.0
  }
  param {
    name: "lxx_label"
    lr_mult: 1.0
    decay_mult: 0.0
  }
  param {
    name: "lxx_label"
  }
  param {
    name: "lxx_label"
  }
  bn_param {
    frozen: true
    slope_filler {
      type: "constant"
      value: 1.0
    }
    bias_filler {
      type: "constant"
      value: 0.0
    }
  }
}
layer {
  name: "v2_inception_resnet_b_5_path1_1x1_relu"
  type: "ReLU"
  bottom: "v2_inception_resnet_b_5_path1_1x1_bn"
  top: "v2_inception_resnet_b_5_path1_1x1_bn"
}
layer {
  name: "v2_inception_resnet_b_5_path1_1x7"
  type: "Convolution"
  bottom: "v2_inception_resnet_b_5_path1_1x1_bn"
  top: "v2_inception_resnet_b_5_path1_1x7"
  param {
    name: "lxx_label"
    lr_mult: 1.0
    decay_mult: 1.0
  }
  convolution_param {
    num_output: 160
    bias_term: false
    weight_filler {
      type: "xavier"
    }
    bias_filler {
      type: "constant"
      value: 0.0
    }
    pad_h: 0
    pad_w: 6
    kernel_h: 1
    kernel_w: 7
    dilation: 2
    stride_h: 1
    stride_w: 1
  }
}
layer {
  name: "v2_inception_resnet_b_5_path1_1x7_bn"
  type: "BN"
  bottom: "v2_inception_resnet_b_5_path1_1x7"
  top: "v2_inception_resnet_b_5_path1_1x7_bn"
  param {
    name: "lxx_label"
    lr_mult: 1.0
    decay_mult: 0.0
  }
  param {
    name: "lxx_label"
    lr_mult: 1.0
    decay_mult: 0.0
  }
  param {
    name: "lxx_label"
  }
  param {
    name: "lxx_label"
  }
  bn_param {
    frozen: true
    slope_filler {
      type: "constant"
      value: 1.0
    }
    bias_filler {
      type: "constant"
      value: 0.0
    }
  }
}
layer {
  name: "v2_inception_resnet_b_5_path1_1x7_relu"
  type: "ReLU"
  bottom: "v2_inception_resnet_b_5_path1_1x7_bn"
  top: "v2_inception_resnet_b_5_path1_1x7_bn"
}
layer {
  name: "v2_inception_resnet_b_5_path1_7x1"
  type: "Convolution"
  bottom: "v2_inception_resnet_b_5_path1_1x7_bn"
  top: "v2_inception_resnet_b_5_path1_7x1"
  param {
    name: "lxx_label"
    lr_mult: 1.0
    decay_mult: 1.0
  }
  convolution_param {
    num_output: 192
    bias_term: false
    weight_filler {
      type: "xavier"
    }
    bias_filler {
      type: "constant"
      value: 0.0
    }
    pad_h: 6
    pad_w: 0
    kernel_h: 7
    kernel_w: 1
    dilation: 2
    stride_h: 1
    stride_w: 1
  }
}
layer {
  name: "v2_inception_resnet_b_5_path1_7x1_bn"
  type: "BN"
  bottom: "v2_inception_resnet_b_5_path1_7x1"
  top: "v2_inception_resnet_b_5_path1_7x1_bn"
  param {
    name: "lxx_label"
    lr_mult: 1.0
    decay_mult: 0.0
  }
  param {
    name: "lxx_label"
    lr_mult: 1.0
    decay_mult: 0.0
  }
  param {
    name: "lxx_label"
  }
  param {
    name: "lxx_label"
  }
  bn_param {
    frozen: true
    slope_filler {
      type: "constant"
      value: 1.0
    }
    bias_filler {
      type: "constant"
      value: 0.0
    }
  }
}
layer {
  name: "v2_inception_resnet_b_5_path1_7x1_relu"
  type: "ReLU"
  bottom: "v2_inception_resnet_b_5_path1_7x1_bn"
  top: "v2_inception_resnet_b_5_path1_7x1_bn"
}
layer {
  name: "v2_inception_resnet_b_5_path2_1x1"
  type: "Convolution"
  bottom: "v2_inception_resnet_b_4_elt"
  top: "v2_inception_resnet_b_5_path2_1x1"
  param {
    name: "lxx_label"
    lr_mult: 1.0
    decay_mult: 1.0
  }
  convolution_param {
    num_output: 192
    bias_term: false
    weight_filler {
      type: "xavier"
    }
    bias_filler {
      type: "constant"
      value: 0.0
    }
    pad_h: 0
    pad_w: 0
    kernel_h: 1
    kernel_w: 1
    stride_h: 1
    stride_w: 1
  }
}
layer {
  name: "v2_inception_resnet_b_5_path2_1x1_bn"
  type: "BN"
  bottom: "v2_inception_resnet_b_5_path2_1x1"
  top: "v2_inception_resnet_b_5_path2_1x1_bn"
  param {
    name: "lxx_label"
    lr_mult: 1.0
    decay_mult: 0.0
  }
  param {
    name: "lxx_label"
    lr_mult: 1.0
    decay_mult: 0.0
  }
  param {
    name: "lxx_label"
  }
  param {
    name: "lxx_label"
  }
  bn_param {
    frozen: true
    slope_filler {
      type: "constant"
      value: 1.0
    }
    bias_filler {
      type: "constant"
      value: 0.0
    }
  }
}
layer {
  name: "v2_inception_resnet_b_5_path2_1x1_relu"
  type: "ReLU"
  bottom: "v2_inception_resnet_b_5_path2_1x1_bn"
  top: "v2_inception_resnet_b_5_path2_1x1_bn"
}
layer {
  name: "v2_inception_resnet_b_5_concat"
  type: "Concat"
  bottom: "v2_inception_resnet_b_5_path1_7x1_bn"
  bottom: "v2_inception_resnet_b_5_path2_1x1_bn"
  top: "v2_inception_resnet_b_5_concat"
}
layer {
  name: "v2_inception_resnet_b_5_conv_1x1"
  type: "Convolution"
  bottom: "v2_inception_resnet_b_5_concat"
  top: "v2_inception_resnet_b_5_conv_1x1"
  param {
    name: "lxx_label"
    lr_mult: 1.0
    decay_mult: 1.0
  }
  convolution_param {
    num_output: 1152
    bias_term: false
    weight_filler {
      type: "xavier"
    }
    bias_filler {
      type: "constant"
      value: 0.0
    }
    pad_h: 0
    pad_w: 0
    kernel_h: 1
    kernel_w: 1
    stride_h: 1
    stride_w: 1
  }
}
layer {
  name: "v2_inception_resnet_b_5_conv_1x1_bn"
  type: "BN"
  bottom: "v2_inception_resnet_b_5_conv_1x1"
  top: "v2_inception_resnet_b_5_conv_1x1_bn"
  param {
    name: "lxx_label"
    lr_mult: 1.0
    decay_mult: 0.0
  }
  param {
    name: "lxx_label"
    lr_mult: 1.0
    decay_mult: 0.0
  }
  param {
    name: "lxx_label"
  }
  param {
    name: "lxx_label"
  }
  bn_param {
    frozen: true
    slope_filler {
      type: "constant"
      value: 1.0
    }
    bias_filler {
      type: "constant"
      value: 0.0
    }
  }
}
layer {
  name: "v2_inception_resnet_b_5_elt"
  type: "Eltwise"
  bottom: "v2_inception_resnet_b_4_elt"
  bottom: "v2_inception_resnet_b_5_conv_1x1_bn"
  top: "v2_inception_resnet_b_5_elt"
  eltwise_param {
    operation: SUM
    coeff: 1
    coeff: 0.3
  }
}
layer {
  name: "v2_inception_resnet_b_5_relu"
  type: "ReLU"
  bottom: "v2_inception_resnet_b_5_elt"
  top: "v2_inception_resnet_b_5_elt"
}
layer {
  name: "v2_inception_resnet_b_6_path1_1x1"
  type: "Convolution"
  bottom: "v2_inception_resnet_b_5_elt"
  top: "v2_inception_resnet_b_6_path1_1x1"
  param {
    name: "lxx_label"
    lr_mult: 1.0
    decay_mult: 1.0
  }
  convolution_param {
    num_output: 128
    bias_term: false
    weight_filler {
      type: "xavier"
    }
    bias_filler {
      type: "constant"
      value: 0.0
    }
    pad_h: 0
    pad_w: 0
    kernel_h: 1
    kernel_w: 1
    stride_h: 1
    stride_w: 1
  }
}
layer {
  name: "v2_inception_resnet_b_6_path1_1x1_bn"
  type: "BN"
  bottom: "v2_inception_resnet_b_6_path1_1x1"
  top: "v2_inception_resnet_b_6_path1_1x1_bn"
  param {
    name: "lxx_label"
    lr_mult: 1.0
    decay_mult: 0.0
  }
  param {
    name: "lxx_label"
    lr_mult: 1.0
    decay_mult: 0.0
  }
  param {
    name: "lxx_label"
  }
  param {
    name: "lxx_label"
  }
  bn_param {
    frozen: true
    slope_filler {
      type: "constant"
      value: 1.0
    }
    bias_filler {
      type: "constant"
      value: 0.0
    }
  }
}
layer {
  name: "v2_inception_resnet_b_6_path1_1x1_relu"
  type: "ReLU"
  bottom: "v2_inception_resnet_b_6_path1_1x1_bn"
  top: "v2_inception_resnet_b_6_path1_1x1_bn"
}
layer {
  name: "v2_inception_resnet_b_6_path1_1x7"
  type: "Convolution"
  bottom: "v2_inception_resnet_b_6_path1_1x1_bn"
  top: "v2_inception_resnet_b_6_path1_1x7"
  param {
    name: "lxx_label"
    lr_mult: 1.0
    decay_mult: 1.0
  }
  convolution_param {
    num_output: 160
    bias_term: false
    weight_filler {
      type: "xavier"
    }
    bias_filler {
      type: "constant"
      value: 0.0
    }
    pad_h: 0
    pad_w: 3
    kernel_h: 1
    kernel_w: 7
    stride_h: 1
    stride_w: 1
  }
}
layer {
  name: "v2_inception_resnet_b_6_path1_1x7_bn"
  type: "BN"
  bottom: "v2_inception_resnet_b_6_path1_1x7"
  top: "v2_inception_resnet_b_6_path1_1x7_bn"
  param {
    name: "lxx_label"
    lr_mult: 1.0
    decay_mult: 0.0
  }
  param {
    name: "lxx_label"
    lr_mult: 1.0
    decay_mult: 0.0
  }
  param {
    name: "lxx_label"
  }
  param {
    name: "lxx_label"
  }
  bn_param {
    frozen: true
    slope_filler {
      type: "constant"
      value: 1.0
    }
    bias_filler {
      type: "constant"
      value: 0.0
    }
  }
}
layer {
  name: "v2_inception_resnet_b_6_path1_1x7_relu"
  type: "ReLU"
  bottom: "v2_inception_resnet_b_6_path1_1x7_bn"
  top: "v2_inception_resnet_b_6_path1_1x7_bn"
}
layer {
  name: "v2_inception_resnet_b_6_path1_7x1"
  type: "Convolution"
  bottom: "v2_inception_resnet_b_6_path1_1x7_bn"
  top: "v2_inception_resnet_b_6_path1_7x1"
  param {
    name: "lxx_label"
    lr_mult: 1.0
    decay_mult: 1.0
  }
  convolution_param {
    num_output: 192
    bias_term: false
    weight_filler {
      type: "xavier"
    }
    bias_filler {
      type: "constant"
      value: 0.0
    }
    pad_h: 6
    pad_w: 0
    kernel_h: 7
    kernel_w: 1
    dilation: 2
    stride_h: 1
    stride_w: 1
  }
}
layer {
  name: "v2_inception_resnet_b_6_path1_7x1_bn"
  type: "BN"
  bottom: "v2_inception_resnet_b_6_path1_7x1"
  top: "v2_inception_resnet_b_6_path1_7x1_bn"
  param {
    name: "lxx_label"
    lr_mult: 1.0
    decay_mult: 0.0
  }
  param {
    name: "lxx_label"
    lr_mult: 1.0
    decay_mult: 0.0
  }
  param {
    name: "lxx_label"
  }
  param {
    name: "lxx_label"
  }
  bn_param {
    frozen: true
    slope_filler {
      type: "constant"
      value: 1.0
    }
    bias_filler {
      type: "constant"
      value: 0.0
    }
  }
}
layer {
  name: "v2_inception_resnet_b_6_path1_7x1_relu"
  type: "ReLU"
  bottom: "v2_inception_resnet_b_6_path1_7x1_bn"
  top: "v2_inception_resnet_b_6_path1_7x1_bn"
}
layer {
  name: "v2_inception_resnet_b_6_path2_1x1"
  type: "Convolution"
  bottom: "v2_inception_resnet_b_5_elt"
  top: "v2_inception_resnet_b_6_path2_1x1"
  param {
    name: "lxx_label"
    lr_mult: 1.0
    decay_mult: 1.0
  }
  convolution_param {
    num_output: 192
    bias_term: false
    weight_filler {
      type: "xavier"
    }
    bias_filler {
      type: "constant"
      value: 0.0
    }
    pad_h: 0
    pad_w: 0
    kernel_h: 1
    kernel_w: 1
    stride_h: 1
    stride_w: 1
  }
}
layer {
  name: "v2_inception_resnet_b_6_path2_1x1_bn"
  type: "BN"
  bottom: "v2_inception_resnet_b_6_path2_1x1"
  top: "v2_inception_resnet_b_6_path2_1x1_bn"
  param {
    name: "lxx_label"
    lr_mult: 1.0
    decay_mult: 0.0
  }
  param {
    name: "lxx_label"
    lr_mult: 1.0
    decay_mult: 0.0
  }
  param {
    name: "lxx_label"
  }
  param {
    name: "lxx_label"
  }
  bn_param {
    frozen: true
    slope_filler {
      type: "constant"
      value: 1.0
    }
    bias_filler {
      type: "constant"
      value: 0.0
    }
  }
}
layer {
  name: "v2_inception_resnet_b_6_path2_1x1_relu"
  type: "ReLU"
  bottom: "v2_inception_resnet_b_6_path2_1x1_bn"
  top: "v2_inception_resnet_b_6_path2_1x1_bn"
}
layer {
  name: "v2_inception_resnet_b_6_concat"
  type: "Concat"
  bottom: "v2_inception_resnet_b_6_path1_7x1_bn"
  bottom: "v2_inception_resnet_b_6_path2_1x1_bn"
  top: "v2_inception_resnet_b_6_concat"
}
layer {
  name: "v2_inception_resnet_b_6_conv_1x1"
  type: "Convolution"
  bottom: "v2_inception_resnet_b_6_concat"
  top: "v2_inception_resnet_b_6_conv_1x1"
  param {
    name: "lxx_label"
    lr_mult: 1.0
    decay_mult: 1.0
  }
  convolution_param {
    num_output: 1152
    bias_term: false
    weight_filler {
      type: "xavier"
    }
    bias_filler {
      type: "constant"
      value: 0.0
    }
    pad_h: 0
    pad_w: 0
    kernel_h: 1
    kernel_w: 1
    stride_h: 1
    stride_w: 1
  }
}
layer {
  name: "v2_inception_resnet_b_6_conv_1x1_bn"
  type: "BN"
  bottom: "v2_inception_resnet_b_6_conv_1x1"
  top: "v2_inception_resnet_b_6_conv_1x1_bn"
  param {
    name: "lxx_label"
    lr_mult: 1.0
    decay_mult: 0.0
  }
  param {
    name: "lxx_label"
    lr_mult: 1.0
    decay_mult: 0.0
  }
  param {
    name: "lxx_label"
  }
  param {
    name: "lxx_label"
  }
  bn_param {
    frozen: true
    slope_filler {
      type: "constant"
      value: 1.0
    }
    bias_filler {
      type: "constant"
      value: 0.0
    }
  }
}
layer {
  name: "v2_inception_resnet_b_6_elt"
  type: "Eltwise"
  bottom: "v2_inception_resnet_b_5_elt"
  bottom: "v2_inception_resnet_b_6_conv_1x1_bn"
  top: "v2_inception_resnet_b_6_elt"
  eltwise_param {
    operation: SUM
    coeff: 1
    coeff: 0.3
  }
}
layer {
  name: "v2_inception_resnet_b_6_relu"
  type: "ReLU"
  bottom: "v2_inception_resnet_b_6_elt"
  top: "v2_inception_resnet_b_6_elt"
}
layer {
  name: "v2_inception_resnet_b_7_path1_1x1"
  type: "Convolution"
  bottom: "v2_inception_resnet_b_6_elt"
  top: "v2_inception_resnet_b_7_path1_1x1"
  param {
    name: "lxx_label"
    lr_mult: 1.0
    decay_mult: 1.0
  }
  convolution_param {
    num_output: 128
    bias_term: false
    weight_filler {
      type: "xavier"
    }
    bias_filler {
      type: "constant"
      value: 0.0
    }
    pad_h: 0
    pad_w: 0
    kernel_h: 1
    kernel_w: 1
    stride_h: 1
    stride_w: 1
  }
}
layer {
  name: "v2_inception_resnet_b_7_path1_1x1_bn"
  type: "BN"
  bottom: "v2_inception_resnet_b_7_path1_1x1"
  top: "v2_inception_resnet_b_7_path1_1x1_bn"
  param {
    name: "lxx_label"
    lr_mult: 1.0
    decay_mult: 0.0
  }
  param {
    name: "lxx_label"
    lr_mult: 1.0
    decay_mult: 0.0
  }
  param {
    name: "lxx_label"
  }
  param {
    name: "lxx_label"
  }
  bn_param {
    frozen: true
    slope_filler {
      type: "constant"
      value: 1.0
    }
    bias_filler {
      type: "constant"
      value: 0.0
    }
  }
}
layer {
  name: "v2_inception_resnet_b_7_path1_1x1_relu"
  type: "ReLU"
  bottom: "v2_inception_resnet_b_7_path1_1x1_bn"
  top: "v2_inception_resnet_b_7_path1_1x1_bn"
}
layer {
  name: "v2_inception_resnet_b_7_path1_1x7"
  type: "Convolution"
  bottom: "v2_inception_resnet_b_7_path1_1x1_bn"
  top: "v2_inception_resnet_b_7_path1_1x7"
  param {
    name: "lxx_label"
    lr_mult: 1.0
    decay_mult: 1.0
  }
  convolution_param {
    num_output: 160
    bias_term: false
    weight_filler {
      type: "xavier"
    }
    bias_filler {
      type: "constant"
      value: 0.0
    }
    pad_h: 0
    pad_w: 6
    kernel_h: 1
    kernel_w: 7
    dilation: 2
    stride_h: 1
    stride_w: 1
  }
}
layer {
  name: "v2_inception_resnet_b_7_path1_1x7_bn"
  type: "BN"
  bottom: "v2_inception_resnet_b_7_path1_1x7"
  top: "v2_inception_resnet_b_7_path1_1x7_bn"
  param {
    name: "lxx_label"
    lr_mult: 1.0
    decay_mult: 0.0
  }
  param {
    name: "lxx_label"
    lr_mult: 1.0
    decay_mult: 0.0
  }
  param {
    name: "lxx_label"
  }
  param {
    name: "lxx_label"
  }
  bn_param {
    frozen: true
    slope_filler {
      type: "constant"
      value: 1.0
    }
    bias_filler {
      type: "constant"
      value: 0.0
    }
  }
}
layer {
  name: "v2_inception_resnet_b_7_path1_1x7_relu"
  type: "ReLU"
  bottom: "v2_inception_resnet_b_7_path1_1x7_bn"
  top: "v2_inception_resnet_b_7_path1_1x7_bn"
}
layer {
  name: "v2_inception_resnet_b_7_path1_7x1"
  type: "Convolution"
  bottom: "v2_inception_resnet_b_7_path1_1x7_bn"
  top: "v2_inception_resnet_b_7_path1_7x1"
  param {
    name: "lxx_label"
    lr_mult: 1.0
    decay_mult: 1.0
  }
  convolution_param {
    num_output: 192
    bias_term: false
    weight_filler {
      type: "xavier"
    }
    bias_filler {
      type: "constant"
      value: 0.0
    }
    pad_h: 6
    pad_w: 0
    kernel_h: 7
    kernel_w: 1
    dilation: 2
    stride_h: 1
    stride_w: 1
  }
}
layer {
  name: "v2_inception_resnet_b_7_path1_7x1_bn"
  type: "BN"
  bottom: "v2_inception_resnet_b_7_path1_7x1"
  top: "v2_inception_resnet_b_7_path1_7x1_bn"
  param {
    name: "lxx_label"
    lr_mult: 1.0
    decay_mult: 0.0
  }
  param {
    name: "lxx_label"
    lr_mult: 1.0
    decay_mult: 0.0
  }
  param {
    name: "lxx_label"
  }
  param {
    name: "lxx_label"
  }
  bn_param {
    frozen: true
    slope_filler {
      type: "constant"
      value: 1.0
    }
    bias_filler {
      type: "constant"
      value: 0.0
    }
  }
}
layer {
  name: "v2_inception_resnet_b_7_path1_7x1_relu"
  type: "ReLU"
  bottom: "v2_inception_resnet_b_7_path1_7x1_bn"
  top: "v2_inception_resnet_b_7_path1_7x1_bn"
}
layer {
  name: "v2_inception_resnet_b_7_path2_1x1"
  type: "Convolution"
  bottom: "v2_inception_resnet_b_6_elt"
  top: "v2_inception_resnet_b_7_path2_1x1"
  param {
    name: "lxx_label"
    lr_mult: 1.0
    decay_mult: 1.0
  }
  convolution_param {
    num_output: 192
    bias_term: false
    weight_filler {
      type: "xavier"
    }
    bias_filler {
      type: "constant"
      value: 0.0
    }
    pad_h: 0
    pad_w: 0
    kernel_h: 1
    kernel_w: 1
    stride_h: 1
    stride_w: 1
  }
}
layer {
  name: "v2_inception_resnet_b_7_path2_1x1_bn"
  type: "BN"
  bottom: "v2_inception_resnet_b_7_path2_1x1"
  top: "v2_inception_resnet_b_7_path2_1x1_bn"
  param {
    name: "lxx_label"
    lr_mult: 1.0
    decay_mult: 0.0
  }
  param {
    name: "lxx_label"
    lr_mult: 1.0
    decay_mult: 0.0
  }
  param {
    name: "lxx_label"
  }
  param {
    name: "lxx_label"
  }
  bn_param {
    frozen: true
    slope_filler {
      type: "constant"
      value: 1.0
    }
    bias_filler {
      type: "constant"
      value: 0.0
    }
  }
}
layer {
  name: "v2_inception_resnet_b_7_path2_1x1_relu"
  type: "ReLU"
  bottom: "v2_inception_resnet_b_7_path2_1x1_bn"
  top: "v2_inception_resnet_b_7_path2_1x1_bn"
}
layer {
  name: "v2_inception_resnet_b_7_concat"
  type: "Concat"
  bottom: "v2_inception_resnet_b_7_path1_7x1_bn"
  bottom: "v2_inception_resnet_b_7_path2_1x1_bn"
  top: "v2_inception_resnet_b_7_concat"
}
layer {
  name: "v2_inception_resnet_b_7_conv_1x1"
  type: "Convolution"
  bottom: "v2_inception_resnet_b_7_concat"
  top: "v2_inception_resnet_b_7_conv_1x1"
  param {
    name: "lxx_label"
    lr_mult: 1.0
    decay_mult: 1.0
  }
  convolution_param {
    num_output: 1152
    bias_term: false
    weight_filler {
      type: "xavier"
    }
    bias_filler {
      type: "constant"
      value: 0.0
    }
    pad_h: 0
    pad_w: 0
    kernel_h: 1
    kernel_w: 1
    stride_h: 1
    stride_w: 1
  }
}
layer {
  name: "v2_inception_resnet_b_7_conv_1x1_bn"
  type: "BN"
  bottom: "v2_inception_resnet_b_7_conv_1x1"
  top: "v2_inception_resnet_b_7_conv_1x1_bn"
  param {
    name: "lxx_label"
    lr_mult: 1.0
    decay_mult: 0.0
  }
  param {
    name: "lxx_label"
    lr_mult: 1.0
    decay_mult: 0.0
  }
  param {
    name: "lxx_label"
  }
  param {
    name: "lxx_label"
  }
  bn_param {
    frozen: true
    slope_filler {
      type: "constant"
      value: 1.0
    }
    bias_filler {
      type: "constant"
      value: 0.0
    }
  }
}
layer {
  name: "v2_inception_resnet_b_7_elt"
  type: "Eltwise"
  bottom: "v2_inception_resnet_b_6_elt"
  bottom: "v2_inception_resnet_b_7_conv_1x1_bn"
  top: "v2_inception_resnet_b_7_elt"
  eltwise_param {
    operation: SUM
    coeff: 1
    coeff: 0.3
  }
}
layer {
  name: "v2_inception_resnet_b_7_relu"
  type: "ReLU"
  bottom: "v2_inception_resnet_b_7_elt"
  top: "v2_inception_resnet_b_7_elt"
}
layer {
  name: "v2_inception_resnet_b_8_path1_1x1"
  type: "Convolution"
  bottom: "v2_inception_resnet_b_7_elt"
  top: "v2_inception_resnet_b_8_path1_1x1"
  param {
    name: "lxx_label"
    lr_mult: 1.0
    decay_mult: 1.0
  }
  convolution_param {
    num_output: 128
    bias_term: false
    weight_filler {
      type: "xavier"
    }
    bias_filler {
      type: "constant"
      value: 0.0
    }
    pad_h: 0
    pad_w: 0
    kernel_h: 1
    kernel_w: 1
    stride_h: 1
    stride_w: 1
  }
}
layer {
  name: "v2_inception_resnet_b_8_path1_1x1_bn"
  type: "BN"
  bottom: "v2_inception_resnet_b_8_path1_1x1"
  top: "v2_inception_resnet_b_8_path1_1x1_bn"
  param {
    name: "lxx_label"
    lr_mult: 1.0
    decay_mult: 0.0
  }
  param {
    name: "lxx_label"
    lr_mult: 1.0
    decay_mult: 0.0
  }
  param {
    name: "lxx_label"
  }
  param {
    name: "lxx_label"
  }
  bn_param {
    frozen: true
    slope_filler {
      type: "constant"
      value: 1.0
    }
    bias_filler {
      type: "constant"
      value: 0.0
    }
  }
}
layer {
  name: "v2_inception_resnet_b_8_path1_1x1_relu"
  type: "ReLU"
  bottom: "v2_inception_resnet_b_8_path1_1x1_bn"
  top: "v2_inception_resnet_b_8_path1_1x1_bn"
}
layer {
  name: "v2_inception_resnet_b_8_path1_1x7"
  type: "Convolution"
  bottom: "v2_inception_resnet_b_8_path1_1x1_bn"
  top: "v2_inception_resnet_b_8_path1_1x7"
  param {
    name: "lxx_label"
    lr_mult: 1.0
    decay_mult: 1.0
  }
  convolution_param {
    num_output: 160
    bias_term: false
    weight_filler {
      type: "xavier"
    }
    bias_filler {
      type: "constant"
      value: 0.0
    }
    pad_h: 0
    pad_w: 6
    kernel_h: 1
    kernel_w: 7
    dilation: 2
    stride_h: 1
    stride_w: 1
  }
}
layer {
  name: "v2_inception_resnet_b_8_path1_1x7_bn"
  type: "BN"
  bottom: "v2_inception_resnet_b_8_path1_1x7"
  top: "v2_inception_resnet_b_8_path1_1x7_bn"
  param {
    name: "lxx_label"
    lr_mult: 1.0
    decay_mult: 0.0
  }
  param {
    name: "lxx_label"
    lr_mult: 1.0
    decay_mult: 0.0
  }
  param {
    name: "lxx_label"
  }
  param {
    name: "lxx_label"
  }
  bn_param {
    frozen: true
    slope_filler {
      type: "constant"
      value: 1.0
    }
    bias_filler {
      type: "constant"
      value: 0.0
    }
  }
}
layer {
  name: "v2_inception_resnet_b_8_path1_1x7_relu"
  type: "ReLU"
  bottom: "v2_inception_resnet_b_8_path1_1x7_bn"
  top: "v2_inception_resnet_b_8_path1_1x7_bn"
}
layer {
  name: "v2_inception_resnet_b_8_path1_7x1"
  type: "Convolution"
  bottom: "v2_inception_resnet_b_8_path1_1x7_bn"
  top: "v2_inception_resnet_b_8_path1_7x1"
  param {
    name: "lxx_label"
    lr_mult: 1.0
    decay_mult: 1.0
  }
  convolution_param {
    num_output: 192
    bias_term: false
    weight_filler {
      type: "xavier"
    }
    bias_filler {
      type: "constant"
      value: 0.0
    }
    pad_h: 6
    pad_w: 0
    kernel_h: 7
    kernel_w: 1
    dilation: 2
    stride_h: 1
    stride_w: 1
  }
}
layer {
  name: "v2_inception_resnet_b_8_path1_7x1_bn"
  type: "BN"
  bottom: "v2_inception_resnet_b_8_path1_7x1"
  top: "v2_inception_resnet_b_8_path1_7x1_bn"
  param {
    name: "lxx_label"
    lr_mult: 1.0
    decay_mult: 0.0
  }
  param {
    name: "lxx_label"
    lr_mult: 1.0
    decay_mult: 0.0
  }
  param {
    name: "lxx_label"
  }
  param {
    name: "lxx_label"
  }
  bn_param {
    frozen: true
    slope_filler {
      type: "constant"
      value: 1.0
    }
    bias_filler {
      type: "constant"
      value: 0.0
    }
  }
}
layer {
  name: "v2_inception_resnet_b_8_path1_7x1_relu"
  type: "ReLU"
  bottom: "v2_inception_resnet_b_8_path1_7x1_bn"
  top: "v2_inception_resnet_b_8_path1_7x1_bn"
}
layer {
  name: "v2_inception_resnet_b_8_path2_1x1"
  type: "Convolution"
  bottom: "v2_inception_resnet_b_7_elt"
  top: "v2_inception_resnet_b_8_path2_1x1"
  param {
    name: "lxx_label"
    lr_mult: 1.0
    decay_mult: 1.0
  }
  convolution_param {
    num_output: 192
    bias_term: false
    weight_filler {
      type: "xavier"
    }
    bias_filler {
      type: "constant"
      value: 0.0
    }
    pad_h: 0
    pad_w: 0
    kernel_h: 1
    kernel_w: 1
    stride_h: 1
    stride_w: 1
  }
}
layer {
  name: "v2_inception_resnet_b_8_path2_1x1_bn"
  type: "BN"
  bottom: "v2_inception_resnet_b_8_path2_1x1"
  top: "v2_inception_resnet_b_8_path2_1x1_bn"
  param {
    name: "lxx_label"
    lr_mult: 1.0
    decay_mult: 0.0
  }
  param {
    name: "lxx_label"
    lr_mult: 1.0
    decay_mult: 0.0
  }
  param {
    name: "lxx_label"
  }
  param {
    name: "lxx_label"
  }
  bn_param {
    frozen: true
    slope_filler {
      type: "constant"
      value: 1.0
    }
    bias_filler {
      type: "constant"
      value: 0.0
    }
  }
}
layer {
  name: "v2_inception_resnet_b_8_path2_1x1_relu"
  type: "ReLU"
  bottom: "v2_inception_resnet_b_8_path2_1x1_bn"
  top: "v2_inception_resnet_b_8_path2_1x1_bn"
}
layer {
  name: "v2_inception_resnet_b_8_concat"
  type: "Concat"
  bottom: "v2_inception_resnet_b_8_path1_7x1_bn"
  bottom: "v2_inception_resnet_b_8_path2_1x1_bn"
  top: "v2_inception_resnet_b_8_concat"
}
layer {
  name: "v2_inception_resnet_b_8_conv_1x1"
  type: "Convolution"
  bottom: "v2_inception_resnet_b_8_concat"
  top: "v2_inception_resnet_b_8_conv_1x1"
  param {
    name: "lxx_label"
    lr_mult: 1.0
    decay_mult: 1.0
  }
  convolution_param {
    num_output: 1152
    bias_term: false
    weight_filler {
      type: "xavier"
    }
    bias_filler {
      type: "constant"
      value: 0.0
    }
    pad_h: 0
    pad_w: 0
    kernel_h: 1
    kernel_w: 1
    stride_h: 1
    stride_w: 1
  }
}
layer {
  name: "v2_inception_resnet_b_8_conv_1x1_bn"
  type: "BN"
  bottom: "v2_inception_resnet_b_8_conv_1x1"
  top: "v2_inception_resnet_b_8_conv_1x1_bn"
  param {
    name: "lxx_label"
    lr_mult: 1.0
    decay_mult: 0.0
  }
  param {
    name: "lxx_label"
    lr_mult: 1.0
    decay_mult: 0.0
  }
  param {
    name: "lxx_label"
  }
  param {
    name: "lxx_label"
  }
  bn_param {
    frozen: true
    slope_filler {
      type: "constant"
      value: 1.0
    }
    bias_filler {
      type: "constant"
      value: 0.0
    }
  }
}
layer {
  name: "v2_inception_resnet_b_8_elt"
  type: "Eltwise"
  bottom: "v2_inception_resnet_b_7_elt"
  bottom: "v2_inception_resnet_b_8_conv_1x1_bn"
  top: "v2_inception_resnet_b_8_elt"
  eltwise_param {
    operation: SUM
    coeff: 1
    coeff: 0.3
  }
}
layer {
  name: "v2_inception_resnet_b_8_relu"
  type: "ReLU"
  bottom: "v2_inception_resnet_b_8_elt"
  top: "v2_inception_resnet_b_8_elt"
}
layer {
  name: "v2_inception_resnet_b_9_path1_1x1"
  type: "Convolution"
  bottom: "v2_inception_resnet_b_8_elt"
  top: "v2_inception_resnet_b_9_path1_1x1"
  param {
    name: "lxx_label"
    lr_mult: 1.0
    decay_mult: 1.0
  }
  convolution_param {
    num_output: 128
    bias_term: false
    weight_filler {
      type: "xavier"
    }
    bias_filler {
      type: "constant"
      value: 0.0
    }
    pad_h: 0
    pad_w: 0
    kernel_h: 1
    kernel_w: 1
    stride_h: 1
    stride_w: 1
  }
}
layer {
  name: "v2_inception_resnet_b_9_path1_1x1_bn"
  type: "BN"
  bottom: "v2_inception_resnet_b_9_path1_1x1"
  top: "v2_inception_resnet_b_9_path1_1x1_bn"
  param {
    name: "lxx_label"
    lr_mult: 1.0
    decay_mult: 0.0
  }
  param {
    name: "lxx_label"
    lr_mult: 1.0
    decay_mult: 0.0
  }
  param {
    name: "lxx_label"
  }
  param {
    name: "lxx_label"
  }
  bn_param {
    frozen: true
    slope_filler {
      type: "constant"
      value: 1.0
    }
    bias_filler {
      type: "constant"
      value: 0.0
    }
  }
}
layer {
  name: "v2_inception_resnet_b_9_path1_1x1_relu"
  type: "ReLU"
  bottom: "v2_inception_resnet_b_9_path1_1x1_bn"
  top: "v2_inception_resnet_b_9_path1_1x1_bn"
}
layer {
  name: "v2_inception_resnet_b_9_path1_1x7"
  type: "Convolution"
  bottom: "v2_inception_resnet_b_9_path1_1x1_bn"
  top: "v2_inception_resnet_b_9_path1_1x7"
  param {
    name: "lxx_label"
    lr_mult: 1.0
    decay_mult: 1.0
  }
  convolution_param {
    num_output: 160
    bias_term: false
    weight_filler {
      type: "xavier"
    }
    bias_filler {
      type: "constant"
      value: 0.0
    }
    pad_h: 0
    pad_w: 6
    kernel_h: 1
    kernel_w: 7
    dilation: 2
    stride_h: 1
    stride_w: 1
  }
}
layer {
  name: "v2_inception_resnet_b_9_path1_1x7_bn"
  type: "BN"
  bottom: "v2_inception_resnet_b_9_path1_1x7"
  top: "v2_inception_resnet_b_9_path1_1x7_bn"
  param {
    name: "lxx_label"
    lr_mult: 1.0
    decay_mult: 0.0
  }
  param {
    name: "lxx_label"
    lr_mult: 1.0
    decay_mult: 0.0
  }
  param {
    name: "lxx_label"
  }
  param {
    name: "lxx_label"
  }
  bn_param {
    frozen: true
    slope_filler {
      type: "constant"
      value: 1.0
    }
    bias_filler {
      type: "constant"
      value: 0.0
    }
  }
}
layer {
  name: "v2_inception_resnet_b_9_path1_1x7_relu"
  type: "ReLU"
  bottom: "v2_inception_resnet_b_9_path1_1x7_bn"
  top: "v2_inception_resnet_b_9_path1_1x7_bn"
}
layer {
  name: "v2_inception_resnet_b_9_path1_7x1"
  type: "Convolution"
  bottom: "v2_inception_resnet_b_9_path1_1x7_bn"
  top: "v2_inception_resnet_b_9_path1_7x1"
  param {
    name: "lxx_label"
    lr_mult: 1.0
    decay_mult: 1.0
  }
  convolution_param {
    num_output: 192
    bias_term: false
    weight_filler {
      type: "xavier"
    }
    bias_filler {
      type: "constant"
      value: 0.0
    }
    pad_h: 6
    pad_w: 0
    kernel_h: 7
    kernel_w: 1
    dilation: 2
    stride_h: 1
    stride_w: 1
  }
}
layer {
  name: "v2_inception_resnet_b_9_path1_7x1_bn"
  type: "BN"
  bottom: "v2_inception_resnet_b_9_path1_7x1"
  top: "v2_inception_resnet_b_9_path1_7x1_bn"
  param {
    name: "lxx_label"
    lr_mult: 1.0
    decay_mult: 0.0
  }
  param {
    name: "lxx_label"
    lr_mult: 1.0
    decay_mult: 0.0
  }
  param {
    name: "lxx_label"
  }
  param {
    name: "lxx_label"
  }
  bn_param {
    frozen: true
    slope_filler {
      type: "constant"
      value: 1.0
    }
    bias_filler {
      type: "constant"
      value: 0.0
    }
  }
}
layer {
  name: "v2_inception_resnet_b_9_path1_7x1_relu"
  type: "ReLU"
  bottom: "v2_inception_resnet_b_9_path1_7x1_bn"
  top: "v2_inception_resnet_b_9_path1_7x1_bn"
}
layer {
  name: "v2_inception_resnet_b_9_path2_1x1"
  type: "Convolution"
  bottom: "v2_inception_resnet_b_8_elt"
  top: "v2_inception_resnet_b_9_path2_1x1"
  param {
    name: "lxx_label"
    lr_mult: 1.0
    decay_mult: 1.0
  }
  convolution_param {
    num_output: 192
    bias_term: false
    weight_filler {
      type: "xavier"
    }
    bias_filler {
      type: "constant"
      value: 0.0
    }
    pad_h: 0
    pad_w: 0
    kernel_h: 1
    kernel_w: 1
    stride_h: 1
    stride_w: 1
  }
}
layer {
  name: "v2_inception_resnet_b_9_path2_1x1_bn"
  type: "BN"
  bottom: "v2_inception_resnet_b_9_path2_1x1"
  top: "v2_inception_resnet_b_9_path2_1x1_bn"
  param {
    name: "lxx_label"
    lr_mult: 1.0
    decay_mult: 0.0
  }
  param {
    name: "lxx_label"
    lr_mult: 1.0
    decay_mult: 0.0
  }
  param {
    name: "lxx_label"
  }
  param {
    name: "lxx_label"
  }
  bn_param {
    frozen: true
    slope_filler {
      type: "constant"
      value: 1.0
    }
    bias_filler {
      type: "constant"
      value: 0.0
    }
  }
}
layer {
  name: "v2_inception_resnet_b_9_path2_1x1_relu"
  type: "ReLU"
  bottom: "v2_inception_resnet_b_9_path2_1x1_bn"
  top: "v2_inception_resnet_b_9_path2_1x1_bn"
}
layer {
  name: "v2_inception_resnet_b_9_concat"
  type: "Concat"
  bottom: "v2_inception_resnet_b_9_path1_7x1_bn"
  bottom: "v2_inception_resnet_b_9_path2_1x1_bn"
  top: "v2_inception_resnet_b_9_concat"
}
layer {
  name: "v2_inception_resnet_b_9_conv_1x1"
  type: "Convolution"
  bottom: "v2_inception_resnet_b_9_concat"
  top: "v2_inception_resnet_b_9_conv_1x1"
  param {
    name: "lxx_label"
    lr_mult: 1.0
    decay_mult: 1.0
  }
  convolution_param {
    num_output: 1152
    bias_term: false
    weight_filler {
      type: "xavier"
    }
    bias_filler {
      type: "constant"
      value: 0.0
    }
    pad_h: 0
    pad_w: 0
    kernel_h: 1
    kernel_w: 1
    stride_h: 1
    stride_w: 1
  }
}
layer {
  name: "v2_inception_resnet_b_9_conv_1x1_bn"
  type: "BN"
  bottom: "v2_inception_resnet_b_9_conv_1x1"
  top: "v2_inception_resnet_b_9_conv_1x1_bn"
  param {
    name: "lxx_label"
    lr_mult: 1.0
    decay_mult: 0.0
  }
  param {
    name: "lxx_label"
    lr_mult: 1.0
    decay_mult: 0.0
  }
  param {
    name: "lxx_label"
  }
  param {
    name: "lxx_label"
  }
  bn_param {
    frozen: true
    slope_filler {
      type: "constant"
      value: 1.0
    }
    bias_filler {
      type: "constant"
      value: 0.0
    }
  }
}
layer {
  name: "v2_inception_resnet_b_9_elt"
  type: "Eltwise"
  bottom: "v2_inception_resnet_b_8_elt"
  bottom: "v2_inception_resnet_b_9_conv_1x1_bn"
  top: "v2_inception_resnet_b_9_elt"
  eltwise_param {
    operation: SUM
    coeff: 1
    coeff: 0.3
  }
}
layer {
  name: "v2_inception_resnet_b_9_relu"
  type: "ReLU"
  bottom: "v2_inception_resnet_b_9_elt"
  top: "v2_inception_resnet_b_9_elt"
}
layer {
  name: "v2_inception_resnet_b_10_path1_1x1"
  type: "Convolution"
  bottom: "v2_inception_resnet_b_9_elt"
  top: "v2_inception_resnet_b_10_path1_1x1"
  param {
    name: "lxx_label"
    lr_mult: 1.0
    decay_mult: 1.0
  }
  convolution_param {
    num_output: 128
    bias_term: false
    weight_filler {
      type: "xavier"
    }
    bias_filler {
      type: "constant"
      value: 0.0
    }
    pad_h: 0
    pad_w: 0
    kernel_h: 1
    kernel_w: 1
    stride_h: 1
    stride_w: 1
  }
}
layer {
  name: "v2_inception_resnet_b_10_path1_1x1_bn"
  type: "BN"
  bottom: "v2_inception_resnet_b_10_path1_1x1"
  top: "v2_inception_resnet_b_10_path1_1x1_bn"
  param {
    name: "lxx_label"
    lr_mult: 1.0
    decay_mult: 0.0
  }
  param {
    name: "lxx_label"
    lr_mult: 1.0
    decay_mult: 0.0
  }
  param {
    name: "lxx_label"
  }
  param {
    name: "lxx_label"
  }
  bn_param {
    frozen: true
    slope_filler {
      type: "constant"
      value: 1.0
    }
    bias_filler {
      type: "constant"
      value: 0.0
    }
  }
}
layer {
  name: "v2_inception_resnet_b_10_path1_1x1_relu"
  type: "ReLU"
  bottom: "v2_inception_resnet_b_10_path1_1x1_bn"
  top: "v2_inception_resnet_b_10_path1_1x1_bn"
}
layer {
  name: "v2_inception_resnet_b_10_path1_1x7"
  type: "Convolution"
  bottom: "v2_inception_resnet_b_10_path1_1x1_bn"
  top: "v2_inception_resnet_b_10_path1_1x7"
  param {
    name: "lxx_label"
    lr_mult: 1.0
    decay_mult: 1.0
  }
  convolution_param {
    num_output: 160
    bias_term: false
    weight_filler {
      type: "xavier"
    }
    bias_filler {
      type: "constant"
      value: 0.0
    }
    pad_h: 0
    pad_w: 6
    kernel_h: 1
    kernel_w: 7
    dilation: 2
    stride_h: 1
    stride_w: 1
  }
}
layer {
  name: "v2_inception_resnet_b_10_path1_1x7_bn"
  type: "BN"
  bottom: "v2_inception_resnet_b_10_path1_1x7"
  top: "v2_inception_resnet_b_10_path1_1x7_bn"
  param {
    name: "lxx_label"
    lr_mult: 1.0
    decay_mult: 0.0
  }
  param {
    name: "lxx_label"
    lr_mult: 1.0
    decay_mult: 0.0
  }
  param {
    name: "lxx_label"
  }
  param {
    name: "lxx_label"
  }
  bn_param {
    frozen: true
    slope_filler {
      type: "constant"
      value: 1.0
    }
    bias_filler {
      type: "constant"
      value: 0.0
    }
  }
}
layer {
  name: "v2_inception_resnet_b_10_path1_1x7_relu"
  type: "ReLU"
  bottom: "v2_inception_resnet_b_10_path1_1x7_bn"
  top: "v2_inception_resnet_b_10_path1_1x7_bn"
}
layer {
  name: "v2_inception_resnet_b_10_path1_7x1"
  type: "Convolution"
  bottom: "v2_inception_resnet_b_10_path1_1x7_bn"
  top: "v2_inception_resnet_b_10_path1_7x1"
  param {
    name: "lxx_label"
    lr_mult: 1.0
    decay_mult: 1.0
  }
  convolution_param {
    num_output: 192
    bias_term: false
    weight_filler {
      type: "xavier"
    }
    bias_filler {
      type: "constant"
      value: 0.0
    }
    pad_h: 6
    pad_w: 0
    kernel_h: 7
    kernel_w: 1
    dilation: 2
    stride_h: 1
    stride_w: 1
  }
}
layer {
  name: "v2_inception_resnet_b_10_path1_7x1_bn"
  type: "BN"
  bottom: "v2_inception_resnet_b_10_path1_7x1"
  top: "v2_inception_resnet_b_10_path1_7x1_bn"
  param {
    name: "lxx_label"
    lr_mult: 1.0
    decay_mult: 0.0
  }
  param {
    name: "lxx_label"
    lr_mult: 1.0
    decay_mult: 0.0
  }
  param {
    name: "lxx_label"
  }
  param {
    name: "lxx_label"
  }
  bn_param {
    frozen: true
    slope_filler {
      type: "constant"
      value: 1.0
    }
    bias_filler {
      type: "constant"
      value: 0.0
    }
  }
}
layer {
  name: "v2_inception_resnet_b_10_path1_7x1_relu"
  type: "ReLU"
  bottom: "v2_inception_resnet_b_10_path1_7x1_bn"
  top: "v2_inception_resnet_b_10_path1_7x1_bn"
}
layer {
  name: "v2_inception_resnet_b_10_path2_1x1"
  type: "Convolution"
  bottom: "v2_inception_resnet_b_9_elt"
  top: "v2_inception_resnet_b_10_path2_1x1"
  param {
    name: "lxx_label"
    lr_mult: 1.0
    decay_mult: 1.0
  }
  convolution_param {
    num_output: 192
    bias_term: false
    weight_filler {
      type: "xavier"
    }
    bias_filler {
      type: "constant"
      value: 0.0
    }
    pad_h: 0
    pad_w: 0
    kernel_h: 1
    kernel_w: 1
    stride_h: 1
    stride_w: 1
  }
}
layer {
  name: "v2_inception_resnet_b_10_path2_1x1_bn"
  type: "BN"
  bottom: "v2_inception_resnet_b_10_path2_1x1"
  top: "v2_inception_resnet_b_10_path2_1x1_bn"
  param {
    name: "lxx_label"
    lr_mult: 1.0
    decay_mult: 0.0
  }
  param {
    name: "lxx_label"
    lr_mult: 1.0
    decay_mult: 0.0
  }
  param {
    name: "lxx_label"
  }
  param {
    name: "lxx_label"
  }
  bn_param {
    frozen: true
    slope_filler {
      type: "constant"
      value: 1.0
    }
    bias_filler {
      type: "constant"
      value: 0.0
    }
  }
}
layer {
  name: "v2_inception_resnet_b_10_path2_1x1_relu"
  type: "ReLU"
  bottom: "v2_inception_resnet_b_10_path2_1x1_bn"
  top: "v2_inception_resnet_b_10_path2_1x1_bn"
}
layer {
  name: "v2_inception_resnet_b_10_concat"
  type: "Concat"
  bottom: "v2_inception_resnet_b_10_path1_7x1_bn"
  bottom: "v2_inception_resnet_b_10_path2_1x1_bn"
  top: "v2_inception_resnet_b_10_concat"
}
layer {
  name: "v2_inception_resnet_b_10_conv_1x1"
  type: "Convolution"
  bottom: "v2_inception_resnet_b_10_concat"
  top: "v2_inception_resnet_b_10_conv_1x1"
  param {
    name: "lxx_label"
    lr_mult: 1.0
    decay_mult: 1.0
  }
  convolution_param {
    num_output: 1152
    bias_term: false
    weight_filler {
      type: "xavier"
    }
    bias_filler {
      type: "constant"
      value: 0.0
    }
    pad_h: 0
    pad_w: 0
    kernel_h: 1
    kernel_w: 1
    stride_h: 1
    stride_w: 1
  }
}
layer {
  name: "v2_inception_resnet_b_10_conv_1x1_bn"
  type: "BN"
  bottom: "v2_inception_resnet_b_10_conv_1x1"
  top: "v2_inception_resnet_b_10_conv_1x1_bn"
  param {
    name: "lxx_label"
    lr_mult: 1.0
    decay_mult: 0.0
  }
  param {
    name: "lxx_label"
    lr_mult: 1.0
    decay_mult: 0.0
  }
  param {
    name: "lxx_label"
  }
  param {
    name: "lxx_label"
  }
  bn_param {
    frozen: true
    slope_filler {
      type: "constant"
      value: 1.0
    }
    bias_filler {
      type: "constant"
      value: 0.0
    }
  }
}
layer {
  name: "v2_inception_resnet_b_10_elt"
  type: "Eltwise"
  bottom: "v2_inception_resnet_b_9_elt"
  bottom: "v2_inception_resnet_b_10_conv_1x1_bn"
  top: "v2_inception_resnet_b_10_elt"
  eltwise_param {
    operation: SUM
    coeff: 1
    coeff: 0.3
  }
}
layer {
  name: "v2_inception_resnet_b_10_relu"
  type: "ReLU"
  bottom: "v2_inception_resnet_b_10_elt"
  top: "v2_inception_resnet_b_10_elt"
}
layer {
  name: "v2_reduction_b_path1_1x1"
  type: "Convolution"
  bottom: "v2_inception_resnet_b_10_elt"
  top: "v2_reduction_b_path1_1x1"
  param {
    name: "lxx_label"
    lr_mult: 1.0
    decay_mult: 1.0
  }
  convolution_param {
    num_output: 256
    bias_term: false
    weight_filler {
      type: "xavier"
    }
    bias_filler {
      type: "constant"
      value: 0.0
    }
    pad_h: 0
    pad_w: 0
    kernel_h: 1
    kernel_w: 1
    stride_h: 1
    stride_w: 1
  }
}
layer {
  name: "v2_reduction_b_path1_1x1_bn"
  type: "BN"
  bottom: "v2_reduction_b_path1_1x1"
  top: "v2_reduction_b_path1_1x1_bn"
  param {
    name: "lxx_label"
    lr_mult: 1.0
    decay_mult: 0.0
  }
  param {
    name: "lxx_label"
    lr_mult: 1.0
    decay_mult: 0.0
  }
  param {
    name: "lxx_label"
  }
  param {
    name: "lxx_label"
  }
  bn_param {
    frozen: true
    slope_filler {
      type: "constant"
      value: 1.0
    }
    bias_filler {
      type: "constant"
      value: 0.0
    }
  }
}
layer {
  name: "v2_reduction_b_path1_1x1_relu"
  type: "ReLU"
  bottom: "v2_reduction_b_path1_1x1_bn"
  top: "v2_reduction_b_path1_1x1_bn"
}
layer {
  name: "v2_reduction_b_path1_3x3_1"
  type: "Convolution"
  bottom: "v2_reduction_b_path1_1x1_bn"
  top: "v2_reduction_b_path1_3x3_1"
  param {
    name: "lxx_label"
    lr_mult: 1.0
    decay_mult: 1.0
  }
  convolution_param {
    num_output: 256
    bias_term: false
    weight_filler {
      type: "xavier"
    }
    bias_filler {
      type: "constant"
      value: 0.0
    }
    pad_h: 2
    pad_w: 2
    kernel_h: 3
    kernel_w: 3
    dilation: 2
    stride_h: 1
    stride_w: 1
  }
}
layer {
  name: "v2_reduction_b_path1_3x3_1_bn"
  type: "BN"
  bottom: "v2_reduction_b_path1_3x3_1"
  top: "v2_reduction_b_path1_3x3_1_bn"
  param {
    name: "lxx_label"
    lr_mult: 1.0
    decay_mult: 0.0
  }
  param {
    name: "lxx_label"
    lr_mult: 1.0
    decay_mult: 0.0
  }
  param {
    name: "lxx_label"
  }
  param {
    name: "lxx_label"
  }
  bn_param {
    frozen: true
    slope_filler {
      type: "constant"
      value: 1.0
    }
    bias_filler {
      type: "constant"
      value: 0.0
    }
  }
}
layer {
  name: "v2_reduction_b_path1_3x3_1_relu"
  type: "ReLU"
  bottom: "v2_reduction_b_path1_3x3_1_bn"
  top: "v2_reduction_b_path1_3x3_1_bn"
}
layer {
  name: "v2_reduction_b_path1_3x3_2"
  type: "Convolution"
  bottom: "v2_reduction_b_path1_3x3_1_bn"
  top: "v2_reduction_b_path1_3x3_2"
  param {
    name: "lxx_label"
    lr_mult: 1.0
    decay_mult: 1.0
  }
  convolution_param {
    num_output: 256
    bias_term: false
    weight_filler {
      type: "xavier"
    }
    bias_filler {
      type: "constant"
      value: 0.0
    }
    pad_h: 2
    pad_w: 2
    kernel_h: 3
    kernel_w: 3
    dilation: 2
    stride_h: 1
    stride_w: 1
  }
}
layer {
  name: "v2_reduction_b_path1_3x3_2_bn"
  type: "BN"
  bottom: "v2_reduction_b_path1_3x3_2"
  top: "v2_reduction_b_path1_3x3_2_bn"
  param {
    name: "lxx_label"
    lr_mult: 1.0
    decay_mult: 0.0
  }
  param {
    name: "lxx_label"
    lr_mult: 1.0
    decay_mult: 0.0
  }
  param {
    name: "lxx_label"
  }
  param {
    name: "lxx_label"
  }
  bn_param {
    frozen: true
    slope_filler {
      type: "constant"
      value: 1.0
    }
    bias_filler {
      type: "constant"
      value: 0.0
    }
  }
}
layer {
  name: "v2_reduction_b_path1_3x3_2_relu"
  type: "ReLU"
  bottom: "v2_reduction_b_path1_3x3_2_bn"
  top: "v2_reduction_b_path1_3x3_2_bn"
}
layer {
  name: "v2_reduction_b_path2_1x1"
  type: "Convolution"
  bottom: "v2_inception_resnet_b_10_elt"
  top: "v2_reduction_b_path2_1x1"
  param {
    name: "lxx_label"
    lr_mult: 1.0
    decay_mult: 1.0
  }
  convolution_param {
    num_output: 256
    bias_term: false
    weight_filler {
      type: "xavier"
    }
    bias_filler {
      type: "constant"
      value: 0.0
    }
    pad_h: 0
    pad_w: 0
    kernel_h: 1
    kernel_w: 1
    stride_h: 1
    stride_w: 1
  }
}
layer {
  name: "v2_reduction_b_path2_1x1_bn"
  type: "BN"
  bottom: "v2_reduction_b_path2_1x1"
  top: "v2_reduction_b_path2_1x1_bn"
  param {
    name: "lxx_label"
    lr_mult: 1.0
    decay_mult: 0.0
  }
  param {
    name: "lxx_label"
    lr_mult: 1.0
    decay_mult: 0.0
  }
  param {
    name: "lxx_label"
  }
  param {
    name: "lxx_label"
  }
  bn_param {
    frozen: true
    slope_filler {
      type: "constant"
      value: 1.0
    }
    bias_filler {
      type: "constant"
      value: 0.0
    }
  }
}
layer {
  name: "v2_reduction_b_path2_1x1_relu"
  type: "ReLU"
  bottom: "v2_reduction_b_path2_1x1_bn"
  top: "v2_reduction_b_path2_1x1_bn"
}
layer {
  name: "v2_reduction_b_path2_3x3"
  type: "Convolution"
  bottom: "v2_reduction_b_path2_1x1_bn"
  top: "v2_reduction_b_path2_3x3"
  param {
    name: "lxx_label"
    lr_mult: 1.0
    decay_mult: 1.0
  }
  convolution_param {
    num_output: 256
    bias_term: false
    weight_filler {
      type: "xavier"
    }
    bias_filler {
      type: "constant"
      value: 0.0
    }
    pad_h: 2
    pad_w: 2
    kernel_h: 3
    kernel_w: 3
    dilation: 2
    stride_h: 1
    stride_w: 1
  }
}
layer {
  name: "v2_reduction_b_path2_3x3_bn"
  type: "BN"
  bottom: "v2_reduction_b_path2_3x3"
  top: "v2_reduction_b_path2_3x3_bn"
  param {
    name: "lxx_label"
    lr_mult: 1.0
    decay_mult: 0.0
  }
  param {
    name: "lxx_label"
    lr_mult: 1.0
    decay_mult: 0.0
  }
  param {
    name: "lxx_label"
  }
  param {
    name: "lxx_label"
  }
  bn_param {
    frozen: true
    slope_filler {
      type: "constant"
      value: 1.0
    }
    bias_filler {
      type: "constant"
      value: 0.0
    }
  }
}
layer {
  name: "v2_reduction_b_path2_3x3_relu"
  type: "ReLU"
  bottom: "v2_reduction_b_path2_3x3_bn"
  top: "v2_reduction_b_path2_3x3_bn"
}
layer {
  name: "v2_reduction_b_path3_1x1"
  type: "Convolution"
  bottom: "v2_inception_resnet_b_10_elt"
  top: "v2_reduction_b_path3_1x1"
  param {
    name: "lxx_label"
    lr_mult: 1.0
    decay_mult: 1.0
  }
  convolution_param {
    num_output: 256
    bias_term: false
    weight_filler {
      type: "xavier"
    }
    bias_filler {
      type: "constant"
      value: 0.0
    }
    pad_h: 0
    pad_w: 0
    kernel_h: 1
    kernel_w: 1
    stride_h: 1
    stride_w: 1
  }
}
layer {
  name: "v2_reduction_b_path3_1x1_bn"
  type: "BN"
  bottom: "v2_reduction_b_path3_1x1"
  top: "v2_reduction_b_path3_1x1_bn"
  param {
    name: "lxx_label"
    lr_mult: 1.0
    decay_mult: 0.0
  }
  param {
    name: "lxx_label"
    lr_mult: 1.0
    decay_mult: 0.0
  }
  param {
    name: "lxx_label"
  }
  param {
    name: "lxx_label"
  }
  bn_param {
    frozen: true
    slope_filler {
      type: "constant"
      value: 1.0
    }
    bias_filler {
      type: "constant"
      value: 0.0
    }
  }
}
layer {
  name: "v2_reduction_b_path3_1x1_relu"
  type: "ReLU"
  bottom: "v2_reduction_b_path3_1x1_bn"
  top: "v2_reduction_b_path3_1x1_bn"
}
layer {
  name: "v2_reduction_b_path3_3x3"
  type: "Convolution"
  bottom: "v2_reduction_b_path3_1x1_bn"
  top: "v2_reduction_b_path3_3x3"
  param {
    name: "lxx_label"
    lr_mult: 1.0
    decay_mult: 1.0
  }
  convolution_param {
    num_output: 384
    bias_term: false
    weight_filler {
      type: "xavier"
    }
    bias_filler {
      type: "constant"
      value: 0.0
    }
    pad_h: 2
    pad_w: 2
    kernel_h: 3
    kernel_w: 3
    dilation: 2
    stride_h: 1
    stride_w: 1
  }
}
layer {
  name: "v2_reduction_b_path3_3x3_bn"
  type: "BN"
  bottom: "v2_reduction_b_path3_3x3"
  top: "v2_reduction_b_path3_3x3_bn"
  param {
    name: "lxx_label"
    lr_mult: 1.0
    decay_mult: 0.0
  }
  param {
    name: "lxx_label"
    lr_mult: 1.0
    decay_mult: 0.0
  }
  param {
    name: "lxx_label"
  }
  param {
    name: "lxx_label"
  }
  bn_param {
    frozen: true
    slope_filler {
      type: "constant"
      value: 1.0
    }
    bias_filler {
      type: "constant"
      value: 0.0
    }
  }
}
layer {
  name: "v2_reduction_b_path3_3x3_relu"
  type: "ReLU"
  bottom: "v2_reduction_b_path3_3x3_bn"
  top: "v2_reduction_b_path3_3x3_bn"
}
layer {
  name: "v2_reduction_b_path4_max"
  type: "Pooling"
  bottom: "v2_inception_resnet_b_10_elt"
  top: "v2_reduction_b_path4_max"
  pooling_param {
    pool: MAX
    kernel_h: 1
    kernel_w: 1
    stride_h: 1
    stride_w: 1
    pad_h: 0
    pad_w: 0
  }
}
layer {
  name: "v2_reduction_b_concat"
  type: "Concat"
  bottom: "v2_reduction_b_path1_3x3_2_bn"
  bottom: "v2_reduction_b_path2_3x3_bn"
  bottom: "v2_reduction_b_path3_3x3_bn"
  bottom: "v2_reduction_b_path4_max"
  top: "v2_reduction_b_concat"
}
layer {
  name: "v2_inception_resnet_c_1_path1_1x1"
  type: "Convolution"
  bottom: "v2_reduction_b_concat"
  top: "v2_inception_resnet_c_1_path1_1x1"
  param {
    name: "lxx_label"
    lr_mult: 1.0
    decay_mult: 1.0
  }
  convolution_param {
    num_output: 192
    bias_term: false
    weight_filler {
      type: "xavier"
    }
    bias_filler {
      type: "constant"
      value: 0.0
    }
    pad_h: 0
    pad_w: 0
    kernel_h: 1
    kernel_w: 1
    stride_h: 1
    stride_w: 1
  }
}
layer {
  name: "v2_inception_resnet_c_1_path1_1x1_bn"
  type: "BN"
  bottom: "v2_inception_resnet_c_1_path1_1x1"
  top: "v2_inception_resnet_c_1_path1_1x1_bn"
  param {
    name: "lxx_label"
    lr_mult: 1.0
    decay_mult: 0.0
  }
  param {
    name: "lxx_label"
    lr_mult: 1.0
    decay_mult: 0.0
  }
  param {
    name: "lxx_label"
  }
  param {
    name: "lxx_label"
  }
  bn_param {
    frozen: true
    slope_filler {
      type: "constant"
      value: 1.0
    }
    bias_filler {
      type: "constant"
      value: 0.0
    }
  }
}
layer {
  name: "v2_inception_resnet_c_1_path1_1x1_relu"
  type: "ReLU"
  bottom: "v2_inception_resnet_c_1_path1_1x1_bn"
  top: "v2_inception_resnet_c_1_path1_1x1_bn"
}
layer {
  name: "v2_inception_resnet_c_1_path1_1x3"
  type: "Convolution"
  bottom: "v2_inception_resnet_c_1_path1_1x1_bn"
  top: "v2_inception_resnet_c_1_path1_1x3"
  param {
    name: "lxx_label"
    lr_mult: 1.0
    decay_mult: 1.0
  }
  convolution_param {
    num_output: 224
    bias_term: false
    weight_filler {
      type: "xavier"
    }
    bias_filler {
      type: "constant"
      value: 0.0
    }
    pad_h: 0
    pad_w: 4
    kernel_h: 1
    kernel_w: 3
    dilation: 4
    stride_h: 1
    stride_w: 1
  }
}
layer {
  name: "v2_inception_resnet_c_1_path1_1x3_bn"
  type: "BN"
  bottom: "v2_inception_resnet_c_1_path1_1x3"
  top: "v2_inception_resnet_c_1_path1_1x3_bn"
  param {
    name: "lxx_label"
    lr_mult: 1.0
    decay_mult: 0.0
  }
  param {
    name: "lxx_label"
    lr_mult: 1.0
    decay_mult: 0.0
  }
  param {
    name: "lxx_label"
  }
  param {
    name: "lxx_label"
  }
  bn_param {
    frozen: true
    slope_filler {
      type: "constant"
      value: 1.0
    }
    bias_filler {
      type: "constant"
      value: 0.0
    }
  }
}
layer {
  name: "v2_inception_resnet_c_1_path1_1x3_relu"
  type: "ReLU"
  bottom: "v2_inception_resnet_c_1_path1_1x3_bn"
  top: "v2_inception_resnet_c_1_path1_1x3_bn"
}
layer {
  name: "v2_inception_resnet_c_1_path1_3x1"
  type: "Convolution"
  bottom: "v2_inception_resnet_c_1_path1_1x3_bn"
  top: "v2_inception_resnet_c_1_path1_3x1"
  param {
    name: "lxx_label"
    lr_mult: 1.0
    decay_mult: 1.0
  }
  convolution_param {
    num_output: 256
    bias_term: false
    weight_filler {
      type: "xavier"
    }
    bias_filler {
      type: "constant"
      value: 0.0
    }
    pad_h: 4
    pad_w: 0
    kernel_h: 3
    kernel_w: 1
    dilation: 4
    stride_h: 1
    stride_w: 1
  }
}
layer {
  name: "v2_inception_resnet_c_1_path1_3x1_bn"
  type: "BN"
  bottom: "v2_inception_resnet_c_1_path1_3x1"
  top: "v2_inception_resnet_c_1_path1_3x1_bn"
  param {
    name: "lxx_label"
    lr_mult: 1.0
    decay_mult: 0.0
  }
  param {
    name: "lxx_label"
    lr_mult: 1.0
    decay_mult: 0.0
  }
  param {
    name: "lxx_label"
  }
  param {
    name: "lxx_label"
  }
  bn_param {
    frozen: true
    slope_filler {
      type: "constant"
      value: 1.0
    }
    bias_filler {
      type: "constant"
      value: 0.0
    }
  }
}
layer {
  name: "v2_inception_resnet_c_1_path1_3x1_relu"
  type: "ReLU"
  bottom: "v2_inception_resnet_c_1_path1_3x1_bn"
  top: "v2_inception_resnet_c_1_path1_3x1_bn"
}
layer {
  name: "v2_inception_resnet_c_1_path2_1x1"
  type: "Convolution"
  bottom: "v2_reduction_b_concat"
  top: "v2_inception_resnet_c_1_path2_1x1"
  param {
    name: "lxx_label"
    lr_mult: 1.0
    decay_mult: 1.0
  }
  convolution_param {
    num_output: 192
    bias_term: false
    weight_filler {
      type: "xavier"
    }
    bias_filler {
      type: "constant"
      value: 0.0
    }
    pad_h: 0
    pad_w: 0
    kernel_h: 1
    kernel_w: 1
    stride_h: 1
    stride_w: 1
  }
}
layer {
  name: "v2_inception_resnet_c_1_path2_1x1_bn"
  type: "BN"
  bottom: "v2_inception_resnet_c_1_path2_1x1"
  top: "v2_inception_resnet_c_1_path2_1x1_bn"
  param {
    name: "lxx_label"
    lr_mult: 1.0
    decay_mult: 0.0
  }
  param {
    name: "lxx_label"
    lr_mult: 1.0
    decay_mult: 0.0
  }
  param {
    name: "lxx_label"
  }
  param {
    name: "lxx_label"
  }
  bn_param {
    frozen: true
    slope_filler {
      type: "constant"
      value: 1.0
    }
    bias_filler {
      type: "constant"
      value: 0.0
    }
  }
}
layer {
  name: "v2_inception_resnet_c_1_path2_1x1_relu"
  type: "ReLU"
  bottom: "v2_inception_resnet_c_1_path2_1x1_bn"
  top: "v2_inception_resnet_c_1_path2_1x1_bn"
}
layer {
  name: "v2_inception_resnet_c_1_concat"
  type: "Concat"
  bottom: "v2_inception_resnet_c_1_path1_3x1_bn"
  bottom: "v2_inception_resnet_c_1_path2_1x1_bn"
  top: "v2_inception_resnet_c_1_concat"
}
layer {
  name: "v2_inception_resnet_c_1_conv_1x1"
  type: "Convolution"
  bottom: "v2_inception_resnet_c_1_concat"
  top: "v2_inception_resnet_c_1_conv_1x1"
  param {
    name: "lxx_label"
    lr_mult: 1.0
    decay_mult: 1.0
  }
  convolution_param {
    num_output: 2048
    bias_term: false
    weight_filler {
      type: "xavier"
    }
    bias_filler {
      type: "constant"
      value: 0.0
    }
    pad_h: 0
    pad_w: 0
    kernel_h: 1
    kernel_w: 1
    stride_h: 1
    stride_w: 1
  }
}
layer {
  name: "v2_inception_resnet_c_1_conv_1x1_bn"
  type: "BN"
  bottom: "v2_inception_resnet_c_1_conv_1x1"
  top: "v2_inception_resnet_c_1_conv_1x1_bn"
  param {
    name: "lxx_label"
    lr_mult: 1.0
    decay_mult: 0.0
  }
  param {
    name: "lxx_label"
    lr_mult: 1.0
    decay_mult: 0.0
  }
  param {
    name: "lxx_label"
  }
  param {
    name: "lxx_label"
  }
  bn_param {
    frozen: true
    slope_filler {
      type: "constant"
      value: 1.0
    }
    bias_filler {
      type: "constant"
      value: 0.0
    }
  }
}
layer {
  name: "v2_inception_resnet_c_1_elt"
  type: "Eltwise"
  bottom: "v2_reduction_b_concat"
  bottom: "v2_inception_resnet_c_1_conv_1x1_bn"
  top: "v2_inception_resnet_c_1_elt"
  eltwise_param {
    operation: SUM
    coeff: 1
    coeff: 0.3
  }
}
layer {
  name: "v2_inception_resnet_c_1_relu"
  type: "ReLU"
  bottom: "v2_inception_resnet_c_1_elt"
  top: "v2_inception_resnet_c_1_elt"
}
layer {
  name: "v2_inception_resnet_c_2_path1_1x1"
  type: "Convolution"
  bottom: "v2_inception_resnet_c_1_elt"
  top: "v2_inception_resnet_c_2_path1_1x1"
  param {
    name: "lxx_label"
    lr_mult: 1.0
    decay_mult: 1.0
  }
  convolution_param {
    num_output: 192
    bias_term: false
    weight_filler {
      type: "xavier"
    }
    bias_filler {
      type: "constant"
      value: 0.0
    }
    pad_h: 0
    pad_w: 0
    kernel_h: 1
    kernel_w: 1
    stride_h: 1
    stride_w: 1
  }
}
layer {
  name: "v2_inception_resnet_c_2_path1_1x1_bn"
  type: "BN"
  bottom: "v2_inception_resnet_c_2_path1_1x1"
  top: "v2_inception_resnet_c_2_path1_1x1_bn"
  param {
    name: "lxx_label"
    lr_mult: 1.0
    decay_mult: 0.0
  }
  param {
    name: "lxx_label"
    lr_mult: 1.0
    decay_mult: 0.0
  }
  param {
    name: "lxx_label"
  }
  param {
    name: "lxx_label"
  }
  bn_param {
    frozen: true
    slope_filler {
      type: "constant"
      value: 1.0
    }
    bias_filler {
      type: "constant"
      value: 0.0
    }
  }
}
layer {
  name: "v2_inception_resnet_c_2_path1_1x1_relu"
  type: "ReLU"
  bottom: "v2_inception_resnet_c_2_path1_1x1_bn"
  top: "v2_inception_resnet_c_2_path1_1x1_bn"
}
layer {
  name: "v2_inception_resnet_c_2_path1_1x3"
  type: "Convolution"
  bottom: "v2_inception_resnet_c_2_path1_1x1_bn"
  top: "v2_inception_resnet_c_2_path1_1x3"
  param {
    name: "lxx_label"
    lr_mult: 1.0
    decay_mult: 1.0
  }
  convolution_param {
    num_output: 224
    bias_term: false
    weight_filler {
      type: "xavier"
    }
    bias_filler {
      type: "constant"
      value: 0.0
    }
    pad_h: 0
    pad_w: 4
    kernel_h: 1
    kernel_w: 3
    dilation: 4
    stride_h: 1
    stride_w: 1
  }
}
layer {
  name: "v2_inception_resnet_c_2_path1_1x3_bn"
  type: "BN"
  bottom: "v2_inception_resnet_c_2_path1_1x3"
  top: "v2_inception_resnet_c_2_path1_1x3_bn"
  param {
    name: "lxx_label"
    lr_mult: 1.0
    decay_mult: 0.0
  }
  param {
    name: "lxx_label"
    lr_mult: 1.0
    decay_mult: 0.0
  }
  param {
    name: "lxx_label"
  }
  param {
    name: "lxx_label"
  }
  bn_param {
    frozen: true
    slope_filler {
      type: "constant"
      value: 1.0
    }
    bias_filler {
      type: "constant"
      value: 0.0
    }
  }
}
layer {
  name: "v2_inception_resnet_c_2_path1_1x3_relu"
  type: "ReLU"
  bottom: "v2_inception_resnet_c_2_path1_1x3_bn"
  top: "v2_inception_resnet_c_2_path1_1x3_bn"
}
layer {
  name: "v2_inception_resnet_c_2_path1_3x1"
  type: "Convolution"
  bottom: "v2_inception_resnet_c_2_path1_1x3_bn"
  top: "v2_inception_resnet_c_2_path1_3x1"
  param {
    name: "lxx_label"
    lr_mult: 1.0
    decay_mult: 1.0
  }
  convolution_param {
    num_output: 256
    bias_term: false
    weight_filler {
      type: "xavier"
    }
    bias_filler {
      type: "constant"
      value: 0.0
    }
    pad_h: 4
    pad_w: 0
    kernel_h: 3
    kernel_w: 1
    dilation: 4
    stride_h: 1
    stride_w: 1
  }
}
layer {
  name: "v2_inception_resnet_c_2_path1_3x1_bn"
  type: "BN"
  bottom: "v2_inception_resnet_c_2_path1_3x1"
  top: "v2_inception_resnet_c_2_path1_3x1_bn"
  param {
    name: "lxx_label"
    lr_mult: 1.0
    decay_mult: 0.0
  }
  param {
    name: "lxx_label"
    lr_mult: 1.0
    decay_mult: 0.0
  }
  param {
    name: "lxx_label"
  }
  param {
    name: "lxx_label"
  }
  bn_param {
    frozen: true
    slope_filler {
      type: "constant"
      value: 1.0
    }
    bias_filler {
      type: "constant"
      value: 0.0
    }
  }
}
layer {
  name: "v2_inception_resnet_c_2_path1_3x1_relu"
  type: "ReLU"
  bottom: "v2_inception_resnet_c_2_path1_3x1_bn"
  top: "v2_inception_resnet_c_2_path1_3x1_bn"
}
layer {
  name: "v2_inception_resnet_c_2_path2_1x1"
  type: "Convolution"
  bottom: "v2_inception_resnet_c_1_elt"
  top: "v2_inception_resnet_c_2_path2_1x1"
  param {
    name: "lxx_label"
    lr_mult: 1.0
    decay_mult: 1.0
  }
  convolution_param {
    num_output: 192
    bias_term: false
    weight_filler {
      type: "xavier"
    }
    bias_filler {
      type: "constant"
      value: 0.0
    }
    pad_h: 0
    pad_w: 0
    kernel_h: 1
    kernel_w: 1
    stride_h: 1
    stride_w: 1
  }
}
layer {
  name: "v2_inception_resnet_c_2_path2_1x1_bn"
  type: "BN"
  bottom: "v2_inception_resnet_c_2_path2_1x1"
  top: "v2_inception_resnet_c_2_path2_1x1_bn"
  param {
    name: "lxx_label"
    lr_mult: 1.0
    decay_mult: 0.0
  }
  param {
    name: "lxx_label"
    lr_mult: 1.0
    decay_mult: 0.0
  }
  param {
    name: "lxx_label"
  }
  param {
    name: "lxx_label"
  }
  bn_param {
    frozen: true
    slope_filler {
      type: "constant"
      value: 1.0
    }
    bias_filler {
      type: "constant"
      value: 0.0
    }
  }
}
layer {
  name: "v2_inception_resnet_c_2_path2_1x1_relu"
  type: "ReLU"
  bottom: "v2_inception_resnet_c_2_path2_1x1_bn"
  top: "v2_inception_resnet_c_2_path2_1x1_bn"
}
layer {
  name: "v2_inception_resnet_c_2_concat"
  type: "Concat"
  bottom: "v2_inception_resnet_c_2_path1_3x1_bn"
  bottom: "v2_inception_resnet_c_2_path2_1x1_bn"
  top: "v2_inception_resnet_c_2_concat"
}
layer {
  name: "v2_inception_resnet_c_2_conv_1x1"
  type: "Convolution"
  bottom: "v2_inception_resnet_c_2_concat"
  top: "v2_inception_resnet_c_2_conv_1x1"
  param {
    name: "lxx_label"
    lr_mult: 1.0
    decay_mult: 1.0
  }
  convolution_param {
    num_output: 2048
    bias_term: false
    weight_filler {
      type: "xavier"
    }
    bias_filler {
      type: "constant"
      value: 0.0
    }
    pad_h: 0
    pad_w: 0
    kernel_h: 1
    kernel_w: 1
    stride_h: 1
    stride_w: 1
  }
}
layer {
  name: "v2_inception_resnet_c_2_conv_1x1_bn"
  type: "BN"
  bottom: "v2_inception_resnet_c_2_conv_1x1"
  top: "v2_inception_resnet_c_2_conv_1x1_bn"
  param {
    name: "lxx_label"
    lr_mult: 1.0
    decay_mult: 0.0
  }
  param {
    name: "lxx_label"
    lr_mult: 1.0
    decay_mult: 0.0
  }
  param {
    name: "lxx_label"
  }
  param {
    name: "lxx_label"
  }
  bn_param {
    frozen: true
    slope_filler {
      type: "constant"
      value: 1.0
    }
    bias_filler {
      type: "constant"
      value: 0.0
    }
  }
}
layer {
  name: "v2_inception_resnet_c_2_elt"
  type: "Eltwise"
  bottom: "v2_inception_resnet_c_1_elt"
  bottom: "v2_inception_resnet_c_2_conv_1x1_bn"
  top: "v2_inception_resnet_c_2_elt"
  eltwise_param {
    operation: SUM
    coeff: 1
    coeff: 0.3
  }
}
layer {
  name: "v2_inception_resnet_c_2_relu"
  type: "ReLU"
  bottom: "v2_inception_resnet_c_2_elt"
  top: "v2_inception_resnet_c_2_elt"
}
layer {
  name: "v2_inception_resnet_c_3_path1_1x1"
  type: "Convolution"
  bottom: "v2_inception_resnet_c_2_elt"
  top: "v2_inception_resnet_c_3_path1_1x1"
  param {
    name: "lxx_label"
    lr_mult: 1.0
    decay_mult: 1.0
  }
  convolution_param {
    num_output: 192
    bias_term: false
    weight_filler {
      type: "xavier"
    }
    bias_filler {
      type: "constant"
      value: 0.0
    }
    pad_h: 0
    pad_w: 0
    kernel_h: 1
    kernel_w: 1
    stride_h: 1
    stride_w: 1
  }
}
layer {
  name: "v2_inception_resnet_c_3_path1_1x1_bn"
  type: "BN"
  bottom: "v2_inception_resnet_c_3_path1_1x1"
  top: "v2_inception_resnet_c_3_path1_1x1_bn"
  param {
    name: "lxx_label"
    lr_mult: 1.0
    decay_mult: 0.0
  }
  param {
    name: "lxx_label"
    lr_mult: 1.0
    decay_mult: 0.0
  }
  param {
    name: "lxx_label"
  }
  param {
    name: "lxx_label"
  }
  bn_param {
    frozen: true
    slope_filler {
      type: "constant"
      value: 1.0
    }
    bias_filler {
      type: "constant"
      value: 0.0
    }
  }
}
layer {
  name: "v2_inception_resnet_c_3_path1_1x1_relu"
  type: "ReLU"
  bottom: "v2_inception_resnet_c_3_path1_1x1_bn"
  top: "v2_inception_resnet_c_3_path1_1x1_bn"
}
layer {
  name: "v2_inception_resnet_c_3_path1_1x3"
  type: "Convolution"
  bottom: "v2_inception_resnet_c_3_path1_1x1_bn"
  top: "v2_inception_resnet_c_3_path1_1x3"
  param {
    name: "lxx_label"
    lr_mult: 1.0
    decay_mult: 1.0
  }
  convolution_param {
    num_output: 224
    bias_term: false
    weight_filler {
      type: "xavier"
    }
    bias_filler {
      type: "constant"
      value: 0.0
    }
    pad_h: 0
    pad_w: 4
    kernel_h: 1
    kernel_w: 3
    dilation: 4
    stride_h: 1
    stride_w: 1
  }
}
layer {
  name: "v2_inception_resnet_c_3_path1_1x3_bn"
  type: "BN"
  bottom: "v2_inception_resnet_c_3_path1_1x3"
  top: "v2_inception_resnet_c_3_path1_1x3_bn"
  param {
    name: "lxx_label"
    lr_mult: 1.0
    decay_mult: 0.0
  }
  param {
    name: "lxx_label"
    lr_mult: 1.0
    decay_mult: 0.0
  }
  param {
    name: "lxx_label"
  }
  param {
    name: "lxx_label"
  }
  bn_param {
    frozen: true
    slope_filler {
      type: "constant"
      value: 1.0
    }
    bias_filler {
      type: "constant"
      value: 0.0
    }
  }
}
layer {
  name: "v2_inception_resnet_c_3_path1_1x3_relu"
  type: "ReLU"
  bottom: "v2_inception_resnet_c_3_path1_1x3_bn"
  top: "v2_inception_resnet_c_3_path1_1x3_bn"
}
layer {
  name: "v2_inception_resnet_c_3_path1_3x1"
  type: "Convolution"
  bottom: "v2_inception_resnet_c_3_path1_1x3_bn"
  top: "v2_inception_resnet_c_3_path1_3x1"
  param {
    name: "lxx_label"
    lr_mult: 1.0
    decay_mult: 1.0
  }
  convolution_param {
    num_output: 256
    bias_term: false
    weight_filler {
      type: "xavier"
    }
    bias_filler {
      type: "constant"
      value: 0.0
    }
    pad_h: 4
    pad_w: 0
    kernel_h: 3
    kernel_w: 1
    dilation: 4
    stride_h: 1
    stride_w: 1
  }
}
layer {
  name: "v2_inception_resnet_c_3_path1_3x1_bn"
  type: "BN"
  bottom: "v2_inception_resnet_c_3_path1_3x1"
  top: "v2_inception_resnet_c_3_path1_3x1_bn"
  param {
    name: "lxx_label"
    lr_mult: 1.0
    decay_mult: 0.0
  }
  param {
    name: "lxx_label"
    lr_mult: 1.0
    decay_mult: 0.0
  }
  param {
    name: "lxx_label"
  }
  param {
    name: "lxx_label"
  }
  bn_param {
    frozen: true
    slope_filler {
      type: "constant"
      value: 1.0
    }
    bias_filler {
      type: "constant"
      value: 0.0
    }
  }
}
layer {
  name: "v2_inception_resnet_c_3_path1_3x1_relu"
  type: "ReLU"
  bottom: "v2_inception_resnet_c_3_path1_3x1_bn"
  top: "v2_inception_resnet_c_3_path1_3x1_bn"
}
layer {
  name: "v2_inception_resnet_c_3_path2_1x1"
  type: "Convolution"
  bottom: "v2_inception_resnet_c_2_elt"
  top: "v2_inception_resnet_c_3_path2_1x1"
  param {
    name: "lxx_label"
    lr_mult: 1.0
    decay_mult: 1.0
  }
  convolution_param {
    num_output: 192
    bias_term: false
    weight_filler {
      type: "xavier"
    }
    bias_filler {
      type: "constant"
      value: 0.0
    }
    pad_h: 0
    pad_w: 0
    kernel_h: 1
    kernel_w: 1
    stride_h: 1
    stride_w: 1
  }
}
layer {
  name: "v2_inception_resnet_c_3_path2_1x1_bn"
  type: "BN"
  bottom: "v2_inception_resnet_c_3_path2_1x1"
  top: "v2_inception_resnet_c_3_path2_1x1_bn"
  param {
    name: "lxx_label"
    lr_mult: 1.0
    decay_mult: 0.0
  }
  param {
    name: "lxx_label"
    lr_mult: 1.0
    decay_mult: 0.0
  }
  param {
    name: "lxx_label"
  }
  param {
    name: "lxx_label"
  }
  bn_param {
    frozen: true
    slope_filler {
      type: "constant"
      value: 1.0
    }
    bias_filler {
      type: "constant"
      value: 0.0
    }
  }
}
layer {
  name: "v2_inception_resnet_c_3_path2_1x1_relu"
  type: "ReLU"
  bottom: "v2_inception_resnet_c_3_path2_1x1_bn"
  top: "v2_inception_resnet_c_3_path2_1x1_bn"
}
layer {
  name: "v2_inception_resnet_c_3_concat"
  type: "Concat"
  bottom: "v2_inception_resnet_c_3_path1_3x1_bn"
  bottom: "v2_inception_resnet_c_3_path2_1x1_bn"
  top: "v2_inception_resnet_c_3_concat"
}
layer {
  name: "v2_inception_resnet_c_3_conv_1x1"
  type: "Convolution"
  bottom: "v2_inception_resnet_c_3_concat"
  top: "v2_inception_resnet_c_3_conv_1x1"
  param {
    name: "lxx_label"
    lr_mult: 1.0
    decay_mult: 1.0
  }
  convolution_param {
    num_output: 2048
    bias_term: false
    weight_filler {
      type: "xavier"
    }
    bias_filler {
      type: "constant"
      value: 0.0
    }
    pad_h: 0
    pad_w: 0
    kernel_h: 1
    kernel_w: 1
    stride_h: 1
    stride_w: 1
  }
}
layer {
  name: "v2_inception_resnet_c_3_conv_1x1_bn"
  type: "BN"
  bottom: "v2_inception_resnet_c_3_conv_1x1"
  top: "v2_inception_resnet_c_3_conv_1x1_bn"
  param {
    name: "lxx_label"
    lr_mult: 1.0
    decay_mult: 0.0
  }
  param {
    name: "lxx_label"
    lr_mult: 1.0
    decay_mult: 0.0
  }
  param {
    name: "lxx_label"
  }
  param {
    name: "lxx_label"
  }
  bn_param {
    frozen: true
    slope_filler {
      type: "constant"
      value: 1.0
    }
    bias_filler {
      type: "constant"
      value: 0.0
    }
  }
}
layer {
  name: "v2_inception_resnet_c_3_elt"
  type: "Eltwise"
  bottom: "v2_inception_resnet_c_2_elt"
  bottom: "v2_inception_resnet_c_3_conv_1x1_bn"
  top: "v2_inception_resnet_c_3_elt"
  eltwise_param {
    operation: SUM
    coeff: 1
    coeff: 0.3
  }
}
layer {
  name: "v2_inception_resnet_c_3_relu"
  type: "ReLU"
  bottom: "v2_inception_resnet_c_3_elt"
  top: "v2_inception_resnet_c_3_elt"
}
layer {
  name: "v2_inception_resnet_c_4_path1_1x1"
  type: "Convolution"
  bottom: "v2_inception_resnet_c_3_elt"
  top: "v2_inception_resnet_c_4_path1_1x1"
  param {
    name: "lxx_label"
    lr_mult: 1.0
    decay_mult: 1.0
  }
  convolution_param {
    num_output: 192
    bias_term: false
    weight_filler {
      type: "xavier"
    }
    bias_filler {
      type: "constant"
      value: 0.0
    }
    pad_h: 0
    pad_w: 0
    kernel_h: 1
    kernel_w: 1
    stride_h: 1
    stride_w: 1
  }
}
layer {
  name: "v2_inception_resnet_c_4_path1_1x1_bn"
  type: "BN"
  bottom: "v2_inception_resnet_c_4_path1_1x1"
  top: "v2_inception_resnet_c_4_path1_1x1_bn"
  param {
    name: "lxx_label"
    lr_mult: 1.0
    decay_mult: 0.0
  }
  param {
    name: "lxx_label"
    lr_mult: 1.0
    decay_mult: 0.0
  }
  param {
    name: "lxx_label"
  }
  param {
    name: "lxx_label"
  }
  bn_param {
    frozen: true
    slope_filler {
      type: "constant"
      value: 1.0
    }
    bias_filler {
      type: "constant"
      value: 0.0
    }
  }
}
layer {
  name: "v2_inception_resnet_c_4_path1_1x1_relu"
  type: "ReLU"
  bottom: "v2_inception_resnet_c_4_path1_1x1_bn"
  top: "v2_inception_resnet_c_4_path1_1x1_bn"
}
layer {
  name: "v2_inception_resnet_c_4_path1_1x3"
  type: "Convolution"
  bottom: "v2_inception_resnet_c_4_path1_1x1_bn"
  top: "v2_inception_resnet_c_4_path1_1x3"
  param {
    name: "lxx_label"
    lr_mult: 1.0
    decay_mult: 1.0
  }
  convolution_param {
    num_output: 224
    bias_term: false
    weight_filler {
      type: "xavier"
    }
    bias_filler {
      type: "constant"
      value: 0.0
    }
    pad_h: 0
    pad_w: 4
    kernel_h: 1
    kernel_w: 3
    dilation: 4
    stride_h: 1
    stride_w: 1
  }
}
layer {
  name: "v2_inception_resnet_c_4_path1_1x3_bn"
  type: "BN"
  bottom: "v2_inception_resnet_c_4_path1_1x3"
  top: "v2_inception_resnet_c_4_path1_1x3_bn"
  param {
    name: "lxx_label"
    lr_mult: 1.0
    decay_mult: 0.0
  }
  param {
    name: "lxx_label"
    lr_mult: 1.0
    decay_mult: 0.0
  }
  param {
    name: "lxx_label"
  }
  param {
    name: "lxx_label"
  }
  bn_param {
    frozen: true
    slope_filler {
      type: "constant"
      value: 1.0
    }
    bias_filler {
      type: "constant"
      value: 0.0
    }
  }
}
layer {
  name: "v2_inception_resnet_c_4_path1_1x3_relu"
  type: "ReLU"
  bottom: "v2_inception_resnet_c_4_path1_1x3_bn"
  top: "v2_inception_resnet_c_4_path1_1x3_bn"
}
layer {
  name: "v2_inception_resnet_c_4_path1_3x1"
  type: "Convolution"
  bottom: "v2_inception_resnet_c_4_path1_1x3_bn"
  top: "v2_inception_resnet_c_4_path1_3x1"
  param {
    name: "lxx_label"
    lr_mult: 1.0
    decay_mult: 1.0
  }
  convolution_param {
    num_output: 256
    bias_term: false
    weight_filler {
      type: "xavier"
    }
    bias_filler {
      type: "constant"
      value: 0.0
    }
    pad_h: 4
    pad_w: 0
    kernel_h: 3
    kernel_w: 1
    dilation: 4
    stride_h: 1
    stride_w: 1
  }
}
layer {
  name: "v2_inception_resnet_c_4_path1_3x1_bn"
  type: "BN"
  bottom: "v2_inception_resnet_c_4_path1_3x1"
  top: "v2_inception_resnet_c_4_path1_3x1_bn"
  param {
    name: "lxx_label"
    lr_mult: 1.0
    decay_mult: 0.0
  }
  param {
    name: "lxx_label"
    lr_mult: 1.0
    decay_mult: 0.0
  }
  param {
    name: "lxx_label"
  }
  param {
    name: "lxx_label"
  }
  bn_param {
    frozen: true
    slope_filler {
      type: "constant"
      value: 1.0
    }
    bias_filler {
      type: "constant"
      value: 0.0
    }
  }
}
layer {
  name: "v2_inception_resnet_c_4_path1_3x1_relu"
  type: "ReLU"
  bottom: "v2_inception_resnet_c_4_path1_3x1_bn"
  top: "v2_inception_resnet_c_4_path1_3x1_bn"
}
layer {
  name: "v2_inception_resnet_c_4_path2_1x1"
  type: "Convolution"
  bottom: "v2_inception_resnet_c_3_elt"
  top: "v2_inception_resnet_c_4_path2_1x1"
  param {
    name: "lxx_label"
    lr_mult: 1.0
    decay_mult: 1.0
  }
  convolution_param {
    num_output: 192
    bias_term: false
    weight_filler {
      type: "xavier"
    }
    bias_filler {
      type: "constant"
      value: 0.0
    }
    pad_h: 0
    pad_w: 0
    kernel_h: 1
    kernel_w: 1
    stride_h: 1
    stride_w: 1
  }
}
layer {
  name: "v2_inception_resnet_c_4_path2_1x1_bn"
  type: "BN"
  bottom: "v2_inception_resnet_c_4_path2_1x1"
  top: "v2_inception_resnet_c_4_path2_1x1_bn"
  param {
    name: "lxx_label"
    lr_mult: 1.0
    decay_mult: 0.0
  }
  param {
    name: "lxx_label"
    lr_mult: 1.0
    decay_mult: 0.0
  }
  param {
    name: "lxx_label"
  }
  param {
    name: "lxx_label"
  }
  bn_param {
    frozen: true
    slope_filler {
      type: "constant"
      value: 1.0
    }
    bias_filler {
      type: "constant"
      value: 0.0
    }
  }
}
layer {
  name: "v2_inception_resnet_c_4_path2_1x1_relu"
  type: "ReLU"
  bottom: "v2_inception_resnet_c_4_path2_1x1_bn"
  top: "v2_inception_resnet_c_4_path2_1x1_bn"
}
layer {
  name: "v2_inception_resnet_c_4_concat"
  type: "Concat"
  bottom: "v2_inception_resnet_c_4_path1_3x1_bn"
  bottom: "v2_inception_resnet_c_4_path2_1x1_bn"
  top: "v2_inception_resnet_c_4_concat"
}
layer {
  name: "v2_inception_resnet_c_4_conv_1x1"
  type: "Convolution"
  bottom: "v2_inception_resnet_c_4_concat"
  top: "v2_inception_resnet_c_4_conv_1x1"
  param {
    name: "lxx_label"
    lr_mult: 1.0
    decay_mult: 1.0
  }
  convolution_param {
    num_output: 2048
    bias_term: false
    weight_filler {
      type: "xavier"
    }
    bias_filler {
      type: "constant"
      value: 0.0
    }
    pad_h: 0
    pad_w: 0
    kernel_h: 1
    kernel_w: 1
    stride_h: 1
    stride_w: 1
  }
}
layer {
  name: "v2_inception_resnet_c_4_conv_1x1_bn"
  type: "BN"
  bottom: "v2_inception_resnet_c_4_conv_1x1"
  top: "v2_inception_resnet_c_4_conv_1x1_bn"
  param {
    name: "lxx_label"
    lr_mult: 1.0
    decay_mult: 0.0
  }
  param {
    name: "lxx_label"
    lr_mult: 1.0
    decay_mult: 0.0
  }
  param {
    name: "lxx_label"
  }
  param {
    name: "lxx_label"
  }
  bn_param {
    frozen: true
    slope_filler {
      type: "constant"
      value: 1.0
    }
    bias_filler {
      type: "constant"
      value: 0.0
    }
  }
}
layer {
  name: "v2_inception_resnet_c_4_elt"
  type: "Eltwise"
  bottom: "v2_inception_resnet_c_3_elt"
  bottom: "v2_inception_resnet_c_4_conv_1x1_bn"
  top: "v2_inception_resnet_c_4_elt"
  eltwise_param {
    operation: SUM
    coeff: 1
    coeff: 0.3
  }
}
layer {
  name: "v2_inception_resnet_c_4_relu"
  type: "ReLU"
  bottom: "v2_inception_resnet_c_4_elt"
  top: "v2_inception_resnet_c_4_elt"
}
layer {
  name: "v2_inception_resnet_c_5_path1_1x1"
  type: "Convolution"
  bottom: "v2_inception_resnet_c_4_elt"
  top: "v2_inception_resnet_c_5_path1_1x1"
  param {
    name: "lxx_label"
    lr_mult: 1.0
    decay_mult: 1.0
  }
  convolution_param {
    num_output: 192
    bias_term: false
    weight_filler {
      type: "xavier"
    }
    bias_filler {
      type: "constant"
      value: 0.0
    }
    pad_h: 0
    pad_w: 0
    kernel_h: 1
    kernel_w: 1
    stride_h: 1
    stride_w: 1
  }
}
layer {
  name: "v2_inception_resnet_c_5_path1_1x1_bn"
  type: "BN"
  bottom: "v2_inception_resnet_c_5_path1_1x1"
  top: "v2_inception_resnet_c_5_path1_1x1_bn"
  param {
    name: "lxx_label"
    lr_mult: 1.0
    decay_mult: 0.0
  }
  param {
    name: "lxx_label"
    lr_mult: 1.0
    decay_mult: 0.0
  }
  param {
    name: "lxx_label"
  }
  param {
    name: "lxx_label"
  }
  bn_param {
    frozen: true
    slope_filler {
      type: "constant"
      value: 1.0
    }
    bias_filler {
      type: "constant"
      value: 0.0
    }
  }
}
layer {
  name: "v2_inception_resnet_c_5_path1_1x1_relu"
  type: "ReLU"
  bottom: "v2_inception_resnet_c_5_path1_1x1_bn"
  top: "v2_inception_resnet_c_5_path1_1x1_bn"
}
layer {
  name: "v2_inception_resnet_c_5_path1_1x3"
  type: "Convolution"
  bottom: "v2_inception_resnet_c_5_path1_1x1_bn"
  top: "v2_inception_resnet_c_5_path1_1x3"
  param {
    name: "lxx_label"
    lr_mult: 1.0
    decay_mult: 1.0
  }
  convolution_param {
    num_output: 224
    bias_term: false
    weight_filler {
      type: "xavier"
    }
    bias_filler {
      type: "constant"
      value: 0.0
    }
    pad_h: 0
    pad_w: 4
    kernel_h: 1
    kernel_w: 3
    dilation: 4
    stride_h: 1
    stride_w: 1
  }
}
layer {
  name: "v2_inception_resnet_c_5_path1_1x3_bn"
  type: "BN"
  bottom: "v2_inception_resnet_c_5_path1_1x3"
  top: "v2_inception_resnet_c_5_path1_1x3_bn"
  param {
    name: "lxx_label"
    lr_mult: 1.0
    decay_mult: 0.0
  }
  param {
    name: "lxx_label"
    lr_mult: 1.0
    decay_mult: 0.0
  }
  param {
    name: "lxx_label"
  }
  param {
    name: "lxx_label"
  }
  bn_param {
    frozen: true
    slope_filler {
      type: "constant"
      value: 1.0
    }
    bias_filler {
      type: "constant"
      value: 0.0
    }
  }
}
layer {
  name: "v2_inception_resnet_c_5_path1_1x3_relu"
  type: "ReLU"
  bottom: "v2_inception_resnet_c_5_path1_1x3_bn"
  top: "v2_inception_resnet_c_5_path1_1x3_bn"
}
layer {
  name: "v2_inception_resnet_c_5_path1_3x1"
  type: "Convolution"
  bottom: "v2_inception_resnet_c_5_path1_1x3_bn"
  top: "v2_inception_resnet_c_5_path1_3x1"
  param {
    name: "lxx_label"
    lr_mult: 1.0
    decay_mult: 1.0
  }
  convolution_param {
    num_output: 256
    bias_term: false
    weight_filler {
      type: "xavier"
    }
    bias_filler {
      type: "constant"
      value: 0.0
    }
    pad_h: 4
    pad_w: 0
    kernel_h: 3
    kernel_w: 1
    dilation: 4
    stride_h: 1
    stride_w: 1
  }
}
layer {
  name: "v2_inception_resnet_c_5_path1_3x1_bn"
  type: "BN"
  bottom: "v2_inception_resnet_c_5_path1_3x1"
  top: "v2_inception_resnet_c_5_path1_3x1_bn"
  param {
    name: "lxx_label"
    lr_mult: 1.0
    decay_mult: 0.0
  }
  param {
    name: "lxx_label"
    lr_mult: 1.0
    decay_mult: 0.0
  }
  param {
    name: "lxx_label"
  }
  param {
    name: "lxx_label"
  }
  bn_param {
    frozen: true
    slope_filler {
      type: "constant"
      value: 1.0
    }
    bias_filler {
      type: "constant"
      value: 0.0
    }
  }
}
layer {
  name: "v2_inception_resnet_c_5_path1_3x1_relu"
  type: "ReLU"
  bottom: "v2_inception_resnet_c_5_path1_3x1_bn"
  top: "v2_inception_resnet_c_5_path1_3x1_bn"
}
layer {
  name: "v2_inception_resnet_c_5_path2_1x1"
  type: "Convolution"
  bottom: "v2_inception_resnet_c_4_elt"
  top: "v2_inception_resnet_c_5_path2_1x1"
  param {
    name: "lxx_label"
    lr_mult: 1.0
    decay_mult: 1.0
  }
  convolution_param {
    num_output: 192
    bias_term: false
    weight_filler {
      type: "xavier"
    }
    bias_filler {
      type: "constant"
      value: 0.0
    }
    pad_h: 0
    pad_w: 0
    kernel_h: 1
    kernel_w: 1
    stride_h: 1
    stride_w: 1
  }
}
layer {
  name: "v2_inception_resnet_c_5_path2_1x1_bn"
  type: "BN"
  bottom: "v2_inception_resnet_c_5_path2_1x1"
  top: "v2_inception_resnet_c_5_path2_1x1_bn"
  param {
    name: "lxx_label"
    lr_mult: 1.0
    decay_mult: 0.0
  }
  param {
    name: "lxx_label"
    lr_mult: 1.0
    decay_mult: 0.0
  }
  param {
    name: "lxx_label"
  }
  param {
    name: "lxx_label"
  }
  bn_param {
    frozen: true
    slope_filler {
      type: "constant"
      value: 1.0
    }
    bias_filler {
      type: "constant"
      value: 0.0
    }
  }
}
layer {
  name: "v2_inception_resnet_c_5_path2_1x1_relu"
  type: "ReLU"
  bottom: "v2_inception_resnet_c_5_path2_1x1_bn"
  top: "v2_inception_resnet_c_5_path2_1x1_bn"
}
layer {
  name: "v2_inception_resnet_c_5_concat"
  type: "Concat"
  bottom: "v2_inception_resnet_c_5_path1_3x1_bn"
  bottom: "v2_inception_resnet_c_5_path2_1x1_bn"
  top: "v2_inception_resnet_c_5_concat"
}
layer {
  name: "v2_inception_resnet_c_5_conv_1x1"
  type: "Convolution"
  bottom: "v2_inception_resnet_c_5_concat"
  top: "v2_inception_resnet_c_5_conv_1x1"
  param {
    name: "lxx_label"
    lr_mult: 1.0
    decay_mult: 1.0
  }
  convolution_param {
    num_output: 2048
    bias_term: false
    weight_filler {
      type: "xavier"
    }
    bias_filler {
      type: "constant"
      value: 0.0
    }
    pad_h: 0
    pad_w: 0
    kernel_h: 1
    kernel_w: 1
    stride_h: 1
    stride_w: 1
  }
}
layer {
  name: "v2_inception_resnet_c_5_conv_1x1_bn"
  type: "BN"
  bottom: "v2_inception_resnet_c_5_conv_1x1"
  top: "v2_inception_resnet_c_5_conv_1x1_bn"
  param {
    name: "lxx_label"
    lr_mult: 1.0
    decay_mult: 0.0
  }
  param {
    name: "lxx_label"
    lr_mult: 1.0
    decay_mult: 0.0
  }
  param {
    name: "lxx_label"
  }
  param {
    name: "lxx_label"
  }
  bn_param {
    frozen: true
    slope_filler {
      type: "constant"
      value: 1.0
    }
    bias_filler {
      type: "constant"
      value: 0.0
    }
  }
}
layer {
  name: "v2_inception_resnet_c_5_elt"
  type: "Eltwise"
  bottom: "v2_inception_resnet_c_4_elt"
  bottom: "v2_inception_resnet_c_5_conv_1x1_bn"
  top: "v2_inception_resnet_c_5_elt"
  eltwise_param {
    operation: SUM
    coeff: 1
    coeff: 0.3
  }
}
layer {
  name: "v2_inception_resnet_c_5_relu"
  type: "ReLU"
  bottom: "v2_inception_resnet_c_5_elt"
  top: "v2_inception_resnet_c_5_elt"
}
layer {
  name: "v2_dropout"
  type: "Dropout"
  bottom: "v2_inception_resnet_c_5_elt"
  top: "v2_inception_resnet_c_5_elt"
  dropout_param {
    dropout_ratio: 0.1
  }
}
#################################

#################################

layer {
  name: "v2_fc_VOC"
  type: "Convolution"
  bottom: "v2_inception_resnet_c_5_elt"
  top: "v2_fc_VOC"
  param {
    name: "lxx_label"
    lr_mult: 10
    decay_mult: 10
  }
  param {
    name: "lxx_label"
    lr_mult: 20
    decay_mult: 0
  }
  convolution_param {
    num_output: 21
    kernel_size: 3
    pad: 1
    weight_filler {
      type: "xavier"
    }
    bias_filler {
      type: "constant"
      value: 0.0
    }
  }
}
layer {
  name: "v2_upscore"
  type: "Deconvolution"
  bottom: "v2_fc_VOC"
  top: "v2_upscore"
  param {
    name: "lxx_label"
    lr_mult: 0
  }
  convolution_param {
    num_output: 21
    bias_term: false
    pad: 4
    kernel_size: 16
    group: 21
    stride: 8
    weight_filler {
      type: "bilinear"
    }
  }
}

layer {
  name: "v2_loss"
  type: "SoftmaxWithLoss"
  bottom: "v2_upscore"
  bottom: "v2_label"
  top: "v2_loss"
  loss_param {
    ignore_label: 255
    hm_ratio: 0.5
  }
}
